para_save2/00007params.pth (torch, 155394 bytes, 97 tensors)

A_embd.linears.0.weight f4 [32, 12]
000000 33 97 b6 bd 6e 6c 0a 3d dc 7d f2 3c 64 30 cd 3c
       -0.08915558 0.033794813 0.02960103 0.025047489
000010 eb e7 1a 3d 96 95 b3 3a 55 8f e9 bd d9 ea 2f 3e
       0.03781883 0.0013701196 -0.114042915 0.17179431
000020 68 f7 49 3d 20 50 d2 bd 86 e1 77 bd f7 df ae 3c
       0.04930821 -0.10269189 -0.06051781 0.02134703
000030 f6 30 3b 3c 88 98 33 3d 46 2a a1 3c 27 d8 a7 bd
       0.011425247 0.043846637 0.019673478 -0.08195525
000040 fc 77 1c 3c 8d 74 52 bd 97 92 8c 3d 8f ca 6e 3c
       0.009550091 -0.051380683 0.06863897 0.014574661
000050 46 36 2c bc c1 dc 40 3d 9c 19 25 be 1e 77 ab bd
       -0.010510987 0.047085527 -0.1612305 -0.08372329
000060 c2 4f 80 bd 94 36 72 3d d5 c9 1a be 7b 99 13 bd
       -0.062652126 0.05913408 -0.15116055 -0.036035042
000070 e2 7f 11 bd f9 a6 63 be 04 a4 28 3e 43 1f a8 3d
       -0.03552235 -0.22231664 0.16468817 0.08209088
000080 c5 f3 b1 3d 93 60 eb 3d 39 ac 3b bc b6 dd d8 bd
       0.086890735 0.114930294 -0.011454635 -0.10589163
000090 c6 31 ec bd 4b ee c9 3d 1b 48 21 be 8d ab cb bd
       -0.11532931 0.09859904 -0.15750162 -0.0994483
0000a0 73 e1 37 bb dd 4e 49 be e0 03 15 be 1a 78 fc 3c
       -0.0028057962 -0.1965899 -0.1455226 0.030818988
0000b0 65 fd 88 3d 6b d0 62 3d ab 9c 0f bd 40 e3 ae 3d
       0.06688956 0.055374544 -0.03506152 0.08539438
0000c0 e0 27 71 be e8 a3 c0 3d 0e 4d 24 be 90 4e 39 bd
       -0.23550367 0.09406263 -0.16045019 -0.04524094
0000d0 c9 a1 ab bc 86 50 95 3c 96 a6 89 3c b0 85 37 3e
       -0.020951169 0.018226873 0.016803067 0.17922091
0000e0 e9 5a bb 3c 3f 97 29 be f7 61 d9 bd 20 5e 3f b9
       0.022870498 -0.16561602 -0.106143884 -0.00018250244
0000f0 9e 8d 95 bd 8d b2 33 3e e6 67 fd 3b 7e 9c 29 3a
       -0.07302402 0.1754858 0.007733333 0.00064701575
000100 7f 57 ec 3d f0 54 ca 3d 9c 6f a2 3c 39 1a ed bc
       0.11540126 0.09879482 0.01982861 -0.028943168
000110 5c a2 1c be 5a 08 af 3d 7c a6 2b 3a d1 68 14 3d
       -0.1529631 0.08546515 0.00065479404 0.036232773
000120 0d 0f e1 3d 6b b5 92 bd d9 be 01 3d dc 01 ac bd
       0.10989199 -0.07163509 0.031676147 -0.08398792
000130 71 ae f4 3d c6 44 58 3c 5a 00 1a 3e 22 8a 02 3e
       0.119473346 0.013199991 0.15039197 0.12748006
000140 e9 c9 33 bc aa 2c 06 3e f4 67 db bd df 3b 0c be
       -0.010973432 0.13102975 -0.10713187 -0.13694714
000150 9a 5e 67 3a 74 11 f9 bc a8 0a f4 bc c2 fa 94 3d
       0.00088260474 -0.03040383 -0.029790238 0.07274391
000160 9c 7e cd bb 01 8b ab 3d f7 be 80 bd 3f 08 55 3d
       -0.0062711965 0.08376122 -0.06286424 0.052009817
000170 9e e3 1e 3d 35 1b f3 bd 06 bb 0a be ed 9c 0d be
       0.03879129 -0.11870424 -0.13547906 -0.13829394
000180 47 94 15 3e 7e 33 f0 3d 7a 20 a3 3c f7 61 90 3d
       0.14607345 0.11728571 0.019912947 0.07049935
000190 c2 5c 70 bb dc f0 4f bc 39 86 ad 3d c7 5d a1 3d
       -0.0036676382 -0.012691703 0.084728666 0.07879215
0001a0 2f 58 e6 3d 98 a4 88 bd b8 4b fd bd 50 c2 17 3d
       0.112472884 -0.06672019 -0.12367958 0.037050545
0001b0 57 f3 df 3d c5 df 8f bd de 79 be 3d d9 78 90 3d
       0.10935085 -0.070251025 0.09300588 0.070543
0001c0 3c de 29 3e 0d 09 ae bd 9e 74 bb 3d db ae 20 bc
       0.16588682 -0.0849782 0.09153102 -0.009807314
0001d0 0d 02 ed bc 84 ef 43 3e 53 2c 08 3e 21 d1 0b be
       -0.028931642 0.19134337 0.13298158 -0.13653995
0001e0 83 a9 47 3e 76 9f e4 37 d2 77 4b bd d8 f4 46 bd
       0.19498257 2.7253973e-05 -0.049674816 -0.048573345
0001f0 95 b8 c9 bd c7 b2 40 bc 64 82 2b 3a 86 db c8 3d
       -0.09849659 -0.011761374 0.0006542562 0.09807496
000200 a6 1c e2 bc 1f f0 a3 bc 8d b1 cb 3d 52 3d 09 3d
       -0.027601551 -0.02001196 0.099459745 0.033505745
000210 a2 bf 89 bd b0 fd b8 bd 8d 4d e6 3d 3b 03 8d bd
       -0.06726004 -0.09032762 0.112452604 -0.06885382
000220 41 f5 ce bd e2 85 75 ba f9 d7 97 bd bb aa 28 be
       -0.10105372 -0.00093659584 -0.074142404 -0.16471379
000230 5c 31 99 3d c1 53 32 bd bb cd 99 3c 36 7c 7f bd
       0.07480118 -0.043536905 0.018774858 -0.062374316
000240 5b ca 19 3d ec 78 c1 3d 88 76 b9 3d c0 94 4f 3e
       0.037546497 0.09446892 0.09055811 0.20271587
000250 75 6d af 3d fe 56 38 bd 84 6c a6 b9 ff f1 e5 bc
       0.08565799 -0.045004837 -0.00031742838 -0.028069494
000260 7f 34 04 3e 30 6e d2 bd 9e b7 e6 bc 02 1b 90 bd
       0.1291065 -0.10274923 -0.028163727 -0.07036401
000270 3d 6f 34 be 8a fb f5 bd 35 61 2a 3d 17 d1 33 bc
       -0.17620559 -0.12010868 0.04159661 -0.010975144
000280 39 d8 8b 3e bb b9 54 3d 5b a2 2a 3c 12 2f 95 bd
       0.27313402 0.05193494 0.010414685 -0.072843686
000290 eb 5e ca bd a9 0f 91 bd a0 36 8d bd 89 88 d6 bd
       -0.098813854 -0.07083065 -0.068951845 -0.10475261
0002a0 a1 50 21 be a2 8d 15 3d 05 be d4 3c 0e c3 ee 3d
       -0.15753414 0.036512025 0.025969515 0.116582975
0002b0 82 6b 7f b9 ba cb 1b bd cf 94 6b 3c 68 db a3 bd
       -0.00024358745 -0.038036086 0.01437874 -0.08000833
0002c0 79 f9 79 3d 92 ef f3 ba c4 ed 88 bd 7a 87 13 3e
       0.06102893 -0.0018610826 -0.06685975 0.14407149
0002d0 de 63 2c bc a4 8c 10 3e a9 6d 66 3d 4c 48 78 3d
       -0.010521857 0.1411615 0.056256924 0.060615823
0002e0 bc 25 ed 3d 7c 37 d8 3b 3a 1c 7c 3d 04 e8 19 bc
       0.11579463 0.006598411 0.061550356 -0.009393696
0002f0 23 5f 81 bc 60 65 ae 3d 68 90 c9 bc 43 a2 09 3e
       -0.015792435 0.085154295 -0.024604991 0.13440804
000300 7c 0f d3 bd db dd a0 3c d6 6a f6 3d f9 1c 79 3d
       -0.10305688 0.019637039 0.12032096 0.060818646
000310 bd 25 94 3d 91 78 b6 3d c9 ad 85 3d 97 5c c2 3d
       0.072337605 0.08909715 0.065272875 0.09490316
000320 3e 02 1d be 6a cf 77 3d 43 dd 84 be 32 65 02 bd
       -0.15332887 0.06050054 -0.2595006 -0.03183479
000330 a7 93 91 3d 10 f3 b8 3c ee 8e fb 3c 5a db a7 bd
       0.071082406 0.022576839 0.030707803 -0.08196135
000340 12 e5 89 3d 62 e3 98 bb 6f 0e 10 3e f8 d6 64 3d
       0.06733145 -0.004665778 0.14068006 0.055869073
000350 da e0 1b 3e 85 f8 ca 3c 49 81 64 bd 8f 09 99 3b
       0.15222493 0.024776706 -0.05578736 0.004670329
000360 2a 34 4d 3d 06 d4 bc bd 0d a5 4a 3d 5b 1b df bd
       0.050098576 -0.09220128 0.04947381 -0.108938895
000370 4a b9 6e 3c 79 2c b1 3c 48 ab 1b 3e dc 04 45 3d
       0.014570544 0.021627652 0.15202057 0.048100337
000380 4a 89 f7 3d 50 59 20 3c cd 70 bf 3c ee b4 31 be
       0.12086733 0.009786919 0.023369217 -0.17354175
000390 00 98 9d 3d cf e9 d9 3c 4d dd d2 bd d6 34 1b 3d
       0.07695007 0.026600746 -0.10296116 0.037892185
0003a0 1a d1 55 be 4f 04 2d 3e e7 fa c5 bc ee b1 dd 3d
       -0.20880547 0.16896175 -0.024167491 0.10824953
0003b0 25 04 16 3d 64 87 aa ba 04 b9 97 3d a8 45 1e bd
       0.036625046 -0.001301032 0.07408336 -0.038640648
0003c0 04 2d 8b 3d 75 40 41 3d 67 65 39 bc 26 f8 9f bd
       0.067956954 0.04718061 -0.01131568 -0.078110024
0003d0 e4 9e e6 3d e2 2b 93 3d a3 de 85 3d a1 d7 7f bd
       0.11260775 0.07186104 0.06536605 -0.0624615
0003e0 7e a7 5d bc 18 b9 3a bd 6b 94 0f 3e e4 01 b1 bd
       -0.013528703 -0.045586675 0.1402146 -0.08642939
0003f0 ff 56 0e bc 4c b3 be 3c 7d 83 11 3e 9a 4e 0b 3c
       -0.008687734 0.023278855 0.14210315 0.008502627

A_embd.linears.0.bias f4 [32]
000000 2e 3b 7b bd ab 60 83 bd 23 a4 2d bd 50 4a 0b bd
       -0.061335735 -0.06414922 -0.04239286 -0.034006417
000010 4b 67 20 3d 7d 3d 8d 3d b0 7c 88 38 cd 0b b1 3d
       0.039161008 0.068964936 6.50821e-05 0.08644829
000020 48 8b 45 3d cc 9d b0 b9 21 ac 07 bd a8 94 63 bd
       0.048228532 -0.00033686904 -0.03312314 -0.05556169
000030 47 71 67 bc 5c f1 e5 3a 5f d0 59 bd ee db 8e bd
       -0.0141261285 0.0017543244 -0.053177234 -0.06975542
000040 f2 03 1c bd 2a aa ba 3d be 09 0f bd 18 3d 85 3c
       -0.0380897 0.091144875 -0.0349214 0.016264483
000050 2e a4 5f 3c 9b 52 96 3d 5b 98 2d bd b7 25 5f 3c
       0.013649983 0.073399745 -0.042381626 0.013619832
000060 07 e9 85 3d 2a f5 ab bd 81 63 93 bc 6a 2c c8 ba
       0.06538587 -0.08396371 -0.017991783 -0.0015272025
000070 72 a5 a9 bd 9b 9c 22 3c 3e b1 53 3a 28 67 f4 3c
       -0.08283509 0.009925033 0.00080754224 0.029834345

A_embd.linears.1.weight f4 [32, 32]
000000 48 9f 15 3e 5c 3f a7 bc 8a d7 77 ba a8 df b8 3d
       0.14611542 -0.020415954 -0.000945442 0.09027034
000010 5c fc 1d bd 7d 9d 7a be 16 5f 1a be 99 93 f2 bd
       -0.038570747 -0.2447414 -0.15075335 -0.11844558
000020 ea 7a a8 3d 64 21 67 3d 2b 35 16 be 85 80 b1 bc
       0.08226569 0.05642833 -0.1466872 -0.021667728
000030 41 8c 86 ba 6e 77 e0 bc 54 8a 76 bd d1 4b f0 bc
       -0.0010265188 -0.027400699 -0.060190514 -0.029333027
000040 ad 0d c4 3d 81 d1 e6 bc 2d e1 8d bc 90 a7 42 3d
       0.09572921 -0.028176071 -0.017319286 0.04752308
000050 47 55 c3 3d 87 b3 a5 bd bc c9 a6 bc e8 5c 5b ba
       0.0953775 -0.08090883 -0.020359866 -0.0008368031
000060 ae c0 7c 3c 4e 29 26 3e 27 b1 0b 3d 19 97 07 3d
       0.015426798 0.16226694 0.034104493 0.033103082
000070 20 7b f2 bd ad 48 c6 bd 80 05 89 bc fa 07 1f 3d
       -0.118398905 -0.096818306 -0.016726255 0.038825966
000080 89 29 cc 3d 63 3e ae bd 21 17 32 3d 31 9f 09 3d
       0.0996886 -0.08507993 0.04347909 0.033599082
000090 43 e5 0e 3e 55 1c f7 bd 6a e6 10 bc 89 a6 87 3c
       0.13954644 -0.12065951 -0.0088439975 0.016558902
0000a0 5a 36 2f ba 86 aa 6b 3a 53 14 fe 3d 49 5d b9 3c
       -0.0006683819 0.00089899485 0.1240622 0.02262749
0000b0 54 4a 74 3d 51 91 ad bc 44 3a 4f 3d 63 65 68 3a
       0.059641197 -0.021187456 0.050592676 0.00088652055
0000c0 a8 07 97 b8 fe 74 10 3e 7c 6b 01 bc 8b 9e d8 3d
       -7.201667e-05 0.14107129 -0.007899161 0.10577115
0000d0 e7 f5 1c bd 55 16 52 3d 11 d0 a3 3d 9b 66 e2 3d
       -0.03832045 0.05129083 0.0799867 0.11054727
0000e0 d5 d6 33 ba 7a 33 08 bd c5 d5 bc 3d 11 14 c3 bc
       -0.00068603206 -0.033252217 0.09220461 -0.02381328
0000f0 09 9f a7 3d fa 6a 03 3e 5e 03 ea bd 81 6c 6e be
       0.081846304 0.12833777 -0.114264235 -0.23283578
000100 b7 7f f3 3d 28 0b 2e be 19 39 5a 3a 63 cb bc 3d
       0.11889594 -0.16996443 0.0008324548 0.092184804
000110 74 9c 77 3a d8 88 18 be 3e 72 1a be 71 8e 7f 3c
       0.00094456156 -0.14895952 -0.15082642 0.0155979255
000120 71 1c f8 bc 7c 31 70 bd 3b 18 12 be fe 29 94 3b
       -0.030287 -0.058640942 -0.14267056 0.0045216074
000130 ef d2 2d bc 19 a2 b2 3d ea 84 c7 3a 8c dd 90 3d
       -0.0106093725 0.08722324 0.0015222107 0.07073507
000140 06 78 33 bd c1 9d d3 bd fd 70 d4 3d 4c 8e 9e 3d
       -0.043815635 -0.103328235 0.10373113 0.07741985
000150 93 c2 bd 3c 00 2a e2 bc 50 bc a8 bd cf 7d 10 bd
       0.02316407 -0.027607918 -0.08239043 -0.03527623
000160 db 63 09 3e 16 56 74 3d bc 00 89 3d b5 5e fd bd
       0.13416998 0.05965241 0.06689593 -0.123715796
000170 76 72 4b bc 05 7e 5c bd 01 94 6e 3c 88 ac 03 3d
       -0.012417426 -0.05383112 0.014561654 0.03214696
000180 fd dc f0 3d 42 e9 d1 3d e9 de 61 3a ac 10 8e 3c
       0.117609 0.102495685 0.0008616285 0.017341934
000190 70 cf ae 3c 72 a0 85 bd fe 0c 85 3c b7 be f6 3c
       0.021339148 -0.06524743 0.016241547 0.030120237
0001a0 e6 12 c8 bd 43 20 a5 bd 18 57 de 3c f1 24 db bd
       -0.097692296 -0.08062794 0.027141139 -0.107004054
0001b0 dd 2f 52 3e 3c 20 79 3d 63 03 e8 3d d7 47 e8 bc
       0.20526071 0.060821757 0.11328771 -0.028354568
0001c0 84 95 2a 3e 9d 4e c3 b8 27 cb 87 3d e7 b2 ad 3d
       0.16658598 -9.3129674e-05 0.06630545 0.084813885
0001d0 09 d0 f9 bd 87 96 14 3d 5d e1 79 3d ee 21 00 bc
       -0.12197883 0.036276367 0.06100594 -0.0078205895
0001e0 d2 ee f2 3c a3 a1 88 bd a4 a9 8b bd dc 04 39 39
       0.029654894 -0.06671455 -0.06819466 0.00017644785
0001f0 7c 1d 4f 3a b4 a3 51 3e 1c f6 23 be fc 9b 41 3e
       0.0007900817 0.20472604 -0.16011852 0.1890716
000200 0f 81 f3 bd 87 bc 6b 3c d6 d0 6a bb c1 32 a7 bd
       -0.1188985 0.01438821 -0.0035830042 -0.081639774
000210 3e 3e 09 3e 60 9b d3 bc ff 40 84 3d fa 74 93 ba
       0.1340265 -0.025830925 0.064577095 -0.0011250072
000220 92 36 20 3e 55 39 17 3d 2b af 81 3d 88 00 a3 3d
       0.15645817 0.03691991 0.06332239 0.07959086
000230 23 55 7f bd aa 49 1f bd b7 3e 09 3e 14 75 81 3d
       -0.062337052 -0.03888861 0.1340283 0.06321159
000240 d6 86 0a 3e f5 b8 03 3d dc dd 17 bd bd 4c 67 bd
       0.13527998 0.03215881 -0.037076816 -0.056469668
000250 39 2f 21 3e 80 2d 7b 3d 32 0f f0 3d 1d d1 02 be
       0.1574067 0.06132269 0.11721648 -0.12775083
000260 d2 52 fb 3c e4 21 01 3d 75 f6 32 be 0d 41 31 3e
       0.03067914 0.03152646 -0.17476828 0.17309971
000270 9a 70 de 3d 04 36 d1 bb df b4 75 bb 46 09 96 3d
       0.10861321 -0.006384613 -0.003749184 0.073259875
000280 f2 6c 01 3d f2 46 53 bc a0 e3 d4 3d ef 2a c3 3d
       0.03159804 -0.012895333 0.103949785 0.09529673
000290 25 7d 63 3e df ea 24 be 21 ff 31 bd df 20 3e bd
       0.22215708 -0.16105221 -0.0434562 -0.046418067
0002a0 39 ad 83 3a c3 4c 0e 3c 13 38 07 be 1f 23 91 bd
       0.0010046131 0.008685294 -0.13204984 -0.07086777
0002b0 e1 94 87 3d 24 99 9e bd fd 1a 13 bb 0c 6e 1c 3e
       0.06620193 -0.07744053 -0.0022446506 0.15276355
0002c0 3a 88 42 bd 7e 7c 17 3d b7 ab cf b8 67 5f e5 bd
       -0.047493197 0.03698396 -9.9025136e-05 -0.11199837
0002d0 bb 40 39 be a7 98 e1 3c 09 c7 bd bc fe 20 7b bd
       -0.18091099 0.02753861 -0.023166196 -0.06131076
0002e0 45 24 b6 bd f3 0b a2 bc d4 de be bd 5a ab 4b bd
       -0.088936366 -0.019781088 -0.09319845 -0.04972396
0002f0 c9 8a d8 bd ab 6b 04 be 41 f9 b1 bd 74 fb 7e 3c
       -0.10573346 -0.12931697 -0.086901195 0.015562881
000300 8f 4b 3a 3d 71 de 20 bd 3d 3a 17 3e 80 1f 13 bc
       0.045482215 -0.039274637 0.1476831 -0.008979678
000310 24 35 28 3e 76 8b a7 3d db b6 ec bb 3c 9e 1f be
       0.16426522 0.08180897 -0.0072239465 -0.15587705
000320 35 b2 c9 3c 04 53 00 3d b6 90 79 bd 9e e5 27 be
       0.024621109 0.03132917 -0.060929023 -0.16396186
000330 aa 7e e9 3d c8 86 a1 3d 77 72 58 bd 16 b4 b7 3d
       0.114011124 0.078870356 -0.052843537 0.089698955
000340 da f2 b0 3b 3e 28 43 3e 97 5f 43 3e 26 8f 14 3c
       0.005400044 0.1905832 0.19079433 0.009067332
000350 64 84 cd 3d 69 ff 1e 3a 89 4a 20 3e 4f 95 d5 3c
       0.10035017 0.0006065281 0.15653433 0.026072172
000360 60 3f 2a bd aa e6 a3 3c 5a ca c6 3c 4d 07 2b 3d
       -0.041564345 0.02000745 0.02426641 0.04175501
000370 d2 d4 ba 3d 67 47 d3 3d 9e 4e 6b 3d 1e 94 82 3c
       0.091226235 0.10316353 0.057448022 0.015939768
000380 d1 51 ca 3d 4f 91 b5 3a 58 50 e5 bd e4 9f f3 3c
       0.098788865 0.001385251 -0.11196965 0.029739328
000390 3b 22 e9 bd 83 36 9f 3d fd e6 6f 3d 73 e2 38 bd
       -0.11383482 0.07774069 0.058569897 -0.045137834
0003a0 e0 0b 22 be af 96 2c be 09 f2 85 bd 28 ce 65 be
       -0.15824842 -0.16854356 -0.06540305 -0.22441924
0003b0 c7 a4 87 bc 63 66 c8 3d 18 a7 da 3b b4 e3 a1 bc
       -0.016558064 0.09785154 0.006672751 -0.019761898
0003c0 51 03 f5 3c 01 2a 26 3e 4c fb 85 bd 08 d2 43 be
       0.029908808 0.1622696 -0.06542072 -0.1912309
0003d0 16 d4 18 3e 69 e3 a7 bd 0d 2a 78 3d 7e e0 10 be
       0.14924654 -0.08197672 0.060586978 -0.14148137
0003e0 44 b6 74 ba ed 5c 99 3b 37 5d 00 be 8d 8a 69 be
       -0.0009335021 0.004680267 -0.12535559 -0.22806759
0003f0 e3 53 0c bd 12 62 11 3e 1c 57 39 3d d9 a1 c8 3d
       -0.034259688 0.14197567 0.04524909 0.09796495

A_embd.linears.1.bias f4 [32]
000000 ad 83 df 3c b3 44 73 bc a1 0a d9 3c 90 bd f2 3c
       0.027284468 -0.014847922 0.026494326 0.029631406
000010 f1 47 92 bd 58 32 6c bb f7 ea 05 3d 22 35 7c 3d
       -0.07142628 -0.003604075 0.032694783 0.06157411
000020 0a e8 54 bd d0 2c 3d 3d 53 82 b1 3d 6a 8b 1d bd
       -0.051979102 0.046185315 0.086674355 -0.038463034
000030 72 8c 9b bd b4 4e 70 bc e3 34 3f bd e4 fb 47 bd
       -0.07595147 -0.014667202 -0.046681296 -0.048824206
000040 70 a3 03 bd 8f 07 d7 3c ca d8 aa 3d 57 36 37 bd
       -0.032138288 0.026248721 0.083421305 -0.044729557
000050 19 96 d0 bc 1e ce 0c bd d5 cd e1 39 fe 27 14 bd
       -0.025462197 -0.034376256 0.000430687 -0.036170952
000060 26 fe 98 3a 5e eb 45 bd 8c 3e 41 bd 7a 46 82 bc
       0.0011672422 -0.048320167 -0.04717879 -0.015902746
000070 17 7d 45 3d 32 ce 08 3d 6d fd 31 bb 72 5a 10 bb
       0.048214998 0.03339977 -0.002715911 -0.0022026566

A_embd.linears.2.weight f4 [12, 32]
000000 0e 01 8b 3d 25 30 c8 3d f0 b0 99 bd 39 dd 34 bc
       0.067873105 0.09774808 -0.07504451 -0.011039072
000010 df 1e 48 be cf 7f 19 3e 9d f7 51 bc fd af 80 3d
       -0.19543026 0.14990161 -0.012815383 0.06283567
000020 16 19 1b 3d d0 ea a5 bd 48 5b 8c bd e2 f3 90 bd
       0.03786572 -0.081014276 -0.06853348 -0.07077767
000030 55 cb 83 bd d0 f9 37 be fe 20 08 3e 8e 54 92 3d
       -0.06435267 -0.1796639 0.13293836 0.07145034
000040 07 2c 60 bd 66 cd 42 3d e5 51 03 3d f1 21 81 bc
       -0.054729488 0.047559164 0.032060523 -0.015763255
000050 94 70 a0 bc 34 a9 75 3d 1c ae 80 3d cb 48 6e 3e
       -0.019584931 0.059975818 0.06283209 0.23269956
000060 de b3 24 3e 02 72 7e 3d da 68 9b bd 9a 39 46 be
       0.16084239 0.062120445 -0.07588358 -0.19357911
000070 74 5b 9e bd 8b b9 14 be a5 04 a7 3b e8 ab 2d bc
       -0.07732287 -0.14523904 0.005096989 -0.010600068
000080 8f 7e 23 bd 70 1c 03 be 70 4e d9 bc a1 6e bf ba
       -0.039915618 -0.12803817 -0.02652666 -0.0014605114
000090 6b f1 bc bd 45 6e 30 bd b0 c9 17 bc 42 9e 90 3d
       -0.09225734 -0.04307391 -0.009264395 0.07061435
0000a0 d8 93 82 b9 16 d2 11 bb 32 ca 2d 3d d1 b1 ae 3d
       -0.00024905684 -0.0022250465 0.042429157 0.085300095
0000b0 12 87 bc bd e4 fc 1f 3d e7 48 09 be 46 a5 9f 3b
       -0.0920545 0.039059535 -0.13406716 0.004871997
0000c0 7c 89 60 3c 9a c2 43 3a 24 36 ac 3d 94 4f c5 bc
       0.013704654 0.00074676576 0.08408764 -0.024085797
0000d0 ac 3c 62 be 3e 3c 2b 3e be 0e 27 3e 16 91 d0 bd
       -0.22093457 0.167222 0.16314217 -0.10183923
0000e0 1a 5c 3e bd 2c 25 af 3d c5 0f a2 3c 34 e1 74 bd
       -0.046474554 0.08552012 0.01978291 -0.059785083
0000f0 cd d2 b9 3c 10 94 49 bd d9 4d 2c bd 09 b7 bd bd
       0.022683525 -0.04921347 -0.04206643 -0.09263427
000100 8d 84 d4 bc 8d 6d e0 3c de ce 7e be 84 49 a1 3c
       -0.025942111 0.027395988 -0.24883601 0.019688375
000110 9e 0c 6e 3b b6 9f af bd 47 43 40 3d 19 3f ce bc
       0.0036323438 -0.08575384 0.04693916 -0.025176572
000120 32 80 93 bc 71 da 56 3e f3 30 84 3c 3b 5b b2 bd
       -0.018005464 0.20981766 0.016136622 -0.08708807
000130 9a 06 f6 bd 94 34 0f bd 83 64 8d 3d b1 49 2f be
       -0.12012978 -0.03496225 0.06903937 -0.17117955
000140 b9 7c 2f bd 72 80 18 3e 92 61 cc 3d c7 db 10 bd
       -0.042843554 0.14892748 0.099795476 -0.035365846
000150 3f 59 84 bc f5 bc 8f 3d d3 6a 63 bd 76 54 70 3a
       -0.016155837 0.070184626 -0.055521797 0.0009167859
000160 45 2d 1a 3e 51 88 12 bc ce 4e 7b 3c de a4 b0 3d
       0.15056331 -0.008943633 0.015338613 0.08625196
000170 1b 87 f2 3c 68 60 d5 3c 27 ff 0d 3e f3 82 85 3d
       0.029605439 0.026046947 0.13866864 0.06519117
000180 de 6d 7b 3d 41 32 64 bd 5e 05 f8 3d 54 81 0f be
       0.061384074 -0.05571199 0.12110399 -0.14014179
000190 19 73 e5 3d 28 64 18 be ef 18 95 3d 04 e7 80 3d
       0.11203594 -0.14881957 0.07280146 0.06294063
0001a0 89 cb 95 bd 59 00 9a bc 73 98 32 be 13 d6 61 bd
       -0.07314212 -0.018798994 -0.17440967 -0.055135798
0001b0 9b e5 45 be 82 8b 63 bd a3 de c7 3d d0 e6 fc bc
       -0.19325869 -0.055552967 0.097592615 -0.030871779
0001c0 ae 89 81 3d 55 9a c2 3a 95 24 51 3d 4a 4c d3 bd
       0.063250884 0.001484702 0.051060278 -0.10317285
0001d0 26 3a 76 bd ce a3 4c bc d8 04 2d 3e ef 51 c8 3d
       -0.06011405 -0.012490226 0.16896379 0.097812526
0001e0 1e 9e 12 be 43 c1 c5 3b ff 21 47 bd ed a6 3b bd
       -0.1431813 0.0060350015 -0.048616406 -0.04581349
0001f0 2a 69 23 be 2e 1a 26 3c 09 41 7f bd 7a 88 45 bc
       -0.15958086 0.010138078 -0.06231788 -0.012056464
000200 2a de f5 bd 98 3e 23 3d a3 c0 ae 3d fc a4 9d 3d
       -0.12005265 0.039854616 0.08532836 0.07697484
000210 83 36 4d bd 9b 62 b0 bd e3 0d d7 3d c4 be 1b be
       -0.050100815 -0.086125575 0.105006956 -0.1520949
000220 b9 c5 46 3e cd 64 32 3d e9 a3 d5 3d ff c0 19 be
       0.19411363 0.043553162 0.10431654 -0.15015028
000230 5e 2a 97 3d 14 bb 04 3d c4 c0 4b 3e 9e 4a 90 bc
       0.07381128 0.032404974 0.19897753 -0.017613705
000240 ba 4c 6a 3c 0b 02 30 be 27 8b ee 3d 10 2f 43 bd
       0.01430052 -0.1718828 0.11647635 -0.047652304
000250 c0 90 d7 bd 1d 5a 12 be 6a 3a 7c 3d 60 8e cd 3a
       -0.10525656 -0.14292188 0.061579145 0.001568269
000260 f0 94 88 3d e4 a3 88 bd b3 2e 0a bd d8 b8 a1 bc
       0.066690326 -0.06671885 -0.033735942 -0.01974146
000270 29 05 cb 3b 7a 35 e1 bc e6 91 de 3c 93 3d f1 3b
       0.0061956835 -0.02749132 0.02716918 0.0073620765
000280 bc 19 13 3b 71 a5 be 3d a6 77 c0 3d b3 20 78 bd
       0.0022445759 0.09308899 0.09397821 -0.06057806
000290 14 ea 68 bc 92 4f 71 3d 79 4e c2 3d 03 f2 02 3e
       -0.014215965 0.058913775 0.09487624 0.12787633
0002a0 3c a6 78 bd 63 32 a7 3d bf 11 36 be 20 e2 ba bb
       -0.06070541 0.081639074 -0.17780207 -0.0057032257
0002b0 80 04 06 be 40 b0 19 3c 91 b4 08 3e 99 7a 7d bd
       -0.13087654 0.0093804 0.1335013 -0.061884496
0002c0 2b c9 79 bd d8 e5 b5 bd 9f 43 bb 3d d4 3a f1 bd
       -0.060982864 -0.0888173 0.09143757 -0.11778799
0002d0 c9 4e 4d bb 37 e3 67 bd 94 c6 52 be b8 be a4 bd
       -0.0031327477 -0.056613173 -0.20583564 -0.08044189
0002e0 f1 19 3b be 95 b9 e1 3b 7e 67 66 bc 55 44 f1 bd
       -0.18271615 0.006888578 -0.01406276 -0.117806114
0002f0 38 30 00 3e 51 34 b5 bc 10 d4 37 3e ed bc d0 bd
       0.12518394 -0.022119673 0.17951989 -0.10192285
000300 58 56 cd b9 f9 dd 4e 3c 18 3f 89 3d dc df 0d 3e
       -0.00039164978 0.012626165 0.06701487 0.13854927
000310 76 ad ae bd 9b d5 1f 3d 09 27 7f 3d 4b a5 87 be
       -0.08529179 0.03902207 0.062293086 -0.26493296
000320 8e 5f 9b 3d c2 35 c4 3d a5 c1 9d 3d 6a 8b 21 bd
       0.07586585 0.09580566 0.077029504 -0.039439596
000330 5c 39 2b be 1c 98 04 3c 76 c3 82 3e fa 03 d1 bd
       -0.167211 0.008092906 0.2553975 -0.102058366
000340 2f 36 1f bd 7e 9c 26 be e7 96 05 bd 72 a5 9f 3b
       -0.038870033 -0.16270635 -0.032614615 0.0048720175
000350 16 4d 02 3e b7 a4 22 3d c8 53 8d bd 04 35 3e be
       0.12724718 0.039707866 -0.06900746 -0.18574911
000360 7b 82 4d bd 52 3f 0a bd 80 55 29 3b c6 3c c0 3d
       -0.050173264 -0.033751793 0.0025838315 0.093865916
000370 6b ea 03 3d ec 0d 6c 3e 75 4c aa 3d 77 f7 0b bd
       0.03220598 0.23052186 0.08315364 -0.034171548
000380 16 5c 54 bc 38 6a d8 bd fd 0b da 3d bc fe db bd
       -0.012961408 -0.105671346 0.10646818 -0.10741946
000390 6a 40 9b bd 9e ba 9d bd b2 56 a6 3c 0c b5 07 3d
       -0.075806454 -0.0770161 0.020305011 0.033131644
0003a0 7d 81 18 3c 0f b7 7e be 5f 8d 64 3d 6a 19 af bc
       0.009308216 -0.24874519 0.055798884 -0.021374423
0003b0 18 ac 17 3e 5c 2f 93 bc 83 47 8e bd 3d b0 4d be
       0.14811742 -0.017966919 -0.069472335 -0.20086761
0003c0 85 7c 82 bc 88 a5 0d 3d 19 1d 7b bd 4a 9a e0 bd
       -0.015928516 0.03458169 -0.061307047 -0.10966928
0003d0 b9 88 ed bd ac 94 3d be b0 6b e8 ba 19 39 06 3d
       -0.115983434 -0.18513745 -0.0017732289 0.032769296
0003e0 21 22 f7 3c 53 fc 20 be bb d0 5a 3e 13 6e cf bc
       0.030167641 -0.15721254 0.21368687 -0.025321042
0003f0 ef e9 3d 3e 50 5f 65 be 7c c5 b5 bd 7b 9a 06 be
       0.1854627 -0.2239964 -0.08875558 -0.13144867

A_embd.linears.2.bias f4 [12]
000000 6b 00 b1 bd 56 fc e5 3c cf 5f 9b 3d 8f 05 a9 3c
       -0.08642658 0.028074425 0.075866334 0.020632533
000010 97 ed a8 3d fa 38 72 3d 77 0c b2 bd d7 1a 1e 3b
       0.08248442 0.05913637 -0.08693784 0.0024124885
000020 34 0c 90 bd 86 bd fc ba 4e 87 4a bd 03 cc 87 3c
       -0.070335776 -0.0019282557 -0.049445443 0.016576773

F.linears.0.weight f4 [32, 24]
000000 3f 1b 8e bb cd ab a1 3d 3c e6 45 be e5 15 90 3d
       -0.004336744 0.078940965 -0.19326109 0.07035426
000010 6c 8b 02 3d d0 4d 38 3e 67 3f 11 bd 1b 98 4c bd
       0.031871244 0.17998433 -0.035460856 -0.049949747
000020 68 12 ae 3d cd 6c 30 bd 1b 70 dc bd 4e d0 8c bc
       0.084996045 -0.04307251 -0.1076357 -0.017189171
000030 48 06 7b 3e 38 f3 a2 3c ef 19 fd bd 04 52 fe 3d
       0.24514115 0.019891366 -0.12358462 0.12417987
000040 c4 65 d5 bd bb f9 86 bd 1c 91 9e bc f2 4c 54 bb
       -0.10419801 -0.06590601 -0.019356303 -0.0032394496
000050 43 72 de 3b bd 2f 32 3d b3 f8 32 bd c4 9f 99 3d
       0.0067885234 0.043502558 -0.04369421 0.07501176
000060 d4 61 80 bc 4e 78 3f 3a 60 3b 44 bb c3 b3 a5 bd
       -0.015671648 0.00073039986 -0.0029942617 -0.080909275
000070 04 c7 8c bd 4e c9 e8 bd e9 96 13 3e 77 54 1b 3e
       -0.06873897 -0.11366521 0.14413036 0.1516894
000080 a9 ee 3d be a5 4a 92 3e db dd 8f bd a4 99 80 bc
       -0.18548073 0.28572574 -0.070247374 -0.015698262
000090 72 45 15 3d a2 01 60 3d 97 29 00 3c 39 0b 8d 3d
       0.03644318 0.054689057 0.007822416 0.06886906
0000a0 1b 5f c7 bd 8e 17 33 bd f0 2d 0a 3d 0f 8f 15 bd
       -0.09734937 -0.043723635 0.033735216 -0.036513384
0000b0 3d a2 49 3d ee 73 37 bd f1 5d e1 3d 7f 4a a0 bc
       0.049226988 -0.044788294 0.11004246 -0.019566773
0000c0 1b bf ed bc 6f 46 1e be fd 27 eb bd 55 8f 91 bd
       -0.02902179 -0.15456556 -0.114822365 -0.071074165
0000d0 d5 1d a8 bc 2d ef 48 3c 93 28 98 bc 3d e9 85 3d
       -0.020522038 0.012264055 -0.018574035 0.06538627
0000e0 48 fe fa bd 03 a7 f1 3c 5e bb 28 3e c6 5e f1 bd
       -0.122555315 0.029498583 0.16477725 -0.11785655
0000f0 f8 a4 6f bd a2 a2 56 be da 21 79 3d 62 8d a3 3b
       -0.058506936 -0.20960477 0.0608233 0.0049912194
000100 30 b1 73 bd 1d 88 13 3d 9b 34 35 bc e3 e4 d3 3c
       -0.05949515 0.03601848 -0.011059905 0.025865978
000110 2c 69 27 bd 0b f9 36 3c 81 93 72 3e a9 62 4c bd
       -0.040871784 0.011167775 0.23689081 -0.049898777
000120 02 3c 15 be 3a 00 80 be 3b f8 cf 3d d5 75 9d bb
       -0.14573672 -0.25000173 0.10154768 -0.0048053064
000130 89 70 64 bd ff fb cb 3d 06 38 0e be a0 87 90 bd
       -0.055771384 0.09960174 -0.13888559 -0.070571184
000140 7a 42 b0 bc 4a 8c 80 3b d6 24 b4 bd 6e c5 9d bd
       -0.021516073 0.0039229738 -0.087960884 -0.07703672
000150 9c 00 d5 3c 03 0c a8 3d 1c 5f da 3d ec 69 ea bc
       0.026001267 0.08205416 0.10662672 -0.02861496
000160 3e c5 39 bd c9 33 0f bc 1f 4e cb 3d ce 88 3e be
       -0.04535412 -0.008740374 0.0992701 -0.18606874
000170 0b a2 85 3d b4 58 d2 3d ed a5 6a 3d 9d cf 31 bd
       0.06525048 0.10270825 0.057287145 -0.043410886
000180 03 d0 5b bd 79 c7 a4 3d 00 72 01 3e c4 f0 aa 3c
       -0.053665172 0.08045859 0.12641144 0.02086676
000190 eb 58 dd 3d 3b 26 95 bc cd e5 5c bc b1 ce 8a bd
       0.108079754 -0.018206706 -0.013482523 -0.067777045
0001a0 bf af a8 bb 4b bb 00 3c bf 7e 0c bc d0 0a 3c 3e
       -0.0051479037 0.007857154 -0.0085751405 0.183635
0001b0 3e 82 2c ba fc 0c 49 bd 7e 16 0d bd eb ae 8a bd
       -0.0006580687 -0.04908465 -0.03444528 -0.06771644
0001c0 8b 60 f1 ba 53 8a 23 3e 90 14 e1 3d db 9d 5e 3b
       -0.0018415613 0.15970735 0.1099025 0.00339686
0001d0 c6 4f 06 3d 29 22 12 3d 0b 85 c2 3c cc 93 ce bd
       0.03279092 0.03567711 0.02374508 -0.10086784
0001e0 ed 64 c4 3d 77 9c 20 3e 7e c2 c1 bc c9 f2 01 be
       0.095895626 0.15684687 -0.023652311 -0.12690271
0001f0 53 47 38 bd a2 de d1 bd 8f d4 15 be 70 4d 04 3e
       -0.044989895 -0.10247542 -0.14631866 0.12920165
000200 d7 88 36 be 79 2c f7 bb 81 e7 32 3c 95 67 c7 3a
       -0.17825638 -0.0075431434 0.010919453 0.0015213365
000210 57 81 33 be f0 4d a6 3c 71 ca 00 be 84 9a c7 3d
       -0.17529808 0.020300835 -0.12577225 0.097462684
000220 c4 80 9f 3d 80 b1 05 bd 8f d3 3f be 1b 10 3c bd
       0.07788232 -0.03263998 -0.18733047 -0.045913797
000230 14 4c 8f 3d eb c1 40 bd ce 8a 29 bd bb 80 08 3d
       0.069969326 -0.047059935 -0.04139214 0.033325892
000240 c0 b9 21 bc 2b d5 c3 bc e4 2c 56 bd f6 52 06 3d
       -0.009870946 -0.023905357 -0.052288905 0.03279396
000250 8a 05 15 be 80 77 f6 bc 09 75 2b bd 56 08 19 3d
       -0.14552894 -0.030086279 -0.04185966 0.037361465
000260 19 b2 27 bd 6f 12 96 bd 92 0f 44 3c 13 4d 61 3d
       -0.04094133 -0.07327735 0.011966603 0.055005144
000270 a1 80 36 be 2a ba 05 3d 07 d4 58 bd da a9 40 3d
       -0.17822506 0.032648243 -0.05293658 0.047036983
000280 a7 fa 35 3e 26 60 3a bd 2d 34 6c 3e 52 9c 99 3d
       0.17771398 -0.04550185 0.23066778 0.07500519
000290 cf e5 1a 3c 87 1b 32 bd 93 eb ef bd a8 49 06 3d
       0.009454205 -0.043483283 -0.11714854 0.032785088
0002a0 8c 17 e1 bd 9a 54 08 3e 39 dd 22 3d 97 25 b3 bd
       -0.10990819 0.13313523 0.039761756 -0.08747404
0002b0 d5 2c cc bc 0e 1b a0 3d ba 40 0b be 46 11 1e be
       -0.024923721 0.0781766 -0.1359891 -0.15436277
0002c0 00 b1 0c 3b 36 00 2a be 61 59 b6 3c b2 6b fb 3d
       0.0021467805 -0.16601643 0.022259416 0.122764006
0002d0 de ea b4 bc 17 d4 9b bb be ba 12 bc b9 34 02 3d
       -0.02208465 -0.0047555077 -0.008955656 0.03178856
0002e0 41 b5 0c 3c fb d7 39 3e b6 07 a9 3d ce 10 8f bd
       0.008588136 0.18148796 0.08253424 -0.06985627
0002f0 c4 1b 6d bd f2 1c 0e be 3b b9 04 3d 65 2d fb bd
       -0.057887807 -0.1387823 0.032403212 -0.12264518
000300 e4 33 03 3e 5d 46 2f 3d 56 1b 42 3d 0d d2 82 3d
       0.12812763 0.042791713 0.04738935 0.0638772
000310 1f 0e 93 3d 9f 71 f0 bd 86 da 59 be 78 8e fb 3c
       0.07180428 -0.117404215 -0.21274766 0.030707583
000320 4a ce 7d 3d db c4 37 be ff 97 c5 3c 15 b3 b0 3d
       0.06196431 -0.17946188 0.024120329 0.08627907
000330 c5 e0 20 3e 1b 47 23 be ca c7 af 3d dd d8 f8 bd
       0.15710743 -0.15945093 0.085830286 -0.121507384
000340 2d 7a 0a be 32 c5 69 bc 4d 5e 5f 3d 23 e6 2c 3d
       -0.13523169 -0.014268206 0.05453329 0.042211663
000350 f8 2a d9 b9 7f 77 ab bd 5a 1e 46 bd ee f1 50 bd
       -0.0004142148 -0.083724014 -0.04836879 -0.051011972
000360 66 77 dd 3d 75 f0 ff bd 55 68 37 bc 72 0e 15 3d
       0.10813789 -0.124970354 -0.011194308 0.03639073
000370 d2 8e 1b 3d 5f 8c de 3d 90 37 8c 3d c3 0f a8 bd
       0.037978 0.108666174 0.06846535 -0.08206131
000380 73 8e 04 be 67 7c c9 bd e5 dd d1 3c 11 30 73 3d
       -0.12944965 -0.09838181 0.025618503 0.05937201
000390 49 6c fa bd 90 a2 8c 3d 7e 93 97 bd 8b 0c ee bd
       -0.12227685 0.06866944 -0.07401179 -0.11623486
0003a0 a2 91 79 3d e4 b2 dc 39 78 36 3e 3e cd 7a 0b be
       0.060929902 0.00042094954 0.18575466 -0.13621064
0003b0 52 04 97 3c b7 9b b8 3e bb 00 b1 bc 72 5c 9a 3d
       0.018434677 0.360563 -0.021606794 0.07537164
0003c0 9a a3 85 bd 6d f4 34 bd 6f 56 26 be 6e 0e 0f be
       -0.06525345 -0.044178415 -0.1624391 -0.13970348
0003d0 95 6d cf 3b 4d b8 05 3e 17 bd 1e bc 37 2d cb bd
       0.006330202 0.13058586 -0.009688637 -0.099207334
0003e0 44 3a a8 bd 71 61 03 3d 26 09 fc bd 1b 06 00 bd
       -0.08214238 0.03207535 -0.123064324 -0.031255823
0003f0 d6 53 fd bb 19 61 0c be 18 79 f2 bc 59 70 02 3b
       -0.0077309413 -0.13708915 -0.029598758 0.001990339

F.linears.0.bias f4 [32]
000000 80 38 9d 3c 48 b5 cd 3d dd 87 90 bd 14 a9 9a bd
       0.01919198 0.10044342 -0.07057164 -0.0755178
000010 77 ca bd 3d 1e da 2b bd fb d5 01 bd 3a ae 34 bb
       0.09267133 -0.04195606 -0.03169821 -0.0027569667
000020 87 1c b2 bc 59 5d 7a 3d 02 98 dc 3b 40 fb d2 bd
       -0.021742119 0.06112418 0.006731988 -0.103018284
000030 cb 14 7d bc 2d 97 21 3d 4b ad f8 bb 43 51 d4 bd
       -0.015446852 0.039450813 -0.0075890175 -0.10367062
000040 aa f5 5c bd 12 8e 8e b9 b1 62 cc bc 6c 7b b4 bd
       -0.05394522 -0.000271902 -0.024949403 -0.08812603
000050 89 c5 b4 3d 08 80 0c bc 19 16 98 bb 8f a5 7d bc
       0.08826739 -0.008575447 -0.004641306 -0.015481367
000060 02 5b 3a 3d b5 ca 28 bd 09 ad aa 3d 3f 70 ad 3d
       0.045496948 -0.04120894 0.08333785 0.08468675
000070 28 04 8f bd 89 84 41 3d c0 17 96 bd 19 56 bb 3d
       -0.069832146 0.047245536 -0.07328749 0.09147281

F.linears.1.weight f4 [32, 32]
000000 ce 3e 74 be cb fc dd 3c da a2 d3 bc c2 66 05 bb
       -0.23852083 0.02709808 -0.02583449 -0.0020355438
000010 25 bb 88 3e 22 79 99 3d 42 09 11 be 3d 00 99 bd
       0.2670528 0.074938074 -0.14163688 -0.074707486
000020 81 db 85 bc b7 89 c2 3d c8 36 30 3e 91 5f d0 bd
       -0.01634002 0.09498923 0.17208397 -0.10174478
000030 06 ed ac 3c f6 d3 b9 3c 4f 1f 5f be b9 cd 34 3c
       0.021109115 0.022684079 -0.21789287 0.011035376
000040 5b de 87 bc e8 84 96 3d 99 77 2e be 75 c6 4c bb
       -0.01658552 0.073495686 -0.1703781 -0.003124622
000050 17 7f 5e be 58 61 13 be 49 4e 3c bd b8 b1 47 bd
       -0.21728168 -0.14392602 -0.045973096 -0.04875347
000060 f2 aa d5 bd 3e 9b b7 3a 56 fb 54 bc 2a 32 8a 3d
       -0.10432996 0.0014008058 -0.012999376 0.06747849
000070 6b 97 66 bd ad c4 81 bd 72 29 11 3d a4 df 80 3e
       -0.056296747 -0.06336341 0.035439916 0.25170624
000080 91 24 d7 bd 58 41 9b bd 51 4a ef 3c a1 86 aa bd
       -0.10505021 -0.07580823 0.029210242 -0.0832646
000090 69 46 24 3d 4b 34 c6 bc 67 ef 34 bc 77 d4 34 3e
       0.04010621 -0.024194857 -0.011043406 0.17659174
0000a0 ea ec a6 3c 27 54 a2 bd b7 ef 6b 3d e3 3c 93 bd
       0.020376641 -0.07926207 0.057601657 -0.071893476
0000b0 8a e6 14 3c dd 64 90 be de 90 b8 bb fc 7a c6 3d
       0.009088168 -0.28201953 -0.005632504 0.09691426
0000c0 3a b2 f0 bc 4a aa 7f 3d 71 70 91 bc 14 85 01 3d
       -0.02938186 0.06241826 -0.017753812 0.031621054
0000d0 91 c9 2a be ab b7 e1 bc 41 11 23 be 39 e2 32 3e
       -0.16678454 -0.0275534 -0.1592455 0.1746911
0000e0 70 90 1e 3e d4 8a d7 bd 59 51 9b 3d 18 7a d6 3c
       0.15484786 -0.10524526 0.07583875 0.026181266
0000f0 58 18 4d 3e 2e 22 0c be 8a 8c 6e 3a 67 bb 81 3d
       0.20028818 -0.13684914 0.00090999214 0.06334572
000100 e9 34 8b 3c cc e9 09 3e 4e 8e 68 bb 29 8c 93 bd
       0.016993003 0.13468093 -0.003548521 -0.07204468
000110 88 88 6c bd 68 12 c4 3d c9 3f 09 bd 10 03 65 3d
       -0.057747394 0.09573823 -0.033508096 0.055911124
000120 b9 88 9c 3d 46 bc 1c bd f4 43 01 be 8a 26 1e 3e
       0.07643265 -0.03826549 -0.12623578 0.15444389
000130 f4 51 68 bd 89 e5 cb 3d 9f 53 c5 3c 05 a2 17 bd
       -0.05671878 0.0995589 0.024087725 -0.03701975
000140 91 22 0e be ee ec de bc 6e 11 1a be 0a e2 50 bd
       -0.13880374 -0.027212586 -0.15045711 -0.050996818
000150 81 39 cc bb 9c f8 89 be 07 d5 da 3c 81 3a 45 bb
       -0.006232441 -0.26947486 0.026712907 -0.0030094685
000160 fd e3 81 3d 3e ee 83 3d e8 55 76 3c 50 ff 60 bc
       0.063423134 0.064419255 0.01503513 -0.013732746
000170 29 85 1a be a6 91 dd 3d c0 de 0b bd 3c 56 cd bd
       -0.15089859 0.10818796 -0.034147978 -0.100262135
000180 01 48 8b 3d d1 1e 8f bc 3c ea 37 3d 3c d7 b5 3c
       0.06800843 -0.01747075 0.044901118 0.022197358
000190 87 d5 0c 3e 42 43 b5 bd df 30 ca bd f9 e9 eb bd
       0.13753329 -0.08850719 -0.09872603 -0.11519236
0001a0 44 6a 2d be cd 8a c7 bd 9c 12 01 3d 57 69 19 bc
       -0.16935068 -0.09743271 0.031511888 -0.009363494
0001b0 dd 04 73 3d 91 3e df 3d 87 d2 a4 3d 58 2c 2d bd
       0.05933081 0.109006055 0.080479674 -0.042278618
0001c0 e3 30 8e bc 49 d6 42 3e b7 2b cb 3c 4a b2 c3 bd
       -0.017357295 0.19027056 0.024801118 -0.0955549
0001d0 60 3d a7 bc e9 d1 52 bd e9 3a 2a 3a af 46 ac 3d
       -0.020415008 -0.051469717 0.00064937636 0.08411919
0001e0 b9 a8 14 3d 14 8f 1a 3e 91 59 12 3d fc 7c cd bb
       0.03629372 0.15093642 0.03572995 -0.006271003
0001f0 5f 06 23 3e 0c 98 06 3c 16 f9 96 3c 67 0f df bd
       0.15920399 0.008214962 0.01842932 -0.1089161
000200 cb 5d 26 bd e8 0f 28 be b3 99 ee bd c0 f6 ed bd
       -0.04061679 -0.16412318 -0.116504095 -0.116193295
000210 20 66 f4 bc de 05 c4 3d f1 53 69 bc 79 29 0a 3e
       -0.029833853 0.095714316 -0.014241205 0.13492383
000220 8a e7 70 be d9 48 35 3e 28 32 2e bd a9 14 85 3c
       -0.23525825 0.1770357 -0.0425283 0.016245203
000230 86 7a f2 bd e2 cb 37 3c 53 eb dd 3b 91 77 96 3c
       -0.11839776 0.011218043 0.0067724376 0.01836756
000240 36 8f 37 bd 39 57 08 3d 61 ef b4 3d 33 f7 13 3d
       -0.04481431 0.033286307 0.088347204 0.03612442
000250 15 04 cb bc 15 cd 3a 3d b5 cd 09 be ef 3c a5 3c
       -0.02478222 0.045605738 -0.13457377 0.020170657
000260 76 68 04 be 14 1f 5d 3b 46 46 a8 bd 2e 2b 9f bd
       -0.12930474 0.0033740448 -0.082165286 -0.07771908
000270 d0 89 9f 3d aa 94 64 bc 67 5c 07 be ca ac b2 bb
       0.077899575 -0.01395146 -0.13218842 -0.005452727
000280 91 8c 1b be 12 59 86 bd 6c 59 77 bb 7a 12 0f be
       -0.1519034 -0.065599576 -0.0037742509 -0.13971892
000290 0f 10 f2 bd ea 9f 2e 3d 76 d3 b2 bb a5 cf 2d 3b
       -0.11819469 0.042632975 -0.005457337 0.002652147
0002a0 03 de b5 3c af 4b f3 3d 8a 95 3c bb 91 03 31 bd
       0.02220059 0.1187967 -0.0028775656 -0.04321629
0002b0 89 21 79 bd ae ea ef bd c7 bc 7a bd cd f3 19 3d
       -0.060822997 -0.117146835 -0.06121519 0.037586022
0002c0 fc 31 92 bc 10 67 02 be 18 79 cd bd 0f df 85 bc
       -0.0178461 -0.12734628 -0.100328624 -0.016341714
0002d0 09 05 12 be a1 ae ce 3d cc dd 34 3e ff bb c2 bc
       -0.14259733 0.100919016 0.17662734 -0.023771284
0002e0 30 cb 6b 3d 7c 1b 06 be 40 17 f8 3b b6 f5 8b be
       0.05756682 -0.13096422 0.007571131 -0.273359
0002f0 32 0c 4d 3d be 85 da 3c ee cd 91 3d d6 a2 cc bd
       0.05006046 0.026675101 0.07119356 -0.09991996
000300 87 24 34 3c 96 c0 91 3b ac 46 f0 bd a5 98 0a be
       0.010995037 0.004448007 -0.117322296 -0.13534792
000310 70 8b 41 bd 1f 8a 0f 3d f6 ee 1c be 0c c3 68 be
       -0.04725212 0.035043832 -0.15325531 -0.22730654
000320 49 2b 88 3d 17 6a ab 3d ba 19 74 bc 17 d9 b1 3d
       0.06648881 0.083698444 -0.014898712 0.08683985
000330 ab ef 8c bd 81 2a f0 bc fe d6 df bd be 2c 36 be
       -0.068816505 -0.029317142 -0.109296784 -0.17790505
000340 05 4d bb 3d d5 3b 27 be 70 b7 33 bd 89 ad ec 3d
       0.0914555 -0.16331418 -0.04387611 0.11556537
000350 06 c5 1d 3e f2 ce 05 3e 12 66 1b 3d 8e d6 8b bd
       0.1540719 0.13067225 0.03793914 -0.068280324
000360 bc 9c 27 bc 71 03 70 3d 34 5a 0e bd cb 93 7f bd
       -0.0102302395 0.058597032 -0.034753993 -0.062396806
000370 07 65 df bd 62 2c 95 bd a9 ae 3b be 54 43 0f 3d
       -0.10907941 -0.07283856 -0.18328346 0.03497632
000380 a7 52 b1 bd ee 56 45 bd 6b 35 66 bd 9f f5 82 3d
       -0.08658343 -0.048178606 -0.056203287 0.06394505
000390 3d 7d b0 3d 64 d5 bd bd e7 df 37 bc 08 23 b3 bd
       0.08617637 -0.09269217 -0.011222816 -0.08746916
0003a0 bc d0 4d bd 48 6c f3 3d d6 29 a4 bd a5 2a 77 3d
       -0.050247893 0.118858874 -0.08015792 0.060343403
0003b0 9a aa 2d 3d bb 18 86 3d 4a 01 e9 bd ba d2 57 bc
       0.042399026 0.06547686 -0.11377199 -0.0131728
0003c0 da dc a3 bd ab 6b 65 bd a2 8e 5d 3c e0 4c 4d 3e
       -0.080011085 -0.056010883 0.013522776 0.20048857
0003d0 6d 17 ef bc 40 5a 22 3c 40 d1 2b 3e 03 3e c4 3c
       -0.029185975 0.009909213 0.16779041 0.02395535
0003e0 46 38 55 bd f9 8c 36 3e 12 27 a1 3d 09 43 8a bd
       -0.05205562 0.17827214 0.0786878 -0.06751067
0003f0 82 09 45 bb 9d 1b 04 3d 01 bf 9e 3c 52 69 08 3c
       -0.0030065482 0.032252897 0.019378187 0.008325892

F.linears.1.bias f4 [32]
000000 47 ba a7 3d a3 0c 65 3d 97 03 ed bc 45 57 17 3c
       0.081898265 0.055920254 -0.028932376 0.009237115
000010 ae b3 9c bd 59 0f 4e 3d 44 93 a2 3d 1f 9c b6 3d
       -0.07651459 0.050307605 0.07938245 0.089164965
000020 06 84 95 3b cf fc 67 3d d9 71 5f bd ff cf 99 3c
       0.0045628576 0.05663758 -0.054551933 0.018775938
000030 d2 de 80 bd 9e 9b cb bc d5 5a f1 bc 51 2a 76 bb
       -0.062924996 -0.024854477 -0.029462257 -0.0037561844
000040 31 db 95 3d 06 ac 3a bd 23 06 b3 bd 87 c7 49 3d
       0.07317198 -0.04557421 -0.08741405 0.04926255
000050 a8 90 b8 bd 8c 3c c2 bd 80 1b 2c 3d 65 ec c0 3b
       -0.09011966 -0.09484205 0.042018414 0.0058875554
000060 a3 e0 46 bd 53 c7 09 bd 49 6e de 3c 48 f1 69 3c
       -0.048554074 -0.033637356 0.027152197 0.014278717
000070 6f 22 b3 3d f4 80 3a 3d ea af 7d bd 57 55 bb bd
       0.08746802 0.045533136 -0.061935343 -0.09147137

F.linears.2.weight f4 [12, 32]
000000 d4 b6 7a 3c 56 a8 ba 3d 00 db 91 3c 36 53 e3 bc
       0.015302379 0.09114139 0.017804623 -0.027749639
000010 5d 4a 19 3e d5 e1 b0 3d c9 16 37 3d 6c 8c 8a bd
       0.14969774 0.08636824 0.044699464 -0.067650646
000020 e0 5a 8d bd e1 b1 e3 bd bb 48 78 bd f9 63 5f bd
       -0.06902099 -0.11117912 -0.060616236 -0.0545387
000030 76 44 a2 bd a3 a8 05 3a 9b 05 3b 3d 16 9c 42 3d
       -0.07923214 0.0005098676 0.045659643 0.047512136
000040 09 32 0f 3d 5b 36 9f bd c0 26 2b bd 0d 07 09 bd
       0.034959827 -0.07774039 -0.041785 -0.03345399
000050 66 42 bd 3d 70 53 0d bd cd 2f 94 3d d8 44 9b bd
       0.0924118 -0.0345034 0.0723568 -0.0758149
000060 d7 a2 8d bc 82 d8 31 bd 1e b0 a1 3d cc d8 e9 3d
       -0.017289562 -0.04341937 0.0789492 0.11418304
000070 30 77 6b 3d 8b 70 44 3c bc 39 0f be e7 b9 8c 3c
       0.057486713 0.011989723 -0.13986868 0.017178489
000080 2d a9 e2 bd 67 88 be 3d 21 2e 1a bd 76 f5 8b 3d
       -0.11067424 0.093033604 -0.03764165 0.06833927
000090 92 2e c1 3d e7 c8 80 bd 63 36 69 3d 18 1b ce 3d
       0.09432711 -0.06288319 0.056936633 0.100637615
0000a0 a7 30 1e be d4 27 09 bb 4e df 6a 3b 7a 24 a5 bd
       -0.15448247 -0.002092828 0.0035838666 -0.08063598
0000b0 6a d6 3b 3e 2c 6c 38 bd d6 a4 66 be 3a 7f 07 3e
       0.18343511 -0.045025036 -0.22523817 0.13232127
0000c0 28 74 da 3d 56 c1 63 3c 22 2e ae bb c5 44 c3 bc
       0.10666686 0.013901075 -0.005315558 -0.023836503
0000d0 6f 07 aa bd 50 4d 67 3d 25 bb 1d 3d 87 7a 44 3e
       -0.08302199 0.056470215 0.038508553 0.19187365
0000e0 b7 56 92 bd 87 1f bb bb a4 7c 4a 3d 20 4c b2 bd
       -0.07145446 -0.0057105455 0.049435273 -0.08705926
0000f0 f6 22 03 bd 8d 3d 98 bd cd 27 8c 3b af 4c bf 3d
       -0.032015763 -0.07433615 0.0042772056 0.09340798
000100 55 5e 2a bc 10 1d a4 bd d9 10 59 3d a8 56 0f 3e
       -0.010398467 -0.08013356 0.052994583 0.139979
000110 54 60 c4 bd a4 10 59 bd 21 aa 68 3d 05 68 19 be
       -0.09588686 -0.052994385 0.056802873 -0.14981087
000120 e2 f5 36 bd da 8a 18 be 30 f8 cc bd c0 ad a4 bd
       -0.044668086 -0.14896718 -0.100082755 -0.08040953
000130 12 9f 48 3d b1 ca 24 bd c2 f4 7b bc e6 37 7c 3d
       0.048979826 -0.040232364 -0.015378179 0.061576746
000140 61 e1 76 bd 65 51 36 3e 7f ac 2c 3d fe 39 19 3c
       -0.06027353 0.17804487 0.042156693 0.009352205
000150 de 1a 58 bd 2f 29 61 be 3f d6 34 3d 74 50 db 3c
       -0.052759998 -0.21988367 0.044149633 0.026771761
000160 9d 02 40 be eb e7 e0 bb 07 97 71 3d f1 48 02 3e
       -0.18750997 -0.0068635843 0.05898192 0.12723137
000170 6d 9c bf bd b8 ea 33 bc 69 c7 84 bd d5 0a 41 3d
       -0.09356008 -0.010981254 -0.06483347 0.04712947
000180 2a 0a c1 bd 64 a5 55 3e 36 85 08 3e f2 29 94 3d
       -0.09425767 0.20863873 0.13332066 0.07234563
000190 24 d2 cb 3b 93 ec 79 bd 68 37 2d be 5a 27 c6 3c
       0.006220119 -0.06101663 -0.16915667 0.024188686
0001a0 10 b3 a9 bd f5 c4 b5 3d 5c a2 04 be 66 c4 54 3d
       -0.082861066 0.08875457 -0.1295256 0.051945113
0001b0 cf a2 18 3c c3 4f ed bd 08 b6 03 3e 67 f6 a0 3c
       0.00931616 -0.11587479 0.12862408 0.019648744
0001c0 41 7b 23 3d 18 e4 e2 bd fd 23 d6 bd 16 fe c2 bc
       0.039912466 -0.11078662 -0.10456083 -0.023802798
0001d0 e8 7c 61 3d 1a 5f 02 3d a2 22 b9 3d c9 c4 cd bd
       0.05505076 0.031828977 0.09039809 -0.100472994
0001e0 3a 08 08 be d9 58 8b bc 1c 0e 61 3e 46 09 8c 3d
       -0.13284388 -0.01701014 0.21978039 0.06837706
0001f0 68 e0 06 bb 6c fd ac bc d9 3c 02 bd 9a 85 f4 bd
       -0.0020580534 -0.021116935 -0.03179631 -0.11939545
000200 e9 f8 e8 bd c4 20 e1 3c ed 2e 93 bd a9 5d cf bd
       -0.11375601 0.027481444 -0.07186685 -0.10125286
000210 bd 3d 06 3d ed 21 91 bd f8 f4 63 3d e0 e6 9f 3c
       0.032773722 -0.07086549 0.055653542 0.01951927
000220 35 54 48 3d f5 75 98 bc 1b f1 02 bd 88 da d1 bd
       0.04890843 -0.018610934 -0.031968217 -0.1024676
000230 16 23 31 bd 29 15 f4 bd 18 29 39 3e 91 20 d2 ba
       -0.04324635 -0.119180985 0.18082082 -0.0016031434
000240 ce da ce 3c 77 6e c6 bd 5f 2c 05 3d ae fd 98 bd
       0.025250819 -0.09689038 0.03251302 -0.074702606
000250 0c 3d 9f bd 7e f9 49 be 7d d4 1f be dd 93 44 bd
       -0.07775316 -0.1972408 -0.15608402 -0.047992576
000260 5b 64 60 3d 08 7d df bd 6f ea dd 3d 2e bc 6e bc
       0.054783206 -0.1091252 0.1083573 -0.014571233
000270 1d 9c 58 3e 1d d4 4b bd 99 8e 94 bd 8a d6 ff 3c
       0.21153302 -0.049762834 -0.07253761 0.03123023
000280 d9 15 da bc 13 70 a3 3d 70 27 09 bc aa c8 11 be
       -0.026621746 0.07980361 -0.008371219 -0.14236704
000290 28 eb 48 3d 09 32 0a 3e 4e 63 ae bc 2b 99 70 3c
       0.049052387 0.1349565 -0.021287587 0.014684956
0002a0 b7 7d d0 bd 78 59 ca 3c 65 f5 0b 3e 21 3d ed 3c
       -0.10180228 0.024700865 0.1366783 0.028959813
0002b0 bb 83 83 bd 0d 3f 93 3b eb e7 eb bd 23 4e 9d 3d
       -0.0642161 0.0044936 -0.11518844 0.07680919
0002c0 f6 61 69 3d 81 d1 56 bd d5 a2 82 3d 57 da aa bd
       0.05697819 -0.052445892 0.06378714 -0.08342426
0002d0 2e f7 ae bc 90 aa 96 3c 8d 58 7b bd 5a 19 60 bd
       -0.021358099 0.018391877 -0.061363745 -0.054711677
0002e0 4e 98 ae bd 8d 07 46 bd 1e cb a1 bd a9 8c 6d 3e
       -0.085251436 -0.048347045 -0.0790007 0.23198189
0002f0 08 f2 21 be 44 80 dc bb 9b c0 d7 3c bd 11 5f bd
       -0.15814984 -0.0067291576 0.026336959 -0.054460276
000300 34 31 2e be e9 ff 37 3e 0d f1 d2 3d 25 99 18 bc
       -0.17010957 0.17968716 0.10299883 -0.009313856
000310 cd 30 8f 3b e5 47 24 3d 56 ac 90 3d 95 0d b1 3c
       0.004369831 0.040107626 0.070641205 0.021612922
000320 53 8d a3 bd 5b b7 a0 3d d0 b6 90 bd f2 65 61 3d
       -0.0798594 0.07847472 -0.07066119 0.055028863
000330 84 f5 58 3d 68 8a ef bb 9a 5c d4 bc 2a a4 34 bd
       0.052968517 -0.0073102005 -0.025923062 -0.04410187
000340 fa a3 54 3c 50 19 b1 bd 56 c6 6c 3d de 46 d2 3c
       0.012978548 -0.08647406 0.057806335 0.025668558
000350 09 75 74 3d f4 5b 96 ba 2c a9 47 bc 41 2b 12 3c
       0.059681926 -0.0011471496 -0.01218633 0.008921445
000360 af 36 fc 3c 53 c5 38 3d 53 42 87 bd 4b 1f d4 3c
       0.030787794 0.045110058 -0.06604447 0.025893828
000370 fe c5 ec 3d f2 77 d0 bd 5e 90 8f bd 0c 1c 38 3d
       0.115612015 -0.10179128 -0.07009958 0.044948623
000380 bb 6d ae be 05 64 a1 3d 4e 4a f4 bc ce b3 97 bd
       -0.34068093 0.07880405 -0.029820587 -0.07407342
000390 9e 8f 33 be e8 89 1f 3e be 43 92 3d ce 6d 95 bd
       -0.17535254 0.15579951 0.07141827 -0.07296334
0003a0 60 fa 00 be f8 7a 3d bc b9 c7 31 bd 45 ff 55 3c
       -0.1259551 -0.011564963 -0.04340336 0.013061349
0003b0 44 f6 8c 3d ca b2 4e be f8 b2 a8 bd 6d f1 74 bb
       0.06882909 -0.2018539 -0.082372606 -0.0037375346
0003c0 21 b0 cf bd 1b ad ba bd e4 fa 3b be d8 d7 f1 3d
       -0.10141016 -0.091150485 -0.18357426 0.11808747
0003d0 14 c2 ad 3d eb cc 89 bd 47 4b 31 3e c8 13 69 3c
       0.08484283 -0.06728538 0.17313872 0.014225908
0003e0 08 51 1e 3e c1 80 d6 3d d7 a5 bb bd b3 c5 1e 3d
       0.15460598 0.104737766 -0.09162491 0.03876276
0003f0 e8 8c 34 3e 74 97 09 3e c2 d9 d8 3c 1e 8a c2 bd
       0.17631876 0.13436681 0.026471023 -0.09499

F.linears.2.bias f4 [12]
000000 37 d4 57 bd 48 0a 80 3d 75 85 89 3c f0 a0 27 3d
       -0.05269262 0.06251961 0.01678727 0.040924966
000010 61 d4 78 bd 20 46 a2 3d 1e b9 a1 3d eb b5 66 bd
       -0.060749415 0.079235315 0.078966364 -0.056325834
000020 70 d5 88 bd ca 0e 2c 3d 98 28 2d bc 0a d8 f2 ba
       -0.06681335 0.04200629 -0.01056876 -0.001852752
