para_save2/00004params.pth (torch, 160514 bytes, 97 tensors)

A_embd.linears.0.weight f4 [32, 13]
00000000: 1dee 463e 51c1 2ebe 2d20 0b3d ec5a b93d
00000010: a51e b7bd 8457 6db9 7d85 b33c 5331 32bd
00000020: 626f 4bbd 3eba ddbc 7622 723d 8750 173e
00000030: f78d f6bc e433 94bd 6860 b9b9 dbff bf3c
00000040: 5241 7a3d b865 833d e790 e13b d9a9 babd
00000050: 42b5 1c3e 713d cabd 3092 25bd 69bd 68be
00000060: 5e07 aabd 026a 313d a539 3ebd cc6a c83d
00000070: b334 97bc ecb5 60be cc9a 243d d08b 023e
00000080: 196d 543d 2b94 f83d e550 72bd 4319 7c3d
00000090: 40e9 64bd 687d e33d f949 1cbe 62d4 cebd
000000a0: 6177 b43d e4d3 143d 02f6 2a3d 8635 1c3e
000000b0: 1339 a539 3d99 853d ddde f1bd 6a32 1c3e
000000c0: 1ce4 443d c39b 203d 174c 903d bc56 4db9
000000d0: eeea 583e 97c1 81bd b203 2b3d 73ef eebc
000000e0: ea09 0f3e ec8c ed3d 59d3 ba3d fa0c d1bc
000000f0: 0e0f 3d3b 79f1 c13c 236b 553e c009 e93d
00000100: 7487 dabd 3481 dabc 8925 9fbd 08b2 43be
00000110: c89d a63c ee3b 823d fcdc 073e 30fa 9a38
00000120: a4e2 cdbc b5c4 1fbd 6f00 c9bd 73de 423c
00000130: 8632 8939 0592 763d 79aa 65bd d298 0fbe
00000140: e5a3 053e b9af 203d fcdd 4039 e602 83bd
00000150: 707d 603d 434a 6cbc e248 90bd 7a93 43be
00000160: 2e2b f93b acdf 51bc 44bd cb3d fc3d 6f3c
00000170: 2ee8 15be acc3 1bbe e1f5 e43d 07fc 3c3d
00000180: 35a8 453d 7dbb 613d b9cd 94bd 27e0 23bd
00000190: c5a5 4dbe 5701 8c3c b710 403e 2dde 87bd
000001a0: 3f7f bdbd de12 163e 8e81 1cbd 2712 7ebe
000001b0: 4d8e 0cbe 14d8 993d c9f1 a839 9f4d a8bd
000001c0: b700 b33c 5e2d d339 f6e4 d23d 1c69 06bb
000001d0: 5fc9 90bd 1cce 093d 463e af3d 5425 b13c
000001e0: bd46 7fbd 9518 aabd 11b2 99bd 4d4c 953c
000001f0: 00a0 9bbe 87b8 4cbe a38a febd 0a8e 89bc
00000200: f520 d53c 631c 063d f2dc 0bbd 5c64 d8bc
00000210: aefc 9cbc 1381 1a3e 7f59 f9bc 759d eebb
00000220: 7ad2 09be 0da9 1abe bac6 513d 5742 8739
00000230: c3ea 76bd c20a 47bd 9df4 ae3c a549 373d
00000240: 5e23 81bd bcad 09bd c3e3 883d 5c5a 033e
00000250: f760 a33d 8ca0 8abd b314 a73d b9ab 113e
00000260: 0125 61bd 7cbf f63d 57bc d83d c591 be3d
00000270: 1a45 923c 48fa 69bd 8097 d1b9 f3ee 35bd
00000280: c2e4 833c 4789 c3bc 2a4a 60bc 2d6c 1bbd
00000290: abde cabc 6490 2cbc edd4 6fbd ee1c b1bc
000002a0: 665e 893d 7511 f0bd 5006 ef3c 812b ea3b
000002b0: 13e8 a4bc e949 bd3b 08d3 813c 3f92 e03d
000002c0: aaae 20bc 6561 ab3c 9808 1a3c 2a7f c3bb
000002d0: 05ed b03c 16e0 f1bd 1b4e d23c 583d da3c
000002e0: dda1 073d 30ce e3bd 40de 953d 2846 28be
000002f0: ceb4 833d d54a d5bd 185e 05be de41 a73d
00000300: 7a66 cd3d 742a eebc 6a80 ac3d 123e d03d
00000310: 0189 543e a429 b8bc 502b 183c 37e0 d23d
00000320: f99d ef3d f7d8 583e a79e 74be ca99 b83d
00000330: 0c8a cabd d99f a3bc 2798 20bd e5f5 cfbc
00000340: bf95 563e add0 dabd 3154 723e 7d09 3cbd
00000350: b851 44bd 5842 f7bc cadb 09be d61d 29bd
00000360: 79fc 93bd 94a7 753e a37b 52be f055 c53d
00000370: 0331 053d 382b a1bd f0cb 6bbd f72e b93d
00000380: 9262 fcbd 924d ea3d 9509 b03c 51ee 0a3e
00000390: 9537 d5bd da29 aa3b a38f a5bd ee63 e23b
000003a0: 768c b9bd b53a bdbd 41f9 443d 93ac 2c3e
000003b0: ce95 383e a8b4 80bb 68ad ff3d 2f12 ddbd
000003c0: 3840 9ebd f5d8 c7bd aed0 283e 0cbf 093e
000003d0: 92ca 3fbd ff79 efbc d29f 4bbd 232f b33d
000003e0: 88b0 57bc baeb 26bd 37a2 733d 3aba 88bd
000003f0: 4a77 a83d 3b2b 3cbe cbc3 153c 6ab6 87bd
0.1942677 -0.17065932 0.033966232 0.09050545 -0.08941392 -0.00022634683 0.021914238 -0.04350407
-0.04966677 -0.027066346 0.059114896 0.14776812 -0.030096991 -0.0723646 -0.00035357778 0.023437431
0.06109745 0.06415886 0.006883729 -0.09114427 0.1530352 -0.09875 -0.04042262 -0.22728504
-0.083021864 0.043313988 -0.046441693 0.09785995 -0.018457746 -0.21944398 0.04018669 0.12748647
0.051861856 0.12137636 -0.05915918 0.06154753 -0.055886507 0.11107904 -0.15262593 -0.100991026
0.08811832 0.036334887 0.041738518 0.15254793 0.00031513776 0.065233685 -0.11810086 0.15253606
0.048069105 0.039211046 0.07045763 -0.00019582635 0.21183369 -0.063357525 0.04175157 -0.029166913
0.13968626 0.11599144 0.091223426 -0.025518883 0.0028848085 0.023674713 0.2084165 0.11378813
-0.10670367 -0.026672937 -0.07770831 -0.19110882 0.020338908 0.06359087 0.13267893 7.389893e-05
-0.025132485 -0.039005954 -0.09814536 0.011893856 0.0002616832 0.06019785 -0.05607078 -0.1402314
0.13050802 0.039230082 0.00018393242 -0.06397037 0.054807127 -0.014422002 -0.07045151 -0.19099227
0.0076040244 -0.012809675 0.09948209 0.014602181 -0.14639351 -0.15211362 0.1117971 0.04613879
0.048256118 0.055110443 -0.07265801 -0.04000869 -0.20082767 0.017090483 0.18756376 -0.066341735
-0.09252786 0.14655635 -0.03820949 -0.24811612 -0.13726158 0.07511917 0.000322236 -0.0821793
0.021850927 0.00040278857 0.10297577 -0.0020509427 -0.070696585 0.033643827 0.085567996 0.021624245
-0.06232332 -0.0830547 -0.075046666 0.01822486 -0.30395508 -0.19992267 -0.124287866 -0.016791362
0.026016692 0.032741915 -0.034146257 -0.026415043 -0.019163456 0.150883 -0.030438183 -0.007281954
-0.13459197 -0.1510355 0.05121491 0.00025798634 -0.06028248 -0.048594244 0.021356875 0.044747967
-0.06305574 -0.03361295 0.06684067 0.12827438 0.07977479 -0.06768903 0.08158245 0.14225663
-0.05496693 0.120482415 0.10582798 0.09305147 0.017855216 -0.057123452 -0.00039976463 -0.044417333
0.016100291 -0.02386917 -0.013689557 -0.03794496 -0.02476438 -0.010532472 -0.05855267 -0.02162024
0.06707458 -0.1172208 0.029177815 0.0071462994 -0.020130193 0.005776633 0.015847698 0.10965394
-0.009807268 0.020920465 0.009401463 -0.005966087 0.021597395 -0.11810319 0.02567201 0.02664058
0.03311335 -0.111233115 0.073177814 -0.16433012 0.0643097 -0.10414664 -0.13024175 0.0816686
0.100293115 -0.029072978 0.084229305 0.10168089 0.20755388 -0.022480793 0.00928767 0.10296672
0.11700053 0.21176516 -0.23888646 0.09013708 -0.098896116 -0.019973682 -0.039207604 -0.025385806
0.20955561 -0.10684333 0.23664929 -0.045907486 -0.047929496 -0.030183002 -0.13462749 -0.04128822
-0.0722589 0.23989707 -0.20554976 0.09635532 0.032517444 -0.078695714 -0.057567537 0.09042161
-0.12323488 0.114405766 0.021488944 0.13567473 -0.10410992 0.0051929774 -0.08084037 0.006908885
-0.09059994 -0.09239713 0.04808927 0.16862707 0.18025896 -0.003927786 0.124842465 -0.10794484
-0.077270925 -0.09758178 0.16485855 0.13451785 -0.046824045 -0.029232977 -0.049712963 0.08749225
-0.013164647 -0.04075215 0.059480872 -0.06676145 0.082258776 -0.18375866 0.009140919 -0.066265896

A_embd.linears.0.bias f4 [32]
00000000: 9099 11bd ac27 a13d 355f 16bc 431b 59bd
00000010: b8fd 9e3d a549 f63c a699 033d 1302 8abc
00000020: d449 7e3d 81be b23d 6e9c bebd cd46 6a3d
00000030: 5477 733d 29be 8e3c 3f3b 1e3d 17e5 92bc
00000040: 8e4a 2cbd fd8f 633d 76cf 63bd b2a1 aa3d
00000050: 2d3c 813d 6e19 ab3d b2fb 60bd b59d 9bbc
00000060: 12b4 bd3d 3ebf 38bd befc 73bc 3077 bebd
00000070: 2b85 8e3c 8fca 813b 740a 8dbc 489c 5f3d
-0.03554684 0.07868895 -0.009177973 -0.053004514 0.07763237 0.030064413 0.032128952 -0.016846692
0.062082127 0.08727742 -0.0930718 0.057196427 0.059439972 0.01742466 0.03863072 -0.017931504
-0.04206329 0.05555724 -0.055617772 0.08331622 0.06310306 0.0835446 -0.054927535 -0.018996099
0.09262861 -0.045104258 -0.014891801 -0.09300077 0.017397484 0.0039609144 -0.017216899 0.0545924

A_embd.linears.1.weight f4 [32, 32]
00000000: 2ff6 e2bd 378b e2bd 7676 5ebe 6aae ebbd
00000010: b86a d1bc 1f11 1dbe 05b1 15bd 438e 003e
00000020: 8fd2 533d 578f 4bbe 17fb 34bd 0dce 52bd
00000030: 889d 04bd ae75 c2bd 4897 07be 0220 48bb
00000040: 4640 d13c 472d 103e 97f1 87bd 26ff 213e
00000050: 4968 c23d 14f0 113e d3bd 13bd 6e30 b7bc
00000060: c30a 583d 9f4d 3c3d 8bd0 1f3e 1315 b7bc
00000070: 93ab 803d bda2 ccba 61c7 0c3e ac77 943d
00000080: 9e18 7abd 61c5 74bd 53ee 8cbd 3e33 713d
00000090: f578 573d 5849 3cbe 69ec be3d 153c b5bd
000000a0: 7fe8 0bbe e2ed 0cbd e338 4c3e 4add 94bd
000000b0: 3791 423d fc5e c3bd 2ec1 a63d af6a 86bd
000000c0: 5377 17be cd24 01be ba48 ad39 5eb9 53bc
000000d0: 9189 23bd 5351 bc3d fc13 7e3d 93da 123d
000000e0: 8207 0cbd ad23 1dbe 7631 9f3c 379a c03d
000000f0: a6b7 0b3c 2718 4fbe b1e9 b93d 03b6 10be
00000100: 7459 95bc e42e 12be 6e9e 163d 781a 12bc
00000110: 0e97 5ebd d407 9c3d 887a a33d 6bed 563d
00000120: 7faa 403c 35f6 d83c 028c 953c 7071 f2bc
00000130: 7392 983d 5558 e9bd bd4a cfbb 2edb f63d
00000140: 288a 863d b7c4 7fbe bdc0 d63d 6d48 68bc
00000150: 7f3d f03d 0661 7a3d 5824 1ebe d900 cf3d
00000160: e5b0 f33d 6d23 6fbd ee03 e33c bbdb e6bd
00000170: ec19 943b c5f6 223c 02ce 1c3d 301c 273d
00000180: ee2b 73bc a8c5 eebd 1289 b53b 3c19 c4bd
00000190: e2f3 cdbd 63c3 823d 7f36 9dbd 0eac caba
000001a0: 896a 173d 2afa 903d 4b45 cabd eef4 883d
000001b0: 8589 033d b4e1 0b3b 6759 813d 8d7a 38bd
000001c0: a606 e0bd 8f04 0b3e 26b0 62bd f6fd 27bd
000001d0: 36a2 b73d d73a 38be 933f 0d3e 18ca 323e
000001e0: 29ea 0e3e 9657 47bd b320 d03d b1bf f43d
000001f0: 9093 493d b35c 96bc 4498 803d c24f cc3c
00000200: 0403 93bd c795 01be 322b 113d b853 553e
00000210: 860c 19bd 523b 17bd ab82 00bc 93dd b53d
00000220: d391 89bd e865 3a3d 8499 5abc 1c3a a6bd
00000230: 80e1 51bc ddce 113b 0ae8 ffbc 7f1e 0bbe
00000240: d4b1 293d 08f4 6b3e 26d6 c13d 14c5 7ebd
00000250: 1e6f 3a3d 4da7 d1bc 60a4 673d a9f8 c83c
00000260: fca0 c83d cc3e febc 4279 b0bd 71ef 713d
00000270: b376 04be e00e 8d3c 0941 abbd 6ff5 07bd
00000280: 5965 1bbd 7d3d 4a3d ccfe b23c f08d 17bb
00000290: c10b 3ebd 4bf7 7e3b 7e11 44bd f10a db3d
000002a0: 5254 b7be 9d82 a43d 897e dcbc f9a4 45bc
000002b0: 5516 423e 27ef 04be 066c 613d 4642 803d
000002c0: c96e 09be 2d41 fa3d 23b3 f13d 72cf 013e
000002d0: ceeb f2bb 87e9 953c 1408 d43c 7e24 283d
000002e0: 932c c6b8 6146 97bd fbe1 babd 79b0 cc3d
000002f0: b2f2 1bbe 9a11 383d 92f8 da3c b314 2abd
00000300: 3ff9 403d dac7 8f3b 5259 a23d 3c2e b5bd
00000310: 305d 373d 03ea 3b3e 9a4e 6e3e f42a 243d
00000320: 3e29 903d ce76 723d db9a 613d 8c61 2e3e
00000330: 5e6d 03be a2e2 da3c c3c3 9c3d 8e68 d73d
00000340: 77f5 523e 2244 ef3c e700 14bd c4b6 2d3e
00000350: 888f e83c 1857 383c 70f1 b03d aeaa 773c
00000360: 67cd 07be 6560 893e 47b5 c03d 92f6 6cbd
00000370: 8b62 fe3c d556 c6bd 192a e73c 9b8d cb3d
00000380: 3728 6c3d ee77 23bd f004 f93d 6585 82bc
00000390: 0ba9 5fbd f22f b5bc a37a 19bd 3621 9ebd
000003a0: 3450 fe3d ffdf da3c cb18 0e3d 4f3d b3bc
000003b0: 4aec 793a 3fee 693d 88e2 a2b9 470e 0a3d
000003c0: c7c9 c8bd f5fe 05be 3d43 f53d a20b 69bc
000003d0: 1191 513e fb30 85bc 3af1 63bd eadb b43d
000003e0: 673b b4bd de48 61bd 2333 8bbd 6091 ef3d
000003f0: b242 813d 8da8 87bb 1b2c 173e 2664 ce3d
-0.11082112 -0.110617094 -0.21724877 -0.11507876 -0.025563583 -0.15338562 -0.036545772 0.12554269
0.051714476 -0.19878899 -0.04418477 -0.051466037 -0.032376796 -0.09495102 -0.13241303 -0.0030536656
0.025543343 0.14079772 -0.066378765 0.15819988 0.09492547 0.14251739 -0.036069702 -0.02236196
0.05274464 0.045972463 0.15606897 -0.022348916 0.06282725 -0.0015612465 0.13747932 0.07249388
-0.061058633 -0.059758548 -0.06881394 0.05888676 0.052605588 -0.18387353 0.093224354 -0.0884935
-0.13662909 -0.03440655 0.19943576 -0.0726877 0.04750177 -0.09539601 0.08142315 -0.06563317
-0.14791612 -0.12611695 0.00033051317 -0.012922613 -0.039926115 0.09195199 0.062030777 0.03585298
-0.034186848 -0.1534564 0.019432765 0.09404414 0.008527672 -0.20224057 0.09077776 -0.14131932
-0.018231131 -0.142757 0.036772184 -0.008917443 -0.054343276 0.076186806 0.07982355 0.052472513
0.011759399 0.026484588 0.018255237 -0.029595107 0.07449808 -0.11393801 -0.006326048 0.12053524
0.0656932 -0.24977385 0.10485981 -0.014177424 0.117304794 0.061127685 -0.15443552 0.101075836
0.11898974 -0.058383394 0.027711835 -0.11272379 0.0045196917 0.00994653 0.0382824 0.040798366
-0.014842017 -0.11658794 0.0055400217 -0.095751256 -0.100562826 0.06384923 -0.0767641 -0.0015462653
0.036966834 0.07078965 -0.09876498 0.06687342 0.03211357 0.0021344246 0.0631588 -0.04503875
-0.10938768 0.13575958 -0.05534377 -0.04101368 0.08966486 -0.17991196 0.13793783 0.17459905
0.13956513 -0.048667513 0.10162487 0.11950625 0.049212992 -0.01835475 0.06279042 0.024940375
-0.071783096 -0.12654792 0.035441585 0.20832717 -0.03736546 -0.036921807 -0.007843654 0.088801526
-0.06717267 0.04550734 -0.013342265 -0.08116552 -0.012810111 0.0022248544 -0.031238575 -0.13585852
0.041429356 0.2304231 0.09464674 -0.062199667 0.045516126 -0.02559247 0.056553245 0.024532633
0.0979633 -0.031035803 -0.08616878 0.05906624 -0.12935905 0.017219007 -0.08362014 -0.033193048
-0.03793845 0.049375046 0.021850012 -0.0023125373 -0.04639793 0.0038904722 -0.047868244 0.10695446
-0.3580652 0.08032725 -0.026915805 -0.012063258 0.18953831 -0.12981854 0.05503466 0.06262641
-0.13421167 0.122194625 0.11801746 0.1267679 -0.007413364 0.018299831 0.025882758 0.041050427
-9.449678e-05 -0.073864706 -0.091251336 0.09994597 -0.152293 0.04493866 0.026729856 -0.041523647
0.0471127 0.004387838 0.07927193 -0.08846709 0.044766605 0.18350987 0.23272172 0.040080026
0.07039116 0.059195332 0.055079322 0.17029399 -0.12834689 0.026719395 0.07654526 0.10517989
0.2060145 0.029207293 -0.036133673 0.16964251 0.028388754 0.0112512335 0.086398005 0.015116377
-0.13261949 0.26831356 0.09409576 -0.057852335 0.031052848 -0.09684531 0.028218316 0.099391185
0.05765554 -0.039909296 0.12159145 -0.015932748 -0.05460457 -0.022117589 -0.03747047 -0.07721178
0.12417641 0.026718138 0.034691613 -0.02187982 0.0009533806 0.057111975 -0.00031067827 0.033705022
-0.09804111 -0.1308554 0.11975715 -0.014223965 0.20465495 -0.016258707 -0.055649973 0.08831008
-0.088003926 -0.055001132 -0.06796863 0.1169765 0.06311549 -0.004139966 0.14762919 0.100776955

A_embd.linears.1.bias f4 [32]
00000000: cc0d 523d e6eb 82bd 9cf7 8e3d cdf8 a6bd
00000010: e6c8 52bc 548f 73bc 6a11 203a fcfe b5bd
00000020: 7546 07bc 947e 553b f925 453d 0f2b babc
00000030: 0091 8bbd 01d0 ddbc 1cc2 2dbd 1ea2 503d
00000040: 3cd3 a93d cc1c 9f3d 0752 b43d 42ef ac3d
00000050: 2ac7 b1bd fb8c 383d d5a0 05bd 7e3f efbc
00000060: 477a b53d 8408 10bd adec b0bd 7deb 4dbd
00000070: e60c a73d 8925 95bd 81f3 a73c ca7c 7b3d
0.05128269 -0.0639265 0.069808215 -0.08152924 -0.012865281 -0.014865715 0.00061061105 -0.08886525
-0.008256544 0.0032576667 0.048131917 -0.02272561 -0.06814766 -0.027076723 -0.042421445 0.050935857
0.08292243 0.077691644 0.08804708 0.08444072 -0.08680566 0.045056324 -0.032624085 -0.02920508
0.08861213 -0.03516437 -0.08638892 -0.050273407 0.08156757 -0.0728255 0.020501854 0.061398305

A_embd.linears.2.weight f4 [13, 32]
00000000: e06a ef3d fe80 063d 0e33 293e 70e1 8abd
00000010: 41f5 96bd 5a5a 2fbd 5f9b d6b9 c4cf ac3d
00000020: 10a1 b13d d248 d93c d381 083e 6302 ec3c
00000030: 5751 1abd 2fc1 443e 0212 083e b26b eabd
00000040: 4778 993d f29c 17be 4000 6a3d 262a a33d
00000050: da4d 8e3b 9d5b 6cbd 46fc 61bd 7d0e bb3d
00000060: 2719 11ba 04bb 1f3e 1aa8 9f3d afa7 043e
00000070: e274 643b cab4 02bc 8992 c33b 7165 94bb
00000080: 55ba bbbd 7d92 63be 11a6 4a3d b963 5abc
00000090: e127 a5bc 835a 473d 19c9 b83c 4a77 14be
000000a0: de08 13bd 7c5a 70bb 7027 743e afab c8bd
000000b0: da1d d1bd 76a9 1a3d 1a29 bb3c a32c b1bd
000000c0: 45da 3dbe bc36 3d3d 68dd be3a 7f9e 763c
000000d0: bf14 4abd 1422 c23a 3a58 503d 6426 9e3c
000000e0: 3d7d c8bd f5ff 903d d36d 7b3d c887 19bd
000000f0: 6ca8 4b3c ba70 d9bd 7fdf 78be d04e 6bbe
00000100: d233 0b3d 85d6 263d 3c5b 74ba bdd0 713d
00000110: 9e5e b2bc 55af dfbc d362 78bd c031 d33d
00000120: b123 0fbd 1c71 acbd 8475 ad3d 75da e6bc
00000130: 04d3 ddbd 4247 6f3d a42d b03c 2ea2 12be
00000140: 1aeb 113d 8c10 56bd 8b68 de3c 6a8b edbb
00000150: 33ef edbd 3e79 963b a1c1 043d a63a babd
00000160: 75a6 8cbd 7dd5 933e ad9e fdbd a1be 23be
00000170: 0932 eabd a16c dcbd 30ec 883e f006 a93c
00000180: 9123 d23c 09a1 4cbd 75db d0bd 0b9c a2bc
00000190: 06f0 d03c 07c4 533d 0563 7ebe 9aa6 5f3d
000001a0: b159 00bd 7caa 21bd 36a5 2cbd 4f8b 2bbe
000001b0: 9d49 e93d 6c9f 04bd b863 7cbd 2c26 46b9
000001c0: 4c37 01be 9455 803d 59ef 243c 1022 cbbc
000001d0: 081c 92bd 5a12 003e 31c5 963d 39d6 583d
000001e0: 7b8c e0bc 6b7f d439 16a7 453c b248 dcbb
000001f0: 9a7e 83bd a143 993c 54cb 83be e3d4 07bb
00000200: 48be d4b9 b25f b93d 6807 6ebd 9f9d 583d
00000210: ae17 1fbe 3fb9 42bd d6ef 40be c793 283b
00000220: bfbb 483a bd12 1a3c 6e7e 09bd 4a57 bcbd
00000230: 4d5d 9c3d 6ee1 d33c 4837 fdbc 9c83 0ebe
00000240: 4064 853d 4b4b 4abc d0a4 4dbe 2f9a 05be
00000250: 8a13 873d 80dd d13c da1a 743e 0873 67bd
00000260: b1d4 f83c 2f6c 11bd 2110 033e 777c f93b
00000270: 0e24 b03c 4ab7 c4bd b10f 7ebe 327c 433d
00000280: 4ccd 64bc bd71 d43d 5997 4abe 8232 05bd
00000290: 010a 8ebd 4a8b 8abd 2358 be3d 57bd 06be
000002a0: b9f3 2c3d 39bc 30bd a73f c8bc 0156 a2bb
000002b0: 0ead f03d 1f91 b1bd 6e71 2b3d 82f1 a2bc
000002c0: 1442 193e 5d50 6838 dad8 253e 72db de3d
000002d0: 1a0c 423b 5b34 c9bc 7ccb c23d a5ca 4b3a
000002e0: e26f 583d 88ca 6b39 2551 7e3c 8fc7 27bd
000002f0: 6365 093d 6d84 f3bd 00c4 4abe 0914 073d
00000300: 2008 363d 9c99 18be dab5 053e 75b6 5f3d
00000310: b14d 9bbd 4a03 d43c ebbc ae3d 8492 f53d
00000320: 288d 03be 76ac c5bd 08d4 4c3d 38f4 8a3d
00000330: c437 33bc 94da 203d 011a 09be d378 b8bd
00000340: 8b51 a6b9 55fd 9cbd 5b94 d8bd d29c 263e
00000350: deea 55bd 44d4 333e d72d d2bc 897f 473e
00000360: 7ac8 a5bd ea3f 30bd 4227 01bc c455 13be
00000370: aed7 153d 81cc f4bc be1f d83d 8963 aebb
00000380: 67ca 96bd db8a 2bbd b2b8 0a3b 0498 e2bd
00000390: 57c1 143e 13aa 7cbd 20a5 e83d 556d 77bd
000003a0: fb21 1dbe bf16 b93d a926 6dbc cd46 2e3d
000003b0: 3444 0bbe 6a48 6a3d 3d4d 37be c9b4 9b3d
000003c0: 2e4f 10bd 10f1 c2bb aca3 a83d 2055 a6bd
000003d0: 4542 5d3d 97f9 26bd c3e5 b0bd 4fec c8bc
000003e0: ef73 5cbe 603b aa3d 3090 6abd 58bc 4d3d
000003f0: 0d78 8ebd 39b2 13be 90e6 83bd 78d2 163c
0.11690307 0.03283786 0.16523382 -0.0678128 -0.07370997 -0.042810775 -0.0004093302 0.08438066
0.08673298 0.026523981 0.13330774 0.028809732 -0.037675228 0.19214319 0.1328812 -0.114463225
0.07493644 -0.14805964 0.057129145 0.079670236 0.0043427767 -0.057704557 -0.055172227 0.09133623
-0.0005535059 0.15598685 0.07795735 0.12954591 0.0034859707 -0.007977674 0.005968396 -0.0045286943
-0.091663994 -0.2222385 0.04947478 -0.01332944 -0.020160617 0.048670303 0.022556828 -0.1449863
-0.03589713 -0.0036675027 0.23843169 -0.09798371 -0.10210772 0.037759267 0.022846747 -0.08651092
-0.18540294 0.046194777 0.0014561834 0.015052437 -0.04933619 0.0014811181 0.05086539 0.019305415
-0.09789512 0.0708007 0.061384033 -0.037483007 0.012430292 -0.10617204 -0.24304007 -0.22979283
0.033984967 0.040731926 -0.00093214563 0.05903696 -0.021773633 -0.027305285 -0.06064112 0.103122234
-0.034946147 -0.084200114 0.0846968 -0.02818034 -0.10831264 0.058417566 0.021506138 -0.14319679
0.0356246 -0.052261874 0.02714946 -0.0072492855 -0.11617889 0.00459209 0.03241122 -0.090932176
-0.06867687 0.28873816 -0.12383781 -0.15990688 -0.11435325 -0.10762907 0.26742697 0.02063319
0.025651725 -0.049958263 -0.10198108 -0.019849798 0.025505077 0.051700618 -0.2484246 0.054602243
-0.031335536 -0.039469227 -0.042149745 -0.16752361 0.11390994 -0.0323786 -0.061618537 -0.00018896972
-0.1261875 0.06266323 0.010066831 -0.024796516 -0.07134253 0.12507 0.0736183 0.052938674
-0.027410736 0.00040530725 0.012063762 -0.006722533 -0.06420632 0.018709006 -0.25741065 -0.0020726256
-0.00040577562 0.090514556 -0.058112532 0.052884694 -0.15536377 -0.047539946 -0.1884149 0.0025722848
0.0007657371 0.009403882 -0.03356784 -0.091963366 0.07634983 0.02586433 -0.03091015 -0.13917392
0.06513262 -0.012347053 -0.20082402 -0.13047098 0.06595524 0.025618315 0.23838368 -0.056506187
0.030374857 -0.035503563 0.12799121 0.0076137143 0.021501567 -0.09605272 -0.24810673 0.047725864
-0.013964962 0.10373256 -0.19784297 -0.03251887 -0.06935502 -0.067648485 0.092941545 -0.13158165
0.04222462 -0.043148253 -0.024444414 -0.0049541 0.117517576 -0.08670258 0.04185622 -0.01989055
0.14966613 5.5387954e-05 0.16196004 0.108816996 0.0029609264 -0.024561098 0.09511468 0.0007774032
0.052841075 0.00022486795 0.015522276 -0.0409618 0.033543956 -0.118904926 -0.1980133 0.03297809
0.044441342 -0.14902347 0.13057652 0.054617364 -0.07583178 0.025880475 0.08532127 0.11990836
-0.12846816 -0.09652035 0.050006896 0.06784862 -0.0109385885 0.039270952 -0.13388826 -0.090074204
-0.00031722742 -0.07665507 -0.105751716 0.1627076 -0.05222594 0.17561442 -0.025656624 0.19482245
-0.080948785 -0.043029703 -0.007882895 -0.14388186 0.03658264 -0.029882671 0.10552929 -0.005321924
-0.07362824 -0.04188047 0.0021167216 -0.11064151 0.14526878 -0.061685633 0.1135962 -0.060407
-0.15344994 0.090375416 -0.014474549 0.04254799 -0.13600236 0.057197966 -0.17900558 0.076028414
-0.03523176 -0.005949147 0.08234343 -0.08121705 0.054018278 -0.04076537 -0.086375736 -0.024526743
-0.215286 0.08312106 -0.057266414 0.050228447 -0.069564916 -0.14423455 -0.06440461 0.009205453

A_embd.linears.2.bias f4 [13]
00000000: ed47 92bd bfab babd b195 603d c2d3 6f3d
00000010: 7b14 bbbd a6e1 66bb ff40 0fbd 4ff2 16bd
00000020: 0de4 bdbd 2777 e5bc 55e9 a93d ccde ed3c
00000030: 4247 7c3d
-0.07142625 -0.09114789 0.054830257 0.058551557 -0.09134766 -0.0035229712 -0.034974094 -0.036852177
-0.09272013 -0.028010918 0.08296458 0.029036902 0.061591394

F.linears.0.weight f4 [32, 26]
00000000: 53a9 a73d 72fa c1bd b148 3d3d ca09 08be
00000010: cf22 08be 0dfa b6bc 65a7 e13d d8ab 26be
00000020: 03b2 fc3a f0cc 353e 676a dd3d ca00 173e
00000030: 2a90 143d f21e 47bc acde c0bd 3512 3d3d
00000040: fd02 0dbe 6cab 81bd 46f6 813d 78e0 d93c
00000050: c212 223e 761c 32be 585f 63bd 2bf4 23be
00000060: 217f 943d 8942 84bd 2814 edba ae38 25bd
00000070: 91c7 6f3d b385 d83c 6cf4 4fbe 932f 023d
00000080: 9a61 053e 49f0 503e 5c56 61bc 48da ab3d
00000090: c6e3 cb39 a1a5 113d a07d e8bd 20ee 39be
000000a0: 4469 18be d140 70bd 4763 1fbe eb95 3dbe
000000b0: 50ef a33c c200 533d 2e1e b73d eaa4 c03c
000000c0: b9b6 99bd 2720 e83c 1442 38be d64f 3d3c
000000d0: 108d d43b b958 763d 6b5a 30be 90cb 21bd
000000e0: 004b c43d fe2b 9cbc d7e1 feba 93cf b03d
000000f0: b7ce bbbd 013c d3bd 7e35 403c eaf9 c5bc
00000100: 6d58 063e 5a57 fdbd 22be 3c3c 24ba 3b3d
00000110: 0d45 44bb 0d9a 0cbd f6fd 3dbe 3ecd b73d
00000120: 7790 ec3c 86b8 1a3d 0f6c efbd 733d 5c3e
00000130: d7a0 e43d 5109 463e 4c0c 333d 2b7e 11be
00000140: 9fe0 b1bd aaf7 8f3d 685b 1abd 607b 74be
00000150: 7b23 8a3d 0b63 26bd b1b8 05be f08f 89bd
00000160: 597b f4bd 9039 a5bc cea4 ae3c d0dd 163e
00000170: f1bb 61be aad3 31be d2d0 d8bd ca4b 9fbd
00000180: 1ce9 473c 6160 b13d 8342 8bbd e647 bb3e
00000190: 5c07 143e 1320 7cbe 708c ca3d 534e 8dbd
000001a0: 4133 7fbe 2496 45bd 3c27 d43d b3dd f03d
000001b0: 1855 03bd a6e6 e3bd 9345 1ebe 3080 c4bd
000001c0: 9a23 cebd cd39 8ebc aaf0 26bb c140 be3c
000001d0: 21fb 11be 94b1 933d 3c07 c5bd 93d8 e2bd
000001e0: 879d a5bd 75ae 53bc b5b0 653d 8b76 c93d
000001f0: 8a11 72be e56a 08be a15d 293e 27a0 d8bc
00000200: 61ab 84bd cf96 be3c d3af eb3d 3ddb 263d
00000210: 10c6 f63b 7300 813d 3f44 c7bc dfd1 e9bc
00000220: 35cd 123d 6b2c 8e3d 9317 74bd 1c06 d5bd
00000230: 0bfe f9bb 5b08 2bbd e7df 07bb dce7 ff3d
00000240: 9556 0c3d 2d02 473c e3e9 873c ed44 513d
00000250: f2b2 b8bb 02ca c4bd e68c 97bc 8746 f7bc
00000260: 20a0 bf3c 3a2b 0f3e e9cc 15be 13f6 623a
00000270: cdd8 003e d5c1 003e b89a d9bc 5c17 163d
00000280: 318f a33d 02bf 36bd dd05 20be 0682 83bd
00000290: 27f7 8e3b 072b 483d 384a a03d d152 c83d
000002a0: 1f85 8f3d d160 f63d a115 d8bd 425e 783d
000002b0: 68ad aa3c 8d4e e9bd c170 273d 2cce 21bd
000002c0: 51e3 bb3d de72 2abe e7de 02bc be1c 2e3d
000002d0: feea 89bd 9f78 82bd 59ff 7b3d b247 debc
000002e0: a0c6 87bd a430 dc3c 75aa 153e 914f 8a3d
000002f0: 4c8c 10bc 5377 f33c 98f0 41bc 8a5f 11bd
00000300: 8be1 673d c27f f13b b603 6fbd 2191 14be
00000310: e76d bdbd ced1 a7bd 8e05 22bb 1ffb 963d
00000320: f7d1 57bd 048e dbbd 068d cfbb 6716 e83b
00000330: 4ce0 183e af3a 21be d3c5 d23c 4353 1d3e
00000340: d034 73bd ffee 4e3c 4322 ad3b 1c45 d6bd
00000350: 5bba ac3b 6d2e 18be f65c ecbd 5065 053e
00000360: d7b6 44be b740 cfbc d4c9 75be c6ed b33d
00000370: dca8 953a 3a2e e53c c64c 353d 3cc2 64bc
00000380: 6187 e53d c3c8 933d e960 02be e81b 22be
00000390: 6538 bbbd d96c 25bd 8874 95bd 70c6 1d3d
000003a0: dd75 1d3d 9686 1f3e 4f7d d03d 4a4e f63c
000003b0: 6cfd 153b 4556 f83d 05f3 5fbd 71d2 443c
000003c0: 0ca5 763d ef38 9abd d9d2 683b 6db9 4abd
000003d0: 6839 39be 20dd c83b ba88 423d c92f cd3d
000003e0: 4874 adbd d894 5b3d 93d2 853d e7a5 2f3d
000003f0: 57ec 963c 0509 2f3d fcb3 23bd 02c6 48bd
0.08186593 -0.09471597 0.046211902 -0.13284984 -0.13294528 -0.02233603 0.11018256 -0.1627649
0.0019279126 0.17753959 0.1081131 0.14746395 0.036270298 -0.012153374 -0.09417471 0.04615994
-0.13770671 -0.06331524 0.06345801 0.026596293 0.15827468 -0.1739367 -0.05551085 -0.16011111
0.072508104 -0.06458003 -0.0018087672 -0.040337257 0.05853993 0.02643094 -0.20308083 0.03178365
0.13025513 0.20404162 -0.0137535 0.08391243 0.00038888882 0.035558347 -0.11352086 -0.18157244
-0.14883906 -0.058655564 -0.15565215 -0.1851422 0.020011574 0.051514395 0.08941303 0.023516137
-0.07505555 0.028335644 -0.17993957 0.011554679 0.0064865425 0.060143206 -0.17221992 -0.039500773
0.095846176 -0.019063946 -0.0019445968 0.08633342 -0.09170287 -0.10314179 0.0117315035 -0.02416702
0.1311967 -0.123701766 0.011519941 0.045831814 -0.0029948384 -0.0343266 -0.1855391 0.08974694
0.02887748 0.03777363 -0.116905324 0.21507816 0.1116349 0.19339491 0.0437129 -0.14208286
-0.08685421 0.0702966 -0.037684828 -0.23875189 0.067450486 -0.0406218 -0.13058735 -0.06716907
-0.11937589 -0.02016905 0.02131882 0.14733052 -0.2204435 -0.173659 -0.10586704 -0.077781275
0.012201574 0.08660961 -0.067997955 0.36578292 0.14455932 -0.2462161 0.098900676 -0.06899705
-0.24921896 -0.04823889 0.10359046 0.11761036 -0.032063574 -0.11127977 -0.15456228 -0.09594762
-0.10065384 -0.017361546 -0.0025473037 0.023224236 -0.14255954 0.07211605 -0.096205205 -0.110764645
-0.080866866 -0.012920012 0.056076724 0.098370634 -0.23639503 -0.13322027 0.16539623 -0.026443554
-0.064780004 0.02326527 0.11508145 0.040736426 0.007530935 0.06298914 -0.024324534 -0.028542457
0.035840232 0.06942066 -0.059592795 -0.10401556 -0.0076291612 -0.041756015 -0.0020732821 0.124953955
0.03426226 0.012146515 0.016591018 0.051091123 -0.0056365663 -0.096088424 -0.018499803 -0.030184997
0.023391783 0.13981333 -0.14628948 0.0008657884 0.12582703 0.12573941 -0.026563033 0.03664337
0.07986296 -0.044615753 -0.15627237 -0.064212844 0.004362959 0.04886916 0.07826656 0.09781421
0.07007813 0.12030185 -0.105510004 0.060636766 0.02083464 -0.113919355 0.040879015 -0.03950326
0.091742165 -0.16645381 -0.007987714 0.04250788 -0.06734274 -0.06370663 0.061522815 -0.027133796
-0.066296816 0.026878662 0.14615805 0.06753457 -0.008822512 0.029719984 -0.011837147 -0.035491504
0.05661158 0.0073699662 -0.05835315 -0.14508487 -0.09249478 -0.08194314 -0.002472255 0.07372116
-0.052690472 -0.10720447 -0.00633395 0.0070827487 0.14929312 -0.15745042 0.025729096 0.15363793
-0.059376538 0.012630223 0.0052836253 -0.104624 0.0052712387 -0.1486146 -0.115411684 0.13026929
-0.19210373 -0.025299413 -0.24002773 0.08785586 0.0011418122 0.027976144 0.04426267 -0.013962325
0.11207462 0.07216027 -0.12732281 -0.15830958 -0.09141616 -0.04038701 -0.07297617 0.038519323
0.03844248 0.15578684 0.10180151 0.030066628 0.0022886647 0.121258296 -0.05467512 0.012013064
0.060215995 -0.075303905 0.0035526066 -0.049493242 -0.18088305 0.006129876 0.047493674 0.1001888
-0.084694445 0.053608745 0.065343045 0.042882826 0.018423242 0.04273321 -0.03996657 -0.04901696

F.linears.0.bias f4 [32]
00000000: 1b0b c9bc 86ae 82bd 9cfe 83bb 7a95 a4bd
00000010: 203e bebd 07a7 9fbd 1f6d 10bd 3463 bbbc
00000020: 8fca a63d 77fd a4bd dc77 5cbd 166b a23d
00000030: c396 54bd 62e2 f13c a94d 193d 11a8 50bd
00000040: dea2 603d 351a 273d 3d1a 9f3d fc12 553d
00000050: 3f51 6f3d c177 ad3d 875d b23b e524 b63d
00000060: ed76 32bd 373e 263c cee3 913d da40 57bd
00000070: 989f c0bd 97ae 4f3c 5cf9 24bd 122f b8bd
-0.024541428 -0.06380944 -0.0040281545 -0.08036323 -0.09289193 -0.0779553 -0.035260316 -0.022874452
0.08144104 -0.08056157 -0.053825244 0.07930581 -0.05190159 0.029526893 0.037427578 -0.05094153
0.054842822 0.040796477 0.077686764 0.052020058 0.05842709 0.08470107 0.0054432782 0.08893756
-0.043570448 0.010146669 0.071235284 -0.05255208 -0.0940544 0.012675903 -0.04027687 -0.08993353

F.linears.1.weight f4 [32, 32]
00000000: c16e 28be 9449 b9bd 867f 943d 6a32 23bd
00000010: c63f 21bc c56a 013e d4d7 ab3d f4b7 89bd
00000020: 394e 6cbd f59d 3f3c cdf4 c0bd 0fb6 de3d
00000030: 73d6 59bd 3e13 88bd 4b49 433e 1db8 20bd
00000040: 9691 07ba 92db e63d 577d f13d 952c 2dbd
00000050: bed8 5dbd 10c1 b0bd 3854 1d3e 11ce 373d
00000060: bc4f 72bb a581 08be a210 4dbd 771b aa3d
00000070: 1ec4 203e 176c 70bd e1a8 223d 67ee 42bd
00000080: 56d1 69bc 6f62 d1bd 2e9e c33d 09af 3dbc
00000090: a67d f33d 61fb 773e f96e a7bc 1212 083e
000000a0: c0ee b0bd 6d6b 42bd 89d5 b7bd 60eb 2fbe
000000b0: 8e65 f43c b7be 8dbc b52b 063e dbd9 3ebd
000000c0: 6d9a 0c3e 95b7 34bc 0d1b 15be c83e 323d
000000d0: 74d3 b23d f3be cdbd 79f6 1abd 255f 1d3e
000000e0: bc8b 87bd 48f7 28be 5e0e 093e 2161 58be
000000f0: 7ec1 553b 8c25 fb3b 1cc8 0bbe 19b5 01be
00000100: 2a27 a33d 8430 d9bd dc01 e8bc 50dc a6bc
00000110: 570f 07be 7e16 5b3d 344f 383d 26b4 c7bd
00000120: 9a57 b1bd 76e0 08be 56b9 8e3b 0b76 1abb
00000130: cd76 c33d 6e0e 8bbb c94a ccbd 440c b43d
00000140: 7366 dabd 64fb 3ebd 5dce 9cbd 588b 933c
00000150: 9987 24be cfd0 cd3d ee2c 90bd 005b 1d3c
00000160: e549 9c3d a146 123d 4531 8c3e 56a2 f83d
00000170: b371 d2bc aa80 93bd 85a2 27be 19d0 49bd
00000180: 6da0 413d 64e4 47bc 4fef 3b3e a53b 26be
00000190: c6f0 f03a 84bb 8bbd d16f 503d 4a27 b13d
000001a0: 5079 e1bd 8a9f a8bd f199 8c3d 64c9 313e
000001b0: 867f 9bbe 4d16 b2bc a62e 59bd 8623 423d
000001c0: 3020 f7bb a304 0e3e 554b 1a3c cd11 b6bb
000001d0: a0c9 013d 8538 61be 3375 fc3d 0d27 6e3d
000001e0: 0d6f dabd 8dbf 21be b74a d73b ac96 e0bc
000001f0: 8b77 b53d 8d0c 17bd a569 6d3c 71d3 e0bd
00000200: de65 f3bd 4346 3bbd 24ae e6bc 4e94 14be
00000210: 5969 e4bc d0a4 b2bc b8c1 e2bd 14de fdbd
00000220: 7bc8 92bd 5455 2f3d 49be 673e 3cfb e0bb
00000230: 2978 593e 0216 0e3d 1d8e de3b 75f3 133e
00000240: 0dbf 503e 4a97 1ebd e474 933c 3d64 5a3d
00000250: 462f 683d 1712 38bd 181a 713d 4c23 853e
00000260: e042 e23d 1c1a 93bd c956 263e 4ed1 b6bd
00000270: 0cd4 5cbe d630 85bb 50dc 59bd 6e90 e1bd
00000280: aba6 0ebe 7b1d 27bd 2ff4 e93d 976c bc3d
00000290: 1118 89bd a0ae afbb eccf f73c 1a69 9a3d
000002a0: d28d d4bd ceab 173e e124 1cbd d4ff f63d
000002b0: ef85 86bd 69bf b1bc 04c7 8c3d 3cbf fbbd
000002c0: e6d0 783e 294f 50bc b316 22bc 4345 8f3d
000002d0: 3c13 71bd 6494 7d3c 4680 fa3d 9d7d 083d
000002e0: 8b24 7f3e c034 36bd fc39 90be a0b9 143e
000002f0: e6da 15be 0382 55bd ccb6 c9bd cdcf d5bd
00000300: d0ac 1c3e bfd9 4abd a660 94bd 6316 363d
00000310: 5466 8c3d 9920 ebbd 6e05 d3bd da1d c93d
00000320: 8697 be3d 305f 1a3d d23b 023e aa39 71bc
00000330: 1282 1a3d c93f af3d 49a3 553d b10f 943d
00000340: 85a5 e8bc 3fa0 8e3d 8cec 783d 02cf 1a3d
00000350: 2648 debd c360 45bd b3f7 d0bc 8a64 00bd
00000360: c6ff 103d 128c b43d 6fb2 1bbd f91c 00be
00000370: 46dc 05be 5fe6 203d 34aa cc3c f469 3f3d
00000380: 07cf eb3d 1fdb 723d a350 143d 2427 423b
00000390: 4340 46bd 02f8 3f3c 706e f43d 72dd 7cbc
000003a0: 56f9 863c 99ce 633e 0e6a fabc b0df 94bd
000003b0: 3b4c 373d a867 393c 54d0 2bbe 221b e33c
000003c0: eb0a d6bd ed34 ebbd d988 33be 3be2 febd
000003d0: bfb1 e23d 5ce6 54bd a663 793b 0d33 8a3c
000003e0: e83b cfbd 1d46 b4bd 3d40 0abe a9d1 393d
000003f0: 9bc4 4c3e 446e 273e 5471 823c 8be1 243e
-0.164485 -0.09047237 0.07250886 -0.039843 -0.009841865 0.12638386 0.08390775 -0.067245394
-0.057691786 0.011695375 -0.09421692 0.10874569 -0.05318303 -0.06644295 0.19070928 -0.039238084
-0.00051715353 0.112723485 0.11791485 -0.042278845 -0.05416178 -0.08630574 0.15364158 0.044874255
-0.0036973795 -0.13330705 -0.05006469 0.0830602 0.15699813 -0.058696833 0.039711837 -0.04759064
-0.014271101 -0.10223853 0.09551655 -0.011577376 0.118892 0.24216987 -0.020438658 0.13288143
-0.08639288 -0.04746573 -0.089762755 -0.17179632 0.029833581 -0.017302854 0.1310261 -0.046594482
0.13730784 -0.0110300975 -0.145611 0.043516904 0.08731738 -0.10046186 -0.03783271 0.15368326
-0.06618449 -0.1650058 0.13384387 -0.21130802 0.003261655 0.007664388 -0.13650554 -0.1266674
0.07966454 -0.10604957 -0.0283212 -0.020368725 -0.13189445 0.053488247 0.04499741 -0.097511575
-0.08659287 -0.13366875 0.00435559 -0.0023568894 0.09544144 -0.0042436635 -0.09975202 0.08791402
-0.10664072 -0.046626464 -0.07656548 0.01801078 -0.16067351 0.10049593 -0.0703982 0.009604216
0.07631282 0.03571189 0.2738134 0.12140338 -0.025688982 -0.07202275 -0.1637059 -0.049270723
0.047272135 -0.012200449 0.18353008 -0.1623369 0.0018382303 -0.06822875 0.050887886 0.08650072
-0.11009467 -0.08233555 0.068652995 0.1736198 -0.3037073 -0.02173915 -0.053023003 0.04739716
-0.007541679 0.13868956 0.009417375 -0.0055563212 0.031686425 -0.21994217 0.123270415 0.05814271
-0.106657125 -0.15795727 0.006570186 -0.027415596 0.08860692 -0.036877204 0.01449052 -0.10977829
-0.11884664 -0.045721304 -0.028159209 -0.14509699 -0.027882265 -0.021807104 -0.11072105 -0.12395874
-0.07167145 0.042805985 0.22631182 -0.006865887 0.21237244 0.034688957 0.0067918436 0.1444834
0.2038538 -0.0387185 0.018000074 0.05331825 0.05668571 -0.044939127 0.058862776 0.26003492
0.11047912 -0.07182714 0.16244043 -0.089266405 -0.21565264 -0.0040646596 -0.053188622 -0.11013876
-0.13930766 -0.0407996 0.114235274 0.09200399 -0.066940434 -0.005361393 0.030250512 0.07539578
-0.103786126 0.14811632 -0.038121108 0.12060514 -0.065685146 -0.021697717 0.06873897 -0.122923344
0.24298438 -0.012714186 -0.009893107 0.069956325 -0.058856234 0.015477274 0.122314975 0.03332292
0.24916284 -0.0444839 -0.2816924 0.14523935 -0.14634284 -0.052125942 -0.09849319 -0.104400255
0.15300298 -0.049524065 -0.07244997 0.044454943 0.06855455 -0.11480827 -0.1030377 0.09820147
0.093062446 0.037688434 0.12718132 -0.014723221 0.0377217 0.08557088 0.052157674 0.072295554
-0.028399238 0.06964158 0.060772464 0.037795074 -0.10853605 -0.048187982 -0.025508737 -0.03134588
0.035400175 0.08815779 -0.038011964 -0.12511052 -0.13072309 0.0392822 0.024983503 0.046731904
0.11514097 0.059291 0.036209714 0.002962538 -0.04840113 0.0117168445 0.11935127 -0.015433656
0.016476315 0.2224678 -0.030568149 -0.072692275 0.044750433 0.0113162175 -0.1677869 0.027722899
-0.10451301 -0.11484704 -0.17532672 -0.12445494 0.110690586 -0.0519775 0.003805378 0.016870046
-0.10118848 -0.088024355 -0.13501067 0.045365963 0.19996874 0.16350657 0.01592318 0.16101663

F.linears.1.bias f4 [32]
00000000: 391e bc3d eb29 453d a2a4 b5ba aca6 3a3d
00000010: a288 cf3b aa0b abbd 434f a3bd 5872 77bd
00000020: c91e 7c3d 86e1 9cbd 831f 8abd 4fec 4dbd
00000030: 5ea9 84bd 5b64 2fbd 9e2e bc3d 232e ae3d
00000040: 16ff ba3d fb8b 03bd ca29 63bd c8c9 fcbc
00000050: ca0d 203d 3035 083d 442b 93bd efe8 513d
00000060: 270d 56bd 0b93 00bd 238b cabd a313 ba3d
00000070: 4f9c 17bd 3732 9d3d 6ec7 9e3d 73b6 063b
0.09185452 0.04813568 -0.0013858269 0.045569107 0.0063334266 -0.08351834 -0.07974102 -0.06041178
0.061552797 -0.07660203 -0.06744292 -0.05027419 -0.06477617 -0.042820316 0.09188579 0.08504894
0.09130685 -0.032115918 -0.055459775 -0.030857936 0.03907565 0.03325385 -0.07185987 0.051247533
-0.052258637 -0.03139023 -0.098898195 0.09085777 -0.037014302 0.07675593 0.07752882 0.0020555526

F.linears.2.weight f4 [13, 32]
00000000: 11c5 913d dafa d2bd 16a6 d8bd 1006 473d
00000010: 0bf6 023d 8d94 8cbc 4547 4d3d d43f c1bc
00000020: db6d 87be 6473 bbbd 0b2c 58bd 54cd 65bc
00000030: f127 093e 1595 44be 1665 d43c b207 bd3c
00000040: ace8 043e 972b 27bc f69a 69be ef22 17be
00000050: b145 353e b6cc f0bb 8c88 9cbd 5c98 28bd
00000060: 8830 403c 07f7 31be 1bf1 85bd 4f4e 2d3d
00000070: 79ad 21bd b700 1ebe e54e 723c d8e3 e2bc
00000080: 450a 2f3d 118f 7ebd b3f5 e9bb 9eb8 a43b
00000090: 63b9 ec3b 0333 34be 38bc a7bd 9a88 d23d
000000a0: 9e8a eebd e4cf 1fbe 21e3 6e3c 465e d7bc
000000b0: 83d0 e7bd b312 43be bbe0 9dbd c01d 1ebe
000000c0: e9b7 c2bd 421c 20be ace0 cdbc ff73 2c3d
000000d0: 69d1 fd3c 6c61 9fbc 4359 cdbc 4ae3 6abd
000000e0: 764a 1f3d 88e6 18be 33d4 f53c f49c 743d
000000f0: b40f 3dbd dd7f e63c 8f54 a9bc 0234 d53d
00000100: 5578 d8bd 33c7 e53c b991 d03c 8eab 4fbd
00000110: da1f 3abd e3c1 483d 0d03 763e d9cd 403e
00000120: 1164 e0bc 5802 8e3c e017 193d 62c8 08bd
00000130: 0dba cd3d 5948 f43d f532 ce3d 16e6 acbc
00000140: 52c3 c53d b346 c0bd 03e1 023d 9da3 08be
00000150: 8cba ee3d 7d6f a23d 0a8f abbd a299 3bbe
00000160: 2754 8c3d c59a aabd 7ac0 0e3d 1df2 f9bd
00000170: ae4d 0b3d 8267 29bc 09f7 053e 76e6 403c
00000180: 8cb7 063e 7fee 97bd a21b 8b3c 8de2 ac3d
00000190: 23d2 6b3d e248 15be 7469 793d 3827 1a3e
000001a0: 4acc 84bd 332c e83d c5df 873d 5016 c73d
000001b0: dcef 513d a37a b73d fde2 493d 9d73 dfbe
000001c0: f482 40be 0160 2a3e 9233 123e 3005 35bd
000001d0: b8bb 63be 5ba8 4fbd 8556 043e c508 40bd
000001e0: 1e2f ff3d 4de5 0a3d 1fe7 a23d 619e 48bc
000001f0: e0c2 6cbe 8722 fcbd fed5 b13b 664a f93c
00000200: 58b7 3fbc 230e 1fbe 2f95 01bd 73aa c3bd
00000210: a567 d5bd 54f3 5b3c 4a3e c7bd 7f4c 9c3c
00000220: 065f 513b a3a3 91bd d322 3ebd 4a9f 5ebd
00000230: 351c 963d bed7 1b3d 9eda 2dbd afaa bc3c
00000240: 73ae 84bd 8491 e5bc 2186 7fbe 873e 803d
00000250: e1d4 873e 6138 273d fb18 893d f321 c9bd
00000260: ab30 a53d 7d5d 82bc da85 44bd c303 b43d
00000270: dd4b 893c 6536 0cbe 6f7a ff3d b8ad afbd
00000280: 4b23 283e c624 66bd 8891 d93b b90c fd3d
00000290: 003e bcbd 2586 eebd 3237 ee3d a5de 9f3d
000002a0: 3c76 30b9 7c08 f03d b5f9 773d 8c5a 0f3e
000002b0: 2843 953c c976 3f3e 9f96 3a3b 8171 423d
000002c0: 20f1 ddbc 82f7 483e 20e2 963d 4a51 e33d
000002d0: 9448 863d d823 80bd e4c3 093e c8e5 e1bc
000002e0: 84df dd3c 9b4c 6ebd 3fcb 18bd deea 52bd
000002f0: 11f1 6ebd 1639 a53d e980 5d3e 20dd 8f3d
00000300: a2cd 1b3e ff69 0e3e 2490 563d bbba 3dbe
00000310: 68b6 f0bc b37d eebd 8bf2 d43d 2d3e b3bb
00000320: 9999 dfbd 195d 0b3d 0829 953d e885 853d
00000330: 3e3d 7bbd 9423 95ba 7eae 22bd a42c 01bd
00000340: 754d 90bd dc95 42ba 12be efbc 51ea b9bd
00000350: c809 06be 4573 1e3e a4cc 303d 34ea 49bc
00000360: b572 01be 14fd b9bd d08f b2bc 8141 e13d
00000370: 1b3e 083c 9b39 89bd 7707 1b3e 723a 073e
00000380: bc3f 0b3d bfd4 f5bd 407a d53d cb5b 493e
00000390: e70b 2dba 61b9 883d 3383 8dbd e3c3 a9bd
000003a0: c4ad 4f3e 1adb ddbb 2af0 96be 064d a7bd
000003b0: d22a 36bd 66bb 60bd e6c1 cc3d 28bc 01bd
000003c0: e158 b2bc 3b09 c73d d167 aabd 8b9b 87bd
000003d0: 17a8 b03d 0f40 dd3d 0e75 d23c e21c acbc
000003e0: b17d e03d 5df3 f9bd a42c 2abe e9c9 1a3e
000003f0: f6b0 f0bc da33 52be 7fa3 04be f97a d8bd
0.071176656 -0.103017524 -0.105785534 0.048589766 0.031972926 -0.017160678 0.050116796 -0.023590006
-0.26451 -0.091528684 -0.052776378 -0.014026005 0.13394143 -0.19197495 0.025927108 0.023074958
0.12979382 -0.010203264 -0.22813019 -0.1475942 0.17702366 -0.007348622 -0.07643232 -0.041160926
0.011730321 -0.1737939 -0.06540128 0.04231101 -0.039472077 -0.1542996 0.014789318 -0.027696535
0.042734403 -0.062148158 -0.0071398853 0.005026891 0.0072242483 -0.17597584 -0.08190197 0.10279961
-0.11647533 -0.15606648 0.014580519 -0.02629007 -0.11319067 -0.19050102 -0.077088796 -0.15441036
-0.09507734 -0.1563578 -0.025131546 0.04210281 0.030983644 -0.019455634 -0.025066977 -0.057345666
0.03888937 -0.1493169 0.030008411 0.059719995 -0.046157554 0.028137142 -0.020670203 0.1041031
-0.105698265 0.028049087 0.025460111 -0.050700717 -0.045440532 0.04901303 0.24024601 0.18828525
-0.027391465 0.017335102 0.037376285 -0.033394225 0.10045252 0.11927862 0.10068313 -0.021105807
0.09656395 -0.09388485 0.03195287 -0.13343664 0.11656675 0.07931421 -0.08376892 -0.18320325
0.06851988 -0.08330301 0.03485153 -0.122043826 0.034009628 -0.01033962 0.13082518 0.011773696
0.13155955 -0.074185364 0.01698095 0.08441649 0.05757345 -0.14578584 0.060891584 0.15054023
-0.064842775 0.11336555 0.066344775 0.09721053 0.05125414 0.08958938 0.04928874 -0.43642893
-0.18799955 0.16638185 0.14277485 -0.0441944 -0.22239578 -0.050697666 0.1292363 -0.046883363
0.12460159 0.033910085 0.07954239 -0.012244792 -0.23121214 -0.12311273 0.005427121 0.030430984
-0.011701427 -0.15532736 -0.031636413 -0.09553995 -0.10420159 0.013424713 -0.097286776 0.019079445
0.0031947508 -0.07111289 -0.04641993 -0.05435113 0.07329599 0.038047545 -0.042444818 0.023030607
-0.06478586 -0.028023489 -0.2495351 0.06261926 0.265296 0.04082525 0.06694218 -0.098209284
0.08065923 -0.01591372 -0.047979213 0.0878978 0.016759807 -0.13692625 0.12474524 -0.08578056
0.16419713 -0.056187414 0.006639663 0.12355942 -0.09191513 -0.1164668 0.116316214 0.07806138
-0.00016828714 0.11720368 0.060540874 0.13999385 0.0182205 0.18697657 0.0028471125 0.047471527
-0.027092516 0.19625667 0.07367349 0.11099489 0.06556812 -0.06256837 0.13453633 -0.027575389
0.02708412 -0.058178525 -0.037303206 -0.051493518 -0.058335368 0.08067529 0.21631207 0.07024598
0.15215161 0.13907622 0.052383557 -0.18528263 -0.029383853 -0.11645069 0.10397824 -0.0054700584
-0.10917968 0.03402433 0.07283217 0.06519681 -0.061337702 -0.0011378401 -0.03971719 -0.031536713
-0.07046024 -0.00074228435 -0.029265437 -0.090778954 -0.13089669 0.1547366 0.04316391 -0.012323905
-0.12641414 -0.09081474 -0.02179709 0.10998822 0.008315588 -0.067004405 0.15139566 0.13205889
0.03399633 -0.12003469 0.10423708 0.19663922 -0.00066012 0.06675983 -0.0690979 -0.082893156
0.2028113 -0.0067705037 -0.29480106 -0.08168988 -0.04447443 -0.054866217 0.09997921 -0.03167358
-0.021770896 0.097185574 -0.08320583 -0.06621464 0.086258106 0.10803234 0.025690582 -0.021009866
0.10961474 -0.12204621 -0.16618592 0.15116085 -0.029381257 -0.20527592 -0.12952994 -0.1057033

F.linears.2.bias f4 [13]
00000000: e8d7 b4bd 867a 31bc cf99 7a3d 830b c2bd
00000010: b878 c8bd bd68 863c eae1 813c 1239 9ebc
00000020: 91f9 7e3d ca06 91bc c753 78bd 7486 9cbc
00000030: 49b3 44bd
-0.08830243 -0.0108324345 0.06118184 -0.09474852 -0.0978865 0.016407365 0.015854795 -0.019314323
0.062249724 -0.017703433 -0.06062677 -0.019107081 -0.048022542

G.0.linears.0.weight f4 [32, 13]
00000000: 0a95 493d 06c6 d8bd 9f2c 553d fc82 e8bd
00000010: f122 8c3c 599f 2abd 6bad 88bd 0f03 9e3d
00000020: 8d18 2e3d 970e 87be 80bc 863d 9636 3ebd
00000030: 5b19 5ebd 6a8a d7bd aeba 363e d0a5 10be
00000040: 28d4 14be 2245 c5bc aa08 5dbe 5ce9 8e3e
00000050: f609 0cbe f37a 203e d016 993d 806d 703c
00000060: 6711 013e 8370 d6bd 1567 4cbe cb4b 45bd
00000070: 77e0 5cbe e836 b33c 40c5 29be 7330 07be
00000080: fcdd cbbd b370 7cbe 872a b63b 1f7f 913c
00000090: 3e92 c43b fb39 323e ea5e 0e3e 96aa 48bd
000000a0: 40fc da3d 1a4b bfbc 0125 8c3d f960 6fbe
000000b0: 3397 49bc 8c1e b93d 36a6 e3bd f316 37bd
000000c0: ff71 0abd 7392 3f3e 88fd 1d3e 7c0e a1bd
000000d0: 472e 70bd ed1e 0b3e 2a0d 0d3d a11d 70bd
000000e0: 2a2c 603c 8722 82bd f1c0 c7bc 23e8 94bd
000000f0: da17 babd 7f9b 643d 345e 77bd f309 7f3d
00000100: a871 153e a6f8 4ebd d9ce 85bd 5155 3c3e
00000110: be7e 363e f904 473d 888f bdbd 4539 1bbc
00000120: d26b 94bc 16c5 eebc e31b a13c f548 01be
00000130: 7c99 c6bd 267f 39bc 0d4c d2bc 5882 01be
00000140: ed82 24be a628 50bd 391c acbd 3036 41bd
00000150: 0534 653e 4553 a23d deab 1c3d 7808 a8bd
00000160: 8d81 59bd a359 123d 286f a63c 4acd 223e
00000170: 0df5 373e fd9e 7fbd 1fb8 0cbe 47d3 0cbe
00000180: 4af3 f0bd 9f95 123e f238 aebc 4904 403c
00000190: adea 87bd 9c00 243d d8c7 70bd 87a4 0b3e
000001a0: 64f3 493c dee1 24bd 78f0 a8bd 75d8 3e3c
000001b0: bd06 ffbd c2ae 2a3e ef13 06bd dca7 15bc
000001c0: 073a 0b3d a52d ef3c a05c 1cbe 0c09 c0bd
000001d0: f45c 1fbd 5d33 efbd d7e1 99be 7606 7abd
000001e0: 1fd0 42bd 29f2 b33d c3fb 05bd fd72 233e
000001f0: ca03 b33d d4b6 70bd 574a 32be edae 823d
00000200: 81ed c43d cf2c c73d caeb df3d ff8f 233d
00000210: b4ce d73d f34e 0abe 3cce 9a3e 1eb9 313d
00000220: a2de bf3b 1945 c2bb d306 553b 93dc 9d3b
00000230: 95db b5bd 4304 b6bd 8d14 1bbe be2a 9cbd
00000240: 5659 603d 1026 363d b43a 59bb ea31 b2bd
00000250: 9a5f acbd 6f05 493d 4d75 223e dc3d 0a3e
00000260: 6930 933c d7ee a33d 3e7c 903d a38f 023d
00000270: d02a 9f3c c5b7 813c e66c 613a 63dc 8a3d
00000280: 2904 efbc 045f 623d acaa 0cbe f833 04bd
00000290: f07d 04bd 8306 3b3d 67c5 d63d 2552 a43d
000002a0: 95f7 fabc 8030 973b 8daa 65be 61d6 fe3b
000002b0: 2a44 d63c 7df4 f7bd 5cd0 cb3d 6093 2f3d
000002c0: 2061 203c 819d 893d 3165 213c d5b7 05be
000002d0: d2a6 703e 56f8 b23c 3d8f dc3c 0788 5cbb
000002e0: 8d3b 3fbe f146 14bc e555 1c3e add7 273d
000002f0: dd34 19be 8faa c03d 139d e43d b6b3 acbd
00000300: 61ce 1a3e 9881 8d3d 1724 51bc 5ce4 dabd
00000310: 3681 c73c 84ba 9fbd 2ba7 b5bd 5ffa 1b3e
00000320: 7524 c23c 3427 83bd 2ce7 4bbc cb1c 14bd
00000330: e539 b8bd abf0 173b 0223 aabb 570a f63d
00000340: 34c7 c33c 7143 d3bc a47a 9c3c 5eca c8bd
00000350: 2d43 aa3b 498d 493e 9935 593d 6fe0 b1bd
00000360: e4ed d6bd f221 2cbc 3229 b0bd bf2a 9ebd
00000370: 5e9c e8bd 1a5d 5f3c cdde d0bc aef1 7d3b
00000380: a2e3 c93d 8058 263e 3be5 683d 5943 a8bd
00000390: 0bab 81bc 3a01 b0bd 5f22 61bc 10de 273d
000003a0: 1ac2 77bd b5fd 583e 1734 84bb 854d 2ebe
000003b0: e0f8 09bd 8eae 163d f0d8 b73a 13b2 a5bb
000003c0: 2252 3ebd c2b1 2dbc 9f7e 823d dc47 503c
000003d0: b885 5fbc 3a2d 103b 9cfd b13d b38d ad3c
000003e0: 2a31 2c3d daeb 3bbc 901e 99bd 3cc2 b73d
000003f0: 5496 1e3e b62d 203d 59c8 4a3e 3a91 4fbb
0.0492144 -0.10584645 0.052044507 -0.11353108 0.017106505 -0.041655872 -0.06673702 0.07715427
0.042503882 -0.2637832 0.06578922 -0.046438776 -0.0542234 -0.10524447 0.1784465 -0.14125752
-0.14534056 -0.024080817 -0.21585336 0.27912414 -0.13675675 0.15671901 0.07475054 0.014674544
0.12604295 -0.10470679 -0.19961198 -0.048167985 -0.21570002 0.021876767 -0.16579151 -0.13202076
-0.099544495 -0.24652366 0.005559269 0.017760811 0.0059988787 0.1740493 0.13903394 -0.04899081
0.10692644 -0.02335124 0.068429954 -0.23376836 -0.012304115 0.090390295 -0.111156866 -0.04469962
-0.03380012 0.1870821 0.15428746 -0.07864091 -0.058637884 0.13586016 0.034436382 -0.058622006
0.0136824045 -0.06354242 -0.024383994 -0.07270839 -0.090865806 0.055812355 -0.060392573 0.062265348
0.14594138 -0.0505301 -0.06533594 0.1839192 0.17821786 0.048588727 -0.09255892 -0.009474103
-0.018117819 -0.029146712 0.019666618 -0.12625487 -0.096972436 -0.011321818 -0.02567103 -0.12647378
-0.16065569 -0.050820015 -0.084038205 -0.047170818 0.22383125 0.07926039 0.038249843 -0.0820474
-0.053102065 0.035730015 0.020316675 0.15898624 0.17964573 -0.062407482 -0.13742112 -0.13752471
-0.11765154 0.14314888 -0.021267388 0.011719772 -0.06636558 0.040039644 -0.058784336 0.13636981
0.012326095 -0.040254466 -0.08248991 0.011648287 -0.12452457 0.16668227 -0.032733854 -0.009134259
0.033990886 0.02919657 -0.15269709 -0.093767256 -0.038907006 -0.11679719 -0.30055115 -0.061041318
-0.04756176 0.08786423 -0.0327108 0.15961833 0.08740957 -0.05876811 -0.17411171 0.06381021
0.09615613 0.097253434 0.10933645 0.039932247 0.10537472 -0.13506679 0.3023547 0.043389432
0.0058553973 -0.0059286472 0.0032505288 0.0048175543 -0.088797726 -0.088875316 -0.15144558 -0.0762534
0.054772697 0.044469893 -0.0033146562 -0.087009266 -0.08416672 0.049077448 0.15865059 0.1350016
0.01796742 0.080045395 0.07054947 0.031875264 0.019429594 0.015834698 0.0008599296 0.06780317
-0.029176788 0.055266395 -0.13736981 -0.032276124 -0.032346666 0.045660507 0.1048687 0.0802348
-0.030635634 0.004613936 -0.22428341 0.007777021 0.02615555 -0.12107179 0.09951851 0.042865157
0.009788781 0.067194946 0.009850786 -0.13058408 0.23501137 0.021846931 0.02692377 -0.0033650415
-0.1867506 -0.009050117 0.15267141 0.04097717 -0.14961572 0.094075315 0.11162772 -0.08432715
0.1511779 0.06909484 -0.012764952 -0.10688087 0.024353605 -0.07799247 -0.088697754 0.15232228
0.023699025 -0.06403962 -0.012445252 -0.03616027 -0.089954175 0.002318422 -0.0051921615 0.12013691
0.023898698 -0.025788995 0.019101448 -0.098042235 0.0051959963 0.19682802 0.05302963 -0.086853854
-0.10494593 -0.01050614 -0.086016074 -0.07722997 -0.1135795 0.013633037 -0.025496865 0.0038748789
0.09857871 0.16244698 0.056859236 -0.082159705 -0.01582863 -0.08593984 -0.013741105 0.04098326
-0.060487844 0.21190532 -0.00403453 -0.17021759 -0.03368461 0.036787562 0.0014026444 -0.0050566285
-0.046465047 -0.010601463 0.06371807 0.012712445 -0.013642721 0.0021999613 0.0869095 0.021185732
0.042039074 -0.011469806 -0.074765325 0.08972594 0.15487033 0.039106093 0.19802989 -0.0031672255

G.0.linears.0.bias f4 [32]
00000000: 35cd aabd 4e76 72bc a1a6 983c 0247 413d
00000010: 7001 633d e0be 74bb a3aa 823d 35d7 34bd
00000020: bbe0 4f3d dd39 6b3d af74 3bbd 517d 9bbc
00000030: c51d 243b 3ff6 3e3d a8a1 b8bd e7ef 72bc
00000040: 0782 413d 4e20 d1bd de29 223d d8d3 f53b
00000050: 37ed b43d ba3e a7bc 8507 9b3d 33ae 33bd
00000060: 5aa6 b9bd a190 14bd 7e58 95bd 978d af3d
00000070: 3699 893d 479b bc3c 6e06 853d b2bf b7bc
-0.083399214 -0.014798714 0.018634142 0.04718686 0.055421293 -0.0037345216 0.063802026 -0.04415055
0.05075143 0.05742823 -0.045765575 -0.018980654 0.0025042158 0.046621557 -0.090152085 -0.014827705
0.047243144 -0.1021124 0.03959071 0.0075020604 0.08834308 -0.020415653 0.075697936 -0.0438673
-0.09064932 -0.03627074 -0.07292269 0.08571928 0.06718676 0.02302326 0.06495367 -0.022430275
