para_save2/00001params.pth (torch, 160514 bytes, 97 tensors)

A_embd.linears.0.weight f4 [32, 13]
00000000: 46fc 493e e5ce 31be fb0f 173d d56d bf3d
00000010: 5831 bdbd 7e27 0ebb f10f cb3c 5733 3ebd
00000020: b279 57bd 5471 f5bc 5236 7e3d 605d 1a3e
00000030: 732c 07bd 8442 9abd 3a29 af39 4999 d73c
00000040: 6a2b 833d a871 893d b3d2 1c3c e2bc c0bd
00000050: 4bc2 1f3e cc51 d0bd 2f8f 31bd 2fcc 6bbe
00000060: bb18 b0bd bc6b 3d3d df3f 4abd 037f ce3d
00000070: 6995 aebc 90c4 63be 6197 303d cd97 053e
00000080: eb79 603d 83ab fe3d cb64 7ebd 9117 843d
00000090: 31fa 70bd 8a93 e93d ff56 1fbe 18e9 d4bd
000000a0: d389 ba3d 08c9 203d 3bf5 363d 8c42 1f3e
000000b0: 8f51 84b9 90a5 8b3d d8f5 f7bd 6f3f 1f3e
000000c0: 77ec 503d 9696 2c3d 255a 963d 5b27 0bbb
000000d0: 70f9 5b3e 3bcd 87bd f102 373d 585a 03bd
000000e0: 7316 123e a9a3 f33d 65e6 c03d 53b8 e8bc
000000f0: edac af3b 168d d93c 9579 583e 3820 ef3d
00000100: 009d e0bd 6c35 f2bc a035 a5bd 20c0 46be
00000110: b716 be3c a847 883d 37e9 0a3e c367 fd3a
00000120: dc8a e5bc 27bf 2bbd b114 cfbd e098 703c
00000130: 5494 113b 6653 813d 97bb 71bd 61a5 12be
00000140: 06b0 083e 95aa 2c3d 15ac c0ba c30e 89bd
00000150: 558d 6c3d 8c40 8dbc ef56 96bd 90a1 46be
00000160: 06f7 283c b1cb 7fbc bed1 d13d 2bbe 8e3c
00000170: faf4 18be add0 1ebe 190c eb3d d801 493d
00000180: ccb0 513d aecb 6d3d 6fdc 9abd 6ddc 2fbd
00000190: 11b4 50be a54d a33c ba1e 433e e4ea 8dbd
000001a0: 8992 c3bd ac1f 193e 7d7a 28bd 9d90 80be
000001b0: bc9a 0fbe 7be7 9f3d 0a3e 8bb9 ca5e aebd
000001c0: 818a ca3c 0a03 4fba f9f9 d83d 0560 91bb
000001d0: 80d7 96bd 22bd 153d 3050 b53d b9ac c83c
000001e0: 9cae 85bd f329 b0bd 73c1 9fbd b8a9 ac3c
000001f0: d827 9dbe cec6 4fbe 2551 02be 83d5 a0bc
00000200: 37d0 ec3c 2809 123d 2ecd 17bd a716 f0bc
00000210: f466 b4bc 098e 1d3e 3993 08bd b28a 23bc
00000220: cbde 0cbe 05b6 1dbe d4d2 5d3d 54a5 2db9
00000230: ce7f 81bd c413 53bd 1f79 c63c 824d 433d
00000240: e42e 87bd b09c 15bd a4f0 8e3d 6266 063e
00000250: 9171 a93d b7ad 90bd bb25 ad3d 5cb8 143e
00000260: 0e35 6dbd bbd6 fc3d c4d1 de3d 27a5 c43d
00000270: 259d a93c 610c 76bd 12ba 043a 54f2 41bd
00000280: 7e20 9b3c a526 dbbc 6430 87bc 9964 27bd
00000290: d383 e2bc d8f4 59bc 4ee8 7bbd 47a4 c8bc
000002a0: 5d6b 8f3d 5628 f6bd cf65 033d 3941 213c
000002b0: 845e bcbc 0a0d 0a3c 440a 993c 31a8 e63d
000002c0: f1dd 4dbc 10e1 c23c 6d17 473c 4c46 0dbc
000002d0: 2074 c83c 11f7 f7bd abfa e93c 52f1 f13c
000002e0: 948f 133d 56e4 e9bd 1ded 9b3d 8f53 2bbe
000002f0: ccc0 893d 0460 dbbd 366a 08be eb52 ad3d
00000300: 147b d33d 8cf7 02bd 0b92 b23d e352 d63d
00000310: 6f97 573e deb9 cfbc ab30 453c 39f5 d83d
00000320: d3b4 f53d 79e7 5b3e 99ad 77be a1ac be3d
00000330: 6d9e d0bd 6314 bbbc f992 2cbd 2da0 e7bc
00000340: 36a4 593e 3ee6 e0bd 1b63 753e fd0e 48bd
00000350: e659 50bd e586 07bd 1be8 0cbe 501c 35bd
00000360: 120b 9abd 8ab6 783e 078a 55be e669 cb3d
00000370: 351d 113d 8e3b a7bd 71de 77bd dc41 bf3d
00000380: 0e3d 01be 1d64 f03d 858f c73c aefa 0d3e
00000390: c24c dbbd 8b15 003c 7ea0 abbd 793f 1d3c
000003a0: 649f bfbd f94d c3bd a201 513d 19ba 2f3e
000003b0: a4a3 3b3e fd78 d4bb 8fe2 023e e627 e3bd
000003c0: 3150 a4bd 20ed cdbd 18de 2b3e 5dcb 0c3e
000003d0: 50d1 4bbd d39f 03bd 30aa 57bd 7441 b93d
000003e0: 25d7 82bc 4be9 32bd 64b6 7f3d 15c7 8ebd
000003f0: 7a88 ae3d 2739 3fbe a9bc 423c 1ac3 8dbd
0.19725141 -0.1736408 0.036880475 0.09347121 -0.09237927 -0.002169102 0.024787875 -0.04643568
-0.052606292 -0.029961266 0.062063523 0.15074682 -0.033001374 -0.07532218 0.00033409317 0.02631821
0.06404765 0.06711131 0.009571719 -0.094110265 0.1560146 -0.101718515 -0.04334944 -0.23027109
-0.08598467 0.04624532 -0.04937732 0.10082819 -0.021311479 -0.22242951 0.043113116 0.13046189
0.05480377 0.12435057 -0.062107842 0.064498074 -0.05883235 0.11405094 -0.1556053 -0.103960216
0.09108319 0.03925422 0.044667464 0.1555273 -0.00025237768 0.06818688 -0.12107438 0.15551542
0.05100676 0.042135797 0.073414125 -0.0021233174 0.21481872 -0.066309415 0.04468054 -0.03206858
0.14266376 0.1189645 0.09418944 -0.028408205 0.0053611905 0.026556533 0.2114013 0.11676067
-0.109674454 -0.02956649 -0.08066869 -0.19409227 0.02320419 0.06654292 0.13565527 0.0019333292
-0.028020315 -0.041930344 -0.101113684 0.014684886 0.0022213655 0.06314735 -0.05901679 -0.143209
0.13348398 0.042154867 -0.0014699722 -0.06692269 0.057751972 -0.017242692 -0.073408 -0.19397569
0.010312801 -0.015612529 0.10245083 0.017424664 -0.14937201 -0.15509291 0.11476917 0.049074024
0.051193997 0.058055572 -0.075615756 -0.042934824 -0.2038119 0.019934485 0.1905469 -0.069295675
-0.09549434 0.14953488 -0.04113244 -0.2511033 -0.1402387 0.07807823 -0.0002655837 -0.08514173
0.024724247 -0.0007896876 0.105945535 -0.0044364952 -0.07365322 0.036557324 0.08853185 0.024496423
-0.06527445 -0.08601751 -0.078005694 0.021077022 -0.3069446 -0.20290682 -0.12726267 -0.01963306
0.028907878 0.035653263 -0.03706091 -0.029307676 -0.022021748 0.15386213 -0.033343527 -0.009981798
-0.13756864 -0.15401466 0.05415614 -0.00016560155 -0.06323205 -0.05153252 0.024227677 0.04768134
-0.066007406 -0.036526382 0.06979492 0.13124993 0.08273614 -0.070643835 0.08454462 0.14523453
-0.057911925 0.12345644 0.10879853 0.09601813 0.020704815 -0.0600704 0.0005063127 -0.047350243
0.018936392 -0.026751826 -0.016502567 -0.04086742 -0.02765075 -0.013303004 -0.06150084 -0.024492396
0.070029 -0.12019412 0.032079514 0.00984221 -0.022994287 0.00842596 0.018681653 0.11262549
-0.012565122 0.023788959 0.012151581 -0.008622717 0.024469435 -0.12107671 0.02856191 0.029534016
0.0360256 -0.11420505 0.07613585 -0.16731094 0.06726226 -0.10711673 -0.13321766 0.08463081
0.1032621 -0.03197436 0.08719262 0.10465028 0.21053861 -0.025357183 0.012035529 0.105936475
0.1199738 0.21475019 -0.24187316 0.0931027 -0.10186467 -0.02283687 -0.04213235 -0.02827462
0.21254048 -0.10981415 0.23963587 -0.04884242 -0.050866984 -0.03308763 -0.13760416 -0.044216454
-0.07521643 0.24288383 -0.20853435 0.09932308 0.035428245 -0.08165656 -0.06051487 0.093387336
-0.12620947 0.11737845 0.024360428 0.13865158 -0.10708 0.007817636 -0.08380221 0.009597653
-0.09356573 -0.095363565 0.051026948 0.17160834 0.18324143 -0.0064841495 0.12781738 -0.110915944
-0.08023108 -0.10054994 0.16783941 0.13749452 -0.049760163 -0.032134842 -0.052652538 0.09045687
-0.01597173 -0.043679517 0.0624298 -0.06971566 0.085221246 -0.18674146 0.0118858 -0.06921978

A_embd.linears.0.bias f4 [32]
00000000: 018d 1dbd 0238 a73d 415b 43bc 5029 65bd
00000010: c90d a53d 310a 073d d384 0f3d 734a a1bc
00000020: 1030 853d c7d0 b83d d1af c4bd f758 763d
00000030: 798b 7f3d b40f a63c fd34 2a3d 413e aabc
00000040: 4f4a 38bd 9da0 6f3d 25e0 6fbd 20b3 b03d
00000050: b847 873d e82a b13d b40b 6dbd c405 b3bc
00000060: 61c7 c33d 9dc3 44bd 7023 91bc 908a c4bd
00000070: 4ad6 a53c aea0 d53b c258 a4bc f5ab 6b3d
-0.03846455 0.081649795 -0.011923612 -0.0559476 0.0805927 0.032968704 0.03503878 -0.01968882
0.06503308 0.09024196 -0.09603847 0.060143437 0.06238887 0.02027116 0.04155444 -0.020781638
-0.04499274 0.058502782 -0.05856337 0.086279154 0.06605476 0.08650762 -0.05787249 -0.021853335
0.09559513 -0.048038114 -0.017717093 -0.09596741 0.020243783 0.0065193987 -0.020061854 0.057537038

A_embd.linears.1.weight f4 [32, 32]
00000000: 480c e9bd 48a1 e8bd 1185 61be 0bc5 f1bd
00000010: 6c16 e9bc 2b1e 20be 9ba6 21bd 279a 033e
00000020: 38df 5f3d 999d 4ebe 20fe 40bd 6fda 5ebd
00000030: 5c89 10bd 6689 c8bd 80a3 0abe 21b3 b5bb
00000040: d2eb e83c dc39 133e 51fe 8dbd 5c0c 253e
00000050: 017c c83d bafc 143e 66b2 1fbd 77bf cebc
00000060: 8a18 643d 3553 483d afdd 223e fba3 cebc
00000070: 03b7 863d 9df0 7dbb d2d3 0f3e 5686 9a3d
00000080: 0c17 83bd e56c 80bd ddfb 92bd e946 7d3d
00000090: 9686 633d 4457 3fbe d3ff c43d 9a4e bbbd
000000a0: e8f4 0ebe bbde 18bd 2847 4f3e 02ec 9abd
000000b0: d798 4e3d c872 c9bd 2cd2 ac3d 2677 8cbd
000000c0: 2f84 1abe b830 04be 70cd 93b9 8fd5 80bc
000000d0: b085 2fbd 8264 c23d 1e15 853d aece 1e3d
000000e0: d6f7 17bd ba30 20be 3a9f b63c c7ad c63d
000000f0: eb78 383c 7a26 52be a7fc bf3d 9dc2 13be
00000100: f6b6 acbc 8d3b 15be 7c94 223d bcff 3ebc
00000110: 7ba6 6abd 8417 a23d 268b a93d e8fa 623d
00000120: 205d 6e3c 06a9 f03c dce9 ac3c ab1c 05bd
00000130: afa1 9e3d d26e efbd cd62 13bc 6ff2 fc3d
00000140: a596 8c3d e869 81be 06d6 dc3d 663a 8bbc
00000150: 6354 f63d 473b 833d 6d31 21be 9215 d53d
00000160: f9c7 f93d a736 7bbd 91bf fa3c 12f2 ecbd
00000170: 4b03 e93b b730 503c 15c7 283d d619 333d
00000180: 07ba 90bc 76dc f4bd 6b04 063c 182d cabd
00000190: 8608 d4bd 34cf 883d 5646 a3bd 38cb 7cbb
000001a0: ff60 233d 5208 973d a659 d0bd d201 8f3d
000001b0: a774 0f3d 8a75 943b f764 873d d57e 44bd
000001c0: 8f1c e6bd ee10 0e3e 91c0 6ebd fafb 33bd
000001d0: f6b4 bd3d aa48 3bbe 094c 103e c8d7 353e
000001e0: b0f6 113e b060 53bd 8135 d63d d4d6 fa3d
000001f0: 559d 553d f7bb adbc b0a3 863d 64f6 e33c
00000200: 7911 99bd b8a1 04be 661e 1d3d 2962 583e
00000210: cb03 25bd b131 23bd 89fe 2cbc 27f0 bb3d
00000220: d29e 8fbd d96a 463d ee4f 84bc 0c4b acbd
00000230: 8bcd 7fbc ffc8 973b c7dc 0bbd df2a 0ebe
00000240: 8bb0 353d da02 6f3e d1e9 c73d bb6d 85bd
00000250: 1374 463d 3c53 e9bc f2b5 733d da9b e03c
00000260: 36b5 ce3d 9607 0bbd 4e8b b6bd 4303 7e3d
00000270: c782 07be 375d a43c 8752 b1bd 59e3 13bd
00000280: c25d 27bd 7447 563d 9488 ca3c 15ff 9abb
00000290: eb11 4abd b92b d33b 9719 50bd 8620 e13d
000002a0: 5ddc b8be 5a93 aa3d 8934 f4bc 0569 73bc
000002b0: 6424 453e 40fb 07be 247c 6d3d a24d 863d
000002c0: 167b 0cbe 4e2c 003e 1cca f73d 66db 043e
000002d0: 70c1 25bc 0348 ad3c 4cb6 eb3c 9122 343d
000002e0: 40f2 d837 7055 9dbd 07f5 c0bd 05c5 d23d
000002f0: b5ff 1ebe bc15 443d 35ad f23c 9113 36bd
00000300: 5e00 4d3d 3474 e43b cc69 a83d bf40 bbbd
00000310: 1461 433d edf7 3e3e 745d 713e 5927 303d
00000320: 4637 963d bc8a 7e3d 03ab 6d3d 1e6f 313e
00000330: 6579 06be 3197 f23c 8cd3 a23d e37d dd3d
00000340: de03 563e d084 033d 9ef5 1fbd 52c4 303e
00000350: df27 003d f5ea 653c 8703 b73d d8fe 923c
00000360: a2d9 0abe 0fe8 8a3e d8c8 c63d 5309 79bd
00000370: 8219 0b3d e06a ccbd 2de9 fe3c 10a2 d13d
00000380: cb3a 783d 0674 2fbd 4d1c ff3d 28be 99bc
00000390: bcb8 6bbd 81bc ccbc 1e72 25bd 2b31 a4bd
000003a0: ec33 023e 8c94 f23c 4d0a 1a3d 66c7 cabc
000003b0: 3814 4e3b 5600 763d de3f 16bb 73fd 153d
000003c0: 04de cebd 1c0b 09be 675a fb3d 039d 8bbc
000003d0: 709f 543e 796f 9cbc f101 70bd 66ee ba3d
000003e0: d34d babd f358 6dbd 6640 91bd 3aa8 f53d
000003f0: 3d4e 873d cedb dbbb f438 1a3e d378 d43d
-0.113792956 -0.11358887 -0.22023417 -0.11805161 -0.028453074 -0.15636508 -0.039465528 0.12851773
0.054656237 -0.20177306 -0.047117352 -0.054407533 -0.035287246 -0.09791832 -0.13538933 -0.0055450355
0.02843276 0.1437754 -0.06933273 0.16117996 0.09789277 0.14549533 -0.038988493 -0.025237782
0.055687465 0.048907477 0.15904878 -0.025224676 0.065778755 -0.0038748153 0.14045647 0.07545154
-0.0640088 -0.0627077 -0.07176945 0.061835203 0.055548273 -0.18685633 0.09619107 -0.091458514
-0.13960612 -0.037321787 0.20241988 -0.07564546 0.05043873 -0.09836346 0.084385246 -0.06858663
-0.15089487 -0.1290921 -0.00028191088 -0.015726833 -0.042852104 0.094918266 0.064981684 0.038771324
-0.03710159 -0.15643588 0.022292722 0.09701114 0.011259298 -0.2052249 0.093743615 -0.14429708
-0.021083336 -0.14573498 0.039692387 -0.0116576515 -0.057287674 0.079146415 0.082784936 0.055415064
0.01454857 0.029377472 0.021107607 -0.032498043 0.077456824 -0.11691059 -0.008995724 0.12350928
0.06864671 -0.25276113 0.10783009 -0.01699562 0.12027814 0.06407791 -0.1574151 0.10404505
0.12196345 -0.061331417 0.030608924 -0.11569609 0.0071109883 0.012706927 0.041205484 0.04372581
-0.01766683 -0.11956112 0.008179764 -0.09871882 -0.10353188 0.06680146 -0.079724 -0.0038573276
0.039887425 0.07374634 -0.10173349 0.06982769 0.035023358 0.0045306133 0.066110544 -0.04797252
-0.11235916 0.13873646 -0.058289114 -0.043941475 0.09263031 -0.18289438 0.14091505 0.17758095
0.1425426 -0.05160588 0.10459424 0.122480065 0.052151997 -0.021207793 0.0657419 0.02782745
-0.07474036 -0.12952316 0.03835907 0.21131195 -0.04028682 -0.03984231 -0.010558733 0.09176665
-0.070127144 0.04844174 -0.016151395 -0.084127516 -0.01561297 0.004632115 -0.034146097 -0.13883542
0.044357818 0.23340932 0.09761394 -0.0651507 0.04845054 -0.028482072 0.05949969 0.027418066
0.10093157 -0.03394278 -0.08913289 0.06201483 -0.13233481 0.02006398 -0.08658319 -0.036105487
-0.0408609 0.052314237 0.024723329 -0.004730115 -0.049333494 0.006444421 -0.050805654 0.109925315
-0.36105624 0.08328886 -0.029810207 -0.014856582 0.19252163 -0.13279438 0.057979718 0.06557776
-0.13718829 0.12516901 0.12099096 0.12974319 -0.01011692 0.021152502 0.02877345 0.043978278
2.5862013e-05 -0.076823115 -0.09421735 0.10291485 -0.15527232 0.04787229 0.029623607 -0.044452254
0.05004918 0.0069718603 0.08223304 -0.09143209 0.047700003 0.18649264 0.23570806 0.043006275
0.07334761 0.062144026 0.058024418 0.17327544 -0.13132246 0.02961311 0.079505056 0.108150266
0.20899913 0.03210908 -0.0390526 0.1726239 0.031288024 0.014033069 0.0893622 0.017943785
-0.13559583 0.27130172 0.09706277 -0.060799908 0.033959873 -0.09981322 0.031117046 0.10235989
0.060602944 -0.042835258 0.1245657 -0.018767431 -0.057549223 -0.02499223 -0.040392034 -0.080171905
0.12715119 0.029611848 0.03760748 -0.024753284 0.0031445157 0.060058914 -0.0022926251 0.03661866
-0.1010094 -0.13383144 0.12273102 -0.017042642 0.20763946 -0.019096123 -0.0585956 0.09127502
-0.09096875 -0.057946157 -0.07092361 0.11994977 0.0660672 -0.0067095524 0.15060788 0.10374608

A_embd.linears.1.bias f4 [32]
00000000: fa19 5e3d c0f7 88bd 7705 953d d109 adbd
00000010: e05b 80bc 35ec 90bc b24e 313b 9411 bcbd
00000020: 3aed 33bc 69f0 bc3b 672e 513d b4bd d1bc
00000030: 519e 91bd 2a87 f5bc 71c2 39bd e8ad 5c3d
00000040: 93e4 af3d e12c a53d 7664 ba3d ef00 b33d
00000050: 57d9 b7bd 4a91 443d 4d8d 11bd 7c82 03bd
00000060: d28c bb3d 1afb 1bbd c4fe b6bd 83f6 59bd
00000070: ed1d ad3d 4c34 9bbd 5d6e bf3c 45c9 833d
0.054223992 -0.066878796 0.07276433 -0.08449138 -0.01566881 -0.017690757 0.0027054963 -0.0918304
-0.010981852 0.005765964 0.051069643 -0.025603153 -0.071102746 -0.029971678 -0.04535145 0.053876787
0.08588519 0.080652006 0.09101193 0.087404124 -0.08977001 0.04799012 -0.035535146 -0.03210686
0.09157719 -0.038081266 -0.089353114 -0.053213608 0.084529735 -0.07578334 0.023368055 0.064348735

A_embd.linears.2.weight f4 [13, 32]
00000000: b781 f53d 036e 123d 7b40 2c3e a5ee 90bd
00000010: 4504 9dbd 4d5b 3bbd be8c 3a3a 6ee1 b23d
00000020: 39b3 b73d eefb f03c 168e 0b3e ace2 013d
00000030: 3b49 26bd 4bcf 473e 401e 0b3e 3f82 f0bd
00000040: a287 9f3d cea9 1abe 5a12 763d ba3a a93d
00000050: d3e4 e23b 3d6e 78bd 860c 6ebd 8f21 c13d
00000060: 8852 2cbb 27c8 223e 40b8 a53d c5b3 073e
00000070: fcfe c43b ee3e 2fbc 5950 0d3c e552 e9bb
00000080: 76cd c1bd 2da1 66be 26b0 563d ba34 84bc
00000090: af9e bcbc 9d63 533d 145a d03c 0984 17be
000000a0: 11fd 1ebd 445f cbbb 6136 773e ebbf cebd
000000b0: bb32 d7bd 85a1 263d eebc d23c c03e b7bd
000000c0: 3ae8 40be a03c 493d 62df 753b 7f77 923c
000000d0: aa1e 56bd 2acb 773b ef63 5c3d 8492 b53c
000000e0: 7491 cebd 1e0e 973d c9c1 833d 497f 25bd
000000f0: 9a80 793c 3386 dfbd 81ee 7bbe a05d 6ebe
00000100: ab23 173d 0dd4 323d 1358 4cbb 89e4 7d3d
00000110: 98e7 c9bc 1f68 f7bc fc3b 82bd c846 d93d
00000120: c915 1bbd bb82 b2bd 3e87 b33d 4899 febc
00000130: c9e8 e3bd 845a 7b3d c5b3 c73c daae 15be
00000140: b6de 1d3d cd1d 62bd 3a20 f63c befd 22bc
00000150: f505 f4bd 2d83 eb3b 8cad 103d a44d c0bd
00000160: f3b3 92bd 425d 953e 24db 01be e5cb 26be
00000170: 9348 f0bd 4d82 e2bd d873 8a3e 5283 c03c
00000180: f9cf e93c b2ab 58bd 52f0 d6bd 0f0f babc
00000190: 439b e83c acd0 5f3d 0cb9 80be 4ab6 6b3d
000001a0: b842 0cbd c9a5 2dbd 1ba5 38bd cd98 2ebe
000001b0: 1960 ef3d 428b 10bd d33c 84bd 5279 0abb
000001c0: 3743 04be f360 863d 5432 523c 7dc7 e2bc
000001d0: 5a2a 98bd 381e 033e 2ed4 9c3d 34e4 643d
000001e0: 0546 f8bc 31d8 0fba 296b 733c 4f19 1abc
000001f0: 8d8a 89bd d1a7 b03c ed52 85be 6b2d 92bb
00000200: 0805 113a 9c72 bf3d 651a 7abd 8bab 643d
00000210: cc24 22be ecc0 4ebd defd 43be 1b70 a43b
00000220: 118c 3e3b c521 473c 456d 15bd 796a c2bd
00000230: 086d a23d 818f eb3c 7a83 0abd 2090 11be
00000240: 8a70 8b3d fd1e 78bc 1cb3 50be 50a6 08be
00000250: 1f20 8d3d a489 e93c ca29 773e 8e84 73bd
00000260: a250 083d 865f 1dbd 241c 063e c220 293c
00000270: 22aa c73c 32cb cabd 628f 80be 1d84 4f3d
00000280: 2c78 89bc dc86 da3d 95a5 4dbe b41e 11bd
00000290: b617 94bd 7198 90bd 806b c43d 85c9 09be
000002a0: bdf3 383d b1bd 3cbd 16e2 dfbc 8cf9 f7bb
000002b0: f8c3 f63d 46a3 b7bd d970 373d 0765 babc
000002c0: ff4e 1c3e 20c5 22b7 2ee6 283e 47f1 e43d
000002d0: 1a65 b23b cbd7 e0bc 3cdf c83d e786 3f3b
000002e0: c37d 643d 8202 0e3b d459 963c 7cc5 33bd
000002f0: 2b54 153d 7f9b f9bd 3ed2 4dbe 6901 133d
00000300: 8a0b 423d 81a6 1bbe fdc1 083e 29c6 6b3d
00000310: 495d a1bd 7eb1 eb3c c8ce b43d b3a9 fb3d
00000320: 3199 06be 73c0 cbbd bfde 583d 7001 913d
00000330: 9bb7 60bc 84d5 2c3d 4a26 0cbe a68b bebd
00000340: d451 8639 260d a3bd c5a9 debd 2caa 293e
00000350: 16f8 61bd fbe1 363e 49da e9bc b58d 4a3e
00000360: 5cd9 abbd 3441 3cbd 58a7 2dbc 7862 16be
00000370: 57cd 213d 144b 06bd 2035 de3d 864a 02bc
00000380: 65d9 9cbd 518a 37bd 66ce 933b 17ae e8bd
00000390: 19ce 173e 0760 84bd 91bb ee3d 24c1 81bd
000003a0: 082f 20be a129 bf3d daaf 8dbc 5547 3a3d
000003b0: 9550 0ebe 945a 763d 0a5b 3abe 70c4 a13d
000003c0: eb41 1cbd 90fc 0cbc e1b4 ae3d 1266 acbd
000003d0: 5e51 693d 2ef7 32bd daf7 b6bd 738f e0bc
000003e0: 8182 5fbe c34c b03d 6ba2 76bd 52c7 593d
000003f0: d485 94bd f1be 16be 97f2 89bd ddd0 433c
0.11987632 0.035749447 0.16821472 -0.07076768 -0.0766683 -0.045741368 0.0007116309 0.087344036
0.08969731 0.029417004 0.1362842 0.03171031 -0.04059718 0.1951267 0.13585758 -0.117435925
0.07789542 -0.15103838 0.060076095 0.08263154 0.0069242506 -0.060652006 -0.058117412 0.09430229
-0.002629431 0.15896665 0.080917835 0.1325217 0.006011842 -0.010696156 0.008625113 -0.0071204775
-0.09463017 -0.22522421 0.052414082 -0.016138423 -0.023024885 0.05160867 0.025433578 -0.14796461
-0.03881556 -0.006206425 0.24141838 -0.10095199 -0.10507723 0.04068138 0.025724854 -0.089475155
-0.18838587 0.049130082 0.003751718 0.017879246 -0.052275337 0.0037810304 0.05380624 0.02216459
-0.10086337 0.073757395 0.06433446 -0.04040459 0.015228415 -0.10914268 -0.24602701 -0.23277903
0.03689925 0.04365926 -0.0031180426 0.061985526 -0.024646565 -0.030201016 -0.06359097 0.106092036
-0.037862573 -0.08716341 0.0876603 -0.03107895 -0.111283846 0.06136562 0.024377713 -0.14617482
0.03854247 -0.0552042 0.030044664 -0.009948192 -0.11915199 0.007187268 0.035321757 -0.09389809
-0.07163229 0.29172713 -0.12681252 -0.16288717 -0.117325924 -0.11060009 0.27041507 0.023500118
0.028541552 -0.052898116 -0.10495056 -0.022712259 0.028394347 0.054642364 -0.2514118 0.05754689
-0.034243315 -0.042394433 -0.04507933 -0.17050476 0.11688251 -0.035289057 -0.06456914 -0.0021129441
-0.12916265 0.0656146 0.012829382 -0.027683014 -0.07429953 0.12804496 0.076576576 0.055881694
-0.030306825 -0.0005487232 0.014857092 -0.009405448 -0.067158796 0.021564396 -0.2603983 -0.0044609807
0.0005532061 0.09348032 -0.061060328 0.05582766 -0.1583435 -0.050476953 -0.19139811 0.005018247
0.0029075185 0.012154047 -0.03648116 -0.09492964 0.07930952 0.028754951 -0.033816792 -0.14215136
0.068085745 -0.015144107 -0.20380825 -0.13344693 0.06890892 0.028508015 0.24137035 -0.059452586
0.033280022 -0.038421176 0.13096672 0.0103227515 0.024373118 -0.09902038 -0.25109392 0.050663102
-0.016780935 0.10670254 -0.20082696 -0.03542967 -0.07231085 -0.07060326 0.095908165 -0.1345578
0.045154322 -0.04607934 -0.027329486 -0.00756759 0.12049097 -0.08966689 0.044785354 -0.022753252
0.1526451 -9.701849e-06 0.16494057 0.111788325 0.005444181 -0.027446648 0.098082036 0.0029224695
0.055784 0.0021668975 0.01835338 -0.043889508 0.036457222 -0.12187862 -0.20099732 0.035890017
0.047374286 -0.15200235 0.1335525 0.057562027 -0.07879121 0.028771158 0.08828503 0.12288227
-0.13144375 -0.09948816 0.052946802 0.07080352 -0.01371565 0.042195812 -0.13686481 -0.093039796
0.00025619438 -0.07961492 -0.10872225 0.16568822 -0.055168234 0.17859642 -0.02854647 0.1978062
-0.083910674 -0.04596062 -0.01059898 -0.14686 0.039502468 -0.032786444 0.108499765 -0.007952338
-0.07658652 -0.044809643 0.0045106886 -0.1136133 0.14824714 -0.06463628 0.11656869 -0.06335667
-0.15642941 0.09334112 -0.017295767 0.045478184 -0.13897927 0.060144976 -0.18198791 0.078987956
-0.0381488 -0.0086051375 0.08530594 -0.08417906 0.056962363 -0.04369276 -0.08933993 -0.027412152
-0.21827127 0.08608391 -0.060213488 0.053168602 -0.07252088 -0.14721276 -0.067357235 0.011951652

A_embd.linears.2.bias f4 [13]
00000000: 4656 98bd c8be c0bd 9ba5 6c3d 23e7 7b3d
00000010: 8d27 c1bd 374c c6bb 2733 1bbd 87e8 22bd
00000020: 5ff7 c3bd d634 fdbc aefa af3d 9bd1 023d
00000030: 952e 843d
-0.0743833 -0.09411389 0.05777512 0.061499726 -0.09431372 -0.006051566 -0.03789058 -0.039772537
-0.09568667 -0.030908983 0.08592735 0.031938177 0.06454197

F.linears.0.weight f4 [32, 26]
00000000: d1dd a13d 4be6 bbbd d64d 313d 1e12 0bbe
00000010: ce03 0bbe 92ea 9fbc 001c df3d d10f 28be
00000020: a5c4 86ba fac6 323e 8955 de3d 33e0 193e
00000030: 6da8 083d b92d 1ebc 2218 bcbd d24e 403d
00000040: 0e9e 0abe b80f 7abd 99c5 853d d7d1 ce3c
00000050: 2ce8 243e 7310 2fbe 021d 5abd e1dc 25be
00000060: 72ba 993d d229 87bd 48d6 eb39 0fea 30bd
00000070: b0c4 7b3d 431c f13c 98f3 4cbe 3fda eb3c
00000080: 1be6 043e 3e95 523e 6954 32bc e1f9 b13d
00000090: 664a 27bb 9db3 053d f186 e2bd d3a3 3cbe
000000a0: 9450 18be 1265 64bd 70e3 21be 36ff 3fbe
000000b0: c15c a43c b874 5e3d 6223 b13d 11e6 c73c
000000c0: 458f 9ebd e020 003d 13b3 39be 7433 523c
000000d0: 4533 de3b a3a9 733d 8b71 2dbe f58c 15bd
000000e0: 4d51 ca3d 2b3a b4bc 457f 8cbb dd45 b53d
000000f0: 1190 b7bd 171d cdbd 95cb 143c 63e2 ddbc
00000100: 88f8 083e ea6e 01be 7a44 523c 1412 473d
00000110: b0d0 b4bb c992 16bd dfc0 3cbe 6c58 bd3d
00000120: 1863 d43c 6399 233d 7570 f4bd a62f 5f3e
00000130: a3e0 e93d 9fc1 473e 2444 3f3d 1f8b 14be
00000140: 2bdb b3bd cf7a 953d 5ac1 0ebd 6452 73be
00000150: 1ff1 8f3d 9497 31bd b4b5 02be 2efc 83bd
00000160: b766 eebd f91c bdbc 76f7 c63c b4f3 133e
00000170: d287 64be 8ab7 34be 7d0a debd fe49 a4bd
00000180: 4de6 173c b546 ab3d b645 91bd 4dc6 b93e
00000190: 9271 113e e6c7 7ebe 9569 cd3d e695 92bd
000001a0: 40f1 80be fac0 3abd a2b1 ce3d 3a6e eb3d
000001b0: 48ad 0dbd a1c0 debd f35d 1ebe aba8 c7bd
000001c0: dbc7 d3bd 6be4 a3bc c62e 53ba b60c d33c
000001d0: 59ae 14be cf8a 983d 6fa4 c0bd 63c8 dfbd
000001e0: 99fa a0bd ec80 2fbc 22b4 6e3d 23f7 cc3d
000001f0: 8770 6fbe cd96 05be f29b 2b3e f680 d0bc
00000200: 0a83 87bd 2cac d33c a983 e93d 9e46 293d
00000210: b12f 993b ebcc 773d e059 dcbc 8100 d2bc
00000220: bdd8 1c3d 1063 893d ecdf 79bd b1cd d9bd
00000230: 9c41 99bb dcb8 20bd 3c49 82bb 3678 023e
00000240: f841 043d 045f 163c 1f47 9b3c 04c2 5a3d
00000250: ce4d b7bb e0a6 cabd 1f8c 82bc ce18 04bd
00000260: 3373 d23c 911f 0c3e ea6d 18be 493d 403b
00000270: 258e fb3d 26d1 033e b24c c1bc 1457 0a3d
00000280: ca94 9d3d b398 42bd 12f4 22be bd03 83bd
00000290: db64 b73a 44f9 3b3d 9e33 9a3d db3f ce3d
000002a0: b75f 893d 9da7 fa3d bc28 d2bd ec57 823d
000002b0: 5851 b93c d9c0 e5bd 8860 333d 95e8 15bd
000002c0: c759 c03d 9276 27be e6e8 cbbb 0830 3a3d
000002d0: 2bc3 8cbd 8773 85bd 42ed 6f3d 5eb9 c5bc
000002e0: 4d5c 8dbd 7bc9 c33c bfb5 123e c715 903d
000002f0: 488d 2dbc eaaa ec3c 468e 72bc c073 1dbd
00000300: 6a87 5e3d 9d2f 283c cf32 7bbd 75e4 11be
00000310: effc b7bd 6854 a2bd a00f dbb7 efdb 9b3d
00000320: b43b 4ebd 9ac8 d5bd 76c4 62bb 1674 243c
00000330: 5654 1b3e 2fbd 1ebe 1955 e73c 2601 203e
00000340: e516 7fbd c4d1 7f3c 1e41 1e3b eb69 dcbd
00000350: 10aa 1a3b f42a 15be 4489 f0bd 7bf8 033e
00000360: cabb 47be 04b6 e7bc 88dd 78be 87e3 b93d
00000370: ea3a efba 635d fa3c 59ac 3f3d 0da6 53bc
00000380: 316b ea3d a27e 983d 9591 00be ec0d 23be
00000390: f158 b5bd 2c3d 19bd 1abe 90bd 1461 1c3d
000003a0: 2610 233d ef31 223e 718b d63d 82f0 dd3c
000003b0: 8e3c 1eba d2db f93d 05ab 54bd aa62 743c
000003c0: 114a 813d 4186 99bd 4ae4 d23b 75a5 3ebd
000003d0: 4932 36be 2926 993b 00ad 4e3d 3d76 cf3d
000003e0: 364e b3bd f250 4f3d c6de 8a3d 306d 393d
000003f0: 7293 813c 4466 233d 9b9b 1abd f895 54bd
0.07903636 -0.09174784 0.04328712 -0.1358113 -0.1357567 -0.019521032 0.108940125 -0.16412283
-0.0010281993 0.17458716 0.10856158 0.15026931 0.03336375 -0.009654456 -0.091842905 0.04695017
-0.13536856 -0.061050147 0.065318294 0.025246544 0.16104192 -0.17096119 -0.05325032 -0.1619754
0.07506265 -0.065997735 0.00044982345 -0.043191966 0.061466873 0.029432422 -0.20014799 0.028790591
0.12978403 0.20564744 -0.010884383 0.08690239 -0.0025526523 0.032641996 -0.11060894 -0.18421869
-0.14874488 -0.05576045 -0.15809417 -0.18749699 0.02006376 0.05431053 0.08649327 0.024401696
-0.0774217 0.031281352 -0.18134718 0.01282965 0.006781014 0.05948795 -0.16937844 -0.03651138
0.09878788 -0.022000393 -0.0042876326 0.08851216 -0.08963025 -0.10015314 0.009081741 -0.027085489
0.13376057 -0.12639967 0.012833709 0.048601225 -0.0055180416 -0.03676108 -0.1843295 0.09245381
0.025926158 0.039941203 -0.11935512 0.2179552 0.11419799 0.19507454 0.046695843 -0.14506195
-0.08782037 0.072988145 -0.034852363 -0.23761898 0.07028412 -0.043357447 -0.12764627 -0.06444584
-0.11640685 -0.023085104 0.02428792 0.14448434 -0.22317436 -0.1764814 -0.10841844 -0.080219254
0.009271217 0.08363096 -0.070933744 0.36284104 0.1420348 -0.24880943 0.10029904 -0.07157497
-0.2518406 -0.045594193 0.100924745 0.114956334 -0.034589082 -0.10876585 -0.15465526 -0.09748968
-0.10340854 -0.02000638 -0.0008055981 0.025762897 -0.14519633 0.07448351 -0.09406363 -0.109268926
-0.07860298 -0.01071189 0.058277257 0.10008075 -0.2338277 -0.13045807 0.16758707 -0.025452118
-0.066167906 0.025838934 0.11402065 0.04132711 0.0046748747 0.06049816 -0.026898324 -0.025635006
0.038292635 0.06708348 -0.061004564 -0.10634936 -0.0046770107 -0.039238796 -0.0039760154 0.1274117
0.032289475 0.009177927 0.018954812 0.053407684 -0.005593992 -0.0989511 -0.015935956 -0.032250218
0.025689697 0.13683917 -0.14885679 0.0029333404 0.12282971 0.12872753 -0.023596141 0.03377445
0.07694395 -0.047508907 -0.15913418 -0.063971974 0.0013991849 0.045892015 0.075293764 0.10070773
0.06707709 0.12239001 -0.10261676 0.06364426 0.022621796 -0.112184234 0.04379323 -0.03659876
0.09392124 -0.16353825 -0.006222832 0.045455962 -0.06873163 -0.06516176 0.058575876 -0.024136242
-0.069023706 0.023899784 0.14327143 0.07035404 -0.010592766 0.028890092 -0.014804428 -0.038440466
0.05432836 0.010265258 -0.06132775 -0.14247306 -0.0898379 -0.079262555 -2.611411e-05 0.076103084
-0.050349906 -0.10438652 -0.0034601963 0.010037443 0.1516889 -0.15501855 0.02823882 0.15625438
-0.062277693 0.015613977 0.00241477 -0.1076239 0.00235999 -0.14567167 -0.11744931 0.12887757
-0.1950523 -0.028285034 -0.24303257 0.090766005 -0.0018251811 0.030562108 0.046795223 -0.012918008
0.114462264 0.07446028 -0.12555535 -0.1592328 -0.08854855 -0.037411854 -0.07067509 0.03817852
0.039810322 0.1583936 0.10475815 0.027092222 -0.0006036245 0.122001305 -0.05192091 0.0149161015
0.06312955 -0.0749631 0.0064359056 -0.04654451 -0.1779262 0.0046737385 0.050457954 0.10129974
-0.08755152 0.050614305 0.06780772 0.045270145 0.015817378 0.03989245 -0.037746053 -0.051900834

F.linears.0.bias f4 [32]
00000000: 9b16 b1bc 96ac 88bd 0464 d2bb a1a9 aabd
00000010: 6fc4 b8bd ccff 9bbd d91e 04bd 1fec a2bc
00000020: c9e1 ac3d 3d15 abbd 3d5c 68bd eb07 a33d
00000030: 2a62 49bd 8f39 053d 1ba2 153d 2de5 44bd
00000040: 7f3e 6a3d e539 1b3d e3ff 9f3d 05d1 483d
00000050: 43c1 763d 078c a73d f7fa 293b ed1f b93d
00000060: aa38 26bd 9c17 fd3b c501 983d ba5e 63bd
00000070: 0d7c babd f118 803c fdec 18bd 8a89 b2bd
-0.021617224 -0.06673543 -0.006420614 -0.083331354 -0.09021842 -0.07617149 -0.03225598 -0.019887982
0.084415026 -0.0835366 -0.05672859 0.079604946 -0.049165882 0.032525595 0.03653155 -0.04807012
0.057188507 0.03789701 0.078124784 0.04902746 0.060242902 0.08181005 0.002593694 0.090392925
-0.040581383 0.0077237617 0.074222125 -0.05551026 -0.09105692 0.015636893 -0.037335385 -0.0871764

F.linears.1.weight f4 [32, 32]
00000000: 78ca 25be 44e8 b6bd fb32 903d 28b9 1ebd
00000010: 5114 3fbc d448 023e 90bb ab3d 5250 86bd
00000020: ed21 74bd 0c56 453c ad15 c3bd 2fe0 e13d
00000030: bd33 51bd 11b1 8cbd b313 463e 12c9 20bd
00000040: 2829 d73a 33ef e83d 3158 ed3d 327d 2dbd
00000050: 476a 57bd 08cf b4bd 32d3 1d3e 9409 303d
00000060: 12eb cabb 642f 07be 6a7e 57bd c538 a83d
00000070: 5791 223e 90e2 69bd d6d0 1c3d e304 3cbd
00000080: 6281 3bbc 4626 ccbd 1a9f bf3d a1ec 62bc
00000090: 3f62 ed3d 174e 763e 2813 b8bc 1d65 0a3e
000000a0: 5ba1 b6bd 9822 4abd d03a bdbd ecc9 31be
000000b0: 82a3 ea3c 40b4 a4bc 9f32 093e e686 33bd
000000c0: 0ec0 0b3e 8fb0 0cbc 5dfb 12be af83 3c3d
000000d0: b0d8 ad3d cd2b c8bd c4f9 25bd 3360 1a3e
000000e0: fe41 8dbd ae0c 2bbe 8112 063e ac3b 56be
000000f0: ba37 4f3b 46fc bf3b 4782 0ebe bc03 03be
00000100: 09f3 a73d f495 d3bd 5f75 d9bc 9edf 90bc
00000110: 4b20 0abe cd19 673d 0d69 443d 01a4 c1bd
00000120: dc5c b7bd e0e1 05be 1ca2 1c3b 4843 dd39
00000130: d243 c93d 638f e1bb 6e4f c6bd fba1 b83d
00000140: 674c d5bd fe74 34bd 4346 a2bd c887 803c
00000150: c8f9 22be b3fa d33d 9dce 91bd 76a3 d93b
00000160: 3f7e 963d 00ab 1d3d 43b8 8a3e 4cd5 f23d
00000170: eb79 babc a0ad 8dbd 0d9f 2abe a1df 3dbd
00000180: b3b3 3b3d 9622 45bc 1a55 3d3e e847 23be
00000190: b01c 65ba 28ee 85bd 1044 5c3d 21e9 b63d
000001a0: 1180 e7bd e49a a2bd fb64 923d dc8b 343e
000001b0: b801 9abe 8ec1 a1bc 3b49 4dbd 7d55 363d
000001c0: a419 a8bb ca76 0c3e 9611 d83b edd5 0abc
000001d0: 1c58 0d3d 68e0 5ebe df05 013e f25a 623d
000001e0: a6ed dfbd a4d8 1ebe a220 703b 7197 f8bc
000001f0: 3172 bb3d 1957 0bbd 6db7 3d3c 11e1 dabd
00000200: fa0c f4bd 9958 3dbd 794f eebc 39a2 17be
00000210: e049 cdbc 6ec8 cabc 0de7 e8bd d7e9 01be
00000220: d3a8 8cbd 3a1d 233d e5a8 643e 5622 1ebc
00000230: 8a6b 563e 624c 0e3d e453 7b3b 7201 173e
00000240: b234 4e3e 7cfe 1dbd dd5a ab3c 44a9 663d
00000250: f5f5 5c3d f457 42bd f050 653d 54a7 863e
00000260: 9e09 e83d d220 99bd 2c56 293e a9af b0bd
00000270: 5ee3 5fbe 8a10 e6bb 96a2 4dbd 63ad e7bd
00000280: 1638 11be f2c7 30bd 8345 eb3d cc94 c23d
00000290: 3517 8abd 1c65 1fbb fc2c 083d e313 a03d
000002a0: 1d86 dabd 6bb8 1a3e b6e9 0fbd d19c fc3d
000002b0: 3f66 80bd 9d55 9bbc 9c76 883d 0fee 00be
000002c0: 6d53 7b3e 7842 7cbc 75b9 52bc 6925 893d
000002d0: 139c 65bd dc3c 733c fa45 003e fed4 f83c
000002e0: 96e1 7c3e 4f01 2abd 63b1 91be 4caa 113e
000002f0: ddc7 12be af4b 49bd e8dd cfbd e7a8 cfbd
00000300: 96b1 1f3e 6e64 40bd 5372 98bd 1211 2e3d
00000310: cfd6 863d 551f edbd b94f d6bd 5326 cc3d
00000320: 0e09 b93d 3837 153d 67e6 fe3d 5f72 82bc
00000330: 2825 193d fe44 a93d 9fd4 613d b5ea 993d
00000340: 92ab e6bc 2dbf 933d e187 7e3d d4fd 243d
00000350: f05c e3bd 28f1 3bbd 6e96 e7bc 222a 0abd
00000360: 4615 053d 2994 b13d 6c84 26bd b2c6 fcbd
00000370: 9721 05be 6a2c 1c3d d2f8 ba3c f769 3d3d
00000380: 105d e93d 6d61 693d b211 0f3d 80a9 f137
00000390: 7003 3abd 69f2 0e3c c75e ee3d 8e11 97bc
000003a0: 18dd 9e3c 8fbc 603e 2f95 f9bc cabb 9abd
000003b0: 590e 2b3d e5f6 4c3c 8fa3 2ebe ecd8 e23c
000003c0: dc05 dbbd a32f eebd e694 30be 0239 f9bd
000003d0: 3da2 dc3d 2f31 61bd a0f3 2c3b d2b9 a23c
000003e0: 71d5 c9bd 7549 babd 194d 07be 8d24 463d
000003f0: 14b3 493e 4262 243e 3502 9b3c 29cd 213e
-0.16190517 -0.0893102 0.07040974 -0.038750798 -0.011662559 0.12723094 0.08385384 -0.06558289
-0.059602667 0.012044441 -0.09525619 0.11029088 -0.051074732 -0.0686971 0.19343452 -0.039254256
0.0016415464 0.11373749 0.11589087 -0.042355724 -0.05259159 -0.088285506 0.15412596 0.042977884
-0.0061925733 -0.13201672 -0.052610792 0.08213953 0.15875755 -0.057100832 0.0382851 -0.045903098
-0.0114444215 -0.099682376 0.09356518 -0.013850362 0.115910046 0.24053226 -0.022470072 0.13515134
-0.08917495 -0.049349397 -0.09239733 -0.17362183 0.02864242 -0.020105481 0.13398217 -0.04382982
0.13647482 -0.008587017 -0.143537 0.04602402 0.084885955 -0.09773979 -0.0405214 0.1507576
-0.06897353 -0.16704056 0.13092996 -0.209212 0.003161891 0.0058589308 -0.13916884 -0.12794393
0.08200652 -0.10331336 -0.026545225 -0.017684754 -0.13488881 0.05642109 0.047951747 -0.094551094
-0.089532584 -0.13074446 0.0023900336 0.00042202533 0.09827389 -0.006883548 -0.09683119 0.0901527
-0.10414963 -0.044056885 -0.079235576 0.015689746 -0.15915596 0.103505515 -0.071194865 0.0066418005
0.07348298 0.038493156 0.27093706 0.118570894 -0.022763213 -0.06917882 -0.16662236 -0.046355847
0.04582567 -0.012032172 0.18489495 -0.15945399 -0.00087399315 -0.06539565 0.053775847 0.089311846
-0.113037236 -0.07939699 0.07148167 0.17631477 -0.30079436 -0.019745614 -0.050118666 0.04451512
-0.0051300097 0.1371719 0.0065938933 -0.008473855 0.034507856 -0.21765292 0.12599896 0.055262513
-0.10934 -0.1551233 0.0036640544 -0.03034565 0.0915264 -0.03401861 0.011579377 -0.10687459
-0.119165376 -0.04622707 -0.02909063 -0.14807977 -0.02505964 -0.024753775 -0.113721944 -0.12686859
-0.06868138 0.039822794 0.22330053 -0.009651741 0.2093946 0.034740813 0.0038349563 0.14746645
0.20137289 -0.038572773 0.02091735 0.056313768 0.0539455 -0.04744716 0.05598539 0.26299536
0.11329959 -0.07476963 0.16536778 -0.086272545 -0.21864077 -0.0070210146 -0.050203882 -0.11312368
-0.14181551 -0.043159433 0.11487868 0.09501037 -0.06742708 -0.002432174 0.033246025 0.07816293
-0.10670111 0.15109412 -0.035134993 0.12334598 -0.06269502 -0.018961722 0.06663248 -0.12590812
0.24543543 -0.015396707 -0.012861599 0.066965885 -0.056057047 0.014846053 0.12526694 0.030375
0.24695429 -0.041505154 -0.28455648 0.1422512 -0.14334054 -0.049144443 -0.10149747 -0.101396374
0.15595087 -0.046970777 -0.074436806 0.04249675 0.0658394 -0.11578242 -0.10464425 0.09968247
0.0903493 0.036429614 0.124462895 -0.015923677 0.03738895 0.08265112 0.055134412 0.0751547
-0.028157983 0.07214198 0.062141303 0.040281132 -0.11101711 -0.04588428 -0.028269973 -0.033731587
0.03249099 0.086708374 -0.04065363 -0.123425856 -0.13001095 0.038128294 0.022823725 0.046243634
0.113947034 0.056977678 0.034928985 2.8808368e-05 -0.045413435 0.008724787 0.11639171 -0.018440988
0.019392535 0.2194693 -0.030466644 -0.07555349 0.04176173 0.012510036 -0.1705458 0.027691327
-0.10694477 -0.1163018 -0.172443 -0.121690765 0.10773132 -0.054978546 0.002639033 0.019863997
-0.09855164 -0.09096042 -0.13213004 0.0483747 0.19697219 0.16053107 0.01892195 0.15800919

F.linears.1.bias f4 [32]
00000000: b7ed b93d f7aa 473d 043c 8dbb 15d2 2e3d
00000010: 8296 183c 6833 b1bd 05fa a3bd ed1f 6bbd
00000020: a1fd 6f3d b44d a0bd fc14 84bd dda6 44bd
00000030: 9d6c 7dbd a6a3 31bd 912b b63d 1d0c a83d
00000040: 59d7 b43d f79f 0fbd f4c0 69bd 5998 08bd
00000050: 713d 143d c369 fa3c 801c 8ebd 759e 463d
00000060: bad8 4abd 2f50 eabc 8c70 c4bd 93f3 b33d
00000070: 8dd0 23bd fff4 a03d 5155 9f3d 65f9 923b
0.09078544 0.04874703 -0.004310133 0.04268082 0.009313228 -0.08652383 -0.08006672 -0.057403494
0.05859149 -0.07827321 -0.06449315 -0.048010696 -0.06187116 -0.043368958 0.088950284 0.082054354
0.08830137 -0.035064664 -0.05706878 -0.033348415 0.036191408 0.03056801 -0.0693903 0.04849096
-0.049523093 -0.028602688 -0.09591779 0.087866925 -0.03999381 0.07859229 0.07779945 0.0044852966

F.linears.2.weight f4 [13, 32]
00000000: 751f 903d 8b27 cdbd f0be debd f8e1 3a3d
00000010: 5726 0f3d 4db1 80bc 5d28 463d ac84 aabc
00000020: 30f0 88be ed2e bcbd d813 4cbd 0be7 34bc
00000030: de31 063e 248a 45be a98b db3c 74cb ce3c
00000040: 4d49 023e a2dc 57bc c6a4 67be 5417 14be
00000050: 324d 343e 8fcb 26bc 488e a2bd f4ae 34bd
00000060: 4eae 703c eed3 34be 3918 83bd 3470 393d
00000070: c4a4 2dbd 0607 21be ce4b 453c 3b3f fbbc
00000080: c143 333d b44b 85bd 3bef 87bb c400 fc3b
00000090: 0f97 e73b 863f 37be e07e a8bd 7354 ce3d
000000a0: 3a86 e8bd b964 22be ca78 463c f07b e9bc
000000b0: 8afa e8bd 74d5 43be 96b5 a0bd 303c 1dbe
000000c0: e9d7 bcbd 1c55 1dbe a9fe dabc 4960 2b3d
000000d0: 8f2a 053d e80e 87bc 2e3c c8bc 3a3f 67bd
000000e0: 945b 173d fe13 19be 916b dd3c 552b 6a3d
000000f0: b246 31bd e9b7 fe3c 88be 93bc d0e6 da3d
00000100: 45e0 d2bd 4b1d fc3c 2c29 be3c 7867 4bbd
00000110: 1653 2ebd 84d5 513d 9dfb 723e aacf 3f3e
00000120: 332c f6bc acc3 973c 3346 243d 3117 fcbc
00000130: 857a c83d 5d8a ef3d 0864 cb3d 64bc 96bc
00000140: a579 c03d 39f2 bfbd def8 fa3c 2aba 05be
00000150: f24a ea3d e7ae a63d 9987 b1bd d665 3ebe
00000160: 7b1e 913d 2112 aebd f5d6 173d 49c2 f9bd
00000170: 4a9d ff3c b883 3ebc 4271 033e 12d7 343c
00000180: f6be 093e bd1b 92bd 1b3b 653c 9bd4 b23d
00000190: e7e7 773d 8312 18be 3339 6d3d cb17 173e
000001a0: 2372 8abd 1f24 e23d 90f2 8d3d 8832 cd3d
000001b0: e2bc 453d ed65 b13d 5aa7 3d3d 7ff4 ddbe
000001c0: c26f 41be 5a51 2d3e db29 0f3e 6eca 28bd
000001d0: 0ec9 62be ddd6 43bd b64a 013e 7549 4cbd
000001e0: d2a5 023e 7134 fd3c 684f 9d3d 9a2e 79bc
000001f0: 96ab 6fbe 1d2e f8bd 6afe e83b 2fed 073d
00000200: ee05 0fbc 5e0e 1cbe e761 0dbd 17b1 bdbd
00000210: da51 cfbd e034 2d3c 9356 cdbd ecad 833c
00000220: 32ee e039 83c8 97bd 823d 32bd 088a 52bd
00000230: c3f7 8f3d 6898 0f3d b528 3abd 9826 d53c
00000240: aa48 89bd 27ea cdbc 544a 81be 4f61 863d
00000250: d6cf 873e e552 333d e402 833d 6340 cfbd
00000260: 244f ab3d b907 9bbc 7474 4ebd d9e0 ad3d
00000270: 6883 633c 241f 0fbe 56c4 fa3d 815a aabd
00000280: c812 253e 5a92 71bd f783 1c3c d5f3 f63d
00000290: 6655 c2bd 9ccb e8bd 2e56 f43d 5405 a63d
000002a0: d08d 123b 2e23 f63d 13cf 6b3d 934b 0c3e
000002b0: d2cf ad3c 5a85 423e 2a9a bf3b ba5c 363d
000002c0: bc9f dbbc d4f0 453e 8805 9d3d 2d2e dd3d
000002d0: d8fb 833d a42a 86bd 2bd3 0c3e 5456 c9bc
000002e0: 5084 c53c a505 62bd 1f4d 0dbd 73a5 46bd
000002f0: 888c 63bd 4977 a03d 95a4 5b3e 47f1 893d
00000300: afa6 1a3e 87d0 0b3e e256 623d 14bb 3bbe
00000310: 49e6 02bd 6dc8 f2bd 00ce da3d cc34 bdbb
00000320: 6cf2 d9bd 4abd 073d e11e 8f3d 26db 7e3d
00000330: 9a9b 72bd 8ff0 ab3a 7bdf 21bd a631 06bd
00000340: 6d81 8bbd 406d 903a 4b38 f2bc 1d74 bfbd
00000350: 2073 06be 1bd1 1f3e 58a5 3c3d 0740 1abc
00000360: e583 04be c5a0 b4bd 19ef c2bc 893c df3d
00000370: a5c9 353c 29ad 83bd 9cd9 1d3e b69d 093e
00000380: 4710 fe3c 9d1f f7bd f98e cf3d c951 463e
00000390: ed18 67bb dd44 8e3d 5175 87bd 08b0 a3bd
000003a0: 81ad 4c3e 827f 7ebb f887 95be 992e acbd
000003b0: 6514 2abd aea2 54bd c1d4 d23d e7d4 0cbd
000003c0: 94f8 c9bc 4102 c13d 8f51 a4bd f497 8dbd
000003d0: 7ae2 ad3d b781 d73d b68a ea3c 4dd1 93bc
000003e0: 6ef3 e13d eadd f3bd 2866 27be decc 1d3e
000003f0: d6d7 ecbc 0b0e 55be 6e2b 07be bd7f debd
0.0703725 -0.10017308 -0.10876262 0.045625657 0.034948673 -0.015709544 0.048378337 -0.020815216
-0.2674575 -0.09188638 -0.049823612 -0.011041413 0.1310496 -0.19290978 0.026799994 0.025243498
0.12723275 -0.013175162 -0.2262145 -0.14462024 0.17607573 -0.010180368 -0.07937294 -0.04411216
0.014689995 -0.1765897 -0.064011045 0.04527302 -0.04239346 -0.15725335 0.012041999 -0.0306698
0.043765787 -0.0650858 -0.0041483915 0.007690521 0.007067568 -0.17895326 -0.082273245 0.10074701
-0.11353727 -0.15858735 0.012113759 -0.02850148 -0.113759115 -0.19124395 -0.07847135 -0.15354991
-0.09220869 -0.15364498 -0.02673276 0.04183987 0.03251129 -0.0164866 -0.024442758 -0.056456782
0.03695257 -0.14949033 0.02702883 0.05717023 -0.04328031 0.031093555 -0.018035188 0.10688555
-0.10296682 0.030775687 0.023212992 -0.049659222 -0.042559706 0.051229015 0.23728795 0.18731561
-0.030050373 0.01852592 0.04010601 -0.030772777 0.09788994 0.116963126 0.09931189 -0.018400379
0.09398202 -0.09372372 0.030636247 -0.13059297 0.11440076 0.08138829 -0.08668441 -0.18593535
0.07085892 -0.084995516 0.037070233 -0.1219526 0.031202931 -0.011628084 0.12836173 0.011037605
0.13451752 -0.07134197 0.013991143 0.087319575 0.060523894 -0.14850812 0.057915878 0.1475517
-0.06760051 0.11042046 0.06931031 0.10019404 0.048275836 0.08662019 0.046302177 -0.43350598
-0.18890288 0.16925564 0.1398081 -0.041208677 -0.22147009 -0.04781233 0.12626156 -0.04987474
0.12758568 0.030908795 0.07681161 -0.015208865 -0.23405299 -0.121181704 0.0071104066 0.03318518
-0.008729441 -0.15239856 -0.034517195 -0.09262293 -0.10123034 0.010571688 -0.10026278 0.016074143
0.0004290208 -0.074112915 -0.04351569 -0.051401168 0.07029679 0.035057455 -0.045448978 0.02601938
-0.06703313 -0.025136067 -0.2525202 0.06561529 0.26525754 0.043780226 0.06397036 -0.10119703
0.08364704 -0.01892458 -0.050404027 0.08490152 0.01388631 -0.13976723 0.12244479 -0.083180435
0.16120446 -0.058977462 0.009552947 0.12058226 -0.09488945 -0.113669604 0.119305 0.08106485
0.002236236 0.12018429 0.05757053 0.13700704 0.02121726 0.18996182 0.005847235 0.044522025
-0.026809566 0.1933015 0.076670706 0.10799823 0.0644452 -0.06551102 0.13752429 -0.024577297
0.024110943 -0.055181164 -0.034497377 -0.04849763 -0.055553943 0.07835252 0.21449502 0.06735473
0.15102647 0.13653766 0.05525864 -0.18333083 -0.0319579 -0.118546344 0.10683823 -0.005774116
-0.106419414 0.033139504 0.069883116 0.062220715 -0.059230424 0.0013117957 -0.03951977 -0.032762192
-0.068117954 0.0011018887 -0.029567858 -0.09348319 -0.13129854 0.15607111 0.04605612 -0.009414679
-0.12940939 -0.08819727 -0.023795651 0.10900218 0.011095439 -0.06429512 0.15415043 0.13439068
0.031013621 -0.12066577 0.10134692 0.19367136 -0.003526266 0.069467284 -0.06614173 -0.0799256
0.19988061 -0.0038833325 -0.29205298 -0.08407325 -0.041523356 -0.051912956 0.10294486 -0.034382727
-0.024654664 0.09424258 -0.080233686 -0.069137484 0.084904626 0.10522788 0.028630596 -0.018044138
0.11032759 -0.11907561 -0.16347563 0.15410182 -0.028911512 -0.20806138 -0.13200161 -0.10864208

F.linears.2.bias f4 [13]
00000000: 8d2f afbd a2b4 21bc 9789 7e3d 6ffb bbbd
00000010: c757 c2bd 3ed6 5b3c 22e4 773c 5958 b6bc
00000020: 1d27 733d df37 89bc 6ae0 81bd 67dc 91bc
00000030: d4d1 4fbd
-0.085539915 -0.009869726 0.062142935 -0.091788165 -0.094893984 0.013417779 0.015130075 -0.022258924
0.059363473 -0.016750274 -0.06341632 -0.017805291 -0.050737217

G.0.linears.0.weight f4 [32, 13]
00000000: 2689 3d3d 35c2 d2bd 330e 563d a3b0 ebbd
00000010: 7595 7d3c 663a 2abd 6d03 8bbd d5bf 9c3d
00000020: bacc 213d 104e 88be eb2b 843d 12cf 36bd
00000030: a8f8 69bd 5ce8 d1bd 9ab6 333e 0c00 10be
00000040: bdea 12be 9993 b6bc 1519 5ebe e1f6 8e3e
00000050: cd2f 0bbe 178b 233e 4593 9d3d 6e96 703c
00000060: e92d fe3d c734 d1bd 5a6e 4fbe 7a85 39bd
00000070: 3d21 5abe 4245 9f3c 1be2 2bbe 70bd 09be
00000080: c594 d1bd c287 79be b000 2a3b 724a 7a3c
00000090: b48d 493b 2fda 343e fc67 0b3e cb7f 40bd
000000a0: 04a4 d73d df61 b5bc 7566 8f3d 1cbe 6dbe
000000b0: 8cc3 61bc 8039 b63d 82dc e0bd de91 2dbd
000000c0: 4220 04bd 3b3b 3e3e b040 1c3e d15d 9dbd
000000d0: a848 64bd 7f0b 083e e354 103d 281c 65bd
000000e0: 6087 833c 8f45 85bd a840 bbbc 2d06 96bd
000000f0: 91f5 b3bd 2238 703d f56f 71bd fbdd 743d
00000100: d15e 183e 2f92 47bd be54 89bd d217 3b3e
00000110: c3c5 363e d21d 443d fd47 bbbd 7cb0 efbb
00000120: e7e1 a9bc 7a4f dabc 97e0 a33c dc85 ffbd
00000130: 4883 c7bd 1dcb 15bc 4bed e3bc 4941 febd
00000140: 411c 27be 08f9 59bd 369c b0bd fdc3 37bd
00000150: e56e 663e d981 9f3d 8d83 113d 33f2 acbd
00000160: e37f 50bd d662 1b3d e2de 933c a21d 233e
00000170: 0164 393e 3e9b 76bd 9d51 0bbe 331b 0bbe
00000180: e076 f5bd f8d4 0f3e 267a 9bbc 0bd7 3c3c
00000190: e7dd 85bd 3651 183d 7579 77bd 8a6c 0c3e
000001a0: c70d 243c 2e18 1abd 0618 adbd 5115 1b3c
000001b0: 7cae 01be 8ac0 2c3e b0c9 00bd 7a6f 30bc
000001c0: 6ad1 003d 8a5e dc3c 1983 1abe 79af bbbd
000001d0: 65bb 28bd 8aa0 e9bd 3464 9bbe 6029 74bd
000001e0: 8e1b 39bd 2f40 b83d 78b1 0cbd 2aad 233e
000001f0: 5835 b43d 637d 64bd c5af 2fbe 2b09 823d
00000200: 656e c03d 008e cc3d 4bf3 da3d b7f7 2c3d
00000210: b22a d73d c701 0cbe c0ed 993e e738 343d
00000220: 75b5 663b bf13 d3bb a559 943a ce6a 413b
00000230: 75f7 babd 64c4 b2bd 174e 1dbe b54e a2bd
00000240: 3a93 6c3d 80ac 413d 3421 abbb af27 b5bd
00000250: f910 b1bd f714 3e3d d5a8 243e cd29 073e
00000260: 37f5 763c 5e1d 9e3d 5aa2 943d f797 ec3c
00000270: 7198 ac3c e647 883c 9bc9 7b3b c1cd 903d
00000280: 3401 d9bc ce58 563d 6765 0ebe 3632 01bd
00000290: 0008 f1bc 6094 463d 87b8 d03d 7ec7 9e3d
000002a0: 5aaf e6bc 1a0a 1f3b e5de 62be 226c ab3b
000002b0: 1a51 c23c 889a fcbd f588 d03d 60b7 343d
000002c0: d919 053c 221c 843d b0bd ef3b 2b90 03be
000002d0: 20f0 723e 9fc6 9f3c 2707 d83c e7d3 89bb
000002e0: 56d1 41be 8cfb 31bc 244f 1a3e 88b2 313d
000002f0: 8181 16be 7dc5 bb3d b792 e43d 1dea afbd
00000300: 7cb8 1d3e 8e61 913d 0a08 64bc 7274 d5bd
00000310: e71c af3c a1c2 9cbd 7f0f b1bd e62d 1e3e
00000320: 0e23 b53c c7f0 82bd 22ca 35bc daad 08bd
00000330: 31f7 b2bd aaba 0f3b 63eb efbb b14b fb3d
00000340: c0ad c33c 440e e0bc 659b 853c 89eb ccbd
00000350: 5e27 503b fb3a 4c3e 0768 643d a593 b6bd
00000360: c9b2 d5bd 54a7 45bc de29 aabd 1432 9abd
00000370: 8e62 eabd a4f0 2e3c c9bd b8bc ba11 8d3b
00000380: fafe c33d 76e5 233e 9258 6d3d e9ff abbd
00000390: f09c 6fbc b003 b6bd cb89 88bc a7fd 1e3d
000003a0: 00d5 6cbd 5ffa 553e 29ed dfbb 053f 2bbe
000003b0: 882d 0fbd f452 0d3d e680 39ba 94a7 63bb
000003c0: 88e1 3ebd 8247 38bc c2bf 783d c7be 273c
000003d0: a534 57bc 7319 913b 0581 ac3d a0fa ac3c
000003e0: 3fae 2f3d caf6 0bbc 11ce 94bd e5a5 bc3d
000003f0: 9fbf 1b3e f951 153d 3692 4d3e e8da 74bb
0.046273373 -0.10290948 0.052259635 -0.115083 0.015477528 -0.0415596 -0.06787763 0.076537766
0.039501883 -0.26622057 0.06453689 -0.04463107 -0.057121903 -0.10249397 0.17550126 -0.14062518
-0.14347358 -0.022287177 -0.21689256 0.2792273 -0.13592453 0.15971027 0.07694105 0.014684303
0.124111004 -0.102151446 -0.2025694 -0.04529331 -0.21301742 0.019442204 -0.16785471 -0.13451171
-0.10233454 -0.24368194 0.0025940351 0.015276538 0.0030754628 0.17661355 0.13613886 -0.046996873
0.105293304 -0.022141395 0.07001964 -0.23217052 -0.013779532 0.08897686 -0.109795585 -0.042375438
-0.032257326 0.18577282 0.15259051 -0.0768391 -0.055733353 0.13285635 0.035237204 -0.055935055
0.016055763 -0.06507408 -0.022857979 -0.07325397 -0.087870724 0.058647282 -0.05894466 0.05978201
0.1487992 -0.048723396 -0.067056164 0.18270805 0.17848878 0.04788 -0.0914459 -0.0073147397
-0.020737601 -0.026649226 0.020004554 -0.124767035 -0.09741837 -0.009142664 -0.027823111 -0.12414796
-0.16319372 -0.05321601 -0.08623545 -0.044864643 0.2250324 0.07788438 0.035525847 -0.08444633
-0.050903212 0.037936054 0.018050615 0.15929273 0.18104555 -0.060206644 -0.13605352 -0.13584594
-0.11985564 0.14046085 -0.018979143 0.01152588 -0.06536465 0.037186824 -0.060418565 0.1371328
0.01001305 -0.037620716 -0.08451848 0.009465531 -0.12664217 0.16870323 -0.031442344 -0.010768766
0.031449713 0.026900548 -0.15089072 -0.09164328 -0.04119434 -0.114075735 -0.30349886 -0.05960977
-0.045192294 0.08996617 -0.034348935 0.15984026 0.08799237 -0.05578364 -0.17156895 0.06349405
0.09396056 0.09988022 0.10690936 0.042228427 0.1050619 -0.13672553 0.300642 0.04399958
0.0035203372 -0.006441563 0.001131822 0.0029513123 -0.0912923 -0.08728865 -0.1536182 -0.079251684
0.057757594 0.04728365 -0.005222464 -0.0884546 -0.086458154 0.046406712 0.1608003 0.1319954
0.015073112 0.07720445 0.072575286 0.028881056 0.021068783 0.016635846 0.0038419727 0.070704944
-0.026489832 0.052330784 -0.1390587 -0.031542026 -0.02942276 0.048481345 0.10191446 0.07752894
-0.028159786 0.0024267496 -0.2215534 0.0052313963 0.023720313 -0.12334162 0.101823725 0.044120193
0.008123838 0.064506784 0.0073163137 -0.12847964 0.23724413 0.01950389 0.026370598 -0.004206169
-0.18927512 -0.010863196 0.15069252 0.04338315 -0.1469784 0.09168527 0.11160796 -0.085895754
0.15402406 0.07098685 -0.013917932 -0.10422601 0.021376086 -0.0765431 -0.08645534 0.15447196
0.022111442 -0.06393581 -0.0110955555 -0.033368923 -0.08738554 0.0021931329 -0.0073217615 0.12270296
0.023886561 -0.027350552 0.01630945 -0.10005862 0.0031761746 0.19944374 0.05576327 -0.0891488
-0.10434491 -0.01206382 -0.08308767 -0.07529083 -0.11444579 0.01067749 -0.022551434 0.0043050917
0.09570117 0.16005501 0.057945795 -0.0839842 -0.014624819 -0.08887422 -0.016667267 0.03881612
-0.05782032 0.2089629 -0.0068336916 -0.16723259 -0.03495553 0.03450294 -0.00070763973 -0.0034737336
-0.046601802 -0.011247518 0.06072975 0.010238356 -0.01313511 0.0044280826 0.08423046 0.021115601
0.042890783 -0.008542726 -0.072658665 0.09211329 0.15209816 0.03645513 0.20075306 -0.0037361924

G.0.linears.0.bias f4 [32]
00000000: 80cc a4bd 01c2 8ebc 25a2 b03c f1b3 393d
00000010: a52a 573d c604 c7bb 6763 873d fd15 37bd
00000020: 5f42 593d 0932 603d d383 32bd bfe9 82bc
00000030: a04a 6fb8 3f9c 483d f5b6 b6bd 25a3 8ebc
00000040: 5316 443d 3414 cbbd 635d 2d3d 6be4 e03b
00000050: 4b85 ba3d 2795 90bc 735a 953d b444 36bd
00000060: a6ab bfbd a01e 20bd 91e2 94bd ab2e b53d
00000070: 4749 8f3d bdf9 d23c 830d 803d 3b84 b7bc
-0.08046818 -0.017426493 0.021561692 0.04533762 0.052530903 -0.006073567 0.06610756 -0.044698704
0.053041812 0.054735217 -0.04358275 -0.0159806 -5.705154e-05 0.048977133 -0.08921615 -0.017411778
0.047872853 -0.09915963 0.04232539 0.006863167 0.09107455 -0.017649246 0.072926424 -0.044499114
-0.09358911 -0.039091706 -0.072697766 0.08846792 0.069963984 0.02575385 0.06252577 -0.02240192
