para_save2/00006params.pth (torch, 155394 bytes, 97 tensors)

A_embd.linears.0.weight f4 [32, 12]
-0.09014039 0.034757305 0.030558823 0.025998631 0.038784944 0.0020880308 -0.11503093 0.17278627
0.050281644 -0.10367863 -0.061495867 0.022290997 0.012332726 0.04481703 0.020613458 -0.08293878
0.010444536 -0.05235511 0.069619484 0.015498006 -0.011412541 0.048057802 -0.16222194 -0.08470716
-0.06363089 0.060111657 -0.15215144 -0.03699964 -0.036486484 -0.2233104 0.16567978 0.083074436
0.087875165 0.1159184 -0.012362293 -0.10687876 -0.11631745 0.09958525 -0.15849286 -0.10043462
-0.003589317 -0.19758286 -0.14651313 0.03177826 0.067869596 0.056350697 -0.036025234 0.08637855
-0.23649777 0.0950482 -0.1614416 -0.04621217 -0.021894243 0.019162918 0.017734697 0.1802132
0.02381766 -0.16660768 -0.10713104 -0.00079828536 -0.07400564 0.17647792 0.008611048 0.00019392464
0.11638941 0.09978105 0.020768983 -0.029900113 -0.15395409 0.08644933 0.00020435406 0.037197545
0.11087956 -0.072616376 0.032636404 -0.08497184 0.12046189 0.014117137 0.1513828 0.1284693
-0.011878076 0.13201928 -0.10811914 -0.1379371 0.0007723784 -0.03136261 -0.030748267 0.07372546
-0.00713096 0.084745094 -0.063843064 0.052984532 0.039758176 -0.119692706 -0.13646892 -0.139284
0.14706402 0.11827405 0.020853532 0.071480356 -0.0044771857 -0.013606294 0.085712716 0.07977505
0.113460734 -0.06770017 -0.1246685 0.03801602 0.11033837 -0.07123196 0.093991295 0.07152401
0.16687849 -0.085962296 0.09251621 -0.010703762 -0.029888572 0.19233613 0.13397126 -0.13752988
0.19597547 7.1233866e-05 -0.050648432 -0.049546406 -0.09948279 -0.012670854 0.0006617329 0.099061094
-0.028556662 -0.020952791 0.10044607 0.034467947 -0.06824018 -0.09131262 0.113440454 -0.06983439
-0.10204025 -0.0006679873 -0.07512429 -0.1657054 0.075783215 -0.044507105 0.019712452 -0.06335299
0.038512386 0.09545455 0.091543145 0.20370904 0.086642206 -0.04597593 0.00022022496 -0.029025262
0.13009588 -0.103735976 -0.029119626 -0.07134498 -0.17719774 -0.12109728 0.042565536 -0.011879799
0.2741289 0.05290962 0.011315571 -0.07382527 -0.099800095 -0.071811736 -0.06993244 -0.1057396
-0.15852538 0.03747704 0.026922168 0.11757124 -0.0003196006 -0.039002374 0.015301259 -0.080991484
0.06200716 -0.0026057854 -0.06783977 0.14506194 -0.011423487 0.14215176 0.057233427 0.061593913
0.11678282 0.007462642 0.06252876 -0.010286884 -0.01672054 0.08613842 -0.025555374 0.13539782
-0.10404366 0.020576926 0.12130958 0.061796803 0.07331906 0.09008195 0.06625244 0.09588886
-0.15431988 0.06147859 -0.26049522 -0.03279522 0.07206355 0.023523415 0.031666946 -0.082944885
0.0683116 -0.005498413 0.14167029 0.056845423 0.15321587 0.025727388 -0.056763675 0.0055030556
0.051072396 -0.09318657 0.050447326 -0.109926365 0.015493871 0.022572236 0.1530115 0.049073152
0.121856 0.010683211 0.024317348 -0.17453378 0.07793259 0.027554382 -0.10394793 0.038858358
-0.20979883 0.16995357 -0.0251171 0.109236926 0.03759016 -0.00201467 0.07506523 -0.039607417
0.06893728 0.04815294 -0.012222487 -0.079092786 0.11359561 0.07284239 0.06634565 -0.063440196
-0.014447421 -0.04655811 0.1412048 -0.087413736 -0.009574855 0.024226813 0.14309347 0.009388039
00000000: 869b b8bd ad5d 0e3d 7f56 fa3c 15fb d43c
00000010: f6dc 1e3d 58d7 083b 5695 ebbd e2ee 303e
00000020: 20f4 4d3d 7655 d4bd 17e3 7bbd 9c9b b63c
00000030: 340f 4a3c 1092 373d 8edd a83c cfdb a9bd
00000040: 8f1f 2b3c 5072 56bd a994 8e3d 59eb 7d3c
00000050: abfb 3abc 42d8 443d 821d 26be f37a adbd
00000060: e950 82bd a437 763d 96cd 1bbe ef8c 17bd
00000070: da72 15bd 7bab 64be f6a7 293e ee22 aa3d
00000080: e5f7 b33d a066 ed3d 378b 4abc 40e3 dabd
00000090: d837 eebd 5af3 cb3d f44b 22be abb0 cdbd
000000a0: bf3a 6bbb 2953 4abe 8a07 16be ec29 023d
000000b0: 37ff 8a3d fdcf 663d 328f 13bd 3de7 b03d
000000c0: 792c 72be a1a8 c23d f250 25be f948 3dbd
000000d0: 8e5b b3bc 8dfb 9c3c 5b48 913c cf89 383e
000000e0: 411d c33c 349b 2abe 8567 dbbd 0644 51ba
000000f0: 4590 97bd a1b6 343e 5a15 0d3c 4058 4b39
00000100: 925d ee3d 025a cc3d b723 aa3c 15f1 f4bc
00000110: 24a6 1dbe 590c b13d e047 5639 745c 183d
00000120: d314 e33d e5b7 94bd c0ad 053d b705 aebd
00000130: b9b4 f63d 904b 673c 1804 1b3e 758d 033e
00000140: 439c 42bc 1030 073e 916d ddbd 623f 0dbe
00000150: 7079 4a3a 1576 00bd cae3 fbbc 60fd 963d
00000160: d4aa e9bb d68e ad3d 27c0 82bd 4f06 593d
00000170: 78d9 223d 7321 f5bd 82be 0bbe 77a0 0ebe
00000180: f397 163e aa39 f23d 07d5 aa3c 4b64 923d
00000190: 5bb5 92bb efec 5ebc 268a af3d 1a61 a33d
000001a0: 1a5e e83d 63a6 8abd 3352 ffbd b0b6 1b3d
000001b0: 15f9 e13d 10e2 91bd 827e c03d 2e7b 923d
000001c0: 32e2 2a3e 000d b0bd 2479 bd3d d55e 2fbc
000001d0: e1d8 f4bc c3f3 443e c32f 093e a2d4 0cbe
000001e0: cbad 483e 6463 9538 bb74 4fbd 2cf1 4abd
000001f0: a2bd cbbd 6a99 4fbc 2578 2d3a 8be0 ca3d
00000200: a9ef e9bc 30a5 abbc abb6 cd3d 432e 0d3d
00000210: 82c1 8bbd 1c02 bbbd 7853 e83d 5505 8fbd
00000220: 7bfa d0bd de1b 2fba c4da 99bd adae 29be
00000230: 3b34 9b3d 154d 36bd 027c a13c 36bf 81bd
00000240: 2abf 1d3d ad7d c33d f97a bb3d 1a99 503e
00000250: 7871 b13d 4251 3cbd 30ec 6639 63c6 edbc
00000260: db37 053e 8773 d4bd 488c eebc 511d 92bd
00000270: 5373 35be da01 f8bd 3359 2e3d 7da3 42bc
00000280: a05a 8c3e c2b7 583d f264 393c b431 97bd
00000290: fe63 ccbd 0812 93bd bd38 8fbd 018e d8bd
000002a0: 7a54 22be 8681 193d e18b dc3c 31c9 f03d
000002b0: 1190 a7b9 f4c0 1fbd 22b2 7a3c ddde a5bd
000002c0: 38fb 7d3d d3c5 2abb 94ef 8abd 1e8b 143e
000002d0: 9429 3bbc 3b90 113e 996d 6a3d e649 7c3d
000002e0: d52b ef3d 2e89 f43b 140f 803d 528a 28bc
000002f0: 84f9 88bc 5769 b03d 8159 d1bc baa5 0a3e
00000300: d814 d5bd f190 a83c 2871 f83d a51e 7d3d
00000310: 4e28 963d e37c b83d 5caf 873d 6161 c43d
00000320: 0806 1ebe f9d0 7b3d a15f 85be 4854 06bd
00000330: 0e96 933d 2db4 c03c 33b5 013d 02df a9bd
00000340: f4e6 8b3d 082c b4bb 0412 113e bfd6 683d
00000350: 9fe4 1c3e 3ec2 d23c 0781 68bd fa52 b43b
00000360: 4a31 513d 9ad8 bebd dba1 4e3d 1321 e1bd
00000370: 01da 7d3c 69e9 b83c 0caf 1c3e ee00 493d
00000380: a38f f93d a208 2f3c 2d35 c73c fcb8 32be
00000390: 1f9b 9f3d bab9 e13c a7e2 d4bd f129 1f3d
000003a0: 81d5 56be 4f08 2e3e 60c2 cdbc 9cb7 df3d
000003b0: 24f8 193d 8e08 04bb cdbb 993d 633b 22bd
000003c0: fd2e 8d3d 043c 453d d340 48bc 66fb a1bd
000003d0: d1a4 e83d 642e 953d 3ae0 873d efec 81bd
000003e0: e0b4 6cbc b7b3 3ebd fe97 103e f905 b3bd
000003f0: dadf 1cbc 4f77 c63c 1887 123e 4ad0 193c

A_embd.linears.0.bias f4 [32]
-0.062314067 -0.06512845 -0.043362323 -0.034969117 0.040128175 0.06994554 -0.0005166574 0.087432645
0.049201414 -0.0009706756 -0.03408495 -0.05653792 -0.015047556 0.0024936786 -0.054152466 -0.07073623
-0.03905603 0.092130005 -0.03588498 0.01719428 0.014569267 0.074381456 -0.04335108 0.014538975
0.066365466 -0.084947616 -0.018927138 -0.0022543296 -0.08381879 0.0108223725 0.000422074 0.03079243
00000000: 093d 7fbd 1162 85bd b19c 31bd c73b 0fbd
00000010: 715d 243d 9b3f 8f3d 4b70 07ba e30f b33d
00000020: 6c87 493d f074 7eba a99c 0bbd 4e94 67bd
00000030: 068a 76bc fc6c 233b face 5dbd 28de 90bd
00000040: 37f9 1fbd a8ae bc3d 21fc 12bd 05db 8c3c
00000050: efb3 6e3c 4e55 983d e790 31bd e234 6e3c
00000060: 9eea 873d 04f9 adbd 160d 9bbc 60bd 13bb
00000070: 30a9 abbd 5250 313c d049 dd39 6840 fc3c

A_embd.linears.1.weight f4 [32, 32]
0.147106 -0.021357771 -0.00070772204 0.09125533 -0.03953746 -0.2457357 -0.1517442 -0.11943403
0.083249286 0.057404898 -0.14767781 -0.0226124 -0.0017216594 -0.02835552 -0.06116846 -0.030290479
0.09671502 -0.029131986 -0.018252585 0.04849559 0.09636326 -0.08189216 -0.021301549 -0.00046831265
0.016353538 0.16325843 0.03506729 0.034064874 -0.11938734 -0.09780427 -0.01765763 0.039792877
0.10067495 -0.08606405 0.04444925 0.034561377 0.14053659 -0.12164816 -0.00973252 0.017489713
-0.0006711091 0.0005782846 0.12505116 0.023574168 0.060618952 -0.022131067 0.051566735 0.00055424875
-0.00013219452 0.14206155 -0.008778623 0.10675826 -0.039286964 0.052265216 0.08096985 0.111534916
-0.00024672737 -0.03421416 0.0931899 -0.024762243 0.08282982 0.12932709 -0.11525227 -0.23382981
0.11988443 -0.1709563 0.00046128852 0.09317009 0.00070130994 -0.14995027 -0.15181729 0.016525311
-0.03124564 -0.05961834 -0.14366092 0.0053512696 -0.0115116015 0.08820773 0.0022490548 0.07171613
-0.044786006 -0.10431505 0.104718 0.07840247 0.024111807 -0.028563038 -0.083374046 -0.03624014
0.13515975 0.06063017 0.06787597 -0.12470472 -0.013330572 -0.054806635 0.015484944 0.033107735
0.118597366 0.1034824 0.0007684116 0.018275304 0.022283098 -0.06622699 0.017171264 0.031078674
-0.09867838 -0.081611216 0.028095583 -0.10799131 0.20625395 0.061799917 0.11427565 -0.029310727
0.16757768 -0.00015802625 0.067285314 0.08579795 -0.1229676 0.037241176 0.06198416 -0.00869923
0.030612754 -0.06769453 -0.06917505 0.00025111745 0.00039546617 0.20571926 -0.16110991 0.19006427
-0.119886994 0.015310769 -0.0043902867 -0.08262325 0.13501625 -0.026783356 0.06555645 -0.0018270824
0.15744935 0.037885275 0.06430136 0.080573924 -0.06331571 -0.03985557 0.13501805 0.06419053
0.13626982 0.0331196 -0.038042314 -0.057446253 0.15839794 0.062301017 0.11820481 -0.12874009
0.03163825 0.03248655 -0.17576037 0.17409173 0.10960065 -0.0072459583 -0.004560862 0.074241556
0.032558206 -0.013810966 0.10493668 0.09628248 0.22315082 -0.16204365 -0.044426348 -0.047389973
0.0016981622 0.009572392 -0.13303944 -0.07184886 0.067181766 -0.07842315 -0.0030067763 0.15375452
-0.04846569 0.03794938 -0.00016502955 -0.11298618 -0.18190335 0.02849363 -0.024113938 -0.062289085
-0.08992114 -0.020721342 -0.09418389 -0.0506976 -0.10672057 -0.13030636 -0.087885626 0.016490135
0.046453588 -0.040241893 0.14867377 -0.009869391 0.16525681 0.082792476 -0.008095961 -0.1568682
0.02557152 0.032289036 -0.061907217 -0.16495344 0.11499914 0.07985328 -0.053818624 0.090683855
0.006246309 0.19157593 0.19178708 0.0099578 0.10133661 0.0006286115 0.15752552 0.027024988
-0.04253325 0.02094827 0.025216198 0.042724043 0.09221137 0.10415033 0.05842498 0.01686841
0.0997751 0.0021040794 -0.11295745 0.030697294 -0.11482281 0.07872338 0.059547268 -0.046109006
-0.15923971 -0.16953537 -0.066382654 -0.22541304 -0.017488873 0.098837644 0.007537957 -0.020702103
0.030866984 0.1632611 -0.06640033 -0.19222365 0.1502373 -0.082960255 0.061565056 -0.14247164
-0.0007606102 0.005513195 -0.12634465 -0.2290615 -0.03522264 0.14296599 0.04622033 0.09895107
00000000: f5a2 163e 7ef6 aebc 6c86 39ba 13e4 ba3d
00000010: 08f2 21bd 24a2 7bbe d562 1bbe d499 f4bd
00000020: 9a7e aa3d 6621 6b3d da38 17be a43d b9bc
00000030: 4ea9 e1ba d649 e8bc c78b 7abd bd23 f8bc
00000040: 8612 c63d 34a6 eebc 7286 95bc 50a3 463d
00000050: 1a5a c53d 14b7 a7bd 9680 aebc dc87 f5b9
00000060: dbf7 853c 382d 273e b8a2 0f3d 9c87 0b3d
00000070: 5a81 f4bd 9b4d c8bd bca6 90bc dbfd 223d
00000080: ab2e ce3d 5942 b0bd 6b10 363d 3b90 0d3d
00000090: d3e8 0f3e ac22 f9bd 2675 1fbc 9646 8f3c
000000a0: 5fed 2fba 0698 173a 690d 003e 9d1e c13c
000000b0: 944b 783d 364c b5bc a437 533d 014b 113a
000000c0: b29d 0ab9 9578 113e 37d4 0fbc 13a4 da3d
000000d0: 5eeb 20bd 0d14 563d 85d3 a53d 6b6c e43d
000000e0: 305b 81b9 2624 0cbd 59da be3d 30da cabc
000000f0: aea2 a93d 526e 043e 6209 ecbd 1571 6fbe
00000100: f885 f53d 2b0f 2fbe 19d9 f139 f6cf be3d
00000110: 1dd8 373a 908c 19be fe75 1bbe 1760 873c
00000120: dbf6 ffbc 5c32 74bd d91b 13be b459 af3b
00000130: 289b 3cbc 41a6 b43d e164 133b e8df 923d
00000140: 8871 37bd 21a3 d5bd 6476 d63d 7991 a03d
00000150: 2086 c53c 08fd e9bc 03c0 aabd 8b70 14bd
00000160: 5167 0a3e 5757 783d 8e02 8b3d 3065 ffbd
00000170: 7968 5abc ec7c 60bd 90b4 7d3c fa9b 073d
00000180: 2de3 f23d 95ee d33d 3b6f 493a 17b6 953c
00000190: 0b8b b63c 04a2 87bd c0aa 8c3c b498 fe3c
000001a0: e417 cabd c823 a7bd b528 e63c 8c2a ddbd
000001b0: 3c34 533e e921 7d3d 5a09 ea3d 0d1d f0bc
000001c0: 7c99 2b3e d9b3 25b9 e2cc 893d d6b6 af3d
000001d0: 70d6 fbbd 348a 183d 1ae3 7d3d 3787 0ebc
000001e0: 99c7 fa3c 6ea3 8abd a6ab 8dbd 6aa8 8339
000001f0: 9256 cf39 12a8 523e fff9 24be 35a0 423e
00000200: 5087 f5bd 05da 7a3c 65dc 8fbb 6136 a9bd
00000210: b341 0a3e c568 dbbc 7642 863d b67a efba
00000220: 673a 213e 972d 1b3d 6eb0 833d f103 a53d
00000230: abab 81bd 983f 23bd 2c42 0a3e 5376 833d
00000240: 518a 0b3e 6ba8 073d 42d2 1bbd c34c 6bbd
00000250: 1233 223e 5a2f 7f3d 5d15 f23d 71d4 03be
00000260: 1c97 013d 9e10 053d 87fa 33be 1a45 323e
00000270: 4e76 e03d 816f edbb 4973 95bb f50b 983d
00000280: c15b 053d 6447 62bc 0be9 d63d c02f c53d
00000290: a681 643e c5ee 25be 67f8 35bd fd1b 42bd
000002a0: de94 de3a 86d5 1c3c 7e3b 08be 7f25 93bd
000002b0: 9896 893d 519c a0bd 560d 45bb d371 1d3e
000002c0: f683 46bd cf70 1b3d c80b 2db9 4c65 e7bd
000002d0: df44 3abe 796b e93c 988a c5bc d722 7fbd
000002e0: 9328 b8bd cebf a9bc 7ce3 c0bd 49a8 4fbd
000002f0: 5090 dabd 086f 05be 61fd b3bd 5216 873c
00000300: 1e46 3e3d afd4 24bd f03d 183e 3ab3 21bc
00000310: 1539 293e 1a8f a93d eca4 04bc 0fa2 20be
00000320: 5d7b d13c 8241 043d 6c92 7dbd 8ee9 28be
00000330: ab84 eb3d 1e8a a33d eb70 5cbd 75b8 b93d
00000340: d6ad cc3b 7b2c 443e d563 443e 0a26 233c
00000350: 9289 cf3d 67c9 243a 5f4e 213e 8263 dd3c
00000360: 5837 2ebd b59b ab3c 3392 ce3c 68ff 2e3d
00000370: 51d9 bc3d c54c d53d 084f 6f3d 9f2f 8a3c
00000380: e356 cc3d 98e4 093b 3c56 e7bd e478 fb3c
00000390: 3928 ebbd b939 a13d d6e7 733d ccdc 3cbd
000003a0: bc0f 23be ae9a 2dbe a1f3 87bd add2 66be
000003b0: d344 8fbc 646b ca3d f700 f73b 7597 a9bc
000003c0: c2dc fc3c eb2d 273e e5fc 87bd 47d6 44be
000003d0: cfd7 193e 11e7 a9bd a42b 7c3d 16e4 11be
000003e0: b063 47ba 08a8 b43b 7e60 01be 198f 6abe
000003f0: 9d45 10bd ad65 123e 8751 3d3d dca6 ca3d

A_embd.linears.1.bias f4 [32]
0.02823912 -0.01577239 0.0274478 0.030589236 -0.072407514 -0.0044119265 0.033656146 0.06255252
-0.052953806 0.04715709 0.08765875 -0.03942966 -0.07693377 -0.01559093 -0.047653347 -0.049797393
-0.033099055 0.027201815 0.08440512 -0.045700487 -0.026414031 -0.03533932 0.0004906963 -0.037135668
0.0018721854 -0.049293097 -0.048151113 -0.016831255 0.049187873 0.03436186 -0.0034962809 -0.002962999
00000000: ba55 e73c 1935 81bc 35da e03c 4796 fa3c
00000010: 644a 94bd ec91 90bb 07db 093d 891b 803d
00000020: 17e6 58bd cb27 413d 6e86 b33d ff80 21bd
00000030: 748f 9dbd 1a71 7fbc 2830 43bd 5af8 4bbd
00000040: e092 07bd 57d6 de3c 97dc ac3d 6f30 3bbd
00000050: 3d62 d8bc f6bf 10bd 12a2 003a 921b 18bd
00000060: 1e64 f53a 8fe7 49bd 1a3a 45bd b3e1 89bc
00000070: 3979 493d 06bf 0c3d dc21 65bb e02e 42bb

A_embd.linears.2.weight f4 [12, 32]
0.06885341 0.09873417 -0.0760266 -0.011944138 -0.19642317 0.15089242 -0.013730611 0.06381449
0.03883187 -0.081997626 -0.06951396 -0.07175874 -0.06533196 -0.1806562 0.13392803 0.07243158
-0.055705376 0.048531692 0.033021204 -0.016691254 -0.020524684 0.060953688 0.06381091 0.23369358
0.16183381 0.063099034 -0.07686587 -0.19457194 -0.07830547 -0.14622957 0.0059379134 -0.011502233
-0.04088335 -0.12902746 -0.027480181 -0.002183807 -0.093242645 -0.044043817 -0.010156522 0.071595386
0.00030175544 -0.0029863433 0.04339864 0.08628425 -0.09303977 0.040026627 -0.13505691 0.005708704
0.01462419 0.00033182086 0.08507158 -0.025035258 -0.22192828 0.16821374 0.16413371 -0.10282586
-0.04744649 0.08650431 0.020723168 -0.060762886 0.023630315 -0.050186854 -0.043035675 -0.09361962
-0.026894722 0.028350802 -0.24983042 0.020628393 0.0044409535 -0.08673808 0.047911353 -0.026127933
-0.01894086 0.21081105 0.017065968 -0.08807254 -0.12111838 -0.035925873 0.07001999 -0.17217147
-0.04381331 0.14991823 0.10078184 -0.03632984 -0.017085252 0.07116555 -0.05649801 0.0007704634
0.15155417 -0.009833032 0.016265016 0.08723628 0.030563237 0.026999723 0.13965872 0.066170715
0.06236242 -0.056688275 0.12209268 -0.14113197 0.11302374 -0.14981031 0.07378303 0.06391948
-0.07412377 -0.019736655 -0.17540175 -0.056111854 -0.19425152 -0.05652919 0.098578684 -0.031831115
0.06422983 0.0022094008 0.052034557 -0.10415965 -0.061091967 -0.01340376 0.16995561 0.098798625
-0.14417168 0.0068913493 -0.04958949 -0.046785053 -0.16057222 0.011036991 -0.063296534 -0.012967631
-0.121041246 0.040822305 0.08631252 0.07795736 -0.051074635 -0.08710987 0.10599398 -0.15308584
0.19510649 0.04452337 0.10530348 -0.1511411 0.074793085 0.03336603 0.19997056 -0.01854792
0.015222703 -0.17287475 0.11746461 -0.048624884 -0.10624361 -0.14391226 0.062557556 0.0022976983
0.0676703 -0.06769883 -0.034698375 -0.020681614 0.0070543727 -0.028446272 0.028123664 0.008235689
0.0030066983 0.09407442 0.09496377 -0.061556134 -0.015137784 0.05989127 0.09586193 0.1288656
-0.061683528 0.08262255 -0.1787943 -0.0065544792 -0.13186605 0.010273481 0.13449101 -0.06286301
-0.061961077 -0.08980205 0.092422746 -0.11877637 -0.003926973 -0.057589814 -0.2068289 -0.08142513
-0.18370858 0.007756536 -0.014983909 -0.1187945 0.12617299 -0.023065308 0.18051219 -0.10290949
0.00013042055 0.013540415 0.06799494 0.13953935 -0.08627594 0.039989132 0.06327173 -0.2659277
0.07684813 0.09679148 0.078012034 -0.040406976 -0.16820273 0.008974345 0.25639206 -0.103045024
-0.039836977 -0.16369785 -0.033575892 0.0057087247 0.12823641 0.040675446 -0.069988064 -0.18674167
-0.051147122 -0.03471424 0.0033593923 0.09485146 0.03316682 0.23151582 0.0841374 -0.035134412
-0.013877374 -0.106658444 0.10745537 -0.10840676 -0.076788716 -0.07799863 0.021246562 0.034093462
0.010200705 -0.24973959 0.056775205 -0.022318453 0.14910813 -0.0189022 -0.07045307 -0.20186071
-0.016857117 0.03554495 -0.062285367 -0.110656835 -0.11697164 -0.18612997 -0.002513548 0.033730738
0.031126136 -0.15820377 0.21468037 -0.026272643 0.18645523 -0.2249902 -0.08974032 -0.13243823
00000000: 0403 8d3d 2435 ca3d d6b3 9bbd 59b1 43bc
00000010: 2823 49be 8b83 1a3e 5bf6 60bc 2cb1 823d
00000020: 2b0e 1f3d 5fee a7bd 565d 8ebd 3ff6 92bd
00000030: c3cc 85bd f0fd 38be 6e24 093e 0257 943d
00000040: 522b 64bd 2bc9 463d 3e41 073d 19bc 88bc
00000050: 6223 a8bc 93aa 793d 4baf 823d 5f4d 6f3e
00000060: c3b7 253e 113a 813d da6b 9dbd de3d 47be
00000070: 9e5e a0bd 34bd 15be d492 c23b dd73 3cbc
00000080: 4d75 27bd c61f 04be 1e1e e1bc 341e 0fbb
00000090: 00f6 bebd 4a67 34bd 8a67 26bc 9aa0 923d
000000a0: ee34 9e39 87b6 43bb c6c2 313d ccb5 b03d
000000b0: a38b bebd f6f2 233d 5c4c 0abe 1410 bb3b
000000c0: 4c9a 6f3c 3ef8 ad39 023a ae3d be16 cdbc
000000d0: 2b41 63be 3940 2c3e ab12 283e 5d96 d2bd
000000e0: 4057 42bd 2c29 b13d a2c3 a93c 81e2 78bd
000000f0: 5d94 c13c bb90 4dbd 2d46 30bd a5bb bfbd
00000100: 5252 dcbc f13f e83c 8cd3 7fbe e0fc a83c
00000110: 6b85 913b bca3 b1bd b23e 443d 3f0a d6bc
00000120: dd29 9bbc dade 573e eecd 8b3c 605f b4bd
00000130: ea0c f8bd 0227 13bd a466 8f3d b84d 30be
00000140: 9675 33bd 2a84 193e b666 ce3d 99ce 14bd
00000150: 5ff6 8bbc 3ebf 913d 756a 67bd ecf8 493a
00000160: 0431 1b3e ba1a 21bc 363e 853c efa8 b23d
00000170: c15f fa3c 862e dd3c b202 0f3e 8384 873d
00000180: bd6f 7f3d f731 68bd ba0b fa3d e684 10be
00000190: fe78 e73d e067 19be 8f1b 973d 37e8 823d
000001a0: 34ce 97bd c4ae a1bc 849c 33be 8bd5 65bd
000001b0: dfe9 46be 278b 67bd 9fe3 c93d 5861 02bd
000001c0: ee8a 833d 98cb 103b 3022 553d a851 d5bd
000001d0: 923b 7abd 729b 5bbc d808 2e3e ef56 ca3d
000001e0: bea1 13be d4d0 e13b 591e 4bbd afa1 3fbd
000001f0: 0b6d 24be 7fd4 343c 9da1 81bd 3076 54bc
00000200: 79e4 f7bd 4a35 273d 9ec4 b03d 1ca8 9f3d
00000210: a333 51bd a966 b2bd 5f13 d93d 89c2 1cbe
00000220: ffc9 473e 235e 363d 5aa9 d73d bcc4 1abe
00000230: 1e2d 993d d1aa 083d 15c5 4c3e cff1 97bc
00000240: a568 793c 1406 31be 4991 f03d e32a 47bd
00000250: 4096 d9bd bc5d 13be 2d1e 803d fb94 163b
00000260: ba96 8a3d afa5 8abd e21f 0ebd 7d6c a9bc
00000270: 5e28 e73b 2808 e9bc 9963 e63c fcee 063c
00000280: 070c 453b 17aa c03d 5d7c c23d 4922 7cbd
00000290: 7804 78bc 8c50 753d 4253 c43d 58f5 033e
000002a0: dea7 7cbd 0336 a93d da15 37be f5c6 d6bb
000002b0: e507 07be 1a52 283c 03b8 093e 52be 80bd
000002c0: e6ca 7dbd 23ea b7bd 2348 bd3d 0741 f3bd
000002d0: d6ad 80bb 4ce3 6bbd f5ca 53be 38c2 a6bd
000002e0: 1a1e 3cbe 8a2a fe3b 127f 75bc 884a f3bd
000002f0: 7e33 013e 75f3 bcbc 30d8 383e 36c2 d2bd
00000300: 80c1 0839 9ed8 5d3c ee40 8b3d 67e3 0e3e
00000310: 71b1 b0bd a5cb 233d 9c94 813d ad27 88be
00000320: 8d62 9d3d 9d3a c63d c6c4 9f3d c981 25bd
00000330: 563d 2cbe 2209 133c d245 833e 4509 d3bd
00000340: 192c 23bd 69a0 27be e086 09bd 4110 bb3b
00000350: 6850 033e 4c9b 263d e755 8fbd 3539 3fbe
00000360: a57f 51bd 8530 0ebd 4029 5c3b 7b41 c23d
00000370: eed9 073d 7c12 6d3e 3b50 ac3d 1ae9 0fbd
00000380: ed5d 63bc be6f dabd 9011 dc3d 5d04 debd
00000390: 6743 9dbd bfbd 9fbd 450d ae3c 96a5 0b3d
000003a0: dc20 273c bcbb 7fbe 1e8d 683d 30d5 b6bc
000003b0: cdaf 183e c9d8 9abc b349 90bd 93b4 4ebe
000003c0: f017 8abc 9597 113d f11e 7fbd 0da0 e2bd
000003d0: d48e efbd db98 3ebe 56ba 24bb 3e29 0a3d
000003e0: 3dfc fe3c 2b00 22be 2cd5 5b3e ba39 d7bc
000003f0: 1fee 3e3e d563 66be c6c9 b7bd e39d 07be

A_embd.linears.2.bias f4 [12]
-0.08741093 0.0290302 0.07684861 0.021574866 0.08346805 0.060113944 -0.087922275 0.003181469
-0.071316734 -0.0026762048 -0.050418943 0.017507644
00000000: 8004 b3bd bed0 ed3c ce62 9d3d c6bd b03c
00000010: 4cf1 aa3d 0a3a 763d 9810 b4bd 3180 503b
00000020: 820e 92bd 4463 2fbb 1884 4ebd 316c 8f3c

F.linears.0.weight f4 [32, 24]
-0.0035159243 0.07798871 -0.19400369 0.06939176 0.030902687 0.17939778 -0.034974966 -0.048982654
0.085862175 -0.042439207 -0.10671848 -0.016420087 0.24540547 0.020499295 -0.122671664 0.12516883
-0.10503942 -0.066177115 -0.019045742 -0.0034333956 0.0076484913 0.04328713 -0.04286099 0.075810544
-0.015312956 0.0012777157 -0.0020658965 -0.08048794 -0.06894491 -0.11435683 0.14352635 0.15141308
-0.18558966 0.2848773 -0.07016857 -0.015414855 0.036706615 0.05398708 0.007102544 0.06984964
-0.0964108 -0.043229703 0.03324636 -0.037084118 0.048571434 -0.045340274 0.10940175 -0.02002807
-0.028554725 -0.15507263 -0.11477747 -0.0714899 -0.020933395 0.0114120655 -0.019000458 0.06591965
-0.1222207 0.029607488 0.16529205 -0.117813274 -0.057866663 -0.20897804 0.061512697 0.005830189
-0.059793137 0.036587525 -0.010634686 0.026009327 -0.04039736 0.011330083 0.23763958 -0.0491426
-0.14614306 -0.24991107 0.10093575 -0.0046439716 -0.05533998 0.10049269 -0.13797556 -0.07084258
-0.021803616 0.00440777 -0.08832949 -0.07730902 0.025392067 0.08177296 0.10668982 -0.029571472
-0.04583072 -0.009313372 0.099444576 -0.1857016 0.06553375 0.103094675 0.057036992 -0.0436716
-0.054567438 0.08139492 0.12700906 0.02179194 0.108803265 -0.018756699 -0.014344765 -0.068688095
-0.005919851 0.0077992096 -0.009445233 0.18314916 -0.00077114976 -0.049307715 -0.03488867 -0.06869671
-0.00090653007 0.16016228 0.109953165 0.0037719845 0.03278659 0.03595184 0.023199135 -0.101414576
0.09564772 0.15699472 -0.02408898 -0.12676278 -0.04486984 -0.10194182 -0.14674053 0.12890983
-0.17846417 -0.0074731824 0.010618439 0.0020382637 -0.17590141 0.019790772 -0.12641774 0.09844874
0.07815856 -0.03312021 -0.1879867 -0.046252236 0.06948803 -0.047380976 -0.042186935 0.03254349
-0.010381725 -0.02302141 -0.05134917 0.033600602 -0.14486545 -0.029895393 -0.041851126 0.036591314
-0.04162458 -0.0742181 0.011383258 0.05451592 -0.17841567 0.031973276 -0.053807538 0.04800923
0.178384 -0.0453299 0.23033495 0.0746656 0.008763755 -0.043779384 -0.11793971 0.032147415
-0.109755024 0.1325283 0.039462004 -0.08816936 -0.025245773 0.07831392 -0.13551356 -0.15371206
0.0026995463 -0.16600896 0.022775056 0.122631215 -0.022274714 -0.0047572586 -0.008571934 0.03274894
0.00791586 0.18107772 0.08289125 -0.06967894 -0.057647258 -0.13868503 0.03307555 -0.12220963
0.12806915 0.043290228 0.04817478 0.06446575 0.07198803 -0.11825396 -0.21353774 0.030086918
0.06125671 -0.18040507 0.023584303 0.08633516 0.15804291 -0.15881741 0.08523794 -0.12249611
-0.13439314 -0.013329004 0.054381326 0.04202668 -0.0007406118 -0.08390814 -0.048995335 -0.051401645
0.10814486 -0.12454752 -0.01043329 0.03688731 0.038158663 0.10778717 0.06770982 -0.08255616
-0.13005245 -0.099253595 0.025222054 0.059305444 -0.12150972 0.069275506 -0.07398592 -0.11722309
0.06180011 0.0012577798 0.18581237 -0.13626625 0.01840416 0.3605393 -0.021561058 0.075602084
-0.06606965 -0.04327542 -0.16205485 -0.13882117 0.0069893044 0.13052396 -0.010603868 -0.100057416
-0.08278247 0.031982917 -0.123826794 -0.031534854 -0.008164343 -0.13755043 -0.030274427 0.0027412109
00000000: 6c6b 66bb 8bb8 9f3d e7a8 46be 441d 8e3d
00000010: a227 fd3c 0db4 373e e941 0fbd 09a2 48bd
00000020: 82d8 af3d bcd4 2dbd 388f dabd 6b83 86bc
00000030: 924b 7b3e 23ee a73c 483b fbbd 422c 003e
00000040: e81e d7bd de87 87bd d105 9cbc d202 61bb
00000050: 32a0 fa3b d84d 313d 018f 2fbd 8f42 9b3d
00000060: 31e3 7abc 0679 a73a fe63 07bb dcd6 a4bd
00000070: fd32 8dbd ea33 eabd 92f8 123e 080c 1b3e
00000080: 370b 3ebe 70db 913e 8ab4 8fbd 978e 7cbc
00000090: ad59 163d 8e21 5d3d 75bc e83b 540d 8f3d
000000a0: 0773 c5bd a111 31bd 562d 083d 84e5 17bd
000000b0: d7f2 463d b9b6 39bd 060e e03d e811 a4bc
000000c0: 99eb e9bc 5ccb 1ebe 7310 ebbd 4c69 92bd
000000d0: 837c abbc acf9 3a3c d9a6 9bbc e200 873d
000000e0: d94e fabd 678b f23c 5242 293e 1648 f1bd
000000f0: 9805 6dbd 57fe 55be bdf4 7b3d 2c0b bf3b
00000100: a6e9 74bd cddc 153d 1b3d 2ebc 8311 d53c
00000110: b477 25bd d0a1 393c ca57 733e c049 49bd
00000120: 87a6 15be b0e8 7fbe 67b7 ce3d 752c 98bb
00000130: 2dac 62bd 1dcf cd3d 7749 0dbe ea15 91bd
00000140: 7f9d b2bc 0e6f 903b 17e6 b4bd 3154 9ebd
00000150: 0603 d03c 9578 a73d 3180 da3d df3f f2bc
00000160: feb8 3bbd 1d97 18bc 99a9 cb3d 8f28 3ebe
00000170: 8f36 863d 4d23 d33d 9f9f 693d fee0 32bd
00000180: 1b82 5fbd 61b2 a63d aa0e 023e 0385 b23c
00000190: 3fd4 de3d a6a7 99bc 4e06 6bbc 58ac 8cbd
000001a0: 4ffb c1bb 8390 ff3b 2ec0 1abc 748b 3b3e
000001b0: fc26 4aba e3f6 49bd 6ce7 0ebd dcb0 8cbd
000001c0: 34a4 6dba 9501 243e 202f e13d 6633 773b
000001d0: 3b4b 063d 3d42 133d 1d0c be3c 72b2 cfbd
000001e0: f4e2 c33d 39c3 203e 4156 c5bc 1ace 01be
000001f0: 70c9 37bd dfc6 d0bd 2643 16be f000 043e
00000200: 50bf 36be 99e1 f4bb f6f8 2d3c 6494 053b
00000210: 801f 34be 4220 a23c a773 01be 7e9f c93d
00000220: 9811 a03d 0fa9 07bd 967f 40be fc72 3dbd
00000230: be4f 8e3d 8e12 42bd 35cc 2cbd 534c 053d
00000240: 1c18 2abc 6597 bcbc 8253 52bd c9a0 093d
00000250: 9c57 14be 2fe7 f4bc 166c 2bbd c6e0 153d
00000260: 897e 2abd a9ff 97bd d880 3a3c 164c 5f3d
00000270: 99b2 36be 69f6 023d 4b65 5cbd 54a5 443d
00000280: 4caa 363e d8ab 39bd eddc 6b3e 47ea 983d
00000290: da95 0f3c 0352 33bd 608a f1bd 02ad 033d
000002a0: 3ec7 e0bd 80b5 073e e9a2 213d 2392 b4bd
000002b0: 39d0 cebc 0c63 a03d 11c4 0abe b266 1dbe
000002c0: dfea 303b 41fe 29be c192 ba3c 1326 fb3d
000002d0: 7679 b6bc c7e2 9bbb 4c71 0cbc c123 063d
000002e0: 86b1 013c 706c 393e e3c2 a93d d5b3 8ebd
000002f0: 881f 6cbd 7303 0ebe 3a7a 073d 0b49 fabd
00000300: 8f24 033e 1851 313d eb52 453d 9e06 843d
00000310: 766e 933d 222f f2bd a3a9 5abe d778 f63c
00000320: 51e8 7a3d 1bbc 38be de33 c13c 7dd0 b03d
00000330: 00d6 213e 08a1 22be 3b91 ae3d 3edf fabd
00000340: 5b9e 09be e561 5abc f4be 5e3d 2b24 2c3d
00000350: 9e25 42ba 08d8 abbd 55af 48bd 888a 52bd
00000360: 0d7b dd3d c512 ffbd 64f0 2abc 2617 173d
00000370: 424c 1c3d 85bf dc3d 72ab 8a3d 3413 a9bd
00000380: 782c 05be 7845 cbbd 7b9e ce3c 44ea 723d
00000390: 17da f8bd 51e0 8d3d ee85 97bd a912 f0bd
000003a0: 1d22 7d3d 16dc a43a 9945 3e3e 6189 0bbe
000003b0: 52c4 963c 9b98 b83e d1a0 b0bc 44d5 9a3d
000003c0: 864f 87bd 9141 31bd b5f1 25be 2327 0ebe
000003d0: 8906 e53b 13a8 053e d9bb 2dbc e7ea ccbd
000003e0: db89 a9bd 8500 033d e798 fdbd b12a 01bd
000003f0: bdc3 05bc 05da 0cbe 1302 f8bc e3a5 333b

F.linears.0.bias f4 [32]
0.018243248 0.10055105 -0.07097516 -0.07524646 0.093544826 -0.04177972 -0.030990135 -0.0033258148
-0.021208767 0.061557118 0.0075178687 -0.1030448 -0.015259789 0.04010172 -0.007260596 -0.103067786
-0.053502996 -0.0009844631 -0.024839872 -0.08739301 0.08912318 -0.00859267 -0.003705612 -0.015511721
0.044851676 -0.04185786 0.08432499 0.08373527 -0.06948035 0.046783898 -0.07383283 0.09177324
00000000: dd72 953c b5ed cd3d 6d5b 91bd d11a 9abd
00000010: 6e94 bf3d 3621 2bbd 06df fdbc eaf5 59bb
00000020: 02be adbc 5123 7c3d 7458 f63b 2709 d3bd
00000030: 3204 7abc b341 243d 4bea edbb 3415 d3bd
00000040: f525 5bbd 1a09 81ba fd7c cbbc 1bfb b2bd
00000050: 3786 b63d 45c8 0cbc dad9 72bb e024 7ebc
00000060: 64b6 373d 2673 2bbd 95b2 ac3d 667d ab3d
00000070: b74b 8ebd 79a0 3f3d ab35 97bd 9cf3 bb3d

F.linears.1.weight f4 [32, 32]
-0.2380944 0.026288362 -0.026641054 -0.0015692327 0.2676989 0.07500678 -0.14185917 -0.07376054
-0.015624371 0.094980314 0.17229486 -0.10197987 0.021409506 0.022610899 -0.2188268 0.010767023
-0.016315 0.074461974 -0.17028569 -0.002478966 -0.21795589 -0.14479798 -0.04697599 -0.048542954
-0.10407095 0.0022920868 -0.01346943 0.06827741 -0.055941887 -0.06258018 0.035726607 0.25238118
-0.10539184 -0.07622562 0.029423857 -0.08371125 0.03984783 -0.023931393 -0.010708696 0.17696919
0.020829746 -0.079562545 0.05719559 -0.07161212 0.008660851 -0.2816627 -0.005064172 0.09665903
-0.029662903 0.062108524 -0.018135827 0.0312256 -0.16721813 -0.027073843 -0.15888892 0.17444515
0.1552486 -0.104890525 0.07609198 0.026542073 0.1997664 -0.1369244 0.001269046 0.06300152
0.016436342 0.13501884 -0.0028967224 -0.07268738 -0.058421742 0.09632219 -0.032905616 0.05529298
0.07647583 -0.03892534 -0.12680961 0.1551248 -0.057271037 0.100142315 0.024460925 -0.036431476
-0.13946657 -0.027915528 -0.1510205 -0.051686946 -0.0062008924 -0.26894793 0.027524779 -0.0036438596
0.063974306 0.06399419 0.015745843 -0.014327055 -0.15061367 0.10745225 -0.033485435 -0.10096458
0.06738351 -0.016585972 0.045707498 0.021858525 0.13674584 -0.08804924 -0.09816058 -0.11616689
-0.17016141 -0.09800526 0.031125136 -0.008743167 0.058784056 0.10940456 0.081052855 -0.04164976
-0.018131485 0.18928462 0.024304878 -0.09642636 -0.020109812 -0.051264882 0.0014956068 0.08356388
0.036373988 0.15006387 0.036343027 -0.0070313117 0.15963203 0.0074132904 0.018237136 -0.10973405
-0.04018886 -0.16473371 -0.11710814 -0.115332104 -0.029201012 0.095315985 -0.014686773 0.13560979
-0.23437473 0.17761457 -0.04207134 0.015672917 -0.11792247 0.010810865 0.0061976197 0.017804658
-0.044215314 0.03408529 0.088713326 0.036910243 -0.025497692 0.04501979 -0.13550273 0.020683032
-0.12924291 0.004011929 -0.0828274 -0.077111445 0.07736039 -0.0132858 -0.13267818 -0.0047303187
-0.15130894 -0.06628945 -0.004544006 -0.13982557 -0.11745305 0.042153448 -0.0059606344 0.0033009662
0.022241442 0.119347066 -0.0024679804 -0.043771647 -0.06030083 -0.1175582 -0.06096607 0.037011705
-0.01714503 -0.12704855 -0.09981242 -0.01554874 -0.1422977 0.101228744 0.1765203 -0.023239166
0.057237722 -0.1307755 0.0070501114 -0.27263966 0.049608443 0.027431685 0.07097313 -0.09918563
0.010813802 0.005177194 -0.11699961 -0.13449927 -0.047332957 0.035009805 -0.15324323 -0.22799273
0.06606852 0.08404039 -0.01464108 0.08671234 -0.06864378 -0.029437229 -0.10857339 -0.17783915
0.091547675 -0.16386798 -0.043747395 0.115891024 0.15394534 0.13042368 0.03801144 -0.06826931
-0.010811041 0.057828456 -0.034929816 -0.06284941 -0.1090708 -0.072909296 -0.1840322 0.035076853
-0.08589878 -0.04900431 -0.05696789 0.06321246 0.08689691 -0.09334403 -0.011904081 -0.08663927
-0.050628204 0.119475216 -0.079604186 0.05969694 0.04304084 0.064856626 -0.114029124 -0.013871012
-0.07928653 -0.055226166 0.014136055 0.20110177 -0.02864271 0.010510698 0.16817996 0.024604892
-0.052550793 0.17894818 0.07806016 -0.06669829 -0.0036209878 0.032988284 0.019178513 0.009016488
00000000: 05cf 73be b15a d73c 573e dabc b6ae cdba
00000010: d50f 893e 289d 993d 8843 11be c40f 97bd
00000020: 5dfd 7fbc 0a85 c23d 106e 303e d2da d0bd
00000030: fd62 af3c 7e3a b93c 2214 60be 2b68 303c
00000040: 09a7 85bc 857f 983d 5f5f 2ebe 2676 22bb
00000050: d42f 5fbe ec45 14be e569 40bd fad4 46bd
00000060: 2623 d5bd d636 163b e2ae 5cbc 07d5 8b3d
00000070: 5223 65bd 0a2a 80bd 1056 123d 1b38 813e
00000080: add7 d7bd 2e1c 9cbd 4d0a f13c ce70 abbd
00000090: 7a37 233d c50b c4bc 8773 2fbc 6937 353e
000000a0: 25a3 aa3c b0f1 a2bd ec45 6a3d 60a9 92bd
000000b0: 3ee6 0d3c 1836 90be 5bf1 a5bb 2bf5 c53d
000000c0: 9eff f2bc 8265 7e3d 9691 94bc d4cc ff3c
000000d0: 3b3b 2bbe f7c9 ddbc c7b3 22be c0a1 323e
000000e0: 7df9 1e3e d8d0 d6bd 1dd6 9b3d c36e d93c
000000f0: 908f 4c3e e935 0cbe 1e56 a63a f106 813d
00000100: 82a5 863c 6142 0a3e f0d6 3dbb 1fdd 94bd
00000110: a34b 6fbd 9144 c53d 0ac8 06bd e47a 623d
00000120: 5c9f 9c3d 2d70 1fbd 61da 01be 09d9 1e3e
00000130: 0995 6abd 6a17 cd3d 4762 c83c 2c39 15bd
00000140: 53d0 0ebe 1baf e4bc 1ea5 1abe b1b5 53bd
00000150: db30 cbbb 8bb3 89be a57b e13c d2cd 6ebb
00000160: f604 833d 630f 833d 6dfd 803c 06bc 6abc
00000170: 783a 1abe ed0f dc3d 0628 09bd 85c6 cebd
00000180: 5e00 8a3d 4edf 87bc c937 3b3d a610 b33c
00000190: 1a07 0c3e 2953 b4bd 6a08 c9bd e8e8 edbd
000001a0: cb3e 2ebe fbb6 c8bd 24fa fe3c 803f 0fbc
000001b0: 8dc7 703d 7f0f e03d 0aff a53d f098 2abd
000001c0: 7b88 94bc d4d3 413e 061b c73c 2f7b c5bd
000001d0: 55bd a4bc 20fb 51bd 3d08 c43a 8a23 ab3d
000001e0: e4fc 143d 58aa 193e 6ddc 143d eb66 e6bb
000001f0: 9476 233e 30eb f23b 0c66 953c 3fbc e0bd
00000200: 139d 24bd f4af 28be 64d6 efbd 3d33 ecbd
00000210: f636 efbc 0735 c33d caa0 70bc 4bdd 0a3e
00000220: eeff 6fbe 98e0 353e ff52 2cbd 7d64 803c
00000230: 5681 f1bd 0e20 313c 6715 cb3b 13db 913c
00000240: 1e1b 35bd 049d 0b3d 55af b53d 322f 173d
00000250: 89e0 d0bc ac66 383d 3ac1 0abe 766f a93c
00000260: 4158 04be 8076 833b 69a1 a9bd 9bec 9dbd
00000270: 206f 9e3d afac 59bc cadc 07be ca00 9bbb
00000280: bbf0 1abe c3c2 87bd e3e5 94bb 6f2e 0fbe
00000290: 3a8b f0bd 18a9 2c3d 6d51 c3bb 0655 583b
000002a0: af33 b63c 3c6c f43d d7bd 21bb e649 33bd
000002b0: 01fe 76bd 5bc2 f0bd 8fb7 79bd 9699 173d
000002c0: bc73 8cbc 0419 02be 746a ccbd 24c0 7ebc
000002d0: 7db6 11be 0451 cf3d bdc1 343e 1060 bebc
000002e0: 1a72 6a3d 03ea 05be 9f04 e73b 6d97 8bbe
000002f0: 3932 4b3d 6ab8 e03c 5c5a 913d d621 cbbd
00000300: 5f2c 313c 73a5 a93b 7e9d efbd 2dba 09be
00000310: 34e0 41bd 7166 0f3d cbeb 1cbe ed76 69be
00000320: ef4e 873d 5e1d ac3d 24e1 6fbc 3d96 b13d
00000330: 1c95 8cbd 5826 f1bc ba5b debd 771b 36be
00000340: 597d bb3d 02cd 27be 7830 33bd 4658 ed3d
00000350: d9a3 1d3e c98d 053e e2b1 1b3d c8d0 8bbd
00000360: cb20 31bc 88dd 6c3d 9112 0fbd 31b7 80bd
00000370: 8360 dfbd 7851 95bd f072 3cbe bfac 0f3d
00000380: b3eb afbd beb8 48bd 2a57 69bd 8975 813d
00000390: 02f7 b13d 282b bfbd 5609 43bc ee6f b1bd
000003a0: 855f 4fbd 6caf f43d 8507 a3bd c784 743d
000003b0: 984b 303d 8dd3 843d 1a88 e9bd 3e43 63bc
000003c0: fa60 a2bd d534 62bd e99a 673c 9fed 4d3e
000003d0: 1ea4 eabc 1035 2c3c 5e37 2c3e 3390 c93c
000003e0: 803f 57bd 313e 373e 01de 9f3d 1d99 88bd
000003f0: 184e 6dbb b91e 073d 421c 9d3c e4b9 133c

F.linears.1.bias f4 [32]
0.082452625 0.055625513 -0.029600503 0.008482257 -0.075908095 0.051003702 0.07936676 0.08984468
0.0052949116 0.05745521 -0.05359762 0.018813774 -0.06338977 -0.024133911 -0.02912829 -0.0043629305
0.072791815 -0.046269197 -0.087955266 0.048708133 -0.090060845 -0.09494608 0.041269436 0.0055999607
-0.047696333 -0.03298028 0.026318917 0.013863125 0.08714483 0.045498643 -0.0620299 -0.09230565
00000000: ecdc a83d 94d7 633d c17c f2bc 2af9 0a3c
00000010: b475 9bbd 42e9 503d 0a8b a23d 7d00 b83d
00000020: f080 ad3b 2756 6b3d 2e89 5bbd 581f 9a3c
00000030: 7fd2 81bd 7bb4 c5bc 749e eebc eaf6 8ebb
00000040: e013 953d c584 3dbd e421 b4bd 2e82 473d
00000050: d271 b8bd 1773 c2bd 240a 293d e07f b73b
00000060: 3b5d 43bd 5516 07bd c59a d73c 2922 633c
00000070: fd78 b23d c95c 3a3d 1013 7ebd bf0a bdbd

F.linears.2.weight f4 [12, 32]
0.015478481 0.09121051 0.017937317 -0.028157707 0.14936985 0.08635178 0.04448134 -0.06777884
-0.06920805 -0.111375675 -0.06052544 -0.054762073 -0.079090275 0.0011275391 0.04538175 0.047096122
0.035128184 -0.07758381 -0.04242656 -0.033741776 0.09248993 -0.034482256 0.07267123 -0.07578143
-0.017142344 -0.043937393 0.07880544 0.114205316 0.057434898 0.011488181 -0.1398334 0.016797941
-0.111256495 0.09216393 -0.03755647 0.06858533 0.0940988 -0.06231835 0.057192374 0.10043519
-0.15472782 -0.0019019066 0.003716199 -0.07980275 0.18342265 -0.044742603 -0.22516063 0.13182002
0.10580553 0.0137207 -0.005653747 -0.023824252 -0.082447916 0.05649888 0.038133428 0.19191824
-0.07117002 -0.004883904 0.04924128 -0.08753469 -0.032433383 -0.073393494 0.0044950824 0.09275925
-0.011355129 -0.08113979 0.05394725 0.13899343 -0.09685662 -0.051998343 0.0558645 -0.15079999
-0.04383671 -0.14991662 -0.09909622 -0.07954179 0.049907256 -0.039244756 -0.016327288 0.06066871
-0.061266616 0.1787359 0.041657068 0.008805743 -0.05174902 -0.21890529 0.044978783 0.025904316
-0.1867351 -0.0066184932 0.05801248 0.12627605 -0.094533466 -0.010052585 -0.06398239 0.04648661
-0.09474809 0.20823185 0.13378093 0.07202287 0.0057916385 -0.06059949 -0.16961707 0.023739917
-0.08224167 0.088307135 -0.12904812 0.052024435 0.009773844 -0.11568207 0.12822509 0.019869933
0.039521527 -0.11057083 -0.10402906 -0.023746982 0.055417728 0.032331247 0.090882696 -0.1007294
-0.13301386 -0.017354833 0.21934173 0.06790108 -0.0025109802 -0.0214347 -0.031220673 -0.11896586
-0.113185965 0.028014177 -0.07217546 -0.10130495 0.03295814 -0.07131476 0.05585445 0.019841349
0.048402715 -0.01842643 -0.032335464 -0.10310654 -0.043524243 -0.118880756 0.18102635 -0.0014861039
0.025816424 -0.09721979 0.032332297 -0.07440668 -0.0781449 -0.19764085 -0.15615572 -0.047599293
0.05445729 -0.10984302 0.1086443 -0.014066814 0.21192816 -0.050595727 -0.07314139 0.03141882
-0.025736509 0.08080017 -0.008992295 -0.14176588 0.049876418 0.13397947 -0.021296013 0.015416642
-0.10168005 0.025043536 0.13598996 0.028098432 -0.064749986 0.0035167376 -0.11466194 0.07771541
0.057946365 -0.052006867 0.06448397 -0.083378315 -0.022348939 0.01790025 -0.06134902 -0.05405454
-0.08604951 -0.049013972 -0.078294106 0.23289832 -0.15729767 -0.007563307 0.026423894 -0.05373194
-0.17047873 0.17973007 0.103467874 -0.009794697 0.004024947 0.04039858 0.070170246 0.021210827
-0.07946487 0.07793393 -0.070279196 0.05442955 0.053478234 -0.0070642144 -0.02623654 -0.043816026
0.01283888 -0.086403064 0.058313213 0.025906626 0.059837617 -0.00072046067 -0.011575589 0.008662435
0.030586367 0.044476822 -0.06646788 0.02557684 0.11522943 -0.10273253 -0.06971763 0.04557043
-0.34129137 0.07807712 -0.030047692 -0.073657796 -0.17538649 0.15647079 0.072072655 -0.07297382
-0.12649485 -0.011023616 -0.04347497 0.013843472 0.068454064 -0.20147811 -0.08191662 -0.004403025
-0.102148205 -0.09178616 -0.18426806 0.11842733 0.08550666 -0.067632675 0.17243913 0.013996316
0.15522301 0.10555228 -0.091525465 0.038185883 0.17590745 0.13515005 0.025780555 -0.09570657
00000000: 7499 7d3c 93cc ba3d 48f1 923c feaa e6bc
00000010: 69f4 183e 34d9 b03d 1132 363d a2cf 8abd
00000020: f3bc 8dbd ee18 e4bd 86e9 77bd 324e 60bd
00000030: 15fa a1bd efc9 933a 37e2 393d dde7 403d
00000040: 92e2 0f3d 43e4 9ebd 79c7 2dbd d134 0abd
00000050: 5c6b bd3d 443d 0dbd a7d4 943d 4b33 9bbd
00000060: 1a6e 8cbc b2f7 33bd bf64 a13d 7ae4 e93d
00000070: db40 6b3d ec38 3c3c 7d30 0fbe d69b 893c
00000080: 72da e3bd 71c0 bc3d d0d4 19bd 7776 8c3d
00000090: dfb6 c03d 8741 7fbd 8d42 6a3d f7b0 cd3d
000000a0: f870 1ebe 6549 f9ba 798b 733b a06f a3bd
000000b0: 26d3 3b3e 0544 37bd 8290 66be d4fb 063e
000000c0: 92b0 d83d c9cc 603c 1143 b9bb 142b c3bc
000000d0: 74da a8bd 5f6b 673d cc31 1c3d 3786 443e
000000e0: 96c1 91bd 2809 a0bb 39b1 493d 6345 b3bd
000000f0: ded8 04bd 544f 96bd 7c4b 933b 90f8 bd3d
00000100: dd0a 3abc 9e2c a6bd cbf7 5c3d 4b54 0e3e
00000110: c35c c6bd 37fc 54bd 2dd2 643d 506b 1abe
00000120: 1f8e 33bd be83 19be f6f2 cabd cee6 a2bd
00000130: 8d6b 4c3d 1cbf 20bd cec0 85bc c17f 783d
00000140: b4f2 7abd 8b06 373e 9aa0 2a3d f745 103c
00000150: c8f6 53bd b528 60be ac3b 383d 4a35 d43c
00000160: 7c37 3fbe f2df d8bb 7f9e 6d3d 824e 013e
00000170: c39a c1bd 99b3 24bc 3309 83bd be68 3e3d
00000180: 490b c2bd bb3a 553e defd 083e ba80 933d
00000190: c9c7 bd3b 2c37 78bd 19b0 2dbe 377a c23c
000001a0: 526e a8bd 5fda b43d 3125 04be 9317 553d
000001b0: 7922 203c b9ea ecbd 704d 033e 45c6 a23c
000001c0: 53e1 213d f672 e2bd 300d d5bd 0889 c2bc
000001d0: b3fd 623d c56d 043d b520 ba3d 374b cebd
000001e0: c934 08be b92b 8ebc 1e9b 603e b90f 8b3d
000001f0: 428f 24bb d397 afbc 7fc2 ffbc 5fa4 f3bd
00000200: 0bce e7bd fd7d e53c bad0 93bd f878 cfbd
00000210: 1dff 063d 790d 92bd a3c7 643d 538a a23c
00000220: ed41 463d 06f3 96bc 3172 04bd 8629 d3bd
00000230: 7a46 32bd c177 f3bd f95e 393e 5fc9 c2ba
00000240: f77c d33c 2b1b c7bd df6e 043d 8862 98bd
00000250: 6f0a a0bd 5d62 4abe 49e7 1fbe 7af7 42bd
00000260: 9b0e 5f3d 61f5 e0bd e780 de3d 7f78 66bc
00000270: b203 593e 773d 4fbd 27cb 95bd 05b1 003d
00000280: 5fd5 d2bc 8f7a a53d 6b54 13bc 132b 11be
00000290: 374b 4c3d ea31 093e fa74 aebc 1596 7c3c
000002a0: a13d d0bd 1a28 cd3c f440 0b3e af2e e63c
000002b0: a49b 84bd 1179 663b e1d3 eabd 4229 9f3d
000002c0: 2b59 6d3d 2705 55bd 2c10 843d 40c2 aabd
000002d0: 1f15 b7bc 8ca3 923c 1c49 7bbd 4b68 5dbd
000002e0: ba3a b0bd e0c2 48bd a958 a0bd e67c 6e3e
000002f0: a412 21be 9ed5 f7bb ec76 d83c 0616 5cbd
00000300: fa91 2ebe 290b 383e f7e6 d33d f079 20bc
00000310: b4e3 833b fb78 253d 6bb5 8f3d 54c2 ad3c
00000320: 7abe a2bd d39b 9f3d 8aee 8fbd 85f1 5e3d
00000330: fe0b 5b3d ed7a e7bb 03ee d6bc 6f78 33bd
00000340: 2a5a 523c 17f4 b0bd d6d9 6e3d 223a d43c
00000350: 4a18 753d 4cdd 3cba 8aa7 3dbc e3ec 0d3c
00000360: 4390 fa3c 542d 363d 5020 88bd 8586 d13c
00000370: 68fd eb3d 6f65 d2bd 1ec8 8ebd 0fa8 3a3d
00000380: bebd aebe e6e6 9f3d 9426 f6bc e6d9 96bd
00000390: 8498 33be e139 203e d49a 933d 4c73 95bd
000003a0: de87 01be 669c 34bc cf12 32bd bbcf 623c
000003b0: a531 8c3d 4750 4ebe e7c3 a7bd 4047 90bb
000003c0: 1433 d1bd 62fa bbbd c4b0 3cbe 078a f23d
000003d0: 1e1e af3d 0083 8abd e293 303e ce50 653c
000003e0: c8f2 1e3e cb2b d83d b471 bbbd cd68 1c3d
000003f0: 1521 343e c664 0a3e be31 d33c ce01 c4bd

F.linears.2.bias f4 [12]
-0.052725833 0.062096227 0.015788553 0.040476806 -0.060337428 0.08012605 0.07865379 -0.056777366
-0.06743158 0.042537265 -0.009944853 -0.002545845
00000000: 0bf7 57bd 9d58 7e3d ff56 813c 02cb 253d
00000010: 6124 77bd 2019 a43d 3d15 a13d 628f 68bd
00000020: 9119 8abd 8e3b 2e3d bdef 22bc 31d8 26bb

G.0.linears.0.weight f4 [32, 12]
0.044049524 -0.047238242 -0.12072274 -0.0016896377 -0.0023025814 0.14869413 0.1543075 -0.05236065
0.16060522 -0.104379594 0.055859327 0.09774353 -0.032069538 0.27986574 0.0042210775 0.18719433
0.06187611 -0.10759346 0.05805626 -0.13318713 -0.0672446 0.0067439754 0.0006570805 -0.054017264
0.041359127 0.06506958 0.0057529937 -0.07305817 -0.020449871 0.058061346 0.041490342 -0.014601128
0.05555461 -0.039507307 -0.0014990387 -0.056970183 -0.04214945 -0.30672258 0.03132433 0.075352065
-0.08832782 -0.111377686 -0.088732295 -0.06502197 -0.05705496 0.088226214 0.055769753 0.05380775
0.04211293 0.01251275 0.06538838 0.06744156 0.031430367 -0.16308342 -0.00080577424 -0.06097247
0.0048363763 0.018665986 -0.042234287 -0.014040365 -0.21556325 0.07377397 -0.0500315 -0.013253259
-0.018184768 -0.030543584 -0.009771869 -0.006341306 0.117165804 0.027092414 -0.07391029 0.13357632
-0.0071999766 -0.10243685 0.10943494 0.11672882 -0.22126754 -0.124952935 0.11406897 -0.16507646
0.057653718 0.076044366 0.0028311939 0.052870642 0.055897795 0.06913501 -0.10664252 0.01408121
0.11021206 0.27255452 -0.11218004 0.014769015 0.014077059 -0.11921309 0.05009038 0.07119551
0.02880354 -0.015883036 -0.1735274 -0.19690067 -0.0136144115 -0.06688019 -0.104697056 0.067272596
-0.16325642 -0.0833638 0.08088426 0.016149018 0.012241693 0.034365185 -0.151155 -0.044279914
0.17854798 0.1835286 -0.24813864 0.11593394 -0.0018943539 -0.031260263 0.063329086 0.09497629
0.07602601 0.06413147 0.061524555 0.057974935 0.07546081 0.14363958 0.07336788 -0.030304927
-0.114124246 -0.048283678 0.08189395 -0.052933387 -0.09217888 -0.026438307 0.081841335 -0.07161469
-0.08985445 0.056008007 0.047089554 -0.10357874 0.07863143 -0.033323653 -0.061382644 0.066129215
-0.059793226 0.07093825 -0.030726945 -0.10571931 0.03831509 0.106237985 -0.16282633 -0.0344672
0.049307257 0.079081275 -0.11265574 -0.066593505 0.037620667 -0.12200135 -0.08372016 -0.08961421
0.062904745 -0.018510016 -0.014496335 -0.0606065 -0.14934967 0.031666823 0.08572091 -0.22322713
0.061859865 0.12726837 5.5273664e-05 -0.07934094 -0.0013772699 -0.05565839 0.034715578 -0.04579868
-0.12495491 -0.1141428 -0.1087784 -0.055080116 -0.22874585 -0.08231805 -0.12217073 0.11046756
-0.05715403 0.05408055 -0.0036228478 -0.15649737 -0.08739474 -0.20493971 0.011907753 -0.12610504
0.015437505 0.071650304 0.20806819 0.031391192 0.22913316 0.053272285 0.007658043 0.10719474
0.065386355 -0.0076355515 -0.11213677 0.07166221 -0.124157235 0.12225357 -0.1287513 0.05607602
0.0435375 -0.22014932 -0.07345685 -0.06797776 -0.15929295 -0.034987636 0.046075262 0.10440108
0.083812945 0.12459271 -0.08913893 -0.08879552 0.034223452 0.11404325 0.14374787 -0.08603284
0.021271518 -0.1297 -0.06530655 0.13523279 -0.054353077 -0.10802759 0.08767412 0.021638202
0.0051214616 0.114363216 0.035245575 -0.1771283 0.22410066 0.055257283 -0.007392215 0.09456187
0.009665235 -0.100947544 -0.10773932 0.2129831 -0.13711633 -0.19382979 0.08764325 -0.0036180716
0.08879156 0.10527994 -0.088219345 0.07448043 -0.13089615 0.22135349 0.10284307 -0.20541862
00000000: 466d 343d e37c 41bd 7c3d f7bd d576 ddba
00000010: e8e6 16bb 4643 183e c902 1e3e 1f78 56bd
00000020: b275 243e f8c4 d5bd c0cc 643d c32d c83d
00000030: 595b 03bd 904a 8f3e f750 8a3b dfaf 3f3e
00000040: ce71 7d3d f659 dcbd 67cc 6d3d 3562 08be
00000050: 89b7 89bd 91fc dc3b ed3f 2c3a 3541 5dbd
00000060: 3068 293d 3343 853d 9c83 bc3b 869f 95bd
00000070: 7d86 a7bc bcd1 6d3d c7f1 293d 9239 6fbc
00000080: 3b8d 633d 6ad2 21bd 647b c4ba 9159 69bd
00000090: e7a4 2cbd be0a 9dbe f14d 003d 2f52 9a3d
000000a0: 37e5 b4bd fc19 e4bd 47b9 b5bd 3d2a 85bd
000000b0: 76b2 69bd f2af b43d d36e 643d 8465 5c3d
000000c0: 9c7e 2c3d 4702 4d3c 58ea 853d cd1e 8a3d
000000d0: 21bd 003d 57ff 26be 983a 53ba 45be 79bd
000000e0: 777a 9e3b 69e9 983c dcfd 2cbd 8f09 66bc
000000f0: 9dbc 5cbe cf16 973d d5ed 4cbd 3224 59bc
00000100: 39f8 94bc 8a36 fabc 301a 20bc bbca cfbb
00000110: a0f4 ef3d e9f0 dd3c 475e 97bd 3bc8 083e
00000120: c8ed ebbb 69ca d1bd 6d1f e03d 850f ef3d
00000130: f593 62be 53e7 ffbd fe9c e93d ce09 29be
00000140: 4e26 6c3d 26bd 9b3d 8d8b 393b e38e 583d
00000150: 16f5 643d a896 8d3d 6567 dabd e0b4 663c
00000160: dcb6 e13d 448c 8b3e a6be e5bd bdf9 713c
00000170: 77a3 663c fe25 f4bd 922b 4d3d f4ce 913d
00000180: 67f5 eb3c 241d 82bc 2bb1 31be 54a0 49be
00000190: fb0e 5fbc 7bf8 88bd 696b d6bd 37c6 893d
000001a0: b12c 27be a4ba aabd a6a6 a53d f24a 843c
000001b0: 6291 483c 82c2 0c3d 60c8 1abe db5e 35bd
000001c0: 48d5 363e ecee 3b3e 0e18 7ebe c66e ed3d
000001d0: f84b f8ba c30a 00bd aeb2 813d ee82 c23d
000001e0: 86b3 9b3d 5c57 833d 2c01 7c3d 2077 6d3d
000001f0: 328b 9a3d 4116 133e e641 963d 0a42 f8bc
00000200: f9b9 e9bd 1bc5 45bd 04b8 a73d aed0 58bd
00000210: 48c8 bcbd 2695 d8bc 6e9c a73d b9aa 92bd
00000220: 9c05 b8bd a768 653d fae0 403d 1721 d4bd
00000230: 8409 a13d 627e 08bd 5e6c 7bbd c16e 873d
00000240: bee9 74bd 1348 913d 13b7 fbbc 5e83 d8bd
00000250: 49f0 1c3d 4d93 d93d f2bb 26be 7b2d 0dbd
00000260: 68f6 493d 5df5 a13d 0db8 e6bd 2d62 88bd
00000270: 2118 1a3d d8db f9bd 7a75 abbd a887 b7bd
00000280: 34d4 803d 51a2 97bc 0982 6dbc 853e 78bd
00000290: 1fef 18be 12b5 013d 728e af3d a795 64be
000002a0: c560 7d3d a452 023e a5d5 6738 817d a2bd
000002b0: 8285 b4ba 0dfa 63bd ec31 0e3d 6697 3bbd
000002c0: 5ce8 ffbd b3c3 e9bd 36c7 debd b09b 61bd
000002d0: 5a3c 6abe 5e96 a8bd a634 fabd d13c e23d
000002e0: 581a 6abd 9183 5d3d 4d6d 6dbb d940 20be
000002f0: 03fc b2bd b7db 51be bc18 433c ae21 01be
00000300: 97ed 7c3c 65bd 923d d40f 553e 0d94 003d
00000310: e2a1 6a3e 0a34 5a3d 52f0 fa3b ea88 db3d
00000320: 48e9 853d a633 fabb f6a7 e5bd a3c3 923d
00000330: 2646 febd 1460 fa3d 61d7 03be f8af 653d
00000340: 6154 323d d36e 61be 8c70 96bd ed37 8bbd
00000350: b11d 23be 324f 0fbd 6ab9 3c3d 3cd0 d53d
00000360: 1fa6 ab3d 762a ff3d 798e b6bd 6dda b5bd
00000370: e42d 0c3d 828f e93d a432 133e fc31 b0bd
00000380: 9b41 ae3c 14d0 04be 71bf 85bd 777a 0a3e
00000390: 55a1 5ebd 923d ddbd 7d8e b33d 9942 b13c
000003a0: efd1 a73b 4337 ea3d aa5d 103d 1f61 35be
000003b0: a57a 653e 7655 623d 653a f2bb a7a9 c13d
000003c0: ef5a 1e3c 96bd cebd 6fa6 dcbd 3e18 5a3e
000003d0: 3968 0cbe 517b 46be 4e7e b33d 2b1d 6dbb
000003e0: 59d8 b53d 029d d73d 58ac b4bd 3289 983d
000003f0: a409 06be 7daa 623e 639f d23d 4259 52be

G.0.linears.0.bias f4 [32]
-0.09140764 0.047276583 0.0346137 -0.08646231 0.036819454 -0.026948286 -0.089377664 -0.093887605
0.07244062 0.014019142 0.068329 0.095093615 0.07676117 -0.090518534 -0.0942453 -0.07874728
0.09138962 0.07282214 -0.06824006 -0.1050497 -0.004001404 0.08881265 0.086342745 0.07532632
0.045220554 -0.0327721 0.08754198 0.010616654 -0.06614539 0.07893079 0.047806434 -0.086820506
00000000: ee33 bbbd 17a5 413d 18c7 0d3d 2713 b1bd
00000010: ffcf 163d a7c2 dcbc a30b b7bd 2548 c0bd
00000020: bf5b 943d 8bb0 653c 13f0 8b3d 71c0 c23d
00000030: f634 9d3d c861 b9bd ae03 c1bd 4146 a1bd
00000040: 7b2a bb3d c623 953d 72c1 8bbd 4c24 d7bd
00000050: 361e 83bb 68e3 b53d 77d4 b03d b044 9a3d
00000060: 3039 393d 0a3c 06bd 3649 b33d 79f1 2d3c
00000070: 3c77 87bd 77a6 a13d aed0 433d f3ce b1bd
