para_save2/00016params.pth (torch, 118145 bytes, 76 tensors)

F.linears.0.weight f4 [32, 20]
000000 8f af 12 3d 17 9d c6 bd da cf 41 bd 05 ec d9 3c
       0.035811957 -0.09697931 -0.047317363 0.0266018
000010 07 8d 1e 3c 83 c3 07 3d 46 43 84 bd a8 81 87 bc
       0.009677178 0.03314544 -0.06458144 -0.016541317
000020 23 b3 17 3c d4 20 4c 3d 46 62 5d 3d ca 1d 1e 3e
       0.009259018 0.049835995 0.0540488 0.15441051
000030 14 37 4a be 2d 48 b2 3d d2 76 1d 3e 8d fd 08 3e
       -0.19747573 0.08705173 0.15377358 0.13377972
000040 89 d8 0a be 57 8f 9d 3c d1 f7 14 be a8 a8 31 3d
       -0.13559164 0.019233389 -0.1454766 0.043373734
000050 e4 70 b1 3d 4c f7 34 3c 6e b5 1d bd ff 43 9a bd
       0.0866411 0.011045288 -0.038503103 -0.075325005
000060 8e 40 fc ba bf 31 c3 bc 1f 39 82 3d 0b 30 2e 3d
       -0.0019245313 -0.023827432 0.06358551 0.042526286
000070 bd db eb bd c5 ab 31 bd 7f 24 5e 3e 4c be 88 3d
       -0.11516521 -0.043376703 0.2169361 0.06676921
000080 89 df 5e bd 53 47 aa 3d 58 37 c2 bd bb ef 0f 3d
       -0.0544124 0.08314385 -0.09483212 0.035140734
000090 40 c2 5a bd 68 f1 6f 3e 43 8e 10 3e 95 74 41 3c
       -0.053407907 0.23431933 0.14116769 0.0118075805
0000a0 38 ec 99 bd 11 a5 79 3e d5 7a ff bd ab 55 6e bc
       -0.07515758 0.24379374 -0.124746 -0.014546792
0000b0 89 9f ae 3d 6b 30 25 3e 54 fe 75 3b b3 ff 63 3d
       0.08526523 0.16131751 0.0037535625 0.055663776
0000c0 57 bf fe bd 38 9d de 3c 31 60 f0 3c 81 33 1b be
       -0.12438839 0.027174577 0.029342743 -0.15156366
0000d0 2f fc 73 bd 23 32 13 bd aa 39 8f bd 4c 18 5a be
       -0.059566673 -0.035936486 -0.069934204 -0.21298331
0000e0 67 8d 66 bd 9c 21 ff bd 7b bd e9 3d 3c 27 a4 3d
       -0.056287196 -0.12457582 0.11413094 0.08015296
0000f0 f6 d0 af 39 33 0a a4 3c 0b df 1c bc 53 f8 a3 bc
       0.0003353429 0.020024395 -0.009574662 -0.020015871
000100 db dc 26 3d 44 bd 4e 3c 25 a2 19 3e a4 3a bc 3d
       0.040737968 0.012618367 0.1500326 0.09190872
000110 75 a8 80 3e 6f d6 4f 3d 2b 8e d9 3d 5b 4f 77 3d
       0.25128523 0.05074161 0.106228195 0.060378414
000120 90 29 8d 3d 32 3a 30 3d 9a 4a d0 bd 09 71 54 3e
       0.06892693 0.04302425 -0.10170479 0.20746244
000130 0c 10 04 be eb 93 2e 3e e7 cb 1a be cf 1d 44 bd
       -0.12896746 0.17048614 -0.15116845 -0.04787999
000140 7d a7 4c 3e 25 d7 8a 3c d5 07 8a be 5b e0 24 bd
       0.19985767 0.016948292 -0.269591 -0.040253025
000150 2d 13 a6 3d ac ff b4 3d cf e6 a5 bd 82 c4 0d 3d
       0.08109126 0.08837828 -0.08100664 0.034611233
000160 f3 ec 55 bd 06 a5 8a bb e5 79 72 3d f7 38 f4 bd
       -0.052227926 -0.004231098 0.05919828 -0.11924928
000170 1b 33 8a 3d ea a5 02 3e a1 c5 46 be 44 75 f4 bb
       0.06748029 0.12758604 -0.19411327 -0.007460268
000180 29 13 2b 3c 2f 24 d3 3c 4f d9 9e bd 34 2e 9c 3d
       0.01044158 0.02577409 -0.07756292 0.07626
000190 3d 2a 8a bd b9 bc 98 bd eb b8 94 3c fa 08 cf bc
       -0.067463376 -0.07457871 0.018154582 -0.025272835
0001a0 bf ad e5 3b 96 5f a3 3d 8e ec 2c 3c 5b 53 00 be
       0.0070092375 0.07977216 0.010554446 -0.12531798
0001b0 5b 0d d5 bd ed a9 35 be b6 7b 36 3e 83 ef 13 3e
       -0.10402938 -0.17740603 0.1782063 0.14446835
0001c0 e9 bc 21 3d ad 79 8e 3c 30 90 93 bd af b1 49 3e
       0.0394868 0.017392004 -0.07205236 0.19696687
0001d0 f4 9d c8 bd c9 80 bf bd 9f 68 e0 bb dc ec 10 3e
       -0.09795752 -0.09350736 -0.0068484093 0.14152855
0001e0 92 f2 08 bd a4 71 b7 b9 64 a6 50 3e 33 c8 92 bd
       -0.033434458 -0.0003498915 0.20375973 -0.07167091
0001f0 75 83 a9 bd 8f aa 11 3d 90 94 f5 3d 02 79 4a be
       -0.082770266 0.035563048 0.11991227 -0.19772723
000200 b3 31 5a bd e9 30 33 bd 80 74 b8 bc 3f 5d 87 3c
       -0.053270053 -0.043747816 -0.022516489 0.016523955
000210 1a 27 ee bd d6 8d a3 bd 46 90 68 bd c6 0d 57 be
       -0.11628552 -0.079860374 -0.056778215 -0.21001348
000220 b3 3c 73 bd 9b 3f 81 bd 0e 85 5f 3c 8c f0 dc 3c
       -0.05938406 -0.0631096 0.013642563 0.02697017
000230 16 ed 3c bd ea 6b 9a bb 67 bc b1 bd c8 70 1a bd
       -0.04612454 -0.0047125714 -0.08678513 -0.037705213
000240 16 1d e8 bd 4b f9 22 bd d5 23 0d be b1 3b b0 bd
       -0.11333673 -0.039788526 -0.137832 -0.08605135
000250 ae 9c 25 be 49 cf c0 3d ad 03 bb 3d 0d bc 4d 3e
       -0.1617305 0.094145365 0.091315605 0.20091267
000260 45 09 0b 3e eb 81 a0 bd 34 27 60 3c 9b e2 bc bc
       0.13577755 -0.0783728 0.013681222 -0.023057273
000270 3c ec 31 3e 53 a1 10 bd fa 7d ac 3d 32 5c 36 3d
       0.17375273 -0.0353101 0.084224656 0.044521518
000280 47 08 0f 3d af 82 bc bd 46 df 94 ba 28 46 93 bd
       0.034920003 -0.092046134 -0.0011358045 -0.071911156
000290 4d b3 da bc e0 45 44 bc 28 6a e5 bd 1a 40 e0 3d
       -0.026696825 -0.01197955 -0.11201888 0.109497264
0002a0 22 6b cd 3d 1a e9 1f 3d f8 15 f0 bd e7 4d 98 bd
       0.100301996 0.039040662 -0.1172294 -0.07436734
0002b0 d0 42 5c 3d c2 53 99 3d ee c6 08 3c 0a 6a 28 bd
       0.053774655 0.07486679 0.00834821 -0.04111675
0002c0 92 20 0a bd 2a ad 47 3e cf 1b c6 3c 39 09 bf 3c
       -0.033722468 0.1949965 0.024183182 0.023319827
0002d0 e4 c9 36 be 0e f5 28 3d d7 a2 73 3d de 8a a1 bd
       -0.17850453 0.041249327 0.059481468 -0.07887815
0002e0 de 3a 4e 3c 7f 14 3a be fc 2e af 3d 60 4a 20 3d
       0.012587277 -0.18171881 0.085538834 0.03913343
0002f0 33 c4 86 bc 2b 8d 2b 3d 04 5d b4 bd 23 78 cb bd
       -0.016450977 0.041882675 -0.08806804 -0.09935024
000300 15 cd 3c 3d dc 56 c8 bd 98 7b ed bd 9e f4 d5 3c
       0.04609402 -0.09782192 -0.11595839 0.02611762
000310 69 78 c5 bd f6 a7 ba 3d d2 84 b8 3c 64 9b 6f 3d
       -0.09642107 0.09114067 0.022524271 0.0584978
000320 1f 4d 8d 3c 64 40 10 bd c7 34 d6 3b 30 00 b6 b8
       0.017248688 -0.035217658 0.0065370533 -8.678471e-05
000330 d9 fd 8e 3c af 53 00 bd 62 8e e8 3a 5f 9e 8c 3c
       0.017455028 -0.031329807 0.0017742629 0.017165361
000340 b8 bf 4f be 7f ed 17 be 1b a5 a9 bd 99 29 0e 3c
       -0.20287979 -0.14836691 -0.082834445 0.00867691
000350 87 71 39 bd 7b 43 0a 3c 46 2b 2a bd e7 f5 00 3e
       -0.045274284 0.00843894 -0.041545175 0.12593804
000360 fe 61 8f 3d 91 1a 78 3d ff 51 8f bd 4e eb 4e 3d
       0.070011124 0.06057221 -0.069980614 0.050517373
000370 77 84 6d 3c d4 fc 98 bb a0 24 21 3e 0b cd 92 bd
       0.014496914 -0.0046688113 0.15736628 -0.07168015
000380 ea 7e 86 bd f5 44 eb 3d b1 1b d0 3d de ba 7d bd
       -0.06567176 0.11487762 0.10161532 -0.06194579
000390 1a 19 88 bd 49 f0 7c bd 1c 95 ab 3c 35 d5 80 3d
       -0.06645413 -0.06175259 0.020945124 0.06290666
0003a0 29 7c bd bd e5 fa a6 3d c3 c8 56 bd 2c f3 b6 bd
       -0.09252197 0.08153323 -0.052437555 -0.089331
0003b0 ca 1e 90 3d f7 35 fc bd 59 a7 4a be d8 ad 9a bd
       0.070371225 -0.123149805 -0.197904 -0.07552689
0003c0 19 b2 d3 3d 5c 65 00 bd 5c 63 ca 3d 10 5c 0a 3e
       0.10336704 -0.031346664 0.098822325 0.13511682
0003d0 22 eb fe 3d 09 c8 05 bd 88 c4 36 3e 61 1b b6 3c
       0.12447192 -0.03266147 0.17848408 0.022229852
0003e0 bb 09 d6 bd a3 c9 94 bd d2 49 7a be 18 43 19 3d
       -0.10451075 -0.07265022 -0.24442223 0.0374175
0003f0 7b 7b eb 3d dc e3 10 3d e9 aa 85 bd 98 1b a7 3d
       0.114981614 0.035373554 -0.06526739 0.0815956

F.linears.0.bias f4 [32]
000000 c2 15 75 3c b1 a0 89 3c 92 a7 69 3d f6 e3 4d 3d
       0.014958801 0.016800256 0.057044573 0.05026623
000010 a3 6e 73 3d df 37 b9 3d b2 9c 51 bd 8a ad 30 3d
       0.059431683 0.0904386 -0.051174827 0.04313425
000020 22 96 b7 bd 9e a8 a2 3d 64 32 10 bd ae 5b 16 bd
       -0.089641824 0.079423174 -0.035204306 -0.036708526
000030 62 5e 21 bd 3d c2 9e 3d 38 8e f3 3c 12 44 d4 3c
       -0.03939665 0.07751892 0.029730901 0.025911365
000040 70 7d 03 b7 33 df cf 3c b7 16 b3 bd c3 c0 83 bd
       -7.837414e-06 0.025374984 -0.08744567 -0.06433251
000050 03 85 d2 bd c8 68 6e 3d 5e 0f b0 3c 8c 46 db bc
       -0.10279276 0.058205396 0.021491703 -0.026767038
000060 14 e3 4e bd 4e 68 38 bc 39 e0 93 3c 58 01 bb 3d
       -0.050509527 -0.011255337 0.018051254 0.09131116
000070 ba de 73 3d b9 3e 3f 3d a0 6f bc 3d fb 90 74 3d
       0.05953858 0.046690676 0.09200978 0.059708577

F.linears.1.weight f4 [32, 32]
000000 2c ed 81 be 33 8c c6 bd f4 27 78 bc 9f fa 04 3e
       -0.2537626 -0.0969471 -0.015146244 0.1298623
000010 08 72 d9 bd 7e 7a ac 3b 30 1d 6a 3e 7d b2 fb 3c
       -0.10617453 0.0052636256 0.22862697 0.030724758
000020 23 5b 48 be fc 3d 24 3e 9b bb af bc f1 37 dc 3d
       -0.19566016 0.1603927 -0.021451762 0.107528575
000030 e8 1b b9 bd 40 7a d6 bd cd b5 00 bd 47 07 85 3b
       -0.09038526 -0.10472536 -0.03142338 0.0040597054
000040 7b 01 32 3d a5 c9 00 bd a1 65 04 be f4 87 88 bd
       0.043458443 -0.031442303 -0.12929393 -0.06666556
000050 9b 74 95 3d 14 f1 24 3e f9 04 de 3c 00 16 85 3d
       0.07297631 0.16107589 0.02710198 0.06498337
000060 7a 8e 92 bd 90 76 9f 3d 6e 20 7c 3d 94 a2 1f 3c
       -0.071560815 0.07786286 0.061554365 0.0097433515
000070 66 14 5f bb d6 7f 39 3d c3 b2 05 be 3e 9e 00 be
       -0.0034039258 0.04528793 -0.13056473 -0.12560365
000080 8c 2a 4f bd 7f 19 a9 3d 1c 81 5f 3e d5 9d 30 3d
       -0.050577685 0.08256816 0.21826595 0.04311927
000090 44 14 12 3e 69 38 88 bd 5e 9e 0a bd a9 fa 0b be
       0.14265543 -0.066513844 -0.033842437 -0.13669838
0000a0 4d 3b 1c bd 1b 7d be 3d e6 76 60 bc 53 7e 52 be
       -0.03814249 0.09301206 -0.013700223 -0.20556001
0000b0 93 33 7f 3e d5 99 f5 3d 85 8c c0 3b b5 c4 89 bd
       0.24922018 0.11992232 0.0058761262 -0.06726972
0000c0 b3 17 72 bd e0 c7 fd 3d cf cc 8f bd 31 bc d2 3d
       -0.059104633 0.12391639 -0.07021486 0.10289801
0000d0 75 91 86 bd d5 cf 83 3c a0 b4 3a 3d 11 0a 53 3d
       -0.065707125 0.016090313 0.045582414 0.051523272
0000e0 11 60 2a 3b 87 32 7d 3b d2 b4 a9 bd 24 1d 17 3d
       0.0025997201 0.0038634853 -0.08286442 0.036893025
0000f0 43 88 16 3e 76 14 4c 3b f6 a7 87 bd 68 44 9d 3d
       0.14700417 0.0031140125 -0.06623833 0.07679063
000100 58 a9 90 bd 6e 95 e0 3c 28 df 35 bd be 7e 24 3d
       -0.0706355 0.027415004 -0.04440227 0.040159933
000110 57 93 d3 3c f5 48 c8 bd df 07 fd bc de be b5 bc
       0.025827093 -0.097795404 -0.030887542 -0.02218574
000120 e9 4a 21 be 2d 4a be 3d 0f cd 39 3d c9 99 8c bd
       -0.15751232 0.09291492 0.045361575 -0.0686527
000130 fa 8e 4b bd 3e 15 1d 3d 2b 3b 91 3d af c5 9a 3d
       -0.0496969 0.038350336 0.070913635 0.075572364
000140 c0 cc b1 3c 17 86 0c bd 84 6a 57 be d7 55 b2 3d
       0.021704078 -0.034307566 -0.21036726 0.08707779
000150 c7 3a 46 be 1c 80 42 bc 20 45 cf bd e5 bd 8e 3d
       -0.1935836 -0.011871364 -0.101206064 0.06969813
000160 cf 11 92 bd cc 8b 0e be ff c3 3b 3d 70 15 27 bd
       -0.07132303 -0.13920516 0.045841213 -0.04079193
000170 e3 91 e5 bc 2a 77 78 bd b1 f0 a3 bd 4e 7b ae bd
       -0.028023666 -0.06066052 -0.080048926 -0.08519612
000180 bd d5 b3 bd d7 dd ea bb c9 bb e9 bb a0 41 ed bc
       -0.08781002 -0.0071675587 -0.0071329814 -0.028961957
000190 b4 52 04 3d e0 56 0b 3d 56 00 29 bc 88 41 27 be
       0.032305434 0.034018397 -0.0103150215 -0.16333592
0001a0 8d f0 cb bd c8 13 e1 bd 92 a0 36 bd 26 3e 8f 3d
       -0.09957991 -0.10990101 -0.044586726 0.06994276
0001b0 a0 c9 29 bd 01 6e 15 bd 46 fe 00 be 55 2f 57 3d
       -0.04145205 -0.03648186 -0.12596998 0.052535374
0001c0 45 8a 2c be d5 82 9e bd 13 b9 9c bd 68 9c 50 3c
       -0.1684962 -0.07739798 -0.076524876 0.012732603
0001d0 af 29 89 bd 21 bd 6c 3b 77 e8 30 3d 54 c4 f7 3d
       -0.06697404 0.0036123472 0.043190446 0.120979935
0001e0 e8 ad 0a be d2 89 ec 3d 5e db b4 bd 79 2e cb 3d
       -0.13542902 0.11549725 -0.088309035 0.09920973
0001f0 ad d5 59 3d f4 18 7b bc 32 e1 c5 bc f5 8e e9 3d
       0.053182293 -0.0153257735 -0.024155233 0.1140422
000200 88 60 1b 3d 5d 47 ce bc 2b cc 8d bd 24 ef 78 bd
       0.037933856 -0.025180513 -0.069237076 -0.060774937
000210 5f e3 a4 bd 04 b8 76 3d 1a 1f c0 3d f7 fb ad 3c
       -0.0805118 0.060234085 0.09380932 0.02123831
000220 b8 f4 a8 bd 2c c2 f5 3d 91 e2 68 bd 86 8b 11 3e
       -0.082498014 0.11999926 -0.056856696 0.1421338
000230 34 77 27 bd 54 82 ea 3b 08 00 39 3d b1 47 ae bd
       -0.040885165 0.0071566496 0.045166045 -0.08509768
000240 5a 75 26 bc 6b 39 5b bd 1e 5f a2 3d a9 f6 61 3e
       -0.010159815 -0.053521555 0.079282984 0.2206675
000250 19 e5 33 be 37 76 65 3d fe eb 04 3d a0 da 22 3c
       -0.17567863 0.05602094 0.032451622 0.00993982
000260 6a 78 04 3e ed 93 37 3d 37 e8 c4 3d 7e d3 79 bd
       0.1293656 0.044818807 0.09614604 -0.06099271
000270 e0 20 10 3e 1d f0 b5 3d 64 b2 fa bd 96 1a 07 bd
       0.14075041 0.088836886 -0.122410566 -0.03298434
000280 e4 8d 5a 3e ce a3 4d 3e 27 65 a8 3d 67 d6 06 be
       0.2134319 0.20082018 0.08222418 -0.13167726
000290 94 76 05 be 88 26 4a 3e 25 ee ab bc 49 0a bc bc
       -0.13033515 0.19741261 -0.02098758 -0.022954123
0002a0 fd ca 71 bc 93 6c bd 3b 8e ba 56 bc 5d e7 f7 bd
       -0.014757869 0.0057807653 -0.013106002 -0.12104676
0002b0 73 e8 0a be 2f 2c bb bd 77 e5 3c bd a6 81 37 bd
       -0.13565235 -0.09139287 -0.046117272 -0.044801377
0002c0 83 07 3a bd 36 0b 66 3d c1 ef 3f be a4 89 23 bd
       -0.04541732 0.056163035 -0.18743803 -0.039926186
0002d0 fd bf 2f bd 97 06 1b be c7 a2 35 be 7c ee 0b 3e
       -0.042907704 -0.15139233 -0.17737876 0.13665193
0002e0 90 6a 93 bd a9 72 3f b9 ce ca 98 3d cc 3a 16 3e
       -0.071980596 -0.00018257894 0.07460557 0.14670867
0002f0 06 b0 bb bd f2 95 19 bd f3 8f 52 bd 21 2c 6e bc
       -0.09164433 -0.037496515 -0.051406812 -0.014536888
000300 ca 13 5e be d3 29 11 be 10 f5 13 be bf 33 13 3e
       -0.21687236 -0.14176111 -0.14448953 0.14375208
000310 02 1c 84 3c 8d 59 a9 bd a1 8b 56 3e 93 8d 5d 3d
       0.016126636 -0.082690336 0.20951702 0.054090094
000320 c1 a7 90 3c cf df 4e bd 69 8c f8 3d 68 b8 13 3e
       0.017658116 -0.05050641 0.12136156 0.14425814
000330 36 64 e2 bd a0 e1 3b be 0e d8 c9 3c aa dd 6a 3c
       -0.1105427 -0.18347788 0.024639156 0.014335075
000340 92 c4 ba 3d b8 f1 90 bd 47 16 9a bd 04 6c 30 bd
       0.09119524 -0.07077354 -0.0752378 -0.04307176
000350 a2 65 8c 3d 9b 80 d4 bd fe b3 eb bd 46 30 c1 3c
       0.068553224 -0.10376092 -0.1150894 0.023582589
000360 cb 21 1f bd 08 71 c7 3d eb a6 be bd fd ca 56 bd
       -0.038850587 0.09738356 -0.09309181 -0.05243968
000370 45 fa b8 bd 46 f3 b2 bd e7 5d e6 3d 5a ce b6 be
       -0.0903211 -0.08737807 0.11248379 -0.3570431
000380 76 14 39 bd a6 b5 cf 3d 6e 6f e6 bd 96 0e 04 bd
       -0.04518553 0.101420686 -0.11251722 -0.032240473
000390 d1 c0 18 bc 11 bd 28 be 47 3a 36 be 7d 2e ed b9
       -0.009323315 -0.16478373 -0.17795669 -0.000452388
0003a0 a6 14 f8 3b 04 d2 18 bd 36 23 97 be 12 7f 9c 3d
       0.007570821 -0.03730966 -0.2951905 0.07641424
0003b0 e3 a5 d5 3d ef a9 d5 3d 4e f9 c0 3d 0f 34 11 bd
       0.10432031 0.10432803 0.09422551 -0.035450038
0003c0 cc b6 f7 3d 46 1b 26 bd 39 41 0b be ee 2b 87 bd
       0.120954126 -0.040553354 -0.13599099 -0.06600176
0003d0 24 f7 8e bd f9 14 04 bc f4 1f a8 bd 76 c6 84 bc
       -0.06980732 -0.008061641 -0.082092196 -0.016207915
0003e0 8b 1b 01 bc 4f 29 d5 3d 90 7e 66 bd d9 58 37 be
       -0.007880102 0.104082696 -0.056273043 -0.17904986
0003f0 3a 9d a7 bd 62 7e dd 3d c3 09 46 bc 47 80 60 3d
       -0.081842855 0.10815121 -0.012087288 0.054809835

F.linears.1.bias f4 [32]
000000 52 40 c4 bd 23 b3 8e 3d 01 1b 97 3c 05 dd 96 bd
       -0.095825806 0.06967761 0.018445494 -0.07366375
000010 d8 2a 41 3d 59 41 c9 bd e9 5f e2 bc 00 3f eb 3c
       0.04716 -0.09826917 -0.027633624 0.028716564
000020 92 a2 ad 3d e6 07 eb bc b9 98 bc 3d b4 c6 39 bc
       0.084782735 -0.02869029 0.09208817 -0.011338878
000030 3b de 31 bc 1f 3e a2 3b 2c a3 8f 3d e6 69 2d 3d
       -0.0108562065 0.004951253 0.070135444 0.04233732
000040 ea ba 77 ba a0 4f 84 bd ba 55 1a 3d 3d 64 77 3c
       -0.00094501546 -0.064605 0.03767941 0.015099582
000050 2d a8 b7 bd 94 c4 96 bd 8c 19 8d bd 8c 64 45 3c
       -0.08967624 -0.07361713 -0.06889638 0.012047898
000060 81 d0 51 bd 59 3c 86 bb b3 70 9c 3d bf 26 cd bd
       -0.051224235 -0.0040965495 0.07638683 -0.10017156
000070 32 ca 98 bc d8 90 1c bc 59 5e b2 bd ac b6 c5 bc
       -0.018651102 -0.009556018 -0.08709402 -0.024134956

F.linears.2.weight f4 [10, 32]
000000 2e c0 c7 bd 5f ea 13 bc 22 1f 9d bc ff ff db bb
       -0.09753452 -0.009028046 -0.019179884 -0.0067138667
000010 72 8f 1b 3e 21 9b e7 bd 23 38 31 3b 38 b1 28 3c
       0.15191439 -0.11308885 0.0027041517 0.0102961585
000020 7d 5e 1a 3e ce ff 38 3d 09 05 0a 3e 2c 92 b2 3d
       0.15075107 0.04516583 0.13478483 0.08719286
000030 a2 0f db bd af 41 81 3d 98 ca 10 be cb 01 20 3d
       -0.10696341 0.06311356 -0.14139783 0.03906421
000040 de 64 23 3c 2c ef 80 be e6 dc e2 3c 81 6e 9e 3d
       0.009972779 -0.25182474 0.027693223 0.07735921
000050 79 4c 94 3c 4d a7 af bd 88 0e 0b be 9a fe be 3d
       0.018102871 -0.08576832 -0.13579762 0.09325905
000060 73 f9 a3 bd b0 04 22 3e c6 93 d1 bd 1a 80 97 bb
       -0.08006563 0.158221 -0.10233264 -0.004623425
000070 c9 11 a8 bd 32 89 a0 bc 83 42 df 3c ec 36 be bd
       -0.08206517 -0.01959667 0.027253395 -0.09287819
000080 2e e4 c0 3d 00 e2 f6 3b 98 a1 d2 bd 5d e3 b4 3d
       0.09418522 0.0075342655 -0.10284728 0.088324286
000090 08 8d c4 3c 2a 58 b4 3d 34 d2 2f be 0e ba 3b 3d
       0.02399303 0.088058785 -0.1717003 0.045831732
0000a0 05 71 b7 bd 75 57 ab 3d e4 d4 84 3d aa 1f a7 3c
       -0.08957104 0.083662905 0.06485918 0.02040084
0000b0 7c 27 24 be 33 c3 22 be 73 c4 2a be a2 4c ba bd
       -0.16030687 -0.15894775 -0.16676502 -0.09096648
0000c0 77 e1 9a 3c db 33 13 3e a5 26 e8 bd b3 5f 87 3d
       0.018906338 0.1437525 -0.11335496 0.0661005
0000d0 a1 fb 02 bd df a8 33 bd 88 4e c9 3d 14 60 d6 3d
       -0.031978253 -0.04386222 0.09829432 0.10467544
0000e0 61 ef d9 bd 0d 3a 8e bd 08 2d 64 3d 6c 71 28 3d
       -0.10641361 -0.06944666 0.055707008 0.041123793
0000f0 dd c4 27 3e e2 b8 1e 3d 4b e2 3e 3e 79 fb 81 3e
       0.16383691 0.038750537 0.18641011 0.2538717
000100 01 4c b0 bd ff 6b bb bc 8e e7 cd 3d 51 d9 74 3e
       -0.086082466 -0.022878645 0.10053931 0.23911025
000110 fc 33 2f bd 54 41 fa 3b 8b 5f 94 3d 25 8b 83 be
       -0.042774186 0.0076371823 0.07244786 -0.25692096
000120 ff 1a cc 3d d4 10 20 be 00 39 a8 3c 76 cb 07 3e
       0.099660866 -0.1563142 0.020534992 0.13261208
000130 a0 ed 28 bc 5d b6 1c 3d 38 60 b0 3d 6d d9 b4 3d
       -0.01031056 0.038259853 0.08612102 0.08830533
000140 7a dd 98 3d ad 80 5a bd a1 87 92 3e 54 71 b6 3d
       0.07464118 -0.05334537 0.28619102 0.089083344
000150 15 df b7 3d b2 62 86 3d fb 34 df bc 05 ef 5d bc
       0.089780964 0.065617934 -0.027246943 -0.013545756
000160 45 e8 a5 3d 0a b4 47 bd 0b 6d 50 be 31 ce 04 3d
       0.081009425 -0.048755683 -0.20354097 0.032423202
000170 eb 58 a5 3d 69 1f 9e bd 21 df e3 3c 96 0c e2 bc
       0.080736004 -0.07720835 0.027816357 -0.027593892
000180 18 d4 30 bd 88 58 99 3c a0 1f 9e bd a6 f3 24 bd
       -0.04317102 0.018718973 -0.07720876 -0.040271424
000190 70 bf d3 3d b0 46 f4 bc 1d 20 0b 3e 10 49 a6 bd
       0.10339248 -0.029818863 0.13586469 -0.08119404
0001a0 9c ad 1c be 23 18 ed 3d 3c 1e 54 3d 31 ea 03 3c
       -0.15300602 0.11576869 0.051786646 0.008051441
0001b0 90 b1 c5 3d 45 b5 10 3d a1 f1 8e 3e cc eb af 3d
       0.09653008 0.035329122 0.27918723 0.085898966
0001c0 3b 0d 62 3d cd 91 12 3d 6f a0 d0 bd 18 42 73 bd
       0.0551884 0.035783578 -0.1018685 -0.059389204
0001d0 1e b3 23 bd 13 70 57 be e2 9c 79 bd 4d cc 86 3d
       -0.03996574 -0.21038847 -0.06094063 0.06581936
0001e0 46 62 13 bb f2 4f 59 bd ba f8 da bd 62 7f ca bd
       -0.0022488995 -0.053054757 -0.10691972 -0.098875776
0001f0 8b 7a a2 bc 89 a5 4a bd ac 0d 3b bc d3 49 96 bc
       -0.019833824 -0.049474273 -0.011416834 -0.018345749
000200 e3 3a 8a 3e f9 b3 13 be 2a 68 e0 3c c7 e1 65 3d
       0.26998052 -0.14424123 0.02739342 0.05612352
000210 47 6f 59 bc fe 1d 7d 3d 80 87 0e be 63 38 bb bd
       -0.0132711595 0.06179618 -0.13918877 -0.09141614
000220 17 28 c8 3d 4c 6b 4a bd 00 7b 36 3d 10 b0 70 be
       0.097732715 -0.049418733 0.044550896 -0.23504663
000230 09 97 ed bc 47 f1 d4 bc 37 88 95 3d 55 06 58 bd
       -0.029002683 -0.025993956 0.073013715 -0.052740414
000240 2f 6d 82 bd 6a c6 ca ba 6b 72 aa bd 0c bb 30 bc
       -0.06368481 -0.0015470509 -0.08322605 -0.010786783
000250 e4 0f 96 bc fe b6 00 3c 9c 54 12 3d 08 7b f9 3d
       -0.018318124 0.007856129 0.03572522 0.121816695
000260 70 53 10 bd 5e 5a 51 3d 7a c7 ce 3d 8b 7d 43 3e
       -0.035235822 0.05111157 0.10096641 0.1909086
000270 3c 59 bd 3c ac 9e 6a 3d ff 5c 93 bd d0 33 ce 3d
       0.02311384 0.057280228 -0.07195472 0.10068476
000280 ac 08 a9 3d 8b 75 86 3d 6a 55 bf 3a c5 7b fb 3a
       0.08253607 0.06565388 0.0014597599 0.0019186666
000290 ea ee ab bd bc f1 b6 3d 94 2e 48 bd b8 b5 13 3e
       -0.083951786 0.08932826 -0.048872545 0.14424789
0002a0 39 9b 39 be 73 c0 aa bd 62 b2 a5 bd 90 4b 4c 3d
       -0.18125619 -0.08337488 -0.080906644 0.04987675
0002b0 a3 1e 9b 3c 8d ee a0 3d 0f c9 ad 3a e4 ee 4e bc
       0.018935507 0.07858 0.0013258773 -0.012630198
0002c0 a5 35 05 bd c7 fe 09 be 46 bc c4 bc a6 5d 0b 3e
       -0.032521863 -0.13476096 -0.024015557 0.13609943
0002d0 52 86 f9 bc 5c 1b 8b bd 7f c2 79 3c 88 af 14 bd
       -0.030459557 -0.06792328 0.015244125 -0.036300212
0002e0 c3 06 fe 3d d5 ee 0b bd dc b9 4d 3c 31 ac e0 3d
       0.124036334 -0.034163315 0.012556519 0.10970343
0002f0 9e 56 32 bc ef 4e a7 ba cf 1d 77 3d 9e 39 1e 3d
       -0.010884909 -0.0012764613 0.060331162 0.038629167
000300 8e ff 3e be e8 8b 26 bc 98 ec 21 be 2e e9 20 bd
       -0.18652174 -0.010165192 -0.1581291 -0.039284877
000310 c3 be ca 3d 46 80 dc bc c8 d8 f0 bc be 31 cc bd
       0.09899666 -0.026916634 -0.029400244 -0.09970425
000320 07 af 64 be 92 3b ba bd 4c da e5 bd 78 3b b2 3d
       -0.22332393 -0.090933934 -0.112232774 0.08702749
000330 7c 2b 73 bd 50 12 05 3e 2d 75 f0 bd 89 d1 9c 3b
       -0.05936764 0.12995267 -0.117410995 0.0047857207
000340 96 ac d3 bc ec e8 95 3c 55 a0 81 3e a4 fa 1c bc
       -0.025839131 0.018299542 0.25317636 -0.009581242
000350 6a 67 f3 bc b6 9c 56 be ce 6b 00 be bc 8c 14 be
       -0.029712398 -0.20958218 -0.12541124 -0.14506811
000360 1e ff 2c be 42 2a 12 3d 31 6f cd bd 4f e9 7e 3d
       -0.16894194 0.03568483 -0.10030974 0.06223422
000370 7e 24 91 bd 86 87 74 bd 0c fb 6b bd 6a e3 d0 bd
       -0.070870385 -0.059699558 -0.057612464 -0.10199626
000380 d3 f3 b0 bc 50 84 9b bd b6 a0 46 bd 8d a7 fa 3b
       -0.02160064 -0.07593596 -0.04849311 0.007649368
000390 c1 f0 8c 3c 81 a1 97 3d 9a e7 92 bc 3a 42 95 3d
       0.017204644 0.07403851 -0.017932702 0.07288022
0003a0 2b ec 0e 3e e3 86 50 bd a1 1c 65 bd 11 c5 a3 bd
       0.13957278 -0.050909888 -0.055935506 -0.07996572
0003b0 fb 60 1b be 8e 52 0d 3d 56 fa 57 3c a8 d5 32 3e
       -0.15173714 0.03450256 0.013182243 0.17464316
0003c0 1f 7f 14 3e ff ad 82 3d 3c 9f f4 3b 31 30 41 3e
       0.14501618 0.06380843 0.0074652713 0.1886604
0003d0 ee b6 11 bb 36 a4 93 bd b8 77 a7 bd 35 45 9b 3d
       -0.0022234279 -0.07209055 -0.081771314 0.075815596
0003e0 4a 6f c2 bc 1c 40 27 3c d8 9a 21 bd d1 50 74 3d
       -0.023734707 0.010208156 -0.03945431 0.059647385
0003f0 3c d6 2e 3d be b4 bd bd 5a 50 60 bd 70 ad a3 bc
       0.04268478 -0.092629895 -0.05476413 -0.019980162

F.linears.2.bias f4 [10]
000000 88 f0 0c 3d 24 85 bd 3c d7 e4 97 3d 29 49 da 3c
       0.034409076 0.023134775 0.074166946 0.026646214
000010 5c 99 6f bd 78 85 14 3d d3 fc 27 bd f0 85 96 bd
       -0.058495864 0.0362601 -0.041012596 -0.07349765
000020 c9 9e c9 bd bf 7c 09 bd
       -0.09844739 -0.033566233

G.0.linears.0.weight f4 [32, 10]
000000 d8 5a 91 3d 88 c5 e1 3b ff 60 4a bd e4 ea 43 3d
       0.07097405 0.0068900026 -0.04940891 0.04783143
000010 0a 2c 05 3b 77 de c7 3d 5e 63 74 3e 00 2d 72 be
       0.0020320439 0.09759229 0.2386603 -0.23649979
000020 cc 5f 8c 3d 99 93 0c bd 13 31 95 3d 35 02 8b bc
       0.06854209 -0.034320448 0.07284751 -0.016968826
000030 3b 40 55 bc 8e 16 8f 3d 36 96 08 bd bb d5 b8 3c
       -0.013015802 0.06986724 -0.033346377 0.022562852
000040 f5 f9 50 be 42 1d f4 bd c8 58 ff 3d 4d 92 86 bd
       -0.20407851 -0.11919643 0.124681056 -0.065708734
000050 2e b3 16 be fa cb 58 bc b0 0b aa bd 03 74 4f be
       -0.14716789 -0.013232226 -0.083030105 -0.20259099
000060 e0 74 4e 3d 99 a9 2e be 28 8d 92 bd 99 d0 b7 3d
       0.05040443 -0.17056884 -0.0715583 0.08975334
000070 f6 e9 99 bd db 3d 60 3e b4 b2 75 3d 0c 00 ab bd
       -0.07515328 0.21898596 0.059984878 -0.08349618
000080 51 1d 59 3d 28 b1 ce 3c b9 0c 76 3d 78 85 d6 bd
       0.053006474 0.025230959 0.060070727 -0.10474676
000090 c8 01 9d 3d 56 71 17 bd a4 4b 8d 3d 1f c5 58 3e
       0.07666355 -0.03697332 0.06899193 0.21168946
0000a0 3f 06 0a 3e 93 97 26 be 8e 50 79 bc 56 12 19 3c
       0.13478945 -0.16268758 -0.01521696 0.009342751
0000b0 c3 ae d8 3d 0d ea 01 be bd 2c b6 3d 51 80 c4 3c
       0.10580208 -0.1268694 0.08895252 0.023986967
0000c0 b5 da 36 bd e8 30 08 3e 40 78 a9 3c ec 2f 9e 3c
       -0.04464217 0.13299906 0.020687222 0.01930996
0000d0 fa 81 85 bd 66 7c 67 bc 5f d1 52 bd 94 f2 06 be
       -0.06518932 -0.01412878 -0.051469203 -0.13178474
0000e0 f7 3e c6 bc 56 c8 a7 3d 95 0c b0 bd 47 d2 c7 bc
       -0.024199946 0.08192508 -0.0859615 -0.02439226
0000f0 13 d0 29 3c e4 a6 86 3c 7e 29 0a be 19 3d cd 3d
       0.01036455 0.016437002 -0.1349239 0.10021419
000100 cf d6 4f 3d 29 c4 93 bd 1d b9 09 3e 5b 26 7a 3d
       0.050741967 -0.07215149 0.13449521 0.061071735
000110 1d 3a 1f 3e e1 b4 c5 bd 30 f1 7c bd c1 9c 9a bd
       0.15549512 -0.096536405 -0.06175345 -0.0754943
000120 b7 72 42 3e 57 07 16 3e 74 c8 b6 bd 87 17 40 3e
       0.18989073 0.14651237 -0.08924952 0.18758975
000130 fa 47 63 bc fa 94 55 bd 75 b0 2b bd e4 08 11 3d
       -0.013872141 -0.05214403 -0.04191633 0.03540887
000140 f6 a1 ae 3c 18 65 e7 3b 84 54 a9 3d dd 46 14 be
       0.021317463 0.007061612 0.08268073 -0.14480157
000150 a6 8f 38 3e 79 d6 2b bd cb a0 e1 bc f8 68 b5 38
       0.18023548 -0.041952584 -0.027542492 8.6503045e-05
000160 5d b2 b8 3d 15 fb 11 3d a2 0a b2 3d 35 e3 1b be
       0.09018395 0.03563984 0.08693434 -0.15223391
000170 23 2f ee bd c1 fa ff bd 52 72 98 3d 13 42 cf bc
       -0.11630084 -0.124989994 0.0744368 -0.025300061
000180 29 25 31 be 76 0d c8 bd fc 60 19 3e 9d 9d f0 bc
       -0.17299332 -0.097681925 0.14978403 -0.02937203
000190 63 34 09 be d0 a9 23 bd 83 63 3e 3e dd 7e 28 bd
       -0.1339889 -0.039956868 0.18592648 -0.04113661
0001a0 c3 99 56 3c 7b 76 32 3d 76 95 84 bc b6 36 19 bd
       0.013098183 0.043570023 -0.01618455 -0.037405692
0001b0 37 86 0d 3d 2b 8a 18 3e 92 33 78 3d f8 5b 9b 3d
       0.034551825 0.14896457 0.060596056 0.07585901
0001c0 fa 2d 09 be a6 ed f0 3d 16 51 9d 3d 5b d7 e0 bd
       -0.13396445 0.11764078 0.076814815 -0.10978576
0001d0 c4 1f 45 bd 2d 41 7c 3b d1 d9 50 3d d5 74 88 3d
       -0.048125997 0.0038490996 0.050988976 0.06662909
0001e0 a4 64 31 be 26 9e 90 3d c8 05 08 3d 12 68 b9 3d
       -0.17323548 0.070614144 0.03320864 0.09053053
0001f0 cf 75 e0 bd 90 a3 0d 3e 73 b3 e1 3d 86 62 34 3c
       -0.1095997 0.13831925 0.11020555 0.011009818
000200 c7 a5 12 be 96 a1 a3 bc 77 c7 9f 3c 75 5f 19 be
       -0.14321052 -0.019974511 0.019504292 -0.1497782
000210 00 c0 81 3d 38 f7 03 bb dc 5f 9d 3d c3 6a 90 3d
       0.06335449 -0.0020136368 0.07684299 0.07051613
000220 3d aa ce 3d f9 1e 97 bc b4 17 1b 3d 4b ab f3 bd
       0.10091064 -0.018447386 0.037864402 -0.11897906
000230 90 c1 f3 3c d5 00 c4 3d 70 4a 04 3d 44 58 b2 3d
       0.029755384 0.09570471 0.03229755 0.087082416
000240 23 76 40 bd e8 8e 4e bd 27 76 6c 3d b9 e4 98 bd
       -0.046987664 -0.050429255 0.057729866 -0.074655004
000250 7f 7e 59 3d 8a d9 47 bd 11 46 c9 bd 2b fb 4e be
       0.05309915 -0.048791446 -0.09827817 -0.20213
000260 de 8d 70 bc 13 87 0d 3e 89 6e dd bb dd f2 11 3e
       -0.014682261 0.13821058 -0.0067575616 0.14252801
000270 7c 94 06 bd 87 a7 ae bd 2d ff 2a 3d f4 dc 03 3c
       -0.03285645 -0.08528047 0.04174726 0.008048285
000280 c4 e2 11 3d ea 30 5c bd 03 5e a9 3b e0 b9 aa bc
       0.03561665 -0.053757586 0.005168678 -0.020840585
000290 c2 7a d9 3c 58 d5 85 3c 02 fe b6 bd b9 21 d9 3d
       0.026547793 0.016337082 -0.08935167 0.10602135
0002a0 67 f5 60 3d d7 e4 e9 bd 02 53 a0 bd 08 1f c4 3d
       0.054921534 -0.11420601 -0.078283325 0.09576231
0002b0 91 f0 c0 3c 48 70 48 3d 3b 90 12 3d 23 3b b6 bd
       0.023552211 0.048935205 0.03578208 -0.08897998
0002c0 b7 53 e8 bd 29 46 c2 3c 54 90 97 3c 2c 11 16 be
       -0.11344092 0.023715096 0.018501438 -0.14654988
0002d0 7a 00 60 3e 16 38 db 3d 39 38 85 be ac 6e 3f 3e
       0.21875182 0.10704057 -0.26019457 0.18694562
0002e0 13 ef 86 bd 48 9e b6 3d da 1f 74 3d 38 63 1f 3e
       -0.065885685 0.089169085 0.05960069 0.15565193
0002f0 6f b0 e6 3c cf a9 0b 3e ed a3 d7 3c d0 7e fe ba
       0.028160302 0.13638996 0.026323283 -0.0019416455
000300 53 35 dd bd 44 e1 0c 3c 57 5c 93 be 82 43 8f bd
       -0.108011864 0.008598629 -0.28781387 -0.06995298
000310 02 ea c1 3d af 4f b6 bd 71 ee 84 3b 2e 34 a8 bd
       0.094684616 -0.08901917 0.0040567447 -0.082130775
000320 13 ed 0e 3e e2 83 60 3d 91 51 96 bc 14 35 02 3e
       0.13957624 0.054813273 -0.01834944 0.1271556
000330 31 d6 bf bd 2f 40 f6 bd e3 96 90 bd 4c 54 a1 bd
       -0.09367026 -0.12023961 -0.07060029 -0.078774065
000340 1f 2f 13 be 77 1d 83 3d 18 b0 6f 3d 78 05 42 bd
       -0.14373444 0.06402104 0.058517545 -0.047368497
000350 34 60 8b bd 87 12 db 3d d3 6e 99 bc 5b d9 80 bd
       -0.06805459 0.10696893 -0.018729603 -0.06291457
000360 b8 2a 5a 3e 24 45 1e ba 35 a2 c7 bd 5c db c8 3c
       0.21305358 -0.00060375244 -0.097477354 0.024518661
000370 92 ef d7 3d 9d 3b d2 3d 23 ca 34 3e 2d 16 51 bd
       0.10543741 0.102652766 0.17655234 -0.05104654
000380 e6 38 f9 3d 45 cd e0 bd 6d 53 54 3d 6d 9b a2 3d
       0.12169056 -0.10976652 0.051837374 0.07939801
000390 05 bf 1f 3e e7 66 75 bd ec 41 4d be 8c 33 db 3c
       0.15600212 -0.05991259 -0.20044678 0.026757978
0003a0 cb e4 74 3d 9b 99 84 bc 7c 05 67 bc cf 97 73 3e
       0.059788506 -0.016186526 -0.014100429 0.23788379
0003b0 16 46 39 3d f6 4a 52 3e a8 0c ff 3d d2 93 8a 3e
       0.045232855 0.20536408 0.12453586 0.27065903
0003c0 e8 0a af 3d 1e 1b a8 bd d8 fe 9c 3d e4 7d b9 3d
       0.08547002 -0.08208297 0.07665795 0.09057215
0003d0 78 d0 e6 3c 4c 44 e0 3d c5 45 35 be b6 12 8d ba
       0.028175578 0.109505266 -0.17702396 -0.0010763023
0003e0 67 e5 49 be d2 b3 81 bd a0 5e c8 3d 4f 99 41 bd
       -0.19716416 -0.06333126 0.09783673 -0.047265347
0003f0 5a f4 13 be f5 74 9c bd 53 90 83 3d f8 98 41 3b
       -0.14448681 -0.07639495 0.06424012 0.002954064

G.0.linears.0.bias f4 [32]
000000 3d 98 bf bc 90 68 a4 3d 36 b4 b7 bd a1 6a 26 bd
       -0.023388023 0.08027756 -0.089699194 -0.040629033
000010 10 5a a5 3d 8e fa 0d 3b 3a be 90 3d 03 af bb bd
       0.08073819 0.0021664235 0.07067533 -0.0916424
000020 ae 26 60 bd b4 70 8e 3c 42 b3 e0 3d 91 05 97 3d
       -0.054724388 0.017387725 0.10971691 0.073741086
000030 ba d5 13 3d 40 26 88 3b d4 30 07 3d b7 75 55 3d
       0.036092497 0.0041549504 0.03300555 0.052114215
000040 d9 52 02 bc ea 4f 61 bc 5f 93 c6 3d 6e 56 63 bd
       -0.007954323 -0.013751963 0.096960776 -0.055502348
000050 5a 7d 9e 3d bd 6c 58 bd ab 85 9e bd a3 97 7e bd
       0.07738753 -0.052838076 -0.07740339 -0.06215633
000060 ae e2 cf 3b a2 1c b8 bd 60 d0 83 bd 8e 0b 98 bd
       0.006344161 -0.08989836 -0.06436229 -0.07424079
000070 14 c0 b3 3d dd 44 e1 bd 39 cf 51 bd 74 29 8c 3d
       0.0877687 -0.10999463 -0.051223014 0.06843844

G.0.linears.1.weight f4 [32, 32]
000000 14 66 44 3d e7 cc 99 bd b0 5d c7 3d 19 22 9a bd
       0.04794891 -0.07509785 0.09734666 -0.07526035
000010 9e 1a 53 bd 76 04 29 bd dc 5f 59 3c fc 95 ed 3c
       -0.051539056 -0.04126402 0.013267484 0.029002182
000020 c2 84 8e bc 79 dd 50 bd 78 28 15 bb 73 7b 03 3e
       -0.017397288 -0.050992463 -0.0022759717 0.12840061
000030 97 0d 20 3c 2e 0f 1e 3e 72 6c 0f 3d 84 68 dc 3c
       0.009768865 0.15435478 0.03501553 0.026905306
000040 60 c1 19 be 45 f2 8c bd c5 4a 20 3d 5c 83 87 bd
       -0.15015173 -0.06882147 0.039133806 -0.06616852
000050 9e bf ba bd a7 94 39 bd 0e 95 5b bd 7a 86 34 bd
       -0.09118579 -0.04530778 -0.053608947 -0.04407356
000060 cb 42 20 be 3c 1e 1e be 6c 20 43 3b c7 14 19 3e
       -0.1565048 -0.15441221 0.0029773964 0.14949332
000070 38 48 64 bd 5f 65 1e be 81 75 8b 3d e2 b1 46 3b
       -0.055732936 -0.15468358 0.068095215 0.0030318429
000080 f5 b6 21 be d5 67 72 3e c1 ce 01 bd 38 86 d3 bd
       -0.15792449 0.23672421 -0.031691317 -0.103283346
000090 f9 f9 e4 bd c4 87 8c be 87 a3 13 bd 49 e0 ba bd
       -0.11180491 -0.2744733 -0.036044624 -0.0912481
0000a0 db 07 61 3c a3 9f 3e bd e4 88 f5 bc 82 5a 00 3d
       0.013734783 -0.04653896 -0.029972501 0.031336315
0000b0 39 c9 48 bd 10 98 28 3d 92 ad b9 3d d5 6d 24 3e
       -0.049020026 0.041160643 0.09066309 0.16057523
0000c0 9a 94 2b bd be ea c9 3c 46 35 b2 bd ef 72 f7 3c
       -0.041889764 0.024648067 -0.08701567 0.030206172
0000d0 d4 89 40 bd c8 be 9e bd 94 19 3a bd b7 8a 6f bd
       -0.047006443 -0.077512324 -0.04543455 -0.0584819
0000e0 63 b8 ed bd ee 80 f4 bd da ec a4 3d 42 73 27 3d
       -0.116074346 -0.11938654 0.08052988 0.040881403
0000f0 16 05 69 3d f4 d5 b4 3d 6b a1 47 bd e2 e8 28 3d
       0.056889616 0.08829871 -0.048737925 0.04123772
000100 41 9d bd 3d ac 6e b7 3d a1 d6 8e 3c 51 3b 57 be
       0.092585094 0.08956656 0.017436327 -0.21018721
000110 e4 0d 3d bc 83 a1 83 be 2c bc 77 3d e6 ba 24 be
       -0.011538956 -0.2570916 0.06048219 -0.16086921
000120 3b 31 a6 bd b8 33 30 be 91 c1 e9 bd ca df 5c 3e
       -0.08114859 -0.17207229 -0.11413873 0.21569744
000130 88 b5 ea bd a0 15 d0 3d 14 ca 6c 3e 20 19 49 bd
       -0.114604056 0.10160375 0.23123962 -0.049096227
000140 2d cc 2c bd e5 a9 0e bd d4 6b fc bd 0d 85 9a bd
       -0.042186905 -0.034829993 -0.12325254 -0.07544909
000150 b6 33 f5 3c 8e 94 31 3d ae b2 14 3e cf d9 2b 3e
       0.029931884 0.043354563 0.14521286 0.16782306
000160 93 20 82 3d 33 a9 79 bd be f2 69 3d 0e 6d 03 be
       0.06353869 -0.060952377 0.057116263 -0.1283457
000170 5a 68 fd bc 4d 13 6d bd de 33 3c be 8a 1e 8a bd
       -0.030933548 -0.057879735 -0.18379161 -0.06744106
000180 cf 47 fd 3d 98 3c a4 bd 60 60 ec bc 21 90 29 be
       0.12367212 -0.0801937 -0.028854549 -0.16558887
000190 a1 51 ae bc 30 57 da bd 52 79 03 be 9f 87 9c 3c
       -0.021279158 -0.10661161 -0.12839249 0.019107638
0001a0 c6 16 7a 3d ea 09 c8 bd 55 81 3b bc 7f 9f 69 3d
       0.061056875 -0.09767516 -0.011444409 0.057036873
0001b0 49 29 e3 3c 9a aa 00 bb d9 ab 2c 3e 7f 61 87 3d
       0.027729647 -0.0019632936 0.1686243 0.06610393
0001c0 f5 10 52 3c 06 30 25 be 77 5e 25 3c 40 63 45 bd
       0.012821426 -0.161316 0.010093323 -0.048190355
0001d0 06 be aa 3d ec 3a 55 bc cd c4 16 3e 48 4c 48 bd
       0.08337025 -0.013014536 0.14723511 -0.048900872
0001e0 b4 44 13 3e 9b 46 c0 3d 02 ed a6 3d 5c f5 03 3c
       0.14381677 0.09388467 0.081506744 0.008054104
0001f0 29 36 c4 3c 47 88 c7 bd 24 9e bb be 32 1b 02 3d
       0.023951607 -0.0974279 -0.3664409 0.031764217
000200 e1 b8 4b 3d ed 2d 73 bd 7f 05 3c 3d c8 ee e1 bd
       0.04973686 -0.05936997 0.04590368 -0.11031872
000210 66 fd dc 3b d8 8e ec bc 04 d8 95 bd b0 14 fa bd
       0.0067440746 -0.028876707 -0.07316592 -0.12210977
000220 42 0e 94 3c cf fb ae 3d 25 d3 44 3a 74 69 43 3d
       0.018073205 0.085441224 0.00075082696 0.04770799
000230 7e bd 01 be f9 ef 95 3d 3d 40 cb bd 0f 1b 76 bc
       -0.12669942 0.07321162 -0.09924362 -0.0150211
000240 78 60 2e bc 14 a5 34 bd 02 0d 6b be ea ca 3a be
       -0.010643117 -0.044102743 -0.22954181 -0.18241468
000250 f5 19 e6 3d df 6f c7 3d 7e 08 b7 3b 06 9f be 3d
       0.1123542 0.097381346 0.005585729 0.09307675
000260 14 50 13 3e 65 bb ef 3c 4d a2 f8 bc f6 fc 29 3d
       0.14386016 0.029264161 -0.030350829 0.041501008
000270 c9 8d 91 bd 7d 47 81 3c fd 2d 53 bd e5 e4 b8 3c
       -0.071071215 0.015781159 -0.05155753 0.022570083
000280 d4 3a 08 3e 5c 60 77 bd e1 98 cf bd 87 4b c5 3d
       0.13303691 -0.06039463 -0.10136581 0.09633546
000290 76 6d 1f be 15 90 bb 3d c7 ae 2c 3e 3f 97 c7 bd
       -0.155691 0.09158341 0.16863547 -0.09745645
0002a0 2d cc 47 bd 6d f0 78 3d 05 f8 f6 3c d8 a6 e7 3d
       -0.0487787 0.060776163 0.030147562 0.1131112
0002b0 7c 9e 53 3e 08 4c 0b 3d 95 db a4 bd ce 24 aa 3d
       0.20665926 0.034008056 -0.080496944 0.08307801
0002c0 ab 7d 76 3c b8 d7 c5 bd d1 52 17 bd 46 12 5a 3d
       0.01504461 -0.09660286 -0.036944214 0.053240083
0002d0 2b 07 92 3d 24 1f 9c 3d 47 21 cc bd 65 11 94 bd
       0.071302734 0.07623127 -0.09967285 -0.0722988
0002e0 60 16 01 3e 6b af 0f be b0 06 22 3d 0c e5 ad bd
       0.12606192 -0.1403176 0.03955716 -0.08490953
0002f0 9b f4 f3 3c 92 d1 8f bd df 1a 3f bc 57 8e 00 3d
       0.029779723 -0.07022394 -0.011664121 0.031385746
000300 be 5e aa bd a6 f0 e2 3d 3c e0 64 3c b3 90 71 3d
       -0.08318852 0.11081056 0.013969477 0.058975887
000310 0c b5 ae bd 61 06 b1 3d 39 dc 60 3d 42 1e 16 bd
       -0.08530626 0.08643795 0.05489752 -0.03664995
000320 7d f5 bd bd 9c b5 af bd 46 36 d1 bd 40 17 04 be
       -0.09275339 -0.08579561 -0.1021543 -0.12899494
000330 4a be 9c 3d 1c 90 89 bd c8 ea 6d 3d 9d 4c 73 3c
       0.07653482 -0.0671694 0.058085233 0.014849809
000340 da d8 09 be f2 c7 70 be 7a a6 32 bd d9 e3 36 bd
       -0.13461629 -0.23513773 -0.043615796 -0.044650886
000350 ca 04 c4 3c 1c ea 0e be 90 33 14 bd c4 56 37 3d
       0.023928065 -0.13956493 -0.036181986 0.04476048
000360 ce 7a e6 3c b7 ff e6 bd c2 7d 0d 3e 77 07 fd bc
       0.02813473 -0.112792425 0.13817504 -0.030887349
000370 ae ec 5f 3d d6 95 86 3d 71 68 34 bd 7d 92 8e bd
       0.054669075 0.06571548 -0.044044916 -0.06961534
000380 27 96 08 be b8 4e 2f 3e bf 53 77 bd 59 c8 f1 3d
       -0.13338529 0.17119873 -0.0603826 0.118057914
000390 46 83 8d bd dd fe 48 3d c3 89 ab 3c 81 da 5b bd
       -0.06909804 0.04907118 0.020939713 -0.05367518
0003a0 0f 99 36 bd a1 83 6c bd e3 ae 74 3d 7c d3 a8 3d
       -0.04457956 -0.05774272 0.059737097 0.082434624
0003b0 9e 2f 27 bc 65 57 d5 bd 94 47 0d be 92 a3 63 bd
       -0.010204224 -0.1041706 -0.13796836 -0.055575915
0003c0 fb 9e 31 3d f5 f2 8f 3d 29 dc f4 3d bf aa 6d 3d
       0.043364506 0.07028762 0.11956055 0.058024164
0003d0 fe 29 17 be 4f ef 12 bd b1 f6 c0 3d d6 11 80 3d
       -0.14762112 -0.035872754 0.09422053 0.06253402
0003e0 55 6d 0a be a9 78 16 be 7b 1c ff bd 96 52 c1 bc
       -0.1351827 -0.14694466 -0.12456604 -0.02359895
0003f0 2f 5f ee bd 22 c1 eb 3d e7 e2 0a bd 13 6a ae 3d
       -0.116392486 0.115114465 -0.033907797 0.08516326

G.0.linears.1.bias f4 [32]
000000 9a 39 41 bd 59 be 56 3d a2 9a 20 3d 03 8b 2f bc
       -0.047174074 0.052427623 0.03920997 -0.010714295
000010 88 42 a4 3c 41 93 73 3d 4f 21 8b 3d aa 01 3c 3d
       0.020051256 0.059466604 0.067934625 0.045900024
000020 43 e7 d4 3d b1 45 75 bd 04 47 60 bd cf 1b 16 bd
       0.10395672 -0.059880916 -0.054755226 -0.036647614
000030 7f 04 8d 3d 02 30 a1 bd 20 73 88 bd de aa 91 bd
       0.06885623 -0.07870485 -0.06662583 -0.071126685
000040 05 cf f2 bb 76 7d 33 bd 6b 97 ee 3c f5 83 96 bd
       -0.0074099326 -0.04382082 0.029124936 -0.073493876
000050 33 03 e7 3d a1 7b 2e bd 28 9f 81 bc 0b 37 1d bd
       0.11279907 -0.04259837 -0.015822962 -0.03838257
000060 f8 60 2d bd 06 43 81 bd d5 8a 8e 3d ec e5 5b bc
       -0.042328805 -0.06311612 0.06960074 -0.013421517
000070 8b 25 d0 bb f2 b8 9b 3d f8 ce 8d bd b3 f9 94 bc
       -0.0063521317 0.07603635 -0.06924242 -0.018185472

G.0.linears.2.weight f4 [10, 32]
000000 28 bf 34 bc 99 23 81 bd e1 ac 29 3c f8 7c f0 bd
       -0.011031903 -0.06305618 0.010356159 -0.11742586
000010 bb 39 66 3d cd a5 73 be bb 8f 08 3e df eb dc 3d
       0.0562074 -0.23793717 0.13336079 0.10787176
000020 d7 c5 ac 3c e2 5a 09 be c9 67 33 3d 10 ff 89 3d
       0.021090431 -0.13413575 0.04380015 0.067381024
000030 ae 49 1c 3c 3d d2 0d 3e 5f 52 91 bd 8a 4e e2 bd
       0.009539051 0.13849731 -0.07095789 -0.110501364
000040 8b 2f dc 3c 89 78 a8 bd 19 0d b9 3d fa f0 7b bd
       0.026878139 -0.08226115 0.09035701 -0.06150911
000050 1c 91 6d be ce 8b 55 3e 06 32 1c 3d 11 4e 96 bc
       -0.23199886 0.20854113 0.038133644 -0.018347772
000060 b3 7d dc 3b 3f 26 d3 3d 93 5b 8c 3d 84 7a 7d 3c
       0.0067288517 0.10310029 0.06853404 0.0154711045
000070 d8 81 f2 3d 23 85 07 3e 56 44 2d be 18 01 da 3b
       0.11841172 0.13234381 -0.169206 0.0066529624
000080 03 11 9d 3d 7b b8 bc bc ed 80 ba bc 1e 77 a8 bd
       0.0766926 -0.023037186 -0.022766555 -0.08225845
000090 4d 2e 02 3e a8 f9 9e 3d 96 3e 97 3c a2 fa 19 3e
       0.12712975 0.07762462 0.01846246 0.15037015
0000a0 5d 25 1d bd b5 26 20 be 70 87 6d 3c e8 2c b8 bc
       -0.03836571 -0.15639766 0.014497623 -0.02248235
0000b0 10 37 40 bd 8f cc ba bd 83 b3 26 bd f6 87 62 3e
       -0.04692751 -0.09121048 -0.04069854 0.22122177
0000c0 0a a4 7e bd f4 e3 04 3e de 7d 03 3e c6 84 7e bd
       -0.06216816 0.12977582 0.12840983 -0.06213834
0000d0 94 a6 cb bd 1a 2c f1 3b f3 33 ff bd bb 43 a8 3d
       -0.09943882 0.0073599936 -0.124610804 0.082160436
0000e0 5b 51 c8 bb 04 e1 ff bd 8e 7e 09 3d db a6 76 3c
       -0.006113214 -0.1249409 0.033567958 0.01505443
0000f0 ac e2 68 3e 4b a3 53 bd 61 01 d2 3b 70 5f 7f bb
       0.22742718 -0.0516694 0.006408856 -0.0038966797
000100 7a 77 4a bd df 42 02 be 9e 75 61 be 45 06 6b 3e
       -0.049430348 -0.12720822 -0.22017524 0.2295161
000110 99 5f e8 bd ea 5e b1 3d d4 9c e8 3d 2a 11 14 3d
       -0.11346359 0.086606815 0.113580376 0.03614918
000120 c0 05 01 3e 7f 3b 0b be cf f2 87 3c 92 99 61 bd
       0.1259985 -0.13596915 0.016595272 -0.055078097
000130 4e af bd 3d 14 8e bb 3d e9 10 22 bd d0 84 21 be
       0.09261952 0.091579586 -0.039566908 -0.1577332
000140 40 44 44 3c 28 5d 1d 3e eb f6 83 bd 9c c5 15 3e
       0.011979163 0.15367568 -0.0644358 0.14626163
000150 69 bb 49 3d ac 2d 11 be 91 34 24 3d 27 9c f2 3c
       0.049250994 -0.14177579 0.040089194 0.029615475
000160 3f dc 18 3e ca 3c cd bd a1 e2 8f 3d 58 d6 d1 bd
       0.14927767 -0.1002136 0.07025648 -0.10245961
000170 36 01 09 bc 28 f6 b0 3d f2 ce 5e bd 6a f3 87 3d
       -0.008362105 0.086407006 -0.054396577 0.066382244
000180 53 af 4f 3d 30 c3 f8 bd a4 54 1c 3e a8 01 18 3e
       0.05070431 -0.12146604 0.15266663 0.14844382
000190 a2 b9 4e 3e b5 1f 9b bd ec 21 f5 bd 25 79 de 3d
       0.20188001 -0.07574407 -0.11969361 0.1086295
0001a0 36 00 9b 3d c8 14 e9 bc 3e 8c 4d bd f5 e8 60 3d
       0.075683996 -0.028452292 -0.050182573 0.054909665
0001b0 c6 d1 d9 3d 5e a3 8e 3d 02 37 af 3c 5c 35 3a 3c
       0.10635714 0.069647536 0.021388534 0.011365261
0001c0 78 52 32 bd 15 de a4 bd 09 a5 c4 3d 94 65 06 3d
       -0.04353568 -0.08050171 0.096017905 0.032811716
0001d0 11 b7 75 3d 10 d9 24 bd f1 8a 9e bd 69 28 8a bd
       0.05998904 -0.04024607 -0.07741345 -0.06745989
0001e0 9b ba b2 3d 3d bd 6f bd fd e7 a0 bc eb 32 08 bd
       0.087269984 -0.05853008 -0.01964187 -0.033251684
0001f0 1c ad 88 3d 84 c1 03 3e 84 b0 4a 3c a2 85 a5 bb
       0.06673643 0.12866789 0.012371186 -0.0050513307
000200 f3 84 00 3e cb 74 8d 3d dc 13 d1 3c ad da db bc
       0.12550716 0.06907042 0.025522165 -0.026837671
000210 17 d2 17 bb 5c 7e 08 be f8 5a 68 3d 0e e8 60 3d
       -0.0023165995 -0.13329452 0.05672738 0.054908805
000220 5b 0c 53 be c2 3b 83 3d 82 84 75 3d 2d ca 9d bd
       -0.20610182 0.06407882 0.059940822 -0.077045776
000230 44 c5 3f 3e c3 26 c6 bd 97 51 36 bc 2c 11 68 be
       0.18727595 -0.09675362 -0.011127851 -0.226628
000240 11 66 cf bd 19 a5 e1 3b 78 50 dd bd f1 f9 1e bd
       -0.101268895 0.0068861363 -0.10806364 -0.03881258
000250 f8 1a 52 3d d9 a3 51 3d a8 bb 85 3d 9b d7 50 bb
       0.05129525 0.051181648 0.06529933 -0.0031866792
000260 fb 30 ad bd 5c 9d 9b bd a1 b2 b1 bd 57 73 64 3d
       -0.08456608 -0.07598373 -0.08676649 0.05577406
000270 5c 6f b6 bc 1d e3 c6 bd de 9a a5 3d d0 29 33 be
       -0.022269897 -0.09711287 0.08086179 -0.17496419
000280 30 a1 37 3d 6d ef 46 3d 39 20 00 3e d5 ab 04 3d
       0.044831455 0.048568178 0.12512292 0.032390434
000290 49 63 a4 bd 0b 12 53 bc 6e 38 13 be 0d 57 d1 bd
       -0.0802675 -0.01288272 -0.14376995 -0.10221682
0002a0 5a 31 1c 3d 7a 19 c1 bd fc 08 06 be b8 e5 25 3d
       0.038133003 -0.094286874 -0.13089365 0.04050228
0002b0 15 e6 0f bd f7 d4 a2 3d dc f3 d9 bd 5c ba 33 3d
       -0.035131533 0.07950776 -0.106422156 0.043878898
0002c0 3f 31 e6 bd 98 7d 11 3d ab fc 96 3d 10 5c a4 3d
       -0.11239862 0.035520166 0.07372411 0.08025372
0002d0 c6 76 c6 bd 52 6a 3c be 77 1d 36 bd b3 5d ab bd
       -0.09690623 -0.18399933 -0.044461694 -0.08367481
0002e0 6a 0f 83 bd ca 6e 34 be 81 52 82 be 2b f0 a1 3e
       -0.063994244 -0.17620388 -0.2545357 0.31628546
0002f0 5f b3 2a 3d 8f 6c 62 bd 6a 45 ab bd a9 d6 05 be
       0.041674968 -0.05527931 -0.08362849 -0.13070168
000300 a0 49 0d 3e 86 a9 8a 3c f8 dd 4b 3c fd 6e 4b bc
       0.13797617 0.016926538 0.012443058 -0.012416598
000310 d7 11 db bc a4 4a 96 3d 7d af ef bc 26 19 45 bd
       -0.026741905 0.07338455 -0.029258484 -0.048119687
000320 4d 4f 63 bd 1b fe 75 3c 89 3b 53 bc eb 1f 3e bc
       -0.05549555 0.015014197 -0.012892612 -0.0116042895
000330 17 a2 d1 3c 8e 49 fb 3d c0 0c 8c bc 25 27 0b 3e
       0.025589986 0.12269889 -0.017095923 0.13589151
000340 24 25 06 3d a6 70 36 3d 56 0c cd 3c c4 19 e7 bd
       0.032750264 0.044541024 0.025030296 -0.11284211
000350 16 b5 fd 3a 4a 94 82 3b 40 5f 2e be e2 83 a4 bd
       0.0019356336 0.0039849626 -0.17028522 -0.08032967
000360 8e 9a 1a 3d 00 9b 66 3d b6 8e d3 bd 89 fe 24 3e
       0.03774505 0.056300163 -0.10329954 0.16112722
000370 be fc 21 bc 2c a9 1e 3e a0 a5 55 bd 94 f0 ea 3c
       -0.009886919 0.15494221 -0.052159905 0.02867917
000380 b2 64 00 bd 01 9c cb bb 77 67 ed 3c a5 a4 2d 3e
       -0.03134603 -0.0062136655 0.02898 0.16957338
000390 e3 80 24 3c a8 ed 56 3e c5 f0 0b be 5a c7 87 3b
       0.010040495 0.20989096 -0.13666065 0.0041436376
0003a0 ad a9 23 3e aa bb 8e 3e e6 14 89 bd b5 12 b0 3d
       0.15982695 0.2787755 -0.06693439 0.08597318
0003b0 3a 8c 13 3d a0 de 97 37 e2 aa 0b 3d b6 1a 62 3d
       0.036022402 1.810427e-05 0.034098513 0.055201255
0003c0 79 c7 d6 bd 9d 37 f1 bd 30 73 ee bd 02 1a e7 bc
       -0.10487265 -0.117781855 -0.11643064 -0.028210644
0003d0 37 81 67 be b0 d6 09 be 3b f0 52 be ff cf 41 bd
       -0.22607885 -0.13460803 -0.20599453 -0.0473175
0003e0 ea 4e 65 be 9c 1e a3 3d 0f a0 c4 3c b1 52 53 3d
       -0.22393385 0.07964823 0.024002103 0.051592533
0003f0 ff 71 31 bd 60 d3 be 3d 20 04 4f 3d 59 66 38 bd
       -0.043321606 0.0931766 0.050541043 -0.04501948

G.0.linears.2.bias f4 [10]
000000 b2 5f fa 3c fa 8f 8d bb 15 14 ad bd be 54 60 bd
       0.03056321 -0.004320142 -0.08451096 -0.054768316
000010 c1 1e 73 3c a4 25 21 bd 02 33 b0 3d ee 78 a2 bd
       0.014838875 -0.039342538 0.08603479 -0.07933222
000020 72 31 b4 bd ff 23 bb bd
       -0.087984934 -0.09137725
