para_save2/00019params.pth (torch, 118145 bytes, 76 tensors)

F.linears.0.weight f4 [32, 20]
0	0x3d191860	0.03737676
1	0xbdc9672d	-0.09834132
2	0xbd3deeee	-0.04637044
3	0x3ce0aacd	0.027425194
4	0x3c25c650	0.010118082
5	0x3d09ce56	0.033644043
6	0xbd859aca	-0.06523664
7	0xbc911902	-0.01771212
8	0x3c0f1625	0.008733307
9	0x3d49913e	0.04921078
10	0x3d60b7d5	0.054862816
11	0x3e205634	0.15657884
12	0xbe4aa05a	-0.19787732
13	0x3db34638	0.087536275
14	0x3e1f49b3	0.15555458
15	0x3e099945	0.13437374
16	0xbe0a5b91	-0.13511492
17	0x3c9e369e	0.019313153
18	0xbe143f13	-0.14477186
19	0x3d2fc66d	0.042913843
20	0x3db44c24	0.08803585
21	0x3c21fe15	0.009887238
22	0xbd1a15e5	-0.037618537
23	0xbd9b978d	-0.075972654
24	0xba4f79b1	-0.0007914557
25	0xbcbadb72	-0.022809718
26	0x3d7f0465	0.06226005
27	0x3d2b7ac4	0.041865125
28	0xbdeb5f60	-0.11492801
29	0xbd2f250c	-0.04275994
30	0x3e5ff3f8	0.2187041
31	0x3d8b3680	0.067975044
32	0xbd5ecbfd	-0.054393757
33	0x3dad95cb	0.08475836
34	0xbdbdc5da	-0.09266253
35	0x3d169f3c	0.03677295
36	0xbd539cc9	-0.051663194
37	0x3e7165ed	0.23574038
38	0x3e1103d8	0.14161623
39	0x3c350366	0.0110481735
40	0xbd9df89a	-0.077134326
41	0x3e7aa01e	0.24475142
42	0xbe02ca94	-0.1277259
43	0xbc78237e	-0.015145181
44	0x3db38707	0.08765989
45	0x3e226487	0.1585866
46	0x3ae248bc	0.0017264108
47	0x3d5cd88f	0.053917464
48	0xbdfdea11	-0.1239816
49	0x3ce700b3	0.028198576
50	0x3cf35345	0.029702792
51	0xbe1d79af	-0.1537845
52	0xbd756154	-0.059907272
53	0xbd13b34f	-0.036059674
54	0xbd8e59e1	-0.06950737
55	0xbe59912b	-0.21246783
56	0xbd683c0b	-0.056697886
57	0xbe0046ea	-0.12527052
58	0x3dea6e6f	0.11446845
59	0x3da59a18	0.08086032
60	0x3973a40e	0.00023235401
61	0x3cacdc6d	0.021101201
62	0xbc2c765a	-0.010526264
63	0xbcaaeab1	-0.020863863
64	0x3d2bc547	0.041936185
65	0x3c3920bc	0.011299308
66	0x3e185cad	0.14879103
67	0x3dbb2d81	0.091395386
68	0x3e80fec4	0.2519437
69	0x3d51a76c	0.051185057
70	0x3dda6894	0.10664478
71	0x3d732603	0.059362423
72	0x3d8e0977	0.06935399
73	0x3d31dfdd	0.043426383
74	0xbdd0b548	-0.10190827
75	0x3e5535c3	0.2082129
76	0xbe03aa79	-0.12857999
77	0x3e2f05e9	0.17092098
78	0xbe1b6f23	-0.15179114
79	0xbd45b8c7	-0.04827192
80	0x3e4bc160	0.19897985
81	0x3c8b16c5	0.01697863
82	0xbe89ba5e	-0.269
83	0xbd22750b	-0.039662402
84	0x3da41865	0.080124654
85	0x3db76a7c	0.08955857
86	0xbda39254	-0.07986894
87	0x3d0f2116	0.034943663
88	0xbd58b2ee	-0.052905016
89	0xbb911e67	-0.004428673
90	0x3d6e1354	0.0581239
91	0xbdf60ccd	-0.1201416
92	0x3d8905e9	0.066905804
93	0x3e0182d1	0.12647559
94	0xbe47d43e	-0.19514558
95	0xbc0bb145	-0.008526151
96	0x3c17bfe8	0.009262063
97	0x3cca13f2	0.024667714
98	0xbd9d8ada	-0.076924995
99	0x3d9ec091	0.07751573
100	0xbd879c8d	-0.066216566
101	0xbd997250	-0.074925065
102	0x3c8fc691	0.017550739
103	0xbcc7353e	-0.02431738
104	0x3bce9932	0.0063048834
105	0x3d9fe1ef	0.07806765
106	0x3c33673a	0.010949904
107	0xbe0158d5	-0.12631543
108	0xbdd48ab5	-0.10378019
109	0xbe369f21	-0.1783414
110	0x3e353c67	0.17698823
111	0x3e1552d0	0.14582372
112	0x3d230bca	0.039806165
113	0x3c8a23a0	0.01686269
114	0xbd9a24cc	-0.0752655
115	0x3e487e4a	0.19579425
116	0xbdc960f9	-0.09832949
117	0xbdbf5842	-0.09343006
118	0xbbf11c77	-0.0073581296
119	0x3e102f93	0.14080648
120	0xbd135e33	-0.035978507
121	0x3b16851a	0.0022967518
122	0x3e4eae81	0.20183755
123	0xbd96d9e6	-0.073657796
124	0xbda43b1d	-0.080190875
125	0x3d0b4b60	0.03400743
126	0x3df0d5db	0.1175954
127	0xbe492c33	-0.19645767
128	0xbd552bc9	-0.05204371
129	0xbd2b3c43	-0.041805517
130	0xbcaf038b	-0.021363994
131	0x3c5d6ddb	0.013514961
132	0xbded4e49	-0.11587197
133	0xbda2340b	-0.07920083
134	0xbd6417cc	-0.055686757
135	0xbe55a4f7	-0.2086371
136	0xbd71fe91	-0.059080664
137	0xbd81767f	-0.063214295
138	0x3c5c5114	0.013447065
139	0x3ce7434b	0.02823033
140	0xbd429b77	-0.047511544
141	0xbb83acf9	-0.0040184227
142	0xbdafcd97	-0.08584135
143	0xbd1cf81f	-0.038322564
144	0xbdeab658	-0.114605606
145	0xbd1c2d71	-0.038129274
146	0xbe0bdcc6	-0.13658437
147	0xbdac260b	-0.084056936
148	0xbe253dfd	-0.16136928
149	0x3dc1d31f	0.09464096
150	0x3dbb0ab5	0.091329016
151	0x3e4d0ece	0.20025179
152	0x3e0b9c16	0.13633761
153	0xbda009dc	-0.078143805
154	0x3c561851	0.013067321
155	0xbcbbd10c	-0.02292683
156	0x3e32462c	0.17409581
157	0xbd0e7573	-0.034779977
158	0x3dab426d	0.08362279
159	0x3d38d19f	0.045121785
160	0x3d077439	0.033069823
161	0xbdb956a3	-0.09049728
162	0xb98e5b66	-0.00027152448
163	0xbd98b88c	-0.074570745
164	0xbccaaff9	-0.024742113
165	0xbc19405b	-0.009353722
166	0xbde979fe	-0.11400221
167	0x3de54174	0.11194125
168	0x3dce2c6d	0.10067067
169	0x3d29c7be	0.041450255
170	0xbde9e425	-0.11420468
171	0xbd9cbbb4	-0.07652989
172	0x3d5c764b	0.05382375
173	0x3d9ee985	0.07759384
174	0x3c3dfcb7	0.011595896
175	0xbd1c0738	-0.03809282
176	0xbcfe1b00	-0.031018734
177	0x3e49c061	0.19702293
178	0x3ccb6388	0.024827734
179	0x3cc8cefe	0.024512764
180	0xbe3a2b0f	-0.18180488
181	0x3d32db5f	0.04366624
182	0x3d79d82b	0.06099717
183	0xbda7960e	-0.081829175
184	0x3c63bcce	0.013899995
185	0xbe36fc64	-0.17869717
186	0x3dae65c2	0.085155025
187	0x3d2d2f1a	0.042281248
188	0xbc7885bf	-0.015168606
189	0x3d37772d	0.04479139
190	0xbdae98b5	-0.0852522
191	0xbdd10183	-0.102053665
192	0x3d41d922	0.047326215
193	0xbdc30752	-0.095228806
194	0xbde793b9	-0.11307473
195	0x3ceca04c	0.02888503
196	0xbdc0debd	-0.09417484
197	0x3dbe2677	0.0928468
198	0x3cb18aff	0.021672724
199	0x3d787050	0.060653985
200	0x3ca2ec04	0.019887932
201	0xbd197b56	-0.037471138
202	0x3c1630d6	0.009166917
203	0x3aeb9aa6	0.0017975166
204	0x3c7b1973	0.015325892
205	0xbcf32154	-0.029678978
206	0x3b7f76c8	0.0038980711
207	0x3c85aeb3	0.016318655
208	0xbe51835d	-0.20460267
209	0xbe19f1c7	-0.15033637
210	0xbdab43fb	-0.083625756
211	0x3c33bf5e	0.010970918
212	0xbd3fa48f	-0.046787795
213	0x3bf44f29	0.0074557257
214	0xbd2c221f	-0.042024728
215	0x3dff78e0	0.12474227
216	0x3d8d8b2a	0.06911309
217	0x3d7329af	0.059365924
218	0xbd8c5b00	-0.068532944
219	0x3d52f94a	0.05150727
220	0x3c8d0f55	0.017219225
221	0xbbe530ac	-0.0069943275
222	0x3e242eab	0.16033427
223	0xbd8ee740	-0.06977701
224	0xbd8b219e	-0.06793521
225	0x3def606f	0.11688315
226	0x3dd4bf68	0.1038807
227	0xbd7e3463	-0.06206168
228	0xbd8bee1b	-0.068325244
229	0xbd82c6fa	-0.06385608
230	0x3ca47e98	0.020079896
231	0x3d8592e1	0.065221556
232	0xbdc06c5a	-0.093956664
233	0x3da4f564	0.08054617
234	0xbd5930c5	-0.053025026
235	0xbdb98505	-0.090585746
236	0x3d8e4700	0.06947136
237	0xbdfe91f9	-0.12430186
238	0xbe49463e	-0.19655702
239	0xbd9961e6	-0.07489376
240	0x3dd2f73d	0.10301063
241	0xbd04acc2	-0.032391317
242	0x3dccd829	0.10002167
243	0x3e0a4a54	0.13504916
244	0x3dfb9c6c	0.122856945
245	0xbcfa34fa	-0.03054284
246	0x3e38da02	0.18051913
247	0x3cc026d1	0.02345601
248	0xbdd7174e	-0.10502492
249	0xbd94dc16	-0.072685406
250	0xbe7af725	-0.2450834
251	0x3d1d86f1	0.03845877
252	0x3deae50c	0.114694685
253	0x3d0fbaaf	0.035090145
254	0xbd879687	-0.06620508
255	0x3da58d0d	0.08083544

F.linears.0.bias f4 [32]
0	0x3c7e7b78	0.015532367
1	0x3c86c32a	0.016450483
2	0x3d65b83f	0.056083914
3	0x3d4aa6ec	0.049475595
4	0x3d765185	0.060136337
5	0x3db8ce00	0.090236664
6	0xbd58b398	-0.05290565
7	0x3d2fb73a	0.042899348
8	0xbdb8b54f	-0.09018957
9	0x3d9fd1fc	0.07803723
10	0xbd07eaf4	-0.033183053
11	0xbd0d5440	-0.034504175
12	0xbd1e4d9c	-0.038648233
13	0x3d9fba03	0.07799151
14	0x3cee922f	0.02912244
15	0x3ccf7f4a	0.02532925
16	0xba1c0b58	-0.0005952618
17	0x3ccbcfe9	0.024879413
18	0xbdb34d3a	-0.08754964
19	0xbd84399f	-0.06456303
20	0xbdd3f7cb	-0.10349997
21	0x3d6fad2c	0.05851476
22	0x3cb0bdf5	0.021574954
23	0xbcd94d1a	-0.026526023
24	0xbd4cd0c7	-0.050003793
25	0xbc443f94	-0.011978049
26	0x3c91c3c0	0.017793536
27	0x3dbb7516	0.09153192
28	0x3d76e878	0.060280293
29	0x3d3ae8d8	0.045632213
30	0x3dbbd51d	0.091715075
31	0x3d759248	0.059953958

F.linears.1.weight f4 [32, 32]
0	0xbe828ca4	-0.25497925
1	0xbdc98a7b	-0.09840866
2	0xbc754f69	-0.014972546
3	0x3e051d8e	0.12999555
4	0xbdd8054a	-0.10547884
5	0x3b938a4a	0.0045025693
6	0x3e6a09d5	0.22855313
7	0x3cf7f1a7	0.030266596
8	0xbe47f258	-0.1952604
9	0x3e245713	0.16048841
10	0xbcb52f27	-0.02211721
11	0x3dda51e1	0.106601484
12	0xbdb8edf0	-0.09029758
13	0xbdd7b01f	-0.10531639
14	0xbd003ded	-0.031309057
15	0x3b690653	0.0035556748
16	0x3d3105f3	0.043218564
17	0xbcff0964	-0.031132407
18	0xbe05d48c	-0.13069361
19	0xbd8bcc64	-0.06826094
20	0x3d9502fd	0.072759606
21	0x3e256aba	0.16153994
22	0x3cee758e	0.029108789
23	0x3d85d007	0.06533819
24	0xbd933ed2	-0.071897164
25	0x3d9fcfec	0.0780333
26	0x3d79b591	0.06096417
27	0x3c192a59	0.009348475
28	0xbaf6551f	-0.0018793679
29	0x3d386f9e	0.04502832
30	0xbe058582	-0.1303921
31	0xbdfe9941	-0.124315746
32	0xbd4c868c	-0.049933
33	0x3daa80a0	0.083253145
34	0x3e6051b0	0.21906161
35	0x3d31d9e4	0.043420687
36	0x3e1107c2	0.14163116
37	0xbd87aa44	-0.066242725
38	0xbd0b1ea2	-0.03396476
39	0xbe0b6368	-0.13612139
40	0xbd1c9b09	-0.03823379
41	0x3dc08a0f	0.094013326
42	0xbc662a4e	-0.014048172
43	0xbe527e1c	-0.2055592
44	0x3e7e8535	0.24855502
45	0x3df5a71e	0.11994766
46	0x3bfb4c37	0.0076689976
47	0xbd8d6ead	-0.06905875
48	0xbd714c3e	-0.0589106
49	0x3dfdc5ad	0.12391219
50	0xbd8c3a1f	-0.06847023
51	0x3dd1a14a	0.102358416
52	0xbd84be07	-0.06481557
53	0x3c8ad057	0.016945047
54	0x3d3bc820	0.04584515
55	0x3d51b04d	0.051193524
56	0x3b6c4514	0.0036051916
57	0x3b81ceb3	0.003961408
58	0xbda7ac33	-0.08187141
59	0x3d161e62	0.03665007
60	0x3e154600	0.14577484
61	0x3b43494a	0.0029798322
62	0xbd87be44	-0.06628087
63	0x3d9d17cc	0.076705545
64	0xbd954bb4	-0.0728983
65	0x3cd84b3b	0.02640306
66	0xbd33e96b	-0.043923777
67	0x3d238b87	0.039927986
68	0x3cd4306d	0.025901997
69	0xbdc9266f	-0.09821784
70	0xbcf61aba	-0.030042041
71	0xbcbfb97d	-0.023403877
72	0xbe2139ae	-0.1574466
73	0x3dbfb088	0.093598425
74	0x3d397549	0.045277867
75	0xbd8acdfe	-0.06777571
76	0xbd4722cf	-0.04861718
77	0x3d1e9122	0.03871263
78	0x3d934cc3	0.071923755
79	0x3d98aae8	0.07454473
80	0x3cb2f9b0	0.021847576
81	0xbd0ee8cb	-0.034889977
82	0xbe585791	-0.21127154
83	0x3db4f843	0.08836415
84	0xbe479e4a	-0.19493976
85	0xbc2e88b0	-0.010652706
86	0xbdccde9f	-0.10003399
87	0x3d8e7c8f	0.069573514
88	0xbd91b8e1	-0.07115341
89	0xbe0dda0e	-0.13852713
90	0x3d3b3c72	0.045711942
91	0xbd23d71a	-0.04000006
92	0xbcd248c4	-0.025669463
93	0xbd76d769	-0.060264025
94	0xbda35637	-0.079754286
95	0xbdb37476	-0.087624475
96	0xbdb8ecd9	-0.0902955
97	0xbc0682e3	-0.008209917
98	0xbbe11cba	-0.0068698796
99	0xbcf66a39	-0.030079948
100	0x3d051973	0.032494973
101	0x3d0b9281	0.034075264
102	0xbc105286	-0.008808738
103	0xbe28777b	-0.16451828
104	0xbdcc79ac	-0.099841446
105	0xbde02c70	-0.10945976
106	0xbd3245ff	-0.043523785
107	0x3d9228ef	0.07136714
108	0xbd1f8eaa	-0.038954414
109	0xbd0eaa56	-0.034830414
110	0xbe00b51f	-0.12569092
111	0x3d57a85a	0.052650787
112	0xbe2bcda2	-0.16777661
113	0xbda0f88b	-0.07859906
114	0xbda245d1	-0.07923473
115	0x3c761aaa	0.015021006
116	0xbd8edab0	-0.06975305
117	0x3b8a2c72	0.004216724
118	0x3d3217ee	0.043479852
119	0x3df6d086	0.120514914
120	0xbe0a770e	-0.13521978
121	0x3dee90c5	0.11648706
122	0xbdb5760a	-0.08860405
123	0x3dcf1494	0.10111347
124	0x3d64d483	0.05586673
125	0xbc65edf2	-0.014033781
126	0xbcc3e9db	-0.023915222
127	0x3de52648	0.11188942
128	0x3d2294d6	0.039692722
129	0xbcc2e942	-0.023792867
130	0xbd8e9d27	-0.06963568
131	0xbd7935cd	-0.060842324
132	0xbda62d56	-0.08114116
133	0x3d79b863	0.06096686
134	0x3dbfe7dd	0.09370396
135	0x3cb2401d	0.021759087
136	0xbda9a7dd	-0.082839705
137	0x3df51dae	0.119685516
138	0xbd66106f	-0.056168016
139	0x3e127aae	0.14304611
140	0xbd289ec9	-0.041167054
141	0x3bf9874d	0.007615006
142	0x3d372cb0	0.04472035
143	0xbdacc284	-0.084355384
144	0xbc238470	-0.009980306
145	0xbd5bfe6f	-0.053709444
146	0x3da52f49	0.080656596
147	0x3e632c63	0.22184901
148	0xbe335a49	-0.1751491
149	0x3d62769a	0.05528889
150	0x3cf9b1e9	0.030480342
151	0x3c1e600f	0.009666457
152	0x3e04aaaf	0.12955736
153	0x3d3628c9	0.04447249
154	0x3dc60348	0.096685946
155	0xbd78e04b	-0.060760777
156	0x3e0e5b4b	0.13902013
157	0x3db67629	0.08909256
158	0xbdfb4fca	-0.12271078
159	0xbd0e0618	-0.03467378
160	0x3e5ac61c	0.21364635
161	0x3e4ca0e1	0.19983245
162	0x3da74664	0.08167723
163	0xbe06a360	-0.1314826
164	0xbe0488ab	-0.1294276
165	0x3e498c08	0.19682324
166	0xbcaf97d5	-0.021434704
167	0xbcbdd327	-0.023171974
168	0xbc6aa3e3	-0.0143213
169	0x3ba61bc9	0.00506923
170	0xbc5c1f2c	-0.013435166
171	0xbdf9a9f8	-0.12190622
172	0xbe0b1dfe	-0.1358566
173	0xbdbca991	-0.0921203
174	0xbd416019	-0.047210786
175	0xbd2f1256	-0.042742096
176	0xbd3b9244	-0.045793787
177	0x3d685af8	0.05672738
178	0xbe4180d6	-0.18896803
179	0xbd2868be	-0.041115515
180	0xbd2f36a0	-0.042776704
181	0xbe1b8c10	-0.15190148
182	0xbe353600	-0.1769638
183	0x3e0c7be7	0.1371914
184	0xbd952c0c	-0.07283792
185	0xba01187e	-0.0004924609
186	0x3d973b47	0.07384353
187	0x3e15a67e	0.14614293
188	0xbdba5755	-0.090986885
189	0xbd1a5b1f	-0.037684556
190	0xbd5323d7	-0.05154785
191	0xbc58ea1d	-0.013239411
192	0xbe5f0b02	-0.21781543
193	0xbe0fd990	-0.14047837
194	0xbe133b4b	-0.14378087
195	0x3e1298aa	0.14316049
196	0x3c757ec9	0.014983841
197	0xbda7526b	-0.08170017
198	0x3e57765e	0.21041247
199	0x3d5d6cb6	0.054058753
200	0x3c8a3a8e	0.016873624
201	0xbd4b3e53	-0.049619984
202	0x3dfa26a5	0.12214402
203	0x3e150479	0.14552487
204	0xbde06bd2	-0.10958065
205	0xbe3a8846	-0.18216047
206	0x3cd1f772	0.025630686
207	0x3c565832	0.013082551
208	0x3dbbf3d7	0.09177368
209	0xbd930689	-0.07178981
210	0xbd983984	-0.07432845
211	0xbd27fc17	-0.041011896
212	0x3d8a0589	0.06739337
213	0xbdd33b85	-0.10314087
214	0xbded6071	-0.1159066
215	0x3cba2d4e	0.022726681
216	0xbd1aaac8	-0.037760526
217	0x3dc88e6c	0.0979279
218	0xbdbcba8a	-0.09215267
219	0xbd521303	-0.051287662
220	0xbdb96a8b	-0.090535246
221	0xbdb1107b	-0.086457215
222	0x3de6c9fb	0.112689935
223	0xbeb7b928	-0.3588345
224	0xbd3554c7	-0.044270303
225	0x3dd204b1	0.10254801
226	0xbde834fa	-0.113382295
227	0xbd018c35	-0.031627852
228	0xbc1f91c9	-0.009739348
229	0xbe28cf66	-0.16485366
230	0xbe36e9bf	-0.17862605
231	0x38c69bbc	9.4703835e-05
232	0x3bffbcbd	0.007804482
233	0xbd1b8f22	-0.0379783
234	0xbe970016	-0.29492253
235	0x3d9eb4c0	0.07749319
236	0x3dd38dbd	0.10329769
237	0x3dd44cc7	0.103662066
238	0x3dbfc6bf	0.0936408
239	0xbd1468bc	-0.036232695
240	0x3df75151	0.12076057
241	0xbd244a24	-0.04010977
242	0xbe09d468	-0.13459933
243	0xbd8883d5	-0.0666577
244	0xbd8c6bf0	-0.06856525
245	0xbc0f4a45	-0.008745735
246	0xbda94b99	-0.08266372
247	0xbc82b3ab	-0.015954813
248	0xbc08fe1b	-0.008361365
249	0x3dd3b9bc	0.103381604
250	0xbd642a38	-0.055704325
251	0xbe3804ed	-0.17970629
252	0xbdaa125a	-0.083042815
253	0x3ddc5931	0.107591994
254	0xbc5186d9	-0.012788498
255	0x3d5b2039	0.053497527

F.linears.1.bias f4 [32]
0	0xbdc55869	-0.096360035
1	0x3d8eee44	0.06979039
2	0x3c98a53a	0.018633474
3	0xbd9541c8	-0.072879374
4	0x3d431401	0.0476265
5	0xbdca78dd	-0.09886334
6	0xbcd9ee05	-0.026602754
7	0x3cea1425	0.028574059
8	0x3dae8307	0.08521085
9	0xbcecfd68	-0.028929427
10	0x3dbcc2be	0.092168316
11	0xbc30f174	-0.010799754
12	0xbc3bbf10	-0.011459127
13	0x3bbad1e7	0.005701292
14	0x3d949107	0.07254224
15	0x3d32a4e6	0.04361429
16	0x39c5bdce	0.00037716184
17	0xbd88ef15	-0.06686226
18	0x3d200f88	0.03907731
19	0x3c88d2f1	0.016702147
20	0xbdb5e384	-0.08881286
21	0xbd97b768	-0.07408029
22	0xbd8ebb2e	-0.069692954
23	0x3c4b09f1	0.012392507
24	0xbd518a30	-0.051157176
25	0xbb59c9d3	-0.003323187
26	0x3d991ca4	0.07476166
27	0xbdcd3970	-0.10020721
28	0xbc9d505b	-0.019203356
29	0xbc313ccf	-0.010817721
30	0xbdb29c7b	-0.087212525
31	0xbccbc71c	-0.024875216

F.linears.2.weight f4 [10, 32]
0	0xbdc8ac59	-0.09798498
1	0xbc2ac9d5	-0.010424097
2	0xbc8937d9	-0.016750263
3	0xbbfa235b	-0.007633609
4	0x3e1d8ab1	0.15384938
5	0xbde70322	-0.112798944
6	0x3b5edb3c	0.0034005186
7	0x3c1ee8ea	0.009699086
8	0x3e1d0294	0.15333015
9	0x3d35d5f4	0.044393495
10	0x3e0ba5c8	0.1363746
11	0x3db37133	0.087618254
12	0xbddb6cb6	-0.10714094
13	0x3d7c548c	0.061604068
14	0xbe0f729e	-0.14008567
15	0x3d1d570b	0.03841309
16	0x3c163119	0.009166979
17	0xbe81e498	-0.25369716
18	0x3ce50fcf	0.02796164
19	0x3da43dad	0.08019576
20	0x3c7852ed	0.01515649
21	0xbdb3f006	-0.08786015
22	0xbe0acde9	-0.13555111
23	0x3dbae954	0.09126535
24	0xbda75b82	-0.081717506
25	0x3e23311f	0.15936707
26	0xbdd0e23e	-0.10199402
27	0xbbd41778	-0.0064725243
28	0xbdab9027	-0.08377104
29	0xbca9a7d7	-0.020709915
30	0x3cd48765	0.025943467
31	0xbdc0ccbe	-0.094140515
32	0x3dbefecc	0.093259424
33	0x3be93338	0.0071167015
34	0xbdd27dbc	-0.10277888
35	0x3db62e71	0.08895577
36	0x3cb9bbef	0.022672622
37	0x3db6c216	0.08923738
38	0xbe2f3657	-0.17110573
39	0x3d3e6ca7	0.046490338
40	0xbdb4986c	-0.08818135
41	0x3da9006e	0.08252035
42	0x3d831d3c	0.064020604
43	0x3ca0e522	0.019640509
44	0xbe2370f5	-0.15961058
45	0xbe22acc9	-0.15886225
46	0xbe2ba377	-0.16761576
47	0xbdb9870e	-0.09058963
48	0x3ca07122	0.019585196
49	0x3e123f5e	0.14281985
50	0xbde90ec2	-0.11379768
51	0x3d84db8b	0.06487187
52	0xbd05fb5b	-0.032710414
53	0xbd30a7af	-0.043128666
54	0x3dcaea55	0.099079765
55	0x3dd8b1d8	0.10580796
56	0xbdd7be10	-0.105342984
57	0xbd9052cd	-0.07047043
58	0x3d62f3a6	0.055408143
59	0x3d2dadb8	0.042402
60	0x3e287f5f	0.16454838
61	0x3d1ccc6c	0.03828089
62	0x3e3f6826	0.18692073
63	0x3e827cda	0.2548588
64	0xbdaf65c9	-0.08564336
65	0xbca8828c	-0.020570062
66	0x3dd19af5	0.10234634
67	0x3e755c39	0.23960961
68	0xbd28c6b9	-0.04120514
69	0x3baa2d34	0.005193377
70	0x3d9579c1	0.07298613
71	0xbe836ac6	-0.256674
72	0x3dc84dfe	0.09780501
73	0xbe1f9e16	-0.15587649
74	0x3caf2a95	0.02138261
75	0x3e07da4e	0.1326687
76	0xbc2b1845	-0.010442798
77	0x3d2788a1	0.040901784
78	0x3db2e391	0.08734811
79	0x3db4b899	0.08824272
80	0x3d96d06b	0.07363971
81	0xbd576c46	-0.052593492
82	0x3e92a5a9	0.28642014
83	0x3db6ca04	0.0892525
84	0x3dbb4d6c	0.091456264
85	0x3d849242	0.06473209
86	0xbcf3d0c4	-0.029762633
87	0xbc7d4714	-0.015458841
88	0x3da34c47	0.07973533
89	0xbd3c1ea8	-0.045927674
90	0xbe50a671	-0.20375992
91	0x3d036298	0.03207645
92	0x3da288f4	0.07936278
93	0xbd9dcbfd	-0.07704923
94	0x3ce70751	0.02820173
95	0xbcf13eeb	-0.029448947
96	0xbd2e4f35	-0.042556006
97	0x3c9991b0	0.018746227
98	0xbd9d0dc5	-0.07668642
99	0xbd27e625	-0.040990967
100	0x3dd5e28f	0.10443603
101	0xbcf39f01	-0.029738905
102	0x3e0a8454	0.13527042
103	0xbda71b72	-0.08159532
104	0xbe1c0191	-0.15234973
105	0x3deded04	0.11617473
106	0x3d57291b	0.052529436
107	0x3c0e0800	0.0086689
108	0x3dc48f0a	0.09597595
109	0x3d126330	0.035739124
110	0x3e8f589b	0.27997288
111	0x3db0d4b0	0.08634317
112	0x3d5f6056	0.054535232
113	0x3d14d4c6	0.03633573
114	0xbdcf7f32	-0.101316825
115	0xbd69e9d0	-0.057107747
116	0xbd21d750	-0.03951198
117	0xbe5831a2	-0.21112683
118	0xbd7b06e9	-0.061285887
119	0x3d84e615	0.06489197
120	0xbb4a55b8	-0.0030873846
121	0xbd554272	-0.05206532
122	0xbdd9ec0f	-0.10640728
123	0xbdccecc4	-0.10006097
124	0xbca8a492	-0.020586286
125	0xbd4957df	-0.049156066
126	0xbc463fcd	-0.012100172
127	0xbc9cf4ce	-0.0191597
128	0x3e8bc20c	0.27296484
129	0xbe1074da	-0.14107075
130	0x3ce92ed1	0.028464707
131	0x3d683029	0.056686554
132	0xbc2b3bf3	-0.010451305
133	0x3d6fb86e	0.058525495
134	0xbe0e7a7b	-0.1391391
135	0xbdbdc507	-0.092660956
136	0x3dc1dde4	0.094661504
137	0xbd3e44fb	-0.046452504
138	0x3d4111c8	0.0471361
139	0xbe6e288e	-0.23257658
140	0xbd0145ae	-0.031560592
141	0xbcbb0b08	-0.022832409
142	0x3d9b4afe	0.07582663
143	0xbd5626fe	-0.05228328
144	0xbd88105f	-0.066437475
145	0x3ac31b89	0.0014885525
146	0xbda6dcf4	-0.08147612
147	0xbc4417cf	-0.011968567
148	0xbc75aad6	-0.014994344
149	0x3bd9507c	0.006631909
150	0x3d055944	0.032555833
151	0x3df3a0a2	0.11895873
152	0xbd1bb7b4	-0.03801699
153	0x3d5e154c	0.05421953
154	0x3dcf5d13	0.101251744
155	0x3e416a6c	0.18888253
156	0x3ca6fca6	0.020384144
157	0x3d771fea	0.06033317
158	0xbd90b9a2	-0.07066657
159	0x3dc7e817	0.097610645
160	0x3da83367	0.08212929
161	0x3d8805fc	0.066417664
162	0x3b838476	0.0040135933
163	0x3b0f1d87	0.0021837668
164	0xbda944d0	-0.08265078
165	0x3db6563e	0.08903168
166	0xbd4197ad	-0.04726379
167	0x3e148371	0.14503266
168	0xbe3865a2	-0.1800752
169	0xbdace823	-0.08442714
170	0xbda25f5d	-0.07928345
171	0x3d4b53db	0.049640518
172	0x3c9c8b2b	0.01910933
173	0x3da55901	0.08073617
174	0x3b319556	0.0027097068
175	0xbc477240	-0.012173235
176	0xbd0a8698	-0.033819765
177	0xbe0aeabd	-0.13566108
178	0xbcc52a1a	-0.024067927
179	0x3e0c50a9	0.13702644
180	0xbcfe63d6	-0.031053465
181	0xbd8d6702	-0.06904413
182	0x3c6cdcd1	0.014456944
183	0xbd1bfced	-0.038083006
184	0x3dfb1bed	0.12261186
185	0xbd047dcd	-0.032346535
186	0x3c4fbd7e	0.012679456
187	0x3ddff947	0.10936218
188	0xbc50008b	-0.012695442
189	0xbadaec63	-0.0016702529
190	0x3d7592fe	0.059954636
191	0x3d178495	0.036991674
192	0xbe3f8d40	-0.18706226
193	0xbc44dc03	-0.0120153455
194	0xbe2203a9	-0.15821709
195	0xbd22a157	-0.039704647
196	0x3dc9514b	0.098299585
197	0xbcce2c10	-0.025167495
198	0xbcf5acca	-0.029989619
199	0xbdcc38b4	-0.09971753
200	0xbe630ae1	-0.22172119
201	0xbdbbe210	-0.091739774
202	0xbde660f2	-0.112489596
203	0x3db22f46	0.08700423
204	0xbd733408	-0.059375793
205	0x3e048648	0.12941849
206	0xbdf0e782	-0.117629066
207	0x3bb1c288	0.0054248013
208	0xbcd3022c	-0.025757872
209	0x3c922dc1	0.017844083
210	0x3e81c177	0.25342914
211	0xbc49954f	-0.012303664
212	0xbd0160e5	-0.031586546
213	0xbe56e0b5	-0.20984156
214	0xbdfca0ba	-0.12335344
215	0xbe13f7c6	-0.14449987
216	0xbe2c9c9f	-0.16856621
217	0x3d0c07cf	0.034187134
218	0xbdcc628c	-0.09979734
219	0x3d80e7ad	0.06294189
220	0xbd90df22	-0.07073809
221	0xbd74f5cd	-0.059804726
222	0xbd6e23ab	-0.058139484
223	0xbdcf2084	-0.10113624
224	0xbcb7c4e4	-0.022432752
225	0xbd9d8741	-0.07691813
226	0xbd402f72	-0.046920247
227	0x3c025670	0.007955179
228	0x3c90f53e	0.017695066
229	0x3d974b7e	0.07387446
230	0xbc8846a9	-0.016635256
231	0x3d94b715	0.072614826
232	0x3e113400	0.14179993
233	0xbd548541	-0.051884893
234	0xbd5f6545	-0.054539938
235	0xbda46a83	-0.08028128
236	0xbe1af408	-0.15132153
237	0x3d0d3ae6	0.034479998
238	0x3c5ce653	0.013482648
239	0x3e32473b	0.17409985
240	0x3e1453a4	0.14485031
241	0x3d7eaf5b	0.06217895
242	0x3bec01f6	0.007202382
243	0x3e434dd2	0.19072655
244	0xbb9a3beb	-0.00470685
245	0xbd9445e6	-0.072398946
246	0xbda6b27f	-0.08139514
247	0x3d99f450	0.07517302
248	0xbcc8731e	-0.024468955
249	0x3c2b3481	0.01044953
250	0xbd22e329	-0.039767418
251	0x3d719dad	0.058988262
252	0x3d2b51e4	0.041826144
253	0xbdbfd992	-0.0936767
254	0xbd61be22	-0.055112965
255	0xbca9407f	-0.020660637

F.linears.2.bias f4 [10]
0	0x3d13e393	0.036105704
1	0x3cb6a002	0.022293095
2	0x3d998261	0.07495571
3	0x3ce0d80f	0.027446775
4	0xbd66db71	-0.05636162
5	0x3d19e37e	0.03757047
6	0xbd27e0f3	-0.040986013
7	0xbd9531d2	-0.07284893
8	0xbdcb38b4	-0.09922925
9	0xbd0e6023	-0.034759652

G.0.linears.0.weight f4 [32, 10]
0	0x3d970163	0.07373311
1	0x3b83fed6	0.0040281815
2	0xbd3ef71d	-0.046622384
3	0x3d4f9f0e	0.050688796
4	0xba8d7813	-0.0010793231
5	0x3dc50899	0.096207805
6	0x3e775e8a	0.24157158
7	0xbe745407	-0.23860179
8	0x3d88428f	0.0665332
9	0xbd178848	-0.036995202
10	0x3d8eb77e	0.06968592
11	0xbc6c7fa1	-0.014434726
12	0xbc1fc41c	-0.009751346
13	0x3d88a64e	0.06672345
14	0xbcf749dd	-0.030186588
15	0x3cd388bc	0.025822036
16	0xbe542175	-0.20715888
17	0xbded83db	-0.11597415
18	0x3e029c39	0.12754907
19	0xbd800ed7	-0.062528305
20	0xbe13518d	-0.14386578
21	0xbc853a6d	-0.016263211
22	0xbda37471	-0.07981194
23	0xbe4de020	-0.20105028
24	0x3d464129	0.048401985
25	0xbe2bca78	-0.16776454
26	0xbd907af3	-0.07054701
27	0x3db4e13f	0.08832025
28	0xbd9cb8de	-0.07652448
29	0x3e5df832	0.2167671
30	0x3d685faf	0.056731876
31	0xbda43ae2	-0.080190435
32	0x3d4c4d1a	0.049878217
33	0x3cb89d37	0.022535903
34	0x3d80db1f	0.06291794
35	0xbdd69c3a	-0.104790166
36	0x3d978c08	0.07399756
37	0xbd0e107e	-0.034683697
38	0x3d9311f6	0.0718116
39	0x3e5bb174	0.21454412
40	0x3e079ec6	0.13244161
41	0xbe245718	-0.16048849
42	0xbc96334e	-0.01833501
43	0x3c23b7b5	0.00999253
44	0x3dd8d6a7	0.10587817
45	0xbe051759	-0.12997188
46	0x3db86edf	0.09005522
47	0x3cbcbd8c	0.023039602
48	0xbd36131c	-0.044451818
49	0x3e080bfe	0.13285825
50	0x3c8e879e	0.017398652
51	0x3cb9562a	0.022624094
52	0xbd8c5794	-0.06852642
53	0xbc8b1479	-0.016977536
54	0xbd46e7bd	-0.048560847
55	0xbe0797ef	-0.13241552
56	0xbcdc16c0	-0.026866317
57	0x3dad17d7	0.08451813
58	0xbda9ebc0	-0.08296919
59	0xbcaf39ec	-0.021389924
60	0x3bf32d98	0.0074212067
61	0x3c9dbaf0	0.019254178
62	0xbe0d8e30	-0.13823771
63	0x3dcfcfc5	0.10147051
64	0x3d4fea12	0.050760336
65	0xbd99f432	-0.0751728
66	0x3e0a535f	0.13508366
67	0x3d70625b	0.05868755
68	0x3e1ea976	0.15494332
69	0xbdc6e9cb	-0.09712561
70	0xbd852bf9	-0.06502528
71	0xbd93f6f9	-0.07224841
72	0x3e3f60e6	0.18689308
73	0x3e12dd6a	0.14342275
74	0xbdb0c285	-0.08630852
75	0x3e41afe9	0.1891476
76	0xbc880c88	-0.016607538
77	0xbd4895e3	-0.048971068
78	0xbd1eaefc	-0.038741097
79	0x3d1e1685	0.038595695
80	0x3cb3059c	0.02185326
81	0x3bcf5f13	0.0063284724
82	0x3da5abf6	0.080894396
83	0xbe120a84	-0.14261824
84	0x3e363c78	0.17796504
85	0xbd362daa	-0.044477142
86	0xbccf4d74	-0.025305487
87	0xbaf0cada	-0.0018371001
88	0x3db5cf79	0.08877463
89	0x3d0a6272	0.03378529
90	0x3db108c3	0.08644249
91	0xbe1bbdc4	-0.15209109
92	0xbdf35995	-0.11882321
93	0xbdfb478c	-0.12269506
94	0x3d93dc07	0.07219701
95	0xbce6102c	-0.028083883
96	0xbe2ec5e5	-0.17067678
97	0xbdccb201	-0.09994889
98	0x3e17a6cc	0.14809722
99	0xbd00969c	-0.031393632
100	0xbe06e237	-0.13172232
101	0xbd2d88c4	-0.042366758
102	0x3e3f2669	0.18666996
103	0xbd1dc270	-0.03851551
104	0x3c29c901	0.0103628645
105	0x3d2a60b5	0.041596133
106	0xbc5e7ff3	-0.01358031
107	0xbd220d7b	-0.039563637
108	0x3d05f17b	0.032700997
109	0x3e1601fe	0.14649197
110	0x3d829d33	0.063776396
111	0x3d95cda3	0.07314613
112	0xbe05c968	-0.13065112
113	0x3decee0c	0.11568841
114	0x3da08cfd	0.078393914
115	0xbdda0db6	-0.106471464
116	0xbd4d3630	-0.050100505
117	0x3bdb921e	0.006700768
118	0x3d55c030	0.052185237
119	0x3d8ad970	0.06779754
120	0xbe3252de	-0.17414424
121	0x3d91bfb4	0.071166426
122	0x3cf9801f	0.0304566
123	0x3dbe8790	0.093032
124	0xbde56160	-0.112002134
125	0x3e0aaa77	0.1354159
126	0x3de6c4b3	0.11267986
127	0x3c0aede3	0.008479568
128	0xbe14795f	-0.14499424
129	0xbcb5e216	-0.022202533
130	0x3c9131a6	0.01772387
131	0xbe170460	-0.14747763
132	0x3d7a68f7	0.06113526
133	0xbb71019c	-0.003677464
134	0x3da16c0b	0.07881936
135	0x3d8e1092	0.06936754
136	0x3dcabd00	0.0989933
137	0xbc918942	-0.017765645
138	0x3d20b7a4	0.039237633
139	0xbdf0739a	-0.11740799
140	0x3cff5d9c	0.031172566
141	0x3dc245b1	0.09485949
142	0x3d0f5766	0.03499546
143	0x3daea63c	0.085278004
144	0xbd399fa1	-0.04531825
145	0xbd430bf0	-0.047618806
146	0x3d64fc0f	0.055904444
147	0xbd950238	-0.07275814
148	0x3d5ea70f	0.05435854
149	0xbd4227b0	-0.04740113
150	0xbdcbeeef	-0.09957682
151	0xbe4e3ecf	-0.20141147
152	0xbc9141f3	-0.017731642
153	0x3e10674a	0.14101902
154	0xbc1a3795	-0.009412666
155	0x3e0edc19	0.13951148
156	0xbcf72db2	-0.030173156
157	0xbdb4e9b6	-0.08833639
158	0x3d20bcfa	0.039242722
159	0x3bacf0e3	0.0052777394
160	0x3d0d8227	0.03454795
161	0xbd5b9c5d	-0.053615917
162	0x3b527ec8	0.0032119025
163	0xbca088c7	-0.01959647
164	0x3ccdb54b	0.025110861
165	0x3c7cf569	0.01543937
166	0xbdb39cd4	-0.08770147
167	0x3dd786c6	0.10523753
168	0x3d5cc38b	0.05389742
169	0xbdec2527	-0.11530524
170	0xbda24842	-0.07923938
171	0x3dc54777	0.096327715
172	0x3cb54a47	0.022130145
173	0x3d487f9d	0.048949827
174	0x3d0f4b14	0.03498371
175	0xbdb62c68	-0.088951886
176	0xbde669dd	-0.112506606
177	0x3cc6d4bb	0.02427136
178	0x3c96c0f0	0.018402547
179	0xbe1675ee	-0.14693424
180	0x3e5f4f14	0.2180751
181	0x3ddc3fdd	0.107543685
182	0xbe85f7c2	-0.26165587
183	0x3e40bc96	0.1882194
184	0xbd8a1f2a	-0.06744225
185	0x3db2fb29	0.08739311
186	0x3d7ad21a	0.061235525
187	0x3e1e9606	0.15486917
188	0x3ce0cf87	0.027442707
189	0x3e0b09be	0.13577935
190	0x3cebcaf2	0.028783295
191	0xbb957d19	-0.004562032
192	0xbde108ba	-0.109879926
193	0x3c3e9d96	0.011634251
194	0xbe94e29f	-0.29079148
195	0xbd955188	-0.072909415
196	0x3dc7e2aa	0.097600296
197	0xbdbc3798	-0.09190291
198	0x3ac9188a	0.0015342396
199	0xbdae4006	-0.08508305
200	0x3e1217a0	0.14266825
201	0x3d537d3e	0.051633112
202	0xbc833a5f	-0.016019044
203	0x3e0559de	0.13022563
204	0xbdc63ca9	-0.09679539
205	0xbdfb0ef9	-0.12258715
206	0xbd8a72d9	-0.06760187
207	0xbda7180b	-0.08158883
208	0xbe160383	-0.14649777
209	0x3d79d28f	0.06099182
210	0x3d697d52	0.05700428
211	0xbd3db5f8	-0.046316117
212	0xbd8fdf54	-0.07025018
213	0x3dde8880	0.10865879
214	0xbca7c662	-0.020480338
215	0xbd84ae24	-0.06478527
216	0x3e5c2cd9	0.21501483
217	0xbb070e76	-0.0020607985
218	0xbdca0219	-0.09863681
219	0x3cbecc90	0.023290902
220	0x3ddd6499	0.10810203
221	0x3dcc5132	0.09976424
222	0x3e37d439	0.1795205
223	0xbd49f54f	-0.04930621
224	0x3df46575	0.11933414
225	0xbddb88ff	-0.10719489
226	0x3d5c34ac	0.05376117
227	0x3da1cb47	0.079001
228	0x3e1e77ba	0.1547536
229	0xbd7cce47	-0.06172016
230	0xbe508314	-0.20362502
231	0x3cf50015	0.029907266
232	0x3d73f2d5	0.059557755
233	0xbc9dcfb2	-0.019264076
234	0xbc35af39	-0.01108914
235	0x3e76be80	0.24096107
236	0x3d2d9823	0.042381417
237	0x3e556ae5	0.20841558
238	0x3e026818	0.12735021
239	0x3e8c1ff0	0.27368116
240	0x3db4c426	0.08826475
241	0xbdadadcd	-0.084804155
242	0x3d98d32c	0.07462153
243	0x3dc00b7c	0.093771905
244	0x3ccbe33c	0.024888627
245	0x3dda27df	0.10652136
246	0xbe31fae9	-0.17380871
247	0xbb81d1ed	-0.0039617927
248	0xbe4ca216	-0.19983706
249	0xbd87fad6	-0.0663964
250	0x3dc233b0	0.09482515
251	0xbd357ccc	-0.04430847
252	0xbe17398e	-0.14768049
253	0xbda1504e	-0.07876645
254	0x3d891355	0.066931404
255	0x3aad3182	0.0013213607

G.0.linears.0.bias f4 [32]
0	0xbcab68e7	-0.020924045
1	0x3d9e5260	0.077305555
2	0xbdb391e3	-0.0876806
3	0xbd32822a	-0.043581165
4	0x3da45799	0.080245204
5	0xba71b326	-0.00092201156
6	0x3d908675	0.07056896
7	0xbdc2441b	-0.09485646
8	0xbd598185	-0.053102035
9	0x3c9d78f7	0.01922272
10	0x3de533aa	0.11191495
11	0x3d9537e1	0.07286049
12	0x3d1be00c	0.038055465
13	0x3b256e88	0.0025242884
14	0x3d01cf25	0.03169169
15	0x3d5ff0e2	0.054673083
16	0xbbe174f2	-0.006880396
17	0xbc5f143b	-0.013615663
18	0x3dc82956	0.09773509
19	0xbd57f552	-0.05272419
20	0x3da4a15a	0.08038588
21	0xbd535505	-0.051594753
22	0xbd9afbab	-0.07567533
23	0xbd856ad1	-0.06514514
24	0x3c190ed3	0.009341913
25	0xbdbd64df	-0.09247755
26	0xbd880983	-0.06642439
27	0xbd9818e5	-0.07426623
28	0x3db58d87	0.08864885
29	0xbde78b9a	-0.11305924
30	0xbd569367	-0.052386668
31	0x3d8fd807	0.07023626

G.0.linears.1.weight f4 [32, 32]
0	0x3d433541	0.04765821
1	0xbd951a0f	-0.07280361
2	0x3dc53a03	0.096302055
3	0xbd97da28	-0.07414657
4	0xbd496e16	-0.04917725
5	0xbd2d9f91	-0.042388503
6	0x3c3d6513	0.0115597425
7	0x3cfc5b11	0.030805143
8	0xbc8aa47f	-0.016924141
9	0xbd4ba87e	-0.049721234
10	0xbaba515a	-0.0014214918
11	0x3e00a192	0.12561634
12	0x3c0c8895	0.008577486
13	0x3e2014f4	0.15632993
14	0x3d09e366	0.03366413
15	0x3cefb807	0.029262556
16	0xbe17b9a4	-0.1481691
17	0xbd91c51c	-0.07117674
18	0x3d18cc46	0.037304185
19	0xbd89267e	-0.06696795
20	0xbdbab21c	-0.09116003
21	0xbd3ac95a	-0.04560218
22	0xbd58da2e	-0.052942447
23	0xbd364229	-0.04449669
24	0xbe1e6ebe	-0.15471932
25	0xbe1d4ea9	-0.15362038
26	0x3ae8f4ea	0.0017773185
27	0x3e15eeb0	0.14641833
28	0xbd669f31	-0.05630416
29	0xbe1e3834	-0.15451127
30	0x3d8fafac	0.070159286
31	0x3bb4be2a	0.0055158334
32	0xbe1eb467	-0.15498506
33	0x3e73a9b2	0.23795202
34	0xbd0e50ce	-0.03474503
35	0xbdd9ab1a	-0.10628338
36	0xbddefd11	-0.10888112
37	0xbe8b5f02	-0.27220923
38	0xbd0cd9e1	-0.034387473
39	0xbdb58319	-0.088628955
40	0x3c37d600	0.011220455
41	0xbd44d951	-0.04805881
42	0xbd05cb10	-0.03266436
43	0x3cf59532	0.029978368
44	0xbd419617	-0.047262277
45	0x3d3494fd	0.0440874
46	0x3dbebd10	0.093134046
47	0x3e27acba	0.16374484
48	0xbd2dc6fd	-0.0424261
49	0x3cafd6a6	0.021464657
50	0xbdacf3f6	-0.08444969
51	0x3d07d526	0.03316226
52	0xbd377b1e	-0.044795148
53	0xbd98e4e4	-0.074655324
54	0xbd41f4eb	-0.047352713
55	0xbd7bac0b	-0.06144337
56	0xbde7e6d1	-0.113233216
57	0xbdf082f9	-0.11743731
58	0x3d9ed32e	0.07755123
59	0x3d1c8bac	0.03821914
60	0x3d6c3311	0.05766589
61	0x3db06daa	0.08614667
62	0xbd464429	-0.048404846
63	0x3d3455e5	0.044027228
64	0x3db81b92	0.089896336
65	0x3db90985	0.09035019
66	0x3ca0a22e	0.019608583
67	0xbe545f64	-0.20739514
68	0xbc4ac320	-0.012375623
69	0xbe84db5c	-0.25948608
70	0x3d71243a	0.05887244
71	0xbe249d7e	-0.16075704
72	0xbda19020	-0.07888818
73	0xbe2e6009	-0.17028822
74	0xbde516d0	-0.11185992
75	0x3e5a3abb	0.21311466
76	0xbdeeac3b	-0.11653944
77	0x3dcf3de0	0.101192236
78	0x3e69ff4f	0.22851299
79	0xbd4b878a	-0.049689807
80	0xbd25a3e3	-0.040439498
81	0xbd153a99	-0.036432836
82	0xbe00e145	-0.12585934
83	0xbda04cca	-0.07827146
84	0x3ce3676d	0.027759278
85	0x3d2695c1	0.04067016
86	0x3e16b473	0.14717273
87	0x3e2e9e28	0.1705252
88	0x3d800bc3	0.06252243
89	0xbd7cd801	-0.061729435
90	0x3d71ffb8	0.059081763
91	0xbe03f2c6	-0.1288558
92	0xbd0459fa	-0.03231237
93	0xbd64f685	-0.05589916
94	0xbe3b16ea	-0.1827046
95	0xbd8b5f83	-0.06805327
96	0x3e00b077	0.12567316
97	0xbda382fe	-0.07983969
98	0xbd001912	-0.03127391
99	0xbe2b5621	-0.16732074
100	0xbc98003b	-0.018554797
101	0xbdd79909	-0.10527236
102	0xbe038dde	-0.12847087
103	0x3cae418d	0.021271491
104	0x3d72a690	0.059240878
105	0xbdc9fa95	-0.09862248
106	0xbc4cd7e8	-0.012502648
107	0x3d61c4b8	0.055119246
108	0x3ceb3617	0.028712315
109	0x39fa20c6	0.00047708134
110	0x3e2e6dad	0.17034025
111	0x3d8d05ed	0.06885896
112	0x3c4ad70b	0.012380372
113	0xbe28638e	-0.16444227
114	0x3c2f1add	0.010687557
115	0xbd3daaeb	-0.04630558
116	0x3dadd8be	0.08488606
117	0xbc2efa6e	-0.010679824
118	0x3e156aa6	0.14591464
119	0xbd52a1ad	-0.051423717
120	0x3e158e70	0.14605117
121	0x3dc1c672	0.094616786
122	0x3da20edb	0.0791299
123	0x3bcad532	0.0061899656
124	0x3cc9028a	0.024537344
125	0xbdcab2df	-0.09897398
126	0xbebb98f0	-0.3664012
127	0x3d0977d5	0.033561546
128	0x3d3ee54b	0.04660539
129	0xbd76a8a4	-0.060219422
130	0x3d48e45b	0.0490459
131	0xbddb2afc	-0.10701558
132	0x3b6c868a	0.0036090934
133	0xbd019bb1	-0.03164262
134	0xbd98824b	-0.074467264
135	0xbdffc600	-0.124889374
136	0x3cacd1ea	0.021096189
137	0x3db35490	0.087563634
138	0x3b5cea23	0.0033708892
139	0x3d4c4d31	0.049878303
140	0xbe042b94	-0.12907249
141	0x3d8fe0ef	0.070253246
142	0xbdd192a3	-0.10233047
143	0xbc93fa78	-0.018063769
144	0xbc1b2ebd	-0.0094715925
145	0xbd27c608	-0.04096034
146	0xbe6dcefc	-0.2322349
147	0xbe3e0bcf	-0.18559192
148	0x3de02fcd	0.10946617
149	0x3dc0c830	0.09413183
150	0x3c05c3d9	0.0081643695
151	0x3dc54ead	0.09634147
152	0x3e102fec	0.1408078
153	0x3ce137a0	0.027492344
154	0xbcde6ead	-0.027152384
155	0x3d352f57	0.0442346
156	0xbd94a66e	-0.072583064
157	0x3c984e73	0.018592095
158	0xbd52eb2f	-0.05149382
159	0x3ca25e90	0.019820482
160	0x3e0b38c8	0.13595879
161	0xbd71f730	-0.059073627
162	0xbdd5c716	-0.10438363
163	0x3dbf16f1	0.093305476
164	0xbe1c2290	-0.1524756
165	0x3dc12f9c	0.09432909
166	0x3e2ea22c	0.17054051
167	0xbdc1f390	-0.09470284
168	0xbd53cc81	-0.051708702
169	0x3d6f2657	0.058386173
170	0x3ce07a91	0.027402194
171	0x3de43e80	0.111447334
172	0x3e56433d	0.20924087
173	0x3d17a957	0.03702673
174	0xbd9f1574	-0.07767764
175	0x3db0c6ba	0.08631654
176	0x3c585fa7	0.013206399
177	0xbdcbfdbb	-0.099605046
178	0xbd0cf334	-0.034411624
179	0x3d662c6e	0.056194715
180	0x3d982af6	0.07430069
181	0x3da25b47	0.07927566
182	0xbdd1cd1e	-0.10244201
183	0xbd9a6dcd	-0.07540474
184	0x3e044781	0.12917902
185	0xbe0d3650	-0.1379025
186	0x3d153f96	0.036437593
187	0xbdb414b6	-0.08793013
188	0x3d02fcfe	0.031979553
189	0xbd95d1c9	-0.07315404
190	0xbc3f67de	-0.011682479
191	0x3d0ce6a2	0.034399636
192	0xbdaf06d2	-0.08546223
193	0x3ddc8d49	0.107691355
194	0x3c8a18b8	0.01685749
195	0x3d76b194	0.060227945
196	0xbdb53d35	-0.08849565
197	0x3dade621	0.08491159
198	0x3d6410c0	0.055680037
199	0xbd237d85	-0.039914627
200	0xbdb8def5	-0.09026901
201	0xbdac631e	-0.084173426
202	0xbdcdbd1f	-0.100458376
203	0xbe00a039	-0.1256112
204	0x3d9967e5	0.074905194
205	0xbd901895	-0.07035939
206	0x3d67bb34	0.056575015
207	0x3c3f0a04	0.011660103
208	0xbe0b1c10	-0.13584924
209	0xbe6d57ad	-0.23177977
210	0xbd31052e	-0.04321783
211	0xbd3ebe29	-0.04656807
212	0x3caf7486	0.021417867
213	0xbe11724d	-0.14203759
214	0xbd0acd87	-0.033887412
215	0x3d425017	0.04743966
216	0x3ccc93b8	0.024972782
217	0xbdecb733	-0.1155838
218	0x3e108cc6	0.14116201
219	0xbce2e041	-0.027694823
220	0x3d5b3836	0.053520404
221	0x3d8bfbe7	0.06835156
222	0xbd412a24	-0.04715933
223	0xbd95097a	-0.07277198
224	0xbe0bae5a	-0.13640729
225	0x3e2c2968	0.1681267
226	0xbd6a789e	-0.057243936
227	0x3df7beb1	0.120969184
228	0xbd940f11	-0.07229436
229	0x3d3e3669	0.04643861
230	0x3c99b315	0.01876215
231	0xbd68ffad	-0.056884456
232	0xbd2a7a35	-0.041620452
233	0xbd61cdfe	-0.05512809
234	0x3d7fff96	0.062499605
235	0x3daf9761	0.08573795
236	0xbc54ae1e	-0.012980966
237	0xbddbdf19	-0.10735912
238	0xbe10253a	-0.14076701
239	0xbd70a85b	-0.058754306
240	0x3d36be54	0.044615105
241	0x3d969ff4	0.073547274
242	0x3defde56	0.11712329
243	0x3d615d6c	0.055020735
244	0xbe1a4e90	-0.15069032
245	0xbd1f45d2	-0.038884945
246	0x3dc6bdad	0.097041465
247	0x3d8653d1	0.065589555
248	0xbe0db644	-0.1383906
249	0xbe198274	-0.1499117
250	0xbdf8a317	-0.12140482
251	0xbca676c2	-0.0203203
252	0xbdf3f7e4	-0.11912516
253	0x3df1ed76	0.1181287
254	0xbd156e3d	-0.036482085
255	0x3da7d64f	0.08195173

G.0.linears.1.bias f4 [32]
0	0xbd40ed62	-0.047101386
1	0x3d6058d4	0.054772213
2	0x3d18ffb8	0.037353247
3	0xbc14e2d8	-0.009087287
4	0x3c8d0330	0.017213434
5	0x3d7f858e	0.062383227
6	0x3d856615	0.06513611
7	0x3d2f7784	0.04283859
8	0x3dd61ca7	0.10454684
9	0xbd69166e	-0.056906156
10	0xbd698cb5	-0.057018954
11	0xbd2072d9	-0.039172027
12	0x3d893d47	0.06701141
13	0xbda1dbb7	-0.079032354
14	0xbd838c46	-0.064232394
15	0xbd8ba6e3	-0.068189405
16	0xbb909cd7	-0.004413228
17	0xbd29e681	-0.04147959
18	0x3cdb7c4d	0.02679267
19	0xbd968210	-0.07349026
20	0x3dec7a86	0.11546807
21	0xbd382601	-0.04495812
22	0xbc9a26d6	-0.018817347
23	0xbd22360e	-0.03960233
24	0xbd2989da	-0.04139123
25	0xbd79dfe8	-0.06100455
26	0x3d8d00c0	0.06884909
27	0xbc60d733	-0.0137231825
28	0xbc199f77	-0.009376398
29	0x3da02a8b	0.078206144
30	0xbd8958b8	-0.06706375
31	0xbc77b63c	-0.015119132

G.0.linears.2.weight f4 [10, 32]
0	0xbc103161	-0.008800835
1	0xbd77280a	-0.06034092
2	0x3c0b1f68	0.008491375
3	0xbdf5fca7	-0.1201108
4	0x3d6d0fa5	0.057876248
5	0xbe769950	-0.24081922
6	0x3e0786f6	0.13235077
7	0x3de2ecd5	0.110803284
8	0x3c983d52	0.018583927
9	0xbe088fce	-0.13336107
10	0x3d28abac	0.041179344
11	0x3d84ef58	0.06490964
12	0x3beb1922	0.007174627
13	0x3e10d20f	0.14142631
14	0xbd8dd8c9	-0.06926114
15	0xbddee2fb	-0.10883137
16	0x3cf1c6a5	0.029513666
17	0xbda3e4d2	-0.080026284
18	0x3db92283	0.09039786
19	0xbd6ffac7	-0.05858877
20	0xbe703a2c	-0.23459691
21	0x3e55f8ea	0.20895734
22	0x3d285f50	0.041106522
23	0xbcaea56d	-0.021319116
24	0x3b9fa631	0.0048721065
25	0x3dd8c608	0.105846465
26	0x3d8622ea	0.06549628
27	0x3c96caad	0.01840719
28	0x3df8d117	0.12149256
29	0x3e077d96	0.13231501
30	0xbe2a6256	-0.16639075
31	0x3b7094e8	0.0036709849
32	0x3da37a41	0.079823025
33	0xbca22aa1	-0.019795718
34	0xbcb672b4	-0.022271492
35	0xbdaf1373	-0.085486315
36	0x3e04666d	0.12929697
37	0x3d985caf	0.07439553
38	0x3ca5746b	0.020197114
39	0x3e1d40e2	0.15356782
40	0xbd2a0420	-0.04150784
41	0xbe229686	-0.15877733
42	0x3c38b344	0.011273209
43	0xbcd1255f	-0.025530515
44	0xbd4c02ed	-0.049807478
45	0xbdb42fe3	-0.08798196
46	0xbd2e9de2	-0.042631038
47	0x3e63132b	0.22175281
48	0xbd716476	-0.058933698
49	0x3e0835ea	0.13301817
50	0x3e007959	0.1254629
51	0xbd714b21	-0.05890954
52	0xbdd1752d	-0.10227428
53	0x3c183273	0.009289372
54	0xbdf8a054	-0.12139955
55	0x3da1a38d	0.07892523
56	0xbbe3c2a1	-0.006950692
57	0xbdf93894	-0.121689945
58	0x3cf88120	0.03033501
59	0x3c95dee9	0.018294768
60	0x3e6c21ce	0.2305977
61	0xbd5ec3f1	-0.054386083
62	0x3c1e2c12	0.009654062
63	0xbbe8a784	-0.0071000475
64	0xbd499780	-0.049216747
65	0xbe03c2f1	-0.12867333
66	0xbe60e27a	-0.21961394
67	0x3e6bafd8	0.23016298
68	0xbde87acb	-0.11351546
69	0x3db40432	0.08789863
70	0x3de98150	0.114016175
71	0x3d10d69d	0.03536092
72	0x3e027e68	0.12743533
73	0xbe0bb51c	-0.13643306
74	0x3c895545	0.016764292
75	0xbd5e694e	-0.054299645
76	0x3dbf2644	0.093334705
77	0x3db9ae14	0.09066406
78	0xbd255f65	-0.04037418
79	0xbe220140	-0.1582079
80	0x3c3c20b4	0.011482406
81	0x3e1cc34e	0.15308878
82	0xbd83732c	-0.06418452
83	0x3e14cbfc	0.14530939
84	0x3d4c7a93	0.049921583
85	0xbe117020	-0.14202929
86	0x3d1ff05e	0.03904759
87	0x3cf49a04	0.029858597
88	0x3e195fb0	0.14977908
89	0xbdd19a2f	-0.10234486
90	0x3d921406	0.071327254
91	0xbdd347d2	-0.10316433
92	0xbc199b79	-0.0093754465
93	0x3db027b2	0.08601321
94	0xbd63d186	-0.05561974
95	0x3d89e18c	0.06732473
96	0x3d4e70c8	0.050400525
97	0xbdf26ad2	-0.118367806
98	0x3e192f4b	0.14959447
99	0x3e1499b1	0.14511754
100	0x3e521482	0.20515636
101	0xbda1f763	-0.079085134
102	0xbdf8d35e	-0.1214969
103	0x3de54d9d	0.11196444
104	0x3d9458d3	0.072435044
105	0xbcd5f868	-0.026119426
106	0xbd5aff5e	-0.053466193
107	0x3d539fd0	0.05166608
108	0x3dd3c83b	0.10340925
109	0x3d9573e5	0.07297496
110	0x3cc7ed1c	0.024405055
111	0x3c6938eb	0.014234762
112	0xbd256389	-0.040378127
113	0xbda5be7d	-0.080929734
114	0x3dcb6a9d	0.09932444
115	0x3d11141a	0.03541956
116	0x3d687c7a	0.056759335
117	0xbd1af68d	-0.037832785
118	0xbd97c474	-0.07410517
119	0xbd908718	-0.07057017
120	0x3dac26e1	0.08405853
121	0xbd62b0df	-0.05534446
122	0xbcbb13e0	-0.022836626
123	0xbcf540c1	-0.029938104
124	0x3d8f5a74	0.069996744
125	0x3e055a71	0.13022782
126	0x3c7fc474	0.015610803
127	0xbc099e70	-0.008399591
128	0x3e0333d5	0.12812741
129	0x3d93227c	0.07184312
130	0x3cbfdc16	0.023420375
131	0xbcf49912	-0.029858146
132	0x39c578ea	0.00037664856
133	0xbe0b9319	-0.13630332
134	0x3d647612	0.055776663
135	0x3d6daa70	0.05802387
136	0xbe55e80f	-0.20889305
137	0x3d84a816	0.06477372
138	0x3d695ddd	0.05697428
139	0xbda3274b	-0.07966479
140	0x3e3d3863	0.18478541
141	0xbdbfdce9	-0.09368307
142	0xbc15f72e	-0.0091531705
143	0xbe66590c	-0.22494906
144	0xbdc9af0a	-0.09847839
145	0x3c1962b6	0.009361913
146	0xbdd8d546	-0.10587554
147	0xbd12aaeb	-0.03580753
148	0x3d45f61b	0.048330408
149	0x3d53d728	0.05171886
150	0x3d8c1a1c	0.068409175
151	0xbbce89d6	-0.0063030524
152	0xbdb247b4	-0.087050825
153	0xbd95cb49	-0.07314164
154	0xbdb80e56	-0.08987109
155	0x3d70fc6e	0.058834486
156	0xbc9c0dfb	-0.019049635
157	0xbdc7808a	-0.09741314
158	0x3dab7709	0.083723135
159	0xbe365c29	-0.17808594
160	0x3d2cb2bd	0.042162646
161	0x3d4dd71b	0.05025397
162	0x3dfa37e0	0.122176886
163	0x3cf54411	0.029939683
164	0xbd9ee446	-0.077583835
165	0xbc80a473	-0.015703415
166	0xbe150e2b	-0.14556186
167	0xbdcd6b53	-0.10030236
168	0x3d100082	0.035156734
169	0xbdbc3edd	-0.09191678
170	0xbe08f01e	-0.13372847
171	0x3d1c7995	0.038201887
172	0xbd1a65be	-0.037694685
173	0x3da82bdb	0.0821149
174	0xbdd3cea4	-0.10342148
175	0x3d3da2ae	0.04629772
176	0xbde154ba	-0.110024884
177	0x3d0f3c32	0.034969516
178	0x3d9c4938	0.07631153
179	0x3da3e725	0.08003072
180	0xbdcc2c53	-0.09969392
181	0xbe3aef83	-0.18255429
182	0xbd2d704e	-0.04234343
183	0xbdaa0b00	-0.08302879
184	0xbd89140d	-0.066932775
185	0xbe31d1db	-0.1736521
186	0xbe829256	-0.2550227
187	0x3ea2fe09	0.31834438
188	0x3d378401	0.044803623
189	0xbd5a1077	-0.05323836
190	0xbda6efa5	-0.08151177
191	0xbe08b322	-0.13349584
192	0x3e09d4f2	0.13460138
193	0x3c67d0d8	0.014148913
194	0x3c3fbd55	0.011702855
195	0xbc1db0a8	-0.009624638
196	0xbce84a7c	-0.02835583
197	0x3d9c688f	0.076371305
198	0xbcff7248	-0.031182423
199	0xbd5111eb	-0.05104248
200	0xbd59185c	-0.053001747
201	0x3c9059f0	0.01762101
202	0xbc1f67a2	-0.009729298
203	0xbc173f0a	-0.009231338
204	0x3ce2be68	0.027678683
205	0x3df4c75b	0.119520865
206	0xbc722986	-0.014780408
207	0x3e09d24c	0.13459128
208	0x3cf3d69d	0.029765422
209	0x3d2cf819	0.042228792
210	0x3cd62762	0.026141826
211	0xbded274b	-0.1157976
212	0x3b96c83c	0.0046015065
213	0x3ae58980	0.0017512292
214	0xbe3198b1	-0.17343403
215	0xbd9e1108	-0.07718092
216	0x3d1acc61	0.037792567
217	0x3d5a5d74	0.05331178
218	0xbdcd13d6	-0.10013549
219	0x3e21c398	0.1579727
220	0xbc566176	-0.01308476
221	0x3e21b4da	0.15791646
222	0xbd61a97f	-0.055093285
223	0x3d01f6d0	0.03172952
224	0xbd058e7f	-0.032606598
225	0xbc0e30d6	-0.008678636
226	0x3cf51f94	0.029922284
227	0x3e2f5396	0.17121729
228	0x3c1e5ae7	0.0096652275
229	0x3e59da6c	0.21274728
230	0xbe0b85f6	-0.13625321
231	0x3af3cd62	0.0018600638
232	0x3e2598f3	0.16171627
233	0x3e8e8a28	0.2783978
234	0xbd84df50	-0.06487906
235	0x3db3f83b	0.087875806
236	0x3d196e3a	0.037458636
237	0xbb372882	-0.0027947729
238	0x3d074235	0.033022124
239	0x3d5e4086	0.054260753
240	0xbddb7a6b	-0.10716709
241	0xbdf3f55e	-0.119120345
242	0xbdeda480	-0.116036415
243	0xbcfa162c	-0.03052815
244	0xbe657ec8	-0.22411644
245	0xbe0a59d7	-0.13510834
246	0xbe55dde9	-0.20885433
247	0xbd397a5e	-0.045282714
248	0xbe6490a7	-0.22320805
249	0x3d9d3f27	0.07678061
250	0x3cdaf317	0.026727242
251	0x3d4888ae	0.048958473
252	0xbd3cf001	-0.046127323
253	0x3dc0168a	0.09379299
254	0x3d44545d	0.047932018
255	0xbd2d983d	-0.042381514

G.0.linears.2.bias f4 [10]
0	0x3ce3c63e	0.02780449
1	0xbbf7ebdc	-0.0075659584
2	0xbdab70c1	-0.083711155
3	0xbd6d9f45	-0.05801322
4	0x3c43e4c0	0.011956394
5	0xbd295e8b	-0.04134993
6	0x3db607ba	0.088881925
7	0xbd9e0abf	-0.077168934
8	0xbdb3d5e7	-0.08781033
9	0xbdbd3606	-0.0923882
