para_save2/00013params.pth (torch, 118145 bytes, 76 tensors)

F.linears.0.weight f4 [32, 20]
0.034809962 -0.0958723 -0.04824031 0.02621012 0.00838046 0.032300264 -0.06331041 -0.01564646
0.009795658 0.04998501 0.052843776 0.1530627 -0.19698109 0.08637277 0.15143025 0.13268346
-0.13614559 0.019187061 -0.14618073 0.04373814 0.08644902 0.011169987 -0.039056014 -0.073830724
-0.0038461545 -0.02486368 0.06557459 0.042126153 -0.115733445 -0.044972952 0.21464656 0.067106575
-0.054491553 0.081094414 -0.09750235 0.032898113 -0.05551612 0.23261839 0.14099981 0.012610086
-0.07310085 0.2430069 -0.12176876 -0.013752823 0.082546115 0.16366693 0.0059966804 0.056953896
-0.124784365 0.026029268 0.028159654 -0.149067 -0.059141874 -0.036378153 -0.072091185 -0.21407749
-0.05634275 -0.12403492 0.113472566 0.078958414 0.00050283637 0.018630618 -0.008392024 -0.01852987
0.038983036 0.014052632 0.15179689 0.092327505 0.25035056 0.049966916 0.10475158 0.06202109
0.06834304 0.042067092 -0.10380275 0.20553316 -0.12991543 0.16973147 -0.15044212 -0.0475114
0.20002946 0.017787362 -0.2705633 -0.041824896 0.08302359 0.08726503 -0.083010204 0.03476807
-0.051118314 -0.0032183141 0.06143466 -0.12003732 0.06830132 0.12953779 -0.19161853 -0.005276909
0.012357995 0.0273725 -0.07851755 0.075009614 -0.06844369 -0.07469163 0.019032087 -0.025778865
0.007190155 0.08165171 0.010613816 -0.124473736 -0.1045199 -0.17677197 0.17881669 0.14399521
0.039017774 0.017562166 -0.06903028 0.19754234 -0.0978908 -0.093765646 -0.006120576 0.14214146
-0.031141821 -0.0027509227 0.20566468 -0.06969922 -0.0854434 0.036786422 0.12237726 -0.19898473
-0.054551065 -0.04555848 -0.024084859 0.019471515 -0.11675236 -0.080849394 -0.05869355 -0.21162155
-0.060124077 -0.063227355 0.0133529445 0.025602458 -0.045205347 -0.005364951 -0.087987304 -0.037322342
-0.11129224 -0.041256856 -0.1396422 -0.08780898 -0.16209581 0.09385501 0.09196239 0.20011462
0.13510646 -0.07822587 0.015683454 -0.022696704 0.173575 -0.035898667 0.084960975 0.04442156
0.036176074 -0.09244626 -0.0024333517 -0.069675066 -0.027910972 -0.014780444 -0.11070832 0.10721078
0.10034848 0.037122145 -0.11989007 -0.073501825 0.053909138 0.07253825 0.0052790483 -0.043803584
-0.03607747 0.1931851 0.023459077 0.023042474 -0.17532288 0.03914439 0.05774987 -0.07602572
0.012131266 -0.18476476 0.085477985 0.036013436 -0.017614854 0.03913456 -0.09047062 -0.09739397
0.044772264 -0.10014239 -0.11846542 0.023736145 -0.098544426 0.089327276 0.023315022 0.05714554
0.014264495 -0.032724395 0.0042156996 -0.0029152657 0.020276686 -0.031639416 -0.0010278375 0.019618316
-0.20047092 -0.14561276 -0.079986386 0.0055264994 -0.043085422 0.0112643875 -0.038847346 0.12879367
0.07279835 0.06318159 -0.0712271 0.050371744 0.011417033 -0.0021772217 0.15472168 -0.07454419
-0.06286825 0.114090934 0.098837785 -0.059828028 -0.0639378 -0.05890574 0.02376293 0.059780903
-0.09039779 0.08429999 -0.04978152 -0.08646088 0.07312961 -0.12054976 -0.19893244 -0.07513383
0.10376365 -0.030338887 0.09746064 0.13502795 0.12633379 -0.03490729 0.17624477 0.021041991
-0.103864625 -0.07266883 -0.24368703 0.036184706 0.11535877 0.03568147 -0.06460452 0.08244701
00000000: e494 0e3d b258 c4bd a297 45bd 9bb6 d63c
00000010: 324e 093c 484d 043d e3a8 81bd 012d 80bc
00000020: f87d 203c 15bd 4c3d b772 583d 78bc 1c3e
00000030: 69b5 49be 35e4 b03d 8810 1b3e 2cde 073e
00000040: c069 0bbe 2f2e 9d3c 67b0 15be c426 333d
00000050: 2f0c b13d 5202 373c 33f9 1fbd 9034 97bd
00000060: c40f 7cbb ebae cbbc f84b 863d 798c 2c3d
00000070: a805 edbd 8f35 38bd 4fcc 5b3e 2c6f 893d
00000080: 8932 5fbd d414 a63d 50af c7bd 2cc0 063d
00000090: df64 63bd 8433 6e3e 4162 103e 899a 4e3c
000000a0: e6b5 95bd cdd6 783e e661 f9bd 8553 61bc
000000b0: f00d a93d 4e98 273e cd7f c43b 7d48 693d
000000c0: f28e ffbd 553b d53c 13af e63c 05a5 18be
000000d0: c03e 72bd 4201 15bd 8ba4 93bd 2137 5bbe
000000e0: a8c7 66bd 0506 febd 4e64 e83d f3b4 a13d
000000f0: c7d0 033a 3d9f 983c b37e 09bc f4cb 97bc
00000100: adac 1f3d 033d 663c a570 1b3e 3416 bd3d
00000110: f32d 803e 1caa 4c3d ff87 d63d d409 7e3d
00000120: 70f7 8b3d 8b4e 2c3d 8996 d4bd 4977 523e
00000130: 8d08 05be 16ce 2d3e 800d 1abe 509b 42bd
00000140: 86d4 4c3e cdb6 913c 4687 8abe 9550 2bbd
00000150: 4608 aa3d 02b8 b23d 4101 aabd f768 0e3d
00000160: 7061 51bd 5aea 52bb e9a2 7b3d 20d6 f5bd
00000170: 90e1 8b3d 8ea5 043e a637 44be ece9 acbb
00000180: 3079 4a3c 4b3c e03c cfcd a0bd a49e 993d
00000190: 352c 8cbd edf7 98bd 2ee9 9b3c 332e d3bc
000001a0: 649b eb3b 0339 a73d 92e5 2d3c 16ec febd
000001b0: 880e d6bd b603 35be b91b 373e 7b73 133e
000001c0: 1ad1 1f3d 88de 8f3c bf5f 8dbd 8a48 4a3e
000001d0: f97a c8bd 3408 c0bd 1d8f c8bb 888d 113e
000001e0: 221d ffbc d348 34bb c399 523e 77be 8ebd
000001f0: f3fc aebd 5cad 163d eea0 fa3d a7c2 4bbe
00000200: f070 5fbd 879b 3abd 9c4d c5bc ba82 9f3c
00000210: dc1b efbd 5e94 a5bd a668 70bd 52b3 58be
00000220: aa44 76bd 587d 81bd 4fc6 5a3c 3fbc d13c
00000230: 3e29 39bd 79cc afbb b032 b4bd 50df 18bd
00000240: 30ed e3bd f3fc 28bd 5dfe 0ebe 32d5 b3bd
00000250: 72fc 25be 0e37 c03d c756 bc3d d9ea 4c3e
00000260: 5959 0a3e e334 a0bd 967a 803c 70ee b9bc
00000270: a5bd 313e 7b0a 13bd 0500 ae3d 62f3 353d
00000280: 5d2d 143d 7754 bdbd de78 1fbb cdb1 8ebd
00000290: 8da5 e4bc ad29 72bc 0bbb e2bd 5391 db3d
000002a0: 8183 cd3d 640d 183d ed88 f5bd 2088 96bd
000002b0: d4cf 5c3d ef8e 943d defb ac3b 636b 33bd
000002c0: f8c5 13bd 51d2 453e 402d c03c 92c3 bc3c
000002d0: d787 33be de55 203d 218b 6c3d 5fb3 9bbd
000002e0: 38c2 463c f932 3dbe 150f af3d d382 133d
000002f0: 074d 90bc 8f4b 203d a948 b9bd 7d76 c7bd
00000300: 1f63 373d 7417 cdbd 009e f2bd 4e72 c23c
00000310: a9d1 c9bd 38f1 b63d 25ff be3c 7111 6a3d
00000320: a1b5 693c 040a 06bd da23 8a3b 0b0e 3fbb
00000330: 4b1b a63c 5598 01bd 81b8 86ba 97b6 a03c
00000340: 4048 4dbe 831b 15be e7cf a3bd a317 b53b
00000350: 577a 30bd 448e 383c 651e 1fbd 7de2 033e
00000360: 4d17 953d 5965 813d 84df 91bd 9a52 4e3d
00000370: 820e 3b3c b8af 0ebb 5c6f 1e3e a0aa 98bd
00000380: 12c1 80bd 82a8 e93d 776b ca3d 3c0e 75bd
00000390: d2f1 82bd 2547 71bd 7aaa c23c d2dc 743d
000003a0: 7a22 b9bd 79a5 ac3d b5e7 4bbd 6712 b1bd
000003b0: fac4 953d cbe2 f6bd f2b4 4bbe c4df 99bd
000003c0: 0982 d43d 4289 f8bc 7299 c73d c444 0a3e
000003d0: a55d 013e f2fa 0ebd 8279 343e 4160 ac3c
000003e0: fab6 d4bd 65d3 94bd 1889 79be 6a36 143d
000003f0: 3841 ec3d bc26 123d 604f 84bd fad9 a83d

F.linears.0.bias f4 [32]
0.014470938 0.01765131 0.058018047 0.051358476 0.05819081 0.09092285 -0.049418032 0.043281313
-0.089616634 0.08052146 -0.037844263 -0.03944574 -0.04028236 0.07699344 0.03025128 0.025905058
0.0005542069 0.025996244 -0.087369695 -0.0643258 -0.10197093 0.057545237 0.02136259 -0.026643237
-0.05115825 -0.010298089 0.018292665 0.09143961 0.058643322 0.047610223 0.09209905 0.060093008
00000000: 8317 6d3c 7b99 903c 55a4 6d3d 445d 523d
00000010: 7d59 6e3d c235 ba3d 906a 4abd bf47 313d
00000020: ed88 b7bd 6fe8 a43d 9602 1bbd db91 21bd
00000030: 1eff 24bd bdae 9d3d 88d1 f73c d836 d43c
00000040: 3248 113a 13f6 d43c e2ee b2bd 3fbd 83bd
00000050: 23d6 d0bd 8eb4 6b3d 9900 af3c eb42 dabc
00000060: 508b 51bd 51b9 28bc 80da 953c b144 bb3d
00000070: fb33 703d f002 433d 6d9e bc3d 1624 763d

F.linears.1.weight f4 [32, 32]
-0.25316855 -0.09560432 -0.0149652315 0.12942268 -0.107022926 0.0061100055 0.2291412 0.031169577
-0.19621769 0.16068958 -0.020567548 0.10875838 -0.08970537 -0.10375312 -0.030968199 0.0035114596
0.044021808 -0.032083277 -0.12822104 -0.06504537 0.072437644 0.16102618 0.02536771 0.064390644
-0.07091046 0.07810959 0.06228953 0.010598968 -0.004384416 0.04557823 -0.13051267 -0.12739488
-0.0513777 0.08138192 0.21774872 0.043136243 0.14387247 -0.0671248 -0.03384021 -0.13769585
-0.037790705 0.09236563 -0.013928092 -0.20612581 0.24960822 0.119599454 0.0046095448 -0.06576615
-0.05950998 0.12418639 -0.07181875 0.103110746 -0.06625468 0.016065288 0.046267595 0.05204906
0.0016830995 0.003809308 -0.08403862 0.036833875 0.1490066 0.0029217224 -0.06586524 0.07740962
-0.06812778 0.028495383 -0.044830203 0.04028773 0.025657143 -0.097266644 -0.031687252 -0.020773984
-0.15765065 0.0922841 0.045590304 -0.06942314 -0.050745785 0.038074058 0.069997855 0.07660068
0.02172464 -0.03378961 -0.20949943 0.085473746 -0.19214262 -0.013138578 -0.10256067 0.06971552
-0.07137215 -0.13980916 0.046066973 -0.04153569 -0.03055491 -0.061056208 -0.0803097 -0.082594395
-0.08571501 -0.006279779 -0.0073257554 -0.028286887 0.03192142 0.034108534 -0.011360446 -0.16219486
-0.099492796 -0.1101874 -0.045062434 0.069263026 -0.04347011 -0.037614428 -0.12604609 0.051116917
-0.16875091 -0.07667123 -0.074067116 0.010493444 -0.064520575 0.0031207292 0.042426437 0.12113841
-0.13543761 0.11486757 -0.0878496 0.097853065 0.05081435 -0.016362263 -0.02440094 0.11531662
0.03659221 -0.026348514 -0.06922395 -0.060509253 -0.07979445 0.059493393 0.09359313 0.020700378
-0.08205876 0.11990841 -0.057579424 0.1411435 -0.040985525 0.006547117 0.044973962 -0.08518977
-0.010600009 -0.053134814 0.078149565 0.22016586 -0.17606543 0.0563014 0.034030944 0.010388377
0.12888476 0.044787746 0.09551057 -0.061464634 0.14203045 0.08867701 -0.122375146 -0.031281862
0.21250853 0.20183279 0.08305261 -0.13230011 -0.13143143 0.19819723 -0.020023812 -0.022725277
-0.015433468 0.006785921 -0.012357365 -0.11972573 -0.13450581 -0.09011262 -0.04470601 -0.047358073
-0.044685125 0.055146053 -0.18638982 -0.038242664 -0.04402771 -0.1506027 -0.17787504 0.13582206
-0.0708729 0.0005422225 0.07553421 0.14790778 -0.09179927 -0.037144955 -0.051100414 -0.016461482
-0.21440879 -0.14259112 -0.14605425 0.14505824 0.017502798 -0.08378189 0.20767814 0.05440142
0.018769152 -0.052277803 0.12020252 0.14251654 -0.11281537 -0.1855247 0.02261868 0.017039178
0.08997838 -0.06904114 -0.07510546 -0.045511197 0.07086679 -0.10543013 -0.115309514 0.02493549
-0.040541846 0.095878385 -0.09422207 -0.054482475 -0.09167813 -0.08857035 0.1116715 -0.3545504
-0.046609122 0.09988921 -0.11128071 -0.03307031 -0.008874118 -0.16468865 -0.17693964 -0.0012831631
0.007276449 -0.036246996 -0.29551652 0.0751689 0.10584449 0.10531699 0.095320664 -0.034622442
0.12129686 -0.041240137 -0.13781112 -0.06497417 -0.07155882 -0.006997527 -0.08118548 -0.016602116
-0.0070807845 0.10510452 -0.056954682 -0.17803542 -0.079929374 0.10895061 -0.011178554 0.056350708
00000000: 4f9f 81be 33cc c3bd bb30 75bc 6187 043e
00000010: d62e dbbd 7136 c83b fea3 6a3e 5757 ff3c
00000020: 4aed 48be cf8b 243e 467d a8bc b7bc de3d
00000030: 73b7 b7bd 847c d4bd 05b1 fdbc 8420 663b
00000040: 3650 343d c169 03bd 604c 03be 8236 85bd
00000050: 305a 943d 0ce4 243e f2cf cf3c 3edf 833d
00000060: 8139 91bd ecf7 9f3d 4e23 7f3d 4ba7 2d3c
00000070: 26ab 8fbb 3db0 3a3d 1da5 05be ce73 02be
00000080: 6c71 52bd 90ab a63d 85f9 5e3e a1af 303d
00000090: 4e53 133e ba78 89bd 089c 0abd 2400 0dbe
000000a0: 6dca 1abd 312a bd3d a732 64bc a512 53be
000000b0: 4c99 7f3e 8ff0 f43d aa0b 973b 67b0 86bd
000000c0: bdc0 73bd 6f55 fe3d b515 93bd ba2b d33d
000000d0: 89b0 87bd 5a9b 833c 1783 3d3d 6531 553d
000000e0: 739b dc3a 95a5 793b 711c acbd 1edf 163d
000000f0: 3095 183e 5e7a 3f3b 5be4 86bd ef88 9e3d
00000100: 9486 8bbd 266f e93c e09f 37bd bf04 253d
00000110: ee2e d23c bc33 c7bd 7eca 01bd 342e aabc
00000120: 2c6f 21be 72ff bc3d e6bc 3a3d b82d 8ebd
00000130: d0da 4fbd 8bf3 1b3d 095b 8f3d d1e0 9c3d
00000140: dff7 b13c f966 0abd 0587 56be dc0c af3d
00000150: 09c1 44be 3143 57bc 540b d2bd 03c7 8e3d
00000160: 902b 92bd 222a 0fbe b9b0 3c3d 5421 2abd
00000170: 4a4e fabc 1316 7abd 6979 a4bd 4027 a9bd
00000180: 5a8b afbd 9bc6 cdbb e40c f0bb e7b9 e7bc
00000190: 09c0 023d 64b5 0b3d 2a21 3abc 6916 26be
000001a0: e1c2 cbbd eea9 e1bd 6393 38bd c6d9 8d3d
000001b0: b70d 32bd 9611 1abd 3a12 01be f95f 513d
000001c0: 0acd 2cbe ce05 9dbd 80b0 97bd b2ec 2b3c
000001d0: 5d23 84bd 2685 4c3b 58c7 2d3d 6a17 f83d
000001e0: 28b0 0abe b03f eb3d 7eea b3bd 3067 c83d
000001f0: b522 503d 270a 86bc 7be4 c7bc 1f2b ec3d
00000200: b7e1 153d d7d8 d7bc 49c5 8dbd 8dd8 77bd
00000210: 466b a3bd 58af 733d c1ad bf3d d793 a93c
00000220: 6c0e a8bd 8a92 f53d 67d8 6bbd ec87 103e
00000230: 70e0 27bd 3389 d63b 9e36 383d f977 aebd
00000240: a9ab 2dbc e4a3 59bd e10c a03d 2973 613e
00000250: 7f4a 34be 4c9c 663d 0864 0b3d 0334 2a3c
00000260: 5efa 033e 5b73 373d 0c9b c33d 57c2 7bbd
00000270: 6e70 113e 4b9c b53d d29f fabd 6921 00bd
00000280: d69b 593e 41ad 4e3e 7d17 aa3d ae79 07be
00000290: f695 06be 37f4 4a3e fa08 a4bc 5c2a babc
000002a0: a8dc 7cbc 6e5c de3b 8c76 4abc c332 f5bd
000002b0: e4bb 09be f78c b8bd a61d 37bd 8afa 41bd
000002c0: c007 37bd d4e0 613d f9dc 3ebe 57a4 1cbd
000002d0: 6656 34bd 9837 1abe e024 36be f014 0b3e
000002e0: d025 91bd f023 0e3a aeb1 9a3d 2375 173e
000002f0: 4101 bcbd 4f25 18bd ab4e 51bd 3bda 86bc
00000300: fa8d 5bbe 6803 12be 3f8f 15be 268a 143e
00000310: 0762 8f3c d795 abbd 94a9 543e 06d4 5e3d
00000320: c4c1 993c 4021 56bd bd2c f63d dbef 113e
00000330: bf0b e7bd 30fa 3dbe cf4a b93c bf95 8b3c
00000340: 9646 b83d 7165 8dbd e4d0 99bd f369 3abd
00000350: 9c22 913d c1eb d7bd 6527 ecbd 8345 cc3c
00000360: 350f 26bd e35b c43d 80f7 c0bd 0429 5fbd
00000370: bec1 bbbd 5f64 b5bd 07b4 e43d a187 b5be
00000380: 35e9 3ebd b792 cc3d 24e7 e3bd bc74 07bd
00000390: c064 11bc 24a4 28be aa2f 35be cf2f a8ba
000003a0: 476f ee3b bb77 14bd f14d 97be 27f2 993d
000003b0: ffc4 d83d 6fb0 d73d 7b37 c33d 43d0 0dbd
000003c0: 7d6a f83d 6beb 28bd 5c1e 0dbe 2d11 85bd
000003d0: 6e8d 92bd 834b e5bb 9344 a6bd 2901 88bc
000003e0: ed05 e8bb 0a41 d73d 5049 69bd eb4e 36be
000003f0: 03b2 a3bd 7f21 df3d 4126 37bc 00d0 663d

F.linears.1.bias f4 [32]
-0.09505559 0.06925212 0.018344704 -0.07406198 0.046570733 -0.09732804 -0.029140368 0.02897042
0.08448483 -0.028728338 0.09211918 -0.011824256 -0.011046272 0.004014271 0.06763039 0.04127554
-0.0016506359 -0.061983395 0.03588128 0.014170488 -0.09050028 -0.073053606 -0.067955926 0.012123409
-0.051078856 -0.005119605 0.07810548 -0.099643975 -0.01774982 -0.008168756 -0.08647026 -0.02306257
00000000: 81ac c2bd 0ed4 8d3d a247 963c cfad 97bd
00000010: f4c0 3e3d ec53 c7bd c8b7 eebc 6053 ed3c
00000020: 6206 ad3d b157 ebbc fba8 bc3d 86ba 41bc
00000030: 6cfb 34bc 258a 833b cd81 8a3d 8a10 293d
00000040: 265a d8ba 4de2 7dbd 40f8 123d 562b 683c
00000050: 3658 b9bd 219d 95bd 7a2c 8bbd 43a1 463c
00000060: 1038 51bd 5cc2 a7bb c4f5 9f3d 2412 ccbd
00000070: 1268 91bc 3fd6 05bc 5217 b1bd b7ed bcbc

F.linears.2.weight f4 [10, 32]
-0.098059416 -0.008425808 -0.021234281 -0.0055902926 0.14939411 -0.11202469 0.0023309686 0.011171916
0.14865142 0.044890355 0.1328931 0.08627259 -0.10630964 0.06361999 -0.1432346 0.03956441
0.011331618 -0.2509867 0.027364463 0.074569866 0.020551484 -0.08360779 -0.1354809 0.09584033
-0.07793117 0.15567273 -0.102889806 -0.002428885 -0.08004745 -0.019322075 0.028699603 -0.090943664
0.09575752 0.008726477 -0.10281026 0.087549 0.02615519 0.0857992 -0.17226423 0.044951834
-0.09209217 0.085427046 0.0662659 0.021546002 -0.16137888 -0.15813078 -0.16523762 -0.09139188
0.017668458 0.14540409 -0.11270871 0.0677826 -0.029780835 -0.04484245 0.0966603 0.10262916
-0.10816291 -0.067209296 0.05611476 0.03928105 0.16247639 0.039683267 0.18578215 0.25193378
-0.08645471 -0.025412511 0.09912163 0.23852709 -0.0440897 0.009956871 0.07239268 -0.2571651
0.10229566 -0.1568525 0.02007344 0.13265437 -0.010279416 0.035768636 0.085146084 0.088369146
0.07545083 -0.054321215 0.2860385 0.09024201 0.0877827 0.0664841 -0.024731534 -0.011926476
0.082102336 -0.05155965 -0.20327318 0.032356087 0.081756055 -0.07738158 0.02727289 -0.026065802
-0.04398929 0.018705944 -0.07755124 -0.039399978 0.102305524 -0.030195307 0.13674463 -0.08073913
-0.15352608 0.115223765 0.05100671 0.0072828503 0.09726294 0.034747 0.27829608 0.08522188
0.05598904 0.034891035 -0.10258864 -0.061435066 -0.041006222 -0.2095634 -0.06076824 0.066803165
-0.0013482613 -0.054009855 -0.10764341 -0.09769776 -0.01901507 -0.050045665 -0.010604578 -0.017469276
0.26718906 -0.14738967 0.026067417 0.0554206 -0.015950322 0.06499423 -0.13798483 -0.08990272
0.10086503 -0.05238633 0.042304814 -0.23725456 -0.026623076 -0.028999178 0.07035225 -0.053327035
-0.061075453 -0.0045818714 -0.085186996 -0.008578647 -0.021546232 0.009563367 0.0388424 0.124514945
-0.03247305 0.04811474 0.100547984 0.19221514 0.025650833 0.05443784 -0.073336765 0.10365996
0.08376837 0.06585917 -0.0008189586 0.0017343932 -0.084220484 0.08841978 -0.049881898 0.14345153
-0.18284892 -0.08173958 -0.081807844 0.050664008 0.018238459 0.07728097 0.0007384357 -0.013275626
-0.03186053 -0.13326247 -0.02346916 0.13658075 -0.028785756 -0.066832334 0.014839809 -0.035437956
0.12482504 -0.034884088 0.012334729 0.10905863 -0.00967805 -0.00030128803 0.0608072 0.039079007
-0.18617916 -0.0083405245 -0.15812244 -0.03868657 0.09945551 -0.028730161 -0.028749475 -0.09965707
-0.22508653 -0.0901594 -0.11221431 0.08688862 -0.059196234 0.13014604 -0.11742685 0.003963586
-0.02570845 0.018597843 0.25279978 -0.0076433863 -0.02816822 -0.20920736 -0.1274598 -0.14537868
-0.16913143 0.036930054 -0.100978754 0.061827656 -0.07075794 -0.059773143 -0.056899007 -0.10259943
-0.020776832 -0.0745159 -0.04951674 0.007451617 0.01717112 0.07390421 -0.019215938 0.07343359
0.13734607 -0.050111704 -0.05701813 -0.07965815 -0.15221657 0.03523783 0.013317053 0.17541105
0.1448209 0.06552055 0.007975312 0.18691003 0.0003784449 -0.07204736 -0.08290529 0.07588708
-0.023356056 0.010659567 -0.03905323 0.06027158 0.04303432 -0.09168118 -0.054394092 -0.020007323
00000000: 60d3 c8bd 660c 0abc 84f3 adbc c62e b7bb
00000010: c5fa 183e 336d e5bd 2ac3 183b 690a 373c
00000020: 1438 183e f3de 373d 2115 083e afaf b03d
00000030: deb8 d9bd 334b 823d 17ac 12be 4a0e 223d
00000040: 40a8 393c 5481 80be 702b e03c 16b8 983d
00000050: 965b a83c 903a abbd 81bb 0abe ef47 c43d
00000060: 619a 9fbd ac68 1f3e e4b7 d2bd ee2d 1fbb
00000070: ebef a3bd 5449 9ebc 6e1b eb3c ac40 babd
00000080: 851c c43d 7ff9 0e3c 308e d2bd e44c b33d
00000090: 6943 d63c 7eb7 af3d 0966 30be 6a1f 383d
000000a0: d29a bcbd 60f4 ae3d 6bb6 873d 3e81 b03c
000000b0: 8140 25be 09ed 21be 0d34 29be aa2b bbbd
000000c0: 71bd 903c cfe4 143e d3d3 e6bd 9bd1 8a3d
000000d0: f0f6 f3bc b8ac 37bd d6f5 c53d 3d2f d23d
000000e0: 8484 ddbd 07a5 89bd 97d8 653d 2be5 203d
000000f0: 3660 263e ec8a 223d ad3d 3e3e 77fd 803e
00000100: 2b0f b1bd e62d d0bc 4800 cb3d 7240 743e
00000110: 6797 34bd 2522 233c 9d42 943d 25ab 83be
00000120: 6380 d13d f19d 20be 0e71 a43c 8cd6 073e
00000130: ff6a 28bc 2282 123d 1261 ae3d e2fa b43d
00000140: f785 9a3d ec7f 5ebd a373 923e ced0 b83d
00000150: 6bc7 b33d d128 883d c999 cabc 4467 43bc
00000160: 4525 a83d 3630 53bd d826 50be d187 043d
00000170: b86f a73d 3c7a 9ebd 656b df3c f387 d5bc
00000180: 1d2e 34bd 353d 993c 2fd3 9ebd df61 21bd
00000190: 8f85 d13d 265c f7bc c906 0c3e 8f5a a5bd
000001a0: f135 1dbe 70fa eb3d 69ec 503d faa4 ee3b
000001b0: cb31 c73d df52 0e3d d37c 8e3e cf88 ae3d
000001c0: c354 653d e7e9 0e3d fe19 d2bd 56a3 7bbd
000001d0: 24f6 27bd ca97 56be 1ee8 78bd 19d0 883d
000001e0: 24b8 b0ba 7039 5dbd 2674 dcbd c315 c8bd
000001f0: 7ec5 9bbc affc 4cbd d3be 2dbc ba1b 8fbc
00000200: 01cd 883e 51ed 16be 568b d53c b600 633d
00000210: 40aa 82bc b21b 853d e54b 0dbe eb1e b8bd
00000220: 5392 ce3d 0c93 56bd d047 2d3d dcf2 72be
00000230: a318 dabc af8f edbc d714 903d 736d 5abd
00000240: 412a 7abd 8623 96bb 8576 aebd 748d 0cbc
00000250: b981 b0bc abaf 1c3c 3519 1f3d b101 ff3d
00000260: 7602 05bd f613 453d 1aec cd3d 0cd4 443e
00000270: b221 d23c 36fa 5e3d 9631 96bd ac4b d43d
00000280: c08e ab3d 2ce1 863d 62af 56ba 9454 e33a
00000290: ca7b acbd 6e15 b53d f650 4cbd f5e4 123e
000002a0: bf3c 3bbe 1567 a7bd df8a a7bd 1085 4f3d
000002b0: d268 953c 7c45 9e3d 9593 413a 0382 59bc
000002c0: 3080 02bd f575 08be 6542 c0bc d3db 0b3e
000002d0: 1bd0 ebbc 64df 88bd ac22 733c 6427 11bd
000002e0: 45a4 ff3d 9ee2 0ebd 9a17 4a3c 225a df3d
000002f0: af90 1ebc 32f6 9db9 f810 793d 4f11 203d
00000300: c0a5 3ebe b2a6 08bc d9ea 21be cf75 1ebd
00000310: 55af cb3d 845b ebbc 0584 ebbc 0219 ccbd
00000320: 157d 66be 7ea5 b8bd 9ed0 e5bd a9f2 b13d
00000330: c077 72bd 0145 053e 7d7d f0bd f8e0 813b
00000340: 879a d2bc 815a 983c f96e 813e 5f75 fabb
00000350: 0ac1 e6bc 743a 56be d284 02be 26de 14be
00000360: ca30 2dbe f843 173d f3cd cebd ff3e 7d3d
00000370: 8ae9 90bd afd4 74bd ef0e 69bd a61f d2bd
00000380: 2d34 aabc cb9b 98bd 11d2 4abd b22c f43b
00000390: 73aa 8c3c 175b 973d be6a 9dbc 5a64 963d
000003a0: 73a4 0c3e ee41 4dbd d88b 69bd d023 a3bd
000003b0: a9de 1bbe 8b55 103d c52f 5a3c f49e 333e
000003c0: ee4b 143e a32f 863d e2aa 023c 5865 3f3e
000003d0: 046a c639 918d 93bd 40ca a9bd af6a 9b3d
000003e0: 3355 bfbc 77a5 2e3c 48f6 1fbd 55df 763d
000003f0: c144 303d 58c3 bbbd 57cc 5ebd 66e6 a3bc

F.linears.2.bias f4 [10]
0.032477014 0.024451794 0.073664516 0.025755828 -0.06039625 0.03551986 -0.041247606 -0.07379437
-0.09782339 -0.03224197
00000000: 9e06 053d 214f c83c 6cdd 963d e3fd d23c
00000010: 0f62 77bd 467d 113d 40f3 28bd 8121 97bd
00000020: a157 c8bd 2810 04bd

G.0.linears.0.weight f4 [32, 10]
0.06855559 0.0094229635 -0.051749654 0.044918086 0.005160114 0.0997573 0.23563236 -0.23434712
0.07056849 -0.031776305 0.07585364 -0.019025428 -0.016166281 0.07288323 -0.03646837 0.019495087
-0.20100577 -0.12223723 0.122045495 -0.06874531 -0.15040085 -0.010393935 -0.08622742 -0.20361586
0.051771816 -0.1732458 -0.07207808 0.09088083 -0.074246675 0.22071148 0.06315808 -0.08673254
0.05581126 0.028285466 0.057021633 -0.1066239 0.079658344 -0.039862566 0.065788664 0.20858073
0.13690746 -0.16463464 -0.012173307 0.00915065 0.1054462 -0.12408678 0.088197485 0.024320818
-0.04502728 0.13299954 0.02388085 0.01607725 -0.062003814 -0.011119594 -0.05438672 -0.1331625
-0.02137753 0.078958824 -0.0891414 -0.027463749 0.013293852 0.013761241 -0.13177685 0.10126323
0.048505347 -0.06916584 0.13619599 0.062128205 0.15405942 -0.09819286 -0.05854135 -0.0786928
0.19299193 0.14941189 -0.09185864 0.18737231 -0.011402511 -0.055145614 -0.044965252 0.03238787
0.020636907 0.008026377 0.08451699 -0.14743033 0.18301338 -0.039195396 -0.030272042 0.0022775081
0.09194595 0.037858963 0.08667916 -0.15167633 -0.11382583 -0.12781169 0.07726433 -0.022330787
-0.17583367 -0.095063545 0.15192384 -0.026831295 -0.13598067 -0.03771844 0.18585746 -0.044129014
0.016170828 0.046220586 -0.01919966 -0.034945503 0.036704414 0.15166833 0.057478957 0.07833192
-0.13718227 0.11931142 0.07518811 -0.11292603 -0.046184786 0.0014726387 0.049904592 0.065757565
-0.17277475 0.07047944 0.035994872 0.0876238 -0.106700785 0.14135966 0.10728879 0.013749876
-0.14105427 -0.017363753 0.021394072 -0.1522021 0.06497066 0.00068709697 0.07406638 0.06908093
0.103641436 -0.020357758 0.035810154 -0.12144784 0.029263105 0.09563804 0.02979166 0.08955727
-0.04949487 -0.053332377 0.060255773 -0.076960206 0.05133042 -0.05088178 -0.097952664 -0.2024256
-0.011561782 0.13513465 -0.003741613 0.14556932 -0.035887063 -0.082115136 0.044540558 0.0110972
0.034214802 -0.05283952 0.007926663 -0.02342628 0.029210342 0.018790808 -0.092049494 0.10841366
0.056971017 -0.111634664 -0.07797124 0.09591727 0.024861041 0.04823431 0.03785183 -0.08883376
-0.11531082 0.023391115 0.018856246 -0.14537181 0.21927664 0.106758825 -0.25872767 0.18511926
-0.06354302 0.091396905 0.05735701 0.15671295 0.029205352 0.1374204 0.024278177 0.00031398446
-0.10585862 0.005400592 -0.28463408 -0.06692392 0.09151553 -0.08608688 0.006722272 -0.07911787
0.13673542 0.057769265 -0.019711372 0.12399068 -0.09049384 -0.11739079 -0.07374582 -0.0758813
-0.14089024 0.067028314 0.059399787 -0.047854625 -0.06545197 0.10427273 -0.016009936 -0.060018405
0.21029703 0.0017448831 -0.09558597 0.02680973 0.10305065 0.10536498 0.17398979 -0.05386668
0.124777466 -0.111445986 0.04893516 0.08101913 0.15778275 -0.057442978 -0.19745304 0.023855291
0.05910653 -0.013202215 -0.016988622 0.23486783 0.048006516 0.20239735 0.12186729 0.26782045
0.083294965 -0.08001321 0.0797552 0.08748769 0.031320762 0.11241049 -0.18017678 0.0015917886
-0.19468983 -0.060526475 0.10079234 -0.05013978 -0.14147587 -0.0735109 0.061158586 0.0026097298
00000000: e066 8c3d c662 1a3c 72f7 53bd 07fc 373d
00000010: 2c16 a93b 8e4d cc3d 9c49 713e b1f8 6fbe
00000020: 3686 903d df27 02bd 2759 9b3d 37db 9bbc
00000030: 266f 84bc ce43 953d dc5f 15bd 29b4 9f3c
00000040: 75d4 4dbe 8357 fabd fdf2 f93d 57ca 8cbd
00000050: ae02 1abe 534b 2abc 0098 b0bd ad80 50be
00000060: af0e 543d 5967 31be ac9d 93bd bb1f ba3d
00000070: a40e 98bd 3102 623e 0659 813d d4a0 b1bd
00000080: 599a 643d ecb6 e73c 848f 693d a25d dabd
00000090: ea23 a33d ee46 23bd 35bc 863d 3096 553e
000000a0: 7831 0c3e fc95 28be 8d72 47bc 9cec 153c
000000b0: 2df4 d73d 3621 febd e2a0 b43d 743c c73c
000000c0: 866e 38bd 0831 083e c6a1 c33c 70b4 833c
000000d0: b6f7 7dbd f52e 36bc 9cc4 5ebd c05b 08be
000000e0: ee1f afbc 2ab5 a13d c48f b6bd a8fb e0bc
000000f0: 75ce 593c d476 613c 83f0 06be 1963 cf3d
00000100: 8bad 463d d2a6 8dbd f676 0b3e 257a 7e3d
00000110: c1c1 1d3e 5719 c9bd 0ec9 6fbd b129 a1bd
00000120: ad9f 453e 6eff 183e 6220 bcbd 87de 3f3e
00000130: 99d1 3abc 5ee0 61bd 7c2d 38bd 25a9 043d
00000140: bb0e a93c 1181 033c 3e17 ad3d faf7 16be
00000150: dc67 3b3e 5a8b 20bd 13fd f7bc 3f42 153b
00000160: 294e bc3d 0012 1b3d d884 b13d 0a51 1bbe
00000170: 841d e9bd 11e1 02be c33c 9e3d 0eef b6bc
00000180: be0d 34be adb0 c2bd ec91 1b3e 4ecd dbbc
00000190: 843e 0bbe a77e 1abd 6b51 3e3e a0c0 34bd
000001a0: af78 843c cc51 3d3d 9b48 9dbc 0423 0fbd
000001b0: 5e57 163d f14e 1b3e 0e6f 6b3d 7c6c a03d
000001c0: 8279 0cbe 8c59 f43d 39fc 993d c345 e7bd
000001d0: 422c 3dbd 8e05 c13a c268 4c3d e7ab 863d
000001e0: ddeb 30be 8657 903d 5c6f 133d 1b74 b33d
000001f0: f185 dabd 96c0 103e 3aba db3d 2947 613c
00000200: 8870 10be 6e3e 8ebc 9f42 af3c deda 1bbe
00000210: 560f 853d 4c1e 343a 1db0 973d 4d7a 8d3d
00000220: f641 d43d 50c5 a6bc abad 123d a5b9 f8bd
00000230: 2eb9 ef3c e0dd c33d a40d f43c cd69 b73d
00000240: 22bb 4abd 0d73 5abd c2ce 763d 509d 9dbd
00000250: d93f 523d 6a69 50bd 689b c8bd a848 4fbe
00000260: a16d 3dbc bd60 0a3e d935 75bb 2010 153e
00000270: 50fe 12bd fb2b a8bd 2970 363d 08d1 353c
00000280: d224 0c3d 416e 58bd d6de 013c 78e8 bfbc
00000290: 874a ef3c 2eef 993c 7284 bcbd fb07 de3d
000002a0: 715a 693d b7a0 e4bd 63af 9fbd 4670 c43d
000002b0: 62a9 cb3c 5791 453d 850a 1b3d 79ee b5bd
000002c0: 1428 ecbd b99e bf3c 6a78 9a3c 59dc 14be
000002d0: 0e8a 603e 5fa4 da3d f477 84be e78f 3d3e
000002e0: d822 82bd 4d2e bb3d 2fef 6a3d 5c79 203e
000002f0: 1040 ef3c efb7 0c3e 07e3 c63c 489e a439
00000300: 67cc d8bd 73f7 b03b 8fbb 91be 680f 89bd
00000310: 7f6c bb3d 514e b0bd 8146 dc3b 8d08 a2bd
00000320: 5f04 0c3e 779f 6c3d be79 a1bc d3ee fd3d
00000330: d654 b9bd 956a f0bd 0c08 97bd a867 9bbd
00000340: 8845 10be 2446 893d 314d 733d 3603 44bd
00000350: af0b 86bd f18c d53d 4527 83bc dcd5 75bd
00000360: 1b58 573e 90b4 e43a 94c2 c3bd 14a0 db3c
00000370: 380c d33d 98c9 d73d 612a 323e 4fa3 5cbd
00000380: 548b ff3d cb3d e4bd 3c70 483d 5ced a53d
00000390: cd91 213e 5449 6bbd 2131 4abe 2c6c c33c
000003a0: b019 723d 1a4e 58bc b92b 8bbc 3181 703e
000003b0: 7ba2 443d 4041 4f3e 8f95 f93d c31f 893e
000003c0: 8d96 aa3d f7dd a3bd b256 a33d bf2c b33d
000003d0: 334a 003d 7937 e63d 4380 38be 90a3 d03a
000003e0: c55c 47be 9cea 77bd 376c ce3d 5f5f 4dbd
000003f0: 0ddf 10be e28c 96bd 6d81 7a3d 0008 2b3b

G.0.linears.0.bias f4 [32]
-0.025809009 0.08308969 -0.09117354 -0.037433717 0.08132968 0.00533293 0.07262978 -0.08855998
-0.05674981 0.0150029445 0.10723742 0.07466388 0.03367407 0.0064930734 0.034973174 0.0491938
-0.0102175865 -0.014278574 0.095787786 -0.0584257 0.07434553 -0.054964423 -0.07956618 -0.059297346
0.0035415026 -0.08701853 -0.061915327 -0.0737336 0.0864531 -0.106912784 -0.049301557 0.066213846
00000000: 6a6d d3bc ed2a aa3d 31b9 babd 1954 19bd
00000010: 2d90 a63d dcbf ae3b ecbe 943d ef5e b5bd
00000020: 7d72 68bd e9ce 753c 4b9f db3d 60e9 983d
00000030: d2ed 093d d9c3 d43b 0840 0f3d 707f 493d
00000040: aa67 27bc aef0 69bc 632c c43d c94f 6fbd
00000050: 7842 983d 6022 61bd 98f3 a2bd c6e1 72bd
00000060: 8e18 683b c536 b2bd ed9a 7dbd a401 97bd
00000070: 530e b13d 17f5 dabd 6ef0 49bd 209b 873d

G.0.linears.1.weight f4 [32, 32]
0.049491845 -0.077317715 0.09719855 -0.07727012 -0.053284705 -0.039460093 0.015292317 0.027680157
-0.018776301 -0.052789725 -0.0040016803 0.13122085 0.011574679 0.15303367 0.03718344 0.025148954
-0.15240476 -0.0668084 0.041577045 -0.06424152 -0.09000059 -0.043944836 -0.055000156 -0.044931535
-0.15749194 -0.15448551 0.0030952527 0.15236364 -0.05447151 -0.15582898 0.065909766 0.0012364177
-0.16088738 0.23577017 -0.028623631 -0.10026731 -0.11451272 -0.2767812 -0.03787103 -0.09371757
0.016191736 -0.044984754 -0.027204432 0.032404426 -0.05073092 0.038320217 0.08812564 0.15754549
-0.041209918 0.027769206 -0.089798175 0.027196422 -0.04899671 -0.08034946 -0.043619405 -0.055584658
-0.11864714 -0.12125403 0.08339024 0.04327672 0.05631133 0.09027078 -0.048940793 0.038645122
0.09529429 0.08862646 0.015073102 -0.21304522 -0.010295994 -0.25456703 0.061906166 -0.16030383
-0.08360644 -0.1740643 -0.11639165 0.21801284 -0.1125181 0.10252551 0.23412247 -0.048361644
-0.044041198 -0.034411848 -0.120588295 -0.07259728 0.03215361 0.04617789 0.14310262 0.16498958
0.064793944 -0.06021303 0.054945458 -0.12773289 -0.029620588 -0.060011413 -0.18496309 -0.06677319
0.121248074 -0.08030062 -0.02614864 -0.1627762 -0.02410172 -0.108646974 -0.12856059 0.016958674
0.06335489 -0.09631003 -0.009921292 0.058311302 0.026310261 -0.0043645585 0.16612914 0.063380465
0.013699972 -0.15835525 0.008776762 -0.050756685 0.08144771 -0.015948331 0.14898008 -0.045824956
0.14143628 0.09309157 0.08420376 0.009772351 0.023036717 -0.095527634 -0.3661608 0.03008373
0.052670855 -0.05917531 0.04296051 -0.11351744 0.009600854 -0.026111044 -0.07201777 -0.119512245
0.015159676 0.08323782 -0.0016093503 0.046298496 -0.12437875 0.075832605 -0.096136615 -0.012396705
-0.012152735 -0.047063343 -0.22688222 -0.1793905 0.11499773 0.10052839 0.00314529 0.089959264
0.14659315 0.030560795 -0.0333541 0.039356407 -0.06974918 0.013181594 -0.052053113 0.024782993
0.13004753 -0.06116753 -0.09825799 0.09954036 -0.15892355 0.08850112 0.16657975 -0.100298785
-0.04563929 0.063541315 0.033059992 0.113948114 0.20379798 0.030977774 -0.08359367 0.07992299
0.017413856 -0.09359907 -0.039726228 0.05017437 0.06819269 0.07302758 -0.096675016 -0.06907316
0.12295122 -0.14271864 0.042759273 -0.08207337 0.02748911 -0.067145586 -0.01108299 0.028493503
-0.080480404 0.113836534 0.0108790435 0.056350008 -0.082080886 0.08933347 0.055763487 -0.03342527
-0.095749766 -0.08849292 -0.104845904 -0.13226657 0.0792612 -0.06397868 0.06063144 0.018038178
-0.13570078 -0.23837575 -0.0426027 -0.041997798 0.026988724 -0.13659492 -0.03920441 0.041692212
0.031373665 -0.10968091 0.1349933 -0.034112055 0.057662472 0.06266041 -0.041285858 -0.06645114
-0.13043559 0.17394267 -0.06343215 0.11521506 -0.06608705 0.051895477 0.023603901 -0.050596084
-0.047503717 -0.06059161 0.05693687 0.07930845 -0.0073351464 -0.10114564 -0.13501792 -0.052643355
0.040931795 0.06721472 0.122286506 0.060996976 -0.14464207 -0.032922987 0.09141471 0.059596784
-0.13216725 -0.14411478 -0.12758936 -0.026721047 -0.11364045 0.11219552 -0.03234358 0.08817944
00000000: f6b7 4a3d c058 9ebd 0910 c73d cc3f 9ebd
00000010: 1041 5abd e8a0 21bd a08c 7a3c 7fc1 e23c
00000020: c2d0 99bc 0a3a 58bd 8720 83bb c25e 063e
00000030: b9a3 3d3c dcb4 1c3e aa4d 183d 2e05 ce3c
00000040: fe0f 1cbe d8d2 88bd b14c 2a3d 0f91 83bd
00000050: 3b52 b8bd 80ff 33bd d847 61bd 210a 38bd
00000060: 9145 21be 7331 1ebe b9d9 4a3b 3705 1c3e
00000070: 851d 5fbd a291 1fbe b3fb 863d 4b0f a23a
00000080: a9bf 24be bc6d 713e 1b7c eabc f358 cdbd
00000090: a585 eabd 44b6 8dbe a71e 1bbd ffee bfbd
000000a0: 88a4 843c ef41 38bd d4db debc 81ba 043d
000000b0: 3acb 4fbd a9f5 1c3d 377b b43d 9b53 213e
000000c0: bbcb 28bd 3f7c e33c 1be8 b7bd 08cb de3c
000000d0: c6b0 48bd 428e a4bd 43aa 32bd bdac 63bd
000000e0: 46fd f2bd 0854 f8bd 81c8 aa3d ee42 313d
000000f0: b6a6 663d e3df b83d 2476 48bd 594a 1e3d
00000100: a729 c33d ca81 b53d 2cf5 763c 8728 5abe
00000110: 87b0 28bc 9c56 82be 5291 7d3d b026 24be
00000120: da39 abbd e93d 32be bf5e eebd c23e 5f3e
00000130: e46f e6bd e5f8 d13d cdbd 6f3e dc16 46bd
00000140: 8b64 34bd 70f3 0cbd fff6 f6bd e2ad 94bd
00000150: 81b3 033d 0725 3d3d 7e89 123e 07f3 283e
00000160: b0b2 843d f0a1 76bd 7d0e 613d 69cc 02be
00000170: e0a6 f2bc 87ce 75bd f766 3dbe 62c0 88bd
00000180: e950 f83d a774 a4bd ac35 d6bc ceae 26be
00000190: f870 c5bc 4e82 debd 63a5 03be ebec 8a3c
000001a0: 35c0 813d 313e c5bd ea8c 22bc d5d7 6e3d
000001b0: 9e88 d73c 9204 8fbb c21d 2a3e 9ecd 813d
000001c0: d975 603c e127 22be 68cc 0f3c 3ee6 4fbd
000001d0: 0fce a63d 13a6 82bc 3c8e 183e f3b2 3bbd
000001e0: acd4 103e cba6 be3d 0573 ac3d 361c 203c
000001f0: 7fb7 bc3c fea3 c3bd 6e79 bbbe 2872 f63c
00000200: 65bd 573d cf61 72bd 5cf7 2f3d d57b e8bd
00000210: e64c 1d3c d4e6 d5bc 0d7e 93bd d6c2 f4bd
00000220: 4a60 783c 9778 aa3d d6f0 d2ba 7ea3 3d3d
00000230: 49ba febd 204e 9b3d 46e3 c4bd 8d1b 4bbc
00000240: 441c 47bc 7ec5 40bd d053 68be 25b2 37be
00000250: ee83 eb3d d4e1 cd3d 3621 4e3b 903c b83d
00000260: 841c 163e a25a fa3c 4f9e 08bd 2f34 213d
00000270: a8d8 8ebd 9df7 573c a535 55bd b405 cb3c
00000280: 2e2b 053e ce8a 7abd 7c3b c9bd d1db cb3d
00000290: dbbc 22be 1340 b53d e293 2a3e 7369 cdbd
000002a0: 44f0 3abd f321 823d ea69 073d a15d e93d
000002b0: 6bb0 503e 1ac5 fd3c 2833 abbd aaae a33d
000002c0: 81a7 8e3c dfb0 bfbd f8b7 22bd a483 4d3d
000002d0: 9ca8 8b3d 7c8f 953d 8dfd c5bd 3b76 8dbd
000002e0: d9cd fb3d d624 12be 5924 2f3d 1516 a8bd
000002f0: d830 e13c a083 89bd 6e95 35bc 356b e93c
00000300: e9d2 a4bd 2123 e93d 043e 323c 44cf 663d
00000310: 061a a8bd 77f4 b63d 4168 643d f0e8 08bd
00000320: 7418 c4bd c73b b5bd 73b9 d6bd e370 07be
00000330: b253 a23d 4107 83bd ac58 783d cdc4 933c
00000340: 25f5 0abe c618 74be 2b80 2ebd e205 2cbd
00000350: 7517 dd3c 8adf 0bbe ce94 20bd 74c5 2a3d
00000360: ac81 003d 63a0 e0bd af3b 0a3e 15b9 0bbd
00000370: 7c2f 6c3d 1a54 803d 5c1b 29bd 8917 88bd
00000380: e890 05be 071e 323e b7e8 81bd e0f5 eb3d
00000390: a658 87bd 5a90 543d f85c c13c d73d 4fbd
000003a0: 4293 42bd e82e 78bd a336 693d 786c a23d
000003b0: ab5b f0bb 7225 cfbd 2342 0abe 8fa0 57bd
000003c0: 19a8 273d dfa7 893d 5971 fa3d f7d7 793d
000003d0: 0d1d 14be 41da 06bd a337 bb3d c21b 743d
000003e0: da56 07be d392 13be c9a6 02be 19e6 dabc
000003f0: 53bc e8bd c4c6 e53d b47a 04bd 6c97 b43d

G.0.linears.1.bias f4 [32]
-0.04623642 0.050238892 0.041277 -0.012666691 0.022691943 0.05639303 0.071058065 0.048874874
0.10277323 -0.063009925 -0.052291617 -0.033890877 0.07081113 -0.07735965 -0.06935217 -0.07407067
-0.01031032 -0.046349455 0.031623434 -0.07442248 0.10975867 -0.0398926 -0.013088314 -0.03820927
-0.042910125 -0.064580955 0.06961097 -0.012301478 -0.003203996 0.07514614 -0.071954645 -0.021272542
00000000: 6662 3dbd 4cc7 4d3d 1212 293d f487 4fbc
00000010: 74e4 b93c 61fc 663d e486 913d 0531 483d
00000020: c57a d23d 590b 81bd bc2f 56bd 29d1 0abd
00000030: 6d05 913d bc6e 9ebd 8308 8ebd 5db2 97bd
00000040: 9eec 28bc edd8 3dbd 9387 013d d06a 98bd
00000050: 27c9 e03d 6c66 23bd 5e70 56bc 5381 1cbd
00000060: 87c2 2fbd 0543 84bd 3290 8e3d 238c 49bc
00000070: 22fa 51bb 38e6 993d f55c 93bd c143 aebc

G.0.linears.2.weight f4 [10, 32]
-0.012644096 -0.06615157 0.0130637605 -0.11443567 0.054114267 -0.23472126 0.13513988 0.10470711
0.024072241 -0.13597915 0.046649914 0.07037403 0.01247393 0.13536228 -0.07377064 -0.112910874
0.023888791 -0.08468944 0.08993405 -0.0645549 -0.22941588 0.20848194 0.03501455 -0.0152957225
0.009261234 0.09998859 0.071719475 0.012329301 0.11524335 0.13127354 -0.17237481 0.009885645
0.07380651 -0.026082925 -0.020595638 -0.07926155 0.12444991 0.08061203 0.01907147 0.14742923
-0.035404596 -0.1555792 0.01749279 -0.019547133 -0.043911718 -0.094206594 -0.041275833 0.21845175
-0.06521641 0.12677452 0.130995 -0.06513743 -0.09719455 0.0077174837 -0.12758869 0.08517347
-0.0037863902 -0.1279897 0.036579024 0.012040542 0.22448835 -0.049701754 0.0033853825 -0.0009436726
-0.049788225 -0.1253813 -0.22092389 0.22870262 -0.11343825 0.085054204 0.11297986 0.037106473
0.12423289 -0.13531952 0.01645733 -0.056069795 0.09168373 0.09255903 -0.03847018 -0.15709677
0.012545944 0.15443687 -0.064790234 0.1473396 0.048568893 -0.14146248 0.041224286 0.02939029
0.14861305 -0.09761944 0.069097966 -0.101702414 -0.007209166 0.08698316 -0.052898347 0.065261066
0.052861985 -0.12450533 0.1557823 0.15162373 0.19869669 -0.072541334 -0.11705923 0.10543718
0.07886326 -0.03131502 -0.04705983 0.058035202 0.10942315 0.0664815 0.018272175 0.008355749
-0.046637394 -0.08121987 0.09286237 0.030583996 0.063063286 -0.041204486 -0.08057458 -0.06458496
0.0904074 -0.061652664 -0.016710559 -0.036393262 0.063618004 0.12607616 0.009255184 -0.0018391158
0.12369132 0.066078834 0.028346809 -0.02374137 -0.0052817557 -0.13018781 0.058841925 0.051783856
-0.20306113 0.06199968 0.06301608 -0.07410036 0.19019458 -0.09986656 -0.013938232 -0.22926995
-0.10429228 0.004259896 -0.11051194 -0.041824453 0.05390085 0.05214154 0.06217535 -7.6604076e-05
-0.0816493 -0.07902914 -0.08366293 0.052670013 -0.025394479 -0.098480254 0.07782177 -0.1718284
0.04785799 0.04656616 0.12817253 0.03487933 -0.08274463 -0.010036716 -0.1416431 -0.104178086
0.04112655 -0.096818335 -0.12802212 0.042885598 -0.03230699 0.07684255 -0.10950554 0.041325353
-0.11501621 0.035353187 0.07153517 0.07982601 -0.094658524 -0.18401384 -0.04692098 -0.08346667
-0.061063286 -0.17896377 -0.2536159 0.314074 0.038729448 -0.05747349 -0.08597743 -0.12795722
0.1412359 0.019334808 0.013014361 -0.014517625 -0.026072145 0.070884556 -0.028337393 -0.045726933
-0.057021163 0.013128684 -0.01578439 -0.013379542 0.023795713 0.1255777 -0.01895202 0.13799453
0.03541081 0.04652255 0.023428876 -0.11025248 0.00020525746 0.00450889 -0.1674638 -0.08323106
0.038273543 0.05889785 -0.106178045 0.16398 -0.0069564404 0.15243793 -0.04965298 0.026063599
-0.03038613 -0.0034310366 0.027702132 0.16785316 0.010231223 0.20689446 -0.13745263 0.0065129194
0.15798146 0.27963597 -0.06897406 0.083802074 0.03421388 0.0028586248 0.035794165 0.05649943
-0.10241725 -0.11616974 -0.11712322 -0.025759272 -0.22718856 -0.13427103 -0.20311911 -0.04936232
-0.22488666 0.08274977 0.02118141 0.05429542 -0.040604856 0.0930691 0.0533784 -0.047707193
00000000: 2f29 4fbc 797a 87bd 6209 563c 405d eabd
00000010: eca6 5d3d c55a 70be 1c62 0a3e ae70 d63d
00000020: 2633 c53c 1e3e 0bbe fb13 3f3d 4220 903d
00000030: 745f 4c3c 699c 0a3e 1015 97bd d13d e7bd
00000040: 6db2 c33c a871 adbd 582f b83d 5c35 84bd
00000050: ffeb 6abe 4a7c 553e 6b6b 0f3d e99a 7abc
00000060: 6ebc 173c d1c6 cc3d a9e1 923d d600 4a3c
00000070: b504 ec3d 926c 063e 0683 30be 66f7 213c
00000080: de27 973d dcab d5bc 2fb8 a8bc e153 a2bd
00000090: 98df fe3d ec17 a53d c53b 9c3c b0f7 163e
000000a0: 6904 11bd 2750 1fbe 0a4d 8f3c 4f21 a0bc
000000b0: c6dc 33bd 63ef c0bd d910 29bd d1b1 5f3e
000000c0: 2e90 85bd 2ed1 013e 8e23 063e c666 85bd
000000d0: f00d c7bd f2e2 fc3b 9ca6 02be 6e6f ae3d
000000e0: 1625 78bb bb0f 03be e3d3 153d b245 453c
000000f0: 46e0 653e 1194 4bbd 4bdd 5d3b cc60 77ba
00000100: bdee 4bbd f563 00be df39 62be 0531 6a3e
00000110: 5052 e8bd e630 ae3d fc61 e73d f5fc 173d
00000120: d06d fe3d 3391 0abe 86d1 863c 71a9 65bd
00000130: aec4 bb3d 978f bd3d e892 1dbd fadd 20be
00000140: 818d 4d3c b324 1e3e beb0 84bd 31e0 163e
00000150: 2df0 463d 8adb 10be ccda 283d e8c3 f03c
00000160: 052e 183e b3ec c7bd 3c83 8d3d 5b49 d0bd
00000170: de3a ecbb 3a24 b23d f0ab 58bd 98a7 853d
00000180: cf85 583d a7fc febd 6585 1f3e 4043 1b3e
00000190: 2577 4b3e 8d90 94bd c0bc efbd 73ef d73d
000001a0: 1083 a13d 2e44 00bd cfc1 40bd 52b6 6d3d
000001b0: 3f19 e03d 7427 883d 87af 953c 8de6 083c
000001c0: da06 3fbd 9a56 a6bd a02e be3d 4a8b fa3c
000001d0: 5327 813d 09c6 28bd 4904 a5bd 1f45 84bd
000001e0: 8427 b93d 8187 7cbd 95e4 88bc 1a11 15bd
000001f0: 284a 823d 1c1a 013e 0ea3 173c 7c0e f1ba
00000200: e051 fd3d 5754 873d 9137 e83c 437d c2bc
00000210: 9412 adbb f44f 05be 3b04 713d 4f1b 543d
00000220: 42ef 4fbe 60f3 7d3d 930e 813d eec1 97bd
00000230: 5ec2 423e d786 ccbd 2f5d 64bc bec5 6abe
00000240: 3197 d5bd 9996 8b3b 1654 e2bd 1e50 2bbd
00000250: 23c7 5c3d 5e92 553d 94ab 7e3d 80a6 a0b8
00000260: c037 a7bd 08da a1bd 7857 abbd 83bc 573d
00000270: 1508 d0bc 04b0 c9bd 0561 9f3d c9f3 2fbe
00000280: bd06 443d 28bc 3e3d a93f 033e a1dd 0e3d
00000290: 0476 a9bd 0a71 24bc e40a 11be 525b d5bd
000002a0: 5074 283d b148 c6bd 3b18 03be cfa8 2f3d
000002b0: 5654 04bd a05f 9d3d 7144 e0bd c644 293d
000002c0: 9e8d ebbd 81ce 103d 0881 923d d27b a33d
000002d0: 54dc c1bd 206e 3cbe 3730 40bd 93f0 aabd
000002e0: 7f1d 7abd 4742 37be f1d9 81be 4fce a03e
000002f0: c5a2 1e3d 5269 6bbd ef14 b0bd 3807 03be
00000300: 25a0 103e 0864 9e3c 303a 553c 55db 6dbc
00000310: 4095 d5bc ec2b 913d d223 e8bc 2a4c 3bbd
00000320: 068f 69bd b119 573c 444e 81bc de35 5bbc
00000330: 3aef c23c 7197 003e 4441 9bbc 704e 0d3e
00000340: ed0a 113d 6e8e 3e3d eaed bf3c 0dcc e1bd
00000350: 613a 5739 50bf 933b a17b 2bbe 0c75 aabd
00000360: b8c4 1c3d df3e 713d e073 d9bd 60ea 273e
00000370: daf2 e3bb b018 1c3e ec60 4bbd 5483 d53c
00000380: 55ec f8bc 3edb 60bb 95ef e23c b3e1 2b3e
00000390: dca0 273c 24dc 533e 62c0 0cbe 546a d53b
000003a0: e4c5 213e 722c 8f3e 4642 8dbd 6ca0 ab3d
000003b0: da23 0c3d c457 3b3b e79c 123d f26b 673d
000003c0: 23c0 d1bd 67ea edbd 4cde efbd 1c05 d3bc
000003d0: 1ea4 68be 587e 09be 75fe 4fbe 2530 4abd
000003e0: b048 66be b678 a93d a384 ad3c e064 5e3d
000003f0: 4751 26bd 039b be3d 4fa3 5a3d 9e68 43bd

G.0.linears.2.bias f4 [10]
0.03365983 -0.0013046451 -0.08550904 -0.05164373 0.017883983 -0.037092842 0.0837074 -0.08167944
-0.08789205 -0.09137212
00000000: e4de 093d a000 abba 5d1f afbd 6088 53bd
00000010: 6e81 923c aaee 17bd c96e ab3d 8d47 a7bd
00000020: bf00 b4bd 4e21 bbbd

L.0.linears.0.weight f4 [32, 20]
0.10442705 -0.14157273 0.08733416 0.15726115 0.008840171 -0.10265976 0.0018564207 0.057885747
-0.13555767 0.0026426814 0.05683517 -0.09562069 0.002990756 -0.101691335 -0.014980698 -0.02245655
0.04332074 -0.058440913 -0.08160292 0.044070765 0.07137185 0.08855782 0.020723611 -0.36421955
0.056756023 -0.024286557 -0.07298427 -0.013958045 0.14677592 0.04415061 0.0044649877 0.123916276
0.19280435 -0.0686682 0.0071037025 -0.0910395 -0.032228686 -0.094545096 0.09488827 0.09390379
0.06284204 0.011892842 0.025074998 0.11425787 -0.074849576 -0.019805169 0.14744537 0.07528834
-0.07659179 0.11827215 0.07295283 0.14362271 0.2536905 -0.037924193 0.04371681 -0.18138973
0.008567605 -0.08755639 -0.008885924 -0.094104394 0.03774251 -0.07767771 0.019288775 0.10258225
-0.016102731 0.070526384 0.090854816 -0.019849064 0.17871481 -0.08040365 -0.21429357 0.05509167
-0.07533379 -0.1147646 -0.06898309 -0.1051552 -0.04356032 0.020658031 0.02329651 -0.018675353
0.066996135 0.07285695 0.069784425 -0.018370265 0.073492765 -0.06622984 0.030974811 0.035321068
-0.040247183 0.12335529 0.08763063 0.045360938 -0.044387035 -0.079417035 0.06949741 -0.054422505
0.032046318 -0.13588756 -0.11053158 -0.043473773 -0.0005566524 0.19403486 0.25019374 -0.025559466
0.13401961 0.0006950895 -0.08192884 0.1873621 -0.01923997 -0.014142207 -0.011737113 -0.04870651
0.014148259 0.13967887 0.16729088 -0.07907116 0.022659982 0.016742289 -0.081302404 -0.12126765
-0.07398345 0.017576791 0.14405338 0.17158586 0.00039578485 0.047128104 -0.03192961 0.039644625
0.019493282 -0.05677805 0.10358346 0.037294045 -0.070374325 0.060829602 0.021552 0.1955331
-0.13185179 0.119253 0.05018211 -0.0788952 -0.07157553 0.10759748 -0.06956455 0.11889221
0.14331353 -0.03844625 0.01561204 0.071769774 0.0985793 -0.026736876 0.190442 -0.14404297
0.13870068 -0.08307389 0.041622102 -0.06936195 -0.08799984 -0.1994208 0.09047807 -0.102432035
0.11776651 -0.20243153 0.027707752 -0.02873059 -0.09879632 -0.0510207 -0.1104051 0.13183956
-0.06953705 0.14224182 0.10747269 0.06682191 0.11872414 0.04370023 -0.044926345 0.010845363
-0.00746313 -0.012300927 0.06522843 0.107270546 0.016951304 0.1629102 0.048990253 -0.083114244
-0.024763815 -0.14608884 0.048522785 -0.13643786 0.08010627 0.08151372 0.07085532 0.10313928
-0.13491653 0.047286294 0.004896459 0.011953934 -0.017525272 -0.041473478 -0.08970636 0.0030217862
-0.12856807 -0.2365178 -0.068137206 -0.19606869 -0.04602102 0.14906672 0.027652876 0.02134174
0.031560685 -0.013250372 0.134113 -0.09904549 0.04355103 -0.061885603 0.13808398 0.08673426
-0.014397447 -0.015259538 0.00945658 0.13692258 0.12028793 -0.0316165 -0.12353999 0.16241695
0.09708104 0.035930008 -0.1683084 -0.2435224 0.10414931 0.07590105 -0.1445151 0.017593538
0.12274082 -0.04721529 0.0074622347 -0.13414462 -0.08474626 -0.010124748 -0.028013656 -0.069858536
-0.15867215 -0.043584842 -0.046163376 -0.0053866953 -0.04333998 0.03757629 0.06886582 0.0921253
0.10304304 0.0077627376 -0.07431309 0.02251203 0.041701954 -0.11005526 0.11148209 -0.03418802
00000000: d9dd d53d 71f8 10be 41dc b23d 1109 213e
00000010: 5dd6 103c 483f d2bd 2453 f33a 9b19 6d3d
00000020: a1cf 0abe d630 2d3b ffcb 683d c8d4 c3bd
00000030: 8f00 443b 8c43 d0bd 9a71 75bc ccf6 b7bc
00000040: 1771 313d bd5f 6fbd 6f1f a7bd 8c83 343d
00000050: 682b 923d cd5d b53d 90c4 a93c fc7a babe
00000060: 0179 683d 9af4 c6bc c778 95bd 49b0 64bc
00000070: 6d4c 163e 45d7 343d 084f 923b d1c7 fd3d
00000080: 816e 453e eaa1 8cbd 2dc6 e83b eb72 babd
00000090: 3a02 04bd dca0 c1bd c854 c23d a150 c03d
000000a0: 54b3 803d 32da 423c 156a cd3c 0800 ea3d
000000b0: bc4a 99bd 733e a2bc ebfb 163e c630 9a3d
000000c0: 28dc 9cbd ab38 f23d 4b68 953d d511 133e
000000d0: b9e3 813e 6656 1bbd 6610 333d 3bbe 39be
000000e0: 245f 0c3c c450 b3bd 4496 11bc ceb9 c0bd
000000f0: e497 1a3d 7e15 9fbd 7e03 9e3c a516 d23d
00000100: e0e9 83bc 2370 903d 1712 ba3d 819a a2bc
00000110: 0401 373e abaa a4bd c66f 5bbe cea7 613d
00000120: 9a48 9abd b409 ebbd 0247 8dbd 9c5b d7bd
00000130: 4e6c 32bd 083b a93c 53d8 be3c 0efd 98bc
00000140: 4535 893d 0636 953d 23eb 8e3d 3d7d 96bc
00000150: 6083 963d 83a3 87bd e3be fd3c d3ac 103d
00000160: 3bda 24bd b3a1 fc3d b077 b33d 64cc 393d
00000170: 2ecf 35bd 66a5 a2bd a854 8e3d 22ea 5ebd
00000180: 0043 033d 1c26 0bbe 625e e2bd 8e11 32bd
00000190: 4fec 11ba 13b1 463e 6519 803e 1662 d1bc
000001a0: 703c 093e ab36 363a 4fca a7bd dadb 3f3e
000001b0: 249d 9dbc b7b4 67bc 054d 40bc 7a80 47bd
000001c0: 19ce 673c fa07 0f3e 4d4e 2b3e 0ff0 a1bd
000001d0: 6da1 b93c 2027 893c e081 a6bd 2c5b f8bd
000001e0: a384 97bd 34fd 8f3c bb82 133e 34b4 2f3e
000001f0: 5881 cf39 6609 413d 9fc8 02bd 6762 223d
00000200: 60b0 9f3c 1a90 68bd 9123 d43d a4c1 183d
00000210: 6a20 90bd 7628 793d d28d b03c d439 483e
00000220: 2804 07be eb3a f43d c28b 4d3d ce93 a1bd
00000230: 3196 92bd 115c dc3d dc77 8ebd c27d f33d
00000240: c8c0 123e d179 1dbd a4c9 7f3c 08fc 923d
00000250: f2e3 c93d 4b07 dbbc 3a03 433e 0080 13be
00000260: 8d07 0e3e a522 aabd f07b 2a3d a30d 8ebd
00000270: 4339 b4bd f734 4cbe 914c b93d e3c7 d1bd
00000280: 912f f13d 364a 4fbe 5efb e23c 6a5c ebbc
00000290: ba55 cabd 15fb 50bd 121c e2bd f300 073e
000002a0: 7169 8ebd d7a7 113e a41a dc3d edd9 883d
000002b0: a425 f33d 03ff 323d b004 38bd c0b0 313c
000002c0: 468d f4bb d489 49bc 7c96 853d a9b0 db3d
000002d0: 76dd 8a3c eed1 263e 01aa 483d cd37 aabd
000002e0: 7cdd cabc 5098 15be d4bf 463d 5eb6 0bbe
000002f0: c20e a43d aaf0 a63d 981c 913d b03a d33d
00000300: 8f27 0abe 46af 413d 7a72 a03b 6fda 433c
00000310: 2991 8fbc 18e0 29bd f8b7 b7bd 2909 463b
00000320: 59a7 03be b931 72be 858b 8bbd 3bc6 48be
00000330: 8980 3cbd f2a4 183e 4988 e23c dfd4 ae3c
00000340: c745 013d 1718 59bc eb54 093e 5dd8 cabd
00000350: 9162 323d c27b 7dbd e365 0d3e bba1 b13d
00000360: 45e3 6bbc 2403 7abc c5ef 1a3c 6f35 0c3e
00000370: 8559 f63d 4e80 01bd 8902 fdbd a150 263e
00000380: 6dd2 c63d 582b 133d 0a59 2cbe f05d 79be
00000390: 3c4c d53d 0272 9b3d c4fb 13be 5320 903c
000003a0: 8a5f fb3d d264 41bd c385 f43b 355d 09be
000003b0: 728f adbd 45e2 25bc e57c e5bc fe11 8fbd
000003c0: f47a 22be 0586 32bd cf15 3dbd e082 b0bb
000003d0: 4385 31bd 99e9 193d 8609 8d3d 30ac bc3d
000003e0: 3b08 d33d 905e fe3b 7631 98bd 266b b83c
000003f0: abcf 2a3d a764 e1bd b950 e43d bd08 0cbd

L.0.linears.0.bias f4 [32]
0.06925546 -0.07297525 0.08653389 0.0205786 -0.099562995 -0.008525856 -0.055133477 -0.025386067
-0.03325461 -0.034358755 -0.059984483 0.045265146 -0.0477418 -0.014790964 -0.06274594 -0.07251579
-0.0011226503 -0.07675336 -0.058781195 -0.089977965 -0.052966557 -0.05720622 0.0012771247 -0.04395339
0.056037366 -0.015024678 0.083078764 -0.06835822 -0.03741718 0.10955724 -0.049094282 -0.01996769
00000000: ced5 8d3d 0c74 95bd ae38 b13d 7494 a83c
00000010: afe7 cbbd 08b0 0bbc a4d3 61bd 71f6 cfbc
00000020: fc35 08bd c4bb 0cbd 4ab2 75bd f267 393d
00000030: e88c 43bd cd55 72bc f280 80bd 2983 94bd
00000040: e525 93ba de30 9dbd 8dc4 70bd 5e46 b8bd
00000050: 76f3 58bd 1251 6abd 3265 a73a 7808 34bd
00000060: 7087 653d 112a 76bc 3325 aa3d 65ff 8bbd
00000070: c242 19bd 8c5f e03d 1617 49bd 4893 a3bc
