para_save2/00025params.pth (torch, 118145 bytes, 76 tensors)

F.linears.0.weight f4 [32, 20]
00000000: fef9 2a3d 7193 d0bd ba29 34bd a2b6 f63c
00000010: 141c 103c 698a 113d 334e 85bd 43bd a6bc
00000020: 721e f83b 9870 3f3d ac5c 5f3d df8c 263e
00000030: 5f39 4bbe b86a b33d 8040 203e d7e2 083e
00000040: 5ec8 09be a214 a13c db6f 12be 5d38 283d
00000050: 1220 be3d 0a9e b63b 57d2 0dbd c687 9abd
00000060: c80d 0aba 413e 9fbc dc6f 7a3d 9006 223d
00000070: c01e ecbd d7f5 32bd 1fb8 613e 242a 963d
00000080: 11f5 5ebd 39a2 b13d 726e b8bd 2bae 1c3d
00000090: 7322 49bd 4ee6 733e ab07 133e d1de 103c
000000a0: 9855 a7bd fb50 7d3e 2e1a 09be c7f3 82bc
000000b0: 6f91 bc3d d1fd 1b3e 18aa faba 93ac 4a3d
000000c0: fe26 fcbd b76f f63c c075 e83c 2a50 22be
000000d0: 92d3 77bd 23c6 1bbd 85a7 93bd f324 5abe
000000e0: fbd1 71bd 5f91 02be 889c e93d bc44 a63d
000000f0: 5d50 2fb9 278e bc3c e6e4 46bc 65e8 aebc
00000100: ccbd 323d 3331 0c3c 4ca1 163e 8446 b83d
00000110: 3668 813e 0ef2 523d b730 d73d d41e 6d3d
00000120: f31d 8f3d ba13 2f3d 2dc0 d8bd 5210 543e
00000130: 2661 04be 84f5 2e3e e09d 1cbe edd3 49bd
00000140: c3a6 483e 6dee 993c 0994 89be 7af2 25bd
00000150: 690b a43d f615 bc3d 415b a2bd 167f 153d
00000160: bf62 5abd dc69 46bb fd6e 733d 65ef ffbd
00000170: 01ac 873d 7fde 013e 2999 45be 0582 f8bb
00000180: 98f8 133c a115 c23c e4a5 9cbd 68b0 a53d
00000190: 9279 81bd 16a4 9cbd 30c4 8a3c bc41 b2bc
000001a0: 03b3 8d3b 7439 9a3d 6035 453c 668c 03be
000001b0: a965 d4bd 51fd 38be edb7 313e 52f9 193e
000001c0: ad97 243d fb15 793c d38a a7bd 0632 453e
000001d0: 8fa0 cbbd b460 bfbd 6e46 fcbb 013b 0e3e
000001e0: 0404 2abd 666b 013c cf5c 4a3e 6d1d 9dbd
000001f0: 9a95 9abd cf80 eb3c bb67 e93d 4c23 48be
00000200: 6e5b 4dbd 3ad6 1dbd 281d bcbc b09d f23b
00000210: 9a71 ecbd 1c77 a6bd b100 70bd fc26 56be
00000220: 5213 7dbd dd88 86bd 7259 393c 6983 ee3c
00000230: cf46 54bd 92b7 08bb a8f1 aebd cb0b 26bd
00000240: 2b30 ebbd 78f7 0ebd 2cf1 0abe 73d1 a2bd
00000250: 333d 24be c9ef c53d 70c9 c03d f405 483e
00000260: 5d88 0c3e 2e66 9bbd 8c40 843c 21b6 a8bc
00000270: bed8 333e df59 0abd bea3 a83d d65a 483d
00000280: 54cf f03c 38e3 b1bd e98a e439 c0e8 a1bd
00000290: 74fd abbc bcaa c0bb aee4 f0bd 4dc5 ec3d
000002a0: 6611 d03d c00e 3b3d 208d dfbd 1328 a6bd
000002b0: e633 5d3d 8e19 a83d 259d 893c 0e90 07bd
000002c0: a85a dabc 07e1 4c3e e6f8 cf3c 3495 de3c
000002d0: de43 41be ca15 4a3d 4cd5 803d 3d19 b4bd
000002e0: 732d 923c e648 31be 323a ae3d a0e6 463d
000002f0: ebe2 48bc 87b2 503d 7ae7 a1bd 1b61 debd
00000300: 4d21 4a3d 43cd b7bd a2f9 dabd 1a21 0f3d
00000310: 668a b8bd f1d4 c23d 21e2 973c 0a1c 883d
00000320: 7e7f d23c 5556 2ebd bb45 7f3c ab8f 763b
00000330: 0187 393c e8bc c3bc 66d1 f03b 3a28 993c
00000340: 59ef 53be 6bae 1cbe 6762 a6bd f6a2 733c
00000350: 8cb2 44bd 8096 203c 2e54 1fbd af27 013e
00000360: dbe6 923d bf02 7b3d 5c54 83bd 92f7 5f3d
00000370: 0823 bc3c 78ee 45bc fe1d 2b3e 438c 8cbd
00000380: 66c1 93bd a6d4 fb3d 8884 dc3d 9051 6dbd
00000390: 2ba2 90bd 7570 87bd b3c6 be3c 1dd4 8b3d
000003a0: d79e c1bd 3f6e ab3d 9eca 49bd ecc1 b4bd
000003b0: 2af0 943d a051 f9bd a7d4 44be 8755 90bd
000003c0: 6661 d03d cd66 08bd b1fc d03d ab6b 083e
000003d0: 3a14 f73d 1fa3 d6bc a91f 3c3e 985a d93c
000003e0: 4e27 d8bd 7cfa 92bd 851e 79be bcdf 1a3d
000003f0: d833 ea3d 8b39 143d 8965 7fbd 6222 a93d
0.041742317 -0.10184372 -0.043985106 0.030116383 0.008795757 0.03553239 -0.06509056 -0.020353919
0.0075719887 0.046738237 0.05453174 0.16264676 -0.19846104 0.08760589 0.15649605 0.13367783
-0.1345534 0.019663159 -0.14300482 0.041069377 0.09283461 0.005573039 -0.034624424 -0.07545428
-0.0005266336 -0.019438865 0.061141834 0.03955704 -0.115293026 -0.043691482 0.22042893 0.073322564
-0.054432932 0.0867352 -0.09005441 0.038252037 -0.04910512 0.23818323 0.14358394 0.008842186
-0.081706226 0.24737923 -0.13388893 -0.015985383 0.09207427 0.15233542 -0.0019124178 0.049480986
-0.12312125 0.030082567 0.02837646 -0.15850893 -0.060504504 -0.038030755 -0.07209686 -0.21303158
-0.059038144 -0.12750767 0.11406809 0.08118579 -0.00016719238 0.023017002 -0.012139535 -0.021351049
0.043638036 0.008556652 0.14709967 0.08997825 0.2527482 0.051500373 0.105073385 0.057890728
0.06988134 0.042743422 -0.105835296 0.2070935 -0.12927684 0.17085844 -0.152946 -0.049274374
0.19594865 0.018790448 -0.26870754 -0.040514447 0.08009989 0.09183876 -0.079275616 0.03649815
-0.053316828 -0.00302755 0.05943202 -0.12496833 0.06624604 0.12682532 -0.19296707 -0.007583859
0.009031437 0.023691954 -0.076488286 0.080902874 -0.06322016 -0.076484844 0.016939253 -0.02175986
0.0043243184 0.075304896 0.012036651 -0.12846527 -0.10370953 -0.18065383 0.17355318 0.15036514
0.04018371 0.015202994 -0.081807755 0.19257364 -0.099427335 -0.093446165 -0.0076988256 0.13889696
-0.041507736 0.007899141 0.19761966 -0.07671628 -0.075480655 0.028747944 0.11396738 -0.19544715
-0.050136022 -0.03853438 -0.022963122 0.0074040517 -0.11545105 -0.08128187 -0.05859441 -0.20913309
-0.061786003 -0.06569073 0.011312829 0.029115396 -0.05182534 -0.002086137 -0.08542186 -0.04053859
-0.11483797 -0.034903973 -0.13568562 -0.079501055 -0.1603897 0.09664876 0.09413421 0.19533521
0.13723893 -0.075878486 0.01614406 -0.020594658 0.1756315 -0.033777114 0.08234356 0.048914753
0.029395737 -0.08685917 0.00043591045 -0.07905722 -0.02099488 -0.005879728 -0.11762367 0.1156107
0.101595685 0.045668364 -0.10915589 -0.08113112 0.054004572 0.08207999 0.016798565 -0.033096366
-0.026654556 0.20007716 0.025387239 0.027170755 -0.18873546 0.049337186 0.06290683 -0.08793876
0.017843938 -0.17312965 0.085071936 0.048559785 -0.012261133 0.050951507 -0.07905479 -0.10858365
0.049348164 -0.089746974 -0.10692145 0.034943677 -0.090107724 0.095132716 0.018540444 0.06645973
0.025695559 -0.0425628 0.01558059 0.0037622254 0.011323691 -0.023893788 0.007349181 0.01869594
-0.20696773 -0.1530091 -0.081242375 0.014870396 -0.048021838 0.009801507 -0.03889864 0.12612794
0.071729384 0.061281916 -0.06412575 0.05467946 0.022965923 -0.012080781 0.1671066 -0.0686269
-0.07214622 0.12296419 0.10767466 -0.057939112 -0.07062181 -0.06613246 0.023288107 0.06827567
-0.094541244 0.08370637 -0.049265496 -0.0882605 0.0727237 -0.12173772 -0.19221745 -0.07047563
0.10174827 -0.033301163 0.10204447 0.13322322 0.12064405 -0.02620083 0.18371452 0.026532456
-0.10554372 -0.07176682 -0.24328049 0.037811026 0.1143567 0.03618769 -0.06235269 0.08258511

F.linears.0.bias f4 [32]
00000000: 6b65 8b3c 890a 8b3c 9ab6 5d3d 6954 463d
00000010: a268 773d 21f3 b83d 01b1 64bd 9895 2b3d
00000020: 3a67 bbbd dedb 983d 1bc4 f4bc 3d91 febc
00000030: e88d 1abd 61fb a03d bcc9 e23c 86e8 c03c
00000040: 7809 f6ba 3d3d c43c 9627 b3bd 7d24 86bd
00000050: 2452 d6bd 83d2 703d 65b3 b23c 522a d1bc
00000060: 02e2 49bd 34c0 50bc fc70 8c3c a9ee bd3d
00000070: acec 7a3d edd9 313d 977d ba3d c91d 783d
0.017016133 0.016972797 0.05412922 0.048420344 0.06040252 0.09030748 -0.055832867 0.04189071
-0.09150548 0.07463811 -0.029878667 -0.031075114 -0.03773299 0.07860447 0.027684085 0.023548376
-0.0018771132 0.023954982 -0.08747785 -0.06549928 -0.10464886 0.05879451 0.021814058 -0.025532875
-0.049287803 -0.012741137 0.017143719 0.092740364 0.061260864 0.04342072 0.091059856 0.06057528

F.linears.1.weight f4 [32, 32]
00000000: 53bb 84be 6f6f d1bd d66a 59bc 2693 043e
00000010: 1ad2 d5bd 6b8d 3f3b 264b 6b3e 2a22 ee3c
00000020: cb85 47be 28e7 253e 505c bebc 558a d73d
00000030: 3c35 b4bd 583e d8bd 09c7 ecbc 5021 16ba
00000040: c3f3 323d 1d61 00bd 36e8 09be 6116 95bd
00000050: ed9e 903d dffa 273e 12f9 0c3d 6812 863d
00000060: c608 93bd f147 a33d 3596 753d a846 213c
00000070: 8ab8 453b cfae 363d ed52 04be 37da f9bd
00000080: 4c61 46bd 7a9a ab3d 6d30 633e 57a3 373d
00000090: 1978 0f3e b6d1 87bd b19b 0cbd f441 0bbe
000000a0: 1f99 1bbd ba79 c73d 89d8 85bc b348 54be
000000b0: ac55 7c3e c542 f43d a985 4e3c 67b6 92bd
000000c0: 50dc 71bd b04f ff3d ec2c 84bd 669e cf3d
000000d0: 06a8 7ebd 370b ac3c e199 473d 45b1 503d
000000e0: ca3e c83b bcb4 943b 0445 a4bd d7c1 103d
000000f0: 6ab7 143e 4be5 fa3a a3d0 84bd 9a94 a03d
00000100: cdf8 9bbd 7ae0 cb3c 5600 31bd 59fa 213d
00000110: ed74 d43c 1869 cabd e09c ebbc d7d1 cdbc
00000120: b71f 21be 1dc2 c13d 5d18 393d 89f3 87bd
00000130: 1e78 40bd a6dd 203d 9d87 963d 3123 953d
00000140: c284 b53c c197 12bd 9bb8 59be 6f2d b83d
00000150: 7f9b 49be 36a1 11bc 2678 c9bd d200 8e3d
00000160: 531a 91bd acc8 0cbe 78a6 3a3d a1d9 1ebd
00000170: c080 b5bc f784 74bd 9b84 a2bd fd14 bbbd
00000180: 252d c3bd 5519 27bc 6175 e5bb da25 06bd
00000190: 01f4 043d ecb9 0c3d d345 b9bb 087b 2abe
000001a0: eabc cdbd cbd0 dfbd 19ab 25bd 7507 9a3d
000001b0: 4c21 0abd 0b42 ffbc 40ee 00be 44aa 4b3d
000001c0: 52cc 29be 49cd a6bd 181f adbd a47f 963c
000001d0: c31c 9abd 66ad 913b 93e8 2a3d 5d5e f43d
000001e0: f541 0abe c096 f23d ff30 b6bd 8dc5 d73d
000001f0: 84eb 793d d04e 39bc 3a9e c5bc 4178 da3d
00000200: 53a9 363d de79 a3bc 9c39 93bd 8b85 77bd
00000210: a779 a8bd 694a 803d a428 bd3d 4d63 bc3c
00000220: c679 aabd ab01 f13d 545d 5fbd 677b 143e
00000230: e652 30bd 4633 063c ae63 2a3d e96a a5bd
00000240: 6094 2abc d67f 5bbd 6cf3 ac3d c2de 673e
00000250: dbd0 31be 90b9 553d 0038 ce3c f496 1c3c
00000260: 045d 043e 9d11 2e3d 4a24 c83d a20c 7abd
00000270: 4626 093e 68ec b73d 1b94 febd cd3d 20bd
00000280: 5028 593e 7f1a 4a3e fe8b a63d c435 07be
00000290: bf12 03be fc8d 483e 3665 adbc 62c0 c1bc
000002a0: 6127 64bc e64b 8c3b cb2f 59bc 6548 fbbd
000002b0: 4071 09be 9458 bdbd 8534 46bd 57f2 2abd
000002c0: ea34 3bbd 8bee 683d a1cd 45be 9904 33bd
000002d0: a3cd 35bd a1d7 1bbe daf2 33be 4bf7 0c3e
000002e0: 14d5 97bd 560d ddb8 149c 943d 7ce9 153e
000002f0: 517d b4bd f490 1abd b0c1 52bd b95a 3dbc
00000300: 69d3 5cbe 7b3b 0bbe 7cf4 14be a921 133e
00000310: f92c 583c bb71 a2bd 2883 563e 5bed 613d
00000320: 3f56 833c 4f71 50bd 363d fd3d fee0 163e
00000330: 4f17 e3bd 5a7d 39be 00c9 c13c 02d0 7f3c
00000340: dc7d ba3d 69a1 93bd 569c 8fbd d3fd 14bd
00000350: 6446 8a3d a727 d8bd 214f f7bd 1a69 b63c
00000360: d9d1 18bd 1ed3 c43d e74f b9bd a5e6 51bd
00000370: 3a14 c2bd 0934 aebd 4e1b e33d a825 b9be
00000380: b643 31bd 47d0 d33d 71e0 e8bd 997c fabc
00000390: 01c8 29bc 552d 29be a890 37be 363b 023a
000003a0: d411 073c 0ce9 1abd eb4e 97be c778 a03d
000003b0: 635b d03d 9410 d23d bfb9 c13d 3e57 1abd
000003c0: c2f2 f63d 2168 21bd 6bbf 07be 2b43 8bbd
000003d0: 3921 88bd ca94 09bc 0089 a7bd b939 80bc
000003e0: 8cb1 08bc 8dc7 d23d 28b4 60bd a014 39be
000003f0: f5e0 aabd 2546 da3d e3f6 58bc c4c2 543d
-0.25924167 -0.102263324 -0.013270101 0.12946758 -0.10440464 0.0029228579 0.22977886 0.029069025
-0.19484632 0.1620146 -0.023237377 0.105244316 -0.08799216 -0.10558766 -0.028903501 -0.000572701
0.0436895 -0.031342614 -0.13467488 -0.07279659 0.07061563 0.16404293 0.03441722 0.065464795
-0.07179408 0.07972706 0.0599577 0.009843506 0.0030169808 0.044600304 -0.12922259 -0.12199824
-0.048432633 0.083790734 0.22186442 0.044833507 0.14010657 -0.06631796 -0.034328166 -0.13599378
-0.037987825 0.097400144 -0.016338604 -0.20730858 0.24642056 0.11926798 0.012605109 -0.07163697
-0.059047997 0.12466371 -0.06453881 0.10137634 -0.06217196 0.021001441 0.048730735 0.050950307
0.0061110007 0.004538147 -0.08020976 0.03534111 0.14523092 0.0019141821 -0.06485107 0.078408435
-0.07615814 0.024887312 -0.04321321 0.03954539 0.02593466 -0.09883326 -0.028761327 -0.025124473
-0.15734755 0.09460852 0.04518925 -0.066382475 -0.046989553 0.03927388 0.07350085 0.07282103
0.02215803 -0.035789255 -0.21261828 0.08993041 -0.19688223 -0.008888533 -0.098373696 0.0693375
-0.07085099 -0.13748425 0.045568913 -0.038781766 -0.02215612 -0.059697118 -0.07935449 -0.091348626
-0.09530095 -0.010198911 -0.007002518 -0.03275094 0.032459263 0.034356996 -0.0056540756 -0.16648495
-0.10045798 -0.10928496 -0.040446375 0.075209536 -0.03372316 -0.031159421 -0.12590885 0.049722925
-0.16581848 -0.08144624 -0.08453196 0.01837141 -0.07525017 0.0044457195 0.041725706 0.11932061
-0.13501723 0.118451595 -0.08896064 0.10535727 0.06101562 -0.011310294 -0.0241233 0.10667468
0.044595074 -0.019955572 -0.071887225 -0.06043009 -0.08226328 0.062641926 0.09236267 0.022996569
-0.08324008 0.11767896 -0.054532364 0.145002 -0.043047808 0.0081909355 0.04159897 -0.08077032
-0.010411352 -0.05358871 0.084448665 0.22643569 -0.17364828 0.05217892 0.025173187 0.009557474
0.12926108 0.042497266 0.097725466 -0.061047204 0.13393506 0.08980638 -0.124305926 -0.039121438
0.21206784 0.1973667 0.0813217 -0.13204104 -0.1280012 0.19585413 -0.021166425 -0.023651306
-0.013925404 0.0042815087 -0.013256024 -0.122696675 -0.13422108 -0.092454106 -0.04838993 -0.04173502
-0.04570476 0.056868117 -0.19316722 -0.043705557 -0.044385564 -0.15218975 -0.1757311 0.1376621
-0.07413688 -0.00010540585 0.07256332 0.14639848 -0.08812965 -0.037735894 -0.051454246 -0.0115572745
-0.21565022 -0.13596909 -0.14546388 0.14368309 0.013194316 -0.079318486 0.2094847 0.055158
0.016032336 -0.05088931 0.12365191 0.14734265 -0.1108843 -0.18114224 0.023655415 0.015613558
0.09106037 -0.07208521 -0.070122406 -0.03637488 0.06751707 -0.10554438 -0.120756395 0.022266913
-0.0373095 0.0961058 -0.09048443 -0.05124535 -0.09476514 -0.08506019 0.11089192 -0.36161542
-0.043277465 0.1034246 -0.11370934 -0.03057699 -0.010362626 -0.16521199 -0.17926276 0.00049679296
0.008243997 -0.037819907 -0.29552397 0.078355365 0.10173681 0.10257068 0.094592564 -0.037680857
0.12058021 -0.039405946 -0.13256614 -0.06799921 -0.06646962 -0.0083972905 -0.081804276 -0.015652524
-0.008343112 0.102919675 -0.05485931 -0.18074274 -0.083436884 0.1065791 -0.013242456 0.051943555

F.linears.1.bias f4 [32]
00000000: 8a89 c6bd 6aea 8d3d 3420 9b3c 8c4c 91bd
00000010: dafc 453d fe87 cbbd 3fb6 d0bc 770a e73c
00000020: f851 b03d 7a89 f5bc a7f4 bd3d ab6e 17bc
00000030: 284e 65bc d4ea e13b cb5b 9b3d 21dc 3d3d
00000040: 90d2 893b 6920 90bd b39b 293d 3280 a73c
00000050: ae73 b3bd a22f 99bd 1480 91bd 9b6f 623c
00000060: e2aa 4fbd 791d 22bb 49fd 923d 150a cbbd
00000070: f671 a0bc 0062 56bc 8c26 b1bd e95f d3bc
-0.09694202 0.069294766 0.018936254 -0.07094678 0.04833684 -0.09938048 -0.025477527 0.028203232
0.08609384 -0.02997278 0.09275179 -0.009242694 -0.013995685 0.006894449 0.075858675 0.04635251
0.004206009 -0.07037432 0.041408252 0.02044687 -0.087622985 -0.07479788 -0.07104507 0.013820554
-0.050700076 -0.0024736805 0.071772166 -0.09914032 -0.01958559 -0.013084888 -0.0864993 -0.02580257

F.linears.2.weight f4 [10, 32]
00000000: 89d1 cfbd afeb 79bc 22df 32bc d67a 12bc
00000010: 0cfb 1f3e ad1c e1bd e82e d83b 8e3d 1f3c
00000020: ed4e 233e 3f57 243d f591 0e3e 817b b23d
00000030: e7b2 d9bd 6ae0 6a3d a035 0ebe 23b5 153d
00000040: 41b4 153c 54cc 84be ee86 e83c ace7 b03d
00000050: 70b3 0c3c 7b46 bcbd dc05 09be 488e b53d
00000060: 6c28 abbd 45e6 213e ed41 d1bd fc78 1abc
00000070: 5ef6 b1bd 9453 cdbc 02f5 c23c 3075 c3bd
00000080: c855 c03d d42a 163c b364 d3bd 7455 b83d
00000090: 6e83 b83c 8f2d b43d 78a4 2dbe 1893 413d
000000a0: 294d b7bd bbea a83d e3e6 823d 00d7 9e3c
000000b0: 9942 23be 277c 1fbe f923 2bbe 8e15 b8bd
000000c0: a4db 9d3c 2628 133e 873b eabd a1c5 833d
000000d0: f953 f0bc 1fba 2abd 4e3e c83d 02ba d73d
000000e0: 580b d7bd 2bc3 8cbd 8ba9 613d 8f95 303d
000000f0: 012c 283e ab1a 213d 7b49 403e ae0b 823e
00000100: daed afbd 6142 96bc 442a db3d 6366 763e
00000110: a8b3 1dbd 92a7 a43a 69b9 9a3d 29e9 82be
00000120: f927 ca3d 0b82 20be d929 c13c d4b7 073e
00000130: 78ea 2bbc d82b 3b3d 4491 b73d ef65 b43d
00000140: fb6d 933d 3668 5abd 2cdc 923e 6ed6 be3d
00000150: eb84 b93d ccad 813d 09bf 0abd 6e7a 9cbc
00000160: 253d 9f3d bc00 2abd 5a2d 51be c18b fe3c
00000170: e948 9c3d d36c 9fbd 3282 eb3c 56c4 07bd
00000180: 35f2 2ebd 7e5a 8c3c 8b60 99bd a0d6 2cbd
00000190: 0de2 d83d d1ec edbc 09d4 093e 6860 a8bd
000001a0: edfe 18be 79f0 ec3d 78c6 5b3d 0b13 183c
000001b0: 9fb1 c33d 309e 0e3d 81ca 8f3e 9aa3 b13d
000001c0: 0011 5d3d 3afa 113d 98e4 cdbd d874 55bd
000001d0: 0ba0 2ebd c9b4 59be df3d 79bd c89e 823d
000001e0: 192e 8bbb e01f 53bd 00e1 d8bd bb0b d1bd
000001f0: 9dae b1bc a871 4cbd d046 59bc f38e a2bc
00000200: 8d92 8e3e 4dbd 0abe 8449 e43c a13f 6d3d
00000210: 32b6 c0bb 3dc6 593d f590 0dbe 35c4 c1bd
00000220: d6fa b63d 76ce 28bd 5882 523d e68f 69be
00000230: 7c60 13bd 4f40 8dbc ccfb a43d b7bb 51bd
00000240: a28d 91bd 1a7c e53b a2a9 a2bd 8478 59bc
00000250: 888a 10bc 57b9 c43b 6e50 e03c f80d ea3d
00000260: 15ab 2dbd aede 733d f3ed d03d 7d00 3e3e
00000270: a549 833c 4197 873d 51c9 8bbd 967a bd3d
00000280: 4a9d a73d dfaa 8b3d 4670 1b3c c8cd 593b
00000290: a246 a2bd dc05 b23d d42d 2ebd 0e43 173e
000002a0: 440d 36be a4b9 b1bd adc0 99bd 34cd 4b3d
000002b0: d798 9a3c ee1d b03d c96a ce3b ab36 3fbc
000002c0: 3d96 16bd c226 0dbe 5cd5 c5bc 4560 113e
000002d0: f541 02bd fe37 90bd f192 3c3c 2516 2ebd
000002e0: 7b3f f53d 6ba1 e4bc 08a3 4c3c e4ce db3d
000002f0: ebff 8abc 5e64 2fbb ed8f 743d f1d8 043d
00000300: d217 41be 555b 80bc 750f 22be 64dc 24bd
00000310: faff c53d e11a b4bc 2b0c febc 2326 ccbd
00000320: 0f27 60be 323a bfbd 5111 e8bd 4675 b13d
00000330: c918 72bd 88d2 023e 7b8c f2bd 8495 ce3b
00000340: 6652 cfbc 75e6 873c 15f2 813e 1855 9abc
00000350: 32e6 13bd a356 57be 2fbc f4bd 3482 12be
00000360: b9b2 2bbe a168 fd3c 16f7 cabd 4b9a 843d
00000370: 34b7 8fbd 56a7 77bd 6512 71bd dc15 cbbd
00000380: c9e9 c8bc d67d a1bd 7c2f 30bd 1407 143c
00000390: f25b 9b3c 38e1 953d 022a 5fbc 2ef4 953d
000003a0: 80ff 153e 7781 60bd 541d 52bd e0fb a5bd
000003b0: ec27 1abe d8d3 123d 904f 6f3c bf98 313e
000003c0: f9ab 133e 3628 703d a667 e43b 7fda 483e
000003d0: 9a24 20bc 1576 95bd 2897 a7bd 1fe4 953d
000003e0: 6530 d3bc fcf3 3d3c 655e 25bd 4c0a 6d3d
000003f0: ac47 213d 7032 c5bd 5ef9 62bd 2997 bdbc
-0.101473875 -0.015253945 -0.010917457 -0.008940419 0.1562311 -0.109917976 0.0065973885 0.009719266
0.15948077 0.040122267 0.13922866 0.08714963 -0.10629826 0.057342924 -0.13887644 0.0365497
0.009137214 -0.2593714 0.028384652 0.08637938 0.008587703 -0.091931306 -0.13381141 0.088650286
-0.08357319 0.15810497 -0.102176525 -0.009428259 -0.08689569 -0.025064267 0.02379847 -0.09543836
0.093913615 0.009165484 -0.10321941 0.09000674 0.022523608 0.08797752 -0.16957271 0.04725942
-0.08950264 0.08247896 0.063916944 0.01938963 -0.15943374 -0.15574704 -0.16712941 -0.08988486
0.019269772 0.14370784 -0.11437135 0.06434179 -0.029336916 -0.041681405 0.09777509 0.10533525
-0.105002105 -0.06873163 0.05509333 0.04311138 0.16423036 0.039332073 0.1877803 0.25399536
-0.085902885 -0.018342199 0.10701421 0.24062495 -0.03850141 0.0012562147 0.075548954 -0.25568512
0.098709054 -0.15674607 0.023579525 0.13253719 -0.010492913 0.04569611 0.08963254 0.08808505
0.071987115 -0.05332204 0.28683603 0.09318243 0.09058555 0.06331977 -0.03387359 -0.019101348
0.07775334 -0.041504607 -0.20427456 0.0310725 0.07631094 -0.077844284 0.028748605 -0.033146225
-0.042711455 0.017132994 -0.07489117 -0.04219687 0.10589991 -0.029043587 0.13459791 -0.08221513
-0.14940996 0.11569304 0.05365607 0.009281884 0.09555363 0.034818828 0.28084186 0.08673783
0.05397129 0.035639025 -0.100533664 -0.052113384 -0.042633098 -0.2126037 -0.06085002 0.06377941
-0.0042474386 -0.05154407 -0.1058979 -0.102073155 -0.021689707 -0.04991308 -0.013261512 -0.019843554
0.27846184 -0.13548775 0.027867086 0.05792201 -0.0058810944 0.05316757 -0.13824828 -0.09461252
0.08934562 -0.04121252 0.051393837 -0.22808799 -0.035980687 -0.017242579 0.08055839 -0.05120441
-0.071070924 0.0070033194 -0.07942511 -0.013273362 -0.008822091 0.0060035395 0.027382102 0.114284456
-0.042399485 0.059538536 0.10201635 0.18554874 0.016026327 0.06620646 -0.068255074 0.09251897
0.081842974 0.068197004 0.009487217 0.0033234227 -0.079236284 0.08692524 -0.042524174 0.14771673
-0.17778498 -0.08677986 -0.07507453 0.049756244 0.018871708 0.08599459 0.006299351 -0.011670749
-0.036764372 -0.13784316 -0.02414959 0.1419688 -0.031801183 -0.0704193 0.011509643 -0.042501587
0.119749986 -0.027909001 0.012490042 0.10732821 -0.016967734 -0.0026762704 0.05970757 0.032433454
-0.18856743 -0.01566855 -0.15826209 -0.040249243 0.09667964 -0.021985473 -0.031011662 -0.099682115
-0.218899 -0.09337272 -0.11331428 0.08664946 -0.05910567 0.12775624 -0.11843201 0.0063044447
-0.025307845 0.016589383 0.25380006 -0.018839404 -0.036108203 -0.21029143 -0.11949956 -0.14307481
-0.16767396 0.03093368 -0.09910409 0.064747415 -0.07017365 -0.06046232 -0.058855433 -0.09916279
-0.02452554 -0.078853294 -0.043014035 0.009034891 0.018964741 0.07318348 -0.013620855 0.07321964
0.14648247 -0.054810967 -0.0512975 -0.08104682 -0.15054291 0.03584656 0.0146063715 0.17343424
0.14421071 0.0586321 0.0069703637 0.196146 -0.0097743515 -0.07297913 -0.08183128 0.07318901
-0.025779912 0.011593815 -0.040373225 0.057871148 0.039374992 -0.09628761 -0.055413596 -0.023143368

F.linears.2.bias f4 [10]
00000000: d35c 203d cad1 b23c 3f4c 9d3d 6719 eb3c
00000010: 6ca3 59bd cd1f 273d 02c5 28bd faaf 91bd
00000020: fad4 cdbd 9683 13bd
0.039151024 0.02182855 0.076805584 0.028698636 -0.053134367 0.040801812 -0.041203506 -0.07113643
-0.10050388 -0.036014162

G.0.linears.0.weight f4 [32, 10]
00000000: 3ac7 a33d f2db 1abb 6ee8 23bd cbb6 653d
00000010: 29e3 eebb ca5c c93d 40c4 7c3e 0fb6 77be
00000020: 6a22 803d 7ef7 2dbd ee30 853d 7fb6 15bc
00000030: 9a69 3dbb ac24 763d 978b c8bc 041e 063d
00000040: f024 5abe a17b dfbd 7307 093e a13f 64bd
00000050: f173 0cbe 52da b8bc 2721 97bd 73f9 48be
00000060: 1f20 313d 001c 29be 985f 8abd 8990 ab3d
00000070: 7e8a a5bd 161b 583e 6429 4d3d e7a7 96bd
00000080: a5fe 2f3d 83e1 a63c 7fbf 8a3d b3af e0bd
00000090: 0a63 903d 5d85 10bd 1ce5 983d 6596 5e3e
000000a0: f986 023e 6011 20be f271 c8bc 7989 593c
000000b0: 2bd2 d73d a0d6 0bbe 25da bf3d 4987 9e3c
000000c0: 068d 38bd 4baa 053e 45d8 2c3c 602f f13c
000000d0: 6cdb 9abd cd5c b1bc 3c5d 2fbd bbe8 0cbe
000000e0: 19ba ffbc e89e b13d 3c5a 9fbd 1e80 83bc
000000f0: 272b b13a 3faf ca3c eecd 14be b26b db3d
00000100: ca92 463d 86c6 a7bd d700 0f3e 5194 563d
00000110: 9677 193e ecd6 d1bd f781 92bd 357c 86bd
00000120: 742b 3b3e 7fdd 0b3e 24c0 a3bd 9e96 473e
00000130: b52b b9bc ee3a 2cbd 8460 02bd 577e 3a3d
00000140: 64c6 b13c d7a6 c13b c232 a13d 59f3 0fbe
00000150: 6889 333e e24f 3ebd 1484 b8bc d754 6abb
00000160: 3ef1 b23d 7c9a 043d d8c9 a83d 677f 18be
00000170: 6c0e fcbd aa14 f9bd 953e 903d b561 f8bc
00000180: f543 2cbe f5db cebd aabc 163e 3458 01bd
00000190: 1091 01be 930e 43bd 10b2 433e 3359 10bd
000001a0: 2c1b c13b 4f34 303d 4234 21bc 0ae1 28bd
000001b0: 95b8 f73c f59d 123e df59 903d f9d3 893d
000001c0: c2ba fdbd 0e10 e43d f908 a33d b804 ccbd
000001d0: 0f96 5bbd f7c8 543c 2651 603d 9e76 913d
000001e0: 99bd 36be 0c78 983d 860e da3c cede c03d
000001f0: 0f97 e9bd ceb5 083e 464a ec3d 22ad ee3b
00000200: c056 15be 3694 b7bc 3baf 833c dd35 15be
00000210: 8f84 643d c0af 18bb 46ff a33d f6b1 823d
00000220: 309d c83d 248b aabc 0332 1f3d 1af5 f3bd
00000230: 1e6d 153d 4b3e b93d 3e56 273d 8408 ae3d
00000240: e0a8 39bd 7ea4 31bd 0478 603d 6eb5 92bd
00000250: 9cf6 5f3d b398 45bd 5489 d7bd f010 4abe
00000260: 7d4e babc 4ef6 123e 7ab6 48bc 9f2a 0b3e
00000270: 67e9 dbbc 4545 bbbd 5515 183d fca1 5c3b
00000280: f80f f03c 5fcb 4bbd d680 723b af56 b8bc
00000290: b9d3 d53c da09 9e3c 1376 b4bd c191 df3d
000002a0: e192 663d 3033 e5bd 73c0 abbd 3adc cd3d
000002b0: e0f2 8a3c 8107 3c3d 42e9 1a3d d6d6 b5bd
000002c0: 7849 e9bd 84c4 da3c 3b77 a23c 8d92 13be
000002d0: 9d2a 5d3e 2659 e03d c268 86be b9ce 3f3e
000002e0: 7b90 8abd 77ec b53d 3c99 7e3d c750 1f3e
000002f0: 4934 e23c 500e 0d3e 2e15 0a3d 495f 21bc
00000300: 51d3 e0bd 1fa2 813c 7230 97be e00e 9bbd
00000310: 1e92 d03d 3b59 c3bd 2107 04bb 8fdc b6bd
00000320: ed04 193e 7a41 373d 6cad 1ebc 3559 0b3e
00000330: 4ffc d2bd 60f9 fabd 844f 7ebd 80bb b0bd
00000340: da8e 1bbe d4cb 603d 003e 573d d5eb 2dbd
00000350: 3e3d 90bd fa8a da3d 927d aabc 523f 7ebd
00000360: 9830 5d3e 5c2b e539 7137 c7bd 1684 d63c
00000370: f3c4 e93d fdda bf3d 63c3 3e3e 98ef 50bd
00000380: ad95 ed3d 2860 cebd bd64 5e3d e997 a93d
00000390: ee7d 1e3e d32b 78bd aa4b 57be 7e1a 163d
000003a0: e38f 603d aa6a d0bc 133f aabb b90e 7c3e
000003b0: 6ea4 173d 955f 5b3e 5a5b 083e 7f5c 8f3e
000003c0: 0063 c23d 4823 bbbd 0a35 9e3d 0d40 ce3d
000003d0: b517 923c 261f ce3d 80ec 2abe 8cff 2bbc
000003e0: 5232 53be 51ec 95bd 428b b63d 2450 20bd
000003f0: a424 1ebe 414a a2bd f3fd 8f3d 7277 96bb
0.07996984 -0.0023629633 -0.040016584 0.056082528 -0.007290263 0.09832151 0.24684238 -0.24190544
0.06256564 -0.042472355 0.06503473 -0.009137749 -0.0028902055 0.060093567 -0.024480624 0.03274347
-0.21303153 -0.10912252 0.13381748 -0.055724744 -0.13716103 -0.02256504 -0.0737937 -0.19626407
0.043243524 -0.16514587 -0.06756514 0.08377177 -0.08083056 0.21104082 0.0500883 -0.073562436
0.042967457 0.020371204 0.06774806 -0.10971012 0.0705014 -0.035283435 0.07465574 0.21737058
0.127468 -0.15631628 -0.024468396 0.013277405 0.10538133 -0.13656092 0.0936778 0.019351618
-0.045056365 0.13053243 0.01054961 0.029441535 -0.07561383 -0.021650696 -0.042813525 -0.13760655
-0.031216668 0.08672887 -0.07780883 -0.016052302 0.0013516889 0.024741767 -0.14531681 0.107139006
0.048479833 -0.08192162 0.13965164 0.05238754 0.14987025 -0.10246071 -0.07153695 -0.06566659
0.18278295 0.13658713 -0.07995632 0.1949105 -0.022603849 -0.042048387 -0.031830326 0.045530643
0.021701045 0.0059097814 0.078710094 -0.14057674 0.17532885 -0.0464629 -0.022523917 -0.0035756135
0.087374195 0.03237389 0.08241624 -0.1489235 -0.12307438 -0.121621445 0.070431866 -0.030320028
-0.16822799 -0.10100547 0.14720407 -0.031578258 -0.12652993 -0.04762132 0.19110894 -0.035241317
0.0058931317 0.043018635 -0.009839119 -0.04123024 0.030239383 0.14318068 0.070483916 0.06729884
-0.12389137 0.11135875 0.07960696 -0.099618375 -0.053609904 0.012987367 0.05476489 0.071027026
-0.17845763 0.07444772 0.026618253 0.094174966 -0.11405765 0.13350603 0.11537604 0.0072838226
-0.14583874 -0.02240954 0.016074767 -0.14571328 0.05579048 -0.0023298115 0.08007674 0.063815996
0.09795606 -0.0208183 0.038866054 -0.11911984 0.036481015 0.090450846 0.04085373 0.08497718
-0.045327067 -0.043369763 0.054801956 -0.07163511 0.054678544 -0.04824133 -0.1052424 -0.19733024
-0.022742504 0.1435177 -0.012250537 0.13590477 -0.026844693 -0.091440715 0.03712972 0.0033665886
0.02930449 -0.049754497 0.0037003062 -0.022502271 0.026101934 0.019291807 -0.08811583 0.10916472
0.05629242 -0.11191404 -0.08386316 0.100517705 0.016961515 0.045905594 0.03782011 -0.08878867
-0.11390966 0.026705034 0.019832244 -0.14411373 0.21598287 0.10954504 -0.262518 0.18731202
-0.06765839 0.08882993 0.062157854 0.15558158 0.027612822 0.13774991 0.033711605 -0.009849378
-0.109778054 0.015824376 -0.29529148 -0.075711966 0.1018412 -0.09538504 -0.002014585 -0.08928787
0.14943285 0.044740178 -0.009684902 0.13608249 -0.1030203 -0.12254596 -0.06208755 -0.08629513
-0.15191212 0.054881886 0.052549362 -0.042461235 -0.07042931 0.10671039 -0.02081183 -0.062072106
0.21600568 0.0004371059 -0.097273715 0.02618603 0.11414518 0.093679406 0.18629222 -0.051009744
0.11600814 -0.10076934 0.05429529 0.08280928 0.15477726 -0.06058867 -0.21024957 0.03664636
0.05482472 -0.025441486 -0.0051955073 0.24614991 0.037022047 0.2142318 0.13316098 0.28000256
0.09491539 -0.09137589 0.0772496 0.100708105 0.01783357 0.10064535 -0.1669178 -0.010497939
-0.20624664 -0.073204644 0.0891328 -0.039138928 -0.15443665 -0.07924319 0.07030859 -0.0045918757

G.0.linears.0.bias f4 [32]
00000000: 6c9a 82bc 4b8b 913d 4b95 a8bd c99b 42bd
00000010: a116 a43d f6a7 dabb 52b6 993d 6b70 d0bd
00000020: b824 53bd f466 a33c 43c2 eb3d 9f30 923d
00000030: 98db 1e3d b1b8 303b 5644 023d 08ac 673d
00000040: 66cb 1abc dc21 7ebc 9352 c73d cc44 47bd
00000050: f0d5 b03d e800 5abd 1c9d 98bd 3eea 91bd
00000060: d003 843c c557 c2bd 035d 8abd c69e 95bd
00000070: 4a0a b33d 528b f2bd a8b2 51bd 5480 8e3d
-0.015942775 0.07106646 -0.082316004 -0.04751185 0.080121286 -0.0066728545 0.07505478 -0.10177692
-0.05154869 0.019946553 0.11511662 0.0713818 0.03878364 0.0026965553 0.03180345 0.056560546
-0.009447908 -0.015511002 0.09732547 -0.048649594 0.08634555 -0.05322352 -0.07451841 -0.07124756
0.0161151 -0.09489397 -0.06756022 -0.07305674 0.08742197 -0.118429795 -0.05119577 0.069580704

G.0.linears.1.weight f4 [32, 32]
00000000: 0d9e 503d c595 8abd fb73 bb3d 2f64 9cbd
00000010: c1ce 31bd f7b1 2bbd 10a4 313c 2e48 0d3d
00000020: 1f2f 9cbc 4b05 49bd fd68 5abb 4781 f83d
00000030: 56fa 113c c961 253e e334 0d3d e1a1 103d
00000040: b895 14be 744a 95bd bbd6 113d 4117 84bd
00000050: 62e1 b2bd e45f 2fbd e7a4 5ebd 5bd5 47bd
00000060: 34c9 18be e73a 19be ac11 54bb fe13 0f3e
00000070: a22c 5cbd c41b 21be 2360 963d 90d1 3f3c
00000080: 3452 1bbe 829d 753e d32b 1fbd d195 dfbd
00000090: 1c72 d5bd 141b 8abe f318 08bd 06e4 abbd
000000a0: b497 043c 3938 4cbd 0712 11bd 9636 dc3c
000000b0: 13f9 39bd d8c3 463d 2e48 c43d a400 2c3e
000000c0: 8c4a 2ebd 506b 723c e898 a6bd 405f 153d
000000d0: 1f6b 2cbd 7ac5 91bd a6c2 4abd 9d6b 85bd
000000e0: ee94 dfbd 29a8 ebbd 7095 963d 06dc 0b3d
000000f0: 0e77 6e3d 08ea aa3d af05 43bd 4e39 453d
00000100: 0b26 af3d 0636 bc3d 77f0 b73c 4740 4fbe
00000110: 4e80 3abc ee02 87be dec0 623d cd8a 22be
00000120: 7c63 9abd 9669 2bbe 81ab dcbd 8b78 543e
00000130: 8391 f5bd fe93 d13d d245 653e c9d5 49bd
00000140: dd8e 18bd 7dcf 2bbd 3809 05be ebed a9bd
00000150: 534f c73c 8c19 153d c209 1a3e d9e1 323e
00000160: 06f7 7d3d b326 81bd 0e49 7c3d 8720 06be
00000170: 0872 0fbd 38a3 58bd b2d5 38be 5a84 8abd
00000180: c1c9 013e 0ede a1bd eaef 0bbd 5a53 29be
00000190: a643 5dbc 7347 d8bd 71a1 05be 788f d53c
000001a0: 0432 6d3d 0afa cabd d834 40bc be1d 4b3d
000001b0: e07e eb3c f4bb a83b 2644 2e3e 2007 963d
000001c0: 3090 533c a573 2fbe 3570 223c 84a8 3dbd
000001d0: 7c81 af3d 34b4 15bc cdc6 143e 78fd 58bd
000001e0: 7bf2 183e 5e89 c23d e1a7 9c3d 5c18 313b
000001f0: 3259 c43c 9d5f cdbd 7516 bbbe cb4d 173d
00000200: 5e30 243d 0a7e 81bd 2923 643d 2cf1 ccbd
00000210: 3243 4cbb 2471 15bd 9de6 9cbd 9724 06be
00000220: 4990 df3c ef4b bb3d 5f14 0f3c fa10 653d
00000230: c829 09be bf69 823d 358e ddbd 55d1 cbbc
00000240: 6cde 11bc 5889 0dbd 7eaa 71be 61b2 44be
00000250: b868 d33d 2c47 b33d 4d86 5c3c 5748 d33d
00000260: 2d3d 093e 911b bc3c 0d66 a6bc 7568 4f3d
00000270: 609d 9bbd 8894 c93c d7ca 56bd 3a6a 5c3c
00000280: e549 103e 004c 65bd 25c1 e0bd 34bf b43d
00000290: 5be5 15be f7a3 c83d 34aa 303e 6ea5 b6bd
000002a0: e25b 67bd 2c50 613d 7722 bf3c 0eda d83d
000002b0: ac3c 5a3e ec9a 2f3d 53ae 96bd 4be3 bd3d
000002c0: a408 403c 8021 d9bd e2f7 febc 59f0 793d
000002d0: f1a2 a23d bfa7 ac3d 639e dabd b85c a5bd
000002e0: 4c83 0a3e cde4 08be b5d6 fb3c 8f7b c0bd
000002f0: 11fc 0f3d 3af9 9fbd a6ef 2abc d324 253d
00000300: 40a0 b3bd a03a d03d 83f8 b03c c76c 6c3d
00000310: 7825 c2bd 82b8 b13d 073e 793d 0a2b 3fbd
00000320: 8a8e b3bd f404 adbd 8df8 cfbd 8baf f2bd
00000330: c2ff 9b3d bdfd 9cbd f3e2 6b3d d616 ba3b
00000340: 0da8 10be a90f 66be 8d04 25bd 2e2d 41bd
00000350: 4683 9b3c 0709 14be d0a7 06bd d758 4f3d
00000360: 813e 9c3c 08aa f3bd 1491 153e 881b b0bc
00000370: 26d3 683d 46a5 923d 443b 5dbd a7c2 a1bd
00000380: e18e 11be 999e 253e c0dc 50bd fa9e 013e
00000390: 48a9 a1bd f827 313d 716f 973c b94e 82bd
000003a0: 5fb4 13bd 303a 51bd e9b5 883d f30d be3d
000003b0: 71cd 90bc cf7f e9bd 0a8c 14be 2024 86bd
000003c0: 8403 2e3d 27dd a43d 9cd1 ea3d 48d8 4a3d
000003d0: 6470 20be 4b81 36bd c5e3 d03d 1ea6 923d
000003e0: f7a6 14be 966c 1fbe 9a61 ebbd 8d41 5dbc
000003f0: f59c fbbd 53fa fd3d d26a 2fbd 6b12 9a3d
0.05093198 -0.067668475 0.09152981 -0.07636296 -0.043410067 -0.041917767 0.010842338 0.034492664
-0.019065438 -0.049077313 -0.0033326738 0.12134033 0.008909782 0.16150583 0.034474265 0.03531063
-0.14510238 -0.072895914 0.035605174 -0.06449748 -0.087343946 -0.042816058 -0.054356482 -0.048787456
-0.14920503 -0.14963876 -0.0032359166 0.1397247 -0.053753503 -0.15733248 0.073425554 0.011707678
-0.15168077 0.23985866 -0.038860153 -0.10917247 -0.10422155 -0.26973784 -0.03322692 -0.083931014
0.0080928095 -0.049858306 -0.035417583 0.026881497 -0.04540355 0.048526615 0.0958408 0.1679712
-0.042551562 0.014796093 -0.08134633 0.03646779 -0.042094346 -0.07117744 -0.049502037 -0.06514666
-0.10917078 -0.115066834 0.07352722 0.034145378 0.05821901 0.08345419 -0.047612842 0.048150353
0.08552178 0.09189992 0.02245353 -0.20239364 -0.011383129 -0.26369423 0.055359714 -0.15873261
-0.075385064 -0.16739497 -0.10774899 0.20749108 -0.11990645 0.102333054 0.22389916 -0.049276147
-0.03724562 -0.041945923 -0.12991798 -0.082973324 0.024329817 0.036401317 0.15042785 0.17468967
0.062003158 -0.063062094 0.061593108 -0.13098346 -0.035020858 -0.052890033 -0.18050268 -0.06763525
0.1267462 -0.07903682 -0.034164347 -0.16535702 -0.013504898 -0.10560503 -0.13049866 0.026069388
0.057909027 -0.099109724 -0.011731349 0.04958891 0.028747022 0.005149359 0.17018184 0.07325578
0.012912795 -0.17133959 0.009914448 -0.046303287 0.08569619 -0.009137202 0.14528961 -0.0529761
0.14936249 0.09498857 0.07649208 0.0027022576 0.023968313 -0.100280024 -0.3654057 0.036939424
0.04008519 -0.06322868 0.055697594 -0.100069374 -0.0031167981 -0.036484852 -0.076611735 -0.13099895
0.02729048 0.091453426 0.008732884 0.055924393 -0.13394845 0.06367826 -0.108181395 -0.02488009
-0.008903127 -0.03455481 -0.23600194 -0.19208671 0.10322708 0.08753809 0.013459754 0.10316532
0.13402243 0.022962363 -0.020312333 0.050636727 -0.07598376 0.024606958 -0.052439537 0.013453061
0.14090689 -0.055980682 -0.109743394 0.088255316 -0.14638273 0.09796899 0.17252427 -0.08918272
-0.05648411 0.0550081 0.023331864 0.10588466 0.21312207 0.042872354 -0.073574685 0.09271868
0.01172081 -0.10602093 -0.03112406 0.06102023 0.07941235 0.084304325 -0.10674741 -0.08074325
0.13526648 -0.1336853 0.030742029 -0.09398567 0.0351525 -0.07811208 -0.010433113 0.04031832
-0.087708 0.10167432 0.021602875 0.057720926 -0.09479803 0.0867777 0.06085017 -0.046671905
-0.087674215 -0.0844821 -0.10154829 -0.118498884 0.07617141 -0.07665584 0.057589483 0.005678992
-0.14126606 -0.22466911 -0.040287543 -0.047162227 0.018983494 -0.14456569 -0.032874882 0.050621834
0.019072773 -0.11897665 0.14606124 -0.021497503 0.05684199 0.0716043 -0.0540116 -0.07898455
-0.1421466 0.16173781 -0.050991774 0.12658301 -0.07893616 0.043251008 0.018485757 -0.063626714
-0.036060687 -0.051080883 0.066753216 0.09280004 -0.017676087 -0.11401331 -0.14506546 -0.06549859
0.04248382 0.08049994 0.11465761 0.049522668 -0.15667874 -0.044556897 0.101996936 0.071605906
-0.14516817 -0.15568766 -0.114932254 -0.013504398 -0.122857966 0.12401261 -0.04282648 0.07523044

G.0.linears.1.bias f4 [32]
00000000: 54cd 33bd c672 6d3d 2416 0e3d 3487 f5bb
00000010: 1a78 363c a0f2 893d 525f 7a3d bdc6 163d
00000020: 8fb0 d33d 4265 55bd da36 76bd 04bc 2ebd
00000030: fdb6 843d 710e 9bbd 8838 7abd 5190 80bd
00000040: ce9d 003b 72bd 1dbd 8fcc bd3c 1a76 9cbd
00000050: b5f9 f13d f402 43bd 7357 d0bc b29b 36bd
00000060: 0d37 1abd a6b4 61bd a965 863d edc5 3bbc
00000070: 6b9f 6cbc fde7 ac3d bf31 87bd 7d84 12bc
-0.043896988 0.057970785 0.034689084 -0.007492924 0.011137033 0.0673573 0.06112606 0.036810625
0.1033641 -0.05209852 -0.060110904 -0.042659774 0.06480215 -0.07571114 -0.06108907 -0.06277526
0.001962531 -0.038510747 0.02316883 -0.076397136 0.11815206 -0.04761024 -0.025432324 -0.044582076
-0.037650157 -0.05510392 0.06562359 -0.011460763 -0.014442305 0.08442686 -0.06601285 -0.0089427205

G.0.linears.2.weight f4 [10, 32]
00000000: ae1a bdbb ca3b 67bd 797e 013c 91c3 fbbd
00000010: 9072 6d3d 8758 79be 9481 063e 0570 e93d
00000020: 6e9d 853c 6eba 08be b275 1c3d e2a0 803d
00000030: bb49 873b 0431 143e 9a3e 8ebd 54bc dcbd
00000040: 88f3 063d 8511 9bbd a0b2 b23d 1306 5dbd
00000050: d741 70be 311f 543e 9e15 3a3d 8929 dabc
00000060: bba8 8c3b e1a6 df3d 2c0a 7b3d f622 b63c
00000070: 2cb4 003e 8691 063e 5af3 26be 0dcf 423a
00000080: 89a3 b13d 7063 54bc 9dd2 8cbc e119 bdbd
00000090: aa55 053e dc1d 8a3d c929 d63c 9d52 243e
000000a0: 1593 44bd 0100 29be 3123 903b f5d2 00bd
000000b0: 531b 5bbd 8cd8 a5bd 0954 47bd 333b 5e3e
000000c0: 943f 56bd 1066 0f3e 4963 f33d 179d 54bd
000000d0: a2ae debd b3d3 783c f065 eabd 754f 933d
000000e0: 6897 f3bb f325 ebbd ee18 bf3c 1d58 cf3c
000000f0: fd2a 733e 38ab 78bd b141 883c 5fd5 65bc
00000100: b16a 48bd ccc0 05be 6e28 60be b586 6c3e
00000110: 6581 e8bd 3f56 b73d 4fad ea3d 90b6 0c3d
00000120: 8758 043e e853 0cbe d216 8b3c 9d50 5abd
00000130: ef0f c13d 5952 b73d 7082 29bd e5a2 22be
00000140: 9f40 313c e1f2 1b3e d899 82bd 1a7a 133e
00000150: c651 4f3d 8dc0 11be 144e 1a3d bf8e f73c
00000160: 6304 1a3e 7049 d7bd 17f7 943d 6c25 d5bd
00000170: 20d6 2ebc 701b af3d 5f5c 6abd 9f4f 8c3d
00000180: d312 573d d1ff e8bd 3200 133e bc0d 0e3e
00000190: 8ea7 583e 4371 afbd 8ff8 fbbd d59e f23d
000001a0: 6d53 883d aa44 bcbc 84fa 73bd a6ec 393d
000001b0: 1744 ca3d adab a23d 7495 f63c 0001 a03c
000001c0: 995d 10bd a5f9 adbd 4052 d93d 9780 213d
000001d0: a9b6 4d3d 2cb1 02bd 6d6a 8cbd f8f6 93bd
000001e0: 40c0 9e3d f163 4bbd 0119 ebbc 4d51 c3bc
000001f0: 3f9c 9b3d 435f 063e 7094 b03c 25c4 75bc
00000200: d467 093e 77b8 9c3d 5563 b33c 645c 12bd
00000210: 0c28 863b f520 11be 8978 693d cd49 833d
00000220: 1b28 5abe 47ff 7e3d 6283 543d d29d aabd
00000230: abb3 393e 406c b4bd dfec 0fbc 3df9 66be
00000240: 7c98 c0bd 8ad7 693c 28ca d5bd 083c f4bc
00000250: 9f79 2c3d 2700 603d b0a7 983d 9c07 4bbc
00000260: fbd4 b9bd d52f 8cbd 2b50 c4bd d534 843d
00000270: 843a 4cbc 5ff5 cfbd 9267 b53d de73 3cbe
00000280: df5c 183d 3a23 553d 32bf ee3d f26d d83c
00000290: 6001 94bd 496d a7bc 7e7a 18be 06f6 c7bd
000002a0: bac4 f63c e783 b2bd eaa8 0dbe ddf2 0b3d
000002b0: f7d0 2abd 068f af3d e69c c7bd ea29 523d
000002c0: ccbe dabd 6044 043d 55c5 a73d df8a 9f3d
000002d0: 1059 d5bd ef41 37be b077 29bd 1850 a2bd
000002e0: 19d6 94bd 4fd2 2dbe a111 82be 201f a43e
000002f0: fbf4 403d a14e 46bd 1d33 a1bd 793b 0dbe
00000300: 9f86 023e 6cd7 0a3c 82d9 363c 50f4 42bb
00000310: f93e 0abd 265c aa3d a34c 18bd cbbe 6cbd
00000320: 5be0 3fbd 4a91 c53c aca3 41bb 2654 57bb
00000330: 3dc6 f53c 2383 e63d 0496 0bbc b1ba 0c3e
00000340: 7c21 c23c fd95 193d 4fcf ca3c 11ce fabd
00000350: 457c 353c 3da9 92bb 26b5 38be 8d1e 91bd
00000360: 1363 2a3d 9ec2 3f3d 10e4 bebd f2b1 1a3e
00000370: 4b55 a4bc 2987 283e 5fe7 7cbd 9f10 1e3d
00000380: 3861 10bd 1bb6 49bc fcb1 fc3c cf2b 323e
00000390: 2047 153c 34aa 5e3e a475 0bbe e8fe 05bb
000003a0: 0b72 283e 8cae 8e3e 9015 7cbd acba b93d
000003b0: 4ef9 1f3d 0288 f7bb 2df8 063d d18d 5a3d
000003c0: 9aac e2bd 8900 f8bd 4e66 ecbd 2a0e 0dbd
000003d0: 5cab 60be f996 0bbe 3e08 5bbe 15cf 2bbd
000003e0: 23b6 63be fd5c 943d 057f 003d 53a4 363d
000003f0: 49bb 51bd ddd7 c43d 774e 333d 9f2d 1bbd
-0.0057710027 -0.056453504 0.007903689 -0.12293161 0.057970583 -0.24350177 0.13135368 0.11398319
0.01631042 -0.13352367 0.03819818 0.06280686 0.0041286624 0.14471823 -0.06945534 -0.10778108
0.032947093 -0.07571701 0.08725476 -0.05396087 -0.23462616 0.20715024 0.045430772 -0.026631134
0.004292575 0.109205015 0.061288998 0.022233468 0.1256873 0.1314145 -0.16303769 0.00074313657
0.0867377 -0.012963161 -0.017190272 -0.09233452 0.1302096 0.067439765 0.026142972 0.1604714
-0.04799183 -0.16503908 0.0043987264 -0.031451184 -0.053492855 -0.08097944 -0.048664127 0.2170227
-0.052306727 0.14003778 0.118841715 -0.051907625 -0.10873152 0.015187192 -0.11445224 0.071928896
-0.0074338205 -0.114818476 0.023327317 0.02531057 0.23746867 -0.060710162 0.016632887 -0.014027922
-0.048929874 -0.13061827 -0.21890423 0.23098262 -0.11352805 0.08951997 0.11458837 0.034353793
0.12924396 -0.13703883 0.016978655 -0.053299535 0.09426867 0.089512534 -0.04138416 -0.15882452
0.0108186295 0.1522937 -0.063769996 0.14402047 0.050615095 -0.14233609 0.037672117 0.030219434
0.15040736 -0.10512054 0.07273691 -0.10407528 -0.010671169 0.08550155 -0.057217 0.06851124
0.052508187 -0.11376918 0.14355543 0.13872427 0.21157667 -0.08566525 -0.12303268 0.11846701
0.06656537 -0.02298196 -0.059565082 0.0453917 0.09876268 0.07942901 0.030100562 0.019531727
-0.03524551 -0.084948815 0.10611391 0.039429273 0.050223026 -0.031907246 -0.068562366 -0.0722484
0.077515125 -0.04965586 -0.028698446 -0.023842478 0.07598161 0.13122277 0.021555156 -0.015000378
0.13418514 0.076523714 0.021897951 -0.03573264 0.0040941294 -0.14172728 0.056999717 0.06410561
-0.21304362 0.06225517 0.05188311 -0.08330883 0.18134944 -0.088097095 -0.008784502 -0.22556014
-0.09404084 0.01427258 -0.10438949 -0.029813781 0.042108174 0.054687645 0.07453859 -0.012391951
-0.09073826 -0.06845061 -0.09585603 0.064553894 -0.012465123 -0.10154223 0.08857645 -0.18403575
0.037197944 0.052035548 0.11657561 0.026419614 -0.07226825 -0.020437853 -0.14890477 -0.09763722
0.030123103 -0.087165646 -0.13833967 0.03416716 -0.04170319 0.085722014 -0.09746723 0.051309504
-0.10680923 0.03229177 0.08191935 0.077901594 -0.10417378 -0.17896245 -0.04137391 -0.07925433
-0.072673984 -0.16974758 -0.25404075 0.32054996 0.04710863 -0.04841483 -0.07871077 -0.13792218
0.12746666 0.008474212 0.011160256 -0.0029747672 -0.03375146 0.08318357 -0.03718246 -0.05779914
-0.04684482 0.02411713 -0.002954702 -0.0032856553 0.030001754 0.11255481 -0.008519653 0.13743092
0.023697607 0.037496556 0.024757056 -0.12246335 0.011076991 -0.004475741 -0.18037853 -0.07085905
0.04159839 0.04681646 -0.09320843 0.15106943 -0.020060202 0.1645781 -0.06174409 0.03859007
-0.035248965 -0.012311484 0.030846588 0.17399524 0.009111196 0.21744615 -0.13619095 -0.0020446125
0.16449754 0.27867544 -0.061544 0.09068808 0.039056115 -0.007554055 0.032951523 0.053357903
-0.110680774 -0.12109477 -0.115429506 -0.034437336 -0.21940368 -0.1363181 -0.21389863 -0.041945536
-0.22237448 0.072442986 0.031371135 0.044590306 -0.051204 0.09611485 0.043776 -0.037885305

G.0.linears.2.bias f4 [10]
00000000: 174c c93c 4fa7 6ebc 8252 a9bd cd7a 83bd
00000010: 2bd1 e33b 727e 34bd 0ba4 c33d fe04 97bd
00000020: 54b0 b5bd 3f19 c8bd
0.024572415 -0.014566257 -0.0826769 -0.06419907 0.006952425 -0.0440659 0.09552773 -0.07373999
-0.088715225 -0.0977044

L.0.linears.0.weight f4 [32, 20]
00000000: 3ea8 f13d e4e1 1ebe 8f52 cd3d 7564 2e3e
00000010: 8662 8abb 2d82 ddbd c68f 6c3c a2e4 3a3d
00000020: 8486 18be 7c28 2fbc 9590 4a3d 3beb a8bd
00000030: e52d 053b d26e dbbd 1b2a bebc 0197 00bd
00000040: d53b 2b3d 72d7 68bd e360 9fbd 137d 053d
00000050: cd11 6f3d 55d9 d03d 1e3f 0d3c b651 c1be
00000060: 78f7 8e3d 9936 93bc 8cb8 afbd 866d f4ba
00000070: 5f6b 233e a594 6b3d 1aef 913c 5dbf e23d
00000080: 3277 4e3e 9522 62bd 0ee6 a53c 0be4 9ebd
00000090: ed81 9bbc 42e2 a6bd e8ad b83d 06c3 d43d
000000a0: 3692 9a3d c07d b2b9 a54f 1a3d d95e 003e
000000b0: a6a1 b1bd 8a34 b8bc 8974 223e 4515 863d
000000c0: 0081 b0bd bd96 da3d 8590 803d aa86 1f3e
000000d0: 7d12 7f3e 8c51 3ebd b8ed 0b3d d90f 44be
000000e0: 74b5 ad3a e2c0 bebd 3bf1 71bb db01 c3bd
000000f0: 6e3c 293d 5f42 a8bd 3d1c 743c 1384 e23d
00000100: 7c1a c7bc 7085 7e3d 5d21 cb3d 6310 e3bc
00000110: 51a1 303e 2514 b4bd fdb1 67be 78d5 833d
00000120: 1d81 a4bd d752 01be 2e72 a6bd d8f4 eebd
00000130: 9f5c 62bd bb14 2b3c e619 c93c f7c8 98bc
00000140: d854 6a3d 2ee3 a83d ad2f 8a3d e98d ebbc
00000150: ca14 ac3d 5d3b 69bd e3cb aa3c b518 3a3d
00000160: f7fa 01bd ee13 093e e7c5 cc3d 3a32 113d
00000170: 8240 22bd 3cbf 8abd b03c a83d 2cf7 2dbd
00000180: c89f 323d b103 01be 7c45 e6bd 4f6a 2fbd
00000190: 9171 47bc 70b6 523e ed4c 753e d9c4 18bd
000001a0: 4896 153e 2beb cfbb 9ee9 bfbd b133 463e
000001b0: 1f4e 25bc 4e29 1dbb f0da dd3a 7682 7fbd
000001c0: 23db 993c b81b 1c3e cada 383e 7a2f 87bd
000001d0: 4d0c 0e3d 72dd cf3c 687f b0bd 928a e9bd
000001e0: b3be 8ebd 46d1 853c 3ff7 1a3e e151 2b3e
000001f0: f563 a03b 4594 5e3d 5eb4 18bd 3eb2 2f3d
00000200: 698e ba3c 49b8 5cbd 9982 e83d 996d 103d
00000210: 912e 89bd afe0 8e3d ec70 053d f0d8 513e
00000220: 8ee9 fabd f824 023e 47be 443d c81b a6bd
00000230: b66e adbd 92df f63d e417 a8bd e705 db3d
00000240: 0ab1 1f3e 855f 4ebd 866d 753b aa4f a03d
00000250: 6809 e13d 08ec 69bc 1f13 353e 3e0b 1ebe
00000260: 7abd 063e f428 c6bd 14d2 e43c 76b0 a9bd
00000270: 876b d0bd 5f57 5abe 798e a33d db88 cfbd
00000280: 62cf db3d cfa1 46be e4e8 cb3c d25a 1cbd
00000290: 5af1 b6bd 8559 2abd 6053 f4bd 85b3 113e
000002a0: 8353 7fbd 872d 1b3e 88bc f33d 728c 633d
000002b0: 66b3 fd3d fcb6 5e3d 6450 06bd a984 b23c
000002c0: c6ad 373b 8273 86bb 4ff6 7e3d 8a85 dc3d
000002d0: 8a85 693b 1b4f 343e 64c7 113d a975 b9bd
000002e0: 007f 75bc 7a49 22be b638 253d 96d3 0cbe
000002f0: ba94 b63d 5d17 bc3d 18f7 743d 4d24 bd3d
00000300: 44ba 0dbe 854a 143d 3ec5 eebb 0e59 f33a
00000310: 50d7 f3bc 8c16 58bd e8a3 bdbd 2881 e53b
00000320: e26b f7bd 0ce6 75be df4a 76bd 9fa7 4abe
00000330: 55ac 49bd 9d95 1f3e 5818 ec3c 190c d93c
00000340: 3238 033d 68ec 58bc 7231 103e 5a17 cebd
00000350: 3a97 413d 1033 63bd 70c8 143e cd67 be3d
00000360: b374 01bc 7bba 1fbc 29a1 e43b f357 083e
00000370: 40df f33d 5deb 04bd 7ef4 04be 538d 2b3e
00000380: 58de bb3d 0b59 f23c 6631 26be 0913 7ebe
00000390: e9ad cc3d 590f 933d 8861 1fbe c22c c93c
000003a0: ab36 f13d 2418 6ebd 41cd 84bb 4637 14be
000003b0: 7397 c4bd 10ad a3bc 0cf7 d7bc 4534 8dbd
000003c0: 4cc9 2ebe d4f2 07bd bd42 70bd 028e 3dbc
000003d0: 1b45 0dbd 3e9a 003d f69f 7c3d beb0 c33d
000003e0: 9ca4 db3d 2aaa 833c 580f a3bd 2668 3d3c
000003f0: 82c3 1f3d e501 f0bd 0f61 d53d 9ff6 1cbd
0.11799668 -0.15515858 0.100255124 0.17030509 -0.0042231707 -0.10815845 0.014438575 0.045628197
-0.14895064 -0.010690805 0.04945429 -0.08247992 0.0020321545 -0.10714497 -0.023213437 -0.03139401
0.041805107 -0.05684609 -0.077821516 0.032589983 0.058366586 0.10197703 0.008621005 -0.37757653
0.06980795 -0.01797037 -0.085801214 -0.0018648363 0.15958928 0.057514805 0.017814208 0.11071656
0.20162657 -0.05520876 0.0202513 -0.077583395 -0.018982852 -0.08148624 0.09017545 0.1038876
0.07547419 -0.00034044497 0.03767361 0.12536182 -0.0867341 -0.02248599 0.15864767 0.065470256
-0.08618355 0.10673282 0.06277565 0.15578714 0.24909396 -0.046464488 0.034162253 -0.1914667
0.001325293 -0.09314133 -0.0036917466 -0.09521838 0.041317396 -0.08215784 0.014899311 0.110603474
-0.02430462 0.062138975 0.09918473 -0.027717775 0.17249037 -0.08792905 -0.22626491 0.064372
-0.08032439 -0.12629257 -0.08127247 -0.11667794 -0.05526411 0.010441954 0.024548482 -0.018650515
0.05720982 0.08246456 0.06747375 -0.028754191 0.08402403 -0.05694138 0.020849174 0.04543372
-0.03173348 0.13386509 0.099986844 0.03544829 -0.0396123 -0.06774756 0.082147 -0.04247205
0.04360941 -0.12599064 -0.11243722 -0.042825993 -0.012173072 0.20577407 0.23955126 -0.037297104
0.14608109 -0.006345173 -0.09370731 0.19355656 -0.010089426 -0.0023980918 0.001692621 -0.062380277
0.01878125 0.15244949 0.18052211 -0.06600852 0.0346797 0.025374148 -0.08618051 -0.11403383
-0.06969967 0.01633514 0.1513338 0.16730453 0.0048947283 0.05434062 -0.037281387 0.042894594
0.022772985 -0.053886686 0.113530345 0.03526077 -0.06698335 0.06976449 0.032578394 0.20492911
-0.12251578 0.12709415 0.048033025 -0.081107676 -0.08468382 0.120543614 -0.08207682 0.10694485
0.15594879 -0.050384063 0.0037449314 0.07827695 0.10988122 -0.014277466 0.17683075 -0.15433976
0.13158217 -0.0967578 0.027932204 -0.082856104 -0.10176759 -0.21322392 0.07986159 -0.10133525
0.107329145 -0.19397663 0.024891324 -0.03817255 -0.08932753 -0.04158928 -0.11929965 0.14228638
-0.062335502 0.15154086 0.11901194 0.05555386 0.12387733 0.054373726 -0.03279151 0.021791773
0.002802716 -0.004103125 0.062246617 0.10767658 0.0035632574 0.17608301 0.035590544 -0.09055645
-0.014983892 -0.15848342 0.040337287 -0.13752589 0.08915086 0.09184144 0.05980596 0.092354394
-0.13840586 0.03620388 -0.0072866967 0.0018565969 -0.029765755 -0.052755877 -0.09259778 0.007003922
-0.12081124 -0.24013537 -0.060129996 -0.19790505 -0.049236614 0.15584417 0.028820202 0.026495026
0.032036014 -0.013239957 0.14081362 -0.10063048 0.04726336 -0.05546862 0.14529586 0.09297142
-0.007901358 -0.00974905 0.0069772196 0.133148 0.11907816 -0.032451022 -0.12983891 0.1675313
0.09173268 0.029583475 -0.16229782 -0.24811949 0.09994108 0.07180662 -0.15564549 0.024557475
0.11778005 -0.05812849 -0.0040527885 -0.1447421 -0.09599199 -0.019979984 -0.026362918 -0.06894735
-0.17068976 -0.033190563 -0.058657397 -0.011569502 -0.034489732 0.031397097 0.06167599 0.09555195
0.10724756 0.016072351 -0.07961911 0.011560475 0.03900481 -0.11719111 0.10418903 -0.038321134

L.0.linears.0.bias f4 [32]
00000000: 1042 a93d 9564 b0bd 5596 c73d 08ee e13c
00000010: 4295 dfbd 626c 9cbc f24e 70bd fcd7 19bd
00000020: 38a6 29bd 687b 38bd f190 70bd 0be2 4b3d
00000030: 2b85 5dbd a32c d7bc f895 98bd fa84 7ebd
00000040: 41b9 343c eab2 b2bd f6ed 46bd 6e06 d1bd
00000050: 2384 81bd 2ebf 8fbd 5820 10bc 43fb 68bd
00000060: 7dd4 8d3d 2036 0ebb 38c6 c43d 1389 a3bd
00000070: 9e35 d7bc 89de fa3d b0e8 79bd 9d3c 42bc
0.082645535 -0.086129345 0.097454704 0.027579322 -0.109171405 -0.01909465 -0.058669038 -0.037559494
-0.041418284 -0.045039564 -0.058731977 0.04977612 -0.054082077 -0.026266402 -0.07450479 -0.062138535
0.011030496 -0.087255314 -0.04856678 -0.102063045 -0.06324031 -0.070188865 -0.008796774 -0.056880247
0.069252945 -0.0021699741 0.0960812 -0.07985129 -0.026270684 0.122494765 -0.061012924 -0.011855272
