para_save2/00026params.pth (torch, 118145 bytes, 76 tensors)

F.linears.0.weight f4 [32, 20]
0	0x3d2e81fd	0.042604435
1	0xbdd1fd15	-0.1025335
2	0xbd321dc4	-0.043485418
3	0x3cfb9de7	0.030714942
4	0x3c086c92	0.008326666
5	0x3d13c82e	0.036079578
6	0xbd84ef1d	-0.0649092
7	0xbcaa903d	-0.020820731
8	0x3bf06f50	0.0073374882
9	0x3d3d0af6	0.04615303
10	0x3d5d4b64	0.054026976
11	0x3e27bd02	0.16380695
12	0xbe4b4d97	-0.19853817
13	0x3db2ea23	0.08736064
14	0x3e1fca01	0.15604402
15	0x3e0860cb	0.13318174
16	0xbe09d579	-0.1346034
17	0x3ca186f3	0.01971767
18	0xbe120475	-0.14259513
19	0x3d25cbe5	0.040477652
20	0x3dc01e23	0.09380748
21	0x3b99164a	0.0046718465
22	0xbd0b1064	-0.03395118
23	0xbd99f17a	-0.07516761
24	0xba3a941c	-0.0007117407
25	0xbc98a525	-0.018633435
26	0x3d7a4e94	0.061110094
27	0x3d206d0f	0.039166506
28	0xbdec7abb	-0.115468465
29	0xbd34938d	-0.044086028
30	0x3e619df2	0.22032908
31	0x3d986fb5	0.074431814
32	0xbd5f0244	-0.05444552
33	0x3db1caf3	0.086812876
34	0xbdb85e15	-0.0900232
35	0x3d1c655e	0.03818261
36	0xbd4812b4	-0.04884596
37	0x3e74475c	0.23855346
38	0x3e139574	0.1441248
39	0x3c06292d	0.008188528
40	0xbda95d56	-0.082697555
41	0x3e7df888	0.24801838
42	0xbe0a3913	-0.13498335
43	0xbc857e25	-0.016295502
44	0x3dbe4652	0.09290756
45	0x3e1adec9	0.15124048
46	0xbb27adab	-0.0025585692
47	0x3d47eee5	0.048811812
48	0xbdfba0b3	-0.1228651
49	0x3cfa8f70	0.030585974
50	0x3cea9a70	0.028638095
51	0xbe2361dd	-0.159553
52	0xbd781c75	-0.060574014
53	0xbd1bcb20	-0.038035512
54	0xbd936e3a	-0.071987584
55	0xbe59e301	-0.21278001
56	0xbd72d33b	-0.059283476
57	0xbe02f210	-0.12787652
58	0x3de8fc20	0.11376214
59	0x3da7674a	0.08173998
60	0xb9c003ad	-0.00036623832
61	0x3cc023e5	0.023454616
62	0xbc4b94ce	-0.0124256145
63	0xbcafc760	-0.021457374
64	0x3d3426e7	0.043982413
65	0x3c03dd47	0.008048362
66	0x3e165731	0.14681698
67	0x3db7be8a	0.08971889
68	0x3e8177f7	0.25286838
69	0x3d536b17	0.0516158
70	0x3dd6e188	0.104922354
71	0x3d6a72c2	0.057238348
72	0x3d8f3dc8	0.06994206
73	0x3d2e95ca	0.04262332
74	0xbdd9bec2	-0.10632087
75	0x3e53f379	0.20698346
76	0xbe048b2d	-0.12943716
77	0x3e2edce4	0.1707645
78	0xbe1cdd53	-0.15318803
79	0xbd49f7cd	-0.049308587
80	0x3e481c91	0.19542147
81	0x3c9cf620	0.01916033
82	0xbe89962c	-0.26872385
83	0xbd26f63a	-0.040762164
84	0x3da43a05	0.08018879
85	0x3dbcb7e9	0.092147656
86	0xbda25663	-0.07926633
87	0x3d16a380	0.03677702
88	0xbd5a678e	-0.053321414
89	0xbb31856a	-0.0027087578
90	0x3d750cec	0.059826776
91	0xbe00e4df	-0.12587307
92	0x3d878608	0.06617361
93	0x3e021582	0.12703517
94	0xbe4508c4	-0.19241625
95	0xbbee2774	-0.007267887
96	0x3c15532d	0.009114069
97	0x3cc17288	0.023614183
98	0xbd9cac84	-0.07650092
99	0x3da6e78f	0.08149635
100	0xbd805c5c	-0.06267616
101	0xbd9d4f0e	-0.07681094
102	0x3c8a66b1	0.01689467
103	0xbcae78b9	-0.0212978
104	0x3b828ba4	0.0039839316
105	0x3d9977e9	0.07493574
106	0x3c47985d	0.012182322
107	0xbe03ea4c	-0.12882346
108	0xbdd47112	-0.10373129
109	0xbe3966d8	-0.18105638
110	0x3e311182	0.17291835
111	0x3e1aed18	0.15129507
112	0x3d24c3b5	0.040225703
113	0x3c740d7d	0.014895794
114	0xbda9b6e9	-0.082868405
115	0x3e449acd	0.19199677
116	0xbdcbfe71	-0.0996064
117	0xbdbf5d7b	-0.09344002
118	0xbbfb1708	-0.0076626576
119	0x3e0dd67e	0.13851354
120	0xbd2e42c8	-0.042544156
121	0x3c123d3c	0.008925732
122	0x3e498c16	0.19682345
123	0xbd9e3428	-0.07724792
124	0xbd98d351	-0.074621804
125	0x3ce2e12b	0.02769526
126	0x3de8437a	0.11340995
127	0xbe48140d	-0.19538899
128	0xbd4bf6fd	-0.049796093
129	0xbd1b68f9	-0.037941907
130	0xbcbc9f04	-0.023025043
131	0x3bcd62c2	0.0062678764
132	0xbdec5c88	-0.115410864
133	0xbda72c87	-0.0816279
134	0xbd717fa5	-0.058959622
135	0xbe5624db	-0.20912497
136	0xbd7f55c6	-0.06233766
137	0xbd87c878	-0.06630033
138	0x3c2ec51f	0.0106671145
139	0x3cf24ffa	0.029579151
140	0xbd57e47c	-0.052708134
141	0xbadbd2cb	-0.0016771195
142	0xbdaf4527	-0.08558112
143	0xbd2824c4	-0.041050687
144	0xbdeac721	-0.11463762
145	0xbd0d11a3	-0.034440648
146	0xbe0af286	-0.13569078
147	0xbda12170	-0.07867706
148	0xbe24045a	-0.16017285
149	0x3dc6f057	0.0971381
150	0x3dc27650	0.094952226
151	0x3e46ea77	0.19425379
152	0x3e0caa37	0.13736807
153	0xbd9a09bf	-0.0752139
154	0x3c8bd124	0.0170675
155	0xbca32682	-0.019915823
156	0x3e344202	0.17603305
157	0xbd09988a	-0.03359274
158	0x3da80a38	0.08205074
159	0x3d4c4d5e	0.04987847
160	0x3ced3f19	0.028960751
161	0xbdb118ca	-0.08647306
162	0x3a007cdf	0.000490142
163	0xbda2a92e	-0.07942425
164	0xbca85311	-0.020547422
165	0xbbb7d39d	-0.005609943
166	0xbdf1b3e1	-0.11801887
167	0x3ded5619	0.115886874
168	0x3dd03420	0.10166192
169	0x3d3c6f78	0.046004742
170	0xbddee884	-0.108841926
171	0xbda6ee26	-0.08150892
172	0x3d5d3ada	0.054011203
173	0x3da89405	0.082313575
174	0x3c8be427	0.017076565
175	0xbd06434b	-0.03277902
176	0xbcd805b0	-0.0263699
177	0x3e4d08f4	0.20022947
178	0x3cd12bcc	0.02553358
179	0x3cde81d4	0.027161516
180	0xbe428228	-0.18994963
181	0x3d4e871f	0.05042183
182	0x3d80ecc5	0.0629516
183	0xbdb65ff1	-0.08905018
184	0x3c996832	0.018726442
185	0xbe306abf	-0.1722822
186	0x3dae2089	0.08502299
187	0x3d4b524b	0.049639028
188	0xbc3e5336	-0.011616519
189	0x3d555a69	0.052088175
190	0xbd9f9226	-0.077915475
191	0xbde0c608	-0.109752715
192	0x3d4b6a3a	0.049661852
193	0xbdb59383	-0.08866026
194	0xbdd8ac69	-0.1057976
195	0x3d13cd9f	0.036084767
196	0xbdb6c17a	-0.089236215
197	0x3dc3a160	0.09552264
198	0x3c90f49e	0.017694768
199	0x3d8a5d5d	0.06756089
200	0x3cdbc721	0.02682835
201	0xbd32b71c	-0.043631658
202	0x3c895a08	0.016766563
203	0x3b8ec3aa	0.004356821
204	0x3c2a69e6	0.010401225
205	0xbcba9532	-0.02277622
206	0x3c043987	0.008070356
207	0x3c9c8648	0.019106999
208	0xbe5491ce	-0.20758745
209	0xbe1d735d	-0.15376039
210	0xbda6bb0a	-0.081411436
211	0x3c81ceb7	0.01584564
212	0xbd454fef	-0.048171934
213	0x3c20bc25	0.009810482
214	0xbd1f5118	-0.038895696
215	0x3e00eb17	0.1258968
216	0x3d937795	0.07200543
217	0x3d7ce895	0.061745245
218	0xbd814270	-0.063115
219	0x3d5dd273	0.05415578
220	0x3cc561e1	0.024094524
221	0xbc571874	-0.013128389
222	0x3e2c5c07	0.1683198
223	0xbd8bec4f	-0.06832182
224	0xbd95a26c	-0.0730637
225	0x3dfe2cf8	0.12410921
226	0x3dde0371	0.108405
227	0xbd69d41b	-0.057087045
228	0xbd91b7d5	-0.07115141
229	0xbd88992a	-0.06669839
230	0x3cc17ae8	0.023618177
231	0x3d8dbac2	0.06920387
232	0xbdc19191	-0.09451593
233	0x3dac7966	0.084215924
234	0xbd47bbea	-0.048763193
235	0xbdb43555	-0.08799235
236	0x3d963dad	0.073359825
237	0xbdf7dd5e	-0.12102769
238	0xbe43d08f	-0.19122528
239	0xbd906644	-0.070507556
240	0x3dcfb894	0.10142627
241	0xbd07e2eb	-0.03317539
242	0x3dd19650	0.10233748
243	0x3e07c5a8	0.13258994
244	0x3df69452	0.120400086
245	0xbcd044c1	-0.02542341
246	0x3e3c88d4	0.18411571
247	0x3cdea517	0.02717833
248	0xbdd826a1	-0.10554243
249	0xbd921cd5	-0.071344055
250	0xbe784451	-0.2424481
251	0x3d18504a	0.037185945
252	0x3dea25f6	0.11433022
253	0x3d16afe9	0.036788855
254	0xbd7b2df5	-0.061323125
255	0x3daad90e	0.08342181

F.linears.0.bias f4 [32]
0	0x3c8deb2c	0.017324053
1	0x3c8ce8e5	0.017200897
2	0x3d5be382	0.053683765
3	0x3d45a542	0.048253305
4	0x3d774d76	0.060376607
5	0x3db90a4d	0.09035168
6	0xbd66bd65	-0.056332964
7	0x3d2a8f74	0.041640714
8	0xbdbba089	-0.09161479
9	0x3d974d49	0.07387788
10	0xbcee7681	-0.029109241
11	0xbcf8b701	-0.0303607
12	0xbd1a5b23	-0.03768457
13	0x3da10671	0.07862557
14	0x3ce08af0	0.02741
15	0x3cbea677	0.023272736
16	0xbb05c278	-0.0020410102
17	0x3cc2c59d	0.02377587
18	0xbdb31334	-0.08743897
19	0xbd86a0f2	-0.06573667
20	0xbdd6a987	-0.104815535
21	0x3d70b554	0.058766678
22	0x3cb2e35a	0.021836925
23	0xbccf79bc	-0.025326602
24	0xbd4979c2	-0.049188383
25	0xbc51b210	-0.012798801
26	0x3c8b4903	0.017002588
27	0x3dbe9294	0.09305301
28	0x3d7b3164	0.0613264
29	0x3d308cfb	0.0431032
30	0x3dba5374	0.09097949
31	0x3d77ef09	0.060530696

F.linears.1.weight f4 [32, 32]
0	0xbe851e53	-0.25999698
1	0xbdd2d8cd	-0.10295258
2	0xbc52d653	-0.012868482
3	0x3e04701b	0.1293339
4	0xbdd57ba8	-0.10423976
5	0x3b2f2061	0.002672218
6	0x3e6b9316	0.23005328
7	0x3cec7d2e	0.028868284
8	0xbe4780d1	-0.19482733
9	0x3e2640a0	0.1623559
10	0xbcc00c87	-0.023443474
11	0x3dd6f816	0.104965374
12	0xbdb355b8	-0.08756584
13	0xbdd849bd	-0.105609395
14	0xbce86763	-0.028369611
15	0xba9af308	-0.0011821697
16	0x3d336fa5	0.043807644
17	0xbd009dcc	-0.031400487
18	0xbe0aa642	-0.13539985
19	0xbd96d5d0	-0.07365
20	0x3d8fd528	0.07023078
21	0x3e28853a	0.16457072
22	0x3d10d44d	0.035358716
23	0x3d860e04	0.06545642
24	0xbd92f37f	-0.071753494
25	0x3da4016a	0.08008082
26	0x3d74e67b	0.059790116
27	0x3c232e40	0.009959757
28	0x3b7d3c54	0.0038640695
29	0x3d3671f4	0.044542268
30	0xbe0409a0	-0.12894297
31	0xbdf87c7a	-0.12133117
32	0xbd43a634	-0.047765926
33	0x3dac25d0	0.0840565
34	0x3e63b1cf	0.22235797
35	0x3d39659f	0.04526293
36	0x3e0f56ff	0.1399803
37	0xbd87d56c	-0.06632504
38	0xbd0dbc10	-0.03460318
39	0xbe0b2942	-0.13589957
40	0xbd1b2b3a	-0.03788302
41	0x3dc8bcd5	0.09801642
42	0xbc8ad8c8	-0.016949072
43	0xbe54f256	-0.20795569
44	0x3e7ba93e	0.2457628
45	0x3df3a957	0.118975334
46	0x3c5b2bea	0.013377169
47	0xbd921b53	-0.07134118
48	0xbd72df7f	-0.059295174
49	0x3e000663	0.12502436
50	0xbd826355	-0.06366602
51	0x3dcfd86e	0.101487026
52	0xbd7bf23a	-0.061510302
53	0x3cb20676	0.021731596
54	0x3d49f8db	0.049309593
55	0x3d510d90	0.051038325
56	0x3bd6679f	0.0065431143
57	0x3b91c824	0.0044489074
58	0xbda3bdb9	-0.07995171
59	0x3d0eca5b	0.03486095
60	0x3e142c85	0.14470108
61	0x3ad23dea	0.001604018
62	0xbd84299c	-0.06453249
63	0x3da20ab8	0.07912201
64	0xbd9cc45a	-0.076546386
65	0x3cca6d89	0.024710434
66	0xbd30bdf6	-0.04314991
67	0x3d21c5f3	0.03949542
68	0x3cd46b61	0.025930109
69	0xbdca91a4	-0.0989106
70	0xbcea52ca	-0.02860393
71	0xbccf7c4a	-0.02532782
72	0xbe211ad0	-0.15732884
73	0x3dc1f66d	0.0947083
74	0x3d391541	0.045186285
75	0xbd8789c9	-0.06618077
76	0xbd3f9c73	-0.04678006
77	0x3d2125f7	0.039342847
78	0x3d96dd28	0.07366401
79	0x3d94a2f1	0.07257641
80	0x3cb5e51f	0.02220398
81	0xbd13120d	-0.035905886
82	0xbe59e3d3	-0.21278314
83	0x3db8859f	0.09009861
84	0xbe49da70	-0.19712234
85	0xbc0ea12c	-0.008705419
86	0xbdc91ab2	-0.09819545
87	0x3d8df077	0.06930631
88	0xbd9108cb	-0.07081755
89	0xbe0ca840	-0.13736057
90	0x3d3a9898	0.04555568
91	0xbd1e2f98	-0.038619608
92	0xbcb1f65b	-0.021723917
93	0xbd7440f5	-0.05963226
94	0xbda2774e	-0.07932912
95	0xbdbc33f7	-0.09189599
96	0xbdc4b1b6	-0.09604208
97	0xbc2b085c	-0.010439005
98	0xbbeb07a0	-0.00717254
99	0xbd07efd3	-0.0331877
100	0x3d04c5b1	0.032415096
101	0x3d0cec86	0.034405254
102	0xbbaa3931	-0.005194806
103	0xbe2ab89c	-0.16671985
104	0xbdcde6e4	-0.100538045
105	0xbde01a33	-0.10942497
106	0xbd235071	-0.039871637
107	0x3d9b70fb	0.07589909
108	0xbd06bd18	-0.032895178
109	0xbcfaa16e	-0.030594554
110	0xbe012e6a	-0.12615362
111	0x3d4890a2	0.048966058
112	0xbe297525	-0.16548593
113	0xbda7c1b0	-0.0819124
114	0xbdaec1dd	-0.0853307
115	0x3c99273f	0.018695472
116	0xbd9bd1ad	-0.07608352
117	0x3b8bed88	0.0042702593
118	0x3d28837e	0.041141026
119	0x3df3fc04	0.119133025
120	0xbe0a4bc0	-0.13505459
121	0x3df31f1e	0.118711695
122	0xbdb646a2	-0.08900191
123	0x3dd92cf9	0.10604281
124	0x3d7ceb9a	0.061748125
125	0xbc32e0fa	-0.010917896
126	0xbcc6db61	-0.02427453
127	0x3dd88ec3	0.10574105
128	0x3d3a3785	0.045463104
129	0xbc9d93d1	-0.019235523
130	0xbd9448af	-0.07240426
131	0xbd771187	-0.06031945
132	0xbda8dc17	-0.08245104
133	0x3d80de5b	0.06292411
134	0x3dbc8a8d	0.09206114
135	0x3cbe236b	0.023210248
136	0xbdaa824b	-0.08325633
137	0x3df01ba2	0.117240205
138	0xbd5e080b	-0.05420689
139	0x3e14e937	0.1454209
140	0xbd31b8b2	-0.04338903
141	0x3c07c6b5	0.008287122
142	0x3d27a050	0.04092437
143	0xbda452fd	-0.08023641
144	0xbc2c6e37	-0.010524324
145	0xbd5b60d8	-0.053559154
146	0x3dae6d3a	0.08516927
147	0x3e68cd36	0.22734532
148	0xbe319239	-0.17340936
149	0x3d530d16	0.05152615
150	0x3cc65347	0.024209632
151	0x3c1cb80d	0.0095653655
152	0x3e044b97	0.1291946
153	0x3d2c5e70	0.04208225
154	0x3dc88727	0.09791403
155	0xbd7a50fa	-0.06111238
156	0x3e0838db	0.13302939
157	0x3db8269a	0.08991738
158	0xbdff5a96	-0.1246845
159	0xbd245d5b	-0.040128093
160	0x3e58ad36	0.21159825
161	0x3e4999c2	0.1968756
162	0x3da69a82	0.08134939
163	0xbe076590	-0.13222337
164	0xbe02de4d	-0.12780114
165	0x3e486601	0.19570161
166	0xbcac295f	-0.021015821
167	0xbcc27265	-0.023736188
168	0xbc63e9ba	-0.013910705
169	0x3b899d55	0.0041996636
170	0xbc57a5a9	-0.013162055
171	0xbdfb6fb6	-0.122771665
172	0xbe08fd6c	-0.13377923
173	0xbdbd48f5	-0.09242431
174	0xbd468c74	-0.04847379
175	0xbd2bba91	-0.04192597
176	0xbd3ad5c5	-0.045614023
177	0x3d68add2	0.056806393
178	0xbe46a222	-0.19397786
179	0xbd3557a7	-0.044273045
180	0xbd377d82	-0.044797428
181	0xbe1bcf8a	-0.15215889
182	0xbe33a7e6	-0.17544517
183	0x3e0cfe0f	0.1376879
184	0xbd984012	-0.074340954
185	0x386de8cc	5.6722012e-05
186	0x3d943105	0.07235912
187	0x3e16134c	0.14655799
188	0xbdb336b8	-0.08750671
189	0xbd1a7a13	-0.037714075
190	0xbd5279f6	-0.051385842
191	0xbc3800ff	-0.011230706
192	0xbe5c7fa8	-0.21533072
193	0xbe0a753a	-0.13521281
194	0xbe156d31	-0.14592434
195	0x3e1336ba	0.14376345
196	0x3c532162	0.012886377
197	0xbda1a50a	-0.07892807
198	0x3e5654d6	0.209308
199	0x3d629fb1	0.055328075
200	0x3c829f42	0.01594508
201	0xbd51e140	-0.051240206
202	0x3dfe14a7	0.12406283
203	0x3e175e7b	0.14782135
204	0xbde35176	-0.11099522
205	0xbe393fd7	-0.18090759
206	0x3cbdf3b5	0.023187498
207	0x3c816273	0.015794015
208	0x3dba4846	0.09095816
209	0xbd93d0a6	-0.07217531
210	0xbd8e38db	-0.06944438
211	0xbd11e1bf	-0.03561568
212	0x3d8a2696	0.06745641
213	0xbdd94add	-0.10609982
214	0xbdf92ca9	-0.121667214
215	0x3cb5db68	0.022199348
216	0xbd18b5c9	-0.03728274
217	0x3dc4164f	0.095745675
218	0xbdb8bd4c	-0.090204805
219	0xbd519e18	-0.05117616
220	0xbdc3644d	-0.09540615
221	0xbdad9ff5	-0.08477775
222	0x3de22bcb	0.11043509
223	0xbeb98a1e	-0.36238188
224	0xbd2f3c8a	-0.042782344
225	0x3dd459a0	0.10368657
226	0xbde8e2c9	-0.11371381
227	0xbcf825a5	-0.030291388
228	0xbc2a2260	-0.010384172
229	0xbe2939ad	-0.16525908
230	0xbe37d227	-0.1795126
231	0x3a1f0e3c	0.000606749
232	0x3c08c8da	0.008348668
233	0xbd1a9552	-0.03774006
234	0xbe977cca	-0.29587394
235	0x3da002f2	0.07813062
236	0x3dcf4349	0.101202555
237	0x3dd16e19	0.102260776
238	0x3dc202a3	0.09473159
239	0xbd19de4c	-0.037565514
240	0x3df69813	0.120407246
241	0xbd204793	-0.03913076
242	0xbe074f34	-0.13213807
243	0xbd8b37db	-0.06797763
244	0xbd87068f	-0.06593048
245	0xbc082603	-0.008309844
246	0xbda715dd	-0.08158467
247	0xbc7e8dde	-0.015536753
248	0xbc07e785	-0.008294945
249	0x3dd270b1	0.102754004
250	0xbd603c6a	-0.054745115
251	0xbe397ab2	-0.18113211
252	0xbdaba73f	-0.08381509
253	0x3dd9c922	0.10634066
254	0xbc596a97	-0.013270042
255	0x3d54cd23	0.051953446

F.linears.1.bias f4 [32]
0	0xbdc6afaa	-0.09701474
1	0x3d8d7388	0.069068015
2	0x3c9b727e	0.018975493
3	0xbd90a95f	-0.07063555
4	0x3d466c96	0.0484434
5	0xbdcb987c	-0.099411935
6	0xbccf0aa5	-0.02527363
7	0x3ce5b5e7	0.02804084
8	0x3db0a25a	0.08624716
9	0xbcf84590	-0.030306607
10	0x3dbe550c	0.09293565
11	0xbc10995b	-0.008825625
12	0xbc6dce82	-0.014514567
13	0x3bea68ac	0.007153591
14	0x3d9bce98	0.07607764
15	0x3d400556	0.04688009
16	0x3ba43076	0.00501066
17	0xbd915905	-0.07097057
18	0x3d2bf5f6	0.041982614
19	0x3cacaa89	0.021077411
20	0xbdb346fc	-0.087537736
21	0xbd99601a	-0.07489033
22	0xbd91f543	-0.07126858
23	0x3c6785bb	0.014131005
24	0xbd4f21cb	-0.050569337
25	0xbb1caeed	-0.0023907975
26	0x3d91da17	0.071216755
27	0xbdca55a9	-0.0987962
28	0xbca0870b	-0.019595644
29	0xbc5d68de	-0.013513772
30	0xbdb0ef44	-0.08639386
31	0xbcd49f24	-0.02595479

F.linears.2.weight f4 [10, 32]
0	0xbdd0d23d	-0.1019635
1	0xbc82b78b	-0.01595666
2	0xbc22e948	-0.009943314
3	0xbc1472b0	-0.009060547
4	0x3e20903f	0.15680026
5	0xbde17492	-0.11008562
6	0x3bf69a63	0.0075257285
7	0x3c2255fc	0.009908196
8	0x3e244b5e	0.16044375
9	0x3d21302c	0.03935258
10	0x3e0f42d6	0.1399034
11	0x3db28646	0.08717017
12	0xbdd990f3	-0.1062335
13	0x3d6aad13	0.057293963
14	0xbe0dcc48	-0.13847458
15	0x3d13e297	0.036104765
16	0x3c14ccac	0.009082001
17	0xbe8546de	-0.2603063
18	0x3ce7de56	0.02830426
19	0x3db34785	0.08753876
20	0x3bfc2a17	0.007695447
21	0xbdbd2469	-0.0923546
22	0xbe0928e5	-0.13394506
23	0x3db42fe1	0.08798195
24	0xbdabc2af	-0.08386742
25	0x3e222317	0.15833698
26	0xbdd19b63	-0.10234716
27	0xbc25614e	-0.010094
28	0xbdb36d76	-0.087611124
29	0xbcd2e6d3	-0.025744831
30	0x3cc0e1b0	0.023545116
31	0xbdc4a5ec	-0.096019596
32	0x3dc0db5f	0.09416842
33	0x3c1e17e5	0.009649252
34	0xbdd3a7b4	-0.10334721
35	0x3db8acb9	0.09017319
36	0x3cb935a9	0.022608595
37	0x3db37a50	0.08763564
38	0xbe2d7a67	-0.16941224
39	0x3d41d930	0.047326267
40	0xbdb834ba	-0.08994432
41	0x3da936c9	0.082624026
42	0x3d82f6bf	0.06394719
43	0x3c9f0443	0.019411212
44	0xbe234d96	-0.15947565
45	0xbe1edbf2	-0.1551359
46	0xbe2af235	-0.16693957
47	0xbdb7caa2	-0.08974196
48	0x3c9cb4d6	0.019129198
49	0x3e137e32	0.14403608
50	0xbdea568c	-0.11442289
51	0x3d839197	0.064242534
52	0xbcea5b7d	-0.028608078
53	0xbd29dc98	-0.04147014
54	0x3dc78f57	0.09744137
55	0x3dd752f1	0.10513867
56	0xbdd72027	-0.105041794
57	0xbd8be3d8	-0.06830567
58	0x3d61a405	0.05508806
59	0x3d30ce64	0.04316558
60	0x3e280fc2	0.16412261
61	0x3d224a54	0.039621666
62	0x3e406928	0.18790114
63	0x3e81e93c	0.25373256
64	0xbdb0229f	-0.086003534
65	0xbc94fcff	-0.018187044
66	0x3ddcccc2	0.10781242
67	0x3e769804	0.24081427
68	0xbd1bed96	-0.038068376
69	0x3a1e617b	0.00060417474
70	0x3d9c1a0a	0.07622154
71	0xbe82c7b8	-0.25542998
72	0x3dcb1d92	0.099177495
73	0xbe20d532	-0.15706328
74	0x3cc513b0	0.02405724
75	0x3e07b8b9	0.1325406
76	0xbc2c3b5a	-0.010512197
77	0x3d3e9f63	0.04653872
78	0x3db85f76	0.09002583
79	0x3db4405a	0.088013366
80	0x3d92f0d3	0.0717484
81	0xbd5bb2f4	-0.05363746
82	0x3e92dc7e	0.28683847
83	0x3dc0e1e3	0.094180845
84	0x3db8cb28	0.09023124
85	0x3d817dab	0.063227974
86	0xbd0d77a1	-0.034537915
87	0xbca1943c	-0.019724004
88	0x3d9ebd61	0.07750965
89	0xbd272b4a	-0.040812768
90	0xbe514c84	-0.20439345
91	0x3cfc58c2	0.030804042
92	0x3d9b2018	0.07574481
93	0xbd9fcf8a	-0.07803257
94	0x3cec524d	0.028847838
95	0xbd0a7925	-0.03380694
96	0xbd301aa0	-0.04299414
97	0x3c876500	0.016527653
98	0xbd989c4a	-0.07451685
99	0xbd2db3bf	-0.042407747
100	0x3dd91a64	0.10600737
101	0xbceb3b9c	-0.028714947
102	0x3e09c32e	0.13453361
103	0xbda889d7	-0.08229416
104	0xbe183ccf	-0.14866947
105	0x3dec4a80	0.11537647
106	0x3d5c398d	0.053765822
107	0x3c185008	0.009296425
108	0x3dc3c511	0.09559072
109	0x3d0c9606	0.03432276
110	0x3e8fc9a1	0.28083518
111	0x3db1a6e6	0.086744115
112	0x3d5d3c06	0.05401232
113	0x3d10519f	0.03523409
114	0xbdcdb276	-0.10043804
115	0xbd521498	-0.05128917
116	0xbd3279c7	-0.043573167
117	0xbe59f9e4	-0.21286732
118	0xbd77a2b8	-0.060457915
119	0x3d829a64	0.06377104
120	0xbb8e209a	-0.0043373825
121	0xbd542ba0	-0.051799417
122	0xbdd8d878	-0.10588163
123	0xbdd1922b	-0.102329575
124	0xbcb2846c	-0.02179166
125	0xbd4de1fc	-0.050264344
126	0xbc5c387b	-0.0134412
127	0xbca1a337	-0.019731147
128	0x3e8ec873	0.27887306
129	0xbe0a384f	-0.13498043
130	0x3ce31271	0.027718754
131	0x3d6d8a0f	0.05799299
132	0xbbb63c58	-0.0055613928
133	0x3d587bbf	0.05285239
134	0xbe0db7c3	-0.13839631
135	0xbdc24b3a	-0.094870046
136	0x3db5f47e	0.08884524
137	0xbd26d4e4	-0.040730372
138	0x3d537b42	0.05163122
139	0xbe69382f	-0.22775339
140	0xbd14a9f5	-0.036294896
141	0xbc8988a3	-0.016788786
142	0x3da5a53f	0.08088159
143	0xbd50da93	-0.0509897
144	0xbd926144	-0.07147458
145	0x3bf73e03	0.007545234
146	0xbda2233a	-0.07916875
147	0xbc6508f7	-0.013979188
148	0xbc081a19	-0.008307003
149	0x3bc0701c	0.0058727395
150	0x3cdd864d	0.027041579
151	0x3de968e4	0.113969594
152	0xbd2f41b1	-0.042787258
153	0x3d758b43	0.059947263
154	0x3dd13d41	0.102167614
155	0x3e3e099b	0.18558352
156	0x3c80a23d	0.015702361
157	0x3d88a7f2	0.06672658
158	0xbd8b1be2	-0.067924276
159	0x3dbcaec7	0.09213024
160	0x3da7d811	0.08195508
161	0x3d8c5b42	0.068533435
162	0x3c2934bf	0.010327517
163	0x3b6d93ae	0.0036251354
164	0xbda0fc9a	-0.0786068
165	0x3db0f3d2	0.08640255
166	0xbd2a36a5	-0.04155602
167	0x3e17e638	0.14833915
168	0xbe35b3b7	-0.17744337
169	0xbdb28eda	-0.08718653
170	0xbd981330	-0.07425535
171	0x3d4c7b60	0.049922347
172	0x3c994758	0.018710777
173	0x3db22397	0.086981945
174	0x3be4cde8	0.0069825538
175	0xbc3f0d7e	-0.011660932
176	0xbd18a415	-0.037265856
177	0xbe0d818d	-0.13818951
178	0xbcc7a956	-0.024372738
179	0x3e1278c2	0.14303878
180	0xbd01da3c	-0.031702265
181	0xbd90369d	-0.07041667
182	0x3c31fcd0	0.010863498
183	0xbd3167b0	-0.043311775
184	0x3df46a85	0.119343795
185	0xbcddd70f	-0.027080087
186	0x3c4b1d4d	0.012397123
187	0x3ddac7ec	0.10682663
188	0xbc91420c	-0.017731689
189	0xbb30e38c	-0.0026991097
190	0x3d74ccbf	0.059765574
191	0x3d0142fc	0.031558022
192	0xbe41589f	-0.18881463
193	0xbc84c69c	-0.016207986
194	0xbe2211fd	-0.15827174
195	0xbd25284d	-0.040321637
196	0x3dc57cac	0.0964292
197	0xbcb0646c	-0.02153226
198	0xbcff3a97	-0.031155868
199	0xbdcc22fb	-0.099676095
200	0xbe5fc1d3	-0.21851282
201	0xbdbfb586	-0.09360795
202	0xbde85c1e	-0.11345695
203	0x3db151c4	0.08658174
204	0xbd71ddc6	-0.05904939
205	0x3e02858b	0.12746255
206	0xbdf2d86b	-0.11857685
207	0x3bd1f86b	0.0064077876
208	0xbccea594	-0.025225438
209	0x3c863e0d	0.01638701
210	0x3e81f864	0.2538482
211	0xbca3710e	-0.01995137
212	0xbd16cc53	-0.036815953
213	0xbe57677c	-0.2103557
214	0xbdf3954a	-0.11893709
215	0xbe12459a	-0.14284363
216	0xbe2b8ef3	-0.1675375
217	0x3cf951cb	0.03043451
218	0xbdcacbe8	-0.09902173
219	0x3d852dea	0.06502898
220	0xbd8f8124	-0.070070535
221	0xbd782678	-0.06058356
222	0xbd717066	-0.058945082
223	0xbdca70d5	-0.09884802
224	0xbccba25d	-0.024857694
225	0xbda2208e	-0.079163656
226	0xbd2d7a7c	-0.04235314
227	0x3c184e30	0.009295985
228	0x3c9d5786	0.019206773
229	0x3d956872	0.07295312
230	0xbc54e53e	-0.012994109
231	0x3d9683ca	0.073493555
232	0x3e16c6b1	0.14724232
233	0xbd62ea4a	-0.055399217
234	0xbd4f7d20	-0.050656438
235	0xbda62744	-0.08112958
236	0xbe1a132b	-0.15046374
237	0x3d14aa2a	0.036295094
238	0x3c738905	0.014864211
239	0x3e318269	0.17334904
240	0x3e1388c8	0.14407647
241	0x3d6dadc8	0.05802706
242	0x3be21e09	0.006900553
243	0x3e49f6fe	0.19723126
244	0xbc2c9fde	-0.010536162
245	0xbd95710c	-0.072969526
246	0xbda825a4	-0.082103044
247	0x3d9507f8	0.072769105
248	0xbcd4683a	-0.025928605
249	0x3c42f6f7	0.011899701
250	0xbd25de16	-0.040495
251	0x3d6c222d	0.05764978
252	0x3d1f3ea8	0.038878113
253	0xbdc60a4c	-0.09669933
254	0xbd62d70c	-0.055380866
255	0xbcc237c6	-0.023708235

F.linears.2.bias f4 [10]
0	0x3d22cad7	0.039744224
1	0x3cb2aaed	0.02181002
2	0x3d9dfdd2	0.07714428
3	0x3cec4090	0.02883938
4	0xbd58f1a7	-0.052964833
5	0x3d297a4f	0.04137641
6	0xbd28f89d	-0.04125272
7	0xbd910775	-0.070815004
8	0xbdce00db	-0.10058757
9	0xbd133e6c	-0.035948202

G.0.linears.0.weight f4 [32, 10]
0	0x3da6170a	0.08109863
1	0xbb66c7d8	-0.003521433
2	0xbd1f242d	-0.03885286
3	0x3d6a09c0	0.057138205
4	0xbc0964da	-0.008385861
5	0x3dc9cadd	0.09853146
6	0x3e7db59a	0.24776307
7	0xbe787851	-0.24264647
8	0x3d7cc4bc	0.061711058
9	0xbd3263e5	-0.043552298
10	0x3d8574ac	0.06516394
11	0xbc0ea21c	-0.008705642
12	0xbadbbbbb	-0.0016764322
13	0x3d7199e5	0.058984656
14	0xbcc36884	-0.023853548
15	0x3d0b039e	0.033938996
16	0xbe5b0bbf	-0.213912
17	0xbddd15dd	-0.10795186
18	0x3e0a1839	0.13485803
19	0xbd5f8003	-0.05456544
20	0xbe0b5495	-0.13606484
21	0xbcc19ec2	-0.023635272
22	0xbd956b8b	-0.07295903
23	0xbe47e454	-0.19520694
24	0x3d2d5e61	0.042326335
25	0xbe299810	-0.16561913
26	0xbd892388	-0.0669623
27	0x3da96935	0.0827202
28	0xbda78a99	-0.08180732
29	0x3e56f250	0.20990872
30	0x3d485a6f	0.04891437
31	0xbd94482b	-0.072403274
32	0x3d2b1099	0.041763876
33	0x3ca42202	0.020035747
34	0x3d8c9aa1	0.068654306
35	0xbde2b182	-0.11069013
36	0x3d8f44fc	0.069955796
37	0xbd11cdd2	-0.035596676
38	0x3d99ef9a	0.075164035
39	0x3e5f12f6	0.21784577
40	0x3e01908d	0.12652798
41	0xbe1f552a	-0.15559831
42	0xbcd0809b	-0.025451949
43	0x3c63696a	0.013880113
44	0x3dd86ba7	0.10567408
45	0xbe0cefb2	-0.13763312
46	0x3dc139d5	0.09434859
47	0x3c98e285	0.0186627
48	0xbd391a3b	-0.04519103
49	0x3e052224	0.13001305
50	0x3c192285	0.009346609
51	0x3cfafbfa	0.03063773
52	0xbd9d59fc	-0.07683179
53	0xbcb92a6d	-0.022603238
54	0xbd2b01cd	-0.041749764
55	0xbe0dd28f	-0.13849853
56	0xbd02ec67	-0.031963732
57	0x3db2af52	0.08724846
58	0xbd9d45f6	-0.076793596
59	0xbc75f53e	-0.015012084
60	0x396219f8	0.00021562714
61	0x3cd395e1	0.025828304
62	0xbe161040	-0.14654636
63	0x3ddd84be	0.10816334
64	0x3d47ed2d	0.048810173
65	0xbdaa354a	-0.08310945
66	0x3e0fbd03	0.14036946
67	0x3d51f166	0.051255606
68	0x3e188d4c	0.1489765
69	0xbdd3e798	-0.103469074
70	0xbd9479d9	-0.07249803
71	0xbd844e82	-0.06460287
72	0x3e3b0f4a	0.18267551
73	0x3e0a9e7f	0.13537024
74	0xbda1cb2d	-0.07900081
75	0x3e48bfe9	0.19604458
76	0xbcc15e80	-0.023604631
77	0xbd273799	-0.040824506
78	0xbcfac374	-0.030610777
79	0x3d3f8262	0.046755202
80	0x3cb0a5c8	0.021563426
81	0x3bc3f294	0.0059798453
82	0x3da1001e	0.078613505
83	0xbe0ffde2	-0.14061692
84	0x3e334183	0.1750546
85	0xbd3d780d	-0.046257067
86	0xbcb618fa	-0.022228707
87	0xbb644fd3	-0.0034837618
88	0x3db2e36d	0.08734784
89	0x3d0547ad	0.03253906
90	0x3da6e13f	0.08148431
91	0xbe179f51	-0.14806868
92	0xbdfd3b2e	-0.12364803
93	0xbdf9e001	-0.122009285
94	0x3d903a61	0.07042385
95	0xbcf691aa	-0.030098755
96	0xbe2c194f	-0.1680653
97	0xbdce030e	-0.100591764
98	0x3e16fefb	0.14745705
99	0xbcfe1285	-0.03101469
100	0xbe008608	-0.12551129
101	0xbd472dc2	-0.048627622
102	0x3e44b576	0.19209847
103	0xbd0e45eb	-0.034734648
104	0x3ba7ac68	0.005116988
105	0x3d32aff9	0.04362485
106	0xbc180a59	-0.009279811
107	0xbd2953f0	-0.041339815
108	0x3cf4747d	0.029840702
109	0x3e1209be	0.14261529
110	0x3d92cf81	0.071684845
111	0x3d87953e	0.066202626
112	0xbdfb6da7	-0.12276774
113	0x3de37900	0.11107063
114	0x3da23a93	0.079213284
115	0xbdc9d5b8	-0.09855217
116	0xbd5cf828	-0.053947598
117	0x3c6256f0	0.013814673
118	0x3d60900b	0.05482487
119	0x3d91861f	0.0710566
120	0xbe37b5b4	-0.17940408
121	0x3d9a2a5d	0.075276114
122	0x3cd6bb7a	0.026212443
123	0x3dc018c6	0.09379725
124	0xbde9be86	-0.114132926
125	0x3e08f8f5	0.1337622
126	0x3decbea7	0.115598015
127	0x3bfb95ac	0.0076777544
128	0xbe15129c	-0.1455788
129	0xbcb30192	-0.021851335
130	0x3c82600f	0.015914945
131	0xbe155d3f	-0.14586352
132	0x3d60815e	0.054810874
133	0xbace3278	-0.0015731594
134	0x3da419ed	0.080127575
135	0x3d8063e5	0.06269053
136	0x3dc8dc19	0.09807605
137	0xbcb20fdf	-0.021736084
138	0x3d1d2853	0.038368534
139	0xbdf5a69c	-0.11994669
140	0x3d19e2ac	0.037569687
141	0x3db72fd3	0.089446686
142	0x3d2b9ecd	0.04189949
143	0x3daf0dea	0.08547576
144	0xbd3b3fd9	-0.045715187
145	0xbd30288a	-0.04300741
146	0x3d610668	0.05493775
147	0xbd936a18	-0.0719797
148	0x3d5e9a67	0.05434647
149	0xbd486c5b	-0.04893146
150	0xbdd9dbb3	-0.106376074
151	0xbe490ad0	-0.19633031
152	0xbcc08daa	-0.02350505
153	0x3e12dc5e	0.14341876
154	0xbc4b1fa1	-0.012397678
155	0x3e0ae9d3	0.1356576
156	0xbcd95a2d	-0.026532257
157	0xbdbb482a	-0.091446236
158	0x3d188ab1	0.03724164
159	0x3b6e713e	0.0036383416
160	0x3ce9da90	0.028546602
161	0xbd484b6b	-0.04890005
162	0x3b8e425b	0.0043414063
163	0xbcbfc7af	-0.023410646
164	0x3cd826b0	0.026385635
165	0x3ca64293	0.020295417
166	0xbdb5397d	-0.08848856
167	0x3de1a2d0	0.11017382
168	0x3d69da65	0.057093043
169	0xbde3377d	-0.11094568
170	0xbdade4a0	-0.084908724
171	0x3dcfefb8	0.101531446
172	0x3c81f06f	0.015861718
173	0x3d3848d2	0.04499132
174	0x3d1e80b2	0.038696952
175	0xbdb581d0	-0.088626504
176	0xbdea7eab	-0.11449941
177	0x3ce06cc6	0.027395617
178	0x3ca74c77	0.020422203
179	0xbe12a24f	-0.14319728
180	0x3e5cccca	0.21562496
181	0x3de1372b	0.109968506
182	0xbe865214	-0.26234496
183	0x3e3f3db0	0.18675876
184	0xbd8a605b	-0.067566596
185	0x3db76745	0.08955244
186	0x3d7e8877	0.06214186
187	0x3e1fc0ea	0.15600935
188	0x3ce40a8e	0.027837064
189	0x3e0dc5ad	0.13844939
190	0x3d0d4694	0.034491137
191	0xbc2fb63e	-0.010724602
192	0xbde024d0	-0.109445214
193	0x3c8645a7	0.016390635
194	0xbe978054	-0.29590094
195	0xbd9b8495	-0.075936474
196	0x3dd1bf11	0.10241521
197	0xbdc425e6	-0.09577541
198	0xbb23d7e5	-0.002500051
199	0xbdb8163b	-0.08988615
200	0x3e1a3f31	0.15063168
201	0x3d324324	0.04352106
202	0xbc0b8b43	-0.008517089
203	0x3e0c7a9c	0.13718647
204	0xbdd53a0c	-0.10411462
205	0xbdfb0365	-0.12256507
206	0xbd7a601c	-0.061126813
207	0xbdb2a864	-0.08723524
208	0xbe1ca3ec	-0.15296906
209	0x3d5c21cc	0.05374317
210	0x3d54e2a1	0.051973943
211	0xbd2b33d9	-0.041797493
212	0xbd8f3f61	-0.069945104
213	0x3dd8fd7a	0.10595222
214	0xbcaa8703	-0.020816332
215	0xbd7aa04a	-0.06118802
216	0x3e5d3019	0.21600379
217	0x3aa79cc1	0.0012787805
218	0xbdc61125	-0.09671239
219	0x3cddadf5	0.027060488
220	0x3dec2093	0.115296505
221	0x3dbd85f7	0.092540674
222	0x3e3fff29	0.1874968
223	0xbd526c53	-0.051372837
224	0x3debc28d	0.11511717
225	0xbdcbffdc	-0.09960911
226	0x3d5ee416	0.05441674
227	0x3dab4dee	0.08364473
228	0x3e1e7d9e	0.15477607
229	0xbd771975	-0.060327012
230	0xbe586f75	-0.21136267
231	0x3d1ae635	0.0378172
232	0x3d5c7078	0.053818196
233	0xbcd9899d	-0.026554877
234	0xbb8b1874	-0.0042448584
235	0x3e7d001e	0.24707076
236	0x3d141125	0.036149163
237	0x3e5c6fde	0.21527049
238	0x3e097319	0.13422813
239	0x3e8ff330	0.28115225
240	0x3dc4d9b6	0.096118376
241	0xbdbd9576	-0.09257023
242	0x3da01ce2	0.07818009
243	0x3dd0b90b	0.10191544
244	0x3c880bea	0.016607244
245	0x3dcbdf0e	0.09954654
246	0xbe29ae78	-0.16570461
247	0xbc3f7500	-0.01168561
248	0xbe54670d	-0.20742436
249	0xbd985a2f	-0.07439076
250	0x3db48a4e	0.08815442
251	0xbd1d0f46	-0.038344644
252	0xbe1f4bc0	-0.1555624
253	0xbda1ac81	-0.07894231
254	0x3d91115d	0.0708339
255	0xbbbab10a	-0.005697374

G.0.linears.0.bias f4 [32]
0	0xbc750679	-0.0149551565
1	0x3d8f77c8	0.07005268
2	0xbda65e35	-0.08123437
3	0xbd45605b	-0.048187595
4	0x3da41778	0.08012289
5	0xbbfde95f	-0.0077487673
6	0x3d9b67a4	0.07588127
7	0xbdd2ee33	-0.10299339
8	0xbd531e41	-0.051542524
9	0x3ca0ac82	0.019613508
10	0x3decd6e5	0.115644254
11	0x3d929742	0.071577564
12	0x3d1d7ca6	0.038448952
13	0x3b52fb97	0.0032193416
14	0x3d0419db	0.03225122
15	0x3d66ebe7	0.056377318
16	0xbc2880fb	-0.010284658
17	0xbc84d832	-0.016216371
18	0x3dc6b04e	0.09701596
19	0xbd44eb72	-0.0480761
20	0x3db31d35	0.08745805
21	0xbd5c9f01	-0.053862575
22	0xbd9823ff	-0.07428741
23	0xbd9429e5	-0.07234553
24	0x3c8ddde3	0.017317718
25	0xbdc295b9	-0.095012136
26	0xbd89ff36	-0.06738131
27	0xbd94d6e7	-0.07267552
28	0x3db1e4aa	0.08686192
29	0xbdf48f06	-0.11941342
30	0xbd50e3a7	-0.050998356
31	0x3d8d3177	0.068942

G.0.linears.1.weight f4 [32, 32]
0	0x3d5464bb	0.051853877
1	0xbd889534	-0.06669083
2	0x3db9529e	0.09048961
3	0xbd9e3237	-0.077244215
4	0xbd2da5cf	-0.042394456
5	0xbd29d461	-0.041462306
6	0x3c399930	0.011328027
7	0x3d0f16f1	0.034933988
8	0xbca2352f	-0.01980075
9	0xbd49c65f	-0.049261447
10	0xbb8664c6	-0.0041013686
11	0x3df7d74d	0.12101612
12	0x3c1a0baa	0.009402195
13	0x3e26678e	0.1625044
14	0x3d0fcca5	0.035107274
15	0x3d155a00	0.036462784
16	0xbe143b85	-0.1447583
17	0xbd941733	-0.072309874
18	0x3d10a366	0.03531208
19	0xbd826896	-0.063676044
20	0xbdb0dec8	-0.08636242
21	0xbd2c0e12	-0.042005606
22	0xbd613b68	-0.054988295
23	0xbd4c0874	-0.04981275
24	0xbe17a66b	-0.14809577
25	0xbe183f43	-0.14867882
26	0xbb8d3776	-0.00430959
27	0x3e0de25d	0.13855882
28	0xbd5893d3	-0.05287535
29	0xbe21f52e	-0.15816185
30	0x3d9717b3	0.07377567
31	0x3c52214c	0.012825321
32	0xbe1b2d3d	-0.15153976
33	0x3e75cc1b	0.24003641
34	0xbd2074a0	-0.039173722
35	0xbddf6d12	-0.109094754
36	0xbdd4672d	-0.10371242
37	0xbe8a0410	-0.26956224
38	0xbd084cd5	-0.033276398
39	0xbdaaabb2	-0.083335295
40	0x3c011ecd	0.007880879
41	0xbd4cc7e7	-0.04999533
42	0xbd11782c	-0.035514995
43	0x3cd92e7b	0.026511421
44	0xbd39c43e	-0.045353167
45	0x3d485b4d	0.048915196
46	0x3dc49726	0.09599142
47	0x3e2c2f6f	0.1681497
48	0xbd2e2821	-0.04251874
49	0x3c5fdecf	0.013663962
50	0xbda5aa0e	-0.08089076
51	0x3d16148c	0.03664069
52	0xbd2bd7c8	-0.041953832
53	0xbd914bc8	-0.07094532
54	0xbd4b25a5	-0.049596447
55	0xbd85d94c	-0.06535587
56	0xbddf1e5e	-0.10894464
57	0xbdeb718e	-0.11496268
58	0x3d9614c7	0.07328182
59	0x3d0a5b0f	0.033778246
60	0x3d6e2a67	0.058145907
61	0x3daa96a8	0.08329517
62	0xbd428f64	-0.04750003
63	0x3d46bc10	0.048519194
64	0x3dae61bb	0.08514734
65	0x3dbcebee	0.092246875
66	0x3cb80226	0.022461962
67	0xbe4eba02	-0.20188144
68	0xbc2f4fc9	-0.010700175
69	0xbe874fe7	-0.26428148
70	0x3d603787	0.054740455
71	0xbe21eb59	-0.15812434
72	0xbd99c008	-0.0750733
73	0xbe2b0afa	-0.16703406
74	0xbddb9ffb	-0.10723873
75	0x3e536b60	0.20646429
76	0xbdf6735d	-0.120337225
77	0x3dd2d061	0.10293651
78	0x3e64b11b	0.22333185
79	0xbd470e98	-0.048597902
80	0xbd16731b	-0.036730867
81	0xbd304cbc	-0.04304193
82	0xbe058670	-0.13039565
83	0xbdaadf91	-0.08343423
84	0x3cc5920c	0.024117492
85	0x3d13879c	0.036018
86	0x3e1a68a4	0.1507898
87	0x3e33206a	0.17492834
88	0x3d7fd25c	0.062456474
89	0xbd8145dc	-0.06312153
90	0x3d7be028	0.06149307
91	0xbe06e570	-0.13173461
92	0xbd10d4a4	-0.03535904
93	0xbd57c0b4	-0.05267401
94	0xbe386d06	-0.18010339
95	0xbd8969d0	-0.06709635
96	0x3e01f7a4	0.12692124
97	0xbda183cb	-0.07886466
98	0xbd0e1d7f	-0.0346961
99	0xbe28e97b	-0.16495316
100	0xbc4dad14	-0.012553472
101	0xbdd8d120	-0.105867624
102	0xbe062f5a	-0.13104
103	0x3cdd0869	0.02698155
104	0x3d6c7819	0.05773172
105	0xbdcb01aa	-0.09912427
106	0xbc3bb5b6	-0.0114568975
107	0x3d46b615	0.04851349
108	0x3ceab7d9	0.028652119
109	0x3bc5abcd	0.006032443
110	0x3e2e0fb1	0.16998173
111	0x3d97bb01	0.07408715
112	0x3c5750aa	0.01314179
113	0xbe30b065	-0.17254789
114	0x3c20856b	0.009797434
115	0xbd3db8fe	-0.046319
116	0x3dafd0b7	0.08584731
117	0xbc121cb3	-0.008917975
118	0x3e14c3f1	0.1452787
119	0xbd59ed1d	-0.053204644
120	0x3e19a988	0.15006077
121	0x3dc29f18	0.09503001
122	0x3d9b9f87	0.07598787
123	0x3b000bab	0.0019538205
124	0x3cc2cb18	0.023778483
125	0xbdcdce07	-0.10049062
126	0xbebaf46d	-0.36514607
127	0x3d1a4c42	0.03767038
128	0x3d1f73e2	0.038928874
129	0xbd82d162	-0.06387593
130	0x3d68f65e	0.05687558
131	0xbdca7160	-0.09884906
132	0xbb8c7159	-0.004285973
133	0xbd18804e	-0.037231736
134	0xbd9dc30b	-0.07703217
135	0xbe073ebd	-0.13207527
136	0x3ce8986b	0.028392991
137	0x3dbcba07	0.092151694
138	0x3c1ef495	0.009701868
139	0x3d69b90a	0.057061233
140	0xbe0a1c79	-0.13487424
141	0x3d7ffea0	0.06249869
142	0xbddfac29	-0.10921509
143	0xbcd5c502	-0.026094917
144	0xbc1394ab	-0.009007613
145	0xbd0a2d0e	-0.033734374
146	0xbe71d4ad	-0.23616286
147	0xbe45dc7d	-0.19322391
148	0x3dd1152b	0.102091156
149	0x3db0efba	0.08639474
150	0x3c6c5fc3	0.014427128
151	0x3dd5bf7b	0.104369126
152	0x3e07ff52	0.1328099
153	0x3cb48531	0.022036167
154	0xbc9c79b3	-0.019101
155	0x3d5428b5	0.051796634
156	0xbd9d13a9	-0.076697655
157	0x3cd28ad0	0.025700957
158	0xbd57b70d	-0.052664805
159	0x3c49a110	0.012306467
160	0x3e111f79	0.14172162
161	0xbd62f799	-0.05541191
162	0xbde29a55	-0.11064593
163	0x3db2d5a7	0.08732157
164	0xbe14de5f	-0.14537953
165	0x3dc998cd	0.098435976
166	0x3e30e596	0.1727508
167	0xbdb4c3be	-0.08826397
168	0xbd6a84c7	-0.057255533
169	0x3d5f4571	0.054509584
170	0x3cba1157	0.022713346
171	0x3dd6ae61	0.10482479
172	0x3e5ae1c3	0.21375184
173	0x3d33b835	0.043876845
174	0xbd956863	-0.07295301
175	0x3dc02df5	0.093837656
176	0x3c3f3abe	0.01167172
177	0xbddb0330	-0.10693967
178	0xbcfc8824	-0.030826636
179	0x3d7d2082	0.06179858
180	0x3da46d58	0.08028668
181	0x3dae4b9b	0.08510514
182	0xbddc023b	-0.10742613
183	0xbda7385e	-0.08165048
184	0x3e0ba0bb	0.13635533
185	0xbe0822e7	-0.13294564
186	0x3cf3b1d1	0.029747875
187	0xbdc2a374	-0.095038325
188	0x3d12342b	0.035694283
189	0xbda1a97f	-0.07893657
190	0xbc269541	-0.010167421
191	0x3d29490b	0.041329425
192	0xbdb4d0aa	-0.08828862
193	0x3dce06ad	0.10059867
194	0x3cb8a6f3	0.022540545
195	0x3d6ca15a	0.057771064
196	0xbdc47a73	-0.09593668
197	0x3db2bf02	0.08727838
198	0x3d7d7cb0	0.06188649
199	0xbd43fe11	-0.04784972
200	0xbdb25178	-0.08706945
201	0xbdad1437	-0.08451121
202	0xbdd05cf0	-0.101739764
203	0xbdf02de2	-0.117275015
204	0x3d9c5529	0.076334305
205	0xbd9f4ec4	-0.07778695
206	0x3d6c7762	0.05773104
207	0x3b95e40e	0.0045743054
208	0xbe11bdf5	-0.14232619
209	0xbe64d1cb	-0.22345655
210	0xbd233252	-0.03984291
211	0xbd429a19	-0.04751024
212	0x3c95cd65	0.018286416
213	0xbe14a256	-0.14515051
214	0xbd05a202	-0.032625206
215	0x3d526165	0.051362414
216	0x3c93242e	0.017961588
217	0xbdf513e2	-0.11966683
218	0x3e169346	0.14704618
219	0xbca6cd3e	-0.020361539
220	0x3d6aac71	0.05729336
221	0x3d942dd1	0.07235301
222	0xbd620c25	-0.055187363
223	0xbda41a27	-0.08012801
224	0xbe12a092	-0.14319065
225	0x3e247b7d	0.16062732
226	0xbd4c48de	-0.04987418
227	0x3e02bc46	0.12767133
228	0xbda40694	-0.08009067
229	0x3d2f764b	0.042837422
230	0x3c98a4dc	0.018633299
231	0xbd84ad48	-0.06478363
232	0xbd0f8e2b	-0.03504769
233	0xbd4e3a13	-0.050348353
234	0x3d8a4338	0.06751102
235	0x3dc08d51	0.09401954
236	0xbc982bb1	-0.018575521
237	0xbdebe68c	-0.11518583
238	0xbe155839	-0.14584436
239	0xbd8898ac	-0.06669745
240	0x3d2b37df	0.04180133
241	0x3da72314	0.081609875
242	0x3deac41a	0.11463185
243	0x3d46be2b	0.048521202
244	0xbe219279	-0.15778531
245	0xbd3aa8bc	-0.045571074
246	0x3dd2c07e	0.10290621
247	0x3d94e8bb	0.07270952
248	0xbe15e35b	-0.1463751
249	0xbe2083bc	-0.15675253
250	0xbde8fde4	-0.11376551
251	0xbc49b02e	-0.012310071
252	0xbdfd44e5	-0.12366656
253	0x3e001735	0.12508853
254	0xbd33d3c8	-0.043903142
255	0x3d97a810	0.07405102

G.0.linears.1.bias f4 [32]
0	0xbd303299	-0.043017004
1	0x3d6e7c8c	0.058224246
2	0x3d0d69bd	0.034524668
3	0xbbed7b01	-0.007247329
4	0x3c246092	0.01003279
5	0x3d8ba5f0	0.068187594
6	0x3d76f864	0.060295478
7	0x3d124e42	0.035719164
8	0x3dd2dceb	0.10296043
9	0xbd523ed0	-0.051329434
10	0xbd7935f8	-0.060842484
11	0xbd300b5b	-0.04297958
12	0x3d84a076	0.06475918
13	0xbd9926fc	-0.07478139
14	0xbd789060	-0.06068456
15	0xbd7d49c9	-0.061837945
16	0x3b4578d6	0.0030131838
17	0xbd1ccbb4	-0.038280204
18	0x3cb9ba63	0.022671884
19	0xbd9df108	-0.07711989
20	0x3df28a4b	0.118427835
21	0xbd44928b	-0.047991317
22	0xbcda2510	-0.026629
23	0xbd3b07bc	-0.045661673
24	0xbd16868b	-0.036749404
25	0xbd5d4dbb	-0.054029208
26	0x3d8491ee	0.064731464
27	0xbc2ee39b	-0.010674383
28	0xbc7a9020	-0.015293151
29	0x3daf4e4a	0.08559854
30	0xbd87a57d	-0.06623361
31	0xbc016f04	-0.007900003

G.0.linears.2.weight f4 [10, 32]
0	0xbbac1589	-0.0052515906
1	0xbd64e4f6	-0.055882417
2	0x3c041812	0.008062379
3	0xbdfca38b	-0.12335881
4	0x3d6c95be	0.057759993
5	0xbe799f04	-0.24377066
6	0x3e0684df	0.13136624
7	0x3dea4e4c	0.11440715
8	0x3c83d531	0.016092869
9	0xbe090ddb	-0.13384192
10	0x3d1b2058	0.037872642
11	0x3d805288	0.062657416
12	0x3b7564ef	0.0037444194
13	0x3e14967a	0.14510527
14	0xbd8f23df	-0.06989264
15	0xbddcf8d0	-0.10789645
16	0x3d08bdd2	0.03338415
17	0xbd9996c0	-0.074994564
18	0x3db13b0a	0.08653839
19	0xbd5a28f5	-0.053261716
20	0xbe703770	-0.23458648
21	0x3e53d3d4	0.20686275
22	0x3d3cf234	0.04612942
23	0xbce14028	-0.027496412
24	0x3b8f33cf	0.0043701897
25	0x3de07613	0.10960021
26	0x3d788f47	0.060683515
27	0x3cba8184	0.022766836
28	0x3e017035	0.1264046
29	0x3e0610f0	0.13092399
30	0xbe268804	-0.16262823
31	0x39d0beee	0.00039815105
32	0x3db4223f	0.087955944
33	0xbc411705	-0.011785273
34	0xbc85cf43	-0.016334182
35	0xbdbf7b48	-0.09349686
36	0x3e05e631	0.13076092
37	0x3d87aa1b	0.06624242
38	0x3cdf79cf	0.027279763
39	0x3e258901	0.16165544
40	0xbd490be7	-0.049083617
41	0xbe2a2c0c	-0.16618365
42	0x3b51b2e2	0.0031997492
43	0xbd0560df	-0.032563087
44	0xbd5bed8a	-0.05369333
45	0xbda3552d	-0.0797523
46	0xbd4bfc7d	-0.04980134
47	0x3e5d21f0	0.21594977
48	0xbd51f262	-0.051256545
49	0x3e10a84a	0.14126697
50	0x3df1126f	0.11771094
51	0xbd4f9a23	-0.050684106
52	0xbde0fd42	-0.10985805
53	0x3c854dab	0.016272387
54	0xbde7ee74	-0.11324778
55	0x3d90d8eb	0.07072624
56	0xbc0713f2	-0.008244501
57	0xbde8baad	-0.113637306
58	0x3cb50f23	0.022101944
59	0x3cd96b6b	0.026540479
60	0x3e7462ff	0.23865889
61	0xbd7d3904	-0.061821952
62	0x3c924992	0.017857347
63	0xbc795f86	-0.0152205285
64	0xbd48419b	-0.04889069
65	0xbe05fd48	-0.130849
66	0xbe60135c	-0.21882385
67	0x3e6c9e12	0.23107174
68	0xbde87e05	-0.11352161
69	0x3db7afcb	0.08969077
70	0x3dead19a	0.114657596
71	0x3d0c4533	0.03424568
72	0x3e048e11	0.12944819
73	0xbe0c6784	-0.13711363
74	0x3c8b43e8	0.017000154
75	0xbd59d952	-0.05318577
76	0x3dc149e8	0.094379246
77	0x3db7153b	0.08939596
78	0xbd29fd81	-0.041501526
79	0xbe22b616	-0.15889773
80	0x3c2ff638	0.0107398555
81	0x3e1bd9bb	0.15219776
82	0xbd827a96	-0.06371038
83	0x3e1354a7	0.14387761
84	0x3d4f7b8c	0.050654933
85	0xbe11c895	-0.14236672
86	0x3d19b29c	0.03752385
87	0x3cf7edd9	0.030264782
88	0x3e1a168d	0.15047665
89	0xbdd7f018	-0.10543841
90	0x3d9545f6	0.072887346
91	0xbdd55848	-0.10417229
92	0xbc31107d	-0.010807154
93	0x3daef929	0.08543617
94	0xbd6b1a62	-0.057398207
95	0x3d8c90be	0.06863545
96	0x3d569e3a	0.05239699
97	0xbde87d21	-0.113519914
98	0x3e11f9cc	0.14255446
99	0x3e0d7279	0.13813199
100	0x3e59a767	0.21255265
101	0xbdb11e22	-0.086483255
102	0xbdfd093a	-0.123552755
103	0x3df3dc09	0.11907203
104	0x3d86bce7	0.06578999
105	0xbcb5ad8c	-0.02217748
106	0xbd7700c1	-0.060303453
107	0x3d367920	0.044549108
108	0x3dc8ffac	0.098143905
109	0x3da43037	0.08017009
110	0x3cff30cb	0.031151196
111	0x3ca87535	0.020563701
112	0xbd0e40f5	-0.034729917
113	0xbdaffae2	-0.08592774
114	0x3ddb90bd	0.10720966
115	0x3d203933	0.03911705
116	0x3d4ae6e8	0.049536616
117	0xbcffee73	-0.031241631
118	0xbd8c0ef5	-0.0683879
119	0xbd92b17f	-0.07162761
120	0x3d9cbec1	0.07653571
121	0xbd48788d	-0.04894309
122	0xbced5131	-0.02896938
123	0xbcbef530	-0.023310274
124	0x3d9c3c70	0.07628715
125	0x3e071955	0.13193257
126	0x3cb5a4e0	0.022173345
127	0xbc80f9da	-0.015744139
128	0x3e0a8a7b	0.13529389
129	0x3d9e285d	0.077225424
130	0x3cb2d5b7	0.021830423
131	0xbd16bd69	-0.03680173
132	0x3b957278	0.004560765
133	0xbe1212c6	-0.14264974
134	0x3d6bda76	0.057581387
135	0x3d85806a	0.06518634
136	0xbe5aae92	-0.21355656
137	0x3d7b99ce	0.061425976
138	0x3d516e65	0.05113067
139	0xbdab998b	-0.08378895
140	0x3e394a85	0.18094833
141	0xbdb2904c	-0.08718929
142	0xbc16940e	-0.009190572
143	0xbe6787cd	-0.22610398
144	0xbdbf6573	-0.09345522
145	0x3c7759e3	0.015097114
146	0xbdd5c768	-0.10438424
147	0xbcebb14c	-0.028771065
148	0x3d27cd56	0.040967308
149	0x3d637514	0.055531576
150	0x3d9ad8cc	0.07560882
151	0xbc5ae2c7	-0.013359732
152	0xbdbb3d93	-0.09142604
153	0xbd8ad44a	-0.06778772
154	0xbdc6669b	-0.09687539
155	0x3d862654	0.06550279
156	0xbc39317c	-0.011303302
157	0xbdd20962	-0.10255696
158	0x3db6f6be	0.08933781
159	0xbe3d8410	-0.18507409
160	0x3d141cda	0.036160327
161	0x3d54f1d6	0.051988445
162	0x3dece407	0.1156693
163	0x3cd9bdda	0.026579786
164	0xbd925ec4	-0.07146981
165	0xbca98bbd	-0.020696515
166	0xbe1944d2	-0.14967659
167	0xbdc87698	-0.09788245
168	0x3cf19ff8	0.029495224
169	0xbdb07da2	-0.086177126
170	0xbe0e1092	-0.13873509
171	0x3d0a0589	0.033696685
172	0xbd2d2054	-0.04226716
173	0x3daf4d26	0.08559637
174	0xbdc56109	-0.096376486
175	0x3d565e04	0.052335754
176	0xbdda41b9	-0.10657067
177	0x3d01a690	0.031652987
178	0x3da9a9aa	0.08284314
179	0x3d9e1a63	0.077198766
180	0xbdd4edf3	-0.10396948
181	0xbe375cbe	-0.17906472
182	0xbd2c1c05	-0.04201891
183	0xbda066a7	-0.078320794
184	0xbd967248	-0.07346016
185	0xbe2d6ad0	-0.16935277
186	0xbe81b33d	-0.2533206
187	0x3ea3f3c9	0.3202193
188	0x3d3df9bf	0.046380755
189	0xbd42035d	-0.04736649
190	0xbda12962	-0.07869221
191	0xbe0d3595	-0.13789971
192	0x3e014291	0.1262305
193	0x3bfcc14c	0.0077134725
194	0x3c40f5f8	0.0117773935
195	0xbae87627	-0.0017735407
196	0xbd0ec7b9	-0.03485844
197	0x3dacd98d	0.08439932
198	0xbd1d0993	-0.03833921
199	0xbd71b3da	-0.05900941
200	0xbd3bc818	-0.04584512
201	0x3ccf4a15	0.02530388
202	0xbaecd9b6	-0.0018070254
203	0xbb0e9c00	-0.0021760464
204	0x3cf47cb8	0.029844627
205	0x3de40120	0.11133027
206	0xbbf0af46	-0.007345113
207	0x3e0db3a4	0.13838059
208	0x3cbb468b	0.022860786
209	0x3d16b3f8	0.036792725
210	0x3cc48af3	0.023992037
211	0xbdfd433c	-0.123663396
212	0x3c48e30b	0.0122611625
213	0xbbb8f1af	-0.0056440453
214	0xbe39f6a2	-0.18160489
215	0xbd8f5e58	-0.070004165
216	0x3d2e89b4	0.042611793
217	0x3d3b5c76	0.045742474
218	0xbdbc644d	-0.09198818
219	0x3e1975a2	0.1498628
220	0xbcae646c	-0.02128812
221	0x3e29bc26	0.16575679
222	0xbd80e42b	-0.062935196
223	0x3d230e53	0.039808583
224	0xbd1249d1	-0.035714928
225	0xbc5134db	-0.012768949
226	0x3cfd467b	0.030917397
227	0x3e32a17a	0.17444411
228	0x3c14251c	0.009042051
229	0x3e5f6210	0.21814752
230	0xbe0b8696	-0.13625559
231	0xbb2df415	-0.002654319
232	0x3e28c8c5	0.16482837
233	0x3e8ec47a	0.27884275
234	0xbd7a3c1d	-0.061092485
235	0x3dba8319	0.09107036
236	0x3d2077d0	0.039176762
237	0xbc075fda	-0.008262599
238	0x3d080b99	0.033214185
239	0x3d5a58f4	0.05330749
240	0xbde39791	-0.111128934
241	0xbdf889a3	-0.12135627
242	0xbdec3971	-0.115343936
243	0xbd0f759e	-0.035024278
244	0xbe5fb75a	-0.21847287
245	0xbe0bdb14	-0.1365779
246	0xbe5bd70f	-0.21468757
247	0xbd2a04e8	-0.041508585
248	0xbe639b31	-0.2222717
249	0x3d93414d	0.071901895
250	0x3d035d70	0.03207153
251	0x3d34128a	0.043962993
252	0xbd550cfb	-0.052014332
253	0x3dc603ec	0.09668717
254	0x3d30de2b	0.043180626
255	0xbd1858f0	-0.037194192

G.0.linears.2.bias f4 [10]
0	0x3cc61baf	0.024183122
1	0xbc814fed	-0.015785182
2	0xbda915b4	-0.08256093
3	0xbd84f283	-0.06491568
4	0x3bc935b6	0.006140436
5	0xbd3493ad	-0.044086147
6	0x3dc61a21	0.096729524
7	0xbd9600c5	-0.073243655
8	0xbdb6ba29	-0.08922226
9	0xbdca60ba	-0.098817304
