graph2/00002params.pth (torch, 118145 bytes, 76 tensors)

F.linears.0.weight f4 [32, 20]
00000000: f0df a33c dc81 00be f6e7 3dbd 9d84 0c3d
00000010: 3dcf 74bd a67c 81bd 1f47 9fbd 1645 163e
00000020: 7444 cb3d 9c39 833c 0d9e 1abd 73f2 11bd
00000030: 22a8 a0bd c314 b7bd 3624 053e 902b 27be
00000040: 26ec 5bbe 9c93 ef3c 87a5 34bd ab0a 04be
00000050: d0a1 89bc c286 2fbc 954a a73d d886 a5bd
00000060: f26c 35bd 6a39 a0bd 09cb 603d ae7a babc
00000070: f4ed f2ba a781 463d 181f 92bb 64f0 ba3d
00000080: a2b9 36be 73a9 b23d 0a8d dabd 02b2 843b
00000090: 4d94 f43d b4a3 57bd ceda 633d f5c0 51bd
000000a0: 598c 683e e7d4 173e 3fde 25bd 2342 eabd
000000b0: d45c 39bd 0704 cd3d e0e6 143e 8a6a 05bd
000000c0: c0da d4bc 8933 df3c c1d1 4c3e 01e1 84bd
000000d0: c337 2ebd d9b1 60bd c408 953c ba11 bf3d
000000e0: 787c 443d ffd1 833d ba5e e1bd f01a 34bd
000000f0: 7790 eabd 7c3f 8bbd 86bd 983c 3cbf 883d
00000100: 8c0e 52be a6d5 25bd 4fa2 41bd 1b83 583e
00000110: 75ca b73d 4cbd 3bbc 99b4 453c ecb0 c1bd
00000120: b728 0b3e 469f fe3d 1d09 593e b43b 45bd
00000130: 7a7f 1c3d 50d4 62be a069 0fbd 2421 d43c
00000140: e251 fdbd 9948 8f3c 8000 0dbd c1b6 af3d
00000150: a4b0 18bd a6be 1cbe eb08 183d 7fa5 843b
00000160: 8956 7d3c aa0f 67bd 59e8 1ebe 1656 46be
00000170: 9564 5ebc cd05 21be 708e bfbd b9d5 d5bc
00000180: fa23 29be 9f93 ae3b 28d2 533e 1657 043c
00000190: 8605 833d 73e8 57bd 64fa 933d 9077 afbd
000001a0: cf88 953d 2691 6b3d 355e 11be 4e42 5dbc
000001b0: 5229 053d cbed cebd b77f a8bc adc4 06be
000001c0: 8b9a 083d 9c5e 0f3d 1d68 c8bb 515e dabd
000001d0: 8cb8 4c3c 89d4 083e e941 993d d843 aabd
000001e0: 6dc4 293d f39a 943d 7767 a33c 16cc 133b
000001f0: b588 1abe 9789 85bd 0975 3abe bd6b 573b
00000200: 5d22 cc3d 2eb8 ab3d b965 4b3d a5df 803b
00000210: aaf3 933d c2a4 003e 4e13 193e 9701 c2bd
00000220: 3e07 443c e662 ab3d 1679 e5bd 1695 a23b
00000230: ab32 c0bd 59b7 0abe 9607 c9bd 4277 f3bd
00000240: a182 9ebd 9dc2 77bd 93c3 1bbd 2241 5abe
00000250: 5ef5 073e 8dc5 8cbd 4a4e 8dbc cab9 0fbd
00000260: 40fd a53c 1036 e4bc 1e53 bfbc 95f0 4c3c
00000270: 8214 23be cd45 263d 6fd0 d2bb 8019 ce3c
00000280: 55ad 3f3d 848a 313c 77da e2bd e53d 163c
00000290: 8487 913c 149e ffbd 6f94 61bd 5ee4 313d
000002a0: 01b3 de3d 0119 9e3c a4a2 073e 57f2 51bd
000002b0: a941 123e bbd6 7abc c7a3 f8bd 2a66 32bd
000002c0: 9108 bebd 7b88 763d e8f4 41bd 0a08 343d
000002d0: 6f06 5bbd ae28 1a3d 60b5 863d 9cd5 163e
000002e0: a672 a3bd 0038 013e 25f9 023e d28b 65be
000002f0: 2c46 3cbe fc36 b63d 0b03 36be 7dc5 e1bc
00000300: eb5d 0c3e cbbf a8bc c1fe 223e 1114 2abe
00000310: 13c2 31be 9eb2 22bd c7f1 b5bd dcd4 41be
00000320: 3d8f 773d 0dcb 00be f73a a9bd b639 99bc
00000330: 8696 60bd e9ab cdbd 4d62 35be d8b0 29bd
00000340: efd5 debd 1293 893d 5949 c93d a1a6 4e3e
00000350: 4a49 aabc 78f7 a439 29cd 1fbd b07d 593d
00000360: 0671 39bd de52 5abc 3ecc 82bd 29f5 70bd
00000370: deeb 703d fb0d 843c 96d4 193e 11c0 47bc
00000380: 1910 d6bc 4370 48bd cebc 4e3c b4ff a4bb
00000390: bade 00bd 4340 823d 0f07 40bd ffe4 4dbb
000003a0: d015 b5bd a540 0b3e bc0a 093e f406 9fbd
000003b0: a370 1a3e e323 703c ab85 8c3d b228 d6bd
000003c0: 2b81 9b3d 91d2 18be 4fcc d7bc 59ff cbbc
000003d0: c020 5fbd 0389 17be 2868 58bd 5b1c cd3d
000003e0: 4766 c93d 5634 0a3e a094 4a3d c47c 753c
000003f0: 9912 b9bd 9b0e 153d 4a0e 64bd 30b4 4d3e
0.020004243 -0.12549537 -0.046363793 0.034306157 -0.05976795 -0.06322603 -0.07777237 0.14674792
0.09925166 0.016018681 -0.037748385 -0.03563161 -0.07844569 -0.08939507 0.13002095 -0.16325212
-0.21476802 0.02924519 -0.04410317 -0.12894695 -0.016800791 -0.010713281 0.08168522 -0.0808236
-0.04429335 -0.07823451 0.05488113 -0.022763576 -0.001853405 0.04846349 -0.004459273 0.09127882
-0.17844251 0.08723726 -0.10671432 0.0040495405 0.11942349 -0.052646354 0.05562859 -0.05120941
0.22709788 0.1482731 -0.040495154 -0.11438396 -0.045254543 0.10010534 0.14541197 -0.032572307
-0.025983214 0.027246254 0.2000189 -0.064882286 -0.042533647 -0.05485711 0.018192656 0.09329553
0.047970265 0.06436538 -0.11004396 -0.043971002 -0.11453336 -0.06799218 0.01864506 0.066771
-0.20513362 -0.040486954 -0.04727393 0.21143763 0.089741625 -0.011458706 0.012066984 -0.09457573
0.1358975 0.12432723 0.21194883 -0.04815264 0.03820751 -0.22151303 -0.03501284 0.025894709
-0.123691335 0.017490672 -0.034424305 0.085797794 -0.037277833 -0.15307102 0.03711788 0.004048049
0.015462526 -0.056411423 -0.15518321 -0.19368777 -0.013573785 -0.15724869 -0.0935334 -0.026102887
-0.1651763 0.0053276564 0.20685637 0.0080774035 0.06397538 -0.052711915 0.072254926 -0.085677266
0.07301485 0.05751147 -0.14196093 -0.013504578 0.03251011 -0.10103949 -0.020568712 -0.13160963
0.03335051 0.035002336 -0.006115927 -0.10662521 0.012495171 0.13362326 0.074832745 -0.083137214
0.04144709 0.07256117 0.019946797 0.0022552065 -0.15091212 -0.06520384 -0.18208708 0.0032870614
0.09967492 0.08384739 0.049657557 0.0039329105 0.072242096 0.1256285 0.1494877 -0.094729595
0.011964617 0.08368473 -0.11204736 0.00496162 -0.09384664 -0.13546504 -0.098159 -0.11887981
-0.07739759 -0.060488332 -0.03802831 -0.21313909 0.13277194 -0.06873617 -0.017249245 -0.03508929
0.02026236 -0.02785781 -0.023355063 0.012508531 -0.15925792 0.04059391 -0.0064335386 0.025158644
0.04679616 0.010836247 -0.11076825 0.00917003 0.017764814 -0.12481323 -0.055073198 0.04343068
0.10873986 0.019299032 0.13245636 -0.051256504 0.1428286 -0.015309985 -0.12140613 -0.043554462
-0.09278978 0.06018875 -0.0473527 0.04395298 -0.053472932 0.03763645 0.06577563 0.14729923
-0.07980852 0.12619019 0.12790354 -0.22416618 -0.18386143 0.08897206 -0.17774598 -0.02755999
0.13707702 -0.020599267 0.15917493 -0.16609217 -0.1735919 -0.039721124 -0.08884006 -0.18928856
0.060439337 -0.12577458 -0.082632 -0.018704277 -0.05483105 -0.10042555 -0.1771328 -0.041428417
-0.10880648 0.067175046 0.09828443 0.20180751 -0.0207869 0.00031464896 -0.039014015 0.05309838
-0.045273803 -0.013325421 -0.06386612 -0.058827553 0.05881869 0.016119948 0.15022501 -0.012191788
-0.026130723 -0.048935186 0.012618257 -0.005035365 -0.03146241 0.06359913 -0.04688173 -0.003141701
-0.08842051 0.13598879 0.13383001 -0.07764998 0.1508203 0.014656994 0.06861433 -0.10456981
0.07592996 -0.14924075 -0.02634254 -0.024902033 -0.054474592 -0.1479836 -0.052833706 0.10015174
0.09833961 0.13496527 0.049458146 0.01498336 -0.0903675 0.036390882 -0.05567769 0.20088267

F.linears.0.bias f4 [32]
00000000: a03d b83c 093f 253d 4a6f b2bd bee4 a43d
00000010: 5728 c6bd 293b 91bd 81be 803c 40de 6f3b
00000020: f5af a03d 045f 953d 164f a5bd 34cd 0f3b
00000030: 1d1a 1cbd cb60 9f3c 0a26 9bbc 4477 573d
00000040: 2c95 58bc 937d f0ba 0ca8 c23d 6d1b acbc
00000050: 7225 18bd cfed 953d b870 e23c 7e9d 193d
00000060: 36cf c3bd 5496 ba3d 4c9d 8fbc 0bcb bdbd
00000070: 97e2 a63d b15e 803d 0a14 a7bd f639 9dbd
0.022490323 0.040343318 -0.08712633 0.080514416 -0.09675663 -0.07091362 0.01571584 0.0036600977
0.07846061 0.072935134 -0.08071725 0.002194238 -0.03811084 0.019455334 -0.018939037 0.052603975
-0.013219159 -0.0018347971 0.09504709 -0.021009171 -0.037145086 0.07320749 0.02764164 0.037503712
-0.09561007 0.09110704 -0.01753106 -0.09267243 0.08148687 0.06268061 -0.08158119 -0.07677071

F.linears.1.weight f4 [32, 32]
00000000: c8a9 d039 a1df 4f3d aabb ee3d 3727 f43c
00000010: 39b8 f0bc 1c54 b53d 76e9 bf3a 9b82 3bbd
00000020: 786b 65bd bcae b8bd 467a 2fbe 671e 943d
00000030: ba3e d9bd 8b90 e9bd d7ac 683d 52a1 39bd
00000040: ace0 e5bd 5c41 853d e33b 6ebd 776c 34bc
00000050: 9448 0bbd 5711 883d 8c48 843d 27f3 14be
00000060: b6ed 2a3e aa5c e93a 98c6 22bc ca54 553e
00000070: 4e57 f4bd 6ce9 e5bd 68f2 bc3d 3315 873d
00000080: b683 2e3d 8e21 98bd ef0a a73c 683f c9bc
00000090: 98b0 c53c 543c f83d db13 2bbe ffaa 2abd
000000a0: 8d4c d4bd 6f17 62bd 7345 183e aba0 8c3d
000000b0: 4875 afbc 7dc5 86bc 87cd 3a3d 5ff9 54bd
000000c0: 94fe 3b3e fc4a 0c3e 17c4 ebbd 2f0e 25be
000000d0: 422e 9a3c 8d70 9cbd 0aa3 e2bd a395 f73c
000000e0: 9dfe de3d 7400 c5bb f787 753d 7c62 083e
000000f0: dad0 d43d a4a0 c43c 487b 763b 0cf6 00be
00000100: 08a3 49be 11da 223e 49c9 263e d98c 2d3d
00000110: 71a2 93be 4ec1 b93c 4bd3 62bd 9d6c 1c3d
00000120: ec01 0bbe 72db cb3d 7ab3 d3bd ec8d 13be
00000130: 5c91 143e 1b5e 833c 843a 37be 8f70 7c3d
00000140: c6da d3bc bbb6 d33a e642 6e3e 72d7 7abb
00000150: 2a2a bf3d 2149 023e 8bc8 c8bc 3b29 e53d
00000160: 2606 563d 07a4 ff3d db5f 0a3e d7f1 79be
00000170: 27a5 8ebd 7e90 8e3d 4569 063e 4dfa 17bd
00000180: 8215 e43d 229d 233e b4f4 0e3e 531a d33d
00000190: a751 98bd 1fb8 583d fd35 813d 9646 3b3b
000001a0: a259 0abe 146b 34be 2fbc 063e 7861 1fbd
000001b0: 301d 383d 7a57 ad3b 20f0 05bc 04ff c4bd
000001c0: 24b7 eaba ed6f 203d 668a 053b 4161 6a3d
000001d0: f052 6e3d df2a e8bc 7a76 373d cbb2 e2bd
000001e0: 2db3 4cbd 963e 02bd 5eeb 5cbe b451 323b
000001f0: 36d7 aebd 5138 4bbd f1a8 babd 0ae2 1bbd
00000200: 4107 2bbe 2736 b43c 179b 423e 7441 27bc
00000210: f07a 1b3e 9fff 2f3e 981f 3a3d 418d 573e
00000220: 8978 22bd 563d b2bb 228b a43b e0cb 2738
00000230: 4d44 cc3d 6a73 eb3d 4e03 54bb 7da1 443e
00000240: df43 19be ce5e c5bd f993 0fbd f07d 23bd
00000250: 25c0 f13d dfa6 603d 1e8a 42be 0f7f 983e
00000260: 92b4 89bd 122a abbd 567b 03be eaf9 95bd
00000270: 6aac 25be b432 623a 75d0 053e fed2 97bd
00000280: bc05 80bc 7828 7dbe 288a e13d e748 b4bd
00000290: 852b aeba 2630 fa3c 5714 1dbd 402a af3d
000002a0: 690b 5dbe 930c 8b3d 0be8 2abe 9891 0cbe
000002b0: 0dfe b63d c8a6 0a3a b467 8bbd 44ca bf3c
000002c0: 1c4b 6cbd 33c2 04bd 47fa 32be 6f11 eabd
000002d0: f9dd cb3c 804a e8bd 8b9d 083e 981b 01be
000002e0: 096e 51be 4171 043b 2e3e 05bd ad2c 673d
000002f0: 5b42 ecbc 62ca aebd ebe2 20be 9ee1 733d
00000300: 12e2 f03d bc3f 013e 9b6b 1b3d 6ec1 4b3c
00000310: 3779 4cbe 7789 173e 51d0 073d fece bfbd
00000320: 84b1 4ebd 2938 0ebc b5ed 02bc 4d84 10be
00000330: 277c f6bc 2bfc 0dbd c562 843d 5598 243d
00000340: 9e8c 85bb 59ad e23d 0e18 0cbe 7197 0fbe
00000350: 1ef5 bebd 5d54 2c3d b991 c23d 1b7d 813d
00000360: 5fd0 6c3c 9b1a 973c 7f2c af3d 7659 7a3d
00000370: 3503 b93c fa11 b03d 903b e6bd 5f18 893d
00000380: 4df0 b3bd b772 df3d 3a47 a5bd 802e cf3d
00000390: 6a48 dbbc 357b a8bd 05a8 d03d 5ca8 843e
000003a0: 6c8a 8a3d 4f52 10be 9a5e 3cbe d267 c1bc
000003b0: a9d5 0bbe 3ef3 143e ab74 813d cc49 9c3d
000003c0: b2cc dfbd 0fdc 053e 9a84 4dbc 3ae7 e4bb
000003d0: 5e5c 213c 6063 1dbd bc80 d13c 30e7 5cbd
000003e0: 4a2f 193d fb1f 7fbd 7f50 c2bb 7914 ae3d
000003f0: 92a4 d7bd be54 303e 57d0 84be 1b7e 803d
0.00039799348 0.05075038 0.11656888 0.029803855 -0.02938472 0.08853933 0.001464172 -0.045778852
-0.056010693 -0.09017703 -0.17136487 0.07232361 -0.10607667 -0.114045225 0.056805458 -0.045319863
-0.112244934 0.06506607 -0.05816258 -0.011012188 -0.034004763 0.06643932 0.0645915 -0.1454588
0.16692242 0.0017804105 -0.009935044 0.20833126 -0.119307145 -0.11226162 0.09225923 0.0659584
0.042606078 -0.07428275 0.020390956 -0.024566367 0.024132058 0.12120882 -0.16706793 -0.04166698
-0.103661634 -0.05519813 0.14870243 0.068665825 -0.021418229 -0.016451592 0.045606162 -0.05199563
0.18358833 0.1370048 -0.115120105 -0.16118692 0.018820886 -0.07638655 -0.110662535 0.03022272
0.108884074 -0.006012017 0.05994412 0.13318819 0.10391398 0.02400238 0.0037610102 -0.1259386
-0.19691098 0.15903498 0.16287722 0.04237065 -0.2883487 0.022675183 -0.055377286 0.03818952
-0.13574952 0.09953965 -0.10336967 -0.14409608 0.14508575 0.016036084 -0.17893416 0.06163078
-0.025861155 0.001615248 0.23267707 -0.0038275388 0.09334214 0.12723209 -0.024509689 0.11189505
0.052251957 0.124824576 0.13513128 -0.24408661 -0.06965094 0.069611534 0.13126095 -0.03710394
0.11136915 0.1597791 0.13960534 0.10307755 -0.07437449 0.052909967 0.063091256 0.0028576008
-0.13510755 -0.17618972 0.13157724 -0.038911313 0.04494971 0.005289969 -0.008174926 -0.09618953
-0.0017907363 0.03916924 0.0020376681 0.057221655 0.058184564 -0.028340755 0.044790722 -0.11069258
-0.049975563 -0.031797968 -0.2157416 0.0027209343 -0.08537142 -0.049614254 -0.09114254 -0.038057365
-0.16701986 0.021998478 0.19004475 -0.010208476 0.15183616 0.17187355 0.045440286 0.21049978
-0.039665733 -0.0054394407 0.0050214687 4.0005776e-05 0.09973965 0.11496623 -0.0032350603 0.19202228
-0.14967297 -0.09637223 -0.035053227 -0.039915025 0.11804227 0.05484664 -0.18998 0.29784438
-0.06723894 -0.08357634 -0.12840018 -0.07323058 -0.16179052 0.0008628771 0.13067801 -0.074132904
-0.015627734 -0.24722469 0.11012679 -0.088029675 -0.0013288116 0.030540537 -0.038349476 0.085529804
-0.21586384 0.06789508 -0.1669008 -0.13727415 0.08935175 0.00052891346 -0.06806889 0.023411877
-0.057688817 -0.032411765 -0.17478286 -0.114291064 0.024886118 -0.11342335 0.13341348 -0.12608182
-0.20452131 0.0020209106 -0.032530002 0.05643909 -0.028840235 -0.08534695 -0.15711562 0.059541337
0.117618695 0.12621969 0.037944417 0.012436254 -0.19968115 0.14798532 0.03315765 -0.093656525
-0.05046226 -0.008680382 -0.007991244 -0.14112969 -0.030088497 -0.034664314 0.06464151 0.040184338
-0.0040756008 0.1106822 -0.13681051 -0.14022614 -0.09324096 0.042072643 0.09500451 0.0632269
0.014453976 0.018445304 0.08553409 0.061120473 0.022584537 0.08597179 -0.112418294 0.066941015
-0.08786068 0.10910552 -0.08070226 0.10116291 -0.026767928 -0.08226625 0.10188297 0.25909698
0.06764683 -0.14093898 -0.18395463 -0.023609076 -0.13655724 0.14545915 0.06321081 0.07631263
-0.109277144 0.13072227 -0.012543822 -0.006985572 0.009848682 -0.03842485 0.02557408 -0.053931415
0.037398614 -0.06228636 -0.005930006 0.084999986 -0.10529436 0.17219827 -0.259402 0.06274053

F.linears.1.bias f4 [32]
00000000: fee7 e83b 7411 bebc 4283 3ebd 7dda bcbd
00000010: 17a9 943c 1588 b2bd ca2f 773c f9b3 3ebb
00000020: 54d3 bebd bc6d a4bd 6816 b63d 0619 8f3d
00000030: 76f6 9b3d f818 0cbd c5e0 733d 214a a33d
00000040: 5837 923d 9a62 24bd 5e97 403d 972f c63d
00000050: ceb6 afbc 568a f4bc eb52 38bd 760f 4cbd
00000060: eb73 053c 02dc 933d c74b e43b 12db a73d
00000070: 1a35 3cbd 8ac1 573c 2893 2ebb 22fd 32bd
0.0071077337 -0.023201682 -0.046511896 -0.09221361 0.018147035 -0.08717362 0.015087077 -0.0029098971
-0.093176514 -0.08028743 0.088909924 0.06987195 0.07615368 -0.0342035 0.05954053 0.07973123
0.07139462 -0.040133096 0.047019355 0.09677046 -0.021449473 -0.02985112 -0.04500095 -0.049819432
0.008145313 0.072196975 0.006967041 0.08196081 -0.04594908 0.013168702 -0.0026638005 -0.043698438

F.linears.2.weight f4 [10, 32]
00000000: 4c82 0ebc 9ded 963d 2713 69bd d06e d23b
00000010: 8495 c2bd 12d1 71bc beab b1bd a1d7 c4bd
00000020: 93da bc3d 064c a3bd 85a8 9ebd 3389 be3d
00000030: e693 bd3d 3ca8 a8bc 1d77 4bbc 2456 0abd
00000040: b16a 91bd 356f 73ba b7ee f4bd 4517 883c
00000050: ca01 d9bd d61f 27bd e764 cebd 9918 6dbc
00000060: e5f1 be3c 0cf1 dd3d 07ba cfbd a05f ee3a
00000070: 1928 243e e634 903d def2 1abe 2c13 4e3e
00000080: 1505 473c a81f 4ebd 5bb1 083e 7d79 153d
00000090: 52b8 bb3d 0345 023d 007c c0bd 0d74 68bd
000000a0: 51e0 393e debc 93bd 0cc4 f53d 7863 633e
000000b0: 84ed 1fbe 81eb f8bb 4fcc 16bd b6b5 6b3d
000000c0: 4515 0bbe 0310 52bc 3e11 4a3d 7f16 44bc
000000d0: 1d8e 08be 9f7c 463e 0f0b b13c 4259 6f3d
000000e0: eb48 11be f980 98bb aa5c 44bd 9870 4a3d
000000f0: ac5e 83b9 78ac 823d bc58 633c 698d b93b
00000100: b3d0 1a3e 23b5 09bd 317e 53bc a173 e03c
00000110: 0910 643c bf73 f8bd 3ee2 53bd 2f04 473d
00000120: 3754 95bc 5858 323e 718d 673c 1a13 74be
00000130: 8854 fd3c 6c2e 7d3c 8226 9d3d aee8 843c
00000140: 8844 4cbe 3816 62bd 5861 96bc 64eb 42bd
00000150: 1604 783d c1ee c1bc 9ac9 163e 5a37 32bc
00000160: e22d f73d df21 80bd 3435 833c f2cc db3d
00000170: b63b 0ebe 039c 8ebe 6b35 c13d 5be0 00be
00000180: ed8d 423d 3c53 42bd a40d aebd 6990 2abd
00000190: 2612 0b3e 78a9 453d f475 5539 f1d2 a1bc
000001a0: 4d41 8cbd 9897 9d3d 3723 7ebd e9ff 46bd
000001b0: 3105 0b3d 7052 583e 500a aebd 7042 41be
000001c0: 17d7 04be 1525 8bbc 2981 69bd 5d24 0e3e
000001d0: 266e 383a 6918 19bd 364a 3b3e c740 a2bd
000001e0: 7503 32be 549c 9c3d 251f bbbd 083c 4c3d
000001f0: 118b e5bd d3ae 0d3d 0158 69bd 153b bcbd
00000200: 10c7 663d 269f 733d 0f8f c7bd 1df2 293d
00000210: 2da5 093e 8874 5a3e 9d4f 823d 38f8 68be
00000220: dacc 993d b74d b23d dc7a cdbc 8419 19be
00000230: 2965 143e f6be cb3d c0df af3d 450a b53d
00000240: e2e6 133d b0e1 c8bd 82ae 9fbd 20b2 29be
00000250: 8a62 ee3d 6d6a e83c 590c 543d d7d4 103e
00000260: 2f87 b9bc e5f8 2f3e 402b 69bd 4ce3 c2bd
00000270: 0576 b63c 9714 28be 5375 fdbd 70d8 f03b
00000280: cae6 38be 7660 11be cee3 24bc 0fd0 92bd
00000290: 85de 803e 0a94 623d 9fdb c6bd 6283 613d
000002a0: ef90 c23d 51ad c5bd 3c38 22bd f0ac e13d
000002b0: b065 e93c 0103 d7bd 3230 e3bc 88f1 fcbd
000002c0: 0dab 13be 9139 0c3e 3274 b4bd 0f62 7b3e
000002d0: 8800 ff3d d079 84bd e3a4 103e 4c3c bebd
000002e0: d85f 233c 6638 0bbd 90f3 0ebd e311 fcbd
000002f0: 2889 acbc 50cf 9139 f3f3 243e 966c 06bb
00000300: 3f7c a73d 838c d5bc e7b5 0fbe 44e5 b23d
00000310: 99ac 2fbd e2fb 3fbe e35b 8fbd ea85 0a3e
00000320: cc6b b7bd 49f6 673d da32 92bd 3e44 f5bd
00000330: e48a 9a3c bb8a 5a3d a6db 9cbd e408 a53c
00000340: da37 21bd e6bd 3cbc 5c2a 593d ccaa 003e
00000350: 9c06 b43b 08ce 383e 0dd3 66be 2132 2ebe
00000360: e08e 33be 41c6 29be ac60 10bc a2e1 ce3b
00000370: 09cf e7bc 3359 e4bd 0f77 81bd 89e1 f6bd
00000380: ff3a 2bbd 2570 a23d fcd6 333b 77d6 e83c
00000390: 1eb2 eebd 79cc b43c 595b 52bd 7e7b a13d
000003a0: 20ac a43b 7839 393c 293a 0a3d a5e5 da3d
000003b0: 3cda 383d 7e37 07bb 145a 1d3e bc83 bf3d
000003c0: bce6 483e fdab c83d d091 4ebd 5b28 f6bd
000003d0: 5c66 933d 2556 febd 3cee fc3c c6cf a7bd
000003e0: 7937 edbd ee8c 18bd 7f7d 6ebd bc14 15be
000003f0: 88d5 873d cb1a 85be 5727 673d 6cf7 a73d
-0.008698057 0.0736954 -0.05690303 0.0064219013 -0.09501174 -0.014759319 -0.08675335 -0.096114404
0.09221377 -0.07973485 -0.07746986 0.093035124 0.09256725 -0.020588033 -0.012418536 -0.033773556
-0.07100428 -0.00092862855 -0.11959594 0.016612658 -0.10596044 -0.040801845 -0.10077839 -0.014471197
0.023308704 0.10836992 -0.10142904 0.0018186457 0.16030921 0.070413396 -0.15131709 0.20124501
0.012147208 -0.05032316 0.13348906 0.036492813 0.09166016 0.031804096 -0.09398651 -0.0567513
0.18151976 -0.07213758 0.120002836 0.22205913 -0.15617949 -0.0075964336 -0.036815938 0.05754634
-0.13582332 -0.0128212 0.04933285 -0.011968254 -0.13335462 0.19383477 0.021611718 0.058434732
-0.14187972 -0.0046540466 -0.047939934 0.049423784 -0.00025056803 0.06380552 0.013876136 0.0056626094
0.15118675 -0.03362001 -0.012908504 0.027398886 0.013919839 -0.12131452 -0.051729433 0.048587974
-0.018228633 0.17416513 0.014132843 -0.23835412 0.030924097 0.015452962 0.076733604 0.016224232
-0.19948018 -0.05519697 -0.018356964 -0.047587767 0.06055077 -0.023673417 0.14725342 -0.010877455
0.12069298 -0.062564604 0.01601658 0.107324496 -0.13889965 -0.27853402 0.09434017 -0.12585585
0.047498632 -0.04744266 -0.084986955 -0.041641627 0.13581142 0.04825732 0.00020357204 -0.019753905
-0.06848393 0.0769493 -0.062045302 -0.0485839 0.033940498 0.21125197 -0.08498061 -0.18873
-0.12972675 -0.016985456 -0.057007942 0.13881059 0.00070354564 -0.037376795 0.18290028 -0.079225115
-0.17384131 0.07647005 -0.091368 0.049861938 -0.112081654 0.034590553 -0.056968693 -0.091909565
0.056342185 0.059477948 -0.09744083 0.041490663 0.13441916 0.21333516 0.06362841 -0.22750938
0.075097755 0.08706229 -0.025082998 -0.1495114 0.14491715 0.09948532 0.08587599 0.088398494
0.03610886 -0.098086715 -0.077969566 -0.16571856 0.116398886 0.02837106 0.05176959 0.14143692
-0.022647468 0.1718479 -0.056926012 -0.0951601 0.022273073 -0.16414104 -0.123758934 0.00735002
-0.18056789 -0.14196953 -0.0100640785 -0.0716859 0.2516977 0.055316962 -0.09709858 0.055056937
0.095003 -0.09652198 -0.03960441 0.11019313 0.028490871 -0.1049862 -0.027732942 -0.12350756
-0.1442072 0.13693835 -0.08811225 0.24549125 0.12451273 -0.064685464 0.141254 -0.092888445
0.009971581 -0.033989333 -0.034900248 -0.12308099 -0.021061495 0.00027811015 0.16108684 -0.00205115
0.08177995 -0.026067978 -0.14034234 0.08735135 -0.04288921 -0.1874843 -0.06999948 0.13527647
-0.089561075 0.05663136 -0.071386054 -0.11975907 0.018865056 0.05335496 -0.07659082 0.020145841
-0.039359905 -0.011519885 0.053018913 0.12565154 0.005493952 0.18047345 -0.22541447 -0.1701131
-0.17534971 -0.16579534 -0.008812111 0.0063135186 -0.028296964 -0.11149826 -0.06321537 -0.12054736
-0.04180431 0.07931546 0.0027441373 0.028422577 -0.11655067 0.022070156 -0.051356647 0.078848824
0.0050254017 0.0113052055 0.033746872 0.106883325 0.04513 -0.002063244 0.15366393 0.09351298
0.19619268 0.09798429 -0.050432026 -0.12019416 0.07197258 -0.124187745 0.030875318 -0.081939265
-0.11582846 -0.037243776 -0.05822515 -0.14558691 0.06632525 -0.25997004 0.056434 0.08201489

F.linears.2.bias f4 [10]
00000000: 811b de3c 309e c1bd ac35 cabc f2ee bc3c
00000010: a614 b2bd 7f6e c13d 1f0f c03d 1fe7 0e3d
00000020: 6dc6 963d cc39 57bc
0.027112724 -0.09454 -0.024683796 0.023063157 -0.086953446 0.094449036 0.09377884 0.034888383
0.073620655 -0.013136338

G.0.linears.0.weight f4 [32, 10]
00000000: b25a 123d a312 163d a0d5 89bc 3c1c 98bd
00000010: 599e e13d a34b f0bd 1a79 57be 9c2f fabd
00000020: f477 80bc 4a73 283d 80c2 fdbd fa38 62bc
00000030: b0e1 a5bd c091 943c cd47 92be 31a5 aa3c
00000040: d75c 1c3d 1e1c 793d f3de 9f3d 9515 ecbd
00000050: e29f 893d 62c9 5e3e 7324 67bc 9a8a d93a
00000060: 29b3 03be 36d4 c43c a1c8 bfbc bb31 87bc
00000070: 8416 1fbe 4d19 4f3d 0a14 5ebe 4168 d23d
00000080: e44c 88bd 6c1b ac3d b959 b43d db30 bc3d
00000090: b0c8 a5bd a8f0 e53d 2805 cabd fd1c a13d
000000a0: 6aa3 de3c cf87 90bd c155 fa3d 852c acbd
000000b0: 4430 06be faf3 d2bd e58d 063e 1c54 f03d
000000c0: dc02 4e3d 66d4 b83d 4d86 0ebe 34b8 a93c
000000d0: cfab d2bd 65dc 323b 7677 abba a9d6 23be
000000e0: 9372 4f3e d97a dc3c 42bb 303d 6760 d0bd
000000f0: 976a 7b3d 2c4a 51bb d6bd bd3d a979 b03d
00000100: fd90 98bd 2c8d 4ebd 7628 c73d 010c 6abb
00000110: d962 a0bd 0233 673c 8eb7 68bc ba84 5d3d
00000120: 4037 f0bd 66c1 29bc a49d ee3d e7e7 ac3d
00000130: 8dfb 40be b3df 153c f9d0 5f3e a64d 20bd
00000140: 71f2 063e cade 34be 1248 e13b b166 8abc
00000150: fa39 54bd a3be d1bd 8626 6abd f6e2 35bc
00000160: bcb4 f3bd fd83 103d 8a9b 23bd 9b99 04be
00000170: 94a6 30be a9b6 e33d a277 ed3d 32f0 3e3d
00000180: f6d2 82bb 2e48 c5bd 1de9 953c 71ea 513e
00000190: d004 873e 566d 17be ccce 23bd f6e2 cabc
000001a0: 4509 abbd a72d ccbd 779d a03d 31b1 673d
000001b0: 4eca 173e 0c6e c13d 8778 2fbd 64f2 d93c
000001c0: a937 b53d ac2d 533c 3df4 76bd 81c2 43bc
000001d0: 5cfc 9ebd 5283 b6bd b049 4f3e 7b3b eebc
000001e0: 437a 0ebe 77ff 90bd e709 08bc 917c 83bd
000001f0: a1ab 56be 9755 893d 9dee 38bd fc2b 853d
00000200: b920 0abe 1366 413e bc28 99bd aa87 953c
00000210: 7125 493e d825 b73c ff57 fe3d fd44 98bc
00000220: dc0d 283d 9e80 c1bc eac4 e3bd b73b ee3d
00000230: 79f5 353b a4cf a43e 2106 6bbe 8908 953d
00000240: b7f0 69bd 6c81 183c a3da 0c3e 8e39 c83d
00000250: c583 403e 34a7 e0bd 1c2e 5d3e e0ad 413d
00000260: c31a a83d 1c21 403c a108 9c3d f5d9 c13d
00000270: 8783 aabd 5b21 06bd 11bc 693d 751a a6bd
00000280: 7a8c 6cbd 0b47 e1bc d03c d6bc 5072 0d3e
00000290: 8153 e6bc 94a5 643d fed8 c9bd c48b 9f3d
000002a0: 4f78 55bc 636f 43bd dfe7 1bbe b094 65bc
000002b0: fd33 79be 2d81 7a3d 5fe2 973d 7101 50be
000002c0: b639 d43c 4811 e03d 8e84 1bbe 6b1d 07bd
000002d0: 20f8 4e3e 002f 3abd 5748 1cbe bbdd 45be
000002e0: 08d4 4d3d 16f6 513c 7510 1a3e db12 073e
000002f0: 9bcb 123e c51b e4bd 3d78 b93d 6c62 e43d
00000300: ec18 593c bf4b 9d3d d84d 93bd 0eb8 bcbd
00000310: a526 493d cabd 88bd 330a 183e 59e9 c13b
00000320: 7069 d1bd 3094 833e 8d1e 843c 40eb 223e
00000330: ac5e 41bc 7e04 ab3a d306 72bc ded8 3a3c
00000340: 85ef 2cbc ceaf 813d 04dc 443e ef67 f13c
00000350: 354c 113c 7a2a d5bc ae11 853c aafc 0e3d
00000360: f1bf a13c b9cc ddbd ae15 3abd 89d6 c83c
00000370: f7ef d7bd 1451 09be f369 ae3d 1ed3 293e
00000380: a4f8 4fbd 13c3 1c3e 17ad 4b3e 584c 8f3c
00000390: c4f2 56bd 9e8f bd3c 6009 733e 9911 553c
000003a0: 31ae f9bd 5afc 7e3d 3343 97bd d456 ac3d
000003b0: 09f8 d23d 86f1 663d 38eb 283e e113 ab3d
000003c0: 7833 1e3d f192 17be ae15 623c d245 bcbd
000003d0: 5619 15bd 0984 0dbe 4ff3 2f3c 26ec 3d3e
000003e0: 3dea 4abd 197f ab3d b86b ccbd b54f e8bd
000003f0: a65d b63d fe7b 9f3c 247d 8dbd 6c76 06be
0.035731025 0.036638867 -0.016825497 -0.0742726 0.110165305 -0.117331766 -0.2104229 -0.12216112
-0.015682198 0.041125573 -0.123906136 -0.01380753 -0.08099687 0.018135905 -0.28570405 0.020830723
0.038174476 0.06081783 0.07806196 -0.11527554 0.06719948 0.21756509 -0.014107811 0.0016597093
-0.12861313 0.024026971 -0.023411097 -0.016503206 -0.15535933 0.050561238 -0.21687332 0.10273791
-0.06655291 0.08403668 0.08806176 0.09189006 -0.08094919 0.11227542 -0.09864265 0.07866857
0.027177531 -0.070571534 0.122233875 -0.08406929 -0.1310435 -0.10300441 0.13140066 0.117347926
0.050295696 0.09024887 -0.13918419 0.020717718 -0.10286676 0.002729201 -0.0013081867 -0.15999855
0.2025855 0.026914047 0.043147333 -0.10174637 0.06138095 -0.003193508 0.09264724 0.08616955
-0.07449529 -0.0504276 0.09724514 -0.0035712721 -0.07831354 0.014111282 -0.014203919 0.054081656
-0.11729288 -0.010361051 0.11651161 0.08442669 -0.18845959 0.009147572 0.2185706 -0.03913655
0.13178422 -0.17663112 0.0068750465 -0.01689467 -0.051813103 -0.10241439 -0.057165645 -0.011101475
-0.11899707 0.035282124 -0.039943255 -0.12949221 -0.17251045 0.11118824 0.11595084 0.046615787
-0.0039924337 -0.09632908 0.018299634 0.20499589 0.2637086 -0.14787802 -0.03999214 -0.024766427
-0.083513774 -0.09969645 0.07842534 0.056565467 0.14823267 0.09444818 -0.042839553 0.026604839
0.08848507 0.012889307 -0.060291518 -0.011948229 -0.077629775 -0.08911766 0.20242953 -0.029081097
-0.13913827 -0.07079976 -0.008303142 -0.064202435 -0.20963909 0.06705778 -0.045149434 0.0650253
-0.13489045 0.18886594 -0.074784726 0.018253166 0.19643189 0.022356912 0.12419128 -0.018587584
0.041028842 -0.0236209 -0.11121543 0.116324835 0.0027764721 0.32189667 -0.22951557 0.072770186
-0.05711433 0.0093082 0.13755278 0.09776603 0.18800266 -0.109693915 0.2159962 0.04728496
0.082082294 0.011726644 0.07618833 0.094654 -0.08325868 -0.032746654 0.05706412 -0.08110515
-0.057751156 -0.027499696 -0.026152045 0.13813138 -0.02811599 0.05582197 -0.09855841 0.0779033
-0.013029172 -0.04771365 -0.1522517 -0.014012501 -0.24336238 0.061158348 0.07416224 -0.2031305
0.025906425 0.10940796 -0.15187284 -0.03298704 0.2021184 -0.04545498 -0.1526197 -0.19322865
0.050251037 0.012815019 0.1504534 0.13190787 0.14335482 -0.11138109 0.09056137 0.11151585
0.013250571 0.07680463 -0.07192582 -0.09214793 0.04910912 -0.066768244 0.1484764 0.00591771
-0.10225189 0.25698996 0.016127849 0.15910053 -0.011802357 0.0013047603 -0.014772135 0.011404244
-0.010555153 0.0633236 0.19224554 0.029468505 0.008868267 -0.026021231 0.016243782 0.034908928
0.019744845 -0.108300634 -0.04543083 0.02451636 -0.105438165 -0.13409835 0.08516302 0.16584441
-0.05077423 0.1530879 0.19890247 0.017492458 -0.052477613 0.023139771 0.23734045 0.013004684
-0.121914275 0.06225238 -0.07385864 0.08414999 0.10301215 0.05638268 0.16495979 0.08353401
0.038623303 -0.14802147 0.013799114 -0.09193005 -0.036401115 -0.13819899 0.010739162 0.18547115
-0.049539793 0.08373851 -0.09981483 -0.11343328 0.08904581 0.019468304 -0.06908634 -0.13131112

G.0.linears.0.bias f4 [32]
00000000: da71 c6bc 19b9 5e3d f277 75bd 98f8 9a3d
00000010: 6a24 80bd 280d 3d3c 71dd 553d be7c 2bbd
00000020: 5651 c83d c59a a3bd 998d c8bc 8ce4 50bd
00000030: ecbf 753d 91b2 acbd 6f1a 52bd 801d f1bc
00000040: 7dea 72bd e083 6abd 6054 74bc 6e8f 173d
00000050: 8648 b93c 804d a53d e4a6 46bd e940 c53d
00000060: 6b4b c33c 48f5 e6bc f665 c6bd 225c 463d
00000070: a2a7 50bb a4ed a1bd e0cb 79bd bc0e fabc
-0.02422421 0.05437574 -0.059928842 0.07566947 -0.062569454 0.011538781 0.052213136 -0.04186701
0.097811386 -0.07988504 -0.024481582 -0.05099921 0.059997484 -0.08432496 -0.05129474 -0.029433012
-0.059305657 -0.057254672 -0.014912695 0.03700202 0.02261759 0.080714226 -0.048499003 0.09631521
0.023839673 -0.028193131 -0.09687416 0.04842771 -0.0031838198 -0.079066545 -0.060985446 -0.030524604

G.0.linears.1.weight f4 [32, 32]
00000000: 111e 133b d767 053e 0278 8fbd 037b 28bd
00000010: 80bd 203d fa17 253e 56a5 2abe b115 3c3d
00000020: 00f3 263d 7ed0 643d 0dca f13d ebf9 05bc
00000030: e900 b2bd 4916 42bd 187d 813c 8f6d ddbd
00000040: 1de6 783e 92f7 233d ec91 45be f5bc 70bd
00000050: 41b2 d1bc 9e3d bf3d 117e c2bd afbf 573d
00000060: bdfd 7c3b aa25 a53d 61fb f13c 004f a23d
00000070: d2ad 27bd 81c6 d7bd 5214 0ebe 8833 b5bd
00000080: 88cd 12bd 8dc6 04be 9469 0b3e e444 1f3c
00000090: 69e0 dc3c 1ae4 e23d 7f69 d9bc 95f0 98bc
000000a0: 7fbc 873d 3df3 3f3d 1f32 aebc 75d9 f73b
000000b0: cffc c7bc b11d c43c e8ba d0bd 38b6 433e
000000c0: d2b6 4bbd b353 1fbc 9e36 ebbc 3f9b 973d
000000d0: 1030 5a3e 8632 1f3e 2a9e e7bd 4683 c3bb
000000e0: ea52 503e 13b1 d83c 0a99 8dbd c52e 8cbd
000000f0: 4764 823d 28e9 b5bd fd04 1a3e 84d6 5e3d
00000100: 6a11 c83d dc81 fbbd ffb3 f03d c326 b63d
00000110: 5013 45bb ed15 7e3e bdd7 c1bd f2f4 53bd
00000120: e1bc c23d bfe5 ba3d 2a9b c03d 7f89 d13c
00000130: f33e 2d3d 9e86 cebc e602 b23a 526c 03be
00000140: dc8d 93bd 2344 343e 8597 0e3c 199a 2dbe
00000150: 620e 9e3d 4470 c13d c762 d2bd ba04 6fbd
00000160: ca17 ce3d d848 e13d 777a 333e 5810 3a3e
00000170: 61ce 21be 43ea 5e3e a7b9 bdbd 1c9a ccbc
00000180: b42e 2a3d 502d 08bd 52f0 17be 184b b3bd
00000190: e2b8 773d 3f56 ebbd 87a1 24be f75b b63c
000001a0: c458 4cbd b75e 3f3d 2c8e 5e3d a703 093d
000001b0: 56d2 a6bd fdc0 89bd 4a67 363b e782 e9bc
000001c0: a44b 70be 27b6 c43c 8a27 dc3d 20dd a63c
000001d0: d4ac 42bc d287 e9bd 93f2 1ebd 7289 efbd
000001e0: 9957 7abd 6353 bd3b a6f9 a9bc 5939 ab3d
000001f0: 5abc 01bc 2997 f73d d647 35be 8ec1 aabb
00000200: cfda 373d f8c5 0cbd 0636 393e 04ad 8eba
00000210: 9389 13be 65a7 643d a6cb 9a3c 2b82 d43c
00000220: 4851 f2bc b4a4 68bc 9639 833d 3504 d5bd
00000230: d239 fcbd eadc 893d 121a 733d c024 c7bd
00000240: befd a3bd 945e 7dbc 43da 1d3e 9773 1bbd
00000250: bdd9 943d daa6 043e 0ed5 063e a3f2 80bd
00000260: 60c0 24bd 2b14 883c 1beb f13d c819 fe3d
00000270: 78d1 9ebd aec1 dabd aaa5 e43c 6f26 653d
00000280: f524 24be a3f8 dc3d 8a7c 49bc 59c2 cbbc
00000290: ffbe 503e 5904 e03b 5e00 b5bd d049 a83d
000002a0: 8aa0 d13c 5f31 25bd a125 88bd f229 da3b
000002b0: 8d0e 8e3d cf7b afbc e099 483d cf7a 17bd
000002c0: fd7c 2bbc 57a9 7c3d 7ce5 c1bd 54f2 c33d
000002d0: 3213 643d 1106 e53d 3e2d 8c3c 329e 6dbe
000002e0: 8e11 94bc 7d59 57be b486 8dbd cab2 0abd
000002f0: 0bd2 1cbc 7daa 16be 6ec7 babd 24b2 563d
00000300: db97 643d 5c27 2dbe 7a2a 91bd e9d5 ff3d
00000310: d13f 82bd 347c 61bd 9923 9dbd 7fae 693e
00000320: f62c 9dbd 0fc8 fabc 7fcc eebc d352 e23d
00000330: 5c1c dabb 8a21 5ebb 8f2d 1a3d 635d 8d3d
00000340: 52f1 28bd 92b6 f23d 9e6c 273e 0619 3c3d
00000350: c40a 11bc a1c7 04be 4527 c43b 2768 52bd
00000360: 70cd e4bd e98d a83d 03cb 99bd 3c73 043e
00000370: ea6c 5dbc 6e34 923c 6269 88bc bee8 283e
00000380: 3651 0e3e 880d a2bc efec d63c c534 903d
00000390: c879 90bc ce06 dbbd 406f 95bd 586e d53c
000003a0: c1f5 bbbd d20e 323d 6bc5 50bd 0750 24be
000003b0: e4dc 24bc 5c9d b4bc c93f acbd 8477 12be
000003c0: 8234 1f3d 9524 a83d 18df afbd 4f43 023e
000003d0: 74d8 8abd 3bea aa3d 0fef 93bc 56fc 273a
000003e0: d089 16be d0e1 883d 95b1 a93c 51e0 a53d
000003f0: 3652 a23c 224b 5f3e 7c7c ebbc a1cd 823b
0.002244834 0.13027893 -0.070053115 -0.041132938 0.03924322 0.16122428 -0.16664633 0.045919124
0.040759087 0.055862896 0.11806116 -0.008177261 -0.0869158 -0.047384534 0.01580672 -0.10811912
0.24306531 0.040031023 -0.19293946 -0.058773953 -0.025597693 0.093379244 -0.094967015 0.052673038
0.0038603388 0.080638245 0.029538812 0.07925224 -0.040937252 -0.105359085 -0.13874939 -0.088477194
-0.03584054 -0.12966366 0.13614494 0.009721015 0.026962476 0.11078663 -0.026539562 -0.018669406
0.0662775 0.04686283 -0.021264134 0.0075637647 -0.02441254 0.02393994 -0.101918995 0.1911248
-0.049734898 -0.009724545 -0.028712567 0.07402658 0.21307397 0.15546617 -0.11309464 -0.0059665767
0.20344129 0.026451623 -0.069139555 -0.06844858 0.06366783 -0.08882362 0.15040965 0.054403797
0.097689465 -0.12280628 0.117530815 0.08894112 -0.0030071326 0.24813052 -0.09464977 -0.05174727
0.09508682 0.09125852 0.09404595 0.025578259 0.04229636 -0.025210675 0.0013581186 -0.1283429
-0.07204792 0.17604117 0.008703117 -0.16953315 0.07717587 0.09445241 -0.102727465 -0.058354117
0.10063131 0.11000222 0.17527185 0.18170297 -0.15801384 0.21769051 -0.09263926 -0.024975829
0.041548446 -0.03324634 -0.14837769 -0.08754557 0.060479052 -0.114910595 -0.16077243 0.02226065
-0.04988934 0.046721186 0.054334804 0.03345075 -0.08145587 -0.06726263 0.0027832561 -0.028504802
-0.23466355 0.024012638 0.10749729 0.020369112 -0.011882026 -0.11402859 -0.038805556 -0.116961375
-0.061118696 0.0057777627 -0.020748924 0.083605476 -0.007918442 0.120893784 -0.17703184 -0.005211062
0.044886407 -0.034368485 0.18087015 -0.0010885303 -0.14407949 0.055823702 0.018895935 0.025940975
-0.029579774 -0.014199425 0.06407468 -0.10401193 -0.12315716 0.06731589 0.059351034 -0.097238064
-0.08007382 -0.015464444 0.15415291 -0.037952032 0.07268093 0.12954274 0.13167211 -0.06296279
-0.040222526 0.01661118 0.11812421 0.12407261 -0.07754797 -0.10681473 0.027911026 0.055944856
-0.16029723 0.10789611 -0.012297759 -0.024872946 0.20385359 0.006836456 -0.08837961 0.082172036
0.025589246 -0.040330287 -0.06647802 0.0066578323 0.06936369 -0.021421341 0.04897487 -0.036982354
-0.010466811 0.061684933 -0.09467599 0.09567705 0.05568237 0.11182798 0.017111417 -0.23204878
-0.018074777 -0.21030231 -0.06910458 -0.033861913 -0.0095715625 -0.14713474 -0.091200694 0.052415982
0.055808883 -0.16909546 -0.0708818 0.12491972 -0.06359828 -0.05505009 -0.07672805 0.22820471
-0.07674591 -0.030612973 -0.029150246 0.11050954 -0.0066562127 -0.0033894503 0.037641104 0.06902578
-0.041245766 0.11851229 0.16350028 0.0459223 -0.008852664 -0.12966777 0.0059861266 -0.05136886
-0.111719966 0.08230192 -0.075094245 0.12934583 -0.013514737 0.017847266 -0.016651813 0.16495034
0.13898167 -0.019781843 0.026236026 0.07041315 -0.017636195 -0.10694657 -0.0729661 0.026053593
-0.09177733 0.043471165 -0.050969522 -0.16046153 -0.01006243 -0.022047691 -0.084106036 -0.14303404
0.038868435 0.082101025 -0.08587474 0.12720989 -0.067795664 0.08345457 -0.018058328 0.00064081454
-0.14701009 0.06683695 0.02071456 0.080994256 0.019814592 0.21806005 -0.028745882 0.003991798

G.0.linears.1.bias f4 [32]
00000000: 9bf9 bf3d 50f3 983d 2782 ec3c bec0 693d
00000010: 93f4 013d 8ff5 353d 4b42 55bd ba7a 94bc
00000020: 2957 2bbd 980d 96bd d2cd 99bd 27bf 993d
00000030: 5341 c63d 0e57 873c 99c9 a43d 4e56 babd
00000040: 6fa2 b7bd b278 9d3d 2c4a 9fbd 3e2e 7d3d
00000050: d7aa a3bc b34f babc 358e 183d 1f79 143d
00000060: 89b0 813b 3807 c23d b63f 9a3d 7b1a 40bc
00000070: 3845 de3b 7136 03bd 0a3b c63b 85bd e8ba
0.0937378 0.07468283 0.028870655 0.05706858 0.031727385 0.044423636 -0.052065175 -0.018124927
-0.04183117 -0.073268116 -0.0750996 0.075071625 0.09680428 0.016521003 0.08046264 -0.090984926
-0.089665286 0.076890364 -0.07777819 0.061811678 -0.019978924 -0.022743082 0.037244994 0.036248323
0.003957812 0.09474033 0.07531683 -0.011725063 0.006783154 -0.03203434 0.0060495185 -0.0017756677

G.0.linears.2.weight f4 [10, 32]
00000000: 11da 63bd 8c79 0d3d b3b7 bf3d 6a54 c43b
00000010: 72e8 10be f21c 553d d22c 90be 1d66 59bd
00000020: 0b2c f43d 7ef7 88bc fc1f f63b ff36 0e3d
00000030: 226f be3d a62b a4bc b283 e6bd 4699 e6bd
00000040: 5945 613e 8a26 dcbd e5a0 263c ff6a 253d
00000050: 0e30 1b3c 9dd5 9abd 7332 e4bd 2865 d73c
00000060: b351 083d de82 63bd 5434 613e f208 1b3e
00000070: 31af cdba 28ba d0bd 5a27 8c3d bb24 91bd
00000080: 4965 3abe aba7 333d 73ec b4bd ecb2 913d
00000090: 28fa 17be 38b9 313e b73b 263d 55e1 2dbe
000000a0: b3eb 493c 08ef 6639 874d ff3b 3f5f 85bc
000000b0: c67b 863d eaae 693e 730b ecbc f07f 82bd
000000c0: 5ccc bf3a 2931 103e f7db 9b3d 1267 60be
000000d0: c273 153d 96e2 bebd f802 6bbc 6fcc 1dbd
000000e0: 9da2 0dbd ddfc fabc a6fd 6dbd a039 83bc
000000f0: c2b7 35bd d253 033e 9afa a23c 5556 cb3d
00000100: 6310 39bc e87a 0e3d 1627 2cbe bc0a 953d
00000110: 4ca9 473d 04d1 ef3d 8e77 8c3d 5868 203d
00000120: 6af1 35be 5494 6d3e c1b3 8fbc 7ec8 283e
00000130: 4e62 77bd 84bc 823d bdf0 41be 56c5 8abe
00000140: 00f2 b7bd cb20 40be 2b4a e93d 81d8 ce3d
00000150: e9c6 26bd 5b7b b6bd 0fc2 da3d 5e7f 8bbe
00000160: 1588 e2bd 8592 9d3c 4658 5bbe f33c 613d
00000170: 67f1 673e 02bc e2bd 2764 333e 84f1 1bbe
00000180: 5007 87bb 81f7 b1bc 0b81 1a3e 073c 46bd
00000190: 5415 b2bd 38ea d9bd 282c 433c b48a e93c
000001a0: ae0d 0ebe 2291 133d e968 84bd 781e 60bd
000001b0: 3067 73be 1bf1 fabc afc4 02be 94f5 cebd
000001c0: 482e d63d bc7d 80bc 2458 5ebd 61be 553d
000001d0: 9489 3ebc 5c7c e2bd 2ed1 293d 3400 f6bd
000001e0: 331e d53d 937f 81bd 1b51 82bc ac8e b8bd
000001f0: e2ce 2ebe 130b 07be 6634 aebd 4270 f8bd
00000200: f619 a93d 22b3 1fbe c251 8dbd db05 b73d
00000210: 29f1 563d 7ce3 0abe b392 c9bb 7cf3 8abb
00000220: 3ebf 19bc d093 1cbe 44ad ddbd 9a3b eb3c
00000230: b8bd bebc 4664 743d 4a53 413e da0b 0ebe
00000240: ce5d 8b3d fb27 88bd fcdb 21be 8498 a53e
00000250: ecf5 4e3d c112 bc3d 3c3e 453b c0ec b8bd
00000260: 559b 243e e9bc 703d cc9f d6bd d552 02be
00000270: 1484 9bbd 4edd 7dbd 64a6 bcbc 8a2c 003e
00000280: 44e4 fbbd 103d fb3c 74af 12be cb04 93be
00000290: d385 8c3d 5fad 6d3c d62c d23d 76bd e8bc
000002a0: 3de6 a63d 1535 e33d 2af4 013d 6052 913d
000002b0: 5315 39be b45e d43d 3e5d cabd fd76 5cbe
000002c0: bfa5 80bd 542d 7d3d 1073 c9bd 2501 a1bd
000002d0: 1fad c5bd e858 98bd bcba 25be 12dd 69bd
000002e0: 8fbf 25bd 858b 4b3c 11a8 d2bd 86f2 783e
000002f0: b76a 86bd 1753 f23d 6b0c 24bd baee 0c3d
00000300: 2382 713d b93c 18be 6d00 42bd 0407 ce3d
00000310: 36c8 88bc b4f1 0a3e ff27 163d fd96 4fbe
00000320: 600c 4cba 3dec 223d 2732 a93d 0243 873d
00000330: e237 593d 0d11 d23c 94d3 1f3e 3a1c dcbc
00000340: b8e4 f1bc 96a9 11bd 0c23 b03d 8d93 babd
00000350: 7e6c b1bd f64e c83d ce0b 9fbd e6c9 8f3d
00000360: 4dfc 13be 50a0 a6bd 4993 29bd 1fe5 fe3d
00000370: de89 afbd 8df9 02be 5731 353d efdb 73bd
00000380: 6981 5abd ff69 da3d 7754 fd3d 6780 e83c
00000390: 48e1 6b3e 4204 c8bd deb9 98bd 11f3 b53d
000003a0: 4cc7 fcbc b3ac adbd 6f0a 143c 099c efbd
000003b0: 8ed4 96bd 06b7 463e 425b b03d 4ade c03d
000003c0: 86aa acbd 19ba 54bc 7068 9abd 2f43 d23d
000003d0: 6a27 c8bc 8387 febd 3d47 3e3c fc0a 0dbd
000003e0: 71e1 b33b 1fa1 c2bd c183 9d3d 78ef ae3d
000003f0: db87 303e 67b0 a03d f041 013d 634c 9cbd
-0.055627886 0.034539744 0.0936121 0.0059915083 -0.14151171 0.052029558 -0.28159195 -0.0530759
0.11922463 -0.016719576 0.007511137 0.034720417 0.09298541 -0.020040344 -0.11255588 -0.11259703
0.2199911 -0.10749538 0.010170196 0.040385243 0.009471906 -0.07560275 -0.11142435 0.026293352
0.03328104 -0.055544727 0.21992618 0.15140131 -0.001569247 -0.101917565 0.06843443 -0.07087084
-0.182027 0.043861073 -0.088341616 0.07114205 -0.14841521 0.17355812 0.040584292 -0.16980489
0.0123242615 0.00022023555 0.0077912244 -0.016280768 0.06566577 0.2282063 -0.028814053 -0.063720584
0.0014633047 0.14081253 0.07610314 -0.21914318 0.03648735 -0.093205616 -0.0143439695 -0.03852504
-0.03457891 -0.030638153 -0.058103226 -0.016018689 -0.0443647 0.12824944 0.019894887 0.09928576
-0.011295411 0.03478518 -0.16811785 0.07277438 0.04874544 0.117097884 0.06858741 0.03916201
-0.17767873 0.23201114 -0.017541768 0.16482732 -0.060396485 0.06383613 -0.1893949 -0.2710368
-0.08981705 -0.1876251 0.113910995 0.100998886 -0.04071704 -0.08910247 0.10681545 -0.2724561
-0.11061112 0.019234905 -0.21420392 0.054989766 0.22650681 -0.11071016 0.17518674 -0.1522885
-0.0041207448 -0.021724464 0.15088288 -0.04839709 -0.08695474 -0.10640377 0.011912383 0.028508522
-0.13872406 0.03602708 -0.064653225 -0.054716557 -0.23769832 -0.030632546 -0.12770341 -0.10105434
0.10458046 -0.015684955 -0.054283276 0.052183513 -0.011629481 -0.11058876 0.041459255 -0.120117575
0.10406151 -0.06323161 -0.015907815 -0.090115875 -0.17071107 -0.13187818 -0.08506088 -0.121307865
0.08256905 -0.15595677 -0.0690036 0.08936664 0.052476082 -0.13563341 -0.006151521 -0.0042404514
-0.009383975 -0.15290761 -0.108240634 0.028714944 -0.023283824 0.05966594 0.18879429 -0.13871709
0.06805001 -0.06648251 -0.15806574 0.32342923 0.050527498 0.091832645 0.003009691 -0.090295315
0.1607488 0.05877391 -0.104796976 -0.1272691 -0.07593551 -0.06197863 -0.02302856 0.1251699
-0.122993976 0.030668765 -0.14324743 -0.28714594 0.068614624 0.014506667 0.10262458 -0.028410655
0.08149383 0.11094109 0.031726994 0.0709579 -0.18074541 0.10369626 -0.09881066 -0.21529765
-0.062816136 0.061810806 -0.098363996 -0.078615464 -0.09652161 -0.074388325 -0.16184515 -0.057095595
-0.040465888 0.012423401 -0.102859624 0.24311265 -0.06563323 0.118322544 -0.040050905 0.034407355
0.058962 -0.14866914 -0.047363687 0.10059932 -0.01669703 0.13568765 0.036659237 -0.20272441
-0.00077838264 0.039776076 0.08261519 0.066045776 0.05303181 0.025642896 0.15608054 -0.026868928
-0.029528007 -0.03556212 0.08600435 -0.09110174 -0.08663271 0.097806856 -0.077659234 0.07020931
-0.14451714 -0.08136046 -0.041400228 0.12446045 -0.08571218 -0.12790509 0.044236507 -0.059535917
-0.05334607 0.106647484 0.12369626 0.02838154 0.23035157 -0.09766437 -0.07457326 0.08884252
-0.03085675 -0.084802054 0.009035691 -0.11699683 -0.0736476 0.19405755 0.08611156 0.09417398
-0.08430962 -0.012983822 -0.07539451 0.102667205 -0.024432857 -0.124281906 0.011613664 -0.034434304
0.005489521 -0.09503388 0.07691146 0.08541769 0.17239325 0.07846146 0.031557024 -0.07631757

G.0.linears.2.bias f4 [10]
00000000: eeb1 3dbb 5b9a 223c 8943 083c 6df2 c0bd
00000010: 35fb 9fbd 0dae 823c 07f9 923d 0118 cf3c
00000020: b4b8 8b3d fa02 e43b
-0.0028945166 0.0099244965 0.008316883 -0.09421239 -0.07811586 0.015952135 0.071764044 0.02528
0.06822339 0.0069583626

L.0.linears.0.weight f4 [32, 20]
00000000: 05c4 32bd 80fb 293e 6734 c1bc 5a14 323d
00000010: 8058 9cbd 297f 54bd ce9a d4bd 6b4f 073d
00000020: 0815 d73d 9098 b83d b1a0 993d 8a62 743c
00000030: 0ec7 3c3d bfc1 e7bd b336 5abd d68a b73d
00000040: 6448 29be 3e37 84bb 4341 ef3d d0c0 c3bd
00000050: 5c5e 6bbd def6 1ebe d396 b83d 1245 37be
00000060: 91ce 933d 32de 20be bd5b 49bd ee1d 24be
00000070: ab43 8ebd 582d df3c c53c 47bd a75a b13d
00000080: 6d78 c6bd 9eb3 3e3c 9e86 aa3d c618 17bd
00000090: 682f 5b3d 0c0c 26bd 2888 3e3d dac8 47bd
000000a0: 90bb 593b 065f cc3d e737 c6bd 635e ce3c
000000b0: 0303 753d 1e3e d83c 3e47 203b 0cf5 903b
000000c0: 7e11 ce3d f6c1 92bd 4f7c 7ebe e42c 7dbc
000000d0: 0ac3 8ebd 09d6 323e a7f7 17be e69f 0abe
000000e0: 0a77 023e 3e20 823c 9cfa f8bd ed22 f43c
000000f0: b8ee 83bd 641f 12be 2f22 403d 0054 5736
00000100: 06e9 16bd d5a7 82bd dea7 403e 57c0 8e3d
00000110: 8b33 5dbd 84e8 a53d 997d 32bd 991b 223d
00000120: 8d19 aabd 2dad 3cbd 29dc 0dbe f1d2 113d
00000130: 4393 243e c63f cbbd 4572 c6bd f98f 2bbc
00000140: 95d3 85bd eeb1 e53c 7242 1d3e a66f 4cbd
00000150: 5a4d eb3c 5c1a 7f3c ee1e cebd 68d2 cc3d
00000160: 1ef7 e7bc 1614 8bbb 01b9 03be 2bab d83d
00000170: 0e1d b33d bde9 233d 418a 723d 9c23 83bd
00000180: 2fdb ab3d 54b9 7cbd 028f 69bd d386 09be
00000190: ed7b 0a3e b2b9 7dbd 5a31 7e3d 4259 dabd
000001a0: 46f5 773d 082d 3e3d c1b2 c93d 7148 e9bd
000001b0: e182 d5bd ce4e bf3d 3057 55bc bf21 b6bc
000001c0: ad44 b53d ba7c 1fbe e38b 05bd 8d0c 1e3d
000001d0: d260 3f3d 3ec3 22bd 6ca3 b9bd f87c 063e
000001e0: fe6f 55bc be59 4dbe a48d a8bd 2e6f ad3d
000001f0: 0ce5 e2bb 4d56 213e 72da bf3d 7f36 ce3c
00000200: 9405 503c 391c 153c 6189 da3d e3cb b4bd
00000210: f744 373d 179e 013e 654d a23d f171 00be
00000220: 5447 0c3b cba3 c2bd 399f 42bd 6010 a83d
00000230: a3f9 b53d 245f 2cbe b383 12be 71bf 20bc
00000240: 9256 ad3d 0aee 483d ef8a 98bd 01ae ce3d
00000250: b7bf 293e 9344 00be 02d7 1e3e e93b 82bc
00000260: 6059 903c 6f45 b7bd 4282 b43d dd26 09be
00000270: 4013 013d 5443 e9bd 37b0 e4bd 2c0c 31bd
00000280: 8b79 853d 0109 da3c 69b7 02be 40fe a0bb
00000290: 5dc7 1b3d 6edd 5fbe fdcd 033e c467 053c
000002a0: b97d 17be 4af5 df3c b204 2f3d 8f66 20be
000002b0: 7161 fb3c ceec e23d 3b6e 2e3e f815 18bd
000002c0: 48c1 073e 4594 403e cfd6 65bd 133c 6ebd
000002d0: 1a9e 00bd 2965 10be f215 863d cb41 2e3e
000002e0: 55d7 b63d 5426 3dbd 4634 c43d c2e2 e63d
000002f0: 3c65 d4bd 0a3d df3c a60b f13c 516a 81bd
00000300: 032a 1d3e dfc3 b4bd aa4d 1ebd 50d5 f33d
00000310: 58ba c83d cbae 3a3d 4cf8 bd3d 44ec c2bc
00000320: f5f4 0f3e 2a0d 0c3e 119d 9f3d 1d64 b73c
00000330: 88cd f13d 85b5 15bd 6dc2 c93d 2fdf febd
00000340: 2050 9d3d b933 aa3d a3e4 9d3d c029 c7bd
00000350: 2d1c 04be 299d edbd fbd1 1b3d 6156 6abc
00000360: 5817 193d 6a96 ed3d 97ab d6bd 108d 443d
00000370: fa24 463e 7415 c83c e602 883c 45f1 3e3e
00000380: 1487 f6bb 1cae ce3c d038 34be 5bef 2ebd
00000390: 3cc5 adbd c7fe 07be 649b b4bb 203d 02be
000003a0: dcc7 233d 95fa b3bd 44e8 0a3c 0d7e ba3d
000003b0: 3c23 58be 9cdf f9bb 8e73 60bc f489 6b3d
000003c0: cfd9 523e 7d58 c3bd e49a 4d3d c69b 78bc
000003d0: cdc8 493d 95fc c0bd eb2b 013d dda4 02be
000003e0: c792 bcbd 055b 2c3d 92f7 10be cd84 393c
000003f0: 8fa7 1fbd 2b4e 0abe 5169 afbc ef63 0b3e
-0.04364397 0.16599846 -0.023584558 0.04347644 -0.076340675 -0.051879082 -0.10381089 0.033034723
0.10502058 0.09013474 0.075013526 0.014916072 0.04608827 -0.11316251 -0.05327482 0.08962028
-0.16531521 -0.0040349057 0.116823696 -0.095582604 -0.057463035 -0.1552386 0.090131424 -0.17897442
0.07217134 -0.15709761 -0.049159754 -0.16027042 -0.069465004 0.027243301 -0.04864194 0.08659869
-0.09690938 0.011639504 0.083264574 -0.03688886 0.053512007 -0.040538833 0.046516567 -0.04877553
0.0033223368 0.09979062 -0.09678631 0.025191491 0.059817325 0.026396807 0.0024456526 0.004423743
0.1006193 -0.07165901 -0.24852107 -0.015452597 -0.069707945 0.1746446 -0.14840566 -0.13537559
0.12740722 0.015884515 -0.12157175 0.02980181 -0.06442016 -0.14269787 0.0469076 3.208639e-06
-0.036843322 -0.06379668 0.18814036 0.0697028 -0.054004233 0.081009895 -0.04357681 0.0395771
-0.08305655 -0.04606359 -0.13853516 0.03560156 0.16071801 -0.09924273 -0.09689764 -0.0104713375
-0.06534497 0.028038945 0.15357378 -0.049911164 0.028723408 0.015570249 -0.10064493 0.10001069
-0.028316077 -0.004244338 -0.12863542 0.10579523 0.08745776 0.040017832 0.05921388 -0.06403276
0.08391415 -0.06170018 -0.05702115 -0.13430338 0.13523836 -0.06194467 0.062058784 -0.10661556
0.060536645 0.046429664 0.09848548 -0.1139077 -0.10425354 0.09341203 -0.013021275 -0.022232888
0.088509895 -0.15574923 -0.03260411 0.038586188 0.046723194 -0.03973698 -0.090643734 0.1313361
-0.013027189 -0.20053765 -0.08230141 0.084684715 -0.006924277 0.15755577 0.09367837 0.02517247
0.012696642 0.009100967 0.10670734 -0.08827951 0.044743504 0.12657963 0.07924918 -0.12543465
0.002140482 -0.09503897 -0.047515128 0.08206248 0.08885505 -0.16833168 -0.14308052 -0.009811268
0.084637776 0.049055137 -0.074483745 0.10091782 0.1657704 -0.12526159 0.15511706 -0.015897708
0.017620742 -0.0894879 0.08813907 -0.13393731 0.0315125 -0.11389795 -0.11166423 -0.0432245
0.06517323 0.026615622 -0.12765278 -0.0049131215 0.038031925 -0.21861812 0.12871547 0.008142415
-0.14794053 0.027338643 0.042729087 -0.15664123 0.030686112 0.11080323 0.17034237 -0.037130326
0.13257325 0.1880656 -0.05611306 -0.05816276 -0.031400777 -0.1410109 0.065471545 0.17017286
0.0892779 -0.04617913 0.09580283 0.11273719 -0.103708714 0.027250785 0.0294245 -0.06319106
0.15348057 -0.08826422 -0.038648285 0.119059205 0.09801167 0.04557685 0.092758745 -0.0237943
0.14058287 0.13676897 0.0779363 0.022386605 0.1180678 -0.036550064 0.09851537 -0.12444913
0.07681298 0.083106466 0.077096246 -0.0972476 -0.12901373 -0.116022415 0.03804205 -0.014302821
0.037375778 0.11600955 -0.10481947 0.04798609 0.19350043 0.024424292 0.016602945 0.18646725
-0.007523427 0.025229506 -0.17599797 -0.042708736 -0.08484885 -0.13280784 -0.005511688 -0.1271863
0.039985523 -0.08788029 0.008478228 0.091060735 -0.21107191 -0.0076255333 -0.013699425 0.05750461
0.205909 -0.09538362 0.050196543 -0.015173858 0.049263764 -0.09423176 0.031536024 -0.12758203
-0.09207683 0.04207899 -0.1415694 0.011323166 -0.038978156 -0.13506381 -0.021412523 0.1361234

L.0.linears.0.bias f4 [32]
00000000: 1856 a5bc 26c7 44bd 74f4 c13d 7a03 793c
00000010: e8ba b8bc cff2 73bd 93c8 b03d 41c9 393c
00000020: e029 113d 4339 57bd 04a5 97bb b42a 803d
00000030: 8225 8d3d 0be8 943d 4385 783d 3ee1 37bd
00000040: b8b1 60bd c68a 01bc f439 7ebb 8fc2 a5bd
00000050: ef3e 5e3d 56bc af3d 10e2 983d c3c5 c7bd
00000060: b039 9b3d 7465 65bc 6b38 a73d 7edb 97bd
00000070: 84a8 db3c 2915 e53c 6c7c 9fbd 7539 3fbc
-0.020182654 -0.048041485 0.09470454 0.015198583 -0.022550061 -0.059557732 0.086320065 0.011339487
0.035440326 -0.052544843 -0.0046278257 0.06258145 0.0689192 0.07270821 0.060673963 -0.044892542
-0.054856986 -0.007906621 -0.0038791867 -0.0809375 0.054259237 0.08580844 0.07464993 -0.09754517
0.075793624 -0.014001239 0.08165058 -0.07414912 0.026813753 0.027964192 -0.077874035 -0.011671414
