graph2/00010params.pth (torch, 118145 bytes, 76 tensors)

F.linears.0.weight f4 [32, 20]
000000 2d 91 c9 3c bf 12 f2 bd f4 43 4f bd e1 c4 e1 3c
       0.024605358 -0.11819982 -0.050601915 0.0275597
000010 1c f0 69 bd 1f 08 8f bd f2 b8 ad bd 8e 12 0f 3e
       -0.05711375 -0.06983971 -0.08482541 0.13971922
000020 20 34 bc 3d 28 68 bd 3c 4c 6c 06 bd 58 11 00 bd
       0.091896296 0.023120955 -0.032818124 -0.03126654
000030 a5 44 ab bd 2e fb a8 bd 74 22 09 3e 04 16 2c be
       -0.08362702 -0.08251034 0.13392049 -0.16805273
000040 55 68 56 be 19 e3 00 3d 93 07 22 bd 33 b7 0a be
       -0.20938237 0.031466577 -0.039558005 -0.13546447
000050 68 27 47 bc 79 39 c7 bb 57 03 9d 3d b0 bb ae bd
       -0.012155391 -0.0060798493 0.07666653 -0.08531892
000060 88 e1 22 bd ec 13 a9 bd 0d e2 4d 3d 88 70 e0 bc
       -0.039765865 -0.08255753 0.050264407 -0.02739741
000070 af 41 d4 bb ac 00 46 3d b0 84 5d ba ce 1a c2 3d
       -0.0064775567 0.048340484 -0.0008450253 0.09477769
000080 b6 89 3a be 6c 30 bb 3d a4 be d4 bd 4e d6 18 3a
       -0.18216595 0.09140095 -0.10387924 0.0005830274
000090 fe 6e fc 3d 8a 17 59 bd 92 16 75 3d 8c de 61 bd
       0.123258576 -0.053000964 0.059835978 -0.055143878
0000a0 21 7b 64 3e a6 8f 15 3e 75 a3 13 bd 38 93 e7 bd
       0.22312595 0.14605579 -0.036044557 -0.113073766
0000b0 70 0c 4d bd 30 67 ce 3d df 43 17 3e c4 bf 00 bd
       -0.05006069 0.10078275 0.14771985 -0.031432882
0000c0 eb 44 cc bc 11 2d 03 3d 5b a1 4d 3e 63 bd 81 bd
       -0.024935206 0.0320254 0.20081083 -0.06334951
0000d0 01 ad 2e bd 19 b5 67 bd 00 0d a2 3c c0 b1 bd 3d
       -0.042645458 -0.056569193 0.01978159 0.09262419
0000e0 f8 e7 45 3d 48 74 8f 3d 93 59 e9 bd 5b af 32 bd
       0.048316926 0.07004601 -0.11394038 -0.043624263
0000f0 e1 f9 f1 bd 1d 77 99 bd ab fa 92 3c 60 7d 98 3d
       -0.11815239 -0.07493422 0.017941793 0.074457884
000100 d6 11 4d be c1 11 06 bd bf c0 24 bd b8 61 60 3e
       -0.20026335 -0.032731775 -0.04022288 0.21912277
000110 ca 84 c6 3d 97 ed 60 bc bb ab 87 3b 2a f1 d1 bd
       0.09693296 -0.013728521 0.004140345 -0.102510765
000120 0c 51 13 3e 93 ef f1 3d 1b 5a 51 3e 5d 2d 25 bd
       0.14386386 0.11813273 0.20444529 -0.040326465
000130 00 a1 f7 3c 4d 37 6a be c8 f4 1a bd ce 54 0a 3d
       0.030228138 -0.22872658 -0.037831098 0.033772282
000140 be 1e 02 be b8 b1 92 3c f5 58 f8 bc 4c 6f b2 3d
       -0.1270704 0.017907009 -0.030315856 0.087126344
000150 7a f1 28 bd e6 7c 1b be a8 b8 1a 3d 57 3b 67 3b
       -0.041245915 -0.15184364 0.03777376 0.0035283172
000160 e6 76 53 3c 8e 3e 48 bd de 31 20 be 2a 3d 48 be
       0.012906766 -0.04888778 -0.15644023 -0.19554582
000170 8f 2f 44 bc d9 46 21 be fe 5f c0 bd 8a 58 cb bc
       -0.0119742295 -0.15749682 -0.09393309 -0.024822492
000180 22 56 2a be 40 e8 ee 3b b5 45 50 3e 5f c5 07 3c
       -0.1663442 0.00729087 0.20339091 0.008286803
000190 3e 88 89 3d d2 4a 47 bd 80 53 9a 3d 30 e4 ba bd
       0.06715439 -0.04865534 0.075354576 -0.091255546
0001a0 00 e7 87 3d cc 68 52 3d 39 67 15 be b5 7c a3 bc
       0.06635857 0.051369473 -0.14590158 -0.019956926
0001b0 5d 14 dd 3c 04 8a c1 bd f4 81 5d bc 17 ae fe bd
       0.026987249 -0.094501525 -0.013519753 -0.12435549
0001c0 0b b3 d8 3c 1c 33 21 3d 7f 91 47 3a 68 80 e8 bd
       0.026452562 0.039355382 0.0007612928 -0.113526165
0001d0 c3 7a 9f 3c e4 66 10 3e 18 7e 9c 3d b2 aa b7 bd
       0.019467717 0.1410175 0.07641238 -0.089681044
0001e0 6a 6e 33 3d 71 67 9c 3d f5 83 5e 3c 64 00 0d bb
       0.04380647 0.076369174 0.013581266 -0.0021515125
0001f0 7a 4d 14 be f0 1f 8d bd 84 e1 3e be 5f 42 a4 3b
       -0.1448268 -0.06890857 -0.18640715 0.005012795
000200 5c 6e c7 3d 88 ae a4 3d 63 fe 4a 3d 0e 71 15 3b
       0.09737846 0.08041102 0.04955901 0.0022802982
000210 e1 db 91 3d 71 5c 05 3e d8 5c 19 3e dc b7 c4 bd
       0.07122017 0.13023545 0.14976823 -0.09605381
000220 b8 97 4f 3c 89 c8 9d 3d 0b 91 dc bd d2 7b 11 3b
       0.01267045 0.07704265 -0.10769852 0.0022199047
000230 c4 82 cc bd ad 0d 0e be b7 1c d3 bd b3 90 ed bd
       -0.09985879 -0.13872404 -0.10308211 -0.11599865
000240 ea 59 91 bd e8 13 69 bd ba a4 11 bd e7 52 53 be
       -0.07097228 -0.05690375 -0.035557486 -0.20637093
000250 8c bd 0c 3e 7c 38 95 bd 38 27 bb bc eb 05 28 bd
       0.13744181 -0.07286164 -0.02284585 -0.04102127
000260 73 13 d1 3c f5 19 ef bc f7 d0 e3 bc 64 94 8c 3c
       0.02552197 -0.029187182 -0.027809603 0.017160602
000270 53 98 28 be 60 6b 0d 3d 67 f2 33 bc 4c 7e ee 3c
       -0.16464357 0.03452623 -0.010983086 0.029112957
000280 75 8b 54 3d fc 5e 72 3c 23 2b ed bd 3d dd bf 3b
       0.05189081 0.014793154 -0.11580493 0.005855231
000290 78 74 b8 3c 68 dd 02 be 90 80 71 bd 3b 40 20 3d
       0.022516474 -0.12779772 -0.058960497 0.039123755
0002a0 b2 3b d7 3d c5 4f 95 3c 4c 03 0a 3e d6 0f 49 bd
       0.10509433 0.018226514 0.1347782 -0.049087368
0002b0 e1 a1 0f 3e e7 32 47 bc 20 0b f6 bd 4c bf 3a bd
       0.14026596 -0.012158132 -0.12013841 -0.04559259
0002c0 01 9e b8 bd e3 5b 74 3d d0 2c 2f bd dd c0 28 3d
       -0.09014512 0.059657943 -0.042767346 0.041199554
0002d0 6b 7b 40 bd 1a ee 36 3d e3 cb 75 3d cc 1e 0f 3e
       -0.0469927 0.044660665 0.060008895 0.13976592
0002e0 2f 3d a5 bd 10 d8 f2 3d 43 0d f7 3d 41 01 6d be
       -0.080683105 0.11857617 0.12063076 -0.2314501
0002f0 db 89 43 be 90 50 bd 3d 5e f7 2d be 21 d9 a1 bc
       -0.19095556 0.09243882 -0.16988894 -0.019756855
000300 53 4a 04 3e a0 c7 58 bc e2 f2 2a 3e 50 38 32 be
       0.12918977 -0.013231188 0.16694215 -0.17404294
000310 25 c8 29 be 17 01 05 bd d5 65 ac bd 68 ba 49 be
       -0.16580255 -0.032471742 -0.084178604 -0.19700015
000320 e0 6e 67 3d 52 54 06 be 32 af 9d bd d2 d4 4c bc
       0.056502223 -0.13118103 -0.076994315 -0.012501912
000330 bf 7d 73 bd 88 b2 c0 bd 06 ad 2f be 4d 85 17 bd
       -0.059446093 -0.09409052 -0.17155847 -0.03699236
000340 b0 26 d3 bd 6a 06 8a 3d 22 e2 bc 3d f2 34 48 3e
       -0.103101134 0.06739505 0.09222819 0.19551447
000350 8a c0 77 bc d2 da a3 bb 86 7a 3b bd 38 98 72 3d
       -0.0151215885 -0.0050004506 -0.045771144 0.0592272
000360 58 aa 51 bd 2e fe 96 bc 98 07 8b bd 9e 4e 59 bd
       -0.051187843 -0.01843175 -0.06788558 -0.05305349
000370 5d 99 7c 3d f8 8c a4 3c c1 04 15 3e 05 b2 80 bc
       0.061669696 0.02008675 0.14552595 -0.015709886
000380 d0 63 b0 bc 62 4b 54 bd a1 31 0e 3c 43 0e e3 bb
       -0.02153197 -0.051829703 0.008678825 -0.0069291904
000390 a3 bf 0f bd d1 d7 7b 3d 73 d9 3d bd e0 20 84 bb
       -0.03509487 0.061485115 -0.046349954 -0.0040322393
0003a0 f5 e6 b7 bd 72 12 0f 3e d4 88 08 3e 7d d0 a0 bd
       -0.089795984 0.1397188 0.13333446 -0.07852266
0003b0 9f a0 1b 3e 5f 50 06 3c 3a 68 93 3d 3d 33 db bd
       0.15197991 0.008197873 0.07197614 -0.10703132
0003c0 f2 3c 93 3d 11 bd 1d be eb 1b ac bc 90 1c a8 bc
       0.07189359 -0.15404154 -0.021009406 -0.020521432
0003d0 97 7e 73 bd 19 7f 13 be 97 22 45 bd e3 d3 d4 3d
       -0.059446897 -0.14403953 -0.04812869 0.10391977
0003e0 26 18 d3 3d cf 36 09 3e 72 ae 42 3d 2e 07 61 3c
       0.1030734 0.13399814 0.047529645 0.013734622
0003f0 9b 17 b4 bd ab ef 02 3d f1 da 68 bd d1 e2 4f 3e
       -0.08793565 0.031966846 -0.056849424 0.20301367

F.linears.0.bias f4 [32]
000000 e8 1f 7e 3c bb 58 12 3d 0c a6 ad bd 9a b5 b3 3d
       0.015510537 0.03572915 -0.084789366 0.08774872
000010 39 a0 c3 bd 3b 44 99 bd c9 49 36 3c 98 79 b5 3b
       -0.095520444 -0.07483717 0.01112599 0.0055381767
000020 bc d1 98 3d d0 69 86 3d 06 a2 99 bd 2d 22 eb ba
       0.07461879 0.06563151 -0.07501607 -0.0017939262
000030 b9 e5 08 bd ac bb 76 3c 5a bb a0 bc 05 d9 3d 3d
       -0.033422206 0.015059393 -0.019620586 0.046349544
000040 a1 0d 3d bc 6e 9e 85 bb b4 bf ba 3d fa 4c 67 bc
       -0.011538894 -0.004077724 0.09118596 -0.014117474
000050 00 89 0b bd 7b 03 8c 3d 44 43 c6 3c 1d 9a f0 3c
       -0.0340662 0.06836601 0.024201997 0.029370362
000060 b3 84 c7 bd c4 16 b9 3d 08 af 20 bc 1d ed be bd
       -0.09742107 0.09037545 -0.009807356 -0.093225695
000070 8f 08 a0 3d b3 be 7e 3d 4e 54 9f bd c4 28 90 bd
       0.078141324 0.062193584 -0.07779752 -0.070390254

F.linears.1.weight f4 [32, 32]
000000 b4 fb a9 bb 3d 65 5f 3d 03 a8 f8 3d cc d7 cb 3c
       -0.005187476 0.054539908 0.12141421 0.024883173
000010 19 e8 06 bd b2 81 bf 3d be 8b be 3b c0 65 4b bd
       -0.03293619 0.09350909 0.0058149984 -0.049657583
000020 9e c4 71 bd 90 44 c2 bd b6 98 2a be a3 43 9c 3d
       -0.0590254 -0.094857335 -0.16659817 0.07630088
000030 fb 95 d0 bd 44 10 ef bd bd 10 7a 3d 1b 01 27 bd
       -0.101848565 -0.11673024 0.06105112 -0.04077254
000040 4a 0e ef bd 4d 49 89 3d 43 35 5d bd b5 dc 81 bc
       -0.11672647 0.06703434 -0.054005872 -0.015852312
000050 af d5 1a bd b1 e4 78 3d 9c bd 71 3d e1 fb 18 be
       -0.03780144 0.060764972 0.059018716 -0.14939834
000060 7c 05 30 3e 85 da c8 3b 2d 85 6a bc 08 80 50 3e
       0.17189592 0.006129565 -0.014313978 0.2036134
000070 86 ae ea bd 3b cc ef bd b4 0b c7 3d f0 44 82 3d
       -0.11459069 -0.11708876 0.09719029 0.06360805
000080 50 11 38 3d ff 7c 8d bd aa af 8e 3c d1 e4 a5 bc
       0.044938385 -0.06908607 0.017417748 -0.02025071
000090 56 18 bc 3c ff fc ea 3d e9 10 31 be b7 72 27 bd
       0.022960823 0.114740364 -0.17291607 -0.040880885
0000a0 65 ad e4 bd 2f e0 48 bd 69 6a 12 3e 6b 9f 93 3d
       -0.11165885 -0.049041923 0.14298405 0.07208141
0000b0 55 fc de bc b1 b2 94 bc 36 9f 2f 3d 63 58 69 bd
       -0.02721993 -0.018151613 0.042876445 -0.056969058
0000c0 08 9f 42 3e 46 8d 04 3e 03 b2 f9 bd 85 7d 1e be
       0.19005978 0.12944517 -0.12192156 -0.1547757
0000d0 0c e8 d0 3c 04 d7 8e bd db 89 d4 bd db 1c 0e 3d
       0.025501274 -0.06974605 -0.10377856 0.034695487
0000e0 d9 70 d2 3d ab 50 47 bc 2c c9 7f 3d cd 0d 0e 3e
       0.1027543 -0.012165229 0.06244771 0.13872452
0000f0 b0 55 c8 3d 0e df fc 3c 42 6f 16 bb 8f a3 08 be
       0.097819686 0.03086808 -0.0022954498 -0.13343643
000100 fe 63 48 be 86 63 29 3e ca 05 2b 3e 0d a3 1a 3d
       -0.19569394 0.16541871 0.16701427 0.037753154
000110 12 8a 97 be 6c 1c c3 3c 42 93 53 bd ed b3 11 3d
       -0.29597527 0.023817264 -0.051654108 0.03557198
000120 77 85 11 be 33 3b bf 3d 08 5a c9 bd 9e e5 0e be
       -0.14211069 0.09337463 -0.09831625 -0.1395478
000130 5c 63 1b 3e 28 40 11 3c 56 72 31 be 31 11 86 3d
       0.15174621 0.008865394 -0.17328772 0.06546248
000140 72 4f 01 bd c4 0f 18 3c 53 f2 74 3e 32 aa cb bb
       -0.031569906 0.009281103 0.23920564 -0.006215357
000150 3f e4 b3 3d 64 26 02 3e b9 a6 c2 bc 32 01 d6 3d
       0.08783769 0.12709957 -0.02376114 0.10449447
000160 27 0b 67 3d 56 2a 07 3e 6e b4 04 3e 2c dc 7e be
       0.05640712 0.13199744 0.12959453 -0.24888676
000170 e3 25 90 bd 0e cc 84 3d 7b 02 0c 3e ae e9 38 bd
       -0.07038476 0.06484233 0.13672821 -0.04514473
000180 7e 04 ed 3d 16 56 1d 3e a8 9e 09 3e 63 29 dd 3d
       0.115731224 0.1536487 0.13439429 0.107989095
000190 60 92 8a bd f7 c5 4a 3d 09 65 6d 3d ca 15 02 3c
       -0.067662 0.0495052 0.057957683 0.007939765
0001a0 3b 38 03 be a2 5c 2f be 5e a1 01 3e 64 db 36 bd
       -0.12814419 -0.1712518 0.12659213 -0.04464282
0001b0 74 7a 21 3d f8 de 32 3c 16 80 5b bc 7e cd ce bd
       0.03942342 0.010917418 -0.013397237 -0.10097788
0001c0 5b ee 57 3b 9d a2 0e 3d c4 0f 66 bb 9e 35 7b 3d
       0.0032948467 0.03482305 -0.0035104612 0.06133043
0001d0 4b 9b 80 3d cd 64 ce bc 18 bf 44 3d 64 64 d6 bd
       0.0627962 -0.02519455 0.048033804 -0.10468367
0001e0 a7 49 5f bd 6d 7e 15 bd 5e 7c 57 be f3 dc f4 3b
       -0.0545136 -0.036497522 -0.21043536 0.0074726283
0001f0 52 f9 b7 bd 0e e3 39 bd 29 53 c4 bd f5 00 fe bc
       -0.08983101 -0.04538255 -0.09586174 -0.031006316
000200 ff b9 27 be b1 d5 c6 3c 2b 76 42 3e ba fc 18 bc
       -0.16379546 0.024271818 0.1899039 -0.009337598
000210 2a f3 18 3e f1 26 2d 3e 45 21 40 3d a0 6d 56 3e
       0.1493651 0.16909386 0.04690673 0.20940256
000220 90 19 2d bd f5 95 a0 bb 2b c0 aa 3b 04 2a 00 3b
       -0.042260706 -0.004900689 0.0052108965 0.0019556293
000230 95 5f cd 3d 0e 17 ef 3d e8 87 46 bb 82 d4 44 3e
       0.100279965 0.11674319 -0.0030293409 0.1922169
000240 01 55 1a be b5 30 bb bd 78 90 08 bd 07 b6 1f bd
       -0.15071489 -0.091401495 -0.0333409 -0.038991954
000250 87 c2 f0 3d 73 ac 73 3d 52 6e 3f be 54 c4 97 3e
       0.11755853 0.059490632 -0.18694428 0.29641974
000260 55 1d 8b bd f4 a0 a3 bd 2e c2 03 be a6 36 95 bd
       -0.06792704 -0.07989684 -0.12867042 -0.07285814
000270 be 1a 25 be ee 9d 9e 3a ec 1f 05 3e 61 a2 9f bd
       -0.16123483 0.001210151 0.13000458 -0.07794643
000280 08 30 41 bc f8 78 7a be 2f a0 df 3d b6 b2 b0 bd
       -0.011791237 -0.24460208 0.109192245 -0.086278364
000290 00 ea 6e bb c7 3d d6 3c 32 ab 1d bd 8a f5 ad 3d
       -0.0036455393 0.026152505 -0.038493343 0.084940985
0002a0 e4 fe 61 be 16 99 8e 3d 96 1f 2c be 12 b5 0a be
       -0.2206989 0.069627926 -0.16808924 -0.13545635
0002b0 80 a2 b7 3d 0b 0a d2 39 92 9e 8b bd 55 c8 b7 3c
       0.08966541 0.00040061804 -0.06817354 0.022434393
0002c0 ed 3b 6a bd 9d f5 ee bc f0 3f 32 be 1c 25 e4 bd
       -0.057186056 -0.029169852 -0.17407203 -0.111398906
0002d0 99 dc d1 3c 0b 38 dc bd e4 e8 0d 3e 99 02 02 be
       0.025617884 -0.10752877 0.13858372 -0.12696303
0002e0 17 d6 53 be 55 2f 82 3b b7 e4 04 bd 35 2f 6e 3d
       -0.20687138 0.0039729276 -0.032444682 0.05815049
0002f0 12 8e f8 bc 8a 87 a9 bd c3 35 23 be 69 be 5e 3d
       -0.030341182 -0.08277805 -0.15938477 0.054380808
000300 68 73 e3 3d 1c 4e 09 3e 51 b9 3a 3d dd b3 a6 3b
       0.11105996 0.13408703 0.045586888 0.0050873593
000310 80 8b 54 be 84 5d 1c 3e 4c e3 27 3d 53 fb cf bd
       -0.2075634 0.15270048 0.04098825 -0.10155358
000320 0e 21 6f bd 1c e4 81 bc 4a e9 ac b9 0a 6d 08 be
       -0.058381133 -0.015855841 -0.0003298021 -0.13322845
000330 83 80 b9 bc f0 6e 25 bd ca f2 93 3d 2b 40 44 3d
       -0.022644287 -0.040389 0.07224043 0.047912758
000340 1a 81 42 bc a9 25 ee 3d 5e 18 04 be e0 16 17 be
       -0.0118716005 0.11628277 -0.1289992 -0.1475482
000350 cc 53 ce bd 1c 14 29 3d d3 64 b9 3d bb 12 63 3d
       -0.10074577 0.041278943 0.09052434 0.055437785
000360 bd 03 b3 3c c2 d1 ca 3c 62 8e 9f 3d ac 29 5b 3d
       0.021852368 0.024758223 0.07790829 0.05350654
000370 1a c7 f8 3c 82 54 a0 3d 1a fc d6 bd 6f 06 72 3d
       0.030368377 0.078286186 -0.10497303 0.059088167
000380 ed dc b9 bd c8 0b da 3d 2c 44 a4 bd 3f 2e cc 3d
       -0.090753414 0.10646778 -0.08020815 0.09969758
000390 a2 92 c7 bc 19 48 a0 bd 03 92 cf 3d 45 39 85 3e
       -0.024361912 -0.078262515 0.101352714 0.26020256
0003a0 66 73 93 3d 52 1d 12 be 9a 91 3b be 6c 1c d3 bc
       0.07199745 -0.14268997 -0.18317261 -0.025770389
0003b0 1d c2 0b be c4 7b 13 3e 85 a1 81 3d 02 6f 9d 3d
       -0.13648267 0.14402682 0.063296355 0.07687189
0003c0 da f4 df bd f8 3a 03 3e 05 29 5c bc ea 08 19 bc
       -0.109353736 0.12815464 -0.013437514 -0.009340504
0003d0 d0 03 17 3c 34 6d 34 bd 8e 2a ab 3c e4 cf 59 bd
       0.009217218 -0.044049457 0.020894315 -0.053176776
0003e0 d1 19 21 3d 3c 5c 83 bd 40 04 c1 bb 43 3b ab 3d
       0.03933126 -0.06414077 -0.005890399 0.08360913
0003f0 8c 6d d6 bd d2 14 2e 3e d1 c2 83 be 9f 27 8a 3d
       -0.10470113 0.1700013 -0.2573457 0.067458384

F.linears.1.bias f4 [32]
000000 41 d4 0f 3b 46 35 8a bc 31 2f 4e bd 8a df b3 bd
       0.0021946582 -0.016871106 -0.050337974 -0.08782871
000010 f2 73 99 3c 0b 8a ad bd 36 8d f8 3b e4 9e 9e bb
       0.018732045 -0.08473595 0.007585193 -0.0048407186
000020 2f f2 ba bd 9a a3 af bd a9 be a9 3d ee 8a 8e 3d
       -0.09128224 -0.085761264 0.08288319 0.069600925
000030 ce e4 a4 3d 2e 4f ee bc 40 19 58 3d a5 99 94 3d
       0.080514535 -0.02909049 0.052758455 0.07255868
000040 26 a5 85 3d d6 92 26 bd 32 87 2b 3d f5 72 d3 3d
       0.0652564 -0.040667377 0.04187698 0.10324661
000050 ae 8a a6 bc 36 26 fa bc b2 cd 55 bd 24 49 64 bd
       -0.0203298 -0.030535799 -0.05219812 -0.055733815
000060 2c 25 95 3b 3c fd 9c 3d d8 b3 46 3b 6f f9 a3 3d
       0.0045515504 0.07665488 0.0030319598 0.0800656
000070 67 74 47 bd 3f f2 9e 3c 9a 2d 03 bc d1 4f 17 bd
       -0.048694994 0.019402621 -0.008006478 -0.036941353

F.linears.2.weight f4 [10, 32]
000000 1c e9 82 bc c1 76 90 3d 78 bb 83 bd 9a fa f9 b9
       -0.015980296 0.070539005 -0.06432241 -0.00047679694
000010 37 96 cc bd 90 d7 ed bb 35 52 ac bd 9f e4 b8 bd
       -0.09989589 -0.007258363 -0.08414117 -0.09027981
000020 31 c3 ae 3d 16 32 97 bd 71 20 ad bd a6 b5 b0 3d
       0.085333236 -0.073826 -0.08453453 0.08628397
000030 a5 e8 cc 3d 20 db e4 bc dd ff 87 bc d6 0b 29 bd
       0.10005311 -0.027936518 -0.016601497 -0.041271053
000040 80 8b 82 bd b0 3a bf bb 1d ef 01 be ec fb c5 3c
       -0.06374264 -0.0058358535 -0.1268887 0.024167977
000050 e0 7c e8 bd 9e f3 0a bd 05 dd c0 bd 94 bf 94 bc
       -0.11351943 -0.033923738 -0.09417156 -0.018157758
000060 d2 c6 81 3c ec 28 d2 3d 41 f8 de bd e0 f0 f5 ba
       0.015841875 0.102617115 -0.108871944 -0.0018763803
000070 af 91 1c 3e 50 1d 83 3d 90 ff 1a be 88 f9 48 3e
       0.15289949 0.06402075 -0.15136552 0.19626439
000080 c3 c0 5e 3c 8f 12 4d bd 38 6e 09 3e c9 e3 19 3d
       0.013595763 -0.050066527 0.13420951 0.03757075
000090 4b 9a b8 3d 04 90 f4 3c 74 45 bf bd fb 1a 65 bd
       0.09013804 0.029853828 -0.09339419 -0.055933934
0000a0 d0 0a 3c 3e ba 19 96 bd 98 97 fc 3d 5a 0c 65 3e
       0.183635 -0.07329126 0.12333602 0.22367993
0000b0 cc d5 22 be da 7b a6 bb 2e d8 13 bd be e7 60 3d
       -0.1590187 -0.005080682 -0.036094837 0.054908507
0000c0 97 48 10 be 78 ee c3 bb 0d 98 52 3d 03 d4 71 bc
       -0.14090191 -0.0059793554 0.05141454 -0.01476002
0000d0 78 86 09 be 2c 1d 45 3e 39 77 a7 3c 13 84 86 3d
       -0.13430202 0.1924941 0.020442592 0.0656816
0000e0 35 a4 0f be a6 6c 03 bc e6 ed 41 bd a0 38 46 3d
       -0.14027484 -0.008021509 -0.04734602 0.048393846
0000f0 6a 3f 2d 3a a0 70 82 3d fa 21 49 3c e8 26 96 3b
       0.00066088757 0.06369138 0.012276167 0.0045822747
000100 7a ff 1d 3e 92 4e e3 bc 18 72 30 bc 74 e2 fb 3c
       0.15429488 -0.027747426 -0.01076939 0.03074763
000110 e1 95 96 3c 24 d0 fd bd 8e 65 6e bd 32 35 39 3d
       0.018382015 -0.12393215 -0.05820232 0.045216747
000120 b3 44 70 bc c9 11 2e 3e ca 78 97 3c 59 80 70 be
       -0.014664817 0.16998972 0.018490214 -0.23486461
000130 99 e6 ec 3c eb 33 91 3c bf 05 a7 3d bb 13 24 3c
       0.028918551 0.017724952 0.08155393 0.01001447
000140 0f b7 50 be f4 0a 65 bd ee 74 80 bc 46 f7 4c bd
       -0.20382331 -0.05591865 -0.015680756 -0.050040506
000150 cc 56 79 3d a4 98 dc bc d8 60 12 3e fb bb ab bb
       0.06087379 -0.026928253 0.14294755 -0.005240915
000160 1d 4d fd 3d 0a 0a 6a bd d9 00 96 3c fd 4b d1 3d
       0.12368224 -0.05713848 0.018310951 0.10219572
000170 43 c4 0b be 29 56 8c be f7 1b b4 3d d1 67 f4 bd
       -0.13649087 -0.27409485 0.08794396 -0.11933864
000180 d1 08 29 3d 34 b2 55 bd 5b b6 bc bd 8c e6 43 bd
       0.041268174 -0.0521719 -0.09214469 -0.04782729
000190 0a 04 05 3e 0e b9 63 3d cf a0 af 3b 51 b5 70 bc
       0.12989822 0.055596404 0.005359746 -0.014691667
0001a0 44 69 99 bd 4c 05 a8 3d 08 c5 8c bd d3 f2 60 bd
       -0.07490781 0.08204135 -0.06873518 -0.054919075
0001b0 75 ae 28 3d 36 99 50 3e 59 a2 b8 bd 18 aa 3a be
       0.041182 0.20370945 -0.0901534 -0.18228948
0001c0 6f a5 fb bd 0f 37 cc bc 96 f1 82 bd b8 b7 15 3e
       -0.12287413 -0.024928598 -0.06393735 0.14620864
0001d0 ed a1 8b bb 66 90 ff bc 83 60 41 3e 69 d6 ad bd
       -0.0042612464 -0.031196784 0.18884473 -0.08488161
0001e0 84 f8 38 be 62 78 94 3d b8 38 c9 bd 05 e2 5a 3d
       -0.18063551 0.07249524 -0.09825271 0.053438205
0001f0 d9 cd f3 bd ff 66 ec 3c 5c 77 5a bd c5 38 c1 bd
       -0.11904497 0.028857706 -0.053336486 -0.09434656
000200 fb 91 68 3d 18 fe 5e 3d 12 16 c4 bd 04 75 29 3d
       0.056779843 0.05444154 -0.09574522 0.04137136
000210 4f 43 07 3e 31 f8 58 3e af 28 8e 3d 41 8b 67 be
       0.1320927 0.21188428 0.069413535 -0.22611715
000220 1d a8 99 3d 22 08 b6 3d c8 a3 d2 bc 91 39 19 be
       0.07502768 0.0888827 -0.025712863 -0.14963366
000230 b1 26 12 3e 19 f5 ce 3d 55 22 a9 3d cd 30 c0 3d
       0.14272572 0.101053424 0.082585014 0.09384308
000240 7a e8 12 3d 54 9c bb bd c1 85 9d bd de 8d 2b be
       0.03586624 -0.091606766 -0.07691527 -0.16753337
000250 62 fb f2 3d 2f 20 e8 3c dc 5e 58 3d 21 d5 0c 3e
       0.11864354 0.028335659 0.05282484 0.13753177
000260 aa 77 b2 bc a8 45 2c 3e b5 3f 63 bd 4e 76 b5 bd
       -0.021785576 0.16823447 -0.055480678 -0.088604555
000270 20 eb c0 3c 0a 9d 29 be 4b b8 ef bd cb 66 84 3b
       0.023549616 -0.16563812 -0.11705073 0.004040574
000280 9e 20 3c be fd 97 15 be 02 f3 5b bc 0c 0c 9a bd
       -0.18371817 -0.1460876 -0.013424637 -0.07521829
000290 68 82 7d 3e 1c ea 6e 3d f0 27 bd bd f8 88 70 3d
       0.24756777 0.058328733 -0.09236133 0.058724374
0002a0 84 5d bb 3d 33 91 be bd 13 17 30 bd 11 51 da 3d
       0.09148696 -0.09305038 -0.042990755 0.106599934
0002b0 f1 a4 00 3d 94 09 dd bd df ef 00 bd 5d 04 00 be
       0.0314073 -0.107928425 -0.03147876 -0.12501664
0002c0 8e 18 10 be 80 3e 10 3e cc d6 ba bd e8 67 7e 3e
       -0.14071867 0.14086342 -0.091230005 0.24844325
0002d0 74 c1 f8 3d 67 c5 7a bd 3c 8c 14 3e 1e b2 c5 bd
       0.12146273 -0.061223414 0.1450662 -0.09653114
0002e0 00 03 e1 3b ae 1f 1c bd ad 8c 1c bd 5d 6d f6 bd
       0.0068668127 -0.03811615 -0.038220096 -0.12032578
0002f0 03 e3 c6 bc 98 f6 72 bb af 15 29 3e 4e df d1 bb
       -0.02427817 -0.003707325 0.16512178 -0.006404794
000300 be a3 98 3d ea 6d d6 bc 37 20 17 be 19 9f a5 3d
       0.07453106 -0.026175458 -0.14758383 0.08086986
000310 ae 31 2f bd 62 4e 39 be af a9 91 bd b9 76 0f 3e
       -0.042771988 -0.18096307 -0.07112443 0.14010133
000320 e7 9c c3 bd 63 a8 7d 3d 36 67 9f bd ee 05 00 be
       -0.09551411 0.061928164 -0.07783358 -0.12502262
000330 b1 99 ce 3c 50 49 48 3d 9e 8c 9e bd 27 54 47 3c
       0.02521977 0.04889804 -0.07741664 0.01216606
000340 2a 9e 04 bd 95 4e 83 bb a9 0f 40 3d 87 2f 08 3e
       -0.0323774 -0.0040071704 0.046889935 0.1329938
000350 05 80 22 bb 20 19 3f 3e 0c 71 60 be ef 45 2b be
       -0.0024795544 0.18661928 -0.21918124 -0.16725896
000360 e3 34 3b be 34 90 30 be b7 36 85 bc 3c ef 57 39
       -0.18281893 -0.17242509 -0.016261442 0.0002059312
000370 ba 32 11 bd e6 7a f0 bd ab ff 83 bd ef db 01 be
       -0.035448767 -0.11742191 -0.06445249 -0.12681554
000380 22 33 15 bd 58 a5 a9 3d 66 e8 06 3c b4 49 0b 3d
       -0.036425717 0.0828349 0.008234119 0.034005836
000390 c9 99 e4 bd 58 58 8b 3c 60 af 5e bd bc c4 95 3d
       -0.11162145 0.017009899 -0.05436647 0.07312915
0003a0 35 ec 2a 3c e8 a7 c1 3b 71 45 1d 3d de 02 e6 3d
       0.010432293 0.0059099086 0.038396303 0.112310156
0003b0 d7 f2 23 3d 4c 05 3b 3b 02 b8 21 3e 14 33 cb 3d
       0.040026512 0.0028537093 0.1579285 0.09921852
0003c0 59 9b 43 3e 16 d6 cb 3d 86 6d 39 bd 4f 27 00 be
       0.19102229 0.09952943 -0.045270465 -0.12514995
0003d0 c6 d8 9f 3d 4b d7 04 be bf 24 cd 3c 79 1b a6 bd
       0.07805018 -0.12972753 0.025041936 -0.08110709
0003e0 49 54 e2 bd 1d a7 fd bc 9b b2 57 bd 25 3c 10 be
       -0.11051232 -0.030963475 -0.052660566 -0.14085443
0003f0 1b 01 93 3d ab 0d 82 be 40 c3 6f 3d 1b 3c b4 3d
       0.07177945 -0.25401053 0.058535814 0.08800527

F.linears.2.bias f4 [10]
000000 2c 67 0a 3d 70 55 c7 bd 43 9a e8 bc a9 2c f1 3c
       0.0337898 -0.09733093 -0.02839387 0.029440241
000010 39 7c b1 bd 9f c6 c8 3d 3b f1 c9 3d 9c 73 f2 3c
       -0.08666272 0.09803509 0.09860464 0.029596142
000020 de c0 99 3d b1 58 99 bc
       0.075074896 -0.01871905

G.0.linears.0.weight f4 [32, 10]
000000 64 e6 ea 3c 0d 1a ed 3c 76 f2 6f bc 44 a0 87 bd
       0.028674312 0.028943086 -0.01464521 -0.06622365
000010 ca eb ec 3d 4c e3 df bd 77 45 4f be f6 25 ea bd
       0.11568411 -0.10932025 -0.20241342 -0.11433022
000020 b9 66 02 bc 75 5c 17 3d cd aa ed bd 6f d3 a9 bc
       -0.007959061 0.03695341 -0.11604843 -0.020730702
000030 c8 42 96 bd 38 24 9d 3c 09 b8 95 be 1b 42 a9 3c
       -0.07336956 0.01918231 -0.2924197 0.020661404
000040 a4 a6 38 3d 10 ef 5f 3d 26 80 a8 3d 39 1d fb bd
       0.045080796 0.054671347 0.082275674 -0.12261433
000050 48 23 81 3d 18 6f 57 3e 5a 35 af bc 3a 1d 13 3c
       0.063055575 0.21038473 -0.021387745 0.008979136
000060 14 3d f7 bd d3 86 00 3d d4 5b 86 bc 35 87 0e bc
       -0.120721966 0.03137858 -0.016401209 -0.008699228
000070 49 a0 17 be fb 41 38 3d fc 63 5c be 8c 88 e2 3d
       -0.14807238 0.0449848 -0.21522516 0.110612005
000080 5f 7a 93 bd 41 8c 9c 3d fb 68 b5 3d f6 f5 ac 3d
       -0.07201075 0.07643939 0.08857914 0.08445351
000090 54 f5 b5 bd 03 ca d6 3d 6e bd d9 bd 3f 76 af 3d
       -0.08884683 0.104877494 -0.10631834 0.085674755
0000a0 cb 15 fd 3c 10 e5 9c bd 7d 04 02 3e 47 23 a2 bd
       0.03089418 -0.07660878 0.12697025 -0.07916885
0000b0 66 41 07 be 53 88 c9 bd 1c a9 0c 3e 7d 14 f4 3d
       -0.13208541 -0.09840455 0.13736385 0.1191797
0000c0 02 2a 67 3d db 17 a9 3d 06 05 13 be e8 9a 50 3c
       0.056436546 0.08256503 -0.14357385 0.012732245
0000d0 2e af ca bd 28 74 2a 3c bb 97 ae 3a 92 1a 1c be
       -0.09896694 0.01040367 0.0013320366 -0.15244511
0000e0 ff 98 57 3e 65 57 0e 3d 6a 7b 50 3d ed d0 dd bd
       0.21054457 0.034751315 0.050898947 -0.10830865
0000f0 32 4b 84 3d 23 eb aa bb 09 e9 c0 3d 7e 35 ab 3d
       0.06459655 -0.0052160188 0.09419448 0.08359812
000100 ed c1 a5 bd 23 00 5c bd de 86 c8 3d 0f 5e d6 bb
       -0.08093629 -0.053711068 0.09791349 -0.0065419744
000110 c8 a0 9f bd aa fd 30 3c 21 c2 6b bc 88 a2 64 3d
       -0.077943385 0.010802666 -0.014389546 0.055819064
000120 f8 6b e8 bd 97 2a 5e bc f4 03 e1 3d a2 93 a5 3d
       -0.113487184 -0.013559959 0.10987082 0.08084799
000130 9e 38 43 be 70 9f e0 3b c3 38 5c 3e c5 5e 07 bd
       -0.19064566 0.006854944 0.21506028 -0.033049364
000140 e5 05 0c 3e 92 d6 2c be 74 c0 7f 3a 39 b3 cc bc
       0.13674124 -0.16878727 0.0009756156 -0.024987804
000150 0b db 50 bd 24 49 e2 bd e8 53 85 bd 45 86 97 bc
       -0.050990146 -0.11049107 -0.065101445 -0.018496642
000160 64 ff 01 be 2a 6a 2a 3d 92 92 0c bd 35 0e 01 be
       -0.1269508 0.041605152 -0.034319468 -0.12603076
000170 1a e5 36 be e7 62 de 3d 7c 6e f3 3d 60 4c 35 3d
       -0.17860833 0.10858708 0.118863076 0.04426229
000180 3b fd e7 bb 1b ad cd bd bd 1e 78 3c fc 2b 4f 3e
       -0.007079748 -0.10042783 0.015144047 0.20231622
000190 d6 87 84 3e ce 23 1c be 2d ab 0d bd cf 35 9c bc
       0.25884885 -0.15248033 -0.034587074 -0.019068627
0001a0 2e a4 b2 bd 6b 5e c0 bd 94 d6 aa 3d 6d 9a 7a 3d
       -0.08722721 -0.09393009 0.08341709 0.06118243
0001b0 34 96 1c 3e d1 62 c6 3d cd 58 18 bd c4 1d 0c 3d
       0.15291673 0.096868165 -0.037194062 0.034208074
0001c0 f5 4a bb 3d 44 a7 b0 3b 04 78 8a bd 22 e7 9e bc
       0.09145156 0.0053910334 -0.067611724 -0.019397322
0001d0 06 5c ae bd 1f c9 c6 bd be 8e 47 3e 21 88 d3 bc
       -0.08513646 -0.097063296 0.19488046 -0.025821747
0001e0 84 f4 0d be 20 ff a0 bd 1a 5a 3e ba fb 7a 67 bd
       -0.13862807 -0.07861161 -0.0007261351 -0.056513768
0001f0 bc 4f 5e be 6f 9f 98 3d 5f 83 19 bd 37 f0 84 3d
       -0.21710104 0.074522845 -0.0374788 0.0649113
000200 cb e0 01 be ca fc 3a 3e 37 4a a6 bd bb d8 9e 3c
       -0.12683408 0.18260494 -0.08119624 0.019390455
000210 7f 9e 47 3e 55 f4 e4 3c 7a 6f 05 3e e6 8a 43 bc
       0.19494055 0.027948538 0.13030806 -0.011934971
000220 18 de 2c 3d 73 22 90 bc 70 77 e6 bd 95 2e fe 3d
       0.042203993 -0.017594552 -0.1125325 0.124112286
000230 c9 7d 32 3c d1 2e a5 3e 8e 74 65 be 83 1f 85 3d
       0.010894247 0.3226228 -0.22407743 0.06500151
000240 a6 fa 84 bd d6 9e b9 3a a6 7b 07 3e 6d 2c b8 3d
       -0.0649312 0.0014161717 0.13230762 0.089928485
000250 bc be 3d 3e ec 43 f0 bd a6 fa 5f 3e 2e af 62 3d
       0.1852979 -0.11731705 0.21872959 0.055342846
000260 4a c9 9c 3d 5e 2a 84 3b ae ad 9d 3d dd 76 b2 3d
       0.0765558 0.004033371 0.076991424 0.087140776
000270 0d ff ba bd 4f 2c 26 bd 79 8b 49 3d 80 d6 97 bd
       -0.09130678 -0.0405696 0.049205277 -0.074139595
000280 0e 86 7a bd 37 a7 10 bd 59 17 b7 bc b5 6e 15 3e
       -0.061163 -0.03531572 -0.02235 0.14593013
000290 12 78 c2 bc f2 3e 82 3d 30 e3 b9 bd 7a 60 af 3d
       -0.023738895 0.06359662 -0.09076536 0.08563323
0002a0 15 91 aa bb 0c f1 53 bd 44 62 15 be aa e3 16 bc
       -0.0052052834 -0.051743552 -0.14588267 -0.009209553
0002b0 e6 60 7d be f7 9b 5d 3d 0b fa 93 3d 23 89 57 be
       -0.24743995 0.054103818 0.07225426 -0.21048407
0002c0 94 21 a5 3c 63 ad d2 3d d7 e0 20 be f0 ca 1c bd
       0.020157613 0.10286977 -0.1571077 -0.038279474
0002d0 5c 2a 4b 3e 96 ac 21 bd 59 c5 1e be ae 19 4b be
       0.19840378 -0.03947123 -0.1550497 -0.19834015
0002e0 1f e2 45 3d 58 c8 02 3c 71 0f 14 3e 41 38 03 3e
       0.04831135 0.007982336 0.14459015 0.12814428
0002f0 14 93 0c 3e bd 6f d5 bd ff 0a b2 3d 97 1e d7 3d
       0.13727981 -0.10421703 0.086935036 0.105038814
000300 75 d6 9a 3c 9b 61 ac 3d 6e e8 9a bd 3c 5b ad bd
       0.01890109 0.08417054 -0.07563864 -0.08464667
000310 ee 69 64 3d 1a 61 7c bd 1e 64 1f 3e b8 b9 07 3b
       0.055765085 -0.06161604 0.15565535 0.0020710062
000320 ff 52 d2 bd 37 d2 86 3e c2 f7 85 3c db c8 1c 3e
       -0.102697365 0.26332256 0.016353492 0.15310995
000330 a9 68 8d bc 8e 85 96 bb c7 e5 ab bc 72 1e b5 3b
       -0.01726182 -0.0045935577 -0.02098359 0.005527311
000340 27 3c 8d bc f4 59 90 3d 8c 2f 3f 3e 22 9c af 3c
       -0.017240597 0.07048407 0.18670481 0.021436755
000350 93 ec 51 3c 1e 89 92 bc ea 0f 9d 3c 0a 1a 30 3d
       0.012812751 -0.017887648 0.019172627 0.042993583
000360 e8 07 e4 3c b2 9e cd bd e5 c7 18 bd 1a a7 a0 3c
       0.027835801 -0.10040034 -0.03730001 0.01961093
000370 cc fc d6 bd 05 5b 01 be cb 4a a1 3d 0e 2b 22 3e
       -0.10497436 -0.12632377 0.07875594 0.15836737
000380 14 dd 40 bd ca 6a 15 3e 8e ba 43 3e 43 70 68 3c
       -0.047085837 0.14591518 0.19114134 0.0141869215
000390 cb 8a 76 bd 60 09 f2 3c 83 8b 78 3e aa ec 9a 3c
       -0.060190957 0.029545486 0.2427197 0.018911678
0003a0 cc eb 02 be 15 5c 63 3d 9c 33 90 bd ce 5e 9e 3d
       -0.12785262 0.05550774 -0.07041094 0.07732926
0003b0 91 65 c6 3d 98 4a 4f 3d 03 97 22 3e b3 68 b0 3d
       0.09687341 0.050608248 0.15877919 0.0861372
0003c0 3b 82 34 3d 17 ef 19 be b5 f0 a9 3c 26 df bc bd
       0.04406951 -0.15032612 0.02074466 -0.0922225
0003d0 26 02 31 bd be 8c 0e be ce 24 57 3c a2 60 38 3e
       -0.04321494 -0.13920876 0.0131313335 0.18005612
0003e0 d6 22 48 bd e7 52 9b 3d fc ca d8 bd c7 48 f7 bd
       -0.048861347 0.07584172 -0.10585591 -0.12074428
0003f0 f6 da bf 3d 62 c9 e1 3c ae 83 8a bd 4a 45 fc bd
       0.09367935 0.027561847 -0.06763397 -0.12317903

G.0.linears.0.bias f4 [32]
000000 23 cd 84 bc ce b5 78 3d 34 37 59 bd ab da 8a 3d
       -0.016211098 0.060720257 -0.05303116 0.06779989
000010 19 8b 68 bd 78 78 9f 3c 36 1f 55 3d f6 d3 34 bd
       -0.05677328 0.019466624 0.05203172 -0.044147454
000020 3f fd b7 3d fe e2 a9 bd 37 a8 9e bc f8 b8 6f bd
       0.0898385 -0.082952484 -0.01936732 -0.05852601
000030 6f 73 8a 3d e8 24 a8 bd 13 2c 6c bd 1a 70 19 bd
       0.067602985 -0.08210164 -0.05765922 -0.037460424
000040 15 e6 52 bd b6 a2 81 bd 38 fa a8 bc 2d 25 33 3d
       -0.051488955 -0.06329863 -0.020627126 0.043736625
000050 e7 68 87 3c 11 ee b5 3d 9f 3d 66 bd 5e 78 b8 3d
       0.016529514 0.08883298 -0.05621111 0.09007333
000060 7c e1 d2 3c bb 6d a7 bc 92 ea b5 bd 12 5e 65 3d
       0.025742285 -0.020438066 -0.08882631 0.055997916
000070 ca c1 7d bb 05 69 96 bd d7 34 87 bd 6a d1 b8 bc
       -0.0038720244 -0.0734425 -0.06601875 -0.022560794

G.0.linears.1.weight f4 [32, 32]
000000 fc a8 b4 bb a9 86 0c 3e 7b a8 9f bd ac e9 0c bd
       -0.0055133086 0.13723244 -0.07795807 -0.034402534
000010 ba 7e 30 3d 7a 0d 2d 3e b6 24 23 be ec cd 24 3d
       0.043089606 0.16899672 -0.15931973 0.040235445
000020 42 fd 15 3d 0b d2 82 3d 6d 30 01 3e 4f 81 76 bc
       0.03661848 0.06387719 0.12616129 -0.015045478
000030 7a c3 b1 bd fe 1c 48 bd c4 da 6a 3c a4 e4 e7 bd
       -0.08679862 -0.048855774 0.014334384 -0.113229066
000040 f7 96 80 3e 56 a4 03 3d 67 ac 41 be c0 e2 60 bd
       0.25115177 0.032139145 -0.18913423 -0.054903746
000050 f8 7e 08 bd 3b 87 b7 3d 89 b7 b2 bd 4c ee 78 3d
       -0.03332421 0.0896134 -0.08726413 0.060774133
000060 f0 41 91 3b c6 3b a0 3d aa f2 f4 3c 8c d9 b2 3d
       0.004432909 0.07823901 0.029900867 0.087329
000070 4e f7 07 bd 2a c1 e7 bd 4d 2f 06 be bf 5f a6 bd
       -0.033194833 -0.1131614 -0.13103981 -0.08123731
000080 01 a1 31 bd 2b 0f fc bd 29 9d 03 3e 65 56 84 3c
       -0.043366436 -0.123075806 0.1285292 0.016154477
000090 f5 88 00 3d c6 2a f2 3d e1 f8 9f bc 45 ed c6 bc
       0.031380612 0.11824565 -0.019527854 -0.02428306
0000a0 71 5a 84 3d 25 f1 5e 3d 31 21 5d bc b3 59 05 3b
       0.06462563 0.054429192 -0.013496683 0.0020347654
0000b0 dc 47 be bc ca b3 b7 3c c8 c6 d6 bd 42 48 3e 3e
       -0.023227625 0.022424597 -0.10487133 0.18582252
0000c0 56 ba 2b bd f0 0c 8d bc d3 d5 c7 bc 5c e3 a6 3d
       -0.04192575 -0.017218083 -0.024393952 0.08148834
0000d0 c9 02 53 3e 01 86 1a 3e a2 47 d8 bd d3 ef 09 3b
       0.20606531 0.15090181 -0.10560538 0.0021047487
0000e0 b6 fc 51 3e 55 17 cd 3c c1 bc 8f bd c4 25 77 bd
       0.20506558 0.02503554 -0.07018424 -0.06033875
0000f0 b7 33 92 3d f2 34 c5 bd 43 a8 21 3e 47 01 7c 3d
       0.0713877 -0.09629239 0.15786843 0.061524656
000100 b6 59 bc 3d 36 12 f1 bd e1 65 e4 3d 1c 30 bd 3d
       0.091967985 -0.117710516 0.11152244 0.09237692
000110 b5 df 8f bb 4e 1d 82 3e 83 4e b7 bd 5e 3e 5d bd
       -0.0043906816 0.25412983 -0.08950522 -0.054014556
000120 0d 74 b6 3d 1e 79 c8 3d c6 fa cd 3d 98 f0 9b 3c
       0.08908854 0.09788726 0.10057597 0.019035622
000130 fe 6c 13 3d 01 c0 04 bd 59 48 bf 3b 3b 17 06 be
       0.035992615 -0.03240967 0.005837482 -0.13094799
000140 47 0d 87 bd 3d 93 2e 3e a5 a7 83 3c 3f 4e 26 be
       -0.06594329 0.17048354 0.01607115 -0.16240786
000150 eb 0f 91 3d 12 7f c0 3d 02 cf c6 bd 69 58 55 bd
       0.07083114 0.09399237 -0.09707452 -0.052086268
000160 87 08 c6 3d 0f 06 d4 3d 4a 9e 39 3e 1f 5c 40 3e
       0.09669595 0.10352718 0.18126789 0.18785141
000170 00 4b 1c be a5 d9 58 3e 54 71 b1 bd 87 22 a1 bc
       -0.15262985 0.21176775 -0.08664194 -0.019669784
000180 64 e4 15 3d 82 33 e1 bc 20 f9 1c be 93 c3 c3 bd
       0.036594763 -0.027490381 -0.15329409 -0.09558787
000190 36 7f 89 3d 0a 14 e2 bd 69 4a 1e be 92 92 82 3c
       0.06713717 -0.110389784 -0.15458073 0.01593903
0001a0 6b 4f 2d bd f2 02 2e 3d b7 a3 79 3d 76 31 28 3d
       -0.042312067 0.042483278 0.060947146 0.041062795
0001b0 61 97 9c bd e2 bc 82 bd 56 e4 94 bb 23 08 07 bd
       -0.07646061 -0.06383683 -0.0045438213 -0.032966744
0001c0 0d db 70 be 31 2b 8d 3c 58 cd da 3d 7d 7c e0 3c
       -0.23521061 0.01723251 0.106836975 0.02740311
0001d0 80 e5 9a bc bb fa f0 bd 1c bb 0a bd 96 d2 e6 bd
       -0.018908262 -0.11766573 -0.033869848 -0.11270635
0001e0 25 53 60 bd f8 24 4e 3c 88 c3 e7 bc ab f2 af 3d
       -0.054766793 0.012582056 -0.028291479 0.08591207
0001f0 49 fb af bb 44 4a eb 3d 2f 78 33 be 55 1b 20 ba
       -0.0053705317 0.114887744 -0.17526315 -0.00061075884
000200 1b 62 1f 3d 7c b1 f5 bc 21 2b 33 3e 19 51 e6 3b
       0.03891192 -0.029991858 0.17496921 0.0070287106
000210 a0 74 11 be a1 77 7b 3d 31 7d c3 3c f0 d5 b6 3c
       -0.14204645 0.061393384 0.023863407 0.02231881
000220 c6 0f 0e bd f0 61 cf bb f1 16 85 3d 24 62 e3 bd
       -0.03468301 -0.0063288137 0.06498516 -0.11102703
000230 bb 31 f7 bd 57 52 94 3d 11 63 70 3d 4f a4 d0 bd
       -0.12070032 0.072422676 0.058688227 -0.101875894
000240 85 a0 93 bd 15 32 a6 bc 40 4e 19 3e db a9 2e bd
       -0.07208351 -0.020287553 0.14971256 -0.042642456
000250 ae 54 97 3d 1a d9 ff 3d bb 05 0d 3e 3c 3b 66 bd
       0.07389198 0.12492581 0.13771717 -0.056208834
000260 ba 07 24 bd fe db 75 3c e3 b2 f2 3d eb d9 06 3e
       -0.04004643 0.0150060635 0.11850526 0.13169067
000270 30 a8 8f bd 86 7d e3 bd e7 86 0e 3d 27 47 7e 3d
       -0.07014501 -0.11107926 0.03479662 0.062079575
000280 7f cf 24 be b6 92 e2 3d d4 85 50 bc 07 32 07 bd
       -0.16094778 0.11063139 -0.01272722 -0.033006694
000290 ff 6d 55 3e 53 39 e7 3b 14 0e ac bd 22 53 a0 3d
       0.20842741 0.007056394 -0.08401123 0.07828356
0002a0 ae 87 09 3d eb 32 43 bd 71 3f 71 bd fc 31 6c 3c
       0.03357666 -0.04765598 -0.058898393 0.014416214
0002b0 61 17 86 3d 59 37 ec bc e6 0f 32 3d bb b2 04 bd
       0.06547428 -0.028834986 0.043472193 -0.032397013
0002c0 d0 c9 8a bc b3 c3 5f 3d 53 da b2 bd ae 84 d4 3d
       -0.016941935 0.054629993 -0.08733048 0.10376869
0002d0 bb 9d 46 3d 12 a2 f2 3d 8f 1f 8c 3c f8 df 6a be
       0.048490267 0.11847319 0.017104892 -0.22937
0002e0 42 90 7c bc fa 2c 51 be af 1d 9c bd 1c 96 1a bd
       -0.015415253 -0.20427313 -0.07622849 -0.03774081
0002f0 59 6c 88 bc d8 f5 1b be a8 eb c7 bd 21 f3 45 3d
       -0.016653227 -0.152305 -0.09761745 0.04832757
000300 21 0e 4d 3d 2b f4 28 be e5 ce 9c bd 76 b9 07 3e
       0.050062303 -0.16499393 -0.076566495 0.13254341
000310 4b d5 7f bd c6 d1 4a bd 8a 73 94 bd e0 e5 66 3e
       -0.06245927 -0.04951646 -0.072486 0.22548628
000320 3c 16 ac bd f1 b9 bf bc ae 17 0a bd 8b df d2 3d
       -0.08402678 -0.023404093 -0.03371399 0.10296544
000330 59 2c 82 bb 33 c0 3f 3b 02 95 1d 3d 18 9f 82 3d
       -0.003972572 0.0029258847 0.038472183 0.06378001
000340 06 4a 0b bd 27 04 ee 3d c8 f0 21 3e 69 3f 20 3d
       -0.03400614 0.11621886 0.15814507 0.039122973
000350 a3 d5 82 bb 4e c4 0a be 36 7a 41 3c ac 26 39 bd
       -0.0039927526 -0.13551447 0.0118089225 -0.045202896
000360 23 66 e5 bd ae 6a 9f 3d 6f 18 92 bd df b9 0b 3e
       -0.11201122 0.077840194 -0.071335666 0.13645123
000370 86 4f d0 bb 11 4c 71 3c ba 98 24 bc 79 34 2f 3e
       -0.006357136 0.014727608 -0.0100461785 0.1710986
000380 c4 74 06 3e ac 80 5a bc 12 c1 97 3c fd 5f 9f 3d
       0.1313048 -0.013336342 0.01852468 0.0778198
000390 27 2c 6c bc d2 79 cb bd 20 46 87 bd df be ab 3c
       -0.014414824 -0.09935345 -0.06605172 0.020965038
0003a0 42 22 c3 bd 9a 6c 51 3d ce d3 33 bd b9 3f 2a be
       -0.095280185 0.05112896 -0.043903165 -0.16625871
0003b0 29 59 17 bc fa c9 ba bc c5 91 ae bd df 44 18 be
       -0.009237566 -0.022801388 -0.08523897 -0.14870022
0003c0 4c 52 3f 3d f8 33 99 3d 75 85 a7 bd 8d b5 09 3e
       0.046709344 0.074806154 -0.08179752 0.13448162
0003d0 04 16 94 bd 38 8c a0 3d b4 46 2a bc ab a4 0f 3c
       -0.07230762 0.078392446 -0.0103928335 0.008767287
0003e0 d4 20 16 be 65 0f 84 3d 10 10 ae 3c a6 87 b6 3d
       -0.1466096 0.06448249 0.021247894 0.08912592
0003f0 c2 56 e4 3c 09 e0 57 3e 32 cc ab bc 6d 79 3b 3c
       0.0278734 0.21081556 -0.020971391 0.011442524

G.0.linears.1.bias f4 [32]
000000 50 0f d0 3d 36 96 a8 3d cc eb 0d 3d b7 cd 7d 3d
       0.10159171 0.082317755 0.0346487 0.061963763
000010 c5 19 1b 3d cd f5 39 3d 1e 37 3d bd 48 7a 29 bc
       0.037866373 0.04540043 -0.046195142 -0.0103440955
000020 06 6f 0b bd d4 ee a2 bd de dc 89 bd 8a 75 9c 3d
       -0.034041427 -0.07955709 -0.0673158 0.07639606
000030 6b c9 d6 3d 2c 86 0e 3c 8e 0c b5 3d b6 bc a9 bd
       0.10487636 0.008698981 0.08840285 -0.08287947
000040 2b 74 c6 bd 9b 0b ad 3d 52 db 8e bd 87 50 74 3d
       -0.09690126 0.08449479 -0.06975426 0.05964711
000050 2d 62 6f bc d0 22 6f bc e7 bf 35 3d c2 a7 33 3d
       -0.014610809 -0.014595702 0.044372465 0.04386116
000060 fe 34 89 bb 25 9c d1 3d d8 af 9e 3d 3d d5 99 bc
       -0.0041872254 0.1023486 0.07748383 -0.018778438
000070 50 ef 54 3c 16 05 c6 bc ea 59 7f 3b 6d 41 65 3b
       0.01299651 -0.024172347 0.0038963505 0.0034981624

G.0.linears.2.weight f4 [10, 32]
000000 5a 99 82 bd 6d 33 2e 3d d4 4b ce 3d 8f 5a 54 3c
       -0.06376906 0.042529512 0.10073057 0.012961044
000010 d5 73 18 be 84 be 45 3d 79 c8 8f be 8b 3f 42 bd
       -0.14887936 0.048277393 -0.28082636 -0.04742388
000020 0b e9 e3 3d 39 a5 bb bc b6 1c 7f 3c 58 af da 3c
       0.11128434 -0.022905933 0.01557081 0.026694939
000030 4e e8 af 3d 34 28 ae bc 13 72 f6 bd 55 c1 ea bd
       0.085892305 -0.021259405 -0.12033477 -0.114626564
000040 a2 08 68 3e b0 20 ec bd 00 de 93 3c 54 3c 0b 3d
       0.22659543 -0.11529672 0.018050194 0.03399308
000050 a5 24 8e 3c ce f4 90 bd a8 77 f4 bd b3 fe 07 3d
       0.017351458 -0.07077943 -0.11936885 0.033201884
000060 55 88 d4 3c 68 ce 51 bd 55 95 59 3e fb ab 13 3e
       0.025943914 -0.051222235 0.21248372 0.14421074
000070 91 7d 02 bc e1 d4 c2 bd 18 a6 78 3d b9 81 80 bd
       -0.007964508 -0.0951326 0.060705274 -0.06274743
000080 c1 66 42 be 15 f4 53 3d f1 fa a4 bd 0f 30 a0 3d
       -0.1898451 0.051746447 -0.08055676 0.078216664
000090 34 77 1e be d8 4f 2e 3e 2f b9 31 3d 0b 25 27 be
       -0.1547516 0.17022645 0.043389495 -0.16322725
0000a0 16 f6 8d 3b c8 25 d4 bb fe a2 81 3c 82 a0 c5 bc
       0.0043323142 -0.0064742304 0.015824791 -0.024124388
0000b0 c8 d3 6f 3d d9 e1 68 3e 7e 09 17 bd 7c 5e 86 bd
       0.05855158 0.22742404 -0.036874287 -0.0656099
0000c0 6a 07 0c 3c 5b e6 07 3e 06 2c ac 3d 04 a4 67 be
       0.0085466895 0.13271467 0.08406834 -0.22621161
0000d0 e8 84 36 3d c3 aa b6 bd 3d d3 b6 bc ec 3c 04 bd
       0.044560343 -0.08919289 -0.022317523 -0.032284662
0000e0 cf c7 2c bd 4e a8 eb bc 64 81 87 bd 9b e1 c0 bc
       -0.04218274 -0.028766777 -0.06616476 -0.023545077
0000f0 7c 4a 53 bd 74 97 0a 3e 41 d9 46 3c 41 65 db 3d
       -0.051584706 0.13534337 0.012136758 0.10712672
000100 f8 70 80 bc 5f 6a 1c 3d 1a 93 2a be a0 6c 8d 3d
       -0.015678868 0.03818738 -0.16657677 0.06905484
000110 39 a2 30 3d d5 00 f9 3d c5 03 89 3d 9a 5c 27 3d
       0.043123458 0.12158362 0.06690172 0.040859796
000120 9d 49 39 be 90 08 6d 3e f2 6e 6e bc d2 4a 25 3e
       -0.18094487 0.23147798 -0.014552819 0.16141823
000130 84 a7 6b bd bc 7e 8b 3d c5 4c 45 be 7b f2 87 be
       -0.057532802 0.06811282 -0.19267567 -0.26552185
000140 73 b9 c1 bd a3 2e 43 be 2f 0e f2 3d d4 3e cc 3d
       -0.094592 -0.19060759 0.118191116 0.09972921
000150 c1 e2 20 bd 4f 67 bc bd b3 09 d0 3d 53 21 8a be
       -0.03927875 -0.09199392 0.101581 -0.2697855
000160 4b d0 de bd 65 c8 60 3c 3c 11 5f be 31 13 65 3d
       -0.108795725 0.013719653 -0.21783918 0.055926505
000170 55 2b 66 3e 5c 66 e5 bd e5 37 32 3e 51 1e 1a be
       0.22477467 -0.11201164 0.17404135 -0.15050627
000180 38 4a 47 bc 76 5f 63 bc bd 7c 22 3e d2 ae 33 bd
       -0.012163691 -0.01387774 0.15867896 -0.043867894
000190 55 e5 bb bd bd 8c e4 bd 97 63 99 3c 78 1d 13 3d
       -0.09174601 -0.11159656 0.018724246 0.035916775
0001a0 38 3e 16 be 83 46 ed 3c 19 ca 67 bd da 59 80 bd
       -0.14672172 0.028964287 -0.05658922 -0.06267138
0001b0 53 5e 77 be ac 98 0d bd c0 f1 0a be 21 27 d9 bd
       -0.24157076 -0.034569427 -0.13568783 -0.10603166
0001c0 8c 53 e5 3d 72 0e c2 bc b8 91 3d bd a0 ec 37 3d
       0.11197576 -0.023688529 -0.046281546 0.044903398
0001d0 04 47 86 bb 5e dd d7 bd 09 b0 08 3d b0 8e f2 bd
       -0.004097821 -0.10540269 0.033371005 -0.11843622
0001e0 21 9f c8 3d 5f 81 80 bd f2 bf c3 bc f5 0f c5 bd
       0.097959764 -0.062746756 -0.023895238 -0.09622184
0001f0 72 74 36 be 4e b6 00 be 87 d7 af bd d3 95 e8 bd
       -0.17817858 -0.12569544 -0.085860305 -0.11356702
000200 fc 8f 99 3d d0 a9 17 be 65 da 79 bd 92 5d c6 3d
       0.07498166 -0.14810872 -0.060999293 0.09685816
000210 16 48 3b 3d f5 b9 0e be ff 96 04 ba 48 8a 74 3b
       0.045723043 -0.13938124 -0.00050579006 0.0037313867
000220 be 82 8d bc 84 80 24 be 9f 9d cd bd 20 a6 ad 3c
       -0.017274257 -0.1606465 -0.100398295 0.021197379
000230 98 30 f7 bc e8 26 71 3d 45 34 39 3e 3b 95 0f be
       -0.030174538 0.058874995 0.18086345 -0.1402177
000240 de 69 9b 3d d1 5f 98 bd 48 19 1a be f1 86 a1 3e
       0.07588552 -0.074401505 -0.15048707 0.31548265
000250 9d 9d 6f 3d 61 f0 c5 3d 4a ef 94 bb 84 d8 ad bd
       0.05849992 0.09664989 -0.004545127 -0.08488563
000260 a9 54 1c 3e ba 49 73 3d ca 4e e6 bd 32 87 0a be
       0.1526667 0.059396483 -0.112454966 -0.13528135
000270 08 02 ac bd de 0b 5e bd 43 c5 f5 bc 5b 04 08 3e
       -0.08398825 -0.054210536 -0.030001288 0.13282911
000280 6d 43 06 be 24 eb 1e 3d d3 c8 0a be 07 ae 8f be
       -0.13111658 0.038798466 -0.13553171 -0.2806246
000290 5f 1e 7e 3d f3 01 1c 3c b4 34 de 3d c1 3b ad bc
       0.062040683 0.009521949 0.10849896 -0.021146657
0002a0 22 51 96 3d a2 b1 d4 3d 6b 25 23 3d 3a 38 81 3d
       0.073396936 0.10385443 0.039830606 0.063095525
0002b0 3d c1 3f be 40 51 ce 3d 01 c2 da bd df b9 60 be
       -0.18726058 0.10074091 -0.106815346 -0.21945904
0002c0 2c 5f 62 bd 13 7f 5c 3d b8 79 b9 bd c9 f5 af bd
       -0.055266544 0.053832125 -0.09056419 -0.08591802
0002d0 f4 66 b5 bd 18 fd 8c bd fe d3 2d be a4 4d 53 bd
       -0.088575274 -0.06884211 -0.169754 -0.051587716
0002e0 70 a4 43 bd 4f 08 6a 3c 0f 47 e2 bd 4c 8d 71 3e
       -0.04776424 0.0142842075 -0.110487096 0.23589057
0002f0 f3 a2 95 bd 51 47 00 3e f5 ab 40 bd dc ea 2d 3d
       -0.07306471 0.12527205 -0.04703899 0.042460307
000300 4c 86 54 3d 05 5d 11 be 8f cd 28 bd d2 69 d9 3d
       0.051885888 -0.1419564 -0.04121166 0.10615887
000310 f4 47 ba bc 50 b0 06 3e e4 b9 25 3d 31 da 49 be
       -0.022739388 0.13153195 0.040460482 -0.1971214
000320 e4 40 f4 bb 02 a6 0b 3d ff 42 b7 3d c7 c3 70 3d
       -0.0074540246 0.034093864 0.08948325 0.058780458
000330 94 09 41 3d b9 40 b2 3c b2 0f 19 3e bb ec f9 bc
       0.047128275 0.021759378 0.14947394 -0.03050839
000340 5e 2f cc bc ec 0f 2d bd 2b 85 be 3d 0e 6e c6 bd
       -0.02492493 -0.042251512 0.093027435 -0.0968896
000350 fc b6 a3 bd 11 df d2 3d d1 72 ad bd 85 67 9d 3d
       -0.07993886 0.10296453 -0.08469165 0.076857604
000360 3a ec 19 be 2b 76 9d bd 51 fb 44 bd 3f ec f2 3d
       -0.1503152 -0.076885544 -0.048091237 0.118614666
000370 86 51 bb bd 36 6b fa bd 56 8e 18 3d 77 8a 55 bd
       -0.09146409 -0.1222748 0.037245117 -0.052134003
000380 78 2a 72 bd e3 2e e4 3d 98 49 03 3e 7a d1 ac 3c
       -0.059122533 0.111417554 0.12821043 0.02109598
000390 5e a4 66 3e 03 d4 c1 bd 4a 2e 8f bd a2 3f c0 3d
       0.22523639 -0.09464266 -0.06991251 0.09387137
0003a0 25 a6 12 bd 7e f5 b5 bd ba 55 5b 3c ff 04 f5 bd
       -0.03580298 -0.088847145 0.013387138 -0.119638436
0003b0 02 3e 87 bd 63 de 43 3e 6f 39 a6 3d bb 19 c8 3d
       -0.06603624 0.19127803 0.08116423 0.09770533
0003c0 fa c3 bb bd df 48 90 bc 69 8f 8e bd be 13 c9 3d
       -0.09168239 -0.017612873 -0.06960947 0.09818219
0003d0 70 4a e5 bc 39 d4 fc bd df 84 b0 3b 45 ef 0e bd
       -0.027989596 -0.12345166 0.005386933 -0.034896154
0003e0 1e 23 44 3c 9f 8e d0 bd 1a ba 93 3d aa eb b8 3d
       0.011971263 -0.10183453 0.072132304 0.09029324
0003f0 32 a0 2b 3e 12 63 9b 3d 43 f6 1f 3d 03 2c ac bd
       0.16760328 0.075872555 0.039053213 -0.08406832

G.0.linears.2.bias f4 [10]
000000 30 19 2f bc 35 84 fb 3a 7b 0c c5 3b 1e 00 d1 bd
       -0.0106871575 0.0019189181 0.0060134507 -0.102051005
000010 90 63 b0 bd b1 62 02 3c 32 be 85 3d 69 a8 ae 3c
       -0.0861274 0.0079581 0.065304175 0.021320539
000020 ed 4a 95 3d ce 22 95 ba
       0.072896816 -0.001137817
