graph2/00016params.pth (torch, 118145 bytes, 76 tensors)

F.linears.0.weight f4 [32, 20]
00000000: ed36 ca3c d955 eabd 03b3 47bd d240 ce3c
00000010: a67c 6dbd a18b 93bd 591d b4bd 4464 0b3e
00000020: e732 b43d df2d e73c e44c 09bd 0c25 05bd
00000030: a99b aabd e3ab a4bd ffb4 063e 31ab 2abe
00000040: 0442 56be 8a90 ee3c caf3 19bd 64a3 0cbe
00000050: 3f21 0dbc b663 cbbb 3a46 9a3d ec64 acbd
00000060: 9bfd 1dbd d9f7 a5bd d285 4e3d 6a9b efbc
00000070: 6218 cabb 827a 333d e206 16bb 88b4 be3d
00000080: 5249 39be 799f b73d 695f dcbd b2b8 493b
00000090: 9b3e fa3d c889 68bd a1e8 7c3d f29a 59bd
000000a0: beba 603e bb88 173e 35c4 0cbd 74f9 edbd
000000b0: 24fd 54bd d80d c73d 7b58 153e 14e5 03bd
000000c0: a36a e3bc 7ffe 183d a0db 513e f18b 71bd
000000d0: 3b86 3ebd 3946 58bd 371c cb3c 1b4d b43d
000000e0: cc81 553d be98 993d 906a eebd a608 44bd
000000f0: b577 edbd 0cb5 a2bd 753d 703c 92c4 a13d
00000100: e73e 49be 693e e7bc 478d 12bd 0a26 643e
00000110: 4da6 cf3d e795 94bc 0ab7 88b9 3dca dabd
00000120: 70e2 173e 25a2 ea3d 7319 4d3e 69f9 13bd
00000130: 25d8 d23c 17ad 6ebe 268b 15bd 5da3 1c3d
00000140: d0f7 04be e490 a63c d852 e9bc 8c8b b23d
00000150: 6732 2dbd bc07 1bbe 70b7 173d 718c 223b
00000160: a9d8 143c f9ba 2fbd e01f 24be ab96 4cbe
00000170: ba0d 0bbc df64 23be 8057 c9bd b29f a9bc
00000180: 3437 2dbe 93db 713b e451 503e b3d0 163c
00000190: 0a5b 903d fd0d 41bd a4d8 9e3d fd26 c0bd
000001a0: dcff 7f3d 5a76 463d 2350 17be 8f64 c0bc
000001b0: 889d c93c 513b bfbd 8193 1abc 114e f6bd
000001c0: 7dfd b73c 2c61 2b3d 5fb1 9e3b 9fd3 f0bd
000001d0: ca3f bf3c 9c70 143e 374d 9a3d 982a bebd
000001e0: 4253 293d 6fbc 9f3d f23d 1c3c ce57 adbb
000001f0: e18c 10be a189 92bd 204b 41be abc4 1a3c
00000200: 17e9 c73d cc98 a23d 0dea 473d 7cb0 813a
00000210: 54b9 913d b3b4 083e 44f3 193e 8bfb c6bd
00000220: 4b50 4b3c 3ea0 983d 85b6 d9bd 8cb0 4439
00000230: 51d3 d8bd 5d87 0abe ddcb ddbd c93f f6bd
00000240: 6ea1 86bd 2cfd 78bd b744 21bd 9378 4ebe
00000250: 37ab 0a3e e5a9 8bbd bd0e bebc 90ff 2bbd
00000260: 131b cb3c 413f c7bc 6776 cebc c237 763c
00000270: 1204 28be 2cc7 0c3d 13ae 5bbc 4915 cd3c
00000280: 4ae7 653d 13db 5b3c e9f8 f0bd d8a8 0a3c
00000290: d4e2 c63c 26a7 ffbd 74a9 6bbd 4ac7 1b3d
000002a0: c7d2 da3d 963b 583c 4731 073e 1397 54bd
000002b0: 8e54 123e 2c84 78bc 5a58 febd f7aa 2cbd
000002c0: e6b6 bdbd 10ed 633d e507 25bd cc7c 363d
000002d0: a09f 2bbd a680 383d 51f1 6e3d a5df 0d3e
000002e0: 28e8 aabd 5dc0 ef3d 7389 f53d 4f63 70be
000002f0: 60c3 44be b536 b73d 7a40 2bbe 5d73 8bbc
00000300: 51d5 013e 8e21 69bc 17af 2c3e a013 34be
00000310: 7b0d 27be 2631 f2bc 0dcc a8bd 4db6 4abe
00000320: 055b 603d ca81 07be 9d86 98bd cb33 2fbc
00000330: 8b11 7bbd 4d13 bdbd ca29 2ebe 9a4c 15bd
00000340: 3b51 d1bd 30e6 903d 7596 b93d bb69 463e
00000350: 9efe 5fbc 72ac c2bb db1e 40bd 1d4c 783d
00000360: 0855 58bd f976 a1bc e3fc 8dbd 00a7 54bd
00000370: 5252 793d e092 b13c b1ba 123e 4a01 8fbc
00000380: 1475 9ebc 5c9e 59bd 3948 e63b 83a4 b7bb
00000390: 48de 13bd 4dd1 7d3d 8213 43bd da5a c7bb
000003a0: eacc b6bd 47b4 103e f2ce 063e e925 9fbd
000003b0: a4e6 1a3e 54b3 9f3b 84c2 953d 4bd6 dcbd
000003c0: e373 913d e00f 1fbe 751e 99bc df29 a2bc
000003d0: 80c4 7cbd 8854 13be 7912 40bd 412a d53d
000003e0: 4bdf d43d f41b 0a3e 45b9 493d 49c0 813c
000003f0: 268f b6bd 90fd fe3c d479 5fbd 6456 4e3e
0.024684394 -0.114421554 -0.048754703 0.025177393 -0.057980202 -0.072043665 -0.0879466 0.13612467
0.08798771 0.028220115 -0.033520594 -0.032506034 -0.08330471 -0.08040597 0.13154982 -0.16666867
-0.2092362 0.029121656 -0.03758601 -0.13734204 -0.0086138835 -0.006206955 0.07532926 -0.08417687
-0.038571935 -0.08103914 0.05042059 -0.029248912 -0.0061674574 0.043818004 -0.0022892286 0.09311777
-0.18094376 0.08965964 -0.107603855 0.0030780253 0.12218972 -0.056772023 0.06174529 -0.053126283
0.21946236 0.14798252 -0.034366805 -0.11619845 -0.051999226 0.09719437 0.14584534 -0.032200888
-0.02776081 0.03735208 0.20493937 -0.05897135 -0.04651473 -0.052801345 0.024793727 0.08803769
0.052125737 0.074998364 -0.11641419 -0.04785981 -0.11595098 -0.07944688 0.01466309 0.07898821
-0.19652902 -0.028228002 -0.035779264 0.22280136 0.10139141 -0.018137885 -0.00026076316 -0.10683105
0.14832473 0.11456708 0.2002924 -0.036126528 0.025737831 -0.23308216 -0.036509655 0.038241733
-0.12985158 0.020332761 -0.028481886 0.08718023 -0.042284396 -0.15139669 0.037040174 0.0024802948
0.009084859 -0.04290292 -0.16027784 -0.1997935 -0.008487159 -0.15956448 -0.098311424 -0.020706031
-0.1691559 0.0036904558 0.20343739 0.009205031 0.07048614 -0.04713248 0.07756165 -0.093824364
0.062499866 0.048452713 -0.14776663 -0.02348545 0.02461125 -0.093374856 -0.009434582 -0.12026609
0.02245974 0.041840717 0.0048429216 -0.117591135 0.023345847 0.14496082 0.07534259 -0.09285468
0.041339166 0.07799613 0.009536253 -0.005290008 -0.14116241 -0.07155157 -0.18876314 0.009446303
0.09761255 0.079393 0.048807193 0.0009894515 0.07115427 0.13350181 0.15034205 -0.09715947
0.01240928 0.07452439 -0.10630516 0.00018757785 -0.105871804 -0.135282 -0.108298995 -0.12023885
-0.06573759 -0.06078832 -0.039372172 -0.20163183 0.13541876 -0.06819514 -0.023200387 -0.04199177
0.024793183 -0.024322154 -0.025202943 0.015027942 -0.16407803 0.034369633 -0.013408202 0.025034564
0.056128778 0.013418931 -0.11766226 0.008463107 0.024278082 -0.12483053 -0.05753465 0.038031854
0.10684734 0.0131978 0.13202392 -0.051901888 0.14290068 -0.015168231 -0.124191955 -0.042155232
-0.09263401 0.055646002 -0.040290732 0.04455261 -0.041900277 0.045044564 0.058335606 0.13854845
-0.083450615 0.11706612 0.11989107 -0.23475383 -0.19215155 0.089459814 -0.16723815 -0.017022783
0.1267903 -0.0142291915 0.16863666 -0.17585611 -0.16313736 -0.029564451 -0.082420446 -0.19796105
0.054774303 -0.13233104 -0.074475504 -0.010693501 -0.061296027 -0.09232197 -0.17008129 -0.036450006
-0.102205716 0.07075155 0.090619005 0.1937627 -0.013671545 -0.0059409672 -0.046904426 0.060619462
-0.052815467 -0.01971005 -0.06933 -0.051917076 0.060869522 0.02167648 0.1432903 -0.01745667
-0.019342937 -0.05312954 0.0070276526 -0.005604328 -0.036100656 0.061967183 -0.047626026 -0.0060838284
-0.08925803 0.1413127 0.13164881 -0.07770903 0.15127045 0.0048736725 0.073124915 -0.10783061
0.07102182 -0.155334 -0.01869128 -0.019795356 -0.061710835 -0.14387715 -0.046892617 0.1040845
0.10394152 0.13487226 0.049248952 0.015838759 -0.08914022 0.031126767 -0.054559544 0.20150143

F.linears.0.bias f4 [32]
00000000: d755 4f3c 040a 133d 153d b1bd 8301 bd3d
00000010: 61a4 c4bd 420a 9dbd 79ed 093c c059 b83a
00000020: a2c3 9b3d 7664 843d 6730 96bd 9e86 6bbb
00000030: fbcb 03bd 502e 433c 3157 93bc c8db 313d
00000040: db11 23bc 06b7 4dbb ef61 ba3d 994e 2cbc
00000050: ea4a 0fbd 9b46 8a3d 6638 e63c 159d c13c
00000060: 2fde c3bd ae8a c03d 6415 0abc 75ac babd
00000070: 0ac0 a23d 3936 7e3d c828 9cbd 1107 8dbd
0.012654743 0.035898224 -0.086542286 0.09228804 -0.09601665 -0.07667972 0.008418434 0.0014064834
0.076056734 0.06464474 -0.07333451 -0.0035938392 -0.032176953 0.011912897 -0.017985912 0.04342249
-0.009952988 -0.0031389608 0.091007106 -0.010516786 -0.034983553 0.06751748 0.028103065 0.023634473
-0.095638625 0.09401451 -0.0084279515 -0.09114925 0.07946785 0.06206343 -0.07624966 -0.068861134

F.linears.1.weight f4 [32, 32]
00000000: 32a1 f5bb 3f9e 523d eb15 f93d 6e3f c93c
00000010: 07be fabc ccf7 bd3d 8c98 4d3b 6837 42bd
00000020: 979c 64bd cc15 c2bd c4aa 2bbe 561b 963d
00000030: 68be d2bd 15f3 f6bd 7a72 783d 80fc 2dbd
00000040: 8962 eabd 4e5e 863d e097 68bd af62 68bc
00000050: 3f44 0fbd 2beb 713d 5c7c 713d 5dd5 17be
00000060: 2b83 2f3e 5241 163c ceb6 5cbc 3e71 513e
00000070: 9d28 efbd 07b4 ebbd 3b99 c63d ec75 8a3d
00000080: 337c 313d 2a10 92bd 1e10 9a3c 17c8 97bc
00000090: 7cbd 983c 16ce e03d f68a 36be 9faa 30bd
000000a0: 4f75 f0bd c441 38bd de14 0e3e 9bb2 8f3d
000000b0: c05b 01bd ed93 c0bc a119 373d 6d4b 7abd
000000c0: 0b49 483e a707 fd3d e6f0 02be ee21 19be
000000d0: fe6b fd3c e747 85bd acc8 c9bd 48c0 0d3d
000000e0: c469 c93d 4727 87bc 30bf 793d c4b0 113e
000000f0: 8d74 bd3d 2fc1 143d 63cd cdbb 6bef 0cbe
00000100: cc8e 44be bc83 2c3e ed20 2e3e 28bc 113d
00000110: d57a 9abe 6f49 ba3c d361 4fbd 0c8c 063d
00000120: cf71 16be 5d1f b73d 71df c3bd 127d 0dbe
00000130: faa9 1f3e 2699 403b 7c97 2cbe 9a7d 893d
00000140: b27f 0bbd 2079 723c 5b50 783e 4ed2 b9bb
00000150: 2aa7 ac3d 087d 053e b5a1 a3bc 18a6 ca3d
00000160: 6070 6f3d 6e9c 0a3e 752c 003e d1f8 80be
00000170: 347e 97bd 6d72 803d 00b7 0f3e f85a 4ebd
00000180: 254e f03d 5f89 1c3e 0415 083e e438 e03d
00000190: 7796 88bd b6f2 483d 1a40 6c3d 2889 0c3c
000001a0: 264b 02be 89db 2dbe ee84 003e 11a0 38bd
000001b0: 44e6 1a3d 11e7 553c 214e 6fbc 2c46 d0bd
000001c0: 831b 833b 72d5 0a3d 82bf 8abb 1e6a 7d3d
000001d0: c29f 813d d7dc c5bc b38d 473d e741 d3bd
000001e0: b75c 63bd ca22 21bd 3c61 56be b224 0c3c
000001f0: 7557 b9bd 3a97 38bd 43b3 c6bd b20c f8bc
00000200: ca38 26be 5315 e73c 0241 443e 6ef4 2fbc
00000210: baf6 153e bf6d 2e3e 8fc5 503d 8b5e 533e
00000220: cc48 39bd 88db dcbb 7374 033c e964 c13b
00000230: 3bae d23d 6765 f43d a3e6 94ba 3fee 473e
00000240: d525 1ebe 6c4b b3bd e36a f0bc ae7c 2bbd
00000250: f728 ea3d cb97 783d abb6 40be 247b 963e
00000260: 5c7f 86bd 1a92 9ebd f4c9 05be 70f5 99bd
00000270: f6db 20be d4ef 04bb 1034 073e 4f29 a7bd
00000280: 00ad 1ebc 21d6 75be ed5d e43d cc5b b3bd
00000290: 746c 03bc 417c d33c 917d 0ebd 5bfa a53d
000002a0: 2e03 67be 1e94 8b3d a397 29be 202f 06be
000002b0: da00 be3d 1f95 75ba f440 85bd 2bab cf3c
000002c0: 5aa7 77bd 708b d1bc bc38 2ebe b006 e7bd
000002d0: 8337 b63c 2e5a d5bd 1bf1 0f3e baaf 05be
000002e0: 9369 52be 76f6 853b 720f 12bd 5e8c 653d
000002f0: 16af e2bc ac9c adbd 0ecf 21be d7df 4a3d
00000300: f5cf dd3d cc09 0d3e 3a19 4a3d d1f8 fd3a
00000310: 2f8c 58be 919d 1c3e 1660 353d 5256 d8bd
00000320: b72c 80bd e655 96bc 135d 383b 378e 04be
00000330: 1c82 a0bc 352c 32bd 55a7 9b3d c7e4 513d
00000340: 6d9b 73bc 632f f13d a6f1 00be 8819 19be
00000350: 3824 d4bd 59f7 343d f758 bd3d 1273 543d
00000360: 0dde c83c 0263 df3c 2a31 983d ed56 4e3d
00000370: e60c 093d 2a54 9c3d 2d7a d1bd b601 623d
00000380: 16df babd fcc1 d23d e4fc a7bd a746 ce3d
00000390: c5f0 afbc 5516 9fbd cd66 c93d 13bd 863e
000003a0: 8a96 9a3d 2a52 11be f180 3dbe 41da efbc
000003b0: 0dcf 0dbe a1c4 113e d517 7c3d fc2d 993d
000003c0: d4ad dabd 8be6 003e 2db4 86bc 5020 09bc
000003d0: 620d 383c 25b3 3dbd 3d58 a23c 42c0 50bd
000003e0: ad26 1d3d 0c41 87bd 8216 85bb 8e1b ae3d
000003f0: 3e60 dcbd 9645 2f3e 6020 84be 6e71 913d
-0.0074960226 0.051420446 0.12162384 0.024566378 -0.03060819 0.09275779 0.0031371443 -0.04741612
-0.0558134 -0.09476814 -0.1676436 0.07329433 -0.10290223 -0.12058083 0.06065605 -0.04247713
-0.11444575 0.06560956 -0.056785464 -0.014183684 -0.034977194 0.059062164 0.05895649 -0.14827485
0.1713988 0.009170847 -0.013471318 0.20453355 -0.11677668 -0.11508947 0.09697195 0.06760773
0.043331336 -0.07131989 0.018806513 -0.018528027 0.01864504 0.10976808 -0.17826447 -0.043131467
-0.11741125 -0.044984594 0.13875148 0.07016488 -0.03158164 -0.023508037 0.044702176 -0.061107088
0.19559114 0.12354975 -0.12787208 -0.1495435 0.030935284 -0.06507855 -0.09852728 0.0346072
0.09834626 -0.016498221 0.060973346 0.14227587 0.09250746 0.036317047 -0.0062805875 -0.13763206
-0.19195098 0.16847128 0.17004748 0.03557983 -0.30171838 0.022740094 -0.0506304 0.032848403
-0.14691852 0.08941529 -0.095641024 -0.13817242 0.15592185 0.0029388159 -0.16854662 0.0671341
-0.034057327 0.014799386 0.24249403 -0.005670822 0.084303215 0.13035977 -0.019974569 0.09894961
0.05845678 0.13536236 0.12516959 -0.25189832 -0.07397118 0.06271825 0.14034653 -0.050379723
0.11733655 0.15286778 0.13289267 0.10948351 -0.06669324 0.049059592 0.05767832 0.0085776225
-0.1272398 -0.16978277 0.12550709 -0.045074526 0.037817255 0.013055579 -0.01460603 -0.10169634
0.0040010824 0.033894964 -0.0042342553 0.06186878 0.063292995 -0.024153156 0.04871912 -0.10315304
-0.05550834 -0.039339818 -0.2093553 0.008553671 -0.09049884 -0.045066096 -0.0970216 -0.030279491
-0.16232601 0.02820841 0.19165424 -0.010739429 0.146449 0.17034052 0.050969657 0.20641534
-0.04523544 -0.0067400374 0.008023369 0.005901922 0.10287138 0.119334035 -0.0011360239 0.19524477
-0.1544412 -0.0875462 -0.029347843 -0.04186695 0.11433595 0.060691636 -0.18819682 0.29390824
-0.065672606 -0.077427104 -0.1306532 -0.075175166 -0.15708908 -0.002028455 0.13203454 -0.08162176
-0.009684801 -0.24007465 0.111507274 -0.08757743 -0.008021463 0.025816085 -0.03478772 0.08104392
-0.22559807 0.068153605 -0.16561751 -0.13103914 0.09277506 -0.0009368229 -0.065065295 0.025350174
-0.060462333 -0.025579184 -0.1701383 -0.112805724 0.022243267 -0.10417591 0.14056818 -0.13055316
-0.20548086 0.0040882183 -0.03565926 0.056042068 -0.027671378 -0.084771484 -0.15801641 0.049529877
0.1083068 0.13773268 0.049340464 0.0019376521 -0.21147226 0.15294482 0.044281088 -0.10563339
-0.06258529 -0.018351506 0.0028131648 -0.12944876 -0.019593291 -0.04349919 0.076002754 0.05124357
-0.014868599 0.117766164 -0.12592182 -0.14951146 -0.10358471 0.0441812 0.09245484 0.051867552
0.024519945 0.02726889 0.07431252 0.050375868 0.033459567 0.076332405 -0.10228381 0.055177413
-0.091245815 0.10290906 -0.08202532 0.100720696 -0.021477113 -0.07767931 0.09834061 0.26316127
0.07548244 -0.141915 -0.18506218 -0.029278876 -0.13848515 0.14235164 0.061546165 0.07479474
-0.10677686 0.12587945 -0.016443336 -0.00836952 0.011233659 -0.046313424 0.019817466 -0.0509646
0.038366962 -0.066042036 -0.004061521 0.085013494 -0.10760544 0.17116389 -0.2580595 0.07101713

F.linears.1.bias f4 [32]
00000000: 3cc2 583b a278 43bc 37c3 51bd b218 b2bd
00000010: dcef 823c a889 b0bd 16c1 a63b 7e15 6bbb
00000020: 04ae bebd b9d4 afbd c41a a53d 2963 853d
00000030: b18f a93d cd56 eabc f5b6 5b3d 1f79 8e3d
00000040: 87fa 813d d71a 21bd 6067 223d 8569 d63d
00000050: 0776 a0bc 0992 12bd f41c 58bd ffe4 72bd
00000060: c21c d83b 72b2 9c3d d426 fd3a b1a5 a53d
00000070: 1036 56bd c912 993c de02 18bc c57a 0abd
0.0033074757 -0.011930617 -0.051211562 -0.086961165 0.015983514 -0.08620006 0.0050889356 -0.0035870965
-0.093105346 -0.085854955 0.08061746 0.06513054 0.0827936 -0.028605843 0.05364128 0.06956696
0.063466124 -0.039332237 0.039649367 0.10469345 -0.01958753 -0.0357838 -0.052761987 -0.05930042
0.006595225 0.07651223 0.001931394 0.08088244 -0.05229765 0.018685715 -0.009278027 -0.03380849

F.linears.2.weight f4 [10, 32]
00000000: 5708 a4bc 08dd 903d 37ca 8bbd ad39 81bb
00000010: 5a89 cfbd 214c 54bb a787 afbd 0e8a b3bd
00000020: d2c6 a73d 8582 91bd 5a82 b5bd 0bee a93d
00000030: e67b d53d 7621 03bd 2c81 91bc d0a5 3fbd
00000040: 0f54 76bd 3497 24bc e201 06be 629c e83c
00000050: c6bb f1bd 60d1 f9bc 9818 bbbd ed79 9ebc
00000060: 924d 3f3c 5294 cd3d 8311 e7bd 5f60 b3bb
00000070: 5884 183e 6978 7b3d 7295 1dbe 11d8 493e
00000080: 3f51 8e3c 0c7f 57bd 0a83 0d3e e024 2a3d
00000090: b961 c23d 20e5 ca3c 95bd b9bd 8ce6 6bbd
000000a0: 090e 413e d870 9abd d840 043e b80d 6a3e
000000b0: f618 28be d2dd 0a3a d7c4 ffbc a79d 643d
000000c0: 307f 15be a8f4 8339 bcd2 673d 2253 a4bc
000000d0: 2b5d 08be c2ff 403e db4e 883c c5c0 923d
000000e0: 1e61 0bbe 152a 48bc ee52 33bd d16e 4d3d
000000f0: 4761 a03b b908 873d f88c 803c 08ee 003a
00000100: 38ca 1a3e 48de bcbc c8a7 73bc 2072 e53c
00000110: 3359 883c bb5d f5bd cc6a 82bd eae0 403d
00000120: 062e 8ebc 763e 2e3e 85b6 763c a378 73be
00000130: 3f1a 093d 7331 543c 5e53 a83d a24c 8d3b
00000140: 23fe 4fbe b7d4 7cbd aeb1 a2bc a821 3bbd
00000150: b84d 663d c238 c6bc 3f67 123e d223 a1bb
00000160: 9721 f63d 42c6 59bd be7b 6d3c b34a c63d
00000170: 5cf6 0fbe f51f 8cbe d10c a83d 1d6c e8bd
00000180: d787 2e3d a06a 63bd 8af5 bbbd c7c6 44bd
00000190: b64c 013e 7dc5 683d d9eb 273c ef5f 70bc
000001a0: 394e 9cbd 6ce9 a73d 77a8 8ebd ac2f 66bd
000001b0: f10b 2c3d ea88 4e3e 698f bebd 68a3 34be
000001c0: f3d9 f6bd 5879 f2bc 46f6 84bd 45da 163e
000001d0: f92c 20ba 551d fbbc 058b 433e 391c b5bd
000001e0: 47c5 37be b42b 963d b053 c7bd 6424 6d3d
000001f0: ebe3 f2bd 216f df3c 53ac 4abd 846f cbbd
00000200: a57a 6e3d 669e 563d 5ef8 bdbd a863 303d
00000210: 67f2 093e 311d 553e fac0 913d 6ccb 67be
00000220: 637a 9e3d 70a8 b73d 16e0 b9bc e4c1 16be
00000230: 553a 0e3e 2a25 d83d 2923 aa3d 83a7 c43d
00000240: 1960 0a3d 881f afbd 6544 96bd 978f 2fbe
00000250: b1da f53d 1ef7 d83c 3bef 533d a761 0e3e
00000260: ed58 a1bc 6e95 283e 8528 59bd c812 b0bd
00000270: b26b d93c 3652 29be 0d51 e7bd 207b 4c3a
00000280: 738c 3cbe 2bf3 16be 91cc 58bc 2c1b 9bbd
00000290: 1885 7d3e 81c9 693d 449c babd 7922 753d
000002a0: 0c25 bb3d da0d bcbd bf7d 2dbd db0e da3d
000002b0: 4f42 f63c 6949 d9bd bb5a 03bd ad75 ffbd
000002c0: 6820 10be 353e 163e c11b b9bd 70e6 7c3e
000002d0: 26a1 f63d 5d36 79bd d73d 153e 3712 c5bd
000002e0: e036 df3b 49a0 25bd e4ff 1cbd b35c f4bd
000002f0: d936 c4bc 7ea3 9dbb ce95 2b3e bfe0 17bc
00000300: 8c1f 923d eb38 d0bc bc4b 19be 1795 a03d
00000310: 8743 21bd 6e4c 38be 4700 95bd a748 113e
00000320: bb05 c7bd 0429 843d d371 a1bd dbd3 00be
00000330: 3268 c73c 9150 503d 9875 9bbd 6e5c 183c
00000340: 3ab0 eebc 6ea3 0d3b e7b5 3d3d 247c 093e
00000350: 6129 c5bb 244f 413e 178f 5dbe 2c48 27be
00000360: a167 3ebe e3a8 34be 9b27 9cbc 6629 36bb
00000370: a30f 1abd f9a8 f5bd f93b 82bd 260e 06be
00000380: 4ca4 23bd e6e7 b33d 3662 ae3b 9471 003d
00000390: d281 e0bd f7e2 a53c e53f 74bd cde7 993d
000003a0: 8a73 003c 3c14 093c 792a 0c3d dab9 e03d
000003b0: eb79 323d 3bfa 65ba 4bd1 233e 54c3 c23d
000003c0: 8eed 453e 2b77 c33d babd 47bd fa02 f9bd
000003d0: 87d7 983d 2923 02be bd6f cb3c 9b2d a8bd
000003e0: 5f94 e9bd 4623 f7bc 42a2 63bd c5f8 13be
000003f0: eea6 8c3d 5ade 81be a2c6 5c3d d6e8 bf3d
-0.020023508 0.07073408 -0.06825679 -0.003943643 -0.101336196 -0.003239401 -0.085707955 -0.08766566
0.08192219 -0.07104973 -0.08862753 0.08297356 0.104240224 -0.032014333 -0.01776179 -0.04678899
-0.06013876 -0.010045815 -0.13086656 0.028394882 -0.11803393 -0.030495346 -0.0913555 -0.019345248
0.011676209 0.100380555 -0.11282637 -0.005474135 0.14894235 0.06139413 -0.1538904 0.19711329
0.017372726 -0.052611396 0.13819519 0.041539073 0.09491295 0.024767458 -0.09069363 -0.057592914
0.1885301 -0.075410545 0.12915361 0.22856796 -0.16415772 0.0005297336 -0.03122179 0.05581441
-0.145993 0.0002516855 0.056597456 -0.020059172 -0.13316791 0.18847564 0.016639164 0.07165674
-0.13611266 -0.012217064 -0.04378026 0.05015451 0.004894409 0.065934606 0.01569222 0.0004918282
0.15116203 -0.02305521 -0.014871545 0.02800852 0.016644096 -0.11980768 -0.06368026 0.047089495
-0.01735593 0.17016014 0.0150581645 -0.23776488 0.033472296 0.012951243 0.08219026 0.004312114
-0.20311789 -0.0617263 -0.019860115 -0.045686394 0.056226462 -0.024196986 0.14297198 -0.0049176
0.120181255 -0.05316759 0.0144948345 0.096822165 -0.14058822 -0.2736813 0.082055695 -0.11348746
0.042610016 -0.055521607 -0.09177692 -0.04804113 0.12626919 0.056828965 0.010249102 -0.01467131
-0.07632107 0.081988186 -0.06965726 -0.056197807 0.042003576 0.20169416 -0.09304697 -0.1764046
-0.12053289 -0.029598877 -0.064922854 0.147317 -0.0006110217 -0.030653635 0.19096 -0.08843274
-0.17946349 0.073325545 -0.09732759 0.057896033 -0.11859878 0.02727467 -0.049480747 -0.09933379
0.05822243 0.052397154 -0.09275888 0.04306379 0.13471375 0.20811917 0.071168855 -0.22636193
0.07738187 0.08967674 -0.02268986 -0.14722401 0.1388944 0.105539635 0.083074875 0.09602263
0.033783052 -0.08550936 -0.07337264 -0.17144619 0.12004603 0.026485022 0.05174182 0.13904439
-0.019695723 0.16463253 -0.053017158 -0.08597332 0.026540611 -0.16535267 -0.11294756 0.00078003295
-0.18412952 -0.14741199 -0.013232366 -0.07573542 0.24757802 0.057076935 -0.091118366 0.05984733
0.091379255 -0.091823295 -0.04235625 0.10647365 0.030060915 -0.10609705 -0.03206895 -0.12473617
-0.14074862 0.14672168 -0.09038497 0.2469728 0.120424554 -0.06084286 0.14574371 -0.09622615
0.0068119615 -0.040436063 -0.038329974 -0.119317435 -0.023951935 -0.0048107496 0.16756365 -0.009269892
0.07134923 -0.025417766 -0.14970297 0.07840937 -0.03937104 -0.17997906 -0.072754435 0.14187871
-0.0971789 0.064531356 -0.07883038 -0.12580816 0.024341676 0.050858084 -0.075907886 0.009299381
-0.029136766 0.0021612304 0.046316054 0.13426262 -0.0060168956 0.18877846 -0.21636616 -0.16336125
-0.18594219 -0.1764255 -0.019061854 -0.0027795671 -0.03761257 -0.119951196 -0.06359095 -0.13091335
-0.039951608 0.087844655 0.0053217662 0.031358317 -0.10962261 0.020249827 -0.059631247 0.075149156
0.007840047 0.008366641 0.034220193 0.10972948 0.0435733 -0.0008772944 0.15997808 0.09509912
0.19328901 0.09544214 -0.04876492 -0.12158771 0.074629836 -0.12708725 0.024833554 -0.082118236
-0.11405253 -0.030168187 -0.055574663 -0.14450367 0.06867777 -0.25364953 0.05390037 0.09370582

F.linears.2.bias f4 [10]
00000000: 348a 173d 5150 d2bd 2f5a d3bc 7aee 003d
00000010: f7d9 b6bd d2c1 c83d 37ee ca3d e21c 033d
00000020: 8157 9b3d 96af a6bc
0.036997035 -0.102692254 -0.025799839 0.03147743 -0.08928292 0.09802593 0.09908717 0.032009967
0.075850494 -0.020347398

G.0.linears.0.weight f4 [32, 10]
00000000: aa19 c23c bb35 e73c c352 92bc 5026 81bd
00000010: d5b3 f73d d0a0 d8bd b9c9 4cbe 8011 e1bd
00000020: 6702 d8bb 4ca1 223d 42d1 e1bd 7f13 dbbc
00000030: edf2 93bd c882 cc3c 0c9f 97be 2a19 d83c
00000040: 6ee9 503d eb0f 593d f5ea b43d 65b8 03be
00000050: bae3 7b3d 36ec 553e f38b d8bc 04d3 123c
00000060: a33b eebd 2df2 003d d9a8 85bc ed23 a8bb
00000070: be53 14be 2235 2d3d 06ea 61be 7685 ee3d
00000080: 54df 96bd 9a68 933d baa4 b83d 4df1 a43d
00000090: c23b bfbd e66c d33d 3597 e5bd 8f4c bc3d
000000a0: 1278 153d 34f0 a8bd a242 043e f86e 97bd
000000b0: 6371 07be 545f bfbd 6c16 123e cc04 f63d
000000c0: af8f 7e3d f621 9c3d 472a 0ebe 65bf d73b
000000d0: c0b3 d1bd 1fc7 853c 0e1e af3b 251c 16be
000000e0: b4d1 5d3e d894 213d e65e 673d a72c eabd
000000f0: 3bab 8f3d b08a 2fbc b24a b83d b31e b53d
00000100: 3f2d abbd 0da6 48bd 7041 d33d 121e cbbb
00000110: 5d9f 94bd 22c6 a63b 9d56 38bc b992 5f3d
00000120: 8caa e4bd 5630 69bc c006 d83d d25e a33d
00000130: 90c3 42be 0666 9a3b 76fa 5b3e f915 13bd
00000140: 1360 083e 7e9e 26be b963 143a fd31 00bd
00000150: b9cf 59bd 1138 efbd 331c 92bd 9c16 b9bc
00000160: 89b3 07be 3b18 433d f409 edbc 0f5d 05be
00000170: 8f60 3cbe ef79 e83d 8f47 fc3d 5de6 493d
00000180: 0af2 1abb b1d6 cabd 6c49 993c 145c 493e
00000190: 7e69 853e 5842 20be 3e1f 06bd cbae 62bc
000001a0: bd70 b5bd 7d86 b5bd c76c b43d 2f00 813d
000001b0: 3006 203e abc2 be3d 3cec 29bd 4953 253d
000001c0: d810 c73d 5c67 36ba 56df 95bd f4c4 d0bc
000001d0: ecef babd 37bd d2bd 4a19 423e 54fd a8bc
000001e0: a664 08be 93f9 adbd ac5e 943b 749b 4dbd
000001f0: b132 64be 8d68 a53d 0679 ffbc a739 773d
00000200: 7a93 f6bd 50ae 343e 2579 b1bd a4ee bf3c
00000210: 335c 423e 69bf 093d 6ab6 0b3e 5b4e c0bb
00000220: 516f 3b3d ef08 49bc e7ef f0bd bc94 053e
00000230: 7e0a 8d3c 4655 a23e 35d4 5fbe 2ef6 843d
00000240: 3e87 91bd 6fdf 8ab9 9d79 0b3e 2875 ad3d
00000250: eb20 433e b4af fcbd b57f 5a3e fcf3 7c3d
00000260: 4043 a13d 0c37 11bb e3a3 983d 6fc1 a53d
00000270: 9f09 c8bd e3cd 3abd 5ba1 303d ca24 8bbd
00000280: c578 66bd e2ae 2abd 6e05 d7bc 79d5 1b3e
00000290: 15c7 9dbc a003 8f3d eff6 acbd 5ce9 b93d
000002a0: def1 443a 9a56 6cbd 419f 13be 7127 ddbb
000002b0: 9201 7dbe 9862 473d eb80 8c3d 9550 5dbe
000002c0: bb3f 803c 836e cb3d 9c4b 22be d4cd 2dbd
000002d0: 6c47 453e 8792 08bd b32c 1bbe 3830 51be
000002e0: 737d 393d d4ce 093b 0bd4 0d3e ecc9 fe3d
000002f0: c4b3 063e 39d8 c8bd d320 ba3d a405 cb3d
00000300: a23f a33c 5e03 b93d 447a 9cbd 44b6 a0bd
00000310: 2ef3 7c3d 2f3e 71bd 72a5 253e 8eb7 77bb
00000320: f46a ddbd e1e9 893e 05bf a53c 52e1 163e
00000330: ec22 a8bc 520e 28bc 01ab dbbc 2802 ea3a
00000340: 2c48 bcbc d9fd 9c3d 345e 423e 854b 793c
00000350: fac0 223c 9049 3ebc 46df c23c edb7 493d
00000360: 1506 0c3d fa5e c3bd ca72 02bd ba33 653c
00000370: 59aa dcbd 877f f9bd 94a7 9a3d 9984 1d3e
00000380: b781 3fbd 81ed 103e 2cf7 3e3e 6bbf 573c
00000390: 7a64 84bd dcae 0a3d d65c 793e 831c b13c
000003a0: fa23 06be b900 533d e266 8cbd 011d 963d
000003b0: 6bcb bf3d 7f23 493d c713 203e 454c b63d
000003c0: ea1c 3f3d b8b3 1bbe f3ff da3c 0a88 bdbd
000003d0: cc94 45bd 17b1 0fbe 9a7f 543c a83c 343e
000003e0: 915d 3cbd 4aa2 903d f147 dabd e43e 00be
000003f0: 2b13 be3d 7b21 093d 2720 82bd defe efbd
0.023693878 0.028223863 -0.01786173 -0.06306136 0.12094847 -0.105775476 -0.19998826 -0.10989666
-0.0065920833 0.039704606 -0.11026241 -0.026742695 -0.07224069 0.024964705 -0.2961353 0.026379187
0.051003866 0.052993696 0.08833877 -0.1286331 0.061496474 0.20890889 -0.02643392 0.008961443
-0.116324686 0.031480957 -0.016315864 -0.005131236 -0.1448507 0.042287 -0.22061929 0.116465494
-0.07366815 0.071976855 0.09015794 0.08053837 -0.0933757 0.10323505 -0.11210481 0.0919429
0.03649146 -0.0824894 0.12916043 -0.073942125 -0.13226847 -0.09344354 0.14266366 0.12012634
0.062148746 0.07623665 -0.13883315 0.0065840953 -0.10239363 0.0163303 0.005344159 -0.14659174
0.21662027 0.03944859 0.056486987 -0.11434298 0.070150815 -0.010714218 0.08998622 0.08843746
-0.083582394 -0.048986483 0.103152156 -0.006198653 -0.07256959 0.0050895372 -0.011251119 0.054583285
-0.11165342 -0.014232716 0.105481625 0.0797707 -0.19019914 0.004711869 0.21482262 -0.035909627
0.133179 -0.16271397 0.0005660612 -0.031297673 -0.053176615 -0.11680616 -0.07134285 -0.022593789
-0.13252081 0.04763053 -0.02893541 -0.1302378 -0.18396209 0.11351382 0.12318336 0.049291957
-0.0023642802 -0.099042304 0.018711768 0.19664031 0.26057047 -0.15650308 -0.03274464 -0.013835619
-0.08859394 -0.08863542 0.0880981 0.06298863 0.1562736 0.09314474 -0.041485056 0.04036263
0.097200096 -0.0006958151 -0.073179886 -0.02548454 -0.09127793 -0.10289996 0.1895496 -0.020628609
-0.13319644 -0.08494868 0.0045278873 -0.05019708 -0.22284962 0.08076582 -0.031185638 0.060357716
-0.12039848 0.1764462 -0.086656846 0.023429222 0.18980484 0.03362981 0.13643804 -0.0058687157
0.045760456 -0.012270196 -0.11764508 0.13045019 0.017216917 0.31705683 -0.21858294 0.064922675
-0.071058735 -0.00026487882 0.1362061 0.084696114 0.19055526 -0.123382 0.21337779 0.06175612
0.07874155 -0.0022158055 0.07453134 0.08093535 -0.0976746 -0.045606505 0.04312263 -0.06794126
-0.05626752 -0.041670687 -0.026247706 0.15218152 -0.019259969 0.06983113 -0.08445536 0.09077713
0.00075128477 -0.057699777 -0.1441622 -0.0067490865 -0.2470763 0.04867801 0.06860527 -0.21612771
0.015655389 0.09933188 -0.15849155 -0.04243262 0.19265527 -0.033342864 -0.1515377 -0.2042855
0.045285653 0.002102782 0.13850419 0.12440857 0.13154513 -0.09806866 0.09088292 0.09913185
0.019927803 0.09033845 -0.07640508 -0.078472644 0.06175535 -0.058897194 0.16176394 -0.0037798616
-0.10811415 0.26936248 0.020232687 0.1473439 -0.020524465 -0.0102573205 -0.02681494 0.0017853426
-0.022983633 0.07665605 0.18981248 0.015215759 0.0099337045 -0.011614218 0.023788106 0.04924767
0.034185488 -0.095396 -0.031847753 0.013989383 -0.10774679 -0.12182527 0.07551494 0.15382613
-0.046754565 0.141531 0.18648976 0.013168196 -0.06464477 0.033858165 0.2435182 0.02162004
-0.13099661 0.05151436 -0.06855561 0.07329751 0.09364971 0.049106117 0.15632544 0.08901266
0.046658434 -0.15205276 0.026733374 -0.09254463 -0.048237607 -0.14032398 0.012969876 0.17601264
-0.04598767 0.07062204 -0.10658253 -0.12523991 0.09281 0.033479195 -0.06353789 -0.11718534

G.0.linears.0.bias f4 [32]
00000000: 95c4 61bc 7889 883d 876c 57bd 287c 803d
00000010: 161b 52bd e3c1 d03c 141f 6a3d bd47 34bd
00000020: f94c ab3d e597 a0bd df97 71bc 6667 84bd
00000030: 5f57 973d 10d3 a1bd b68a 5ebd 1779 33bd
00000040: 340c 39bd 21a6 8abd bb4b dabc 43e7 4b3d
00000050: 881f 2f3c 5cc9 c23d ec47 79bd 29df b13d
00000060: 884c d93c c444 75bc 6fba aabd c5f8 7d3d
00000070: 5701 e43a f63c 91bd f1c5 8dbd 64c5 85bc
-0.013779779 0.06666845 -0.052593734 0.06273681 -0.051295362 0.025483077 0.057158545 -0.044013727
0.08364291 -0.078414716 -0.014745682 -0.06465034 0.073897116 -0.07901585 -0.054331504 -0.043816652
-0.045177653 -0.06769968 -0.02664744 0.049781095 0.01068867 0.095110625 -0.060859606 0.086851425
0.02652575 -0.014970008 -0.08336341 0.062004823 0.0017395419 -0.070917055 -0.0692252 -0.016329475

G.0.linears.1.weight f4 [32, 32]
00000000: 1382 41bc 2a91 123e 792c acbd 9559 1abd
00000010: c3e1 333d ba82 333e ccc9 1cbe a966 0e3d
00000020: ef38 073d dbc1 8f3d d2a0 073e 7a87 acbc
00000030: 71c7 babd 859c 5fbd 571c 993c 7be5 ebbd
00000040: 0ed1 833e 29f4 d23c 4e82 3bbe 2b8d 48bd
00000050: b310 22bd cbd9 c03d 99e5 a5bd 647e 893d
00000060: d0b9 20b8 377f 943d 533d 113d bdd2 bf3d
00000070: 4c01 dcbc 3fc1 f4bd 5a3e 05be 5144 9dbd
00000080: 9a8f 40bd 88f6 f5bd 45d4 ff3d db2c 993c
00000090: bdf5 033d c3f1 f83d 05b2 84bc d3b0 d9bc
000000a0: 1fee 7d3d 5942 6e3d 7860 25bc 89e3 85ba
000000b0: a853 c8bc 27fe a03c eb4d d6bd 8fdf 3c3e
000000c0: d790 1abd 35bd acbc 78b0 b1bc fbb7 ae3d
000000d0: 6836 503e e557 1a3e 7ed2 d0bd c91d c63b
000000e0: c731 503e 617b b83c d54f 8dbd 9dc0 66bd
000000f0: 5fb8 993d e763 ccbd dafc 243e 4d9d 843d
00000100: 01e0 b53d 5e11 ecbd 6277 dd3d fcf1 c63d
00000110: bee4 0ebc 76c4 833e a22d b3bd c6e6 5ebd
00000120: 2afd ab3d 7d67 d03d 3288 d23d bfec 823c
00000130: 659a 033d 052c 12bd 4a90 263c fb64 07be
00000140: b3c3 7ebd 1d7c 2c3e c395 9e3c 8e76 24be
00000150: 9e14 8d3d 19f7 c13d 523f c0bd 6c6a 48bd
00000160: 6cab bd3d 2ae3 cb3d 24ab 3d3e 02e0 433e
00000170: ca0f 19be 2d22 563e 46ab a8bd 572b 84bc
00000180: f493 1e3d 42e1 d2bc c3a1 1cbe d1b6 d0bd
00000190: b801 933d cb1c e8bd f771 1ebe 2a55 7e3c
000001a0: 2b4b 13bd 5250 153d ce1f 813d e40d 413d
000001b0: df97 97bd 284e 7fbd fdd5 2ebc a48b ffbc
000001c0: d575 76be 1de5 663c 3f04 d53d 9337 ed3c
000001d0: b497 c2bc cb1c f9bd 192d 14bd e9b9 eebd
000001e0: b2ab 48bd 9839 993c cfb9 0dbd ec28 a53d
000001f0: 41d8 29bc 9160 eb3d d1fa 34be 1141 f7ba
00000200: b3fa 073d 7ea5 d2bc 3dc7 2d3e bcb1 243c
00000210: c05b 12be 1e16 893d 2f40 ef3c 906a 923c
00000220: 655e 25bd 00e3 0db9 4dd1 8d3d 283d efbd
00000230: cb9b fbbd 2050 8d3d f1d5 813d 686a d7bd
00000240: e1b9 86bd 1bfe d1bc 9f28 1d3e 9402 1bbd
00000250: 404d 953d cbae 033e 89e3 123e 0f16 4ebd
00000260: 475e 37bd dcda 1a3c a5d4 fd3d d918 0d3e
00000270: 08fd 82bd 2cff edbd d39d 103d a347 883d
00000280: 7006 2abe 6646 ee3d 370d 93bc 9a9c 21bd
00000290: 1a4e 5b3e 2f8d 433c 54c6 9fbd bad1 943d
000002a0: eccf 233d 5f98 58bd 4656 57bd fc33 8f3c
000002b0: 6dc9 743d 195b 0fbd 60f6 193d 64f6 ddbc
000002c0: 26f0 89bc 6ad1 453d f7f8 a5bd 18a0 e13d
000002d0: 6dc3 2c3d c60e ff3d 8a63 b13c 40ce 64be
000002e0: ff51 31bc 17f5 4dbe a7c4 a7bd a220 0ebd
000002f0: 1eb5 babc 2746 22be 1dd6 d2bd d5a7 383d
00000300: f74e 403d 6c8d 28be 2824 a0bd 1452 0d3e
00000310: d912 84bd d398 3ebd 54c2 8fbd c835 653e
00000320: c132 b8bd e2e9 93bc 1f1c 20bd 4ae7 c63d
00000330: 11de 12bb 22fe 063c f091 2e3d b223 773d
00000340: 8df5 f1bc 1721 f13d cebf 1c3e 444d 123d
00000350: 4548 f93a d088 0cbe 5222 793c 704b 2abd
00000360: 8558 edbd 3db6 953d c765 87bd 690d 113e
00000370: 6686 26ba 28ad 743c 2d56 f3bb 359d 323e
00000380: 0080 003e d22b 18bc 9762 5f3c eea6 aa3d
00000390: bc11 80bc 9d9e bfbd 9860 77bd 1280 873c
000003a0: 228e cebd b13c 6b3d 1c8d 1dbd c682 30be
000003b0: 78e9 3abc 2e57 d6bc 857f a5bd aff7 1bbe
000003c0: c90a 583d 0a81 8e3d 3f54 9dbd e898 0f3e
000003d0: 5c33 94bd d6f1 a63d 3610 95bb 3852 763c
000003e0: 0bcc 1abe 1bad 713d ed47 da3c 2985 c33d
000003f0: 7077 0c3d 7017 523e fc9b 96bc 1c48 843c
-0.011810797 0.14313188 -0.0840692 -0.03768309 0.043916475 0.17530337 -0.15311354 0.034765873
0.03301328 0.07019397 0.13244942 -0.021060694 -0.09120072 -0.054592628 0.018690271 -0.11518379
0.25745434 0.02575119 -0.18311426 -0.048962753 -0.039566707 0.09416541 -0.08100433 0.0671356
-3.8320024e-05 0.07250827 0.035458874 0.09366367 -0.026856087 -0.11950921 -0.13012066 -0.07679046
-0.04701195 -0.12009913 0.12491659 0.018698147 0.032216776 0.121554874 -0.016198168 -0.026573574
0.061994668 0.058168743 -0.010093801 -0.0010214905 -0.024453953 0.01965244 -0.104640804 0.18444656
-0.037735786 -0.021086315 -0.021690592 0.08531185 0.20333254 0.15072592 -0.10196398 0.006046031
0.20331489 0.02251977 -0.068999924 -0.056336034 0.07505869 -0.09979992 0.1611208 0.06475315
0.08880616 -0.1152675 0.10813786 0.097141236 -0.008721529 0.25735825 -0.08748938 -0.0544193
0.083978966 0.10175989 0.102798834 0.01598203 0.032129664 -0.03568651 0.010166237 -0.13222115
-0.062198352 0.1684422 0.019358521 -0.1606085 0.06888698 0.09470958 -0.093870774 -0.048929617
0.09261212 0.099554375 0.18522316 0.19128421 -0.1494743 0.20911475 -0.08235793 -0.016133947
0.038715318 -0.025742177 -0.15296082 -0.101911195 0.07178062 -0.11333617 -0.15473162 0.015523234
-0.035960358 0.036453553 0.063048944 0.047132388 -0.07402014 -0.062330395 -0.010671136 -0.031194516
-0.24068387 0.014092711 0.104012005 0.028957164 -0.023753978 -0.12163695 -0.03617582 -0.11656553
-0.048991866 0.01870422 -0.03460103 0.08064446 -0.0103665 0.11493028 -0.17673804 -0.0018863996
0.03319807 -0.025713678 0.16970535 0.010052141 -0.14292812 0.06693672 0.02920541 0.017873079
-0.040373225 -0.00013531372 0.069246866 -0.116815865 -0.122855745 0.06900048 0.06339634 -0.10518342
-0.06578422 -0.025633862 0.15347527 -0.037844256 0.07290125 0.12859647 0.1434461 -0.050314005
-0.044767644 0.009451594 0.12394074 0.1377901 -0.06395918 -0.11620936 0.035306763 0.066542886
-0.16604018 0.11634521 -0.017950637 -0.039455988 0.21416512 0.011935516 -0.078015 0.07266565
0.03999321 -0.052879687 -0.05257251 0.017480843 0.059762407 -0.034998987 0.037588477 -0.027095027
-0.016838145 0.048295416 -0.08104127 0.110168636 0.04217856 0.1245399 0.02165391 -0.22344303
-0.010822772 -0.20113026 -0.08191805 -0.03469909 -0.022791442 -0.15847073 -0.10294745 0.045081932
0.046950307 -0.16460198 -0.07819396 0.13800842 -0.064489074 -0.046532463 -0.07019487 0.22383797
-0.089940555 -0.01805586 -0.03908932 0.09712084 -0.0022410194 0.008239301 0.042619646 0.060336776
-0.029536033 0.117738895 0.15307543 0.035718217 0.001901873 -0.13724065 0.0152059365 -0.04157585
-0.115891494 0.0731015 -0.06611209 0.14165272 -0.00063524244 0.014933862 -0.0074260444 0.17442782
0.12548828 -0.009287791 0.0136343455 0.083326206 -0.015633456 -0.09356425 -0.060394853 0.01654056
-0.100857034 0.057430927 -0.03846465 -0.17237386 -0.011408202 -0.026164617 -0.08080963 -0.15231203
0.05274466 0.06958206 -0.07682084 0.14023173 -0.072363585 0.08151595 -0.0045490516 0.015034251
-0.15116899 0.059002977 0.026645625 0.09546883 0.034293592 0.20516753 -0.018384926 0.016147666

G.0.linears.1.bias f4 [32]
00000000: e702 dd3d 8748 b03d f900 1b3d ce39 753d
00000010: 7ed6 323d 86e5 4f3d 74a3 30bd 9a98 93bb
00000020: 7d16 e3bc 1acb a5bd cff9 79bd 5f0a a53d
00000030: 47b3 e33d 2b83 303b ae0a c23d b47c 9dbd
00000040: 8ad6 d2bd 46d6 b53d ca74 82bd 1c79 663d
00000050: b69a 97bc 5344 06bc 62ba 423d 332d 4c3d
00000060: 86f5 2dbc 2808 de3d 5c93 a83d 5f32 96bc
00000070: 583b 983c d5ea a7bc ad7c 543b 06cd a739
0.10791569 0.086075835 0.037842724 0.05986958 0.043661587 0.050756 -0.04312463 -0.0045042755
-0.027720684 -0.08095379 -0.06102925 0.08058619 0.11118179 0.002693365 0.09474693 -0.07689801
-0.10294826 0.0887876 -0.06369932 0.056267843 -0.01850639 -0.008195001 0.04754103 0.049847793
-0.010617619 0.108413994 0.082312316 -0.018334566 0.018582985 -0.020497719 0.0032422945 0.00032005477

G.0.linears.2.weight f4 [10, 32]
00000000: 7bf0 8dbd 0e2d 453d c33f d23d e24c 933c
00000010: 128e 1ebe caa2 463d e3d8 8fbe c16f 42bd
00000020: 8f5e d83d 125b c5bc 3d7f ae3c 2acf ab3c
00000030: 1b0e a93d 2438 89bc 83a2 00be 54d1 e8bd
00000040: 83a3 6d3e 7185 f6bd c47c bb3c 7f3f 033d
00000050: e5d6 ba3c 6c16 94bd 6a2a ffbd 112d 013d
00000060: 8aac a73c e45c 57bd 1248 573e 0a1d 0f3e
00000070: 19ea 2dbc eb93 babd 1f97 693d 8c85 67bd
00000080: fea3 48be 92e8 6c3d b545 9dbd 4127 ac3d
00000090: 35bf 24be 59bb 2e3e e2c9 423d 0c24 24be
000000a0: bda8 feba a413 05bc f113 b53c 0ad2 f8bc
000000b0: 4758 6e3d 3a7e 6e3e c638 31bd 62bd 83bd
000000c0: ead4 6c3c 515c 013e 0b78 b83d 9c3c 6cbe
000000d0: 45de 4f3d 5d92 bfbd b67e eabc ae49 16bd
000000e0: 051f 44bd ed37 0bbd 59c8 8cbd 0c3c eebc
000000f0: ec62 6bbd 7032 0f3e 6603 513c f242 e83d
00000100: 562b a2bc 501f 2f3d e96c 27be d0a8 863d
00000110: 0cd8 203d a707 003e 9cce 8b3d 871f 363d
00000120: a12c 3dbe f829 6b3e 2dc7 2dbc 573a 213e
00000130: 3848 5fbd 4c5f 913d bf40 49be af92 85be
00000140: 53c7 c3bd db21 47be f489 fb3d 8f05 c73d
00000150: 3bd0 16bd c8ec c1bd 3295 c63d ff4b 8abe
00000160: 3c2c dcbd 9653 1c3c 6061 63be 8929 653d
00000170: 2e33 633e ca45 e7bd eb22 333e fa80 17be
00000180: 7e45 96bc 5244 fbbb 1894 283e dbe9 37bd
00000190: dc48 c8bd f814 ebbd c219 ca3c 6009 2b3d
000001a0: 51b5 1cbe 783d c83c bdae 4dbd e24f 8dbd
000001b0: a53a 73be d89d fabc 317d 11be b9db ddbd
000001c0: 67cd f13d 4a88 f6bc 4096 23bd 2d81 213d
000001d0: 5847 253a 6bf3 ddbd 412e dd3c 9e33 fdbd
000001e0: b125 ca3d 0cc2 8bbd d1e0 eabc d716 c9bd
000001f0: fba7 3cbe 1794 ffbd 88fb a4bd b944 dcbd
00000200: c81e 8d3d eec3 11be 9795 64bd 236a cf3d
00000210: 260a 233d c6c7 0ebe 684b a23b 7193 153c
00000220: 2c16 c0bc 8283 28be 6d7c c1bd 659a 7b3c
00000230: f6a1 eebc cc68 833d e1ee 323e 7396 0dbe
00000240: c5d6 a73d 1179 a4bd f962 14be c7dd 9e3e
00000250: 35b8 823d 03f0 bd3d 3cde 2cbc 9995 b6bd
00000260: fc27 183e 23f4 5c3d 1021 eebd bb4b 0fbe
00000270: 2760 b8bd 8723 4fbd e137 ebbc fcfb 0d3e
00000280: 3ff2 0bbe e990 333d 22eb 05be f3a4 8ebe
00000290: 2b18 6b3d 41de fc3b 0af0 e63d f565 8abc
000002a0: 539a 8b3d 38a0 cd3d 2a01 383d 3f10 6e3d
000002b0: 6f74 40be 9941 d23d 9edc e4bd 4089 61be
000002c0: f646 4cbd 95cf 483d 133f afbd 53ef b7bd
000002d0: f95d adbd 5cde 8cbd 582a 33be b1e5 5cbd
000002e0: 5ad1 4dbd 1d83 293c 1bcb e9bd 0f69 6e3e
000002f0: 8287 9ebd 73ed 023e 5305 40bd 93d2 3d3d
00000300: da1d 593d a209 10be d53d 22bd fb1c de3d
00000310: 0714 b9bc abdb 053e 9f80 223d 7ea4 48be
00000320: 8189 f8bb 20a9 043d 0a55 b93d 80e1 6b3d
00000330: 2492 353d 91e8 9f3c cd60 183e 8609 ffbc
00000340: 29d5 d5bc 5b7f 32bd fcee c13d 8f72 c9bd
00000350: a7b6 9ebd 8369 d83d 51f8 adbd 4afd a63d
00000360: b7b8 1cbe facb 96bd 46d7 4dbd 2770 ee3d
00000370: 780a bdbd 01ff f5bd bff9 063d 0590 4cbd
00000380: 6c49 83bd 0c92 ec3d 30f2 083e b500 743c
00000390: 7c33 673e 115d c1bd ec1d 84bd 98c5 cb3d
000003a0: 4154 23bd 9af7 bfbd b84c 863c 804b f6bd
000003b0: b217 76bd 9296 3e3e 1777 9d3d 1019 cf3d
000003c0: ae04 c8bd 707f b1bc b66a 84bd 9ef7 be3d
000003d0: 04ae 08bd 0e7f fbbd 74d6 7839 dbb9 14bd
000003e0: 6289 943c 6b4d dcbd c0f6 883d 9185 c43d
000003f0: 1d70 263e 91f4 903d bb68 383d c0bb b8bd
-0.06930634 0.04813867 0.10266068 0.017980997 -0.15483883 0.04849509 -0.2809516 -0.047469858
0.105649106 -0.024091277 0.021300906 0.020972807 0.082546435 -0.016750403 -0.12561993 -0.11368051
0.23206906 -0.12037171 0.022886641 0.032042976 0.022807548 -0.07230839 -0.12459262 0.03153712
0.020468015 -0.05257882 0.21023586 0.13975921 -0.010614895 -0.09110244 0.057028886 -0.056523845
-0.19593808 0.057838984 -0.07679311 0.084059246 -0.16088565 0.17063655 0.04755581 -0.16029376
-0.001942895 -0.0081223585 0.022104235 -0.030373592 0.058189657 0.23290339 -0.043267034 -0.06432606
0.01445506 0.12632872 0.090072714 -0.23069996 0.050749082 -0.093540885 -0.028624874 -0.03669136
-0.047881145 -0.03398888 -0.06874151 -0.029081367 -0.057467386 0.13984084 0.012757158 0.11340894
-0.019796055 0.04275447 -0.1635014 0.06575167 0.03926854 0.12502919 0.06826517 0.04446366
-0.18474056 0.22965229 -0.010606569 0.15744911 -0.054512233 0.070982546 -0.19653605 -0.26088473
-0.095595025 -0.19446509 0.12282172 0.09717857 -0.036819678 -0.094689906 0.096964255 -0.27011105
-0.107506245 0.009541413 -0.22205114 0.055947814 0.22187492 -0.11292608 0.17493789 -0.14795294
-0.018343683 -0.0076680565 0.16462743 -0.044900756 -0.09779522 -0.11478609 0.024670485 0.041756988
-0.15303542 0.024443373 -0.05021547 -0.06900002 -0.2375284 -0.030592844 -0.14207913 -0.108329244
0.118067555 -0.030094285 -0.03993821 0.039429832 0.00063048815 -0.10837444 0.026999595 -0.12363361
0.0987047 -0.06824121 -0.028671654 -0.098188095 -0.18423454 -0.12479418 -0.08055788 -0.10755295
0.06890637 -0.14234897 -0.055806722 0.10127666 0.0398046 -0.13943395 0.004952837 0.009129391
-0.023448072 -0.16456416 -0.094475605 0.015356635 -0.029129963 0.06416473 0.17473938 -0.13826923
0.08195261 -0.08030904 -0.1449088 0.31028578 0.06382791 0.09274294 -0.010551032 -0.08915252
0.14859003 0.053943764 -0.116274 -0.13993733 -0.090027146 -0.05057099 -0.028713169 0.13865656
-0.13666628 0.04383937 -0.13077977 -0.2786022 0.057396095 0.0077169244 0.112762526 -0.01689432
0.068165444 0.10040325 0.044922985 0.058120962 -0.18794416 0.10266418 -0.11174892 -0.22025013
-0.04987236 0.04902609 -0.08556952 -0.08981194 -0.084651895 -0.06878349 -0.17496622 -0.05392999
-0.05024848 0.010346201 -0.114156924 0.23282264 -0.0774069 0.12785892 -0.046880078 0.046343397
0.053006984 -0.14066175 -0.03960975 0.10845371 -0.022592558 0.13072078 0.039673444 -0.19593999
-0.007584751 0.032387853 0.09049423 0.0575881 0.044328824 0.019520076 0.14880677 -0.03113247
-0.02610262 -0.043578487 0.09469411 -0.098363034 -0.07749682 0.10567 -0.08494628 0.0815378
-0.15304838 -0.07363124 -0.05025413 0.11642485 -0.092305124 -0.12011529 0.03295302 -0.049942035
-0.064104885 0.11551294 0.13373637 0.014892747 0.22578233 -0.09441579 -0.0645102 0.099497974
-0.039875273 -0.09373398 0.016394004 -0.12026119 -0.06008119 0.18612126 0.0768873 0.10112202
-0.097665176 -0.021667212 -0.06465666 0.09324573 -0.03336908 -0.12280093 0.00023731013 -0.036310058
0.018131915 -0.10756954 0.06687689 0.09595788 0.16253705 0.07077897 0.045021754 -0.090201855

G.0.linears.2.bias f4 [10]
00000000: 4b8e 83bc e419 92bb a8c1 243b bf07 debd
00000010: a5c2 bcbd 07d3 443b 239c 833d 2182 933c
00000020: fe38 9c3d 242c f3bb
-0.016059062 -0.004458653 0.0025139842 -0.10841321 -0.09216813 0.0030033009 0.06426265 0.018006386
0.07628058 -0.0074210335

L.0.linears.0.weight f4 [32, 20]
00000000: 7b81 38bd 5dc1 1d3e b253 70bc ed3e 673d
00000010: f8bf a7bd a1ca 1ebd 381c bcbd 3671 293d
00000020: fd30 f03d f682 a13d 4462 803d b814 313b
00000030: 9c14 6f3d 58fd 00be 5825 88bd 8c02 d23d
00000040: 75da 35be f2cd 7fbc a337 e63d 01af a8bd
00000050: eb58 67bd 7ea0 12be d471 a53d 79d1 44be
00000060: 204a a03d 6d91 2ebe ca46 7bbd 9439 2cbe
00000070: af46 a7bd df08 1e3d 79fe 13bd 7be5 ca3d
00000080: ada4 dfbd 0c7d c93c 4812 c73d 2882 4ebd
00000090: dc73 863d 928d eabc c46e 513d b88c 7dbd
000000a0: dfa2 7c3b c770 b23d e78a b2bd 9dff 1f3d
000000b0: ef6b 593d 15a8 253d 5848 7b3c ae0d 3d3c
000000c0: 5a2f e83d 507c aabd dd8d 86be e1d9 f3bc
000000d0: 360e 64bd a58a 243e f0dc 26be 1f8f f7bd
000000e0: 8b5c e83d 288e 4a3b b270 fcbd 0e7c 343d
000000f0: b0af 89bd 4616 1fbe 4344 643d e02d 5e3c
00000100: 1921 19bd eebe 4dbd ad13 4e3e 1305 a33d
00000110: 2c7d 2abd 9483 903d c6c6 6bbd e9df d23c
00000120: a766 8dbd be9f 75bd 134d 1cbe 70a6 4c3d
00000130: e38a 163e 4170 e5bd 920a cbbd e615 6f3b
00000140: b9ce 84bd ab59 263d b270 133e ae24 82bd
00000150: f8fd 0c3d d240 f03a ef5d e8bd cc0a bc3d
00000160: f958 27bd df26 e63b 7799 ebbd a862 f43d
00000170: 4c7c 973d b2cd 5c3d 0385 963d 7941 a0bd
00000180: f8f2 c63d b0d4 49bd b45a 5abd 88cf 17be
00000190: d21d 173e c278 86bd a9a0 883d cdf0 d5bd
000001a0: 5b6d 533d 40f2 423d 42a3 d03d 0ea1 fbbd
000001b0: f9dd cfbd a3e6 a33d 645e 0ebb 373b 3cbc
000001c0: 0eba a03d 4cd5 1ebe 54a5 adbc 77d6 e43c
000001d0: 1da1 693d 9715 ecbc 767d aebd f829 ff3d
000001e0: 20c3 8c3a 91d9 5bbe e790 8cbd e289 af3d
000001f0: 8b9b a6bc 4f61 1b3e d693 da3d c300 383c
00000200: 0778 d93c 5be4 94bb d11d f73d 667e 98bd
00000210: 4f7b fc3c a34b 073e 4ab3 bd3d 76ae 0ebe
00000220: be1c 823c f51c a8bd 3a22 3ebd e156 8f3d
00000230: e074 c13d 2bf3 3abe c8f9 08be 64fd 9a3b
00000240: ee44 9c3d bd1d 823d 9111 77bd 5ee4 d93d
00000250: 3e64 383e d5c3 0dbe 1abc 223e 7191 31bc
00000260: d243 743c 9b89 d4bd 26cb b23d db77 09be
00000270: fbc1 103d 4e69 d9bd 29bf cfbd 6c38 0dbd
00000280: 1fbd 943d 64bd 0a3d 4435 09be e36d 4fbc
00000290: ef3b 243d 40f2 67be fa03 f93d f034 4a38
000002a0: fb03 20be 229a eb3c fd1a 5b3d 058d 15be
000002b0: 4c84 a63c 6c3c f43d 9d9f 3a3e 071f 45bd
000002c0: 509f 123e b774 4b3e f5b6 50bd 4f14 8cbd
000002d0: d9e9 00bd dd46 1ebe 4697 973d 0f98 3c3e
000002e0: dc64 b23d f401 04bd be5c e03d 9cc1 fb3d
000002f0: c88c b9bd 27fc 783c 2d58 7d3c fcc6 9dbd
00000300: 37a2 2b3e 7c42 d2bd 0e85 57bd 3e8c 083e
00000310: 7d6e ac3d 18aa 063d 853a b93d 1d62 1abc
00000320: b4b7 0d3e c869 ff3d acbd b13d 9ede 123d
00000330: 60f2 e83d 3791 bbbc 925b e33d ee71 edbd
00000340: 9b5d b63d fa3e 953d 637e 813d e467 e3bd
00000350: d057 ecbd ea4f 04be 4ece c03c 90fa a138
00000360: b0e3 c43c b34f d33d 8ff8 ddbd 2ecf 7c3d
00000370: 4c46 443e acb8 393c c183 c03c c421 4d3e
00000380: b338 04bc 693e 203d 198c 26be c958 03bd
00000390: 5374 93bd 292b 14be 0e89 a0bc dd8d 10be
000003a0: 9cb0 5d3d c2f9 d0bd 525b bcbb cc18 d83d
000003b0: dc4b 66be 567e a7bc 7ae9 84bc 631a 933d
000003c0: 1eb5 533e e114 e0bd c9d8 703d 3e4f 81ba
000003d0: c541 453d 6c25 a4bd 7c53 3b3d 77db efbd
000003e0: cc30 a1bd 7528 f43c 6757 1fbe 6e24 2bbb
000003f0: b68c cabc 011f 19be 878d 10bd 7605 1a3e
-0.045045357 0.15405793 -0.014668392 0.056456495 -0.08190912 -0.03876746 -0.0918507 0.041367732
0.11728094 0.07886307 0.06268743 0.0027020406 0.058369264 -0.12596643 -0.06647748 0.10254392
-0.17759116 -0.015613066 0.112410806 -0.08236504 -0.056481283 -0.14319035 0.080783516 -0.19220532
0.07826638 -0.17047663 -0.061346807 -0.1681884 -0.08167779 0.03858268 -0.036131356 0.09907051
-0.10920081 0.02459576 0.09720284 -0.050417095 0.06565067 -0.02863196 0.051131025 -0.061901778
0.0038549227 0.08712917 -0.087179 0.03906213 0.05308145 0.0404435 0.015337072 0.011538906
0.113371566 -0.08324492 -0.26280108 -0.029766979 -0.055677615 0.16068514 -0.16295218 -0.12087845
0.11345776 0.0030907486 -0.123261824 0.04406362 -0.06722963 -0.1553584 0.055729162 0.013560742
-0.03738508 -0.050230913 0.20124693 0.07959952 -0.04162328 0.070563465 -0.057562612 0.025741534
-0.06904345 -0.059966795 -0.15263776 0.049963415 0.14701419 -0.11203051 -0.099141255 0.0036481558
-0.06484742 0.040612858 0.14398459 -0.06354652 0.03442189 0.0018329865 -0.113460414 0.09181747
-0.040856335 0.0070236768 -0.115038805 0.1193288 0.073967546 0.053907104 0.07349589 -0.07824988
0.09714311 -0.0492751 -0.053309157 -0.1482526 0.1475747 -0.065660015 0.066712685 -0.1044632
0.05161796 0.04759431 0.10187389 -0.12286578 -0.1014976 0.08002975 -0.0021723742 -0.011488727
0.07847987 -0.15511054 -0.021196999 0.027934296 0.057038415 -0.028818889 -0.085200235 0.12459177
0.0010739304 -0.21469714 -0.068635754 0.08571221 -0.02033784 0.15173839 0.10672729 0.01123065
0.026546491 -0.0045438237 0.12066234 -0.074459836 0.030820517 0.13212447 0.09262712 -0.13933739
0.015882846 -0.08208648 -0.04641936 0.06998993 0.0944612 -0.18256824 -0.13376534 0.0047299135
0.07630335 0.063533284 -0.060319487 0.10639261 0.1800699 -0.13844235 0.15892068 -0.010837899
0.014908748 -0.10377809 0.08730154 -0.13424627 0.035341244 -0.106157884 -0.10143883 -0.034477636
0.072626345 0.033872023 -0.13399225 -0.012660476 0.04009622 -0.22651005 0.121589616 4.8209855e-05
-0.15626518 0.02876002 0.053492535 -0.14604576 0.020326756 0.11925587 0.1822495 -0.048125293
0.14318585 0.19868742 -0.05095573 -0.06839811 -0.031473015 -0.1545672 0.074019 0.18417381
0.08710644 -0.032228425 0.10955189 0.122927874 -0.09060055 0.015196837 0.015462917 -0.07703969
0.16761099 -0.10266587 -0.052617125 0.13334748 0.084195115 0.032877058 0.09044365 -0.009422806
0.13839608 0.12471348 0.08678755 0.035856836 0.11374354 -0.022896392 0.1110145 -0.11593996
0.089045726 0.072874025 0.063229345 -0.111038 -0.115401864 -0.1292111 0.023535874 7.723749e-05
0.024034351 0.10317936 -0.108384244 0.06172102 0.19167441 0.011335533 0.023500325 0.20032412
-0.008070159 0.03912202 -0.1626438 -0.032067094 -0.071999215 -0.1446959 -0.019596603 -0.14116617
0.054123506 -0.102038875 -0.005748191 0.10551605 -0.22489876 -0.020445984 -0.016224612 0.07182767
0.2067456 -0.10941482 0.058800492 -0.0009865535 0.048158426 -0.0801495 0.045733914 -0.117117815
-0.078706354 0.029804448 -0.15560685 -0.0026114243 -0.0247253 -0.14953233 -0.03529122 0.15041146

L.0.linears.0.bias f4 [32]
00000000: 5e21 05bc 3213 77bd 7d61 dc3d 847d e73c
00000010: 42f1 10bd 4d91 66bd 8e38 cb3d deff d03c
00000020: 7e06 e53c 582f 1fbd 52c1 003c 945d 9b3d
00000030: 1f09 aa3d 5b3a b03d 1e90 953d 299e 20bd
00000040: d857 88bd 2161 b8bc fe90 87bc 5f6c c0bd
00000050: 1e4f 4e3d b7b2 a83d 879e 7c3d 690d abbd
00000060: d464 b83d 5352 d0bc 6dd1 c13d d654 b1bd
00000070: 5994 273d 6b74 243d c632 b9bd 14d9 b23a
-0.008125631 -0.06032104 0.10760782 0.028258093 -0.03538633 -0.056290913 0.09922896 0.025512632
0.027957197 -0.03886351 0.007858591 0.07586208 0.08302521 0.086048804 0.07302879 -0.039213333
-0.0665738 -0.022507252 -0.01654863 -0.0939567 0.05036842 0.08237212 0.06167462 -0.08352167
0.090036064 -0.02542988 0.09463773 -0.08658759 0.04091296 0.040150087 -0.090428874 0.0013645017
