graph2/00020params.pth (torch, 118145 bytes, 76 tensors)

F.linears.0.weight f4 [32, 20]
00000000: 25b8 b63c 16ac e4bd e755 40bd b36d bb3c
00000010: 962f 6fbd 4d88 98bd ca07 b9bd a7f2 083e
00000020: b930 af3d 4ac6 023d 2857 06bd 8a3d 02bd
00000030: 55e2 acbd ea56 9ebd f40b 083e 9201 2cbe
00000040: 945a 55be 1fb4 f13c cc5e 19bd 7d7a 0fbe
00000050: 6216 c2bb a71b e3bb 6a0b 9a3d 428f a9bd
00000060: 33c6 1dbd c5bd a2bd 4b61 513d bd9b f8bc
00000070: 961c b6bb 9579 263d 9a7c 59bb cd40 bc3d
00000080: c539 38be e85b b33d cfed e1bd 6af1 a43b
00000090: 3576 f83d 223c 72bd 2653 803d 792e 51bd
000000a0: 78e4 5e3e ba93 183e 609b 09bd d1d5 f0bd
000000b0: 852a 58bd 38d7 c33d 086d 143e a3aa 05bd
000000c0: befb eebc f303 243d 01c4 533e 7a84 69bd
000000d0: 4909 46bd fa26 4fbd 8465 df3c 0cbf af3d
000000e0: 2ad5 5c3d d448 9e3d 8cb7 f0bd c2d3 4dbd
000000f0: d303 f1bd e5e7 a2bd 269f 533c e578 a23d
00000100: 0f68 47be a7ac e4bc 96d4 12bd 2473 643e
00000110: 4f1e d23d 4942 9bbc 8b23 2eb9 2333 dabd
00000120: a4bb 173e 1162 ef3d 3e33 4e3e 2cf6 17bd
00000130: f834 cf3c 7d61 6fbe 56fc 1abd 63bf 193d
00000140: cf7b 08be a3eb be3c a7ac e5bc d0ee ae3d
00000150: dbae 2abd 2b94 1cbe 6a4e 103d 4f59 dc3a
00000160: 6295 bb3b a5b0 1dbd a78d 27be 292e 50be
00000170: 6c03 bcbb 62f7 23be a3bd cfbd 6c1a 90bc
00000180: 7b86 2fbe 9580 f23a 1e61 513e 3931 013c
00000190: 6c70 973d b2e0 43bd 2399 a13d d348 c0bd
000001a0: 5685 773d b31d 453d cbfa 16be 9064 ccbc
000001b0: 64cf c73c 6d73 c2bd b149 febb aed9 f2bd
000001c0: b9cb ab3c de9e 283d 1cb5 cd3b b3d2 f3bd
000001d0: a043 cb3c b3e9 153e 0942 993d ab8f bebd
000001e0: 324a 1a3d 7ecc a43d 6a9d d83b 5f9a 10bc
000001f0: 2ce1 0dbe a2b2 99bd 9131 44be dce2 4c3c
00000200: 11ff c53d 625b a73d 18fb 503d 825a 583b
00000210: 217d 8c3d a3ad 0c3e 7372 1d3e 41f1 cdbd
00000220: c877 6c3c 2382 9b3d 2131 dbbd d812 5dbb
00000230: 0eb6 e1bd 0a30 07be 82d9 e5bd 5e23 fdbd
00000240: 773c 7dbd afcf 82bd 8cda 2dbd f12b 4bbe
00000250: 1b2c 083e 55a0 83bd a8e0 d2bc 7869 37bd
00000260: cc81 d83c 737f b7bc 7594 dabc 5c0a 883c
00000270: 24fb 28be 37c7 0a3d 6c87 3fbc f9db b13c
00000280: 82d5 6d3d c69c 503c bf59 f2bd 72bd 1b3c
00000290: 6001 cb3c 5679 fdbd 2188 69bd af1a 183d
000002a0: 12d6 dc3d a884 2b3c 133f 073e 9ead 53bd
000002b0: 777b 123e 2864 79bc b9a7 febd 989f 2cbd
000002c0: d58e bebd 886f 5f3d 075d 23bd 2f70 3b3d
000002d0: 0b97 1ebd 508b 353d 4a41 6c3d 5938 0e3e
000002e0: 16fb adbd be28 f03d 39d0 f63d 99b7 71be
000002f0: 56c9 44be 3080 b23d 7dde 2abe 76bc 87bc
00000300: 9aa7 013e d87d 85bc b522 2c3e 6ca6 33be
00000310: 5183 26be dc1f ecbc fb5a a6bd 13e9 49be
00000320: 8aff 5d3d abe5 07be 96e1 95bd 944b 21bc
00000330: 9ed6 7ebd 0669 bbbd 088a 2dbe 9432 16bd
00000340: bc00 d1bd e4f0 943d c20f b83d 418c 453e
00000350: 35eb 54bc dd8c d9bb 65e8 43bd 8dae 7b3d
00000360: f34d 5bbd 3a15 a7bc ad20 8fbd 97da 51bd
00000370: 17c0 6f3d b380 be3c 080b 113e 2221 a2bc
00000380: 734e 92bc 8137 63bd 98be af3b 7354 88bb
00000390: 3ac6 17bd 8525 843d 4a0e 41bd 0aaf b9bb
000003a0: d58f b8bd 5376 133e 6993 083e 414e a2bd
000003b0: 9672 1b3e 6492 9c3b a419 963d cc88 e1bd
000003c0: dc0a 953d 62b7 20be 03c8 8ebc f72b 93bc
000003d0: 8c03 81bd e972 11be 8a85 39bd 29e3 d53d
000003e0: 570e d73d d4fc 073e b436 453d 2acc 6e3c
000003f0: 1ce0 b3bd 0661 e63c 0ac7 67bd 2560 503e
0.022304604 -0.11165635 -0.046956923 0.022879457 -0.05839499 -0.07447872 -0.09034689 0.13373815
0.08554215 0.031927384 -0.032797962 -0.03179697 -0.08441607 -0.07731421 0.1328581 -0.16797474
-0.20835334 0.029504834 -0.03744392 -0.1401157 -0.0059230784 -0.0069307867 0.07521708 -0.082792774
-0.038519096 -0.07946352 0.051118176 -0.0303477 -0.005557607 0.040643293 -0.003318584 0.09192047
-0.17990787 0.08757764 -0.110316865 0.0050336616 0.12131921 -0.05913938 0.06265859 -0.05106971
0.21766841 0.14900103 -0.033595443 -0.11759532 -0.052774925 0.09562534 0.14494717 -0.032633435
-0.029172774 0.04004283 0.20680238 -0.057011105 -0.0483487 -0.05057428 0.027270086 0.08581361
0.053914227 0.077287346 -0.11753759 -0.050250776 -0.117683075 -0.079543866 0.012916362 0.07933215
-0.19473289 -0.027914358 -0.03584727 0.22309548 0.10259687 -0.018952506 -0.00016607174 -0.10654285
0.14817673 0.116886266 0.20136735 -0.037100002 0.025293812 -0.23377033 -0.037838303 0.037536036
-0.13328479 0.02330572 -0.028036429 0.085416436 -0.04167066 -0.15290897 0.03523103 0.0016811284
0.005724595 -0.03849854 -0.1636263 -0.20330109 -0.0057377126 -0.16012338 -0.10143592 -0.017590724
-0.17141144 0.0018501455 0.20447204 0.007885271 0.0739449 -0.047821708 0.07890537 -0.0938889
0.060429893 0.048124027 -0.14744107 -0.024950296 0.024390884 -0.09494672 -0.0077602495 -0.11857925
0.020971166 0.041167133 0.0062776934 -0.11905422 0.02481252 0.1463993 0.07483298 -0.09304746
0.037668414 0.08046816 0.006610562 -0.008825867 -0.13855428 -0.07504775 -0.19159533 0.012505259
0.09667791 0.08171727 0.05102071 0.0033012931 0.06859804 0.13738112 0.1537569 -0.10055781
0.014432855 0.07593181 -0.1070273 -0.0033733156 -0.11021052 -0.13201919 -0.11223127 -0.123602614
-0.061825242 -0.06387269 -0.04244475 -0.19840981 0.13298075 -0.06427065 -0.02574189 -0.044778317
0.02642908 -0.02239964 -0.026682118 0.016606502 -0.16502053 0.033881392 -0.011690002 0.021711336
0.058064945 0.01273269 -0.11833524 0.0095056165 0.02478093 -0.123766586 -0.05701459 0.037134822
0.10783018 0.010468639 0.13207655 -0.051679246 0.1430491 -0.015221633 -0.12434334 -0.042144388
-0.09304587 0.054549724 -0.03988364 0.045761283 -0.038718265 0.044322312 0.057679452 0.13888682
-0.084951565 0.11726521 0.12051434 -0.23605193 -0.19217429 0.08715856 -0.16686435 -0.016569357
0.12661591 -0.016295359 0.16810115 -0.17543954 -0.1626103 -0.028823785 -0.08122822 -0.19717817
0.05419878 -0.13271205 -0.07318418 -0.009844679 -0.062216394 -0.09150891 -0.16947186 -0.03666933
-0.10205218 0.07272509 0.089873806 0.19291784 -0.012995531 -0.0066391067 -0.04782905 0.06144576
-0.053541135 -0.020395864 -0.06988654 -0.051233854 0.0585328 0.023254728 0.14164364 -0.01979119
-0.017859673 -0.055472855 0.0053632967 -0.0041604578 -0.037054278 0.06452469 -0.047132768 -0.0056666182
-0.09011809 0.14400606 0.13337483 -0.07925082 0.1518043 0.0047781933 0.07329109 -0.1101242
0.07277462 -0.15694955 -0.017429357 -0.0179653 -0.06299505 -0.14203991 -0.04529337 0.10443718
0.10500782 0.1328004 0.048147872 0.014575044 -0.0878298 0.028122436 -0.056586303 0.20349176

F.linears.0.bias f4 [32]
00000000: 68c2 2a3c 3b03 163d b4ee b2bd e2b1 bd3d
00000010: 704f c8bd 4f6d 9cbd b3d4 b23b 4d1b ffba
00000020: 1b09 9d3d f23e 853d 90ab 94bd 7072 b0bb
00000030: c8fa fabc 566b 0c3c 62dd 8dbc ae3e 293d
00000040: b278 0cbc 2842 06bb 585b b83d 6d2c 19bc
00000050: 11fc 11bd b20e 8a3d 1f74 033d 4135 a63c
00000060: bb08 c2bd 09bb c73d 197a 22bc 17ac bbbd
00000070: 4cdf a53d 484a 773d d129 98bd 1b12 8ebd
0.010422327 0.036624175 -0.08736935 0.09262444 -0.097807765 -0.076380365 0.0054574846 -0.0019463092
0.07667752 0.065061465 -0.072592854 -0.0053847358 -0.03063716 0.008570513 -0.017317478 0.04131954
-0.008573698 -0.002048621 0.090017974 -0.009348971 -0.03564078 0.06741084 0.032093164 0.020289065
-0.094743215 0.09752471 -0.009916806 -0.09163683 0.08099231 0.060373574 -0.07429851 -0.06937047

F.linears.1.weight f4 [32, 32]
00000000: d9c1 08bc 79f9 483d 264d f93d d537 cb3c
00000010: fd60 f3bc 7707 bb3d 5e84 403a 5a96 3cbd
00000020: 5721 5cbd c9ed c1bd ccd0 2cbe 820e 913d
00000030: 1f55 d3bd 4f96 febd 3094 783d 2987 35bd
00000040: 9444 e6bd e510 863d 20f3 71bd be8a 44bc
00000050: 8278 05bd 91a2 713d 32d0 763d 9ebb 17be
00000060: 9697 2e3e f1c2 453c ab5d 52bc 3170 523e
00000070: 16c6 f3bd f884 e7bd 81f8 c53d f68b 8f3d
00000080: 5582 273d 6994 99bd 2dca a73c a643 8abc
00000090: a0c2 883c 4ead d83d eeea 3abe 0fa9 36bd
000000a0: 2c1c f4bd b4f9 2cbd 9c4d 0a3e 473e 883d
000000b0: fd45 0dbd bd28 e3bc 1f91 3a3d c82e 85bd
000000c0: 23af 4c3e 5a9e f43d 1a74 07be 5fd2 14be
000000d0: 33c4 0f3d 4f5d 7fbd fcd7 c1bd fcd7 083d
000000e0: 76f6 c13d 3748 71bc b477 793d 43e1 143e
000000f0: 56e6 b43d 4ffb 253d 8f89 17bc 0327 0cbe
00000100: d256 43be 3288 2a3e ae0e 2f3e 1ad3 123d
00000110: f7f8 9abe b1ec a23c db66 5cbd 0462 0b3d
00000120: 7f99 15be bbfb b33d a06a c6bd 067c 10be
00000130: ca9d 213e 801f a4ba db6b 2bbe af2d 843d
00000140: dea7 02bd 577c 8a3c 7d97 763e b4aa 1dbb
00000150: 11de af3d b6e6 063e 17af 86bc 2917 c63d
00000160: beb7 693d 013a 0e3e 2820 003e 2a93 80be
00000170: ba8e 9fbd cf59 853d 7f25 103e adfd 4bbd
00000180: 2b37 f23d 2ec4 1c3e c0d1 073e e070 e13d
00000190: 6d11 8bbd 69a7 473d 9909 6c3d 40f2 013c
000001a0: 5a9e 03be 5943 2dbe 4127 003e fc19 37bd
000001b0: 6d40 193d 8677 4b3c c9cb 69bc ac79 d0bd
000001c0: 654a 8e3b db0c 0a3d 49b0 91bb 413b 7f3d
000001d0: e361 813d 1c8f bcbc 65ee 4b3d 25aa d3bd
000001e0: 4c12 65bd 0293 29bd 24b7 56be 976e 113c
000001f0: 8967 bbbd 1103 38bd 5666 c7bd ccf1 00bd
00000200: 2b11 26be 7f8c f53c 7a72 443e 86ab 39bc
00000210: 2b39 163e b2d8 2f3e fdd3 593d 19d4 523e
00000220: 26d1 39bd 4455 eebb 49f2 183c 0f6d 003c
00000230: e638 d43d 4f66 fb3d 00ae a2ba 0e8e 493e
00000240: 2921 20be 31e6 b0bd 6f54 dfbc 5133 34bd
00000250: 8227 e73d ebb8 753d 3ae7 42be 9a8d 963e
00000260: 1d01 84bd fc6f 9cbd 7fa3 05be 49a0 9bbd
00000270: bbd1 1dbe c513 7bbb 65df 073e 68aa a8bd
00000280: 544e 18bc fc40 74be 5a55 e63d 6c43 b4bd
00000290: f470 1abc 7496 cf3c 96fe 09bd 24c7 a23d
000002a0: 83d5 68be 2300 8b3d f8dd 28be a29c 04be
000002b0: de20 c03d 982b a2ba 1436 83bd c24e d63c
000002c0: a976 7bbd 72de ccbc 7e0b 2dbe 062e e7bd
000002d0: d4a5 ae3c 0ac4 d2bd 20ef 103e a6e0 06be
000002e0: ca28 52be 4163 993b 9e12 16bd 0244 633d
000002f0: 599f dabc 4c0d aebd 1796 21be 5f36 443d
00000300: c41f da3d bbd5 0d3e 4b97 503d 7304 6d3a
00000310: 798f 59be d7d1 1a3e 67c9 353d 7f5c dbbd
00000320: d9db 82bd 11b6 98bc 6954 593b 25b5 03be
00000330: 58e5 99bc 593e 3bbd d727 9e3d 5b03 533d
00000340: 9ddf 73bc 234d ef3d 68e4 00be b9ca 17be
00000350: a9f4 d2bd d32d 3b3d 1faa c23d 1883 503d
00000360: 9ca7 c93c cb14 f03c cf59 963d 6baf 4c3d
00000370: ff84 0a3d 3d54 9f3d 8f18 d1bd 96e1 5e3d
00000380: 2060 b8bd 375f d23d d35e a8bd 5a75 ce3d
00000390: 8a39 b8bc f305 9dbd 4591 c93d a6bc 863e
000003a0: 2c77 993d 69b5 11be 065b 3dbe b137 f1bc
000003b0: 2fde 0dbe da06 0f3e 5b6f 7f3d 4935 9a3d
000003c0: c7d3 dabd 87f6 013e c516 86bc 299e 17bc
000003d0: 3ff6 273c 15ca 3cbd f3a6 a23c eeb9 53bd
000003e0: aa08 1f3d aa7c 8dbd d638 a8bb 2a29 ad3d
000003f0: 087a dfbd 3918 2e3e 0fc7 83be f76e 903d
-0.008346998 0.04906604 0.12172918 0.024806896 -0.029709334 0.09132283 0.0007343943 -0.046041824
-0.053742733 -0.09469182 -0.16876525 0.07082845 -0.1031897 -0.12431013 0.060688198 -0.044318352
-0.11243549 0.06546191 -0.059069753 -0.011995969 -0.03258563 0.058992926 0.060257144 -0.14817664
0.17050013 0.012070403 -0.012839715 0.2055061 -0.11903016 -0.11304659 0.09666539 0.07009117
0.04089578 -0.0749901 0.020482147 -0.01687796 0.016694367 0.1057993 -0.18253681 -0.04459482
-0.11919436 -0.042230323 0.13506168 0.066525035 -0.034490574 -0.027729386 0.045548555 -0.065030634
0.19988684 0.11944266 -0.13227883 -0.14533375 0.03509922 -0.062344845 -0.09465024 0.033409104
0.09470837 -0.01472669 0.060905173 0.14539056 0.088329956 0.04052287 -0.009249105 -0.13686757
-0.19076088 0.16653517 0.17095444 0.035845853 -0.3026807 0.019888254 -0.053809028 0.03402902
-0.14609335 0.08788248 -0.09688306 -0.14109811 0.15782848 -0.0012521595 -0.16740362 0.06454026
-0.031898372 0.016904993 0.24081226 -0.0024058046 0.08587278 0.13173947 -0.016440911 0.09672386
0.057059996 0.13889314 0.12512267 -0.25112277 -0.07790895 0.0651127 0.14076804 -0.04980247
0.11826929 0.15309212 0.13263607 0.11007857 -0.06790433 0.04874364 0.05762634 0.007931292
-0.12853375 -0.16920222 0.12514974 -0.044702515 0.037414957 0.012418633 -0.014269778 -0.10179457
0.0043423646 0.033703666 -0.0044460637 0.06231237 0.063174985 -0.023017459 0.049787898 -0.10335187
-0.055925652 -0.041399963 -0.209683 0.008876464 -0.09150607 -0.0449248 -0.09736316 -0.031480595
-0.16217487 0.02997422 0.19184294 -0.011332398 0.14670245 0.17172506 0.053180683 0.20588721
-0.045365475 -0.007273348 0.009335109 0.007838502 0.10362415 0.12275373 -0.0012411475 0.19683096
-0.1563765 -0.086376555 -0.02726194 -0.04399425 0.112868324 0.059990805 -0.19033518 0.29404908
-0.06445525 -0.07638547 -0.1305065 -0.07598931 -0.15412037 -0.0038311344 0.13268812 -0.082356274
-0.009296019 -0.23852915 0.11246748 -0.08801922 -0.009426344 0.025340296 -0.033690058 0.07948139
-0.22737698 0.067871355 -0.16490924 -0.12950376 0.09381269 -0.0012372611 -0.06406799 0.026160602
-0.06139246 -0.025008414 -0.16898915 -0.11288075 0.021319307 -0.10291298 0.14153719 -0.13171634
-0.20523372 0.0046810214 -0.03663885 0.05548478 -0.026687311 -0.0849863 -0.15779911 0.047903415
0.1065059 0.13851063 0.050925534 0.00090414955 -0.21246137 0.1511911 0.044381525 -0.107110016
-0.06389589 -0.018641504 0.0033161885 -0.1286207 -0.018786117 -0.045713756 0.077224426 0.051516872
-0.0148848565 0.116846345 -0.1258713 -0.14823426 -0.103005715 0.045698 0.09505104 0.05090627
0.024616055 0.02930679 0.073413484 0.04997198 0.03381824 0.07779739 -0.10209762 0.054414354
-0.090027094 0.10272067 -0.08221211 0.10080977 -0.022488374 -0.0766715 0.09842161 0.26315802
0.07493433 -0.14229359 -0.18491754 -0.029445501 -0.13854288 0.13967457 0.062362056 0.075296946
-0.106849246 0.12691699 -0.01636828 -0.009254017 0.010251581 -0.046091158 0.019854998 -0.05169099
0.038826622 -0.069085434 -0.0051337285 0.08455117 -0.109119475 0.17001428 -0.25737807 0.07052415

F.linears.1.bias f4 [32]
00000000: e5c9 9b3b 00b5 02bc 7270 48bd e0f7 b0bd
00000010: 67e2 683c d71d b1bd ec28 ae3b 3f52 75bb
00000020: 0d7f c0bd 4cb2 afbd 4408 a33d dd03 7c3d
00000030: 6c36 ad3d 7b44 f6bc 75a0 643d c597 8c3d
00000040: 33aa 823d c4b8 26bd 1e7b 1c3d 8782 d53d
00000050: 25f9 95bc 38d9 21bd 6bdc 50bd 0617 7abd
00000060: 0628 1a3c 613b 9d3d be39 ba3a cf39 a73d
00000070: e083 63bd 9582 933c 364d 22bc b0a2 00bd
0.0047542923 -0.007977724 -0.04893536 -0.086410284 0.014214135 -0.086482696 0.005314937 -0.0037433056
-0.09399233 -0.08578929 0.07960561 0.06152712 0.08457646 -0.03006195 0.055817086 0.06864885
0.06380119 -0.04070355 0.03820335 0.10425287 -0.018307278 -0.039513797 -0.050991457 -0.061057113
0.009408956 0.07677341 0.0014207882 0.08165323 -0.055545688 0.018006602 -0.009906104 -0.03140515

F.linears.2.weight f4 [10, 32]
00000000: 9a3b b8bc 6a86 923d 0a9e 90bd 149f c2bb
00000010: c92a d1bd 941a 84ba 5bf2 b3bd b1a6 b0bd
00000020: aad9 a33d 862c 8ebd 0e5d bbbd a8f1 a53d
00000030: a130 db3d 866b 0ebd 55b0 94bc 42e4 4fbd
00000040: 16de 6ebd ce35 4bbc 7e82 08be e5bb fc3c
00000050: a4dd f7bd f681 eabc fab3 b8bd cb4d a6bc
00000060: f813 163c a31a cb3d 5cce ebbd f4c9 04bc
00000070: 7828 163e a873 763d cf20 20be 99a6 4c3e
00000080: b3bf 943c 31e6 54bd 1b11 0f3e 86a6 303d
00000090: 5fee ca3d 9f7d b03c b3f6 bbbd aa91 65bd
000000a0: 53e4 433e 7c2c 97bd ad6f 083e 4e08 6d3e
000000b0: 8a1e 2bbe 1b37 8e3b acfd ddbc 0d07 5e3d
000000c0: a02f 18be 8603 9b3b d3b1 743d 9867 bfbc
000000d0: 46b8 0abe a5b7 3f3e a3c8 6b3c 9fcb 9b3d
000000e0: 48ec 09be 62d9 83bc fbcf 2fbd f021 493d
000000f0: 9e0e e33b d52b 883d e038 8b3c 5e90 aaba
00000100: f754 193e 4a95 a9bc 2317 8ebc 9d7d d73c
00000110: 6cba 5e3c 5788 efbd 5e62 88bd 7506 443d
00000120: ce8b 9dbc 4360 2d3e 2f5f 423c 2ac1 75be
00000130: 3127 163d 56ae 193c 949a a63d 3876 663a
00000140: b747 50be ee2f 87bd 317f babc ddf1 2ebd
00000150: 26d7 5d3d ab69 babc 324d 123e 4cde e8bb
00000160: c98f f23d 8c3e 4dbd 36bf 4b3c 5b4d c03d
00000170: 12ab 12be acf9 8bbe 225a a03d 1461 e0bd
00000180: e7b0 3a3d 4c46 6fbd 5aa0 b6bd 5e60 3dbd
00000190: d516 fe3d f116 653d 95ce 6a3c fb95 84bc
000001a0: 0cf2 9abd 093f a43d 66ef 8abd d07b 62bd
000001b0: a3ac 233d fed5 4f3e c2bb c2bd be23 30be
000001c0: 248f f5bd e908 08bd 47e7 81bd 13b9 153e
000001d0: a669 563b cb0d 03bd 93c7 443e d1dd b9bd
000001e0: 17c5 34be 2a68 9a3d a499 c1bd f92e 7d3d
000001f0: 9ced edbd a413 df3c 3d74 3bbd b11e d4bd
00000200: 7551 6a3d 1a39 583d b4e6 bcbd 693c 303d
00000210: e64e 0d3e 02ee 523e a595 8e3d bc96 66be
00000220: 9c44 a03d e51f bc3d 35e1 a7bc 5daf 15be
00000230: f18d 0c3e f604 de3d 2076 ad3d c122 c23d
00000240: 626b 093d 0b10 a6bd 93bf 92bd 41b4 31be
00000250: 01fe f13d bf6c d93c 10a7 513d b977 113e
00000260: e85b a5bc 0e36 253e b381 59bd 7867 b1bd
00000270: 6905 e13c a6b1 29be 7b7b e4bd 2e6a 143a
00000280: 443e 3dbe a744 17be b5da 56bc 05b3 9bbd
00000290: 2715 7f3e 6d83 643d 09f7 babd 479a 783d
000002a0: 8587 bb3d 80b3 b9bd c37e 27bd 14c1 da3d
000002b0: 0aa7 ea3c 26bf d4bd 5102 02bd aa4d 00be
000002c0: 2beb 0fbe 2eb6 1a3e fcff b6bd e870 7b3e
000002d0: 966f f33d c6eb 77bd b280 153e 2b5f c1bd
000002e0: 0737 d13b 91ff 2cbd 6a3b 1ebd 4bfa f4bd
000002f0: 343c c1bc c4a1 b0bb 1227 2d3e 7eaf 35bc
00000300: 86c8 933d ff20 dfbc 0261 17be 0e45 a23d
00000310: d792 16bd 5b54 3abe 041e 90bd 3a97 103e
00000320: 95c3 c4bd 5be5 833d 4331 9cbd 9cbc fdbd
00000330: 911f aa3c 66d1 5e3d 0fa4 9abd e589 3c3c
00000340: 853a e5bc ecf8 ce3b a12b 483d be25 073e
00000350: e2f4 8ebb 2b76 403e 2222 5cbe d5b1 24be
00000360: fa95 3dbe 8efa 35be 89cc 91bc 151e 9eba
00000370: bb7d 13bd baed f6bd 1c3f 76bd ae2e 0abe
00000380: dddb 2fbd 0a07 bb3d bf21 3b3b fd81 ed3c
00000390: d7cf dabd 73ff b53c c1a8 81bd 78aa 9e3d
000003a0: 77e9 bc3b 8d5d 383c e700 013d 3977 dc3d
000003b0: c70f 3d3d 8314 4abb a132 263e 0931 bc3d
000003c0: 80f0 473e 485c c53d 4a8d 51bd 6377 f4bd
000003d0: fb65 923d e38e ffbd b73d cb3c 9c83 a4bd
000003e0: cc83 efbd 4c02 03bd 9217 6ebd 6712 17be
000003f0: 8ed9 873d 8f2e 82be 1f3d 503d 1352 c73d
-0.022489358 0.07154544 -0.070613936 -0.0059393737 -0.10213239 -0.0010078722 -0.0878646 -0.08625544
0.080005005 -0.06942086 -0.09148608 0.08102733 0.107026346 -0.03477051 -0.018150488 -0.050754793
-0.058317266 -0.012402965 -0.13331029 0.030851314 -0.121028215 -0.028626423 -0.09018703 -0.020300766
0.009160034 0.0991719 -0.11513969 -0.00810479 0.14663875 0.060168892 -0.15637515 0.19985427
0.018157816 -0.05197734 0.13971369 0.04312756 0.09908747 0.021544276 -0.091779135 -0.05604712
0.19130068 -0.073815316 0.13323851 0.23147699 -0.16710868 0.004340065 -0.0270985 0.054205943
-0.14861917 0.0047306446 0.0597399 -0.023364827 -0.13546857 0.18722399 0.014391097 0.07607197
-0.1346904 -0.016094867 -0.042922955 0.04910463 0.0069292327 0.06648985 0.016994894 -0.0013012995
0.14973818 -0.02070107 -0.017345017 0.026305014 0.013594251 -0.11695927 -0.06659387 0.04785772
-0.019231703 0.16931252 0.011863514 -0.23999467 0.03665847 0.009379944 0.08134952 0.00087914197
-0.20339857 -0.06600939 -0.022765728 -0.042711128 0.05416026 -0.022755465 0.1428726 -0.007106578
0.11843831 -0.050108477 0.012435725 0.093897544 -0.1432307 -0.27338922 0.078296915 -0.10956016
0.045578863 -0.05841665 -0.089173034 -0.04623448 0.124066986 0.05593008 0.01433148 -0.016184798
-0.07565698 0.080198355 -0.06783943 -0.055293858 0.03995956 0.20296475 -0.09508468 -0.17201135
-0.119901925 -0.033211622 -0.06342941 0.14621381 0.003271678 -0.031995576 0.19216757 -0.09075511
-0.17653309 0.07539399 -0.09453133 0.061812375 -0.11617586 0.027231045 -0.04576515 -0.103574164
0.05720659 0.05278883 -0.09223691 0.04302636 0.13799629 0.20598605 0.06962136 -0.22518438
0.07825586 0.09185771 -0.02049313 -0.14617677 0.13726021 0.1084079 0.08469796 0.09479285
0.033549674 -0.08108529 -0.07165446 -0.17353918 0.118160255 0.026541112 0.051184714 0.14205827
-0.020185426 0.16133901 -0.053102206 -0.08662313 0.0274684 -0.16571674 -0.111563645 0.0005661574
-0.18480784 -0.14772283 -0.013113667 -0.07602505 0.24910413 0.0557894 -0.091291495 0.060694005
0.09156708 -0.0906744 -0.040892374 0.10681358 0.028644104 -0.10388021 -0.03174049 -0.12529626
-0.14054553 0.15108559 -0.08935544 0.24554789 0.11886518 -0.060527585 0.14599875 -0.0944198
0.0063847336 -0.042235915 -0.03863088 -0.11961802 -0.023588277 -0.0053903777 0.16909435 -0.011089204
0.07215981 -0.027237413 -0.147831 0.079233274 -0.03676113 -0.18196242 -0.07036975 0.14120188
-0.09607617 0.064402305 -0.076265834 -0.1238949 0.020767005 0.054398917 -0.07550823 0.011507486
-0.027982006 0.006316295 0.048869733 0.13197991 -0.0043626884 0.18795078 -0.21497396 -0.16083463
-0.18514243 -0.1777136 -0.017797725 -0.0012063409 -0.036008578 -0.120570615 -0.06011878 -0.1349437
-0.042934287 0.09132202 0.002855405 0.028992647 -0.106841736 0.022216534 -0.063310154 0.07747358
0.005765136 0.011252773 0.031495 0.107649274 0.046157625 -0.003083498 0.16230251 0.0918904
0.19525337 0.09636742 -0.051160134 -0.11936834 0.071483575 -0.12478425 0.024809701 -0.08032915
-0.1169506 -0.031984612 -0.058127947 -0.14753114 0.06633292 -0.25426146 0.05083954 0.09732451

F.linears.2.bias f4 [10]
00000000: 44df 1e3d ce47 d9bd 68eb c1bc ce24 013d
00000010: fafb b9bd 37bb c73d a191 c73d ed20 0a3d
00000020: bd3c 9f3d 149c b0bc
0.03878714 -0.10609399 -0.02367182 0.03152924 -0.09081264 0.09752505 0.097445734 0.033722807
0.07775257 -0.021558799

G.0.linears.0.weight f4 [32, 10]
00000000: c94b a13c 6319 013d 6f95 a1bc 450a 86bd
00000010: b077 fe3d fb2a ddbd 3eca 4fbe 49ad e2bd
00000020: c55c 13bc dd9d 323d 5af6 d8bd 8e53 ffbc
00000030: d13b 90bd 884f f03c 09a0 99be 25ed fb3c
00000040: 0df6 623d 216d 653d 74fc bd3d 4c3c 08be
00000050: b577 6c3d a702 593e 5a54 f3bc 3ea8 b83b
00000060: e573 e8bd 40ad e63c 5cb1 a1bc 2c7c dfbb
00000070: 66fd 14be de5e 333d 2327 66be c43a f63d
00000080: e395 9cbd b6fd 903d e3ab bf3d cdf3 a43d
00000090: de9f c0bd 83cb d73d 22d6 edbd b47f c53d
000000a0: b7f8 263d 7259 b1bd d16e 073e e789 91bd
000000b0: e070 0abe a4a6 babd 33e5 143e 1862 f33d
000000c0: fb9d 873d ede6 923d 2220 0bbe 3022 643b
000000d0: fae4 d3bd 4005 9b3c 4d50 c33b 66b2 13be
000000e0: c54b 603e 5699 253d 3ed1 733d 4562 f2bd
000000f0: fd78 983d 0583 76bc f52b b43d 81aa bd3d
00000100: ed77 b2bd 5491 37bd 8201 dc3d 0e1e 48bb
00000110: 5dde 8bbd 1e0a 423a 2092 f3bb 1eea 503d
00000120: 2993 e6bd d615 34bc 5f69 d53d aae9 a93d
00000130: 0627 3fbe 5d8d e43b 0234 5e3e 67c7 1ebd
00000140: 5e98 073e 49ad 24be e0ff c5b6 dacd 09bd
00000150: f0f9 5abd c288 f3bd f221 96bd 6fbc bbbc
00000160: f701 0abe 039b 4f3d 4d82 cabc a914 09be
00000170: e247 3fbe 8a9b ef3d 4c71 ff3d c666 583d
00000180: ea14 a53a 9336 c6bd d375 ae3c cc5b 453e
00000190: 0f3a 873e 7544 24be 494c 01bd a00b 1fbc
000001a0: d5de b8bd 11f8 acbd 84ad bc3d fd3b 863d
000001b0: a344 233e 3ac5 b63d 8394 2ebd 03f9 2d3d
000001c0: 76f1 cd3d dcd3 63bb f215 9cbd c6fa e7bc
000001d0: 3097 c0bd d897 d8bd 82c2 403e d783 a4bc
000001e0: 4427 04be 63e9 b6bd a27f 033c 58e0 3bbd
000001f0: 436f 68be 08f8 ad3d 5c57 dcbc ab4d 7b3d
00000200: f64b edbd 062a 303e 68d7 b9bd cbe1 de3c
00000210: bb51 3e3e cebd 0f3d 5c29 103e 2678 56bb
00000220: da57 403d e4ad 0abc cb9c f9bd 1022 0a3e
00000230: 79c2 b03c 5724 a03e 2047 5cbe b825 8c3d
00000240: 9b0b 9abd 55af 3c3b 268c 0f3e f743 ae3d
00000250: 4d85 473e 65dd 02be 363d 563e e81e 873d
00000260: 2276 a23d 53d6 c7bb 1f37 9a3d 53e5 9d3d
00000270: 2a36 d0bd 8004 49bd f54e 213d f298 82bd
00000280: 6cec 55bd 1de4 3bbd ea78 e6bc 80d0 1f3e
00000290: 9735 96bc 57f8 963d f1b5 a4bd 5f47 c13d
000002a0: 6efc 8c3b af53 7cbd 1343 11be 150d f7bb
000002b0: 3011 7dbe 5cd8 433d f6ce 893d 480f 5ebe
000002c0: 2137 803c c14f cb3d 7b14 22be a934 35bd
000002d0: ecd0 403e 02ac eebc b3f3 19be 1c0e 55be
000002e0: c0be 3b3d 9543 d3ba e6c0 093e 8e3c f93d
000002f0: 02ef 023e 6d38 c0bd 9878 c23d 85f9 c13d
00000300: 6214 a83c 1f17 c23d 6e61 a0bd 2695 97bd
00000310: e084 873d 8cfc 62bd bd18 2a3e f139 04bc
00000320: 289a e4bd aa97 8b3e 1b81 a73c 0aa1 143e
00000330: 6456 9fbc b845 43bc b700 eabc 0eea 293b
00000340: 95ec d9bc 39e9 a53d bfef 433e 75a6 4d3c
00000350: 952d 093c 76c1 0dbc e68f d33c 9ea8 553d
00000360: b0f6 173d 881b bfbd 8491 f3bc a370 3f3c
00000370: 8c6d e3bd 001b f2bd 8c00 983d 10dc 193e
00000380: 8a5e 40bd ba51 0d3e 273a 3b3e 76d0 2e3c
00000390: f4b5 89bd 08fc 0d3d 8f61 783e 7560 c03c
000003a0: 402b 08be 5cde 483d c035 89bd 6b41 913d
000003b0: 08d5 bb3d 8d17 483d a273 1e3e 5c7f bd3d
000003c0: 8f4c 4c3d c7dd 1ebe 310d fa3c c5db b8bd
000003d0: 6f26 54bd 86ab 0dbe 23ee 7a3c f971 343e
000003e0: e646 2dbd f07f 883d a573 dfbd 6174 ffbd
000003f0: cb87 bc3d 46c0 0e3d b4fc 79bd a207 edbd
0.019689457 0.03151835 -0.019724576 -0.065449275 0.12425172 -0.107992135 -0.20291993 -0.11068208
-0.008994286 0.04360758 -0.10593863 -0.031167772 -0.07042659 0.029334798 -0.3000491 0.030752728
0.055410434 0.056012277 0.09276667 -0.13304251 0.05773135 0.21192418 -0.029703308 0.0056352904
-0.1135023 0.028158784 -0.019737892 -0.0068202224 -0.14549789 0.043791644 -0.22475867 0.120229274
-0.07645776 0.070796415 0.09358957 0.08054314 -0.09405492 0.10536864 -0.11613108 0.09643498
0.040764537 -0.086596385 0.13225867 -0.07106381 -0.13519621 -0.091138154 0.14540558 0.11883944
0.06621929 0.07172952 -0.13586476 0.0034810416 -0.10346408 0.018923402 0.0059605003 -0.14423522
0.21903904 0.040429436 0.05952572 -0.1183515 0.07444952 -0.015045886 0.08797447 0.09261037
-0.0871428 -0.04481633 0.10742475 -0.0030535492 -0.06829522 0.000740202 -0.007433191 0.05100452
-0.11258537 -0.010991534 0.104204886 0.08296521 -0.1866723 0.0069748596 0.21699527 -0.038764384
0.13241717 -0.16081728 -5.9008453e-06 -0.03364358 -0.053461015 -0.11891319 -0.07330693 -0.022917
-0.13477312 0.05068494 -0.024720335 -0.13386787 -0.18679765 0.116995886 0.124727815 0.052832387
0.0012594734 -0.09678378 0.021296417 0.19273299 0.26411483 -0.1604174 -0.03156689 -0.009707361
-0.09026877 -0.084457524 0.09212783 0.065544106 0.15944152 0.08924337 -0.0426221 0.042473804
0.10055821 -0.003476373 -0.07621373 -0.02831782 -0.09403837 -0.10575837 0.18824199 -0.020082397
-0.12905604 -0.08931234 0.0080260355 -0.045868248 -0.22698693 0.08494574 -0.026897125 0.061353367
-0.11586754 0.1720353 -0.090742886 0.027207276 0.18585865 0.03509312 0.14078277 -0.0032725423
0.04695878 -0.00846431 -0.12188109 0.13489556 0.021577107 0.31277725 -0.21511507 0.06843132
-0.07521745 0.002879103 0.14018306 0.08509057 0.19484444 -0.12779768 0.20921788 0.06597692
0.07932688 -0.0060985475 0.07530045 0.07709756 -0.10166581 -0.049076557 0.03938194 -0.06376828
-0.052227423 -0.045871843 -0.028133828 0.1560688 -0.0183361 0.07371586 -0.08042515 0.09437441
0.004302553 -0.061603244 -0.14185743 -0.0075394013 -0.24713588 0.04781376 0.06728928 -0.21685517
0.015651288 0.09927321 -0.15828125 -0.044239674 0.18829697 -0.029134754 -0.1503437 -0.20806164
0.04583621 -0.0016118163 0.13452491 0.12169753 0.12786487 -0.09385762 0.09495658 0.0947142
0.020517532 0.09477066 -0.07831083 -0.07401495 0.06617141 -0.05541663 0.16611 -0.008070455
-0.111622155 0.27264148 0.020447304 0.14514557 -0.019450374 -0.011918478 -0.028564794 0.002592686
-0.026602069 0.08101124 0.19134425 0.0125518935 0.008372684 -0.008652082 0.025825452 0.05216276
0.037100494 -0.09331423 -0.029732473 0.0116845695 -0.11104879 -0.11821556 0.07421979 0.15025353
-0.04696516 0.13800707 0.18283902 0.010669818 -0.06724158 0.034664184 0.24255966 0.023483494
-0.13297749 0.049040183 -0.06699705 0.070925556 0.09171492 0.048850585 0.15473798 0.092528075
0.0498777 -0.15514289 0.030523868 -0.09026293 -0.051794466 -0.13834962 0.015315565 0.17621602
-0.042303942 0.06665027 -0.10910729 -0.124733694 0.09205588 0.034851335 -0.061032012 -0.115737215

G.0.linears.0.bias f4 [32]
00000000: 5181 87bc 3d97 913d e6bf 64bd 3315 783d
00000010: 9983 44bd 5c8c e63c 7f8e 7b3d 0d67 26bd
00000020: 42f5 a63d 517a 99bd 384f 30bc 57c1 89bd
00000030: e042 a03d 470d a3bd 974d 4ebd 59db 43bd
00000040: 16a7 28bd fd22 8bbd be81 fabc 4f11 5e3d
00000050: 1fc2 073c 49a5 c83d 8116 84bd b1d2 ad3d
00000060: ff3e ef3c 947d 68bc 8c44 a9bd b3f2 813d
00000070: e0d2 c63b fc47 94bd 2825 8dbd 15cf 4fbc
-0.016541155 0.071089245 -0.05584707 0.060567092 -0.047977064 0.0281431 0.06141519 -0.04062562
0.08152248 -0.07494033 -0.010761075 -0.0672633 0.078252554 -0.07961517 -0.050366964 -0.047816608
-0.04117497 -0.06793783 -0.030579444 0.054215726 0.008286028 0.09797151 -0.06449605 0.08487452
0.029204844 -0.014190096 -0.082650274 0.06345119 0.0060676187 -0.072402924 -0.068918526 -0.01268365

G.0.linears.1.weight f4 [32, 32]
00000000: e106 7ebc 873d 163e ec4a b3bd ea61 28bd
00000010: 71b9 3b3d 5637 373e d4d3 18be d41c ff3c
00000020: 08ce 083d bc1e 973d f9b2 0b3e 8f59 cbbc
00000030: 396e bfbd 752a 6ebd d812 aa3c bc32 eebd
00000040: e5b3 853e f1d1 b23c 7fab 37be 7e2c 39bd
00000050: 1e95 32bd e5ec c73d db70 9ebd 0041 913d
00000060: 3041 ecba 11b4 8d3d 48cb 1e3d 1c63 c73d
00000070: 4e40 bebc 1aba fcbd c08c 06be 01a3 98bd
00000080: e563 42bd 5d14 f5bd 0d4a fe3d 12f8 b43c
00000090: f355 023d 4742 f93d 5f49 86bc 10a4 d6bc
000000a0: c9dd 763d 6009 6e3d 51ac 38bc 9969 223a
000000b0: 5e08 cbbc a9c3 a53c eec3 d6bd f2b2 3c3e
000000c0: 4528 18bd 5573 afbc 08f3 babc 3dfd ac3d
000000d0: 978d 513e fe39 183e b4b6 cfbd ceaf c33b
000000e0: d128 4f3e 0e88 b93c 579d 8fbd 0790 66bd
000000f0: 1a90 993d aaef cbbd a3fb 263e 82c8 863d
00000100: 44ac b93d c8f2 f0bd 33df df3d 6e20 cf3d
00000110: 926b 4fbc 93e9 823e 206d b9bd 68aa 50bd
00000120: 87d9 a33d 263e ce3d 2150 cc3d 79e2 973c
00000130: 65ae ff3c 4f2b 0bbd 0d17 4b3c 0aaf 06be
00000140: 0f7d 81bd a872 2f3e d273 8d3c 82a6 27be
00000150: d67e 933d f00b bb3d fabd c3bd 4f0a 51bd
00000160: caba b73d 5f08 cd3d eee0 3c3e 8f2a 423e
00000170: e454 1bbe f4d8 583e eb22 a1bd ea92 83bc
00000180: e8ea 1b3d d9ae b9bc 9214 1fbe 9169 d9bd
00000190: ff75 9a3d ea5d e8bd a58a 1cbe efdc 6c3c
000001a0: 2df4 00bd 42e6 083d 18d5 873d f2c2 483d
000001b0: feda 9bbd aa7c 86bd 3ee7 72bc bcf6 e3bc
000001c0: 3c98 76be a8ae 2d3c 2c87 da3d ecf2 033d
000001d0: 4868 e2bc f16e f5bd b96d 14bd 8719 edbd
000001e0: 34b4 37bd 46ff ae3c 2005 1cbd b4d6 a13d
000001f0: dcf9 64bc 425f e63d f14f 37be 3169 71bb
00000200: 73dd f53c 2173 c2bc 825b 2b3e 6719 403c
00000210: 216d 12be 9b79 8f3d 571c 043d 5b05 733c
00000220: 408b 34bd e2d2 653b 6105 923d 3556 f6bd
00000230: f62f fbbd 8df9 8d3d 7fed 873d 7095 ddbd
00000240: bc11 80bd b666 e6bc 37d2 1e3e d002 12bd
00000250: 8681 943d a930 063e 0a47 163e e443 41bd
00000260: 2bff 42bd 7cca c93b 516b 023e 31ac 103e
00000270: 55f8 75bd c7a5 f3bd 8ef3 0b3d 0b0c 8e3d
00000280: f23c 2ebe 4327 f73d 0ea2 b5bc 2afd 33bd
00000290: e9a5 5f3e ba80 833c 4e24 97bd 4234 8c3d
000002a0: 002f 363d 249d 55bd 75b5 45bd 4dc4 6d3c
000002b0: 6efc 623d d156 21bd 3341 083d 9c55 bbbc
000002c0: a4d0 5cbc 5acc 333d 870e 9dbd 14a0 ea3d
000002d0: 93cb 1a3d dcce 033e 2758 d23c 0584 60be
000002e0: 65c0 e2bb 7010 50be fdef a8bd ec3f febc
000002f0: 0cfd cfbc bdb2 26be f887 dbbd 0774 323d
00000300: 98bc 453d fd2e 2bbe 6d20 9cbd 7e9e 113e
00000310: ce67 8abd b7a2 43bd 3164 94bd 300b 673e
00000320: 5826 c1bd e236 8fbc 1410 2fbd c8ca c83d
00000330: 3caa 7d39 91e4 4a3c 180e 3c3d 82d3 6c3d
00000340: 7493 f7bc 2ff5 f73d 5acf 183e 89d8 033d
00000350: 02d5 c33b 78a0 0fbe 8f8c 6c3c 0d5d 33bd
00000360: 05a7 f4bd 6dd4 953d 8c57 86bd 2f82 103e
00000370: 6abf ad3a bf15 933c c271 a4bb 1ee8 333e
00000380: 3917 fd3d fdce 19bc f271 553c 32eb b23d
00000390: 9246 8fbc b5a3 bbbd e320 72bd 4ee6 733c
000003a0: 6e02 d7bd 3f2b 783d bf3a 22bd c828 33be
000003b0: 5c72 2abc ac6f c1bc a54a 9fbd 3f49 1fbe
000003c0: b24b 603d 9bed 8e3d 9b19 a0bd d7e4 0e3e
000003d0: a41f 8ebd 67cf a63d ac22 12bb 22f7 873c
000003e0: cf14 1ebe c216 673d 9988 f23c 5b19 c93d
000003f0: bd68 1c3d 1d87 513e 06fb 8bbc 97ac 993c
-0.01550457 0.14671908 -0.087545246 -0.041109003 0.045831148 0.17892203 -0.14924556 0.031141676
0.03339961 0.07378909 0.13642491 -0.024822978 -0.09347195 -0.05814596 0.020760939 -0.116307706
0.2611381 0.021828623 -0.17936514 -0.045208447 -0.04359924 0.09761981 -0.07736369 0.07092476
-0.0018024798 0.069191106 0.038768083 0.097357005 -0.023224022 -0.123401836 -0.1313963 -0.074529655
-0.047458548 -0.119667746 0.12416468 0.022090945 0.03182025 0.121708445 -0.016392408 -0.026201278
0.060270105 0.05811441 -0.011271552 0.0006195545 -0.024784263 0.0202349 -0.10486589 0.18427637
-0.03714778 -0.0214173 -0.022820964 0.08446739 0.20464168 0.14865872 -0.1014227 0.0059718853
0.20230414 0.022647884 -0.07012432 -0.0562897 0.07498188 -0.09957822 0.1630693 0.065812126
0.0906606 -0.11765057 0.10931244 0.10113607 -0.012659924 0.25568828 -0.09054017 -0.050943762
0.080004744 0.100704476 0.09976221 0.018540608 0.031211087 -0.03397685 0.012395632 -0.1315271
-0.06322681 0.17133582 0.017267141 -0.16372111 0.072019264 0.09133136 -0.095577195 -0.05103522
0.08971174 0.10011362 0.18445179 0.18961547 -0.15169102 0.21176511 -0.07867988 -0.016061265
0.03806582 -0.022666382 -0.1553519 -0.10615838 0.07542037 -0.11346038 -0.15287264 0.014456972
-0.031482864 0.033422716 0.06632441 0.04901404 -0.07610129 -0.065667465 -0.01482564 -0.027827613
-0.2408151 0.010600723 0.10670313 0.03221409 -0.027637616 -0.11984051 -0.036237452 -0.115771346
-0.04484959 0.021361958 -0.038090825 0.079022795 -0.013975587 0.11248638 -0.17901589 -0.003683638
0.030012822 -0.023736538 0.16734126 0.011724806 -0.14299442 0.07005616 0.03225359 0.01483282
-0.04407811 0.0035068323 0.07129932 -0.120281614 -0.12265007 0.06932364 0.06637096 -0.108195186
-0.062533826 -0.028125148 0.15509878 -0.035647213 0.07251267 0.131045 0.14675537 -0.047183886
-0.04760663 0.006158171 0.1273625 0.14128186 -0.06005128 -0.11896854 0.03416782 0.06935891
-0.17015436 0.120680355 -0.022172 -0.043942608 0.21840633 0.016052593 -0.073799714 0.06845905
0.044478416 -0.052151814 -0.048268754 0.014512134 0.055416517 -0.039389435 0.033265304 -0.02286797
-0.013477478 0.043896057 -0.076687865 0.11456314 0.0377918 0.1287188 0.0256768 -0.21925361
-0.006919908 -0.2031877 -0.08248899 -0.03103634 -0.025389217 -0.1627912 -0.10719293 0.043567684
0.04827556 -0.16717143 -0.07623372 0.14220616 -0.067580804 -0.0477626 -0.072456725 0.22562861
-0.094311416 -0.017482225 -0.042739943 0.098043025 0.00024191377 0.012383596 0.04591188 0.057818897
-0.030221678 0.12107312 0.14922848 0.032188926 0.0059763202 -0.14026058 0.014437809 -0.043789912
-0.11945919 0.073159076 -0.06559667 0.14112161 0.0013255898 0.017954705 -0.005018444 0.17569014
0.12357945 -0.009387729 0.013027655 0.08736266 -0.017489705 -0.09162084 -0.059113394 0.014886452
-0.1049851 0.060588118 -0.039606806 -0.17496026 -0.010403242 -0.02361282 -0.07777909 -0.15555285
0.05475969 0.069789134 -0.07817384 0.13954483 -0.06939629 0.081450276 -0.0022298498 0.016597334
-0.15437625 0.056418188 0.02960615 0.09819289 0.038185824 0.20461698 -0.01708747 0.018759055

G.0.linears.1.bias f4 [32]
00000000: 078f e43d ba55 b13d 5dc3 133d b11a 793d
00000010: 32b3 3f3d 4406 613d fcc4 36bd dd70 33bb
00000020: de77 bebc b375 a1bd 916d 68bd d369 ad3d
00000030: 7db1 ec3d 44f0 323a 6a0d ca3d 2f15 99bd
00000040: 29ff d8bd c060 b33d 8e86 73bd c6b5 693d
00000050: d963 b4bc bfab 86bb 3c39 3a3d 59ea 573d
00000060: dc83 76bc cfd4 e63d bee7 ac3d ec6d 77bc
00000070: 4922 ba3c 902d b5bc 09c3 ce3b 6cd8 a6ba
0.11160093 0.08658929 0.036074985 0.06081647 0.046801753 0.054937616 -0.044621453 -0.0027380504
-0.023250517 -0.078837775 -0.056745116 0.0846745 0.11557291 0.00068259635 0.0986584 -0.074747436
-0.10595543 0.08758688 -0.059454493 0.05705812 -0.022020267 -0.004109829 0.04546474 0.052713726
-0.015046086 0.11271059 0.08442639 -0.015101891 0.022721427 -0.022116452 0.006309871 -0.0012729294

G.0.linears.2.weight f4 [10, 32]
00000000: c540 8abd 5cca 4f3d b811 cf3d 5d75 a53c
00000010: ec37 1ebe 8d85 503d 1b58 91be dff3 4cbd
00000020: 2d55 db3d 234f babc 3f42 b53c 02a8 aa3c
00000030: 1fd8 a43d 7f8a 8cbc 9280 febd 9ee1 e3bd
00000040: f5d8 6b3e 401d f5bd e1e3 be3c 6071 0a3d
00000050: 13bf cb3c 6218 91bd 58da fbbd fc10 0b3d
00000060: b615 863c f0db 4cbd 6bcb 563e 55a2 0d3e
00000070: 36b9 08bc 9c35 b4bd ea69 5b3d 19f5 60bd
00000080: 5029 4cbe 17d2 783d 46cf 9dbd c4d6 b43d
00000090: df97 28be 2a5d 2e3e bd5a 4e3d bc88 24be
000000a0: d9b1 b5bb c1e0 01bc 3c51 d13c 7599 0abd
000000b0: 0733 6c3d 682d 723e 8b0e 40bd 9d6c 86bd
000000c0: bf42 943c 8f6d fb3d fd05 be3d 70ad 6ebe
000000d0: 21e1 5e3d b001 c5bd 772d 03bd 06e5 23bd
000000e0: 8573 52bd 9b9b 16bd 7f41 8abd d897 05bd
000000f0: abad 78bd 4143 123e e213 703c da93 f03d
00000100: 051c 93bc cead 383d b53e 26be 4661 7e3d
00000110: e694 283d 397a 033e 22f6 853d 53d3 3b3d
00000120: 4c27 3bbe bd3d 6b3e b104 31bc f31a 223e
00000130: 5679 56bd 785a 8c3d 6098 47be da94 83be
00000140: 6906 cbbd e433 46be 24ec fe3d 3748 c93d
00000150: a33e 1bbd a151 bfbd a88b c73d f393 88be
00000160: b233 debd 1d34 333c 929d 66be 89ce 6d3d
00000170: 333d 653e 468d e9bd f38a 303e fe14 1abe
00000180: b3e7 babc 7c87 9cbb 4fed 2c3e 5bd2 3ebd
00000190: e852 d1bd 8fa1 f2bd d75e ee3c e181 3c3d
000001a0: 0e52 21be 3011 ab3c 1ae7 3cbd 846c 96bd
000001b0: 0dc1 6fbe 59f4 dabc c21f 16be c6cf e4bd
000001c0: 0bd9 fa3d 1fb0 0dbd 27be 12bd 2f6b 103d
000001d0: 3a08 243b f744 e5bd 8149 b83c 64f3 02be
000001e0: d369 d13d 69a1 94bd 401c 00bd b298 cabd
000001f0: 1136 41be 2909 02be 7144 9cbd 6e5f d4bd
00000200: 8265 873d aff3 0ebe b140 59bd 6337 d13d
00000210: b311 193d 5685 0fbe 0d1f fd3b 2649 463c
00000220: 1d4c d6bc a860 2abe e3e3 bbbd 47ba 503c
00000230: 28c9 e2bc 05e6 873d c139 303e 9df1 0cbe
00000240: 5d31 ad3d 5cd1 a9bd d2b8 11be 7fad 9d3e
00000250: 7cc7 863d 4c80 b93d 6496 59bc 9e95 babd
00000260: e86e 173e 325d 513d de9d f1bd 02cb 10be
00000270: d1e1 bdbd 4e6d 4bbd d061 dfbc e704 103e
00000280: 203d 0dbe 1f75 3c3d 07b8 02be 7455 8fbe
00000290: ef33 6c3d b411 d93b 6c4c ea3d 27ec 66bc
000002a0: 61ed 893d 69c2 c93d 1fb4 3e3d 09a6 683d
000002b0: ef7a 3fbe 47aa cf3d e797 e6bd fc0e 61be
000002c0: a7d8 4abd 3569 433d 1a6c aabd d343 bbbd
000002d0: d9c2 acbd e549 8cbd cfaf 34be 634d 56bd
000002e0: 8cb1 4abd 3628 083c ceb3 eebd 5545 6e3e
000002f0: 1d7b a1bd 960c 033e 6e69 3ebd 04d6 373d
00000300: b2e6 673d 1fec 0fbe 01d0 23bd 9fb6 df3d
00000310: 75ae 9ebc 3ffe 063e ad5b 163d 615b 49be
00000320: a39b 95bb 96b1 043d 8d7a b63d c146 743d
00000330: 48ce 2e3d 5a63 873c f7f0 1a3e a151 f4bc
00000340: 06ff f2bc 4df5 2bbd 41c4 c03d 0df6 c7bd
00000350: ce92 9dbd 61cd dd3d fc29 a8bd 5254 af3d
00000360: facd 1fbe d846 8fbd b002 51bd 1c2c ed3d
00000370: 0805 b9bd 5afb f2bd f63f ee3c fe5f 51bd
00000380: 6d0c 8bbd dd08 f13d 002b 0d3e aa1a 2f3c
00000390: 8187 673e d266 c6bd 1adb 77bd 7add d33d
000003a0: d0c9 30bd c234 c7bd 5e85 953c f4a1 f9bd
000003b0: 5ced 65bd a4f7 3b3e c8d8 963d 0699 d03d
000003c0: 260d c7bd ce72 cabc b2e9 7abd 26e0 b73d
000003d0: ef7a 18bd 4cea ffbd a9d0 5fbb 454c 1fbd
000003e0: a2c2 b83c e5da e4bd ac5b 813d c06f cc3d
000003f0: 5599 223e 236e 883d c298 493d 1d64 c1bd
-0.06750635 0.050730094 0.101108015 0.020197565 -0.1545102 0.050908614 -0.28387532 -0.05003726
0.10709605 -0.022742813 0.022126315 0.020832065 0.08049034 -0.017155884 -0.124268666 -0.111270174
0.23031981 -0.119684696 0.02330202 0.03379953 0.024871385 -0.07084729 -0.12297505 0.033951744
0.016367774 -0.050014436 0.20976035 0.13831456 -0.008344939 -0.08799288 0.053567804 -0.054921243
-0.19937634 0.060747232 -0.0770555 0.08830026 -0.16464184 0.17027727 0.050379504 -0.16067785
-0.0055448827 -0.007927121 0.02555143 -0.033837754 0.05766585 0.23650134 -0.04688887 -0.06563685
0.018098233 0.12276756 0.09278486 -0.23308349 0.05441392 -0.096194625 -0.03202578 -0.040013336
-0.0513797 -0.03676949 -0.06750774 -0.032615513 -0.060712498 0.14283468 0.014653178 0.117469504
-0.017957697 0.045087628 -0.16234858 0.062104486 0.041157626 0.12839593 0.06541087 0.04585583
-0.1827671 0.2297277 -0.010804341 0.15830593 -0.05236181 0.06853193 -0.1949172 -0.25699502
-0.09913332 -0.19355732 0.12447384 0.09828227 -0.037901532 -0.09341741 0.09743434 -0.26675376
-0.10849704 0.010937718 -0.22521046 0.058058295 0.22386627 -0.11403899 0.17240505 -0.1504707
-0.02281556 -0.004776893 0.16887401 -0.04658733 -0.10220891 -0.11847221 0.029097958 0.0460223
-0.15753958 0.02088222 -0.046118833 -0.073449165 -0.23413487 -0.026727842 -0.14660552 -0.11172442
0.12248429 -0.03459179 -0.035825875 0.03525847 0.0025029317 -0.111947946 0.022495987 -0.12788159
0.102252625 -0.07257349 -0.03127694 -0.098924056 -0.18868281 -0.12698807 -0.07630242 -0.10369764
0.06611158 -0.13960145 -0.05304021 0.10215642 0.037370395 -0.14015707 0.007724649 0.012102401
-0.02615934 -0.16638434 -0.09174325 0.0127397245 -0.02768381 0.066356696 0.17209531 -0.13764043
0.08456681 -0.08291885 -0.1423066 0.3079643 0.065810174 0.09057674 -0.013280485 -0.091105685
0.14788401 0.05111427 -0.11797689 -0.14139941 -0.09271587 -0.049664788 -0.02726832 0.1406437
-0.13792849 0.046010133 -0.12765513 -0.27994883 0.057666715 0.006624425 0.114403576 -0.014094389
0.067347296 0.09851534 0.046558496 0.05679897 -0.18699239 0.101399 -0.11259442 -0.21978372
-0.049523022 0.047707755 -0.083214 -0.09143796 -0.08435602 -0.06850032 -0.1764519 -0.052319895
-0.04948573 0.008310368 -0.11655389 0.23268636 -0.0788481 0.1279777 -0.046487264 0.044881836
0.056616493 -0.14054917 -0.03999329 0.10923504 -0.019370297 0.13182925 0.036708523 -0.19663765
-0.0045656725 0.03239592 0.089100935 0.05963779 0.042677194 0.016526867 0.15130983 -0.02982408
-0.02966262 -0.041981984 0.094124325 -0.09763727 -0.076940164 0.108301885 -0.08211133 0.08561005
-0.15605918 -0.06995934 -0.051027954 0.11580679 -0.09034163 -0.11864348 0.029083233 -0.051116936
-0.067894794 0.11769269 0.13785934 0.01068751 0.22610284 -0.0968758 -0.060511686 0.10344978
-0.043161213 -0.0972686 0.018252071 -0.12189093 -0.056134567 0.18356186 0.073655665 0.10185437
-0.09719305 -0.024712946 -0.061258025 0.089783 -0.037226614 -0.124958605 -0.003415147 -0.038891096
0.022553746 -0.11174563 0.06316313 0.09982252 0.15878804 0.06661632 0.049217947 -0.09442923

G.0.linears.2.bias f4 [10]
00000000: 7cdb 7dbc 52dc 03bc 3838 803b af2c e7bd
00000010: c149 c2bd 1965 d73a 7143 873d 1acb 7a3c
00000020: 39ed a23d a129 41bc
-0.015494224 -0.008048134 0.003912952 -0.112878196 -0.09486724 0.0016433328 0.0660466 0.015307212
0.07955403 -0.01178971

L.0.linears.0.weight f4 [32, 20]
00000000: d34f 31bd 7186 1b3e 9be4 55bc c1db 703d
00000010: e570 aabd ccb3 15bd 3a0f b8bd 9036 293d
00000020: 58ad f43d 35ac 9a3d b638 7f3d 502f 283b
00000030: fdea 713d 63ba 01be 4962 88bd 7348 d23d
00000040: dc0a 37be dfa3 8bbc 1775 e43d 904f a4bd
00000050: 0f5f 72bd 13ee 0fbe b357 a13d ea01 48be
00000060: 419d a33d a4c8 31be a13a 83bd 914e 2cbe
00000070: e1c7 abbd 5166 2b3d 61fc 09bd 34fa cf3d
00000080: 83cf e4bd c1c9 e73c 1743 ce3d 92c2 5bbd
00000090: 190f 8b3d a46e d6bc 2385 513d c07c 85bd
000000a0: 1eda e83b 5b25 ac3d d33b aebd ae39 2e3d
000000b0: 84bc 513d 1ff8 333d 3a98 973c 491d 363c
000000c0: 2a6c ed3d 6dd6 b1bd 7e55 88be 2444 08bd
000000d0: 8e94 55bd 5a6c 203e 68c1 2abe 03e3 efbd
000000e0: 3a9e e13d 1a80 85b9 cc21 f9bd 8d99 443d
000000f0: 6e69 87bd d527 21be ec97 6c3d 6b3e 833c
00000100: 5236 1cbd c933 44bd a153 503e d259 a33d
00000110: ebe3 22bd 3265 8b3d 071b 77bd 4b74 bd3c
00000120: 49af 87bd 21c4 80bd 1c5b 1fbe 0be7 583d
00000130: 86cf 133e f493 eabd 6f72 c8bd d41e d73b
00000140: 4df8 8abd 2d2f 323d e14d 113e b9df 88bd
00000150: dbba 133d 645b c1ba 2b93 eebd 0cb9 bb3d
00000160: 38c8 30bd afb8 283c 5d48 e5bd 2fd2 fa3d
00000170: 0bfe 903d e6c9 6d3d 305c 9e3d 96c9 a7bd
00000180: 75ad cc3d 4137 3ebd 3cb7 5cbd b898 1bbe
00000190: 998c 1b3e e86f 8ebd 1e47 8d3d cbf2 cdbd
000001a0: f4f8 463d a2ed 523d 16b5 d83d 796b fcbd
000001b0: 7f6f c9bd 017c 9b3d b7eb 13bb 1e14 41bc
000001c0: 92b0 a13d 54a6 22be fbcf bcbc 3836 f03c
000001d0: e8e4 6a3d f138 e7bc 29a5 acbd fd0b 023e
000001e0: ece4 b53b 7a6f 60be 477a 84bd f5f3 b73d
000001f0: 1ef6 c5bc eb3f 1f3e 5386 e33d aae2 113c
00000200: 6521 fe3c 715e 13bc 0e20 fc3d ed0c 94bd
00000210: 1853 ec3c c9c2 043e 7ffd c03d ed71 10be
00000220: 0016 943c 2a2f a4bd 3f03 46bd 699c 933d
00000230: 2d5d ca3d 3586 3fbe cd10 07be 6aa5 163c
00000240: a0f5 963d 1a51 8b3d c5ca 64bd d114 df3d
00000250: a78c 3c3e ee2a 12be 11c5 1e3e 5ef3 6dbc
00000260: a201 9b3c 4586 ddbd 233b aa3d a62c 05be
00000270: 0188 013d c3ba debd 066b c7bd 5084 f6bc
00000280: 7a7b 993d 7174 083d 823a 0abe 6ac4 40bc
00000290: 7b0f 253d b7c1 66be 38a9 fa3d 008b da36
000002a0: 7d42 20be 1dc1 d83c f0b9 5d3d 6b2c 15be
000002b0: c6d4 a13c b4c0 f13d c28e 3a3e aaf8 44bd
000002c0: ebab 133e ffad 4c3e a995 4ebd 980b 8dbd
000002d0: e0b3 e6bc 7f99 21be 85f7 9a3d a9f5 3f3e
000002e0: 4b1f b03d 0a7c edbc 7bfc e63d 7aa9 fd3d
000002f0: 7512 b4bd 7ed7 3e3c 0e7f 4f3c 117c a3bd
00000300: 3aaf 2e3e 4907 dabd 3eb8 64bd 22d3 0b3e
00000310: 72b9 a63d 9b2b f73c 4b2f bb3d 0423 bdbb
00000320: 93ee 0f3e 782a fa3d a985 b53d 377a 1f3d
00000330: 3f5a e63d 714e a2bc a41b e93d 53e7 ecbd
00000340: 35ae ba3d 8b12 8f3d e224 763d 3aca e9bd
00000350: a2f0 e5bd 010a 08be f3bb a33c 7e18 6c3b
00000360: 6daf ad3c e6ac cd3d 3a93 dcbd 6648 853d
00000370: d420 473e 332b 073c af83 c63c 6e73 503e
00000380: 32ef 06bc 139d 2d3d 074a 23be f008 f9bc
00000390: fe5c 8ebd 149f 17be 3658 bdbc e128 14be
000003a0: 0951 6c3d 88be d9bd 239d 1fbc c021 e03d
000003b0: 3b9b 69be 0cbe c0bc 31f5 6dbc 7c0c 9b3d
000003c0: 5695 573e f99a e7bd 2b6a 783d b063 2d3b
000003d0: bf3c 403d 88c1 9cbd bf78 4a3d 9723 edbd
000003e0: bc3b 9bbd 9f5d d63c 4cc0 22be 3876 c5bb
000003f0: 9dee adbc ca76 1dbe 6f07 20bd 21dd 1d3e
-0.043289017 0.15188004 -0.013054992 0.058803324 -0.08322314 -0.03654842 -0.08987279 0.0413118
0.11947125 0.07552377 0.062309943 0.0025662966 0.059061993 -0.12668757 -0.066593714 0.10267725
-0.17875236 -0.017045913 0.111551456 -0.08022988 -0.059172686 -0.14055662 0.078780554 -0.1953198
0.07988978 -0.17361695 -0.06407667 -0.16826846 -0.08387733 0.041845623 -0.033687953 0.10155144
-0.11172392 0.028294446 0.1007139 -0.053652354 0.06789989 -0.026175804 0.05115236 -0.06517935
0.0071060797 0.084055625 -0.08507504 0.042535476 0.051205173 0.0439378 0.018505204 0.011115381
0.11592896 -0.086834766 -0.26627725 -0.03326811 -0.052143626 0.15666333 -0.16675341 -0.11713221
0.110165074 -0.0002546318 -0.12164649 0.047998 -0.06611906 -0.15737851 0.05776207 0.016020974
-0.03813774 -0.04790095 0.20344402 0.07976116 -0.03976814 0.06806411 -0.06032851 0.023126742
-0.0662523 -0.062874086 -0.15562099 0.052954715 0.14434633 -0.11454001 -0.097874515 0.0065649543
-0.06785641 0.04350202 0.14189865 -0.06683297 0.03606687 -0.0014751968 -0.11649164 0.09166154
-0.043159693 0.010297938 -0.11195443 0.122471206 0.07079705 0.058053873 0.07732427 -0.08192746
0.09994022 -0.046439413 -0.053885683 -0.15194976 0.15190352 -0.06954938 0.0689833 -0.10056075
0.048577264 0.051496156 0.105814144 -0.12325186 -0.09835719 0.07592011 -0.0022570917 -0.0117845815
0.07895006 -0.15883762 -0.023048392 0.029322729 0.05734721 -0.028225394 -0.08429939 0.12699886
0.0055509713 -0.21917525 -0.06468635 0.08982078 -0.02416521 0.15551727 0.11109605 0.008904139
0.031021783 -0.008994685 0.123108014 -0.07229028 0.028848216 0.1296493 0.094233505 -0.14105959
0.018076897 -0.08016808 -0.04834294 0.07207567 0.09881053 -0.1870354 -0.13190003 0.009194711
0.07371068 0.06802578 -0.05585744 0.10892642 0.1841303 -0.14274189 0.15504862 -0.014523355
0.018921677 -0.108166255 0.08312061 -0.13005313 0.031623844 -0.10875466 -0.0973721 -0.030092388
0.074942544 0.033314172 -0.13498881 -0.011765579 0.040297966 -0.22534834 0.12239307 6.513088e-06
-0.15650363 0.026459271 0.054132402 -0.14567725 0.019754779 0.11804333 0.1821852 -0.048088707
0.1442105 0.19988249 -0.050435696 -0.06886977 -0.028161943 -0.1578121 0.07566742 0.18746056
0.08599719 -0.02898981 0.112786256 0.12385841 -0.08792583 0.011648057 0.01266457 -0.07982648
0.17059031 -0.10645921 -0.05583977 0.1365476 0.0814084 0.03017216 0.0913988 -0.0057719965
0.14055853 0.122151315 0.08863384 0.038934913 0.11247682 -0.019812794 0.11382225 -0.11567559
0.091152586 0.06985959 0.060093768 -0.11415525 -0.11227538 -0.13285066 0.019987082 0.003602534
0.021201814 0.100427434 -0.10770269 0.065079495 0.19446117 0.008250046 0.024232714 0.20356533
-0.00823574 0.042386126 -0.15946208 -0.03039977 -0.069513306 -0.14806777 -0.023113351 -0.14468719
0.05769447 -0.10632044 -0.009742054 0.10943937 -0.22813122 -0.023528121 -0.01452379 0.075707406
0.21053061 -0.113088556 0.060648125 0.0026457123 0.046932932 -0.07654101 0.04943156 -0.11579054
-0.07579753 0.026167689 -0.15893668 -0.0060260557 -0.021231944 -0.15377346 -0.03906959 0.15416385

L.0.linears.0.bias f4 [32]
00000000: 4388 c4bb 952b 81bd 80d0 e23d d133 fa3c
00000010: 702f 1dbd 0fb5 56bd 643c d43d 5159 f53c
00000020: 2fb0 e83c e229 12bd 48d6 2d3c ec9d a13d
00000030: fd66 b13d 5ab3 b53d 2896 9a3d 4c10 27bd
00000040: 29db 8cbd 1270 ddbc de3d a2bc 1880 c6bd
00000050: c573 3f3d 4826 a23d b689 6b3d 57ae a2bd
00000060: e767 c03d 54ac e5bc 4827 c63d cd2e b8bd
00000070: 33d5 393d ae69 333d 340b bfbd daab 7d3b
-0.005997689 -0.06307141 0.110749245 0.030542286 -0.038375318 -0.052418765 0.10363081 0.029949816
0.028404323 -0.035684474 0.010610171 0.07891449 0.086622216 0.08872099 0.07548171 -0.040787026
-0.06877739 -0.027030978 -0.019804891 -0.09692401 0.046741266 0.07917458 0.05750438 -0.07943409
0.09394818 -0.028036274 0.09675461 -0.089933015 0.04536934 0.043801956 -0.09328309 0.0038707168
