para_save/00003params.pth (torch, 118145 bytes, 76 tensors)

F.linears.0.weight f4 [32, 20]
000000 b7 4a 89 bd b0 ca bf bd 27 57 17 be e5 f1 6b 3c
       -0.06703704 -0.093648314 -0.1477934 0.014400934
000010 12 f7 a6 bd f0 55 80 bd a9 4b ef bd c1 10 db 3d
       -0.08152594 -0.06266391 -0.11684353 0.10696555
000020 bf 5f b8 bd 30 e1 7f bd 31 55 e1 bc 91 32 98 bc
       -0.09002637 -0.062470615 -0.027506443 -0.0185788
000030 72 a6 b5 3d 25 5e 1a be 87 2b b6 3c 8d c5 ee 3b
       0.088696375 -0.15074976 0.022237552 0.0072867335
000040 58 6e 55 3d b0 7f f9 3d 9f 6c 82 bd b8 31 e3 3d
       0.052107185 0.121825576 -0.06368374 0.110934675
000050 dc c4 39 3e d1 87 c6 bd 17 a4 fc bc 82 d0 5f bd
       0.18141502 -0.09693874 -0.030839963 -0.054642208
000060 70 1d 30 bd f2 91 09 be 23 e6 2a 3c e7 90 8d 3d
       -0.042996824 -0.1343458 0.010430845 0.069124036
000070 aa ac be 3c 6e 40 8f bc 5c e2 24 3e 8c d0 6c bd
       0.023275692 -0.017486777 0.16101974 -0.057816073
000080 48 62 34 be 53 7a 0b bc 8e 6d 7d 3d e8 ca 95 3d
       -0.17615616 -0.008513051 0.061872058 0.07314092
000090 b3 e0 3e 3d b3 db 05 3d bb b4 91 bd c0 bd 5b 3c
       0.04660101 0.032680225 -0.0711455 0.013411939
0000a0 ba 73 85 bd 13 9a dd 3d 17 96 ef bd d7 fb 2a be
       -0.06516214 0.10820403 -0.11698549 -0.16697632
0000b0 33 cd f0 bd 53 ce e8 bd e8 b7 e5 3d 80 33 26 3d
       -0.11757889 -0.11367478 0.11216718 0.040576458
0000c0 c5 e7 b9 3d ac 2c 42 3d 25 3a 00 3e 25 0d c6 bd
       0.0907741 0.047405884 0.1252218 -0.09670476
0000d0 87 0f 4f bd 8b 38 43 be 5f e1 a0 3d 94 e3 73 3d
       -0.050551917 -0.19064538 0.07855486 0.059543207
0000e0 fa 96 bd 3d a1 af 3b be 71 2e db bd 07 b0 30 3d
       0.09257312 -0.18328716 -0.10702217 0.043136623
0000f0 07 be 09 3d b1 0a eb bd 06 c4 ec 3c 07 dc c8 bd
       0.03362849 -0.114766486 0.028902065 -0.09807592
000100 9e 83 11 3e f8 22 d5 bd 38 08 f0 3c 2d 25 f2 bc
       0.14210364 -0.104070604 0.029300794 -0.029558742
000110 0c 69 f3 39 e0 be 0b 3e 7b 81 c9 bc dd 1d 1a be
       0.00046426838 0.13647032 -0.024597874 -0.15050454
000120 d1 01 86 bd f4 5c eb 3b 88 54 f3 3c 01 be cf 3d
       -0.06543315 0.0071827117 0.029703394 0.10143662
000130 35 f3 0c ba 03 1f 8c bb b9 ce 27 be 1c ed 1a 3d
       -0.0005376817 -0.004276158 -0.16387452 0.03782378
000140 87 05 78 3d 63 d7 3e bc 5a 1a e8 bd 70 68 7f 3d
       0.060552146 -0.011648032 -0.11333151 0.06235546
000150 2d 9e 4d 3d 77 07 41 bd c4 85 21 3d 6b 05 90 bd
       0.050199676 -0.04712626 0.03943421 -0.070322834
000160 33 22 2e 3d c8 8c 04 3e 72 85 98 bc de c9 c3 bd
       0.042513084 0.12944329 -0.01861832 -0.095599875
000170 0c 72 41 be 3e bb d5 bd 63 ad 1d 3e 79 be e2 bc
       -0.18891162 -0.10436104 0.15398173 -0.027678715
000180 d4 2f 57 3e 63 d8 b9 bc 1d 29 00 be 5d f4 8a 3c
       0.21014339 -0.022686189 -0.12515683 0.016962225
000190 bc 67 05 bd b2 e1 4b 3e 1e 01 2d be d1 a4 ab bd
       -0.032569632 0.19910315 -0.16894957 -0.083810456
0001a0 b6 0b c2 3d 88 97 07 bd 08 96 84 3d 45 bf 3c 3e
       0.0947489 -0.033103496 0.06473929 0.18432339
0001b0 06 48 04 3e 33 a4 10 bc 55 a7 9e 3c e8 21 1c bd
       0.129181 -0.008828211 0.0193669 -0.038118273
0001c0 a0 4a c3 bc 73 fb d5 bc c9 a5 0e bd a1 c8 73 3d
       -0.023839295 -0.026120877 -0.034826074 0.059517507
0001d0 86 ff 55 3e 6e ba a9 3c e3 71 3d 3d 7c 3f 2d bd
       0.20898256 0.02071878 0.04625119 -0.04229687
0001e0 6c 62 01 3e 74 1e 1e 3c b6 18 9e bd 8f fc 87 bd
       0.12635201 0.009650815 -0.07719557 -0.066399686
0001f0 14 88 52 3d 19 e7 e1 3a 39 4a 56 3e f9 d1 36 3d
       0.051399305 0.001723501 0.20926751 0.04463384
000200 31 c3 38 3d 1c c7 f8 3d 23 80 f8 3d 1a 16 c1 3d
       0.045108024 0.12147352 0.12133815 0.09428044
000210 98 97 80 bc 99 32 ee bd 1e 82 43 3e d5 d9 0b 3e
       -0.015697286 -0.116307445 0.19092605 0.13657315
000220 f0 ae 51 be 7a 9b 66 bd 48 51 4a 3c 48 36 1a 3d
       -0.2047689 -0.056300618 0.0123484805 0.037649423
000230 05 18 ac 3d 78 ab 5d bd c1 43 12 3e d6 a3 45 bb
       0.08403019 -0.054118603 0.14283659 -0.0030157468
000240 83 e3 ce bb 7c 51 97 3c 08 bd fd bc 81 46 8c 3b
       -0.0063137426 0.018471472 -0.030973926 0.0042808657
000250 81 60 b1 3d 3c 4c 1e be 03 71 b9 bd ee 84 cc 3d
       0.08660985 -0.15458769 -0.090547584 0.09986292
000260 f2 09 11 3b 70 63 eb bc 54 4f 5d 3d 30 90 d6 3b
       0.0022131172 -0.028733939 0.05403073 0.00654795
000270 30 2b 38 b8 f5 db 91 3c 8d 5b 32 be e6 11 bf 3d
       -4.390924e-05 0.017805079 -0.17417736 0.09329586
000280 67 98 5f bd 34 41 d6 3d c5 4a 9d 3d da 1e a2 bc
       -0.0545887 0.10461655 0.07680277 -0.019790102
000290 cb 54 ae bd b4 ee 7b 3d 64 d3 f6 bd 95 a4 ef bc
       -0.08512267 0.061506942 -0.12052038 -0.029253284
0002a0 55 dc c8 bd 29 c5 2a 3d 7e 0e 14 3e c4 16 ea bd
       -0.0980765 0.041691933 0.14458653 -0.114301234
0002b0 75 d3 b3 3b 85 74 a1 3b bb c1 8d bd 6a 2e 91 3d
       0.005487854 0.0049272203 -0.06921717 0.07088931
0002c0 20 8a 6b 3d c6 78 e4 bd f8 97 0c 3b 2d 2a 08 3e
       0.057504773 -0.11155848 0.0021452885 0.13297339
0002d0 17 76 5b 3d d1 fd 36 bd cb b3 b8 3d df 62 47 bd
       0.053579416 -0.044675652 0.09018668 -0.048678275
0002e0 e6 6b 2f bc a3 f4 3f bc 8f ad ae bd 4e ea 72 3e
       -0.010706877 -0.011716041 -0.085291974 0.23722193
0002f0 7f 4d fd 3d 1b 00 a8 bd 1c 42 39 bb 59 28 9e 3c
       0.12368297 -0.08203145 -0.0028268164 0.019306349
000300 12 de a4 3d e5 fa 89 bd 9d 49 54 3d ad 9b 50 bd
       0.08050169 -0.067373075 0.051828016 -0.050929714
000310 67 a2 cd bd 69 fd 03 be ac 46 08 be ff 1b 33 bd
       -0.100407414 -0.12889637 -0.13308209 -0.04372787
000320 8a d6 c6 3c 9f 12 b3 bc 04 79 63 3b 82 49 90 bc
       0.024272222 -0.021859465 0.0034709582 -0.017613176
000330 a9 3d ce bd 1e 48 a3 3c 18 39 9c 3d bc 64 b1 bd
       -0.100703545 0.01993185 0.07628077 -0.08661792
000340 e8 d1 09 bc 0c 7c 03 3d 57 99 a8 bd 0c a3 0d 3b
       -0.008411862 0.032100722 -0.08232372 0.0021612076
000350 a7 44 09 be 81 32 d9 3c 5c bd 23 3e c4 70 24 3d
       -0.13405095 0.02651334 0.15990204 0.040146604
000360 fd 74 0e 3e 6d ab 1f be 56 c1 75 3d be 90 72 3d
       0.13911815 -0.15592737 0.059998833 0.05922007
000370 95 70 85 bd f4 46 ef bc 0d b3 4d bd 8b fa b5 bb
       -0.06515614 -0.029208638 -0.050219584 -0.0055535487
000380 85 8c 86 bd c4 68 9c 3d f2 32 c7 3d 39 54 8a bd
       -0.06569771 0.0763717 0.09726514 -0.067543454
000390 d9 1f cb bc dc 42 49 be c7 44 71 3c bc 13 6e be
       -0.02479546 -0.19654411 0.01472587 -0.23249716
0003a0 3d df 1d 3e 85 23 21 bd 59 7d 1b bd d8 35 f4 3d
       0.1541719 -0.039340515 -0.037961338 0.119243324
0003b0 1b 5f c1 3b 1f d7 3f bd 2c d0 68 be b6 07 25 3e
       0.00590123 -0.046836015 -0.22735661 0.16116223
0003c0 f9 1d ec 3d c2 8c 6a bd 78 c3 b0 bc e3 aa 5c bd
       0.11529154 -0.057263143 -0.021577582 -0.053873908
0003d0 0d 4d 67 3c c0 64 28 3e 5f 62 d1 3c b6 a1 a6 3d
       0.014117491 0.16444683 0.025559602 0.08136313
0003e0 57 ff 28 3c b3 0d ee bd 76 8a f6 3c b7 15 fc bd
       0.010314784 -0.11623707 0.03009532 -0.12308829
0003f0 f0 61 58 bd 23 d7 34 be 49 d7 a4 3c 09 a6 34 bc
       -0.052827775 -0.17660193 0.020122187 -0.011025914

F.linears.0.bias f4 [32]
000000 aa a4 e4 bc bf 7d 0c 3c 1c 27 23 3d 33 13 b9 bd
       -0.02791055 0.008574902 0.03983222 -0.09036865
000010 ff 26 7f bd fb ba 55 bd a5 a7 c3 bd d0 5d 23 3d
       -0.06229305 -0.05218027 -0.0955346 0.03988439
000020 c3 41 40 3c 64 99 89 3d 4c 7c 75 bd 84 0d 12 bd
       0.011734429 0.0671871 -0.05993299 -0.03565742
000030 ef 15 88 bc b0 91 83 bc d4 e8 4c ba b0 0a af 3c
       -0.016612021 -0.01606068 -0.00078166765 0.0213674
000040 bd 47 68 3b 1e 76 b0 3d a3 91 a8 3d 5d 50 e8 3c
       0.003544315 0.08616279 0.08230903 0.028358633
000050 6d f4 d0 bd bf 10 7e bc 32 d7 c5 bd 2e 9d a1 bd
       -0.102028705 -0.015506922 -0.09660186 -0.07891308
000060 a5 81 7c bd 39 73 a0 bc 47 d6 53 3b ea 38 6b bd
       -0.061647076 -0.019586192 0.0032323764 -0.057427324
000070 ea d6 76 3b 5e ab 59 3c 48 1f 84 bc d3 5b 2e bc
       0.003766472 0.013285486 -0.016128197 -0.01064201

F.linears.1.weight f4 [32, 32]
000000 31 57 05 bd 82 92 dc 3d 10 5a 93 3e 92 23 cb bd
       -0.032553855 0.10770132 0.2877965 -0.09918894
000010 aa 7a d7 bd 71 15 09 3d b2 3e 5d 3c 1a ed d5 bd
       -0.10521443 0.033467714 0.013503717 -0.10445614
000020 25 d0 1d bd 1f 80 f1 3b 48 5c 26 3d 04 a0 c9 bb
       -0.03852858 0.0073700096 0.04061535 -0.0061531086
000030 e6 01 a1 bd 8c 38 c9 bd 5c 1f 35 3e 68 ed db 3d
       -0.0786169 -0.098252386 0.17687744 0.10738641
000040 aa 21 49 bd ef 0c 18 bd 34 14 e0 3c c4 d3 e9 3d
       -0.04910437 -0.03712171 0.027353384 0.11417344
000050 82 95 42 bd 61 cc 0f 3d 99 0b 6c 3e d6 ff e0 bc
       -0.047505863 0.03510702 0.23051299 -0.027465742
000060 b9 3b 33 3d c3 d8 f5 3d bb a6 47 bd 5c f8 b7 bd
       0.043758128 0.12004235 -0.04874299 -0.08982918
000070 f6 dd 2d be 2c 99 47 3d 03 32 96 3c 3f 6e 78 3d
       -0.16979203 0.04873006 0.018334394 0.060652014
000080 5a c6 c8 3d 69 0f 28 3d 86 2b 87 3e 30 c5 59 3d
       0.098034576 0.04103032 0.26400393 0.05316657
000090 f2 6c b3 bc 34 2b cc 3d 5e 8f c4 3c 77 ed 91 bd
       -0.021902535 0.09969178 0.023994144 -0.07125371
0000a0 f8 78 2a 3d c1 31 4d 3c 92 d1 1e 3e f8 dc 4c be
       0.04161927 0.012524069 0.15509632 -0.20006168
0000b0 94 c2 0c bc 5f 93 19 3b fe 78 08 be be 67 a3 3d
       -0.008591313 0.0023433787 -0.13327405 0.079787716
0000c0 f1 65 86 3d 69 75 9b 3d bf fb 28 be 96 0e 5f 3b
       0.065624125 0.075907536 -0.16502284 0.0034035794
0000d0 3c ac 24 bc aa be 1c 3d 39 7b 16 3d 3b 8d 65 3d
       -0.0100508295 0.03826777 0.036738608 0.05604289
0000e0 f2 35 21 be 5f cd c5 bd 05 3b dc 3d d7 a7 2e 3e
       -0.15743235 -0.09658312 0.107534446 0.17056213
0000f0 e4 bd 43 bd 1d 1b e0 3d 41 0c fd 3d fe e2 af 3d
       -0.047788516 0.109426714 0.12355853 0.08588217
000100 da 10 ee bc 9b e5 02 3d e0 a7 17 3c 8e 2e 55 bd
       -0.02906077 0.03195725 0.009256333 -0.05204635
000110 47 02 c6 bc e4 ec 4f bb 36 8f 95 3c 45 5f 51 be
       -0.024171008 -0.0031726891 0.018256765 -0.20446499
000120 8d 5a 0d 3d f9 62 3b bd 69 e0 7d 3d 46 ca 15 3e
       0.034510184 -0.045748685 0.061981592 0.14627942
000130 3f af 4b 3e c3 a8 52 bc 54 f9 27 be 18 e6 6c b9
       0.1989107 -0.012857619 -0.16403705 -0.0002259243
000140 67 a7 31 3e 8f 9b 84 bd cc e6 08 bd ea 29 97 3d
       0.17349015 -0.06474983 -0.03342323 0.07381041
000150 dc 49 10 3e 6e f4 20 3e 1c 7f b2 bc 0c 19 6d bd
       0.14090675 0.15718243 -0.021789126 -0.057885215
000160 17 da 32 be d2 db b6 3d 73 f3 84 be 32 88 29 3e
       -0.17466007 0.08928646 -0.25966987 0.1655586
000170 90 29 59 3d f1 3b 8a 3d 1f 88 e7 3d f3 e5 2a bc
       0.053018153 0.06749714 0.1130526 -0.010430801
000180 b7 9e e6 bd 74 46 e4 bc 1e ab 1e 3d 22 db cc 3d
       -0.11260741 -0.027865626 0.03873741 0.10002734
000190 d1 1b 09 bb db 7d 33 be ef 5b 2b 3d 0a b7 3e 3b
       -0.002092112 -0.17528479 0.04183572 0.00291008
0001a0 b6 12 3e 3e e6 9d 41 be e3 01 31 3e c7 a3 f9 bd
       0.18561825 -0.1890789 0.17285876 -0.12189441
0001b0 92 58 15 3d 68 cc f3 bd 00 64 09 be a5 64 87 be
       0.03646142 -0.11904222 -0.13417053 -0.26443973
0001c0 da 74 13 be 05 05 a1 bd b3 91 e8 bd b2 70 67 be
       -0.14400044 -0.078622855 -0.11355915 -0.22601584
0001d0 4e 13 8b 3d 2d 38 e4 3d da 44 e3 bd 32 4e 5f 3e
       0.067907915 0.11143527 -0.11097117 0.21807173
0001e0 12 09 a3 3d 51 f6 1f 3e 5a 8c b8 bb 8d cf 80 bd
       0.079607144 0.15621306 -0.0056319656 -0.06289587
0001f0 d0 3b 2b 3c f9 50 30 bd a9 e2 14 3e 87 00 b5 bd
       0.010451272 -0.04304597 0.14539589 -0.08837991
000200 e3 ce 4b bb f8 14 2d 3e 53 4e a6 3d b1 c7 c4 bd
       -0.0031098656 0.1690253 0.08120408 -0.096084006
000210 71 e9 14 3e 0a cd 9a bc 62 fd 07 bd 2a 4c df 3c
       0.14542176 -0.018896598 -0.03320063 0.027257998
000220 55 79 06 bd 3f fd 9a bc d5 ff 7a 3d 79 f0 8d 3d
       -0.032830555 -0.018919585 0.061279137 0.06930632
000230 3b 38 f1 bd 69 a1 26 be 44 ad 22 39 38 59 c1 bd
       -0.11778303 -0.1627251 0.0001551407 -0.09440845
000240 4e d1 23 be bf 8d ac bb 84 58 76 3d 92 1a 2b bc
       -0.15997812 -0.005265921 0.06014301 -0.010443347
000250 7d da 5a bd 7c 2a 52 3d 85 06 68 3c a1 7e b7 bc
       -0.053431023 0.051310048 0.014161711 -0.022399249
000260 dd dd c4 3d 65 c3 27 bd af 91 06 be f8 aa 21 3e
       0.096126296 -0.040957827 -0.13141511 0.15787876
000270 6d a1 11 3d c3 f9 e0 bd 84 60 dc 3d 31 dd 17 bc
       0.03555434 -0.10985138 0.107605964 -0.009269045
000280 60 0e b3 bd 8f ef 9b ba 9e 13 d3 bd b6 49 83 3d
       -0.08742976 -0.0011896956 -0.10306476 0.064105436
000290 78 cc fb bd ac 24 74 bc 91 b2 50 be 85 97 64 be
       -0.12294859 -0.014901321 -0.20380618 -0.22323425
0002a0 a6 3b eb bb 2a 51 0d 3b 66 27 f1 bd a2 fa 0f be
       -0.0071787415 0.002156327 -0.11775093 -0.14060453
0002b0 ae 04 da 3d 71 97 9f 3d 29 e8 8c 3d 3e 55 fe 3d
       0.10645424 0.07792557 0.068802185 0.124186024
0002c0 e6 ef 62 bd bd 71 85 bc 15 ee 9a bc 1a ca d1 bd
       -0.055404566 -0.016289586 -0.018912354 -0.10243626
0002d0 30 c9 ad bd ac 5b 4b 3c d1 a1 d9 3c 23 61 a1 bc
       -0.08485639 0.012411993 0.026566418 -0.019699639
0002e0 de 22 e8 3a b1 0c b8 3d 13 d4 97 3d fc 11 e8 3c
       0.0017710587 0.08986796 0.07413497 0.028328888
0002f0 ac ed 33 3d bf 7c a0 3d d7 d5 e9 bd 18 df 8b bd
       0.043927833 0.078362934 -0.1141774 -0.06829661
000300 b4 9e ad 39 09 0b d9 bd 43 29 bb bd b3 eb 55 bd
       0.00033115374 -0.10597808 -0.091387294 -0.052226733
000310 57 b0 b0 bd 8c a7 30 3b d2 b9 ab 3d fc fc 05 bd
       -0.08627384 0.0026955334 0.08385052 -0.032711968
000320 ab f1 2c be 06 95 f3 bd 01 bb a4 3d ce e2 41 be
       -0.16889064 -0.11893658 0.08043481 -0.18934175
000330 72 ae 46 3d 99 ef d9 bd 95 8e e1 bd 68 40 28 3e
       0.048506208 -0.10641403 -0.110135235 0.16430819
000340 89 1c 60 bd d7 d5 09 3e 9d 9c 40 bd 87 6f 6d bd
       -0.054714713 0.1346048 -0.047024358 -0.05796769
000350 39 d7 d0 bb 7f fc a0 bb 61 b1 52 3d 0a 7d e6 bd
       -0.006373313 -0.0049129124 0.051438693 -0.11254318
000360 a4 e3 3e 3c 7b 07 f6 bd 06 b6 da 3c c9 3a 6d bc
       0.011650953 -0.120131455 0.026698124 -0.0144793475
000370 d3 a1 47 bd 29 18 ed bb f5 ec d0 bc a7 aa c6 bd
       -0.048738312 -0.007235546 -0.025503615 -0.09700518
000380 4e f8 95 3d cf 38 5c 3d 4d 03 1d be 22 2c e7 3b
       0.07322751 0.053765114 -0.1533329 0.0070548216
000390 77 7c 7c bd a7 09 de 3d 78 16 9a 3d 96 21 a2 3d
       -0.061642136 0.10841685 0.07523817 0.07916562
0003a0 a5 2b 63 3d cd a0 e3 3b 18 5e 07 3d 67 30 64 bd
       0.055461545 0.006946659 0.03304872 -0.055710223
0003b0 bc 4b b2 bd 7f 21 19 be 98 0b b8 3c c0 80 41 bd
       -0.087058514 -0.14954184 0.022466466 -0.047241926
0003c0 77 7c 9d bd 8c 9a a7 3d 0f f3 98 3d bb 8d 23 be
       -0.076897554 0.08183774 0.07468235 -0.15972035
0003d0 63 f0 c8 3d d0 22 6b 3d f1 40 70 3e 84 9b ac bc
       0.09811475 0.057406247 0.23462273 -0.02107025
0003e0 ec 43 b0 bd a3 8e bf bc d4 f4 c1 3c 65 b2 03 3d
       -0.08606705 -0.023383444 0.023676313 0.032152552
0003f0 ec cd c4 3d 5c 0b 7d 3d 68 7b 86 3d b7 d2 59 3e
       0.09609589 0.06177841 0.065665066 0.21271788

F.linears.1.bias f4 [32]
000000 fc e5 ad bc de d2 1d bd 3b 9a 93 bc fd 53 28 3d
       -0.02122783 -0.038531177 -0.018017879 0.041095722
000010 77 ac cc 3d e4 3b db 3c 48 f8 5a b9 db 55 e9 bc
       0.099938326 0.026761957 -0.00020882592 -0.028483322
000020 96 76 a9 3d 7a 52 65 bd 2e aa 39 3c e0 b4 a7 bd
       0.082745716 -0.05598686 0.011332078 -0.08188796
000030 49 bb 05 3c ac 14 b4 3d 44 29 50 39 5e 0d bb bd
       0.008162328 0.08793005 0.00019851798 -0.09133409
000040 ce 2c b0 3c f5 4d 82 3d c4 29 86 bd f5 fa 99 3d
       0.02150574 0.063625254 -0.06550935 0.075185694
000050 9a 21 cd bb 94 9e 8a bd d6 cd bb 3c 9a 5f a7 bd
       -0.006260109 -0.067685276 0.022925299 -0.081725314
000060 bc d2 e0 3c ab 10 42 3d 05 d1 70 3c 3c 68 96 3d
       0.027444236 0.047379177 0.014698272 0.073441
000070 37 65 94 bd 48 2a 86 bd 29 2e 57 3d af ff c4 3d
       -0.07245868 -0.06551033 0.052534256 0.0961908

F.linears.2.weight f4 [10, 32]
000000 e3 49 3e 3d e6 47 a2 bd 37 2d b8 3c 57 10 3b 3b
       0.046457183 -0.0792387 0.022482498 0.0028543675
000010 47 fb 9b bd d1 c5 18 3e 4e 8a 67 3e ab 27 48 3d
       -0.07616287 0.14919211 0.22611353 0.048865955
000020 30 11 c4 3d 3a 13 06 be 37 5c b7 3d 43 a8 1c bd
       0.09573591 -0.13093272 0.089531355 -0.038246404
000030 83 74 50 3d fd ce f3 bd a8 83 04 3d 5f 06 27 3e
       0.050892364 -0.11904714 0.03235212 0.16311024
000040 f1 5f 37 3c c0 4c 95 3c 8d cb 28 3e 3b 47 25 3e
       0.011192308 0.018225074 0.16483898 0.16140454
000050 d9 1c dd bc 48 61 51 3e 9a 62 c5 bc c7 31 26 3d
       -0.026991295 0.20447266 -0.024094868 0.040574815
000060 0e 0d 0f be 0e a8 0e 3c 0e 83 0a 3e 0b 51 74 bd
       -0.13969824 0.00870706 0.13526556 -0.0596476
000070 77 9c c8 3c 8b 3e 37 bd b8 db 27 bc 33 57 41 bd
       0.02448867 -0.04473738 -0.010245256 -0.0472023
000080 76 3b ae 3c ee 31 8f bd fa a5 2c 3d da a9 07 3e
       0.021268588 -0.06991945 0.042150475 0.13248387
000090 c6 0a 4b bc b1 18 c2 3d 61 da c9 bd 9b 13 8a 3e
       -0.012392705 0.09477366 -0.098561056 0.26968083
0000a0 2f 75 08 3d 69 3f 22 be 15 59 f3 3d 58 03 f1 3b
       0.03331488 -0.15844502 0.118822254 0.007355135
0000b0 ce 7c ab 3d ec 0c be bd 02 6e 15 bd 09 1b 1c 3d
       0.08373414 -0.092798084 -0.036481865 0.03811172
0000c0 11 4b c3 bd 7a 23 d3 3d 39 e3 1e 3d ee e2 44 3d
       -0.09535802 0.10309501 0.038790915 0.04806798
0000d0 40 b6 ed 3c bc 63 4a be 20 37 63 be 71 f2 f8 3d
       0.029017568 -0.19764608 -0.22188997 0.12155617
0000e0 be bb d4 3d 8c 99 e0 bd c3 08 97 3d 9f 15 01 be
       0.103873715 -0.10966787 0.07374718 -0.12605904
0000f0 4f ab ff bd 17 30 25 3c be 38 15 3e 54 16 45 be
       -0.124838464 0.010082266 0.14572427 -0.19246799
000100 48 ad af 3d 42 b0 4c 3e e6 ce 80 be 87 58 0d be
       0.08577973 0.19989112 -0.2515785 -0.13803302
000110 f1 d4 44 bd 74 9e d7 3c ed 5f 3d 3c ba 29 7e 3d
       -0.04805464 0.026320674 0.011558515 0.062051512
000120 41 0a 73 3d 38 e2 7d bb a0 a8 e8 bd c2 b8 1a bc
       0.05933595 -0.0038739573 -0.11360288 -0.009443464
000130 b9 6d b6 3c ac 79 c6 3b c7 77 53 3c 30 13 52 bd
       0.022269117 0.006056985 0.012906975 -0.05128783
000140 e4 7f 17 be 81 53 76 3d ed cf 21 3d 9f 8d 9d 3d
       -0.1479488 0.06013823 0.039504934 0.07693028
000150 21 31 87 3c e7 25 e6 3d 6f 47 0b be ad fc 00 bd
       0.016502919 0.11237698 -0.13601469 -0.03149097
000160 40 13 ab bc 30 22 08 3e e3 ce 5a 3d 0c ef 27 be
       -0.020883203 0.13294291 0.05341996 -0.16399783
000170 aa 73 e6 bd f4 94 1d 3e d1 d7 42 3c f2 35 06 be
       -0.1125253 0.15388852 0.011892275 -0.13106516
000180 31 8b 02 3e 79 c9 81 3e d0 3e d2 bc 41 87 13 be
       0.1274841 0.25349024 -0.025664717 -0.14407064
000190 b0 c1 bc 3d c9 c1 a8 3d df 29 f3 bd 45 f2 98 bc
       0.092166305 0.082400866 -0.11873221 -0.01867021
0001a0 a5 f3 d9 3d 4d 3e 76 bb dc 0c 0d 3d fb 67 89 be
       0.10642175 -0.0037573755 0.03443609 -0.26837143
0001b0 cf d3 2f 3e 9f 76 1c 3c 3f 5f ad bd b1 e0 1b be
       0.17170642 0.009549766 -0.084654324 -0.15222432
0001c0 c1 1c 99 bd 5c 4b 26 bd e5 d3 38 3e 09 a4 32 3e
       -0.074761875 -0.040599212 0.18049581 0.17445387
0001d0 04 21 41 bd e2 0a 2d bd 40 90 c4 3d 34 1d 2d 3c
       -0.047150627 -0.042246707 0.09597826 0.010566045
0001e0 d5 b2 47 bc bd 8e 29 bd d0 89 65 3d 93 70 07 3d
       -0.012188633 -0.04139589 0.05603963 0.033066344
0001f0 d0 cd f5 3d eb 5f 0b 3d 90 16 7a 3b 67 24 09 be
       0.12002146 0.03402702 0.003816042 -0.13392793
000200 c9 63 3d be 5b 5c 96 3d 2c ac 6f bd d7 ae f5 bd
       -0.18495096 0.07341834 -0.058513805 -0.11996239
000210 a7 91 aa bc de dd ff bc 5c 29 76 bd 42 60 37 3e
       -0.020821406 -0.031233724 -0.060098037 0.17907813
000220 85 c5 3a 3c 4c ef 96 bc 8e 60 1c 3d d7 83 44 3e
       0.011399631 -0.018424653 0.03817802 0.19190918
000230 4f 1d ff bd 22 6a 8d bd cb 4b ea bb f5 fa de bc
       -0.12456762 -0.06905009 -0.0071501485 -0.027219275
000240 06 c5 46 be ae 45 2f bb 96 90 da bd 12 fc 4a bd
       -0.19411096 -0.0026744413 -0.10672109 -0.0495568
000250 40 4e 2a 3d 52 41 9a 3d 1f 63 92 bd 12 d2 53 be
       0.04157853 0.0753199 -0.07147812 -0.20685604
000260 d6 ea c5 bd c2 a9 49 3e a7 bd bd 3d 0b 5b e4 bc
       -0.09663932 0.19693664 0.09264689 -0.027875444
000270 82 11 77 3d 6b 75 e8 3d e7 f2 28 be 6c 0d a7 bd
       0.06031943 0.11350521 -0.1649891 -0.08156857
000280 7a 3a 2b 3e 81 a9 05 3d 11 20 bd bc 72 f7 6f be
       0.16721526 0.032632355 -0.02308658 -0.23434237
000290 1c 1e 35 3d 58 2b 74 3e bd 1f 87 bd 31 dc 59 3d
       0.044218168 0.2384466 -0.065978505 0.053188507
0002a0 59 5c 1c bd ec 2d 59 bd 81 f8 85 bd fc e1 89 3d
       -0.038174007 -0.05302231 -0.06541539 0.06732556
0002b0 69 37 cb 3c de 25 b0 bd cd d5 ad bd 16 66 f2 3c
       0.024806695 -0.086009726 -0.08488045 0.029589694
0002c0 d2 4b cd bd a7 57 08 3e 46 02 dd bc 4c 0c 0f 3d
       -0.10024227 0.13314687 -0.026978623 0.034923837
0002d0 dd 75 3d be a5 e1 c7 bd 71 ff 26 3e 37 47 2e 3e
       -0.18501993 -0.09759835 0.1630838 0.17019354
0002e0 fc 5e 90 bb 93 b9 1f be 34 83 8b bd 65 d5 20 be
       -0.0044058543 -0.15598135 -0.068121344 -0.15706404
0002f0 df d6 ce bd 1a 8c 30 bd fd d0 94 3b d4 da 87 bc
       -0.10099577 -0.04310236 0.004541515 -0.016583838
000300 26 70 9e 3d ce 07 b1 bd 25 7b 33 3e b9 e7 70 bd
       0.07736234 -0.08644067 0.17527445 -0.058814738
000310 49 89 74 3d dc 8f 24 3e b3 49 f6 3d 8b 14 a0 3d
       0.059701238 0.16070503 0.12025776 0.07816418
000320 97 3a bf 3d a5 e7 87 3d d2 6e 61 be c2 07 87 bc
       0.09337347 0.066359796 -0.22014931 -0.016483191
000330 95 ce 88 bd bc 7a db bc ce b4 8f 3c e3 45 2b be
       -0.066800274 -0.026791923 0.01754227 -0.16725878
000340 11 aa ac 3d a7 b6 a3 3c 35 b6 0b 3e e9 57 c1 3c
       0.08430875 0.019984556 0.13643725 0.02360149
000350 8b a6 9a bd 6c 1a 20 be 68 74 3d 3d a0 68 20 39
       -0.07551297 -0.15635079 0.04625359 0.00015297765
000360 e3 b5 e9 3d 6f 24 2d 3d 8d 7c 8f 3d c4 fe 70 bd
       0.11411645 0.042271074 0.07006178 -0.058836713
000370 f7 1c 99 3b 62 89 c7 3d 54 9f c7 bc 7e c6 9c bd
       0.0046726423 0.097430006 -0.024367966 -0.07655047
000380 60 6e 17 3d 47 d4 0a be cc ab 3d 3d 67 29 c8 bd
       0.036970496 -0.1355754 0.046306416 -0.09773522
000390 cd ad 41 3c 66 e9 18 3c a9 dc b5 bd 9a 16 07 3e
       0.0118212225 0.00933299 -0.08879978 0.13192216
0003a0 36 f0 17 be 09 0a 08 be 04 e9 c0 3d ca e7 f1 bd
       -0.14837727 -0.13285078 0.09419444 -0.118117884
0003b0 d7 7f cc bd b6 fe 80 3a fc 9e f1 bd 27 d8 6f bd
       -0.09985321 0.0009841535 -0.11797902 -0.05855575
0003c0 b2 e6 8f 3d 8a 33 2b 3e 13 74 6b 3d 4b 5b 79 3e
       0.070264235 0.1671888 0.057483744 0.24351232
0003d0 59 19 af bd ba b5 fc 3d 21 c6 74 bc 82 db 8b 3d
       -0.085497566 0.12339349 -0.014939816 0.06828977
0003e0 28 cc 72 be b7 57 b5 bb 6f 54 ba bc f6 cf b7 bd
       -0.23710692 -0.005534138 -0.02274534 -0.08975212
0003f0 4a 31 ba 3d be 9b bf bc fa 78 26 be ae 05 47 3e
       0.090914324 -0.023389693 -0.16257086 0.1943576

F.linears.2.bias f4 [10]
000000 c9 9c 08 3d 59 52 6a bd 56 98 1e 3d 14 d9 36 bc
       0.033352647 -0.05720744 0.038719498 -0.011160154
000010 48 12 ba bc 76 53 22 bd 60 f0 3b ba b8 c3 86 3d
       -0.022713795 -0.039630376 -0.00071693026 0.06580299
000020 69 fb 96 3d 94 18 f4 bc
       0.073721714 -0.029796876

G.0.linears.0.weight f4 [32, 10]
000000 f7 19 45 bc 0e 08 28 3d b5 7e 06 3e 1a 7d 00 3d
       -0.012030116 0.041023307 0.13134272 0.031369306
000010 52 40 1a bc cb 77 08 3d ad b1 53 3d 66 56 07 3e
       -0.009414749 0.03331737 0.051683117 0.13216552
000020 b9 a2 c2 bd 4e 17 11 be e7 34 ca 3d 41 81 0a bb
       -0.09503693 -0.14169046 0.098733716 -0.002113417
000030 99 a8 32 be ce c5 53 3c 2a 94 2f be 17 40 1e 3c
       -0.17447127 0.012925578 -0.17146364 0.009658835
000040 e8 97 f1 bc 4a f7 88 bd 76 e4 92 bc f2 5b f7 ba
       -0.02949138 -0.06687792 -0.017931204 -0.0018872006
000050 db 07 33 bd c7 ea 0b bd 53 2c 71 bd 98 c3 8d ba
       -0.043708663 -0.034159448 -0.05888016 -0.0010815738
000060 35 7c 94 3c c8 f1 ef 3d 64 f4 a6 bc 9c 1f 9c bd
       0.018125633 0.11716038 -0.020380206 -0.076232165
000070 00 c2 02 3d 53 57 cb 3d 72 51 0a 3e 40 4a 34 3d
       0.031923294 0.09928765 0.13507631 0.044016123
000080 4e 13 b5 3d 12 cd 54 bd 7a fe 3c be a7 48 07 be
       0.08841573 -0.051953383 -0.1845645 -0.13211308
000090 8a 74 f2 bd 76 be b3 ba c2 9b b1 3c 49 5d e1 bc
       -0.11838634 -0.0013713378 0.021680716 -0.027510302
0000a0 d8 fb e6 3d 10 f2 c0 3d 6a 83 8f bd f2 8a 0a 3d
       0.11278504 0.0942117 -0.07007487 0.033823915
0000b0 86 aa bf 3d 48 92 2c 3d c3 89 cc bd 35 7d 48 be
       0.09358697 0.042131692 -0.099872135 -0.19579013
0000c0 f8 8b 77 3d a7 63 04 3d 73 3c 06 3b de a7 6f 3c
       0.06043622 0.0323216 0.0020482808 0.014627425
0000d0 24 0f 0d 3e bb ce a0 bd 42 93 88 3d ae fb e4 bc
       0.13775307 -0.07851931 0.06668712 -0.027952041
0000e0 f1 5f 0c 3a 5c 7c 6a 3d 0a 76 07 be 98 f7 00 be
       0.00053548726 0.057247505 -0.13228622 -0.1259445
0000f0 8d 93 40 3e fe ab 6e 3d c7 40 a9 3d 34 62 1e be
       0.18806286 0.058269493 0.082643084 -0.15467149
000100 10 fa 78 3c 42 42 38 bd 05 68 83 3d 2a 68 02 bd
       0.015196338 -0.044985063 0.064163245 -0.03183762
000110 78 2d 4e bd 66 b1 b4 bd 7c 60 88 bc 59 fe 2a 3e
       -0.05033633 -0.088228986 -0.01664757 0.16698588
000120 23 9a 18 bd 35 2e ca 3b 4b 39 89 3d b9 f1 b9 bd
       -0.03725637 0.006170059 0.06700381 -0.09079308
000130 c7 2f 28 be c4 1e 53 3d 38 0f 34 3c 8f 96 c8 3c
       -0.16424476 0.051543012 0.010989957 0.024485854
000140 c9 4f 22 be 3a 24 dd 3d b5 75 14 3e 66 93 e4 3a
       -0.15850748 0.10797925 0.14498027 0.0017438948
000150 b6 90 d2 3d 2b 08 86 bd c9 40 35 3d a9 bc e0 bc
       0.10281508 -0.06544527 0.044251237 -0.02743371
000160 49 af c5 bc 92 a6 88 3d 74 85 89 3d c7 2e 21 bc
       -0.024131434 0.06672396 0.06714907 -0.009837813
000170 57 0b e6 3b 8c 2d e5 bc f4 32 3c bc 24 cf 4b bd
       0.007020395 -0.02797582 -0.011486758 -0.04975809
000180 d7 06 2c 3e e6 e6 b1 bd a8 c0 ba 3c 4d 5f 10 3e
       0.16799484 -0.086866185 0.022796944 0.14098854
000190 04 a2 f3 bb 32 ed 2b bd 5f 77 16 3e ef db 44 be
       -0.0074350853 -0.041974254 0.14693974 -0.19224523
0001a0 64 59 35 3e 0d 03 59 3d 3f 30 b8 3d 84 88 16 3d
       0.17709881 0.052981425 0.08993577 0.036751285
0001b0 a2 91 a4 3d d0 e5 95 3b d6 cf 1f be bd 0b 98 bd
       0.0803559 0.004574515 -0.15606627 -0.07424114
0001c0 cf 7b 0d 3d 2c 19 ef 3c af f7 50 bb 93 d0 ba 3c
       0.0345419 0.029186808 -0.0031885912 0.022804534
0001d0 3f ae 22 3c c9 70 10 be 16 6b da 3a e3 8d ec 3d
       0.009929239 -0.14105524 0.0016663994 0.115505
0001e0 ec cd ca bd 94 3d 5a bc e5 a1 fe bd de 6a 11 bd
       -0.09902558 -0.013320345 -0.12433223 -0.035502307
0001f0 16 54 fb bd 36 cf a8 3c 9f 25 af bc 2e 21 61 bd
       -0.122718975 0.020606618 -0.021380244 -0.054963283
000200 4e ce 12 3d 97 02 db 3c 76 12 3c 3e 94 b8 14 3d
       0.03584128 0.026734633 0.18366417 0.03630884
000210 d1 d0 82 3d 09 14 89 bc 68 5e 53 bd 28 5a ba 3c
       0.06387485 -0.016733186 -0.051603705 0.022748068
000220 0d e1 d1 bd fe eb 8b bd b7 51 6c be 24 5c ba 3d
       -0.10248003 -0.06832121 -0.23078047 0.09099606
000230 e3 ad 24 bd 07 85 4f 3d e7 f5 16 3d 3d c9 c3 bd
       -0.040204894 0.050663974 0.036855604 -0.095598675
000240 4b 44 f1 3d 34 d6 dc 3c be 8a 34 3d 1e ef 40 3d
       0.11780604 0.026957609 0.044077627 0.04710304
000250 6b b8 1b 3e d2 1c 3c bd 0c 23 e8 3c 31 f8 65 3d
       0.15207069 -0.045925923 0.028337024 0.056144897
000260 9d 91 ae bd cf a1 a4 bd b0 87 1b 3e 94 22 cf 3b
       -0.08523867 -0.08038675 0.1518848 0.0063212607
000270 c6 c9 8d 3d e6 bf 05 3e 0f 7f 7c 3e a8 36 69 3e
       0.06923251 0.13061485 0.24657844 0.22774756
000280 f4 dc 39 3d cd c6 30 bc cd f3 09 3e 05 89 b6 3d
       0.045376733 -0.010789585 0.13471909 0.08912853
000290 0c c7 82 bc 81 24 a1 3d 8c 1b bd 3d 22 f4 39 3e
       -0.015964054 0.07868291 0.0923377 0.18159536
0002a0 97 d0 18 3e 36 dc d7 b9 8d 21 b3 bc 7c 6d 89 3a
       0.1492332 -0.00041172066 -0.021866584 0.0010484899
0002b0 e2 64 51 bc 3a fa f8 bc 7a 11 80 3d 8f 47 dd bc
       -0.0127804 -0.030392755 0.062533334 -0.02701166
0002c0 26 1b 9d 3d ac e0 37 3e 8f d6 8a bd 02 b0 f1 bc
       0.07671194 0.179568 -0.06779205 -0.029502872
0002d0 c2 89 b1 3d c2 b5 e4 3d fd 45 a5 3d b3 d2 f8 3b
       0.08668853 0.1116748 0.0806999 0.0075934767
0002e0 6f 85 5a bc d4 64 91 3d f0 92 61 bd 16 1a 03 3b
       -0.013337477 0.070993096 -0.05507177 0.0020004562
0002f0 b4 e1 ab 3d 5f 15 13 be 06 83 1d bd 29 9c 5c be
       0.08392659 -0.14363621 -0.03845503 -0.21543945
000300 6c 31 8d bd 17 ea f7 3c 0a 5d 7f bd 81 0d b3 bd
       -0.06894192 0.03026299 -0.06234459 -0.0874281
000310 0a cf 1b 3e 28 22 e8 3c 9c a6 08 be fd cc 87 3b
       0.15215698 0.0283366 -0.13344806 0.0041443096
000320 35 fc 14 be 45 85 93 bd 22 e4 0d bd 78 5b 09 3e
       -0.14549334 -0.072031535 -0.034641393 0.13413799
000330 23 69 a2 3d f3 69 99 bd 7a 19 26 be 89 ef 95 bd
       0.079302095 -0.07490911 -0.16220656 -0.07321078
000340 ec 5b 07 bd 46 fe 47 bd 0e 41 16 3d b7 29 cc 3d
       -0.033046648 -0.04882648 0.036683135 0.09968894
000350 3b 8c 93 bd 4a 84 86 bd 04 fe da bc a0 9b 79 be
       -0.07204481 -0.06568201 -0.026732452 -0.24375772
000360 d8 8e ab bd 6d e4 06 be 02 6f 20 3e 92 65 1b bd
       -0.08376855 -0.13173075 0.15667346 -0.037938662
000370 6e f2 20 be 84 55 81 bd 9e ba 79 3d 05 29 13 be
       -0.1571748 -0.06315139 0.060968988 -0.14371116
000380 ef ba 06 be c7 51 13 3e 15 74 a4 bd 0a ef 01 be
       -0.13157247 0.14386664 -0.080299534 -0.12688842
000390 44 00 22 b9 05 ab 36 bd 43 f7 1c 3e 7b fc 94 3e
       -0.00015449623 -0.04459669 0.15328698 0.29098877
0003a0 13 02 08 3d 3e 07 d7 bd da 93 65 be 33 85 16 3b
       0.033205103 -0.10499428 -0.22419682 0.0022967577
0003b0 14 1b d8 3d f3 c6 8b 3d 74 9a 79 3a 8d cd 12 3e
       0.1055204 0.06825056 0.00095216115 0.14336224
0003c0 b9 89 e5 3d a0 f8 20 bd 7b 94 f3 3d 82 72 41 3e
       0.11207909 -0.039299607 0.11893555 0.18891338
0003d0 c8 de ed bd c3 86 8b 3b 4e 8a 42 3c a0 4d ba 3d
       -0.11614758 0.004258008 0.011873795 0.09096837
0003e0 4a 77 f2 3d 96 09 22 be a2 39 32 bb 90 cc c6 bd
       0.11839159 -0.15823969 -0.0027194996 -0.09706986
0003f0 96 ff b6 bd ef 69 d3 3d 0d 48 71 be 1a 9c 11 be
       -0.08935468 0.103229396 -0.23562641 -0.14219704

G.0.linears.0.bias f4 [32]
000000 da 2b 84 bd 82 6c 24 bd c4 90 c4 3d 88 39 26 bc
       -0.064536765 -0.040142544 0.09597924 -0.010145552
000010 7c 72 15 3d cc 85 3a 3d f7 cb 80 bd 21 69 93 3b
       0.036486134 0.045537755 -0.06288903 0.0044986163
000020 c3 42 a7 3d 4c b5 ac bd de 09 1e 3d 20 90 22 bd
       0.08167031 -0.08433017 0.03858363 -0.03968823
000030 5e 6b cb bd 0b c6 b5 bc eb 59 0b 3c e8 fd 31 bd
       -0.09932588 -0.02218916 0.008505325 -0.043455034
000040 3d 16 97 3d 35 87 9b 3d 9a d9 1e bd 89 bf b7 bd
       0.073772885 0.07594148 -0.03878174 -0.08972079
000050 53 aa 50 bd 0d 65 07 3d c7 9f c2 bd 4d 95 98 3d
       -0.050943684 0.033055354 -0.09503131 0.07450352
000060 bf 9f b1 3d 75 36 76 3d 37 8d a0 3c 52 cc 23 bc
       0.08673047 0.060110528 0.019598586 -0.009997444
000070 ed 4b 1b bd 0b cd 9e bd 9f fe b5 bd 4b 63 98 bc
       -0.037914205 -0.077539526 -0.08886456 -0.018602034

G.0.linears.1.weight f4 [32, 32]
000000 ec 43 2e 3b 00 b1 33 3d f0 57 ac bd c7 90 b9 3b
       0.0026590778 0.043869972 -0.0841521 0.0056630108
000010 bc 96 4d 3d 37 ef a6 3e 80 2f 1b be 30 4a 63 bc
       0.05019258 0.3260438 -0.15154839 -0.013872668
000020 f9 17 0f 3d 87 d6 10 be 4a 99 53 bc 5e dc e7 bc
       0.03493497 -0.14144336 -0.012914965 -0.028303321
000030 fe df 0f bd 6e 66 84 3d fc cf 57 be 1e ac a4 3c
       -0.035125725 0.064648494 -0.21075433 0.020101603
000040 54 a2 66 3d c4 bc 36 3d 33 3a c1 3c b2 72 57 bc
       0.056307152 0.044613615 0.023587322 -0.013149904
000050 d3 a8 89 3a 1c d6 0a 3e 53 dd c5 3d ba 1c ed b9
       0.0010502584 0.13558239 0.09661355 -0.00045225566
000060 2b 1b f1 3d f0 f2 1d 3e e6 51 35 3e 81 d9 ae 3d
       0.1177276 0.15424705 0.17707023 0.08537579
000070 cb f4 28 3e 27 0f 89 bd 58 09 e4 3d b3 5c 93 3d
       0.16499631 -0.06692343 0.11134595 0.07195415
000080 2b 09 52 3c b1 ca d0 3d 6f be 66 3e 83 cf a9 3d
       0.012819569 0.1019491 0.22533582 0.08291533
000090 d8 e7 8f 3d 61 b7 d8 bd e8 6b 26 be 09 65 03 3e
       0.070266426 -0.10581852 -0.162521 0.1283151
0000a0 46 e4 48 bd dc 99 04 3d 69 3a 81 3d 99 60 e8 3d
       -0.049045824 0.032373294 0.06309969 0.113465495
0000b0 d3 c4 d9 bc 99 88 b9 bd 0e 5d 19 3d 06 da e0 3c
       -0.02658311 -0.09059257 0.03744226 0.027447712
0000c0 38 c3 b3 bd ca 4d 4a 3d cf 37 0a be fd 34 1e be
       -0.087774694 0.04939059 -0.13497852 -0.15449901
0000d0 ed d0 62 bd c0 b5 fa 3d 63 22 2a be 22 d3 02 be
       -0.05537503 0.12241697 -0.1661468 -0.12775853
0000e0 31 8b 99 3c 65 62 86 3d bc bb 1d 3e 81 7e 88 3c
       0.01874313 0.06561736 0.15403646 0.016661884
0000f0 80 90 51 bd 32 ad 23 3e 78 22 cf bc e4 ff 8b 3c
       -0.051163197 0.15984038 -0.02528499 0.017089792
000100 0e 43 52 be 6f bb 35 3d 50 89 51 bc ee 3c e3 3c
       -0.20533392 0.044368204 -0.0127890855 0.027739014
000110 89 04 47 bd 15 cb ac bd 3d 29 4f 3d d8 4c 05 3e
       -0.04858831 -0.08437172 0.050576437 0.13017595
000120 77 55 7d 3c 91 02 0a 3d 64 29 9f 3a 11 e1 68 3c
       0.015462271 0.033693854 0.0012143073 0.014213816
000130 88 33 99 3d aa 3c 46 be 2b 24 f6 3c 48 66 f5 3d
       0.07480532 -0.19359079 0.030046543 0.11982399
000140 19 3f 2e be 6f 55 05 be 05 86 4e bd 7a 8c 5f be
       -0.17016257 -0.13020872 -0.05042078 -0.21830931
000150 40 fb 23 3b f7 14 ba 3d 58 80 6f 3d 93 6d 88 3d
       0.0025021583 0.0908603 0.058472008 0.066615246
000160 d0 26 f9 ba 5b 7f dc bb e2 a2 24 bc ba 2a 57 bc
       -0.0019008759 -0.006729049 -0.0100486 -0.013132745
000170 3f bc fe 3d f7 35 be bc e1 df a7 3c 7b ce 86 3d
       0.12438249 -0.023219092 0.020492496 0.06582352
000180 a7 0c 21 3e a4 cf 13 bd d1 08 b8 3b 40 ec 4d 3c
       0.15727483 -0.036086693 0.0056162854 0.012568533
000190 84 81 94 3d b7 c9 c2 bb 6e 2a 08 be 80 c6 6f 3d
       0.07251266 -0.0059444564 -0.13297436 0.058538914
0001a0 ab 66 00 3d 45 b7 e3 3c 1a 0d 00 3c a3 94 24 be
       0.03134791 0.02779735 0.007815624 -0.16072325
0001b0 e2 04 0b be 4d c8 9a 3d e8 2e b9 3d 3e 22 0b bd
       -0.13576081 0.075577356 0.0904215 -0.033968203
0001c0 00 72 85 bd 1d fe 16 be b9 cb 3c 3d 4f 08 f5 3c
       -0.065158844 -0.14745374 0.046092723 0.029911188
0001d0 8f 83 6c bb 3e 7e 43 be a4 ff b4 bc 70 a0 7d bb
       -0.0036089157 -0.19091126 -0.022094555 -0.0038700365
0001e0 33 ba 24 be 84 52 76 3e 8d d9 b1 3d c3 06 7a 3d
       -0.16086654 0.24054915 0.08684073 0.061041605
0001f0 06 56 52 bd 62 ff 7d bd 86 21 88 bd 04 3b 55 be
       -0.05135157 -0.06201113 -0.06647019 -0.20823294
000200 c0 26 9c b7 d6 b2 bb 3d 30 6f 86 bc 4c d9 0e be
       -1.8614694e-05 0.091649696 -0.01641044 -0.1395008
000210 71 d3 1d be 0e 9d 5c bd 14 92 d5 3d a5 d4 2d bd
       -0.1541269 -0.053860717 0.10428253 -0.04243912
000220 a8 f4 11 3e da 75 7d bc 86 48 81 bd f9 50 9d 3d
       0.14253485 -0.0154699925 -0.06312661 0.0768146
000230 46 18 91 bd 53 fa 9c 3d ad d6 36 be 3c 25 35 3d
       -0.07084708 0.07664933 -0.1785533 0.044224963
000240 3e 65 86 3d 13 ec 91 be 9c df e5 3d 97 49 99 3d
       0.06562279 -0.28500423 0.11224291 0.07484739
000250 d4 72 1b bc da 5c e7 3d 9d 57 d1 3c ac 81 06 be
       -0.009487826 0.11297007 0.025554473 -0.13135403
000260 60 71 2d 3e 45 e1 6b 3d 11 68 e8 3c f3 4e 90 3d
       0.1693778 0.05758788 0.028369935 0.07046308
000270 a1 ee 37 3e 6c cc 35 be 2c ed 10 3e 29 07 bc 3d
       0.17962123 -0.17753762 0.14152974 0.09181053
000280 8e 71 ae 3d aa cd cf ba cf d3 ee 3d c9 50 39 3e
       0.085177526 -0.0015854139 0.11661493 0.18097223
000290 92 82 4a bb 56 87 c0 3d fd c4 ac bd 8b d8 3c be
       -0.003090058 0.09400813 -0.0843601 -0.1844198
0002a0 3a b4 42 3e d2 2d 66 3c 8b 29 8c 3d 27 67 55 3a
       0.19014063 0.01404901 0.06843861 0.0008140676
0002b0 55 59 b7 bd 39 20 17 bc 54 31 a3 3d 68 7e 25 3e
       -0.089525856 -0.009223991 0.07968393 0.16161501
0002c0 bb 42 af 3d 6d 8a 22 3c 94 60 d2 3d 8d 8f 29 3d
       0.0855765 0.009920699 0.10272327 0.041396666
0002d0 e2 4d d5 3d cf f1 9a 3d 04 f2 1a bd e8 a3 fb 3d
       0.104152456 0.075656526 -0.03782846 0.12287122
0002e0 23 73 0b 3d 42 02 01 bc d3 c9 d6 3d c8 4b 46 be
       0.03404535 -0.007874073 0.10487714 -0.19364846
0002f0 72 d0 06 bd eb 82 ad bb 16 2d c5 bd d5 fc 9f 3d
       -0.032913633 -0.0052951477 -0.0962774 0.07811896
000300 46 7d bc 3b cd cb 81 bc 8e 73 17 be df aa 86 bd
       0.0057522384 -0.01584425 -0.14790174 -0.0657556
000310 d9 8e 30 3e ba 2e 97 3c 06 c7 8f 3d 58 d7 7b 3b
       0.17241992 0.018454898 0.070203826 0.0038427915
000320 9f 25 7f 3d 00 3d c9 bd 3d d2 41 bd 0d e5 83 be
       0.062291738 -0.09826088 -0.04731964 -0.2576069
000330 f7 49 e5 bb 65 e3 dc bb ae bc 25 3e 5b 35 b4 bd
       -0.0069973427 -0.0067409747 0.16185257 -0.08799239
000340 36 99 07 bd be 3c 2f be 2c f0 fd 3c dd 90 be bd
       -0.033105098 -0.17113015 0.030998312 -0.09304974
000350 12 cd c6 bc 89 fe 17 be 20 f0 17 3e e5 f8 a7 3d
       -0.024267707 -0.14843191 0.14837694 0.0820177
000360 64 03 98 bc 37 d6 4c 3e 8d c3 95 3c 0e ab 95 bc
       -0.018556304 0.20003591 0.018281722 -0.018270042
000370 a8 ed 76 bd ca f6 f3 3d c8 19 d9 bc 10 58 01 3d
       -0.06028524 0.11912306 -0.026501551 0.031578124
000380 14 b6 4c 3d cb 81 2e bc 7c d5 a2 bd c3 e4 ad 3d
       0.04997833 -0.010651062 -0.07950875 0.084908985
000390 e7 48 f9 3d 21 79 d6 bc d9 ce 2f bd 95 2a 26 3d
       0.12172108 -0.026180806 -0.042921875 0.040567953
0003a0 ff 96 bd bb e5 71 a4 bd 3b 44 66 bd dc 6f d6 3c
       -0.0057858224 -0.08029536 -0.056217413 0.026176386
0003b0 91 11 19 be 2c 71 a4 3d 01 b0 27 3d f7 b0 45 3e
       -0.14948107 0.08029398 0.040939335 0.19305788
0003c0 46 ce d2 bd ec 2e 6d 3d 48 79 d4 3c a2 e1 fd bd
       -0.1029325 0.057906076 0.025936738 -0.12396552
0003d0 33 18 36 be 87 4a 64 be b2 38 b4 3c 17 04 85 bd
       -0.17782669 -0.22294055 0.02199969 -0.06494921
0003e0 8e cb 24 3d 0d 00 14 3e 2b 10 95 3d 96 96 bc bd
       0.040233187 0.14453144 0.072784744 -0.092084095
0003f0 21 b5 76 3d cf 58 40 bc 01 c8 af bd 21 ec 19 be
       0.06023133 -0.011739924 -0.085830696 -0.15031482

G.0.linears.1.bias f4 [32]
000000 52 d0 cd bb 6d d0 8b 3d da 6d 0b 3d 75 62 3a 3c
       -0.006280937 0.068268634 0.03404031 0.011376013
000010 da 0b c6 bd 64 4f 3e 3c 9c da 98 bd a8 9e 36 3d
       -0.09670229 0.011615608 -0.074635714 0.0445849
000020 ae a3 95 3d 9c 1e 4e bd ed a9 74 bd 22 e0 f7 3c
       0.0730661 -0.05032216 -0.059732366 0.030258242
000030 b4 b9 8f bc 1a 11 8a 3d 78 3f b6 bd 71 4f b3 3d
       -0.017544605 0.06741543 -0.088988245 0.087553866
000040 1d ef a8 bd 70 53 45 bd 00 74 b5 bd 1e 4e 9b 3d
       -0.08248732 -0.048175275 -0.08860016 0.07583259
000050 74 39 8e 3d 4f 32 3b 3d ca ec 14 bd c0 a4 22 bd
       0.06944552 0.045702275 -0.036358632 -0.0397079
000060 38 47 b8 bc 05 77 75 3d 15 3c 7e 3c 09 23 bc 3d
       -0.022494897 0.05992796 0.015517254 0.0918637
000070 93 17 62 3d 92 52 27 bc 43 09 87 3c e9 24 8a bd
       0.055198263 -0.010212557 0.016483909 -0.06745321

G.0.linears.2.weight f4 [10, 32]
000000 b6 00 e4 3c 7e ad cd 3c 45 f7 ec 3d 5d e8 74 3d
       0.02783237 0.025107142 0.115706004 0.05979191
000010 ea 3b a8 bc 45 a1 b8 3d dd f2 6d 3d 42 40 b2 3c
       -0.020536382 0.09015135 0.05809294 0.021759156
000020 94 ba 7d 3e af d2 49 3d ba 31 34 3d fe ac 84 3b
       0.24778205 0.04927319 0.043992735 0.0040489426
000030 4c f9 dc 3d 12 7d 3d bc 57 d1 0e be 32 25 bf bd
       0.10789737 -0.011565464 -0.13947044 -0.09333266
000040 5c 1f 1a be 2b bc 07 be e0 5c 45 be c1 df 7f 3d
       -0.15051025 -0.13255374 -0.1927371 0.062469248
000050 cc 4e 0d 3d fe 9d fa bd b3 df 8b bd 72 50 8c 3e
       0.034498975 -0.12237166 -0.068297766 0.27405125
000060 47 97 93 bd 94 03 10 bc f9 5c b6 3c 07 9f af 3d
       -0.07206588 -0.008789916 0.02226113 0.08575254
000070 8c fb 2f 3e 9d 27 ba 3a 53 c0 b2 bc a5 d1 e4 bd
       0.17185801 0.001420248 -0.021820223 -0.11172799
000080 19 29 45 be 1a de 59 3d e9 22 a0 bd e5 1a 09 bd
       -0.19253959 0.05319033 -0.078191586 -0.033472914
000090 83 b2 3f 3d 20 90 3b 3d 6a ff 73 3e d6 36 9c bd
       0.0468011 0.045791745 0.23827901 -0.076276466
0000a0 33 a2 30 3e 35 19 15 be d8 1e d0 3c 9d ff 9f bd
       0.17249374 -0.14560397 0.025405332 -0.07812426
0000b0 20 3f 2d be 8d e2 98 3c 2c ce 12 bc f4 30 4b 3e
       -0.16918612 0.018662715 -0.008960288 0.19842893
0000c0 f9 7b e0 bc 7d af 13 be 35 6d 28 3e f9 ad 7f 3d
       -0.027402865 -0.14422412 0.16447909 0.062421773
0000d0 7a f7 97 bd b4 13 04 3d aa 26 7c bd 5a 03 18 bc
       -0.07420249 0.032245353 -0.06156031 -0.009278143
0000e0 f6 86 49 3d 3f 0e 4b be df 1f b1 bd 1a 8d b7 3c
       0.049200974 -0.19829653 -0.08648657 0.02240615
0000f0 3b 5d 38 3e 42 51 67 bc ee 40 df 3c 32 2c f9 bd
       0.18004315 -0.0141184945 0.02725264 -0.12166633
000100 76 80 a4 bd 82 e4 54 be 84 f4 ba bd 6f c6 7b bd
       -0.080323145 -0.20790294 -0.09128669 -0.061468538
000110 73 05 94 3d e0 89 46 3d 3c 88 1f be da d7 2d 3d
       0.07227602 0.04847133 -0.15579313 0.04244218
000120 5d f3 c6 bc 6f 33 ce bc 67 e9 0b 3d 65 28 af bd
       -0.024285967 -0.02517101 0.034158137 -0.085526265
000130 1b b4 56 be c8 07 64 3d 10 f0 36 bc 7a 39 de bd
       -0.20967142 0.055671483 -0.011165634 -0.108508065
000140 61 cf 9f 3c c6 8f 11 3d 07 d7 a8 3d d2 13 b5 3d
       0.019508066 0.035537504 0.08244138 0.08841671
000150 0c c0 e5 3c 87 75 b1 3d 02 8b ff bd b9 ba 12 3c
       0.028045677 0.08664995 -0.124776855 0.008955651
000160 1a 91 d8 3b b1 0f f7 bd 6a 42 8e bd 4c af a7 3d
       0.0066090943 -0.1206354 -0.06946261 0.08187732
000170 1b 17 48 bd 86 68 01 be a7 64 04 3d 68 ae 3e 3e
       -0.04885016 -0.12637529 0.032322552 0.18621218
000180 81 a3 b0 3c eb cf a9 3d 91 1d 0d 3d 4c d0 61 bc
       0.02156234 0.0829161 0.034452025 -0.013782572
000190 df 6d c8 3d cf f9 54 be 22 f1 42 3d 82 c0 8f 3d
       0.09786581 -0.2079842 0.047593243 0.0701914
0001a0 84 32 66 bb c4 7b bf bd 5d ce 57 bd 4d ea 90 bd
       -0.0035125325 -0.09349778 -0.052687038 -0.07075939
0001b0 dc 12 87 bc 39 eb 72 bd 34 00 8f 3d 82 62 4b 3c
       -0.016488485 -0.059306357 0.069824606 0.012413623
0001c0 73 7e f5 3d 27 09 a6 3c 23 f0 82 3d af 69 32 3e
       0.11987009 0.020268036 0.06393459 0.17423128
0001d0 4b 77 5c 3d 34 bf 94 3c 65 cf 2b bc 45 ed 1c bc
       0.053824704 0.018157579 -0.010486458 -0.009578054
0001e0 29 46 9c bd 92 5d 9b bc 08 bf 1f 3c 5d 3e 0c 3e
       -0.076305695 -0.018965516 0.009750135 0.13695665
0001f0 4d fd 54 3e 3c 0e 5e 3e d7 17 f0 bc 8a 5d 01 3d
       0.20799752 0.21685117 -0.029308243 0.031583346
000200 a7 71 8a 3d 65 d4 36 3d 95 67 7f 3d 70 0e d5 3d
       0.06759959 0.04463615 0.062354643 0.10403144
000210 4d 17 36 bd d3 8a de bd 95 d5 20 3d 65 8d bf 3c
       -0.044455815 -0.10866322 0.039266188 0.023382852
000220 91 a1 89 3d 6c 0f ac bd 4b c2 46 bc 8f 12 24 3e
       0.067202695 -0.08401379 -0.012131284 0.16022705
000230 a2 69 a9 3c 0a 33 c3 3c bb 1d 70 bd 5e 67 ef bb
       0.020680252 0.023828048 -0.058622103 -0.0073060235
000240 2e a5 d3 3d 10 fa be 3c 88 1a 08 3a 72 69 91 3d
       0.1033424 0.023312598 0.0005191942 0.0710019
000250 36 f3 0c bd c5 bb 10 bd ce cb 96 3d 83 cb 3f 3d
       -0.03441163 -0.03533532 0.073630914 0.046824943
000260 70 40 03 3e 9b 77 6d bc d3 e1 82 3d 36 4e 83 bd
       0.1281755 -0.014493848 0.06390729 -0.06411402
000270 c1 22 4d 3d 99 07 22 3b c9 fb 45 3d 4e 71 6e bd
       0.050081972 0.0024723767 0.048335824 -0.058213525
000280 87 95 40 3d b3 08 14 bd 72 da 1c 3c 6f 12 ba bd
       0.0470176 -0.03614111 0.009573566 -0.09085547
000290 50 62 1a be a8 c8 90 bc 3e fe 56 bd 35 7d cd 3d
       -0.15076566 -0.017673805 -0.052488558 0.10033647
0002a0 8e 1d ba 3d 48 b4 06 3c a9 74 8b bd 0f 19 fa 3d
       0.09087668 0.008221693 -0.068093605 0.12211811
0002b0 4d 65 b1 bd a2 24 19 3d 93 09 a2 3c 4b 94 c3 3c
       -0.086619 0.03738845 0.019779956 0.023874423
0002c0 08 72 13 be 75 6c f0 bd 69 d5 e4 bd 5e ef 23 bc
       -0.14398968 -0.117394365 -0.11173517 -0.0100058
0002d0 a3 a5 1c bd 67 25 9a 3c 7f 0f 69 bd f8 1d 0e 3e
       -0.0382439 0.018816663 -0.056899544 0.1387862
0002e0 ab 46 eb bd 27 4e 1f 3d 06 24 a2 3d 46 1c 66 3c
       -0.11488088 0.03889289 0.07917027 0.014044827
0002f0 ab f4 21 be 28 7b de bd a1 24 d0 3b d2 3d 73 bd
       -0.1581599 -0.10863334 0.0063520228 -0.05938513
000300 87 a8 01 be ae 81 29 bd a8 18 cc 3d c2 0a 08 3e
       -0.12661944 -0.041383438 0.0996564 0.13285354
000310 09 ff 7d bd 80 19 ce 3c e8 1f fe bc d1 5d 8d bd
       -0.0620108 0.025158644 -0.031021073 -0.0690266
000320 fa 76 a4 bc ed e1 69 bc 75 df 30 bd 1f f6 18 be
       -0.020076264 -0.014275056 -0.043181855 -0.14937638
000330 3f f3 18 3d 79 d0 00 3e 83 9b 43 be 0b 00 1d bc
       0.037341353 0.12579526 -0.19102292 -0.00958253
000340 39 02 04 3d e4 65 08 3e ea e4 39 3c 9a 63 32 be
       0.032228682 0.13320118 0.011346081 -0.17420807
000350 06 57 dc 3d f2 31 dd 3b 69 91 4b be a5 4b 0a 3e
       0.10758786 0.0067503387 -0.19879688 0.13505419
000360 db 0b 2b 3e 19 7e 16 be 58 a9 85 be 3a 30 3d 3e
       0.16703741 -0.1469654 -0.26105762 0.18475428
000370 e4 b6 b1 bb 23 75 6e 3d 04 e8 b8 3c 6f c1 0b be
       -0.0054234136 0.05821718 0.022571571 -0.13648008
000380 be b8 8c bd f7 26 76 bd 0e 84 7a 3d 76 2f dc bd
       -0.06871174 -0.060095754 0.061161093 -0.1075124
000390 1c ab 04 be c3 91 04 be de 06 ce 3d 6e e4 0d 3e
       -0.12955898 -0.12946229 0.100599036 0.1385667
0003a0 84 cb 8b 3d 4e 01 dc bd e4 cd 0f 3e ca d7 31 3e
       0.06825927 -0.10742436 0.14043385 0.17367473
0003b0 d0 82 90 bc 5e 2d c9 3b 55 1d 90 bd d0 40 0c 3e
       -0.017640501 0.0061394414 -0.07036845 0.13696599
0003c0 9a c3 77 3d 6d 05 2d bc 75 75 87 3d e8 f3 08 be
       0.060489275 -0.010560376 0.066142 -0.13374293
0003d0 f8 8c cf bd 86 d2 c1 3d fb a0 20 3e e1 fd 16 3e
       -0.101343095 0.09463982 0.15686409 0.14745285
0003e0 58 eb 53 bd 73 fb a7 bd 6f 40 85 3d ef ec 11 bd
       -0.051738113 -0.08202257 0.0650643 -0.035626348
0003f0 fe f3 c3 3d 69 b6 62 bd 0a 8c ec 3d 2c 04 e8 bc
       0.09568022 -0.05534974 0.11550148 -0.028322302

G.0.linears.2.bias f4 [10]
000000 a3 cf 74 bd aa 6c 60 bd 35 90 44 3d 86 ab 34 bd
       -0.05976833 -0.05479113 0.04798909 -0.04410889
000010 ba 72 96 3d ca 4d 44 bd 2e 94 1d bd 6a 0b 42 3d
       0.07346101 -0.047925748 -0.038471393 0.047374167
000020 61 d5 14 bd b3 f1 cd 3d
       -0.036336306 0.10055866
