para_save/00015params.pth (torch, 118145 bytes, 76 tensors)

F.linears.0.weight f4 [32, 20]
0	0xbd8d6ee4	-0.06905916
1	0xbdb7e4e7	-0.089792065
2	0xbe1d251b	-0.15346186
3	0x3c50198a	0.0127014015
4	0xbda113bc	-0.07865092
5	0xbd6ee119	-0.05832014
6	0xbdfefa49	-0.12450082
7	0x3dd5aa9c	0.10432932
8	0xbdbbadfe	-0.09164046
9	0xbd7335be	-0.059377424
10	0xbcbfd537	-0.023417098
11	0xbccb750d	-0.024836088
12	0x3db11892	0.086472645
13	0xbe16df9c	-0.14733738
14	0x3c6d969c	0.01450124
15	0x3ae7af3d	0.0017676126
16	0x3d6e894c	0.058236405
17	0x3e027608	0.12740338
18	0xbd8cca08	-0.06874472
19	0x3df46e2e	0.119350776
20	0x3e31852d	0.17335959
21	0xbdd367e6	-0.103225514
22	0xbd03f05b	-0.032211643
23	0xbd7b7d47	-0.06139877
24	0xbd3ffbec	-0.04687111
25	0xbe10aa2e	-0.14127418
26	0x3c4333db	0.011914219
27	0x3d95b5f5	0.07310096
28	0x3ce2f921	0.027706685
29	0xbcb359e3	-0.021893447
30	0x3e240646	0.16018018
31	0xbd6c7d28	-0.057736546
32	0xbe37a57f	-0.17934225
33	0xbc1dcdf7	-0.009631625
34	0x3d77ecc4	0.06052853
35	0x3d86e1f0	0.06586063
36	0x3d3d73af	0.046252903
37	0x3cfc02d5	0.03076307
38	0xbd8b5455	-0.068031944
39	0x3c96b2ee	0.018395867
40	0xbd99b70c	-0.075056165
41	0x3dca0082	0.09863378
42	0xbdf12f02	-0.11776544
43	0xbe2abb5f	-0.16673039
44	0xbe00d7a7	-0.12582265
45	0xbdf35589	-0.11881549
46	0x3df9bc68	0.12194139
47	0x3d4bb29f	0.049730893
48	0x3dcbf706	0.09959225
49	0x3d1fb227	0.03898826
50	0x3e03a9f8	0.12857807
51	0xbdb90600	-0.090343475
52	0xbd578616	-0.05261811
53	0xbe496815	-0.1966861
54	0x3dafa6ec	0.0857676
55	0x3d579a45	0.052637357
56	0x3dad0bb4	0.08449498
57	0xbe4215e5	-0.18953665
58	0xbdcb75a5	-0.09934548
59	0x3d27f895	0.04100855
60	0x3ce5fec4	0.028075583
61	0xbdf4d833	-0.11955299
62	0x3cb94b9a	0.022619057
63	0xbdbbfa99	-0.09178657
64	0x3e0c6344	0.13709742
65	0xbdc9de4b	-0.09856852
66	0x3ccf3c20	0.025297225
67	0xbcc46e6a	-0.02397843
68	0x3bb6c4a0	0.0055776387
69	0x3e0a52b1	0.13508107
70	0xbcb0c191	-0.021576675
71	0xbe1b6710	-0.15176034
72	0xbd897ace	-0.06712876
73	0x3baf16b2	0.0053432817
74	0x3cd2ae8e	0.025718
75	0x3dc2bb8f	0.0950843
76	0xba088ec2	-0.0005209261
77	0xbba1ee23	-0.004941718
78	0xbe258490	-0.1616385
79	0x3d3cb4ff	0.04607105
80	0x3d905f0a	0.07049377
81	0xbc490674	-0.012269605
82	0xbdf668ba	-0.12031694
83	0x3d95f8d0	0.07322848
84	0x3d3122b6	0.043245994
85	0xbd1add12	-0.037808485
86	0x3d369062	0.044571288
87	0xbd80ce06	-0.06289296
88	0x3d44369c	0.047903642
89	0x3e0cf1d9	0.13764133
90	0xbccaecd5	-0.024771133
91	0xbdb884e3	-0.09009721
92	0xbe3d4d33	-0.1848648
93	0xbddb84e8	-0.10718709
94	0x3e263308	0.16230404
95	0xbccef74a	-0.025264401
96	0x3e504e21	0.20342304
97	0xbcddf213	-0.027092969
98	0xbdf7d6a6	-0.12101488
99	0x3c067507	0.008206612
100	0xbd260e2a	-0.04054085
101	0x3e449f2e	0.19201347
102	0xbe30553d	-0.17220016
103	0xbdb058da	-0.08610697
104	0x3db6cf64	0.08926275
105	0xbd0f1682	-0.034933574
106	0x3d8aeb61	0.06783176
107	0x3e42ca1e	0.19022414
108	0x3e0a097f	0.13480185
109	0xbc5e7f6c	-0.013580184
110	0x3ca83466	0.020532798
111	0xbd131a98	-0.035914034
112	0xbccbe879	-0.024891125
113	0xbced2306	-0.028947365
114	0xbd113240	-0.035448313
115	0x3d597f75	0.053100068
116	0x3e52e633	0.20595627
117	0x3c8d8969	0.017277436
118	0x3d4fd1da	0.05073724
119	0xbd17767b	-0.036978226
120	0x3def2b95	0.116782345
121	0x3a29e558	0.0006481013
122	0xbdb07125	-0.086153306
123	0xbd6599c9	-0.056054864
124	0x3d2a4632	0.04157085
125	0x3b7bdb8e	0.0038430425
126	0x3e5ff9a4	0.21872574
127	0x3d62625a	0.055269577
128	0x3d62aa3e	0.055338137
129	0x3df93b28	0.12169486
130	0x3deddf8e	0.11614905
131	0x3dc9cd7a	0.09853645
132	0xbcca67f3	-0.02470777
133	0xbdf62355	-0.12018458
134	0x3e4d86c7	0.20070945
135	0x3e036c69	0.12834324
136	0xbe5962a6	-0.21229038
137	0xbd79e06d	-0.061005045
138	0x3c99d442	0.01877797
139	0x3d0b7323	0.03404535
140	0x3db9bae3	0.09068849
141	0xbd4e8d11	-0.0504275
142	0x3e113d32	0.141835
143	0x3c011b42	0.007880034
144	0xbbbef89f	-0.005827978
145	0x3cb8fd93	0.022581851
146	0xbd181eca	-0.037138738
147	0x3b795340	0.0038044006
148	0x3dacb410	0.08432782
149	0xbe164cf8	-0.14677799
150	0xbdc63445	-0.09677938
151	0x3dc6a56b	0.0969952
152	0x39eb93bf	0.00044932772
153	0xbccdf462	-0.025140945
154	0x3d6f71a6	0.058457993
155	0x3c1fc536	0.009751609
156	0x3b12e3bb	0.002241357
157	0x3caa352d	0.02077731
158	0xbe35a0f3	-0.17737179
159	0x3db4da88	0.08830744
160	0xbd81af0f	-0.06332218
161	0x3dd2bda1	0.10290075
162	0x3d94b0d5	0.072602905
163	0xbc6aa25c	-0.014320936
164	0xbdbb3021	-0.09140039
165	0x3d72052f	0.059086975
166	0xbe007b4c	-0.12547034
167	0xbca7b950	-0.020474106
168	0xbdb5e8ab	-0.088822685
169	0x3d5c1690	0.053732455
170	0x3e085b27	0.13316022
171	0xbdfb6dd5	-0.12276808
172	0xbafc8914	-0.0019266927
173	0x3c5bbda9	0.013411918
174	0xbd824b73	-0.06362047
175	0x3d854232	0.065067664
176	0x3d81f6f4	0.06345931
177	0xbdd3a414	-0.1033403
178	0xbb8e9492	-0.004351207
179	0x3e0bffa8	0.13671744
180	0x3d36f5c6	0.04466798
181	0xbd5512d3	-0.052019905
182	0x3db31433	0.08744087
183	0xbd5a58bd	-0.053307284
184	0xbc80aff4	-0.015708901
185	0xbc8d8330	-0.01727447
186	0xbdadf30d	-0.08493624
187	0x3e78c375	0.24293311
188	0x3e047045	0.12933452
189	0xbdb03ebb	-0.08605715
190	0xbb829f58	-0.0039862804
191	0x3c96f002	0.018424992
192	0x3d9cb2b7	0.07651275
193	0xbd8b6f40	-0.06808329
194	0x3d4f9d72	0.05068726
195	0xbd715cda	-0.05892644
196	0xbdcd9d07	-0.10039716
197	0xbe052275	-0.13001426
198	0xbe055a23	-0.13022666
199	0xbd1a53c1	-0.03767753
200	0x3d0631ca	0.032762326
201	0xbcbcdd05	-0.02305461
202	0x3bb6c73f	0.005577951
203	0xbc3905e1	-0.011292906
204	0xbdd5c76d	-0.10438428
205	0x3ccfee30	0.025382131
206	0x3daaea12	0.083454266
207	0xbda960dd	-0.08270428
208	0xbbbbd676	-0.005732353
209	0x3cfb3093	0.03066281
210	0xbda9a9e4	-0.08284357
211	0x3c0893c6	0.008336013
212	0xbe038878	-0.12845027
213	0x3cade279	0.021226155
214	0x3e2aaa4e	0.16666529
215	0x3d4574a1	0.04820693
216	0x3e07e9ee	0.13272831
217	0xbe2547a4	-0.1614061
218	0x3d853e8f	0.06506073
219	0x3d53c65e	0.05170285
220	0xbd9d2372	-0.07672776
221	0xbce29050	-0.027656704
222	0xbd291a6c	-0.041284963
223	0xbc718cf4	-0.0147430785
224	0xbd7313b5	-0.059344966
225	0x3d87d8fc	0.06633183
226	0x3dbe68a7	0.092973046
227	0xbd9572f0	-0.07297313
228	0xbced1058	-0.028938457
229	0xbe4f6782	-0.20254329
230	0x3c0fb180	0.008770347
231	0xbe75b0db	-0.23993246
232	0x3e15a717	0.14614521
233	0xbd00ecb2	-0.03147573
234	0xbd1b2b8e	-0.037883334
235	0x3ded378c	0.1158286
236	0x3c551e92	0.013007777
237	0xbd224e92	-0.03962571
238	0xbe6f57ee	-0.23373386
239	0x3e2addb1	0.16686131
240	0x3dfccf26	0.12344198
241	0xbd42d293	-0.0475641
242	0xbc85850c	-0.016298793
243	0xbd84ed58	-0.06490582
244	0x3cc1e359	0.023667978
245	0x3e2749cc	0.16336745
246	0x3c85c717	0.016330285
247	0x3d93351f	0.071878664
248	0x3ae9b684	0.0017830883
249	0xbde5d969	-0.11223108
250	0x3d072a23	0.03299917
251	0xbe06dfc8	-0.13171303
252	0xbd5baee7	-0.053633597
253	0xbe2ede57	-0.17077003
254	0x3c45182d	0.01202969
255	0xbb511c64	-0.0031907791

F.linears.0.bias f4 [32]
0	0xbd067add	-0.032832015
1	0x3c65991c	0.014013555
2	0x3d4a921c	0.049455747
3	0xbdb2449a	-0.08704491
4	0xbd72a8dc	-0.059243068
5	0xbd3caa0f	-0.046060618
6	0xbdaf86a0	-0.085705996
7	0x3d11f7b0	0.035636604
8	0x3cae72ab	0.021294912
9	0x3d961bb2	0.07329501
10	0xbd659334	-0.056048587
11	0xbd0ee4d7	-0.034886207
12	0xbcd29063	-0.025703615
13	0xbc0ec650	-0.008714274
14	0xbc0bdc9e	-0.008536486
15	0x3c9dd3f2	0.019266102
16	0x3c19f5c0	0.00939697
17	0x3da6ead3	0.08150258
18	0x3d98b6e0	0.07456756
19	0x3cb5c35c	0.022187881
20	0xbde3d318	-0.11124247
21	0xbc1c8e64	-0.009555433
22	0xbdc8eefb	-0.09811207
23	0xbd9085dd	-0.070567824
24	0xbd523943	-0.05132414
25	0xbcb5c1e3	-0.022187179
26	0xbb756153	-0.0037442043
27	0xbd4e5b79	-0.050380204
28	0x38f9cd3d	0.00011911474
29	0x3b50f9b9	0.0031887128
30	0xbbb84c6a	-0.0056243436
31	0xbc174044	-0.009231631

F.linears.1.weight f4 [32, 32]
0	0xbd0b06bd	-0.033941973
1	0x3dd91126	0.10598974
2	0x3e939564	0.28824914
3	0xbdc789ff	-0.097431175
4	0xbdd92cab	-0.10604223
5	0x3d0543a4	0.03253521
6	0x3c68668c	0.014184605
7	0xbdbdaf6b	-0.09261974
8	0xbd09c1ec	-0.033632204
9	0x3ba3f5fb	0.0050036884
10	0x3d1338a8	0.035942703
11	0x3b19ed31	0.0023487324
12	0xbd9a55f8	-0.075359285
13	0xbdd53192	-0.104098454
14	0x3e2cd4b8	0.16878021
15	0x3ddcdfcf	0.107848756
16	0xbd459581	-0.04823828
17	0xbd124c26	-0.035717152
18	0x3ccdbd91	0.025114806
19	0x3deb87b7	0.11500495
20	0xbd5eaa46	-0.054361604
21	0x3cfce692	0.030871663
22	0x3e6e40ca	0.23266903
23	0xbcec7f36	-0.028869253
24	0x3d0f7d12	0.035031386
25	0x3de6cc88	0.1126948
26	0xbd33b30c	-0.043871924
27	0xbdbff861	-0.093735464
28	0xbe2aeabb	-0.16691105
29	0x3d4641ca	0.048402585
30	0x3c907002	0.017631534
31	0x3d6ff661	0.058584575
32	0x3dd666d1	0.104688294
33	0x3d197bce	0.037471585
34	0x3e8ad14c	0.27112806
35	0x3d3ea177	0.046540704
36	0xbce86690	-0.028369218
37	0x3dda00c5	0.10644678
38	0x3ce7432d	0.028230274
39	0xbd94a496	-0.07257955
40	0x3d0d4610	0.034490645
41	0x3ca16acd	0.019704247
42	0x3e186f85	0.14886291
43	0xbe50b795	-0.20382531
44	0xbb6dbf9b	-0.0036277536
45	0xbb1606ec	-0.002289231
46	0xbdfecd16	-0.12441461
47	0x3d983e57	0.074337654
48	0x3d7113e3	0.058856856
49	0x3da8ee02	0.082485214
50	0xbe21f910	-0.15817666
51	0x3c168c03	0.009188655
52	0xbc733db7	-0.014846257
53	0x3d3c85ec	0.046026155
54	0x3cf0d658	0.029399082
55	0x3d80b1e5	0.06283931
56	0xbe1cac82	-0.15300182
57	0xbdb44f4f	-0.088041894
58	0x3dcd9330	0.100378394
59	0x3e360a00	0.17777252
60	0xbd5e4934	-0.05426903
61	0x3dea6b38	0.114462316
62	0x3dec6878	0.11543363
63	0x3dbe75d8	0.09299821
64	0xbd10cfed	-0.035354543
65	0x3d20426a	0.039125837
66	0x3a70a4b6	0.0009179817
67	0xbd2d660c	-0.042333648
68	0xbc74c48d	-0.0149394395
69	0xbb2618f8	-0.0025344472
70	0x3c1357e7	0.0089931255
71	0xbe4bbfdc	-0.19897407
72	0x3d35ae6f	0.044355806
73	0xbd63a2d8	-0.05557522
74	0x3d88e21a	0.066837505
75	0x3e1f4263	0.15552668
76	0x3e435630	0.19075847
77	0xbc9faa51	-0.019490393
78	0xbe32e7ca	-0.17471233
79	0xbc0e3a4a	-0.008680889
80	0x3e3b4d18	0.18291128
81	0xbd940e79	-0.07229323
82	0xbd30bdf0	-0.04314989
83	0x3d8461de	0.06463979
84	0x3e124651	0.14284636
85	0x3e167f44	0.14696985
86	0xbc46c121	-0.012131006
87	0xbd8a36c1	-0.06748725
88	0xbe2f8a47	-0.17142592
89	0x3da4676d	0.080275394
90	0xbe7f0d7e	-0.2490749
91	0x3e1f4f4d	0.15557595
92	0x3d81342e	0.063087806
93	0x3d6c97f9	0.05776212
94	0x3dfa4cfe	0.12221716
95	0xbc98f5d3	-0.018671906
96	0xbdf402b7	-0.1191458
97	0xbcdb635e	-0.02678078
98	0x3d0944f8	0.03351304
99	0x3dcc5da2	0.099787965
100	0xbb06a200	-0.0020543337
101	0xbe3aa08d	-0.18225308
102	0x3d45074d	0.048102666
103	0x3bd06bac	0.0063604917
104	0x3e390795	0.18069299
105	0xbe40d1cd	-0.18830033
106	0x3e313e2d	0.17308874
107	0xbe029fd9	-0.1275629
108	0x3d21083d	0.039314497
109	0xbde47791	-0.11155618
110	0xbe0d2409	-0.13783278
111	0xbe8311c8	-0.25599504
112	0xbe12cd23	-0.14336066
113	0xbdac9ca2	-0.08428313
114	0xbde6d81b	-0.112716876
115	0xbe69359f	-0.22774361
116	0x3d9777cf	0.073958986
117	0x3de7d3c1	0.11319686
118	0xbde3feb0	-0.11132562
119	0x3e5baaae	0.21451828
120	0x3d910167	0.070803456
121	0x3e172128	0.14758742
122	0xbbf1a4e7	-0.007374394
123	0xbd7c962c	-0.061666653
124	0x3bccfe1d	0.0062558786
125	0xbd1da931	-0.03849143
126	0x3e194814	0.14968902
127	0xbdc0d7f1	-0.094161876
128	0xb875e555	-5.8626134e-05
129	0x3e27508f	0.16339324
130	0x3db7dbd9	0.089774795
131	0xbdd4b7e6	-0.10386638
132	0x3e0b7d89	0.13622107
133	0xbca3856f	-0.019961087
134	0xbcc13fb4	-0.023589946
135	0x3d04b79d	0.03240167
136	0xbd31a547	-0.04337051
137	0xbc1d88ec	-0.009615164
138	0x3d71b101	0.059006695
139	0x3d81003c	0.06298873
140	0xbde4cb7e	-0.111716256
141	0xbe26bcc8	-0.16282952
142	0x38b48340	8.607516e-05
143	0xbdc80275	-0.09766094
144	0xbe2bf8ad	-0.16794081
145	0x3b2c8656	0.0026325188
146	0x3d8efe82	0.06982137
147	0xbaac7c36	-0.0013159576
148	0xbd78a6ab	-0.060705822
149	0x3d780066	0.060547255
150	0x3ba1048e	0.004913873
151	0xbc54cf29	-0.012988844
152	0x3dc4cecd	0.096097566
153	0xbd0d4be9	-0.03449622
154	0xbe0d8382	-0.13819697
155	0x3e2c248b	0.16810815
156	0x3cdee4fd	0.0272088
157	0xbdcf411d	-0.10119841
158	0x3dc65392	0.096839085
159	0xbbadc9e0	-0.0053036064
160	0xbdac232f	-0.08405148
161	0xbaef161a	-0.001824084
162	0xbde40f68	-0.11135751
163	0x3d8d9a79	0.06914229
164	0xbdeeba8c	-0.11656675
165	0xbc36956a	-0.0111440215
166	0xbe56a1f1	-0.20960213
167	0xbe69507a	-0.22784606
168	0x3a2ccdd6	0.0006591951
169	0xbb9c1fb1	-0.00476452
170	0xbde9bec4	-0.11413339
171	0xbe074992	-0.13211659
172	0x3dd42877	0.103592806
173	0x3d94dd7a	0.07268806
174	0x3d8bf56a	0.068339184
175	0x3df95239	0.12173886
176	0xbd4c6705	-0.049902935
177	0xbcb59c99	-0.022169398
178	0xbcd6f992	-0.026242051
179	0xbddbf566	-0.107401654
180	0xbdac5d50	-0.084162354
181	0x3ba1b5d0	0.004935004
182	0x3d0c9d56	0.034329735
183	0xbcd42873	-0.025898194
184	0x3b04a68c	0.0020240871
185	0x3dafef98	0.08590621
186	0x3d9fc734	0.07801667
187	0x3ca7be12	0.020476375
188	0x3d485b3f	0.048915144
189	0x3d9816d1	0.07426227
190	0xbdd5c5de	-0.10438131
191	0xbd8a4b4e	-0.067526445
192	0xbc0ae3bd	-0.008477149
193	0xbde26b2f	-0.110556
194	0xbdcbf99a	-0.09959717
195	0xbd5a0795	-0.053229887
196	0xbdad3522	-0.084574
197	0xbbdbaf6b	-0.006704261
198	0x3dbe8984	0.09303573
199	0xbd249203	-0.04017831
200	0xbe31d9b7	-0.17368208
201	0xbdf4ed27	-0.11959296
202	0x3db0be15	0.08630005
203	0xbe49811b	-0.19678156
204	0x3d634697	0.05548724
205	0xbdc55d56	-0.09636943
206	0xbdef5f53	-0.116881035
207	0x3e3320f7	0.17493044
208	0xbd59a259	-0.053133342
209	0x3e009915	0.12558396
210	0xbd4418b0	-0.047875106
211	0xbd740b51	-0.059581105
212	0x3ab6596e	0.001391215
213	0xbb9c9003	-0.0047779097
214	0x3d61ce9c	0.05512868
215	0xbdf1e851	-0.11811889
216	0x383a56a0	4.442653e-05
217	0xbe05c2a4	-0.13062531
218	0x3ca508fe	0.02014589
219	0xbc7e2013	-0.015510577
220	0xbd67847a	-0.056522824
221	0x3af88001	0.0018959047
222	0xbc887a1f	-0.016659794
223	0xbdd7e959	-0.105425544
224	0x3da83dd6	0.08214919
225	0x3d608db6	0.054822646
226	0xbe1afeb9	-0.15136231
227	0x3c0be8fb	0.008539434
228	0xbd6978a4	-0.056999817
229	0x3dedd883	0.11613562
230	0x3d8b6970	0.0680722
231	0x3d8eec07	0.069786124
232	0x3d7ceed7	0.061751213
233	0x3b600adb	0.0034186158
234	0x3d07ecd7	0.033184852
235	0xbd4bcf84	-0.04975845
236	0xbdbcd7a7	-0.0922082
237	0xbe204cf6	-0.15654358
238	0x3d06ed23	0.032940995
239	0xbd5f5693	-0.054525923
240	0xbd9a500d	-0.075348
241	0x3dae75c8	0.08518559
242	0x3d908aeb	0.070577465
243	0xbe271e12	-0.16320065
244	0x3dc4f595	0.096171536
245	0x3d5eab4f	0.05436259
246	0x3e741d97	0.23839413
247	0xbcaba7ac	-0.020953976
248	0xbd9ec172	-0.077517405
249	0xbc68802f	-0.014190718
250	0x3cbe57a1	0.023235144
251	0x3ce56d83	0.02800632
252	0x3dcda1bb	0.10040613
253	0x3d65b84b	0.05608396
254	0x3d9168b8	0.07100052
255	0x3e62b90c	0.22140902

F.linears.1.bias f4 [32]
0	0xbcc5f1ca	-0.024163146
1	0xbcfeaefa	-0.031089295
2	0xbce384e4	-0.027773328
3	0x3d230b52	0.039805718
4	0x3ddf9d16	0.10918634
5	0x3c98f080	0.018669367
6	0xbbbe8240	-0.005813867
7	0xbcf9c87e	-0.03049111
8	0x3dbb4264	0.091435224
9	0xbd4367fe	-0.047706597
10	0x3c0022f8	0.007820837
11	0xbdb8fb46	-0.090323016
12	0x3c717456	0.014737209
13	0x3dc6a98d	0.09700308
14	0xbb35fe10	-0.0027769841
15	0xbdc1a225	-0.09454755
16	0x3d018789	0.031623397
17	0x3d6e6b00	0.058207512
18	0xbd79e1e4	-0.06100644
19	0x3da42f3f	0.08016824
20	0xbb1893e0	-0.00232815
21	0xbd6998b5	-0.0570304
22	0x3cf29704	0.029613025
23	0xbdbe6de8	-0.09298307
24	0x3cb4d5ed	0.022074664
25	0x3d6e6aba	0.05820725
26	0x3c10bb04	0.0088336505
27	0x3da7d28c	0.081944555
28	0xbd835c22	-0.06414057
29	0xbd767ad6	-0.06017574
30	0x3d48a96f	0.04898971
31	0x3dd36a39	0.10322995

F.linears.2.weight f4 [10, 32]
0	0x3d3e45ce	0.04645329
1	0xbd9ccfcf	-0.07656824
2	0x3cfba267	0.030717088
3	0xbb1911a7	-0.002335647
4	0xbdb499b2	-0.088183776
5	0x3e1d9b2a	0.15391222
6	0x3e71d43a	0.23616114
7	0x3d4f39a6	0.050592087
8	0x3dc470f8	0.095918596
9	0xbe0a4ab9	-0.13505067
10	0x3da15f3b	0.07879492
11	0xbd059882	-0.032616146
12	0x3d5a685b	0.053322177
13	0xbdfb3c64	-0.12267378
14	0x3d1ef1b3	0.03880472
15	0x3e2a43d6	0.1662744
16	0x3bc299f5	0.0059387633
17	0x3c25cf9d	0.0101203
18	0x3e31b3fc	0.17353815
19	0x3e19ab1c	0.1500668
20	0xbce9b737	-0.028529746
21	0x3e5725b5	0.21010478
22	0xbcb2a26f	-0.02180597
23	0x3d2fa632	0.042883106
24	0xbe103e04	-0.14086157
25	0x3c2525ef	0.010079845
26	0x3e0b72cb	0.13618009
27	0xbd8a0af5	-0.06740371
28	0x3c9ac0cc	0.01889076
29	0xbd2cb91e	-0.04216873
30	0xbca3444e	-0.019930031
31	0xbd6a1e18	-0.057157606
32	0x3c252362	0.010079237
33	0xbda620b7	-0.081117086
34	0x3d178c23	0.03699888
35	0x3e107bc3	0.14109711
36	0xbcae3654	-0.02126614
37	0x3db3a76f	0.0877217
38	0xbdd440b7	-0.10363906
39	0x3e8fd962	0.28095537
40	0x3d3384db	0.043827873
41	0xbe1ed463	-0.15510707
42	0x3ddbf44e	0.10739957
43	0x3c95bc16	0.018278163
44	0x3db4f069	0.08834917
45	0xbdab67cc	-0.08369407
46	0xbccd8b20	-0.025090754
47	0x3d49809f	0.04919493
48	0xbdd8f6e4	-0.10593966
49	0x3dbbaf34	0.09164277
50	0x3d0b70b5	0.034043033
51	0x3d16abdb	0.036784988
52	0x3d20b82e	0.039238147
53	0xbe3fb325	-0.18720682
54	0xbe58734a	-0.2113773
55	0x3e076fe2	0.13226274
56	0x3dbdc5b8	0.092662275
57	0xbdca4c45	-0.098778285
58	0x3dae1bbd	0.085013844
59	0xbe0bd836	-0.13656697
60	0xbe03c01f	-0.12866257
61	0x3c7268ca	0.0147954915
62	0x3e08febb	0.13378422
63	0xbe4c8935	-0.19974215
64	0x3dc2db08	0.09514433
65	0x3e42545d	0.18977495
66	0xbe7a361c	-0.24434704
67	0xbe13b126	-0.14423046
68	0xbd21257d	-0.039342392
69	0x3c9efd28	0.019407824
70	0x3b18e4eb	0.0023329805
71	0x3d8df0b6	0.069306776
72	0x3d544eb6	0.051832877
73	0xbbf123ee	-0.0073590195
74	0xbddf1fec	-0.108947605
75	0xbc5ddb69	-0.013541081
76	0x3c993bba	0.018705238
77	0xba1f7b5c	-0.00060837506
78	0x3bf06d01	0.007337213
79	0xbd65a486	-0.056065105
80	0xbe0da800	-0.13833618
81	0x3d49376e	0.049125127
82	0x3d165369	0.03670064
83	0x3daac8c8	0.08339077
84	0x3c121a62	0.008917423
85	0x3dd1f6bb	0.10252138
86	0xbe11753a	-0.14204875
87	0xbd0a1acb	-0.033716958
88	0xbc7a5b1d	-0.015280512
89	0x3e087c8b	0.1332876
90	0x3d7b1eba	0.0613086
91	0xbe2c727c	-0.16840547
92	0xbdd2a242	-0.102848545
93	0x3e18fe8a	0.14940849
94	0x3a1f8446	0.0006085079
95	0xbe11fb43	-0.14256005
96	0x3e07f3ea	0.1327664
97	0x3e81a6d4	0.25322592
98	0xbce413bc	-0.027841441
99	0xbe153c88	-0.14573872
100	0x3dce1892	0.1006328
101	0x3d9eb152	0.07748665
102	0xbe028f45	-0.12749965
103	0xbcbee048	-0.023300305
104	0x3dcff720	0.10154557
105	0x3b430f2a	0.0029763677
106	0x3d2ad74e	0.041709237
107	0xbe8c2c5d	-0.27377596
108	0x3e29cc46	0.1658183
109	0x3bcff5c0	0.0063464344
110	0xbdba54c5	-0.090982
111	0xbe21b107	-0.15790187
112	0xbd8f4e03	-0.069973014
113	0xbd071cb6	-0.032986365
114	0x3e310450	0.17286801
115	0x3e39fa7f	0.18161963
116	0xbd54c641	-0.051946882
117	0xbd455e82	-0.048185833
118	0x3dbc4a4e	0.0919386
119	0x3bc634ac	0.0060487594
120	0xbbf04d20	-0.0073334128
121	0xbd3e00dc	-0.04638754
122	0x3d52aaeb	0.05143253
123	0x3d203561	0.039113406
124	0x3e029e0a	0.127556
125	0x3ce68776	0.028140765
126	0x3c32016a	0.010864595
127	0xbe012153	-0.12610368
128	0xbe41beff	-0.18920515
129	0x3d88b52a	0.06675179
130	0xbd865f1d	-0.0656111
131	0xbde71c63	-0.11284711
132	0xbc366b4f	-0.011133983
133	0xbd207537	-0.039174285
134	0xbd8b4dde	-0.06801961
135	0x3e3ef691	0.18648745
136	0x3c91f946	0.017819058
137	0xbc53e014	-0.012931842
138	0x3d309d53	0.043118786
139	0x3e4b2dc2	0.19841674
140	0xbdf963c3	-0.12177231
141	0xbd7e59fe	-0.062097542
142	0xba45ea9c	-0.0007549913
143	0xbca16f9d	-0.019706542
144	0xbe4b7655	-0.19869359
145	0xbc3c175e	-0.011480181
146	0xbdea99e0	-0.114551306
147	0xbd6438aa	-0.0557181
148	0x3d450860	0.04810369
149	0x3da267f5	0.079299845
150	0xbd857be2	-0.065177694
151	0xbe4c6178	-0.19959056
152	0xbdd1b771	-0.10240067
153	0x3e50de27	0.20397244
154	0x3dcca8c2	0.099931255
155	0xbd113a95	-0.03545626
156	0x3d8d6ee4	0.06905916
157	0x3dde5441	0.10855914
158	0xbe32068b	-0.17385308
159	0xbd9eec24	-0.07759884
160	0x3e20bc22	0.15696767
161	0x3cb8a6ab	0.022540411
162	0xbcfdaa9b	-0.03096514
163	0xbe66605c	-0.22497696
164	0x3d0c7440	0.034290552
165	0x3e6d65d5	0.23183377
166	0xbd886dab	-0.066615425
167	0x3d82a547	0.063791804
168	0xbce649c1	-0.02811134
169	0xbd4c1eff	-0.049834248
170	0xbd990853	-0.07472291
171	0x3d9f59ea	0.077808216
172	0x3ceef109	0.029167669
173	0xbd9c86a2	-0.07642867
174	0xbd98210e	-0.0742818
175	0x3d21fedc	0.039549693
176	0xbde315c2	-0.11088134
177	0x3dfb3c3c	0.12267348
178	0xbcea16ce	-0.028575327
179	0x3cc8532e	0.024453726
180	0xbe3363ba	-0.17518511
181	0xbdb47bf0	-0.08812702
182	0x3e319736	0.17342839
183	0x3e38bb03	0.1804009
184	0xbc738773	-0.014863837
185	0xbe151d47	-0.1456195
186	0xbd6bcddd	-0.057569373
187	0xbe2ac76a	-0.16677633
188	0xbde6cbde	-0.11269353
189	0xbd18f030	-0.037338436
190	0xbbb5d41c	-0.005548967
191	0xbca8d446	-0.020609032
192	0x3da13e7e	0.078732476
193	0xbdb36b1a	-0.087606624
194	0x3e30de6b	0.17272346
195	0xbd699a4f	-0.057031926
196	0x3d7be68a	0.061499156
197	0x3e1e7f58	0.15478265
198	0x3ded08d6	0.11573951
199	0x3d9fae8d	0.07796965
200	0x3dbfb19a	0.09360047
201	0x3d8f90a7	0.07010012
202	0xbe5e5755	-0.21713002
203	0xbc6cb0af	-0.0144464215
204	0xbd8aaa56	-0.0677077
205	0xbcd2ac19	-0.025716828
206	0x3c97391e	0.018459853
207	0xbe2c1301	-0.16804124
208	0x3da7cbe6	0.081931874
209	0x3c9807e5	0.018558452
210	0x3e042e30	0.12908244
211	0x3c9affb1	0.018920751
212	0xbd9b4971	-0.07582367
213	0xbe1f5f23	-0.15563636
214	0x3d43bc15	0.04778679
215	0x3ac6b9f2	0.0015161617
216	0x3deb0e66	0.11477356
217	0x3d30d074	0.043167546
218	0x3d9092f2	0.070592776
219	0xbd7a6612	-0.061132498
220	0x3c1430eb	0.009044866
221	0x3dbe377e	0.09287928
222	0xbca60281	-0.020264866
223	0xbd9013b4	-0.07035008
224	0x3d2fb46a	0.042896666
225	0xbe0f460c	-0.13991565
226	0x3d14889f	0.036263105
227	0xbdbad9d2	-0.09123577
228	0x3cb57ecb	0.022155186
229	0x3a12aa7d	0.0005594863
230	0xbdcb065a	-0.09913321
231	0x3e0468de	0.12930629
232	0xbe1c09d1	-0.1523812
233	0xbdfe1c4a	-0.124077395
234	0x3dd4cda5	0.10390786
235	0xbdfaddb9	-0.122493215
236	0xbdd9ed58	-0.10640973
237	0x3b662eef	0.003512319
238	0xbe0056ce	-0.12533113
239	0xbd855ba0	-0.06511617
240	0x3d96a226	0.07355146
241	0x3e33e5dc	0.17568153
242	0x3d464964	0.048409835
243	0x3e8141c2	0.25245482
244	0xbdb74077	-0.089478426
245	0x3dee1962	0.11625935
246	0xbc83499f	-0.016026316
247	0x3d8771e8	0.06613523
248	0xbe6df5d2	-0.23238304
249	0xbc127cbb	-0.008940871
250	0xbcccc5dd	-0.024996692
251	0xbdab3ae0	-0.08360839
252	0x3dd01557	0.1016032
253	0xbcfbc2b7	-0.030732496
254	0xbe1d7c45	-0.15379436
255	0x3e50e35e	0.20399234

F.linears.2.bias f4 [10]
0	0x3cd1ec58	0.025625393
1	0xbd8c19a4	-0.06840828
2	0x3d362f8f	0.04447895
3	0xbbaafa0c	-0.005217796
4	0xbcf0e7f8	-0.029407486
5	0xbd4c99aa	-0.049951233
6	0xba963e87	-0.0011462726
7	0x3d954dc8	0.07290226
8	0x3d866750	0.06562674
9	0xbca1183b	-0.019664874

G.0.linears.0.weight f4 [32, 10]
0	0xbc0299b4	-0.007971216
1	0x3cf4f975	0.029904107
2	0x3dfeb03d	0.124359585
3	0x3d304543	0.043034803
4	0xbcaab782	-0.020839456
5	0x3d174aa3	0.036936413
6	0x3d8148bf	0.06312703
7	0x3e132e59	0.14373149
8	0xbdac57ab	-0.08415159
9	0xbe109b3f	-0.14121722
10	0x3ddf9809	0.1091767
11	0xbc417131	-0.011806772
12	0xbe333596	-0.1750091
13	0x3caaf67c	0.020869486
14	0xbe3a13a1	-0.1817155
15	0x3ca35590	0.01993826
16	0xbcb2898c	-0.021794103
17	0xbd88cae5	-0.06679324
18	0xbc9e1b26	-0.019300055
19	0xbc1343fa	-0.008988375
20	0xbd4e53e2	-0.050372966
21	0xbcbd8727	-0.023135735
22	0xbd4a4796	-0.049384676
23	0xbc53f785	-0.012937431
24	0x3cefa1f2	0.029252026
25	0x3de7cb54	0.11318079
26	0xbd027856	-0.031853043
27	0xbdb3ce41	-0.08779574
28	0x3caaac37	0.020834072
29	0x3dc70a78	0.09718794
30	0x3e0d68d8	0.13809526
31	0x3d09a988	0.033608943
32	0x3da893ed	0.082313396
33	0xbd26350c	-0.040577933
34	0xbe4817ba	-0.19540301
35	0xbe042aaf	-0.12906907
36	0xbddb047d	-0.106942154
37	0x3c1b3f7f	0.009475588
38	0x3d001434	0.031269267
39	0xbcd71ac2	-0.026257876
40	0x3de84b6d	0.11342511
41	0x3da9f75d	0.08299134
42	0xbd9d79de	-0.0768926
43	0x3d3b0f6f	0.045669015
44	0x3da7cffd	0.081939675
45	0x3d3b40a8	0.045715958
46	0xbdb50689	-0.08839137
47	0xbe3c3a51	-0.18381621
48	0x3d92f31a	0.07175274
49	0x3d06bfc7	0.032897737
50	0xbbe415b7	-0.0069605964
51	0x3c15abd9	0.00913521
52	0x3e0a483b	0.13504116
53	0xbd96cb86	-0.07363038
54	0x3d78feae	0.060789756
55	0xbd199fda	-0.037505962
56	0x3b235a2e	0.0024925577
57	0x3d84af79	0.06478781
58	0xbe0017f5	-0.12509139
59	0xbdefdce5	-0.11712054
60	0x3e3b548d	0.18293972
61	0x3d8f4b0a	0.069967344
62	0x3daf4aba	0.08559175
63	0xbe295f41	-0.16540243
64	0x3cdc0d77	0.02686189
65	0xbd54880f	-0.051887568
66	0x3d609f1b	0.054839235
67	0xbd2c479d	-0.042060483
68	0xbd728d78	-0.059216946
69	0xbdacc4ce	-0.08435975
70	0xbcdee9ec	-0.027211152
71	0x3e21b5b1	0.15791966
72	0xbd359630	-0.044332683
73	0x3c5d757f	0.013516783
74	0x3d6ca0f8	0.0577707
75	0xbdc4f685	-0.09617332
76	0xbe21d510	-0.15803933
77	0x3d7bea27	0.061502602
78	0x3cac83f4	0.021059014
79	0x3cf1100e	0.0294266
80	0xbe166b08	-0.14689267
81	0x3dda642c	0.106636375
82	0x3e16a0fc	0.14709848
83	0x3bf61d4a	0.0075108157
84	0x3dcbe93d	0.09956596
85	0xbd630412	-0.055423804
86	0x3d53e7af	0.051734623
87	0xbcd4e9f2	-0.02599046
88	0xbcc8a5de	-0.024493154
89	0x3d7928e2	0.060830005
90	0x3d814a34	0.06312981
91	0x3a82f384	0.0009990786
92	0x3c7d5225	0.015461479
93	0xbd212929	-0.039345894
94	0xb9d10dd0	-0.00039873878
95	0xbd58fe47	-0.052976873
96	0x3e206cc1	0.15666486
97	0xbdc9223e	-0.09820984
98	0x3c42d86d	0.01189242
99	0x3e0eaef8	0.13933933
100	0x3b0abf7f	0.002117127
101	0xbd3f4b62	-0.04670275
102	0x3e156ec7	0.1459304
103	0xbe3fd2c4	-0.18732744
104	0x3e300ba7	0.17191945
105	0x3d8330e6	0.06405811
106	0x3dc75a4b	0.09734019
107	0x3d285f56	0.041106544
108	0x3dadfde5	0.08495692
109	0xbbc25f53	-0.0059317737
110	0xbe286b54	-0.16447192
111	0xbdad8571	-0.084727176
112	0x3cdbc0db	0.02682536
113	0x3d25a646	0.040441774
114	0xbc694235	-0.014236976
115	0x3cb7b5fd	0.022425646
116	0x3cb0bf34	0.021575548
117	0xbe04929e	-0.12946555
118	0x3c517146	0.012783354
119	0x3df07fcf	0.117431276
120	0xbdc5ce4b	-0.09658488
121	0xbb2dde04	-0.0026530037
122	0xbdf3cc7a	-0.11904235
123	0xbd41068e	-0.04712539
124	0xbde44746	-0.11146407
125	0x3c968040	0.018371701
126	0xbd062afb	-0.032755833
127	0xbd87c669	-0.066296406
128	0x3cd407d9	0.025882648
129	0x3cd4f16d	0.025994027
130	0x3e39bf75	0.18139441
131	0x3d3ccb28	0.046092182
132	0x3d8b45ca	0.068004206
133	0xbcdc8800	-0.026920319
134	0xbd2abf5a	-0.041686393
135	0x3ca30095	0.019897738
136	0xbde81384	-0.11331847
137	0xbd9d9c3f	-0.07695817
138	0xbe72d73d	-0.2371492
139	0x3db9a554	0.09064737
140	0xbd181a18	-0.03713426
141	0x3d6c001a	0.057617284
142	0x3d21f3f4	0.039539292
143	0xbdd95df6	-0.10613625
144	0x3e01400d	0.1262209
145	0x3cfc990e	0.0308347
146	0x3d0ca68d	0.034338523
147	0x3d1c6e59	0.038191173
148	0x3e143441	0.14473058
149	0xbd57f076	-0.052719556
150	0x3c8c8e7f	0.017157791
151	0x3d429db5	0.047513682
152	0xbdbe7b17	-0.09300821
153	0xbd964b32	-0.07338561
154	0x3e12c29b	0.14332049
155	0x3ab5b7be	0.0013863964
156	0x3d980e7e	0.07424639
157	0x3e0f57de	0.13998362
158	0x3e833f5f	0.25634286
159	0x3e6e667a	0.23281279
160	0x3d1dfd87	0.03857186
161	0xbc6d7fc9	-0.014495798
162	0x3e04d0a1	0.1297021
163	0x3dbe0d74	0.0927991
164	0xbca1575f	-0.019694982
165	0x3d9316c8	0.071820796
166	0x3dbdd666	0.09269409
167	0x3e3d7bee	0.18504307
168	0x3e1c4b52	0.15263107
169	0x3c055632	0.008138226
170	0xbce44bfa	-0.02786826
171	0x3c50b854	0.01273926
172	0xbbf08c7f	-0.007340967
173	0xbd2e2b1c	-0.04252158
174	0x3d98f13f	0.07467889
175	0xbd07f774	-0.033194974
176	0x3d86c3f8	0.06580347
177	0x3e2bf976	0.1679438
178	0xbd9f76c6	-0.07786326
179	0xbce1cec0	-0.027564406
180	0x3dc72a9d	0.09724925
181	0x3dd48fab	0.10378965
182	0x3da3c8fb	0.07997318
183	0x3c974a5e	0.018468078
184	0xbcb5038a	-0.022096414
185	0x3d9bebbc	0.07613322
186	0xbd37a820	-0.04483807
187	0x3c0d7eb3	0.0086361645
188	0x3db32ed4	0.08749166
189	0xbe0ffc79	-0.14061154
190	0xbd123144	-0.035691515
191	0xbe659652	-0.22420624
192	0xbd94191f	-0.07231354
193	0x3d289924	0.04116167
194	0xbd93d919	-0.072191425
195	0xbdb2a58c	-0.08722982
196	0x3e26350e	0.16231176
197	0x3d1ce516	0.03830441
198	0xbdff4704	-0.12464717
199	0x3c26b7b1	0.010175631
200	0xbe0b91ac	-0.13629788
201	0xbda9ad7b	-0.08285042
202	0xbd260210	-0.04052931
203	0x3e158a35	0.14603503
204	0x3d8b3694	0.06797519
205	0xbd8cecb6	-0.068810865
206	0xbe1a7d22	-0.15086797
207	0xbd7e216e	-0.0620436
208	0xbcc3e684	-0.02391363
209	0xbd47065b	-0.048590045
210	0x3d1d0944	0.038338915
211	0x3db38fac	0.087676376
212	0xbda9676c	-0.08271679
213	0xbd5db59f	-0.054128285
214	0xbd1e0683	-0.03858043
215	0xbe751d2a	-0.23936906
216	0xbd95f587	-0.07322221
217	0xbdf5b0e5	-0.119966306
218	0x3e2c4c54	0.16825992
219	0xbd1ea636	-0.03873273
220	0xbe22b444	-0.15889078
221	0xbd5d1b0d	-0.053980876
222	0x3d85bf88	0.06530672
223	0xbe1de5ab	-0.15419643
224	0xbdf99a4c	-0.12187633
225	0x3e0fbc36	0.1403664
226	0xbdb94072	-0.09045495
227	0xbe09f307	-0.13471614
228	0xbbbda683	-0.005787672
229	0xbd334a6a	-0.04377214
230	0x3e288400	0.16456604
231	0x3e986677	0.29765674
232	0x3d2071e6	0.039171122
233	0xbddbf43e	-0.10739945
234	0xbe603f06	-0.21899042
235	0x3bb3b91a	0.0054847123
236	0x3dd7d965	0.105395116
237	0x3d778263	0.06042708
238	0xbbf377a3	-0.0074300333
239	0x3e12bd78	0.14330089
240	0x3deb3690	0.11485016
241	0xbd4b51aa	-0.049638428
242	0x3df0244f	0.11725675
243	0x3e4cae52	0.19988373
244	0xbe01c9ed	-0.12674685
245	0x3bcf9e97	0.006336044
246	0x3cafa6c9	0.021441834
247	0x3dce5bc9	0.100761004
248	0x3e01a14e	0.12659189
249	0xbe203b16	-0.1564754
250	0xbb05f172	-0.0020438102
251	0xbddf09d1	-0.10890544
252	0xbdc409e4	-0.09572199
253	0x3dec3b38	0.115347326
254	0xbe7dd2f1	-0.24787499
255	0xbe0d5c70	-0.13804793

G.0.linears.0.bias f4 [32]
0	0xbd586889	-0.052834067
1	0xbd091e55	-0.033476193
2	0x3dad297f	0.084551804
3	0x3a592ece	0.00082848675
4	0x3d464caf	0.048412975
5	0x3d54cd1b	0.051953416
6	0xbd97e828	-0.07417327
7	0x3c66626d	0.0140615525
8	0x3dac5253	0.084141396
9	0xbdc405bd	-0.09571407
10	0x3d33df34	0.043914035
11	0xbce84cec	-0.028356992
12	0xbde2a595	-0.110667385
13	0xbd024f74	-0.031814054
14	0x38e05cd0	0.0001069844
15	0xbd0dab4e	-0.034587197
16	0x3d9e0f6c	0.07717785
17	0x3d8276f6	0.06370346
18	0xbcfaea99	-0.030629443
19	0xbda39e19	-0.07989139
20	0xbd21449e	-0.03937208
21	0x3d388c93	0.045055937
22	0xbdd54c74	-0.10414973
23	0x3d8b7e69	0.0681122
24	0x3dc68b3e	0.09694527
25	0x3d94a175	0.07257358
26	0x3cf3000f	0.029663114
27	0xbc652c24	-0.013987575
28	0xbcfb5815	-0.03068165
29	0xbd95b2dd	-0.07309506
30	0xbdc00f40	-0.09377909
31	0xbbdd9504	-0.006762149

G.0.linears.1.weight f4 [32, 32]
0	0x3c564b82	0.013079526
1	0x3d620091	0.05517632
2	0xbdbdb7eb	-0.09263595
3	0x3c5a45bb	0.013322289
4	0x3d1db1de	0.038499705
5	0x3ea12b36	0.3147828
6	0xbe26d4b1	-0.16292073
7	0xbcd3ed03	-0.025869852
8	0x3cbbc6b5	0.0229219
9	0xbe1cb963	-0.15305094
10	0xbcc644f8	-0.024202809
11	0xbd0f2eb2	-0.03495664
12	0xbd06c49e	-0.032902353
13	0x3d593180	0.053025723
14	0xbe622153	-0.22083025
15	0x3c57dbb2	0.013174938
16	0x3d8b4609	0.068004675
17	0x3d5e3052	0.0542453
18	0x3ca9c1fa	0.020722378
19	0xbada026e	-0.0016632804
20	0xbc217724	-0.0098550655
21	0x3dff382c	0.12461886
22	0x3daedb8e	0.085379705
23	0x3c32bd6d	0.01090942
24	0x3e0492f0	0.12946677
25	0x3e2983f1	0.16554238
26	0x3e31f0bd	0.1737699
27	0x3dc3a753	0.09553399
28	0x3e1cffcc	0.15331954
29	0xbda0de43	-0.07854893
30	0x3dfbdd8f	0.12298118
31	0x3da10b57	0.07863491
32	0x3cae8af9	0.021306502
33	0x3de48cd4	0.11159673
34	0x3e67f873	0.2265337
35	0x3dae3da7	0.08507853
36	0x3d82a808	0.06379706
37	0xbde33cda	-0.11095591
38	0xbe2a153d	-0.16609664
39	0x3df2dbe0	0.11858344
40	0xbd6aa226	-0.057283543
41	0x3cf4ed2b	0.029898247
42	0x3d64445a	0.055729248
43	0x3dd8c0d2	0.105836526
44	0xbcce8a13	-0.025212323
45	0xbdc09da5	-0.09405068
46	0x3d050aaf	0.03248089
47	0x3c7d7773	0.015470373
48	0xbda4243f	-0.08014726
49	0x3d5e8d55	0.054334003
50	0xbe000def	-0.12505315
51	0xbe14fa3f	-0.14548586
52	0xbd856164	-0.065127164
53	0x3dead695	0.114667095
54	0xbe2bab04	-0.16764456
55	0xbdf36f50	-0.118864655
56	0x3cdfbd2f	0.02731189
57	0x3d99732d	0.07492671
58	0x3e24ed75	0.16106208
59	0x3c8f9ac9	0.017529862
60	0xbd602d4c	-0.0547307
61	0x3e1cd597	0.15315853
62	0xbc7a3a21	-0.015272648
63	0x3c4c41a4	0.012466822
64	0xbe5bcf5d	-0.21465822
65	0x3d149b71	0.036281053
66	0xbc10a570	-0.008828506
67	0x3ca2c302	0.019868378
68	0xbd2fbd19	-0.042904947
69	0xbd9dcb3e	-0.07704781
70	0x3d649544	0.055806413
71	0x3e0de6b8	0.13857543
72	0x3cbc6ba6	0.02300055
73	0x3d0d68b4	0.03452368
74	0x3c125cc6	0.008933252
75	0x3c9350fe	0.017982956
76	0x3d9a682b	0.075394
77	0xbe4421c2	-0.19153503
78	0x3d24f8ff	0.040276524
79	0x3dfd5510	0.1236974
80	0xbe3662c3	-0.17811112
81	0xbe07d714	-0.1326564
82	0xbd47ebf1	-0.048808996
83	0xbe67ccbc	-0.22636694
84	0x3c3c377b	0.011487837
85	0x3dc93e30	0.098263144
86	0x3d8e58c1	0.06950522
87	0x3d654391	0.05597264
88	0xbc2961f5	-0.010338296
89	0xbc6d62be	-0.014488874
90	0xbbbecb6e	-0.0058225906
91	0xbc9da64a	-0.019244332
92	0x3e04d181	0.12970544
93	0xbc86a6c5	-0.016436944
94	0x3c31843f	0.010834753
95	0x3d6e204a	0.058136262
96	0x3e270c40	0.16313267
97	0xbcff6879	-0.031177746
98	0x3b21ae4f	0.0024670546
99	0x3c6d134a	0.014469931
100	0x3d8fbea6	0.07018785
101	0xbbe84d1a	-0.0070892693
102	0xbe075ac0	-0.13218212
103	0x3d5253be	0.051349394
104	0x3cc8e4eb	0.02452322
105	0x3d04bf58	0.032409042
106	0x3bb2da33	0.0054581403
107	0xbe2c25f2	-0.1681135
108	0xbe140e0e	-0.14458486
109	0x3d9b2f2d	0.075773574
110	0x3db34203	0.08752825
111	0xbd324edb	-0.043532234
112	0xbd7ae641	-0.061254743
113	0xbe146714	-0.14492446
114	0x3d6ad3b3	0.0573308
115	0x3d068d0b	0.032849353
116	0xbc346c4b	-0.011012147
117	0xbe49f3f0	-0.19721961
118	0xbccf1215	-0.025277177
119	0x3a8e9681	0.0010878594
120	0xbe20451d	-0.15651365
121	0x3e798521	0.24367191
122	0x3dc5a2b6	0.09650175
123	0x3d68d6f9	0.05684564
124	0xbd549277	-0.051897492
125	0xbd85160f	-0.06498348
126	0xbd7c2b22	-0.061564572
127	0xbe5c7f33	-0.21532898
128	0x3c1b8432	0.009491967
129	0x3dd2d94f	0.102953546
130	0xbcc96f3b	-0.024589172
131	0xbe05f4f4	-0.13081723
132	0xbe28aac3	-0.1647139
133	0xbd83ec10	-0.0644151
134	0x3dc0ba73	0.09410562
135	0xbd5b300f	-0.05351263
136	0x3e06d6e5	0.13167913
137	0xbcba5b6e	-0.022748675
138	0xbd97c0c1	-0.07409812
139	0x3d8e41d0	0.069461465
140	0xbd94a1ae	-0.072574005
141	0x3d8b9ef8	0.0681743
142	0xbe42511f	-0.18976258
143	0x3d0cb79b	0.034354787
144	0x3d9baf09	0.07601745
145	0xbe8de884	-0.27716458
146	0x3de5dafa	0.11223407
147	0x3db0f357	0.086401634
148	0xbc9dd30e	-0.019265678
149	0x3dd3a3eb	0.10333999
150	0x3c7e16bd	0.015508351
151	0xbdf69774	-0.12040606
152	0x3e38a14d	0.18030281
153	0x3d8d1781	0.06889249
154	0x3cdb4229	0.026764946
155	0x3da2a8f8	0.079423845
156	0x3e2e4726	0.17019328
157	0xbe40e526	-0.18837413
158	0x3e1ca62a	0.15297762
159	0x3dc8dc3c	0.098076314
160	0x3db2a319	0.08722515
161	0x3b4744ea	0.0030406066
162	0x3decfb0c	0.11571321
163	0x3e3ca5e2	0.18422654
164	0x3b74c977	0.0037351528
165	0x3dca1692	0.09867586
166	0xbd96fd8a	-0.073725775
167	0xbe43422c	-0.19068211
168	0x3e3c373e	0.18380448
169	0x3ccef013	0.02526096
170	0x3d8e5f07	0.06951719
171	0xbbba2af0	-0.005681388
172	0xbdcd052d	-0.10010753
173	0x3ad0d0d6	0.0015931379
174	0x3d9a36bb	0.0752997
175	0x3e1b0d47	0.15141784
176	0x3daac9df	0.08339285
177	0x3a9cbb6b	0.001195771
178	0x3de9492f	0.11390912
179	0x3d275bcd	0.040859032
180	0x3dc4fe36	0.096187994
181	0x3d93c70e	0.07215701
182	0xbd1efabb	-0.038813334
183	0x3e01bd7d	0.1266994
184	0x3d0c4b50	0.03425151
185	0xbc044b12	-0.008074539
186	0x3de9e405	0.114204444
187	0xbe51ae2b	-0.20476596
188	0xbcc22937	-0.023701293
189	0xbb2492a0	-0.002511181
190	0xbdbed698	-0.09318274
191	0x3d90cd05	0.07070354
192	0xbb6a138c	-0.0035717217
193	0xbcd62576	-0.02614091
194	0xbe0ed1db	-0.13947241
195	0xbd993e89	-0.07482631
196	0x3e3a9c81	0.18223764
197	0x3cec2230	0.028824896
198	0x3da288d4	0.07936254
199	0x3c6ed43d	0.014576969
200	0x3d95a0e6	0.073060796
201	0xbdbd2b36	-0.092367575
202	0xbd1760bc	-0.036957487
203	0xbe80ed87	-0.2518122
204	0xbc00ecb4	-0.007868934
205	0x3aeb40b7	0.0017948364
206	0x3e30a257	0.17249428
207	0xbda84d3a	-0.08217855
208	0xbd33cafd	-0.043894757
209	0xbe35e2f9	-0.17762364
210	0x3d0675d1	0.032827202
211	0xbdd39241	-0.1033063
212	0xbc641f63	-0.013923499
213	0xbe0dcf8e	-0.13848707
214	0x3e23da76	0.16001305
215	0x3d9139fc	0.07091138
216	0xbcf09483	-0.02936769
217	0x3e427d22	0.18993047
218	0x3cb6350a	0.022242088
219	0xbcdf4a40	-0.027257085
220	0xbd4c7f2d	-0.04992597
221	0x3e046808	0.1293031
222	0xbd1940b4	-0.03741522
223	0x3cbae926	0.022816252
224	0x3d304b1f	0.04304039
225	0xbc72fe8b	-0.014831196
226	0xbd987323	-0.074438356
227	0x3daabf56	0.08337276
228	0x3dfe93cf	0.12430536
229	0xbccdda6d	-0.025128568
230	0xbd344430	-0.04401034
231	0x3d42c08a	0.0475469
232	0x3a0c8795	0.00053607795
233	0xbdb271af	-0.0871309
234	0xbd5cceeb	-0.05390827
235	0x3d0bb606	0.034109138
236	0xbe0e3d7c	-0.13890642
237	0x3da459e6	0.08024959
238	0x3d348fb5	0.044082362
239	0x3e4dde66	0.2010437
240	0xbddbf657	-0.10740345
241	0x3d5e2278	0.05423209
242	0x3c6c7099	0.014431142
243	0xbe02120a	-0.12702194
244	0xbe2e59d0	-0.17026448
245	0xbe5d0a79	-0.21586026
246	0x3cd73516	0.02627043
247	0xbd8f1c2d	-0.06987796
248	0x3d11e489	0.03561834
249	0x3e10f0d1	0.14154364
250	0x3d813803	0.063095115
251	0xbdb1975f	-0.0867145
252	0x3d7b9924	0.061425343
253	0xbc0d7fe9	-0.008636453
254	0xbdb9a085	-0.0906382
255	0xbe126523	-0.14296393

G.0.linears.1.bias f4 [32]
0	0x3bb17975	0.00541609
1	0x3d9a706b	0.07540973
2	0x3ce49625	0.027903626
3	0x3c709a07	0.0146851605
4	0xbdb010d5	-0.085969605
5	0x3bfdf442	0.007750065
6	0xbdad50b4	-0.084626585
7	0x3d28a7b5	0.041175563
8	0x3d83b7c3	0.06431534
9	0xbd2761fe	-0.040864937
10	0xbd917553	-0.07102456
11	0x3cfcad2d	0.030844295
12	0xbc591ed2	-0.013251977
13	0x3d616b69	0.055034075
14	0xbd9da7d0	-0.07698023
15	0x3d9c89e2	0.076434866
16	0xbd935485	-0.07193855
17	0xbd2213c9	-0.03956965
18	0xbdcc84cd	-0.09986267
19	0x3dabf8cc	0.083970636
20	0x3da1bd84	0.07897475
21	0x3d1c3026	0.038131855
22	0xbd163444	-0.036670938
23	0xbd505ee3	-0.05087174
24	0xbd08c58e	-0.033391528
25	0x3d8eacab	0.069665276
26	0x3cab06b7	0.020877225
27	0x3db183c6	0.08667712
28	0x3d4c6544	0.049901262
29	0xbb0c30b1	-0.0021391327
30	0x3b9c69b3	0.0047733425
31	0xbd64b4c2	-0.055836447

G.0.linears.2.weight f4 [10, 32]
0	0x3caedd66	0.021345805
1	0x3c7283bc	0.014801916
2	0x3df8a989	0.12141711
3	0x3d922706	0.071363494
4	0xbcf3605f	-0.02970904
5	0x3dae4ff2	0.08511342
6	0x3d864e3b	0.0655789
7	0x3d028bac	0.031871483
8	0x3e7b798c	0.24558085
9	0x3d2f0453	0.042728733
10	0x3d4e378e	0.05034595
11	0x3c321ed1	0.010871605
12	0x3de87fbe	0.1135249
13	0xbb47c088	-0.0030479748
14	0xbe1a90fa	-0.15094367
15	0xbdbaccdb	-0.09121104
16	0xbe220f0c	-0.15826052
17	0xbe003bb4	-0.12522775
18	0xbe4cdb9b	-0.20005648
19	0x3d65f6b0	0.056143463
20	0x3cd52892	0.026020322
21	0xbdf7d797	-0.121016674
22	0xbd990cbf	-0.07473134
23	0x3e89883f	0.2686176
24	0xbd9eb2f9	-0.0774898
25	0xbca0d6bb	-0.019633641
26	0x3c4cf9ea	0.012510756
27	0x3d9f8aa6	0.07790117
28	0x3e2b9140	0.16754627
29	0x3c0cd1b8	0.008594923
30	0xbc3f9546	-0.011693304
31	0xbdda6d7a	-0.10665412
32	0xbe4f3c13	-0.2023776
33	0x3d31568d	0.043295432
34	0xbd8c8290	-0.0686084
35	0xbcbf6aeb	-0.023366412
36	0x3d23d29a	0.039995767
37	0x3d29b24d	0.041429807
38	0x3e7f4c2e	0.24931404
39	0xbd8cba34	-0.06871453
40	0x3e27f1dc	0.16400856
41	0xbe202e36	-0.15642628
42	0x3d160fe4	0.03663625
43	0xbd97c642	-0.074108616
44	0xbe2297e0	-0.15878248
45	0x3cc555bb	0.024088731
46	0xbc82dc5e	-0.01597422
47	0x3e46d4ba	0.19417086
48	0xbcc441f3	-0.023957228
49	0xbe087934	-0.13327485
50	0x3e1d0017	0.15332066
51	0x3d54a091	0.05191094
52	0xbdae3738	-0.08506626
53	0x3cfff3a9	0.031244116
54	0xbd74165f	-0.059591647
55	0xbc9b9e41	-0.01899636
56	0x3d2398b0	0.039940536
57	0xbe56188f	-0.20907806
58	0xbdc34a15	-0.095356144
59	0x3c3d0d65	0.011538838
60	0x3e2e523b	0.17023556
61	0xbc1519d4	-0.009100396
62	0x3d073f75	0.0330195
63	0xbde82489	-0.113350935
64	0xbdb44c50	-0.08803618
65	0xbe5a1681	-0.21297647
66	0xbdb078b0	-0.08616769
67	0xbd67f32f	-0.056628402
68	0x3d8dd5f5	0.06925575
69	0x3d4e975a	0.05043731
70	0xbe1837ec	-0.14865083
71	0x3d4b9a81	0.049707893
72	0xbcebdf08	-0.028792873
73	0xbcfb0a97	-0.030644698
74	0x3d283e62	0.041075118
75	0xbdaa1699	-0.083050914
76	0xbe516e1a	-0.20452157
77	0x3d6d0126	0.057862423
78	0xbc520122	-0.012817653
79	0xbde120c3	-0.10992577
80	0x3cc611c0	0.024178386
81	0x3d31de82	0.04342509
82	0x3d9d691c	0.07686064
83	0x3daa9c5e	0.08330606
84	0x3caf0d89	0.021368759
85	0x3dc1d8cc	0.09465179
86	0xbdf07820	-0.11741662
87	0x3b3e32c8	0.0029021967
88	0x39abacc0	0.0003274437
89	0xbdf7c2ac	-0.120976776
90	0xbd8ade7f	-0.06780719
91	0x3da02ce6	0.07821064
92	0xbd4fa735	-0.05069657
93	0xbe028f5a	-0.12749997
94	0x3d0782d6	0.03308376
95	0x3e41f50c	0.18941134
96	0x3cf2bddf	0.029631553
97	0x3d98a67e	0.07453631
98	0x3cd667bc	0.026172511
99	0xbbc1fa0f	-0.005919702
100	0x3dd035f2	0.10166539
101	0xbe4e2426	-0.20130977
102	0x3d236e78	0.039900273
103	0x3d9f5eee	0.07781778
104	0x3b897644	0.0041950066
105	0xbdaea304	-0.085271865
106	0xbd721bae	-0.05910843
107	0xbd8caadf	-0.068685286
108	0xbccab289	-0.024743335
109	0xbd6b88ec	-0.057503626
110	0x3d7da305	0.061923046
111	0x3ca63b0a	0.020291824
112	0x3de6053d	0.11231468
113	0x3c5efd90	0.013610259
114	0x3d93ad27	0.072107606
115	0x3e3ac46e	0.18238994
116	0x3d754fa1	0.059890393
117	0x3cd0d193	0.025490558
118	0xbbc934fc	-0.0061403494
119	0xba96b7ee	-0.0011498907
120	0xbd8ab05c	-0.06771919
121	0xbc84d246	-0.016213547
122	0x3c675165	0.014118527
123	0x3e1365a3	0.1439424
124	0x3e5c2065	0.21496733
125	0x3e5a3d68	0.21312487
126	0xbcd33c71	-0.025785657
127	0x3cc09893	0.023510253
128	0x3d70abc3	0.058757555
129	0x3d5e746a	0.05431024
130	0x3d8ba1a0	0.06817937
131	0x3dd09559	0.10184736
132	0xbd61958e	-0.055074267
133	0xbdec52ef	-0.11539256
134	0x3d2c3908	0.042046577
135	0x3cb8f6f1	0.022578688
136	0x3d87e244	0.066349536
137	0xbdb6058d	-0.088877775
138	0xbc56c871	-0.013109312
139	0x3e2d81e3	0.16944079
140	0x3cc50136	0.024048429
141	0x3ce0a3d1	0.027421864
142	0xbd64e239	-0.055879805
143	0xbc0b5738	-0.008504681
144	0x3dd42988	0.10359484
145	0x3ccee0d1	0.025253685
146	0xbb5a1a1e	-0.0033279727
147	0x3d868e0f	0.06570064
148	0xbd1ccb19	-0.038279627
149	0xbd2ecdd1	-0.04267675
150	0x3da65fae	0.08123718
151	0x3d250e06	0.040296577
152	0x3df9376a	0.121687725
153	0xbcc09353	-0.02350775
154	0x3d65f305	0.056139965
155	0xbd88477f	-0.06654262
156	0x3d502c76	0.05082365
157	0xbb40d2e0	-0.0029422566
158	0x3d56f0fe	0.05247592
159	0xbd69b2f5	-0.057055432
160	0x3d177bae	0.036983185
161	0xbd448809	-0.047981296
162	0x3c5aea99	0.0133615965
163	0xbda1d614	-0.0790216
164	0xbe1cc546	-0.15309629
165	0xbceda560	-0.029009521
166	0xbd30f345	-0.04320075
167	0x3de50191	0.111819394
168	0x3db5ec07	0.08882909
169	0xb9ab2044	-0.000326397
170	0xbd77ddc4	-0.060514227
171	0x3de80702	0.11329462
172	0xbda86609	-0.08222587
173	0x3d3713fa	0.044696786
174	0x3c21b711	0.009870307
175	0x3cd5c307	0.026093973
176	0xbe146e76	-0.14495263
177	0xbddde3a5	-0.108344354
178	0xbdf7f99c	-0.12108156
179	0xbc9754ae	-0.018472996
180	0xbd402484	-0.046909824
181	0x3c8575a0	0.01629144
182	0xbd7bffe5	-0.061523337
183	0x3e098fc4	0.13433748
184	0xbdf04518	-0.117319286
185	0x3ce40791	0.02783564
186	0x3d9d96e8	0.07694799
187	0x3c2fb6d2	0.01072474
188	0xbe22eded	-0.15911074
189	0xbdcfa1a8	-0.10138255
190	0x3c1fd637	0.009755663
191	0xbd567f29	-0.052367363
192	0xbe0cd040	-0.13751316
193	0xbd2fec81	-0.042950157
194	0x3de30c03	0.110862754
195	0x3e094fe4	0.13409382
196	0xbd8c79aa	-0.06859143
197	0x3ca77673	0.020442223
198	0xbca70f7b	-0.020393124
199	0xbd872158	-0.06598157
200	0xbcea4259	-0.02859609
201	0xbccf43a3	-0.025300806
202	0xbd073f44	-0.03301932
203	0xbe1455c7	-0.14485846
204	0x3d449592	0.047994204
205	0x3e028a92	0.12748173
206	0xbe445a9a	-0.19175187
207	0xbc7b5115	-0.015339156
208	0x3d1ab8b1	0.03777379
209	0x3e12bf01	0.14330675
210	0x3a06fb53	0.00051491446
211	0xbe3dadd9	-0.18523349
212	0x3dc857cd	0.09782372
213	0x3b75b612	0.0037492556
214	0xbe47df7f	-0.1951885
215	0x3dfde06e	0.12396322
216	0x3e1ff66e	0.15621349
217	0xbe1e052e	-0.15431663
218	0xbe892750	-0.26787806
219	0x3e333d5f	0.1750388
220	0xbc51db5b	-0.012808646
221	0x3d761c93	0.060085844
222	0x3cccb6d0	0.024989516
223	0xbe0329a8	-0.1280886
224	0xbda3fd54	-0.08007303
225	0xbd4e3a28	-0.05034843
226	0x3d927a63	0.0715225
227	0xbdeef3f0	-0.11667621
228	0xbe0fa260	-0.14026785
229	0xbe0af54e	-0.13570139
230	0x3de52c3b	0.11190077
231	0x3e0ba72a	0.13637987
232	0x3d6e7e56	0.058225952
233	0xbdf0ac8c	-0.11751661
234	0x3e1a3bf0	0.15061927
235	0x3e39f3d4	0.1815942
236	0xbbe58138	-0.0070039295
237	0x3c40030a	0.011719475
238	0xbd6f62fd	-0.058444012
239	0x3e02cf0e	0.12774298
240	0x3d90ef0d	0.07076845
241	0x39ff7d0e	0.00048730563
242	0x3d668569	0.056279574
243	0xbe12aaa1	-0.14322902
244	0xbde2f03d	-0.11080978
245	0x3db34c2b	0.08754762
246	0x3e25ca46	0.16190442
247	0x3e0b9444	0.13630778
248	0xbd81cfff	-0.063385
249	0xbdba8e11	-0.09109128
250	0x3d61053a	0.054936625
251	0xbd3cd14f	-0.04609805
252	0x3db1b09a	0.08676262
253	0xbd81ed6e	-0.06344114
254	0x3df707b4	0.12062016
255	0xbca64520	-0.020296633

G.0.linears.2.bias f4 [10]
0	0xbd87575c	-0.06608459
1	0xbd863e7f	-0.06554889
2	0x3d268b29	0.040660057
3	0xbd135753	-0.03597195
4	0x3d8f35c8	0.0699268
5	0xbd665744	-0.056235567
6	0xbd4a38da	-0.049370624
7	0x3d140861	0.036140803
8	0xbd3d9b42	-0.046290644
9	0x3dcba7fd	0.099441506
