para_save/00010params.pth (torch, 118145 bytes, 76 tensors)

F.linears.0.weight f4 [32, 20]
000000 82 09 90 bd b3 2c bc bd 3c e3 1a be 7e d2 50 3c
       -0.070330635 -0.09188213 -0.15125746 0.012745498
000010 51 85 a3 bd 80 ae 78 bd 97 12 f9 bd f6 56 d8 3d
       -0.079844125 -0.06071329 -0.12161749 0.105634615
000020 ba 76 b9 bd 96 9a 7a bd 2e 0d ce bc 3f 66 bb bc
       -0.090558484 -0.06118258 -0.025152769 -0.022875903
000030 2c 6f b2 3d 42 ff 17 be 30 21 8b 3c d6 d3 4f 3b
       0.087126106 -0.14843467 0.016983598 0.0031711957
000040 11 71 66 3d a7 a2 00 3e 16 54 89 bd e7 4f ef 3d
       0.056260172 0.12562047 -0.06705491 0.11685162
000050 3d a3 34 3e b6 70 cc bd 94 c2 03 bd 4d dd 76 bd
       0.17640395 -0.099824354 -0.032167986 -0.060269643
000060 0a a0 36 bd 34 e3 0c be f5 62 2f 3c 81 cd 91 3d
       -0.04458622 -0.13758546 0.010704746 0.07119275
000070 a8 8d d5 3c 55 bd ac bc 65 d4 26 3e 6d 00 73 bd
       0.026068524 -0.021086374 0.1629196 -0.059326578
000080 d8 06 37 be d4 3e 17 bc 4b 86 70 3d a3 3a 8d 3d
       -0.17873704 -0.009231288 0.05872182 0.0689595
000090 a7 04 43 3d 86 59 06 3d a3 e7 8f bd a5 21 9b 3c
       0.04761186 0.03280022 -0.07026603 0.018936941
0000a0 5c 66 91 bd 92 36 d1 3d 2a aa f3 bd 0d f0 27 be
       -0.070996016 0.102154866 -0.118976906 -0.16400166
0000b0 9c e0 fc bd 0d 07 eb bd 25 8b f2 3d 60 4c 3f 3d
       -0.12347528 -0.11475954 0.11842946 0.046703696
0000c0 5a fd c5 3d de 80 2c 3d aa a1 02 3e 44 e6 ba bd
       0.096674636 0.042115085 0.12756982 -0.09125951
0000d0 b5 01 4c bd d1 2c 48 be 24 e6 a9 3d b9 2f 61 3d
       -0.049806315 -0.19548346 0.08295849 0.054977152
0000e0 1e 8c b1 3d 00 29 41 be 15 8b cf bd 44 a2 26 3d
       0.08669303 -0.18863297 -0.1013395 0.040682092
0000f0 49 f1 ec 3c 34 25 f3 bd 1a dd cb 3c 26 35 c2 bd
       0.028923647 -0.1187233 0.024885703 -0.094827935
000100 d3 bb 0d 3e 4f 48 cf bd 7d 80 e3 3c c1 c4 d0 bc
       0.1384118 -0.10121214 0.027771229 -0.025484445
000110 8c 9b 8e 3b 41 dd 09 3e 37 11 bc bc b8 52 1a be
       0.0043520387 0.13463308 -0.022957427 -0.15070617
000120 01 29 87 bd 71 fd b7 3b da d0 dd 3c 05 28 c6 3d
       -0.06599618 0.0056149294 0.027077127 0.09675602
000130 07 6c 7d ba 42 7f b0 bb 77 c0 25 be db f4 30 3d
       -0.00096672814 -0.005386264 -0.16186701 0.043202262
000140 9c 76 87 3d 6c 1b 51 bc 05 18 ef bd 5a 68 8d 3d
       0.0661442 -0.012762886 -0.11674503 0.06904669
000150 3d 91 3a 3d bf bc 2c bd 17 43 35 3d e5 ed 85 bd
       0.045548666 -0.04217219 0.044253435 -0.065395154
000160 05 73 3d 3d fa 1a 09 3e 20 61 c0 bc af 4d bb bd
       0.04625227 0.13389197 -0.023483813 -0.09145676
000170 98 d6 3e be 87 76 d9 bd d5 d8 23 3e 03 83 d6 bc
       -0.18636549 -0.106183104 0.16000684 -0.026185518
000180 68 4a 52 3e 6b 92 d4 bc 8c 26 fa bd 3c f8 2c 3c
       0.20536196 -0.025948724 -0.122143835 0.010557231
000190 05 94 1a bd 7d a5 47 3e 0c ae 2f be bd ed ae bd
       -0.03773882 0.19496723 -0.17156237 -0.08541439
0001a0 3f 00 bb 3d da dd 07 bd 46 5e 88 3d 2e ab 40 3e
       0.09130906 -0.03317056 0.06658606 0.188153
0001b0 ba 35 08 3e 27 04 4a bc 7a 15 b0 3c 95 4e 17 bd
       0.13301745 -0.012330092 0.021494616 -0.036940176
0001c0 ad a7 c4 bc 37 a7 e7 bc 87 34 15 bd 7b a8 62 3d
       -0.024005735 -0.028277976 -0.036427047 0.055336457
0001d0 32 38 54 3e f2 dc 98 3c 1b a0 48 3d 60 85 1a bd
       0.20724562 0.018660042 0.048980813 -0.037724853
0001e0 ff b7 f5 3d 8e e6 34 3b a0 a8 a9 bd de 09 76 bd
       0.11997985 0.0027603242 -0.08284116 -0.060068004
0001f0 f0 5a 36 3d 7f 95 3b 3b 8b 02 5d 3e 56 c3 52 3d
       0.04452032 0.0028623042 0.21583001 0.051455818
000200 ef 1c 54 3d 86 96 f5 3d f7 e2 ed 3d 32 14 cd 3d
       0.051785406 0.11991601 0.11615556 0.100136176
000210 e1 40 a4 bc e3 a7 f7 bd 45 86 4a 3e 2a 24 05 3e
       -0.020050468 -0.12092569 0.19777782 0.13002077
000220 49 5c 58 be 5a bd 7f bd 63 e5 99 3c 7a 5e 06 3d
       -0.21128954 -0.06243644 0.018786138 0.032804944
000230 fe e0 b4 3d 37 2f 52 bd 33 b8 12 3e 7b 9d 4f 3b
       0.08831976 -0.05131456 0.14328079 0.003167956
000240 80 1c a2 bb c2 fd a2 3c 74 d6 0e bd b0 d2 3a 3b
       -0.004947245 0.019896392 -0.034872487 0.0028506927
000250 28 ef ac 3d b1 7b 19 be 73 8e c2 bd 9b 9b c8 3d
       0.08444053 -0.14988591 -0.09499826 0.097953044
000260 e8 3d 86 3a 9a 21 d6 bc 7e 1d 68 3d 2a 30 13 3c
       0.0010241838 -0.02613907 0.05666875 0.008983651
000270 2a 12 01 3b 44 27 a2 3c 16 c3 34 be 0c a5 b7 3d
       0.0019694665 0.019794114 -0.17652544 0.08967027
000280 e3 c1 78 bd 7c 3a da 3d 1a f0 9b 3d 6b 57 9a bc
       -0.06073178 0.10655686 0.07614155 -0.018840512
000290 80 c1 b1 bd 9a e8 70 3d 50 03 ff bd e7 4a ce bc
       -0.08679485 0.058815576 -0.12451804 -0.0251822
0002a0 89 e9 be bd e5 82 46 3d 73 7c 0d 3e 72 1f f7 bd
       -0.09321887 0.048464675 0.13817005 -0.120665446
0002b0 12 da b4 39 f4 a2 2c 3c 64 3a 8a bd 53 38 8c 3d
       0.0003449475 0.010536898 -0.067494184 0.068466805
0002c0 ec 69 81 3d c4 01 d8 bd e8 48 62 bb fa 08 0c 3e
       0.06319031 -0.10547212 -0.0034528319 0.136753
0002d0 6a 9e 44 3d 21 0d 46 bd 07 1c b4 3d 0a 0d 58 bd
       0.048002638 -0.048352364 0.08794408 -0.05274681
0002e0 63 5d 58 bc 5f dd 64 bc 1a 7b af bd d5 3a 76 3e
       -0.013205859 -0.013968795 -0.08568402 0.2404588
0002f0 4c 55 02 3e bb cc ae bd 78 3e aa ba bb 9b 90 3c
       0.1272785 -0.08535143 -0.0012988588 0.017652383
000300 d1 bf 9f 3d 90 39 8b bd 47 12 48 3d fd 1d 64 bd
       0.07800258 -0.067980886 0.048845556 -0.05569266
000310 53 ab cb bd 8f c2 03 be 85 4b 07 be 70 92 1b bd
       -0.09944787 -0.12867187 -0.13212402 -0.03798145
000320 7a ff f3 3c 0c 74 c5 bc e2 bc 9e 3b 30 03 4f bc
       0.029784907 -0.024103187 0.004844294 -0.012635037
000330 66 1b d5 bd cb 64 bb 3c c4 a2 a6 3d ef 03 ab bd
       -0.104056165 0.02287521 0.08136514 -0.0835036
000340 b1 ec d2 bb eb fa 02 3d 75 0c ad bd 28 36 ee 3b
       -0.006436907 0.031977575 -0.084496416 0.0072696395
000350 ba dc 04 be 9c 4a ba 3c b3 72 29 3e dd 04 37 3d
       -0.12974826 0.022740655 0.1654766 0.044682372
000360 be 59 09 3e a0 7a 24 be b0 c6 83 3d b2 c1 59 3d
       0.1341314 -0.16062403 0.06434381 0.053163238
000370 bb 5c 93 bd 1f a9 c8 bc 22 2b 36 bd 8e 98 45 bc
       -0.07195421 -0.024494706 -0.04447473 -0.012060298
000380 d8 11 73 bd cc 04 90 3d ee 20 bd 3d 8a f8 95 bd
       -0.05934319 0.07032165 0.092347965 -0.07322796
000390 31 63 f4 bc 26 2a 4d be 46 30 45 3c e4 85 74 be
       -0.029832454 -0.2003561 0.012035435 -0.238792
0003a0 4d 43 18 3e 27 4d 0a bd 7c 94 21 bd 8d ab f3 3d
       0.14869423 -0.033764984 -0.039448246 0.11897955
0003b0 1e 2b 45 3c 85 3e 26 bd 34 ff 6e be ac 3a 2a 3e
       0.012034206 -0.040586967 -0.2333954 0.16623944
0003c0 7e f3 f6 3d 43 af 52 bd 9f da 91 bc 9f df 77 bd
       0.12058161 -0.051436674 -0.017804442 -0.060515996
0003d0 09 c0 a4 3c 4c 3f 26 3e 7d e2 9e 3c aa 20 9a 3d
       0.0201111 0.16235083 0.019395107 0.075257614
0003e0 54 6e 97 3b b8 d0 e6 bd 6e 13 f8 3c 04 af 03 be
       0.0046213064 -0.11270279 0.030282702 -0.12859732
0003f0 97 2e 5d bd a6 80 30 be 5d c0 80 3c 7b 9c c5 bb
       -0.05399951 -0.17236575 0.015716726 -0.006030617

F.linears.0.bias f4 [32]
000000 c0 ea f9 bc 0d c0 3c 3c a6 aa 3c 3d f8 b9 b2 bd
       -0.030507445 0.011520398 0.04606118 -0.08726877
000010 2e eb 72 bd 09 ab 45 bd 2e d5 b5 bd e1 80 16 3d
       -0.059306316 -0.048258815 -0.088785514 0.036744002
000020 b4 93 87 3c 63 ac 90 3d e4 74 68 bd 1e 51 1d bd
       0.016549923 0.0706413 -0.0567521 -0.038407438
000030 9f 50 b8 bc 70 55 37 bc fc 00 c8 bb 70 1e a5 3c
       -0.02249938 -0.0111898035 -0.006103633 0.020156115
000040 9c d8 06 3c c1 86 a6 3d 0a 7b 9c 3d cc 05 c5 3c
       0.008230355 0.08131171 0.07640655 0.024050616
000050 7e 04 de bd 04 ec 3a bc 41 da c7 bd 74 73 97 bd
       -0.108407006 -0.01140881 -0.097584255 -0.07395068
000060 c8 54 62 bd 0e cc b4 bc c4 6b 23 ba 88 e8 57 bd
       -0.055256635 -0.022069957 -0.0006234015 -0.052711993
000070 60 6d 3d 3a e5 a6 db 3b fe f6 19 bc b4 e0 52 bc
       0.0007226076 0.006703245 -0.009397266 -0.012870956

F.linears.1.weight f4 [32, 32]
000000 a7 c3 03 bd ee d8 d8 3d 9a b3 93 3e 4c f0 cb bd
       -0.03216901 0.10588251 0.28847963 -0.09957942
000010 54 4b da bd 33 1d fc 3c 59 cc 77 3c 39 14 c8 bd
       -0.10658899 0.030775642 0.015124404 -0.09769482
000020 78 19 17 bd 6c ca ee 3b 14 ef 19 3d 96 c7 09 bb
       -0.036889523 0.007287314 0.03758152 -0.0021023504
000030 e0 e4 9b bd f8 77 cd bd d9 92 31 3e 05 8e df 3d
       -0.07612014 -0.10032648 0.17341174 0.1091576
000040 62 1a 4c bd 3d 00 12 bd 60 ca df 3c a4 03 ed 3d
       -0.049829848 -0.03564476 0.02731818 0.1157296
000050 63 58 51 bd 1a 8f 0c 3d 58 fa 6b 3e bf 60 df bc
       -0.051109683 0.03431616 0.23044717 -0.027267812
000060 a7 2a 20 3d 7a 1b ef 3d 46 f0 42 bd 95 8d b9 bd
       0.039103176 0.116751626 -0.047592424 -0.09060208
000070 35 de 2d be 01 5c 4c 3d f5 22 96 3c 3b d4 79 3d
       -0.16979297 0.04989243 0.018327216 0.060993414
000080 36 b6 d1 3d d0 22 1b 3d 02 ae 89 3e e3 59 46 3d
       0.10239832 0.037874997 0.2689057 0.048425566
000090 d1 07 da bc ea 96 d5 3d 53 c0 e2 3c 68 d9 91 bd
       -0.026615055 0.10429175 0.027679598 -0.07121545
0000a0 f2 1e 15 3d de cc 90 3c 04 bd 1a 3e 62 38 4f be
       0.036406465 0.017675813 0.15111166 -0.20236352
0000b0 d5 45 9d bb de ab 06 ba a7 cb 02 be 7a 22 9e 3d
       -0.0047995844 -0.00051373045 -0.12773 0.0772142
0000c0 74 f7 78 3d 9c f4 a4 3d 80 dd 23 be d1 d9 00 3c
       0.060782865 0.08054468 -0.16002464 0.0078644315
0000d0 68 c4 5f bc 1e 82 32 3d 8c 79 01 3d a8 e6 79 3d
       -0.013657667 0.04358112 0.031610057 0.061010987
0000e0 7a fe 1f be e7 82 ba bd ed c5 d1 3d df f0 33 3e
       -0.15624419 -0.09106999 0.102428295 0.17572354
0000f0 fc 2f 57 bd a5 98 e8 3d 0c 6b f1 3d ef 5f b9 3d
       -0.052535996 0.1135724 0.11787996 0.09051501
000100 09 0a 07 bd 82 07 18 3d bb 86 65 3b 95 a8 3a bd
       -0.032968555 0.037116535 0.0035022933 -0.04557093
000110 dd 90 91 bc b0 5d 7b bb e3 de 40 3c c8 81 4f be
       -0.017769272 -0.0038355403 0.01177189 -0.20264351
000120 88 8b 28 3d c1 8e 56 bd 6c 8d 86 3d 10 92 1b 3e
       0.041148692 -0.052382234 0.06569943 0.15192437
000130 2d aa 45 3e ec dc 89 bc ef 8a 2e be a6 6f c9 bb
       0.19303198 -0.016828977 -0.17045186 -0.0061473427
000140 25 2e 38 3e 1f 5b 8f bd 5b 10 24 bd f9 27 8a 3d
       0.17986353 -0.06999802 -0.04005466 0.067459054
000150 58 ae 12 3e 12 1d 1a 3e c6 54 7a bc 25 dc 83 bd
       0.1432432 0.15050152 -0.015279001 -0.064384736
000160 94 2b 2e be e4 a4 ab 3d 6c 74 81 be be af 22 3e
       -0.17008811 0.0838106 -0.25284135 0.15887353
000170 c2 84 74 3d 9e fc 78 3d 88 02 f5 3d 04 4f 7e bc
       0.05969692 0.06078779 0.119633734 -0.0155217685
000180 32 91 f0 bd e3 16 e2 bc b1 c7 11 3d d2 88 cb 3d
       -0.11746444 -0.027598804 0.03559083 0.09938206
000190 ca 86 36 bb 82 f8 39 be ac 75 3f 3d 6d a6 77 3b
       -0.0027851337 -0.18161204 0.04674308 0.0037788406
0001a0 ad 84 39 3e e3 59 40 be ed 0b 33 3e 88 a9 02 be
       0.18117018 -0.18784289 0.17485018 -0.12759984
0001b0 e9 58 1c 3d 1f d1 e6 bd a4 ba 0c be 85 36 84 be
       0.03817073 -0.112703554 -0.13743073 -0.25822845
0001c0 af 7e 13 be 67 de a7 bd 04 bc e5 bd 87 7b 67 be
       -0.14403795 -0.08196717 -0.11217502 -0.22605716
0001d0 76 26 93 3d dd 0d e8 3d af 07 e5 bd 50 e3 5d 3e
       0.0718507 0.11330769 -0.11183106 0.21668744
0001e0 61 2d 98 3d fe 20 1a 3e 95 ed f8 bb 98 fc 79 bd
       0.0743053 0.15051648 -0.0075966814 -0.061031908
0001f0 04 30 e5 3b 9c 39 21 bd 94 aa 16 3e ed 79 bd bd
       0.0069942493 -0.03936158 0.14713508 -0.09251771
000200 da 86 d7 b9 b1 87 29 3e 9e 42 b1 3d 56 14 cf bd
       -0.00041108468 0.16555668 0.08655284 -0.10111301
000210 5d 1e 0f 3e b6 25 90 bc 05 c5 de bc ec e4 04 3d
       0.13976426 -0.017596107 -0.027193556 0.03244488
000220 00 26 20 bd 3c 2b 57 bc 08 c8 6c 3d 19 85 88 3d
       -0.03909874 -0.0131328665 0.057807952 0.06666011
000230 1d f6 e7 bd 6c 34 28 be 6d 7d f0 3a 02 c8 c4 bd
       -0.11326239 -0.16426247 0.0018347927 -0.09608461
000240 97 1c 29 be 90 d7 c1 b9 da 4b 87 3d be 0f a8 bb
       -0.16514812 -0.00036972435 0.066062644 -0.0051288297
000250 7e 71 6d bd 28 30 6a 3d 39 7b 08 3c b1 b6 8a bc
       -0.057969563 0.05717483 0.00833016 -0.016932817
000260 9b f7 bf 3d bf 84 16 bd c1 02 0b be 77 fb 27 3e
       0.09373399 -0.03674769 -0.1357527 0.1640452
000270 7f da f6 3c 66 c9 d5 bd e1 1c cf 3d b9 e0 c5 bb
       0.030133484 -0.10438804 0.1011293 -0.006038752
000280 b6 05 ab bd e7 51 60 ba 67 32 dd bd 6d 22 8a 3d
       -0.08350699 -0.0008557126 -0.10800629 0.067448474
000290 80 e4 f2 bd 2f 35 32 bc 23 34 55 be 62 e5 67 be
       -0.11859989 -0.010876938 -0.2082067 -0.22646096
0002a0 3c 6b ec ba 47 3b 1d bb 1f 9e ef bd 50 d7 09 be
       -0.001803733 -0.002399163 -0.11700081 -0.13461041
0002b0 97 54 d5 3d 78 26 96 3d 37 25 91 3d 9f ab f8 3d
       0.10416525 0.07331556 0.07087176 0.12142109
0002c0 e6 d2 53 bd ba de 9e bc 03 8b c3 bc ad 15 d9 bd
       -0.0517148 -0.019393314 -0.023869997 -0.105998375
0002d0 af 48 ac bd 64 bf fe 3b 00 f3 00 3d f6 a0 c2 bc
       -0.08412301 0.0077742804 0.031481743 -0.023758393
0002e0 b8 de 86 3b c9 b5 b7 3d ed 2b 9d 3d 90 7d bd 3c
       0.0041159056 0.0897022 0.07674394 0.023131162
0002f0 61 65 42 3d 49 98 99 3d 85 a4 dc bd 9f 23 87 bd
       0.047459964 0.07499749 -0.10773567 -0.06598591
000300 6c 24 b2 bb f8 3d de bd b8 a1 c5 bd 8b 26 59 bd
       -0.0054364707 -0.10851663 -0.09649986 -0.053015273
000310 bb 4e af bd 4e 48 84 bb 32 b6 b8 3d 77 70 1e bd
       -0.085599385 -0.0040369397 0.09019126 -0.038681474
000320 bd 2d 31 be 02 8f f3 bd a7 6c ac 3d 13 6a 48 be
       -0.17302604 -0.11892511 0.08419161 -0.19571714
000330 82 18 57 3d b8 d1 cb bd 9a a3 e9 bd c4 56 2f 3e
       0.052513607 -0.0995211 -0.11408158 0.17122942
000340 7a a3 5c bd a2 4e 04 3e 87 57 41 bd 19 84 6f bd
       -0.05386684 0.12920621 -0.047202613 -0.058475588
000350 be 10 9f ba 68 48 82 bb 97 cd 59 3d 5d 27 ed bd
       -0.0012135727 -0.0039759167 0.05317458 -0.115797736
000360 a6 ce 9e 3b 2d 92 01 be 68 4d b4 3c 87 9c 6b bc
       0.0048464118 -0.12653418 0.022009566 -0.014380581
000370 57 02 5e bd 60 05 a2 ba 4c 4b a6 bc 9d 73 d1 bd
       -0.05420145 -0.0012361221 -0.020299576 -0.102271296
000380 ec 6f a2 3d 5e 49 61 3d da e6 1a be 04 ab 0e 3c
       0.07931504 0.05500161 -0.15127125 0.0087077655
000390 bd 49 6f bd d4 ef ea 3d ee 29 8f 3d b9 9a 97 3d
       -0.05841993 0.11471525 0.06990419 0.07402558
0003a0 33 ba 76 3d 9f e3 88 3b 57 dd 01 3d 69 33 4d bd
       0.060236167 0.004177525 0.031705227 -0.050097857
0003b0 a9 bb b9 bd 30 5b 1f be 93 5e ec 3c d4 60 59 bd
       -0.090689965 -0.15562129 0.02885369 -0.053070858
0003c0 0f 69 9a bd 55 5e ad 3d 6c af 92 3d b2 62 26 be
       -0.075395696 0.08465258 0.07162365 -0.16248587
0003d0 be 71 c3 3d 6d 10 60 3d 9a 03 73 3e c9 e5 ac bc
       0.09543179 0.054703165 0.23731843 -0.021105664
0003e0 19 5c a4 bd 88 f1 8b bc fe 1e cc 3c a1 8e ed 3c
       -0.08025379 -0.017082945 0.024917122 0.028998675
0003f0 15 b5 cc 3d 76 22 6a 3d 92 19 8c 3d 01 98 5f 3e
       0.09995476 0.05716177 0.06840815 0.21835329

F.linears.1.bias f4 [32]
000000 cd 63 b1 bc 6e 93 08 bd 40 1e c9 bc db 82 27 3d
       -0.021654034 -0.033343725 -0.024550557 0.040896278
000010 11 73 d8 3d cd e9 b1 3c 27 20 59 bb 40 3b f5 bc
       0.10568822 0.02171793 -0.0033130737 -0.02993548
000020 59 f0 b5 3d 08 96 4f bd 9f 1f 00 3c d2 50 b3 bd
       0.08883733 -0.05068019 0.007820039 -0.087556496
000030 e9 ee 62 3c 3d 1e c0 3d 93 04 ba ba 1d d3 bc bd
       0.013850906 0.093807675 -0.0014192037 -0.09219954
000040 43 c9 e6 3c 59 22 73 3d ce 6c 7d bd 81 d0 a0 3d
       0.028172141 0.05935893 -0.061871342 0.07852269
000050 2b 4d 6f bb 67 ec 7a bd 6c 15 e0 3c f1 2c b5 bd
       -0.0036514502 -0.061260607 0.027353965 -0.088464625
000060 d6 bf c8 3c 1d 7e 5b 3d 41 37 34 3c 45 03 a2 3d
       0.024505537 0.053587068 0.010999502 0.0791078
000070 2d 99 8a bd 85 9a 81 bd 70 99 53 3d 5b e1 cb 3d
       -0.06767497 -0.063283004 0.05166 0.099550925

F.linears.2.weight f4 [10, 32]
000000 a3 cd 42 3d b9 19 a1 bd 51 b3 df 3c 1e ac f2 b9
       0.04755939 -0.07866234 0.027307184 -0.00046286074
000010 e4 1f aa bd 8b 0b 1a 3e d5 2e 6d 3e fa c4 4b 3d
       -0.08306864 0.15043466 0.23162396 0.0497484
000020 6d 72 c2 3d ac f0 07 be 3e 68 ab 3d d9 4c 11 bd
       0.09494481 -0.13275403 0.08369492 -0.03547368
000030 15 2b 53 3d 0e ae f8 bd 3f 7a 10 3d f0 11 28 3e
       0.051554758 -0.12142573 0.035272833 0.16413093
000040 0b c0 11 3c 38 14 57 3c e3 48 2e 3e 54 be 1e 3e
       0.008895884 0.013127379 0.17019992 0.15502292
000050 c2 0a ea bc 59 7a 53 3e c0 72 bc bc b6 dc 28 3d
       -0.028569583 0.2065214 -0.023003936 0.04122611
000060 c4 3b 0f be c6 2e 18 3c 7d 0a 0b 3e 0b 81 82 bd
       -0.13987643 0.009288495 0.1357822 -0.06372269
000070 c5 2c bd 3c f0 5f 32 bd 93 d7 84 bc 81 10 59 bd
       0.023092637 -0.043548524 -0.016216075 -0.052994255
000080 ce 4f 6e 3c c4 d5 9c bd da fb 17 3d ea b0 0d 3e
       0.014545394 -0.0765796 0.03710542 0.13837019
000090 8f 35 86 bc 84 19 b7 3d 15 a9 d3 bd e0 8c 8d 3e
       -0.01638296 0.089404136 -0.10334984 0.27646542
0000a0 7e 48 23 3d 36 8c 1f be 8d 87 e6 3d 40 eb 62 3c
       0.039864056 -0.1558083 0.11256323 0.013850033
0000b0 a8 7c b3 3d cc 6d b1 bd b7 a5 f3 bc 7c af 37 3d
       0.08764011 -0.0866352 -0.029742105 0.04484509
0000c0 25 c2 cf bd ef 22 c5 3d 74 1f 0e 3d 70 0c 2a 3d
       -0.10144452 0.09625804 0.034697965 0.041515768
0000d0 0f a2 11 3d 87 bc 43 be 6b a2 5c be d0 2f 03 3e
       0.03555494 -0.19114886 -0.21546333 0.12811208
0000e0 8b e5 c6 3d bb fe d2 bd ec e3 a4 3d f5 b9 07 be
       0.097117506 -0.10302492 0.08051285 -0.1325453
0000f0 84 b3 fe bd 08 c7 4e 3c e6 1a 0e 3e 70 67 48 be
       -0.12436584 0.012620695 0.13877448 -0.19570708
000100 22 83 bc 3d 6c fe 46 3e 56 6d 7d be 01 f4 11 be
       0.09204699 0.19432992 -0.2474874 -0.14253236
000110 f2 18 2b bd 2e 88 ac 3c d1 17 ba 3b b6 82 85 3d
       -0.041771837 0.02106103 0.0056791087 0.06519072
000120 e7 f1 5c 3d f1 56 7c bb 46 4f de bd 2f 46 63 bc
       0.053941634 -0.003850397 -0.10854964 -0.013871714
000130 8a 6c a1 3c 0c bf ae 3a fa d4 fb 3b cc b1 64 bd
       0.019705076 0.0013332083 0.007685301 -0.055833623
000140 10 ae 10 be ef 26 5e 3d e5 09 17 3d 51 dd a8 3d
       -0.141289 0.05423635 0.03687467 0.08245338
000150 24 c5 36 3c df 82 d9 3d a6 69 10 be 7f f4 0d bd
       0.0111554 0.10620665 -0.14102802 -0.034656998
000160 8c 65 82 bc 8f 5a 06 3e d1 8b 69 3d c8 10 29 be
       -0.015917562 0.13120483 0.057018105 -0.16510308
000170 07 b7 d8 bd 12 4c 19 3e 24 2c bd 3b 67 bd 0c be
       -0.10581785 0.14970425 0.0057730842 -0.13744126
000180 49 6c 06 3e b1 cb 81 3e 44 bf d5 bc a4 56 15 be
       0.13127245 0.25350717 -0.02609218 -0.14583832
000190 dc f5 c7 3d 3f e3 a1 3d a5 b2 fe bd 0d e5 b2 bc
       0.09763691 0.07904672 -0.124364175 -0.021837736
0001a0 70 bf d2 3d a8 12 24 3a 85 9d 20 3d ef 4d 8b be
       0.1029042 0.00062588835 0.039212722 -0.27207896
0001b0 2f a6 2b 3e 78 62 e2 3b 5e 0d b6 bd 35 e7 1f be
       0.16762613 0.006908711 -0.08889268 -0.15615542
0001c0 b7 df 91 bd d5 1c 13 bd e5 af 33 3e 80 73 37 3e
       -0.07122748 -0.03591617 0.17547567 0.17915154
0001d0 50 7c 4f bd 17 0b 3e bd d1 38 be 3d 9e 1d f0 3b
       -0.050655663 -0.046397295 0.092881806 0.0073277494
0001e0 e0 96 0d bc 1f f1 37 bd 49 d1 58 3d 08 e3 17 3d
       -0.008641928 -0.044907685 0.052933965 0.03708175
0001f0 f1 14 00 3e 5e 5d f5 3c 5e 1b 08 3c a6 23 04 be
       0.12507989 0.029951748 0.008307306 -0.12904224
000200 a5 28 42 be 5b 13 8a 3d d6 08 83 bd 62 62 ea bd
       -0.18960817 0.06741973 -0.0639817 -0.11444546
000210 a1 bd 6e bc c0 28 18 bd ee 42 87 bd f3 8d 3d 3e
       -0.014571578 -0.037148237 -0.06604563 0.1851118
000220 65 73 89 3c ca da 58 bc 4c 78 2c 3d d5 22 4a 3e
       0.016778657 -0.013235757 0.04210691 0.1973985
000230 ed 36 fd bd 82 2a 82 bd e4 99 d4 ba 23 42 b1 bc
       -0.12363992 -0.06355764 -0.0016220179 -0.021637982
000240 dd c7 4b be 86 6d 12 bc 82 91 e6 bd 1c 2e 5e bd
       -0.1990046 -0.008937245 -0.11258222 -0.054243192
000250 e0 73 40 3d fe 5b a2 3d b6 14 87 bd 76 ea 4d be
       0.046985507 0.07927702 -0.06595747 -0.20108971
000260 af 29 d1 bd b4 95 4f 3e 96 0a ca 3d c0 99 08 bd
       -0.10213029 0.20271951 0.098653 -0.033349752
000270 22 98 84 3d d5 09 df 3d 05 be 2f be a1 eb 9e bd
       0.064743295 0.10890547 -0.1716233 -0.077597864
000280 65 60 24 3e 2d 30 d5 3c 16 da ee bc b5 5d 69 be
       0.16052397 0.026023949 -0.029156726 -0.22789653
000290 6e 75 1c 3d e5 d3 6f 3e ec 0f 8a bd e8 4f 76 3d
       0.038197927 0.23420675 -0.06741318 0.0601348
0002a0 45 ff 00 bd b4 2d 52 bd 4c f6 91 bd b8 d1 97 3d
       -0.031493444 -0.051313117 -0.071270555 0.074130476
0002b0 d5 fd e8 3c 1e ab a2 bd d5 d5 9f bd a1 28 14 3d
       0.028441349 -0.07942794 -0.07804457 0.03617156
0002c0 f0 3d db bd 7f 5a 01 3e 38 eb e6 bc c2 11 e7 3c
       -0.10705173 0.12632178 -0.028188333 0.02820671
0002d0 cf b4 36 be 26 13 bb bd bc f2 2d 3e 04 2c 35 3e
       -0.1784241 -0.09134512 0.16987127 0.17692572
0002e0 a3 c8 38 bc c7 b8 18 be e8 89 7a bd 53 81 27 be
       -0.011278304 -0.14914237 -0.061166674 -0.16357927
0002f0 43 61 dd bd 1d 55 20 bd 82 dc 00 bb 6e 53 9b bc
       -0.10809567 -0.03914367 -0.0019662683 -0.01896068
000300 5d d3 9e 3d a9 f5 b8 bd da d8 30 3e 76 91 67 bd
       0.07755158 -0.09031231 0.17270222 -0.056535207
000310 3d 51 82 3d 7f 67 1f 3e a7 96 eb 3d f6 04 a4 3d
       0.06363151 0.15566824 0.11503344 0.08008759
000320 57 33 c1 3d 2f e0 90 3d ce bc 5e be 43 e9 56 bc
       0.094336204 0.070740096 -0.21751711 -0.013117137
000330 44 14 8d bd a8 e0 cc bc d4 54 a0 3c cc 5c 2b be
       -0.06888631 -0.025009468 0.0195717 -0.16734618
000340 4e 5e a4 3d 60 18 8c 3c 6f dd 05 3e fd 5a a7 3c
       0.080258 0.017101467 0.13072751 0.020429129
000350 e8 ea 99 bd a5 63 20 be 0b 54 4a 3d e6 61 2b 3b
       -0.07515508 -0.15663011 0.049396556 0.0026150881
000360 17 fd e6 3d 61 17 37 3d b7 b6 94 3d 67 4b 79 bd
       0.11278742 0.04470003 0.072614126 -0.060862925
000370 07 ab c9 3b b4 85 c0 3d b1 46 be bc 2b 24 94 bd
       0.0061544213 0.09400502 -0.023227068 -0.07233461
000380 97 5b 25 3d 39 b9 0f be 1d 24 24 3d e7 71 be bd
       0.04037055 -0.140355 0.040073503 -0.09299069
000390 a1 3b 94 3c 98 fe 73 3b 62 ac c3 bd 22 a9 06 3e
       0.01809484 0.0037230607 -0.09554364 0.13150457
0003a0 3a fd 19 be 58 c4 01 be cf f1 cc 3d eb f4 f4 bd
       -0.15038005 -0.12672555 0.10007059 -0.11960777
0003b0 8d 50 d6 bd 36 5c 3b 3b 44 27 f9 bd f6 6f 7f bd
       -0.104645826 0.0028588898 -0.121656924 -0.062362634
0003c0 40 21 91 3d e5 a5 2f 3e 59 37 52 3d dc 80 7e 3e
       0.0708642 0.17153127 0.051322315 0.24853843
0003d0 a5 e5 b3 bd d5 8b f3 3d 74 46 6b bc e7 b9 8b 3d
       -0.087840356 0.11891905 -0.014360059 0.068225674
0003e0 fc 75 70 be 42 1b da bb f0 d9 bb bc 23 1c b1 bd
       -0.23482507 -0.0066560814 -0.02293107 -0.08647945
0003f0 b9 6b c6 3d a7 34 e9 bc f8 54 21 be 22 2f 4d 3e
       0.09688515 -0.02846749 -0.1575507 0.20037511

F.linears.2.bias f4 [10]
000000 e6 2c f1 3c 9f f2 82 bd e9 73 33 3d e7 c3 e7 bb
       0.029440355 -0.063939326 0.043811712 -0.007072914
000010 2a 67 e6 bc dc ee 3d bd 2c da 04 bb c3 b4 8e 3d
       -0.028125364 -0.046370372 -0.0020271642 0.06968071
000020 89 d8 8a 3d db 66 be bc
       0.06779582 -0.023242405

G.0.linears.0.weight f4 [32, 10]
000000 db 7c 06 bc 14 c9 0e 3d 80 7a 02 3e 2a 99 1b 3d
       -0.008208479 0.03485973 0.12742043 0.037987866
000010 02 f3 81 bc 10 e8 1d 3d 85 d1 6f 3d 5f 1e 0e 3e
       -0.015862945 0.03855139 0.058549423 0.13878773
000020 af 9b b5 bd 79 38 14 be 2a 40 d5 3d 0e dd 00 bc
       -0.08867585 -0.14474668 0.10412629 -0.007865204
000030 bb 29 34 be 06 cb 94 3c 9b b3 35 be c2 4d 84 3c
       -0.17594044 0.018163215 -0.17744295 0.016150359
000040 b4 00 c4 bc 89 74 82 bd 21 5b 81 bc 21 03 03 bc
       -0.023926117 -0.063698836 -0.015790524 -0.007996351
000050 8b 81 4d bd 37 bc e5 bc f7 e8 5c bd 0f 41 ff bb
       -0.05017237 -0.02804385 -0.05393311 -0.007789738
000060 ac ae c6 3c 02 de e3 3d c4 ef de bc 21 68 a9 bd
       0.024253212 0.11126329 -0.027213939 -0.08271814
000070 a2 c8 d1 3c 93 8d cf 3d 61 6c 0c 3e 59 ba 1d 3d
       0.025608364 0.10134425 0.13713218 0.038507793
000080 85 9d ae 3d 56 db 3a bd 74 03 43 be cb 51 02 be
       0.08526138 -0.04561933 -0.19044286 -0.12726514
000090 45 91 e4 bd 9e c5 94 3b 4c c7 dc 3c 88 88 f5 bc
       -0.111605205 0.0045401594 0.0269505 -0.02997233
0000a0 17 f4 ea 3d 92 43 b4 3d 03 10 97 bd b3 0c 26 3d
       0.11472338 0.088019505 -0.07376101 0.040539455
0000b0 3f 33 b2 3d d6 80 42 3d 2e 54 be bd 7e 74 41 be
       0.08701181 0.04748615 -0.092934 -0.18892094
0000c0 f2 3d 89 3d c9 5c f0 3c 24 2f 17 bb db 13 60 3c
       0.06701268 0.029341118 -0.002306887 0.013676609
0000d0 1b b1 0c 3e 7e 03 a0 bd 7b d3 85 3d f1 20 06 bd
       0.13739435 -0.07813166 0.06534477 -0.03274626
0000e0 a5 e7 64 ba 9a 44 76 3d 11 7e 04 be c2 75 f9 bd
       -0.00087320275 0.060124017 -0.12938716 -0.12180664
0000f0 fc 64 3d 3e 38 a5 84 3d 1e d2 ad 3d 0e a6 24 be
       0.18495554 0.064768255 0.08487342 -0.1607897
000100 b2 3a b2 3c cc 2c 51 bd 1c f4 6d 3d 7c 40 1c bd
       0.021756504 -0.051068112 0.05809413 -0.038147435
000110 8f c6 65 bd 8e e2 aa bd 2a 06 b7 bc 19 8c 26 3e
       -0.056097563 -0.08343993 -0.022341806 0.1626438
000120 ad c2 25 bd 9b e7 0e 3c 3f 29 80 3d 54 b8 bc bd
       -0.04046886 0.008722211 0.06257867 -0.09214845
000130 b0 52 26 be c7 82 67 3d 87 13 85 3c 88 dd cd 3c
       -0.1624248 0.056521203 0.016244663 0.025130048
000140 fa 7c 1b be 01 52 d5 3d e0 20 15 3e 6a 03 f9 3b
       -0.15184394 0.10416032 0.14563322 0.007599284
000150 89 3c c9 3d 72 d9 75 bd f4 a9 4c 3d eb b8 c4 bc
       0.09825999 -0.060021825 0.049966767 -0.024013957
000160 08 fe b8 bc 1d 6e 83 3d 4b 67 80 3d cb da 7e bb
       -0.022582069 0.06417487 0.062697016 -0.0038887735
000170 87 ef 39 3c 5d 93 0c bd ee fb ae bb eb 6e 62 bd
       0.011348612 -0.034320224 -0.005340091 -0.05528156
000180 c8 31 25 3e 12 f6 be bd a2 92 87 3c 3e db 12 3e
       0.16132271 -0.09324278 0.016549412 0.14341447
000190 8d ff 24 bb 46 be 45 bd b4 8d 13 3e 0f 4f 3f be
       -0.0025176734 -0.048277162 0.14409524 -0.18682502
0001a0 1b 3a 2f 3e c0 7a 73 3d 4f c3 c3 3d df 71 2c 3d
       0.17112009 0.059443235 0.095587365 0.042100783
0001b0 01 73 af 3d 4c 74 c3 ba 3b de 23 be 0a a7 a3 bd
       0.08566857 -0.0014911979 -0.16002743 -0.079908445
0001c0 5c b8 fa 3c 84 5c 11 3d e6 0e 19 bc 20 c5 d2 3c
       0.030605488 0.03548862 -0.009341931 0.025728762
0001d0 35 6b 88 3c ea c8 09 be 51 cc 01 3c 89 6c e8 3d
       0.016652683 -0.13455549 0.007922248 0.113488264
0001e0 f8 69 c9 bd 16 53 fb bb be 9c f8 bd d0 f3 2b bd
       -0.09834665 -0.0076698167 -0.12139271 -0.041980565
0001f0 75 bc ee bd 5b c1 86 3c 06 bc e6 bc 45 c0 7a bd
       -0.11657039 0.016449621 -0.028165828 -0.06121852
000200 73 24 f8 3c 37 b7 ef 3c 3e 48 3b 3e d2 e5 28 3d
       0.030290818 0.029262168 0.18289277 0.0412348
000210 2b 9e 87 3d 64 56 b4 bc aa bb 3e bd 3e 84 99 3c
       0.06621965 -0.02201385 -0.04656569 0.018739816
000220 9d be de bd 54 af 94 bd ff c7 6f be 61 cb bf 3d
       -0.108762 -0.07260004 -0.23416136 0.09364963
000230 79 3d 24 bd 25 d9 58 3d 88 91 19 3d 38 2d cf bd
       -0.040097687 0.05294146 0.037492305 -0.10116047
000240 33 ac f8 3d 52 ad de 3c f9 75 1f 3d d6 c4 2f 3d
       0.121422194 0.027182255 0.038930867 0.042912327
000250 4c 4a 18 3e f2 c4 45 bd 10 cc b5 3c 82 0e 56 3d
       0.14872092 -0.048283525 0.022192031 0.05225993
000260 bc 76 b6 bd 4b fc 9f bd 94 a8 17 3e ef a2 b1 3b
       -0.089093655 -0.07811793 0.14810401 0.0054210345
000270 e4 ef 8f 3d 23 55 0a 3e 84 cf 80 3e ed ef 69 3e
       0.070281774 0.1350904 0.25158322 0.2284543
000280 35 b8 2c 3d ee 4c 25 bc ac 67 08 3e 35 89 b5 3d
       0.04216786 -0.010089142 0.13320798 0.08864061
000290 95 d1 7b bc 71 88 9b 3d 04 22 b9 3d 50 8d 39 3e
       -0.0153697925 0.075943835 0.09039691 0.18120313
0002a0 06 de 18 3e b0 0c 65 3b b3 46 ce bc d2 0b f8 3b
       0.14928445 0.003495019 -0.025180196 0.0075697685
0002b0 69 88 1a bc 8f 1a 19 bd be 4f 8e 3d ef d1 06 bd
       -0.009431937 -0.037378844 0.06948803 -0.032915052
0002c0 18 fc 8e 3d 4f af 30 3e dd d9 97 bd 97 e2 cf bc
       0.06981677 0.17254375 -0.07414601 -0.025376601
0002d0 92 d0 bd 3d 2d 01 de 3d 24 66 a5 3d a8 e9 62 3c
       0.09268297 0.10840068 0.080761224 0.013849653
0002e0 54 5c 8f bc 84 3c 9a 3d 28 c7 47 bd d3 a3 bc 3b
       -0.01750008 0.07531074 -0.048773915 0.005756834
0002f0 f8 fc af 3d 0f 53 13 be 8e a6 0b bd 53 94 60 be
       0.08593172 -0.14387153 -0.034094386 -0.21931581
000300 59 20 8e bd 40 9e 13 3d cf 8c 89 bd 9a 2e ad bd
       -0.069397636 0.03603959 -0.0671631 -0.08456154
000310 80 aa 21 3e 5d 7b 08 3d cf 48 04 be 64 62 bc 3b
       0.15787697 0.033320773 -0.129184 0.0057490338
000320 35 d7 0f be ad 89 9f bd 0b 5b 1a bd 1c 49 10 3e
       -0.14046939 -0.077899314 -0.03768448 0.14090389
000330 4b 7e 95 3d 22 b6 8c bd 88 fd 1e be c2 bc 88 bd
       0.07299479 -0.068706766 -0.15526402 -0.06676628
000340 2c fc e1 bc 63 7f 55 bd 98 57 25 3d b3 22 be 3d
       -0.027586065 -0.05212344 0.04036674 0.09283962
000350 b2 e4 9f bd 99 ee 72 bd 7f 9a 08 bd 28 4c 73 be
       -0.07807292 -0.059309576 -0.033350464 -0.2375952
000360 a2 6d 9e bd 21 0f 00 be 06 60 27 3e 32 6e 2c bd
       -0.077357545 -0.12505771 0.16345224 -0.042097278
000370 fe 76 21 be e7 99 70 bd 14 7f 82 3d 87 e6 18 be
       -0.15768048 -0.058740523 0.063718945 -0.14931689
000380 79 b8 01 be c7 5f 0f 3e db 95 b0 bd 33 1b 06 be
       -0.12668027 0.1400138 -0.08622333 -0.13096313
000390 64 55 61 bb 6e 0c 2b bd e5 58 23 3e f0 56 96 3e
       -0.0034383172 -0.0417599 0.1595188 0.29363203
0003a0 66 fb 16 3d 82 34 d6 bd 8c e3 63 be 20 8a 19 3b
       0.036860846 -0.10459234 -0.22254771 0.0023428276
0003b0 ee 84 d9 3d 1c 8f 84 3d 88 75 5a bb 3a ad 14 3e
       0.106210575 0.064726084 -0.0033334214 0.14519206
0003c0 ca 76 ee 3d ea a7 36 bd 8a 9b f2 3d d2 90 47 3e
       0.11643751 -0.04459373 0.11846073 0.19488838
0003d0 10 21 f9 bd 5f 8c 03 3c 8b 60 91 3c cd 06 c5 3d
       -0.12164509 0.008029073 0.01774623 0.09620438
0003e0 84 71 fb 3d 40 91 23 be 5b ce 91 ba 60 8e d4 bd
       0.12277511 -0.15973377 -0.0011124121 -0.103787184
0003f0 45 fc be bd ef 72 e1 3d cd 78 78 be d9 ec 0b be
       -0.0932546 0.1100825 -0.24264832 -0.13664569

G.0.linears.0.bias f4 [32]
000000 b9 3f 6d bd 5e 40 10 bd 2b 9d b7 3d 62 77 8a bb
       -0.0579221 -0.035217635 0.08965524 -0.0042256573
000010 07 15 31 3d 09 f2 41 3d 36 18 8e bd e3 ea 15 3c
       0.043232944 0.047349963 -0.069382116 0.00915024
000020 c1 4b af 3d ec b3 b9 bd 94 e9 35 3d 35 c1 08 bd
       0.08559371 -0.090675205 0.04441221 -0.03338738
000030 a6 0c d8 bd f4 b5 dc bc 21 4a a1 3b 82 87 21 bd
       -0.105492875 -0.02694223 0.004922167 -0.03943587
000040 fe 80 95 3d 41 20 8d 3d 02 69 0f bd 6b f8 ad bd
       0.07299994 0.068909176 -0.035012253 -0.084946476
000050 2e 41 36 bd 2e 03 23 3d 4d d2 cb bd 5b 4b 93 3d
       -0.044495754 0.039797954 -0.09952221 0.07192107
000060 c5 81 bc 3d 32 ba 89 3d 66 0e cc 3c b9 f1 7a bc
       0.09204439 0.06724967 0.02490921 -0.01531642
000070 be c9 0a bd 43 c3 9c bd 9c 24 bf bd f7 5b 43 bc
       -0.033883803 -0.07654431 -0.093331546 -0.011923782

G.0.linears.1.weight f4 [32, 32]
000000 5f cc 18 3c 41 84 4d 3d 81 67 b5 bd 57 6b 0b 3c
       0.00932607 0.050174955 -0.088576324 0.0085094785
000010 b1 f3 32 3d 5d c2 a3 3e 76 9e 21 be 51 34 a9 bc
       0.043689433 0.31984225 -0.15783104 -0.02065483
000020 b4 6a e6 3c 30 86 17 be 1c d5 9c bc 11 5b 0e bd
       0.028127052 -0.14797282 -0.019144587 -0.034754816
000030 16 be 17 bd 55 af 6d 3d c3 1f 5d be 33 12 92 3c
       -0.037046514 0.058028538 -0.21594147 0.017830944
000040 50 c8 80 3d fa 5d 51 3d 49 10 ce 3c 87 bd dc bb
       0.062882066 0.051115014 0.02515425 -0.0067364606
000050 f3 7d b7 bb 85 d6 03 3e 45 ec b8 3d 3a f6 be 3b
       -0.005599731 0.12874801 0.0902944 0.0058276923
000060 62 87 fe 3d 2b 57 24 3e d5 88 36 3e 9c 92 b9 3d
       0.12428166 0.16048877 0.17825635 0.09061167
000070 14 35 22 3e 32 57 96 bd 7b 4e f1 3d c9 44 97 3d
       0.1584056 -0.0734085 0.11782547 0.073861666
000080 ff 65 9d 3c 76 46 dd 3d 0f 80 67 3e cb 6a aa 3d
       0.019213675 0.10804455 0.22607444 0.083211504
000090 10 e1 85 3d 61 0c e1 bd 37 a2 29 be 63 d3 f9 3d
       0.06537068 -0.10988689 -0.16565786 0.12198522
0000a0 5d 6a 5f bd 78 c0 f6 3c 74 88 6c 3d 17 ca dc 3d
       -0.054544795 0.030121073 0.05774732 0.10780733
0000b0 44 2a d2 bc b9 22 c0 bd c2 5c 0e 3d c5 24 a7 3c
       -0.02565492 -0.09381623 0.03475643 0.020403275
0000c0 12 c6 a7 bd 14 16 5c 3d 3c e0 03 be 22 bb 17 be
       -0.08192076 0.053731993 -0.12878507 -0.14817479
0000d0 a4 d3 7d bd 30 06 ef 3d c7 45 2c be 07 31 f9 bd
       -0.061969414 0.11671102 -0.16823493 -0.12167554
0000e0 17 f6 cb 3c 0b 43 93 3d 76 ef 22 3e 5d a7 95 3c
       0.024897618 0.07190522 0.1591166 0.018268282
0000f0 9c 5c 61 bd 77 aa 1e 3e 7d 28 98 bc 0c 7a 66 3c
       -0.05501996 0.15494715 -0.018573994 0.014067184
000100 f4 3b 58 be 7f 5c 27 3d 3b f0 28 bc c1 70 c8 3c
       -0.2111662 0.040859696 -0.010311182 0.024467828
000110 54 8c 3f bd 11 a2 a6 bd ca b4 54 3d a2 54 09 3e
       -0.046764687 -0.081363805 0.051930226 0.13411191
000120 aa 74 9a 3c 6f 54 07 3d ed 3d 91 3b c9 ef 8e 3c
       0.018854458 0.033039507 0.004432431 0.017448323
000130 4a b0 9d 3d 21 d9 45 be 73 65 11 3d 1b 6c f4 3d
       0.0769964 -0.1932111 0.03549714 0.11934682
000140 15 28 32 be af bc 06 be 8a 64 58 bd 84 00 63 be
       -0.17398103 -0.13157915 -0.052830257 -0.22168165
000150 e6 a7 f9 3b ef ac c2 3d 5f 82 85 3d 44 81 78 3d
       0.007618892 0.09505641 0.06519007 0.060670152
000160 00 b8 c0 bb 10 dd 21 bc 4b 52 26 bc e8 7c 73 bc
       -0.0058813095 -0.009879366 -0.010151456 -0.014861323
000170 df b9 01 3e ef eb a8 bc 8b af 7f 3c 6f 68 80 3d
       0.1266856 -0.020620314 0.015605818 0.06269919
000180 89 26 26 3e f4 18 fe bc 50 2d df 3a ef 25 85 3c
       0.16225637 -0.031017758 0.0017027054 0.01625344
000190 1a e6 8b 3d b2 d9 18 bc 20 dc 0a be 8f 4d 59 3d
       0.06830998 -0.009329246 -0.13560534 0.05305248
0001a0 cc 4f d5 3c dc ee e6 3c 99 85 6e 3b 2b 99 29 be
       0.026039027 0.028190069 0.0036395548 -0.16562335
0001b0 1e e0 0f be bb 2d 95 3d 81 08 b0 3d a4 82 25 bd
       -0.14050338 0.07284113 0.08595372 -0.04040779
0001c0 6f 7a 78 bd 6d 2d 13 be af 2d 56 3d f4 f8 0d 3d
       -0.060663637 -0.14372797 0.05228966 0.03466125
0001d0 57 16 10 bc e5 a9 48 be 9b 26 d5 bc b0 4c 66 3a
       -0.008794389 -0.1959606 -0.026019385 0.0008785231
0001e0 4e dd 1f be 3b 20 7b 3e a0 39 bc 3d 11 50 79 3d
       -0.15611765 0.24524014 0.091906786 0.060867373
0001f0 1a 4d 5f bd 87 ff 87 bd bc b1 7b bd b3 1e 58 be
       -0.05451689 -0.06640535 -0.061448798 -0.21105461
000200 c9 e2 cd 3b 42 6a c8 3d 52 06 b0 bc e0 04 0b be
       0.0062831384 0.09785892 -0.021487389 -0.13576078
000210 a0 da 23 be d4 e1 73 bd 31 ca ca 3d e2 44 48 bd
       -0.16001368 -0.05954154 0.09901846 -0.048893817
000220 85 87 0b 3e 4e f6 9a bc 7f 74 8d bd c3 91 91 3d
       0.13625915 -0.018916275 -0.069069855 0.0710788
000230 c4 e2 98 bd b9 ad 92 3d de 13 3d be c0 20 21 3d
       -0.07465127 0.07162041 -0.1846461 0.039337873
000240 f7 f9 92 3d 04 2a 8f be 7a 0d ed 3d a0 51 a6 3d
       0.07176583 -0.27961743 0.11574836 0.081210375
000250 fb 04 81 bc c0 8f da 3d 8f a7 9d 3c 19 05 00 be
       -0.015749445 0.106719494 0.019244937 -0.12501945
000260 42 dd 33 3e 81 95 82 3d 0b f5 fa 3c d8 8a 98 3d
       0.17564872 0.06376172 0.030634424 0.07448357
000270 76 22 32 3e ac ef 3b be 52 88 17 3e 6a 3c bf 3d
       0.17395958 -0.18353146 0.14798096 0.09337695
000280 ac 7c b6 3d 2c 9b 3b 3b 94 72 e7 3d 0d 9f 3e 3e
       0.08910498 0.0028626425 0.11301151 0.1861536
000290 e2 71 34 ba cb 82 c2 3d 98 d6 a0 bd 17 92 41 be
       -0.0006883425 0.09497603 -0.078534305 -0.18903385
0002a0 20 72 3e 3e 36 c0 a4 3c 75 17 88 3d c1 d2 1f bb
       0.18598223 0.020111185 0.06645099 -0.0024387094
0002b0 42 5e c3 bd c5 a2 63 bb 16 0b 97 3d 60 2a 1f 3e
       -0.095394626 -0.003473447 0.07375161 0.15543509
0002c0 64 00 b2 3d a9 a2 c3 3b 53 eb de 3d 75 44 35 3d
       0.08691481 0.0059703183 0.10884728 0.04425474
0002d0 4b 92 cb 3d 24 7b 93 3d 63 e1 2a bd 67 a9 02 3e
       0.099400125 0.072012216 -0.04171885 0.12759934
0002e0 cf 37 17 3d 0a fc a3 bb 35 86 e0 3d 1d da 4c be
       0.036918458 -0.0050044106 0.10963098 -0.20005079
0002f0 a1 40 e9 bc 09 59 c5 bb e3 f9 bb bd 99 05 9a 3d
       -0.0284732 -0.0060225767 -0.091785215 0.07520599
000300 da 30 bf b9 00 8e ad bc 53 21 12 be d4 51 8f bd
       -0.00036466756 -0.021185875 -0.14270525 -0.06998029
000310 4d 7a 35 3e 42 47 c3 3c 45 6d 98 3d 62 ee 1b 3c
       0.17722435 0.02383769 0.074427165 0.009517284
000320 b1 44 8b 3d d8 1a c6 bd c9 d4 2b bd 59 f3 80 be
       0.06800211 -0.09673089 -0.041950975 -0.2518566
000330 e2 8c 84 bb 67 ad 2e bb 05 96 2b 3e 4a f0 b1 bd
       -0.004045115 -0.0026653649 0.16756447 -0.086884096
000340 4b 58 1f bd 2e 52 34 be a9 95 e9 3c 73 59 c9 bd
       -0.038902562 -0.17609474 0.028513746 -0.09831514
000350 9b c0 94 bc a6 d7 11 be 92 d0 1e 3e 11 7f 9b 3d
       -0.018158248 -0.1424242 0.15509251 0.07592595
000360 cf 11 c7 bc 8c 95 47 3e be f9 90 3c 91 71 b7 bc
       -0.024300484 0.19490641 0.017697211 -0.02239302
000370 fd 86 60 bd 20 8c fe 3d 3a 79 04 bd da 55 e2 3c
       -0.054816235 0.124290705 -0.032342173 0.027628828
000380 ae b8 36 3d ea 61 82 bc 7a 8d 98 bd b6 ed a5 3d
       0.044609718 -0.01591583 -0.074488595 0.081019804
000390 31 0e 01 3e 07 a0 b9 bc 12 3b 26 bd 4e 88 3d 3d
       0.1260307 -0.022659315 -0.040583678 0.04627257
0003a0 20 27 58 b9 bd 3e a9 bd 5a 58 54 bd a5 50 00 3d
       -0.0002061394 -0.082639195 -0.05184207 0.03132691
0003b0 24 ee 12 be 4c cb a9 3d 70 a7 3c 3d 7d 6f 4c 3e
       -0.14348656 0.08290729 0.04605812 0.19964404
0003c0 57 a1 dc bd 71 2f 5d 3d 14 91 9f 3c 3c 0a 04 be
       -0.10772961 0.05400032 0.019478358 -0.12894529
0003d0 f5 83 30 be db b4 5e be 2b f5 d9 3c f4 4a 8f bd
       -0.17237838 -0.21748678 0.026606163 -0.06996718
0003e0 3e 35 10 3d 69 0f 0f 3e da 8d 8a 3d 58 db b9 bd
       0.035207026 0.13970722 0.06765337 -0.090750396
0003f0 6b 6b 82 3d 50 ac e9 bb 86 9f ba bd a2 bb 16 be
       0.063681446 -0.007131137 -0.09112458 -0.14720014

G.0.linears.1.bias f4 [32]
000000 64 11 70 39 28 4c 96 3d 36 d2 02 3d 2d 49 82 3c
       0.00022894662 0.073387444 0.031938754 0.015904034
000010 b2 d8 b9 bd c8 e4 3d 3c 10 04 a3 bd 9b a1 23 3d
       -0.090745345 0.01159019 -0.07959759 0.03994904
000020 5e b8 8d 3d c1 80 3b bd 2c fa 87 bd 4c b9 e8 3c
       0.06919931 -0.045777086 -0.066395134 0.028408669
000030 3c 60 8c bc 7d 19 77 3d db 54 a8 bd 07 e3 a6 3d
       -0.017135732 0.060327042 -0.0821931 0.08148771
000040 1b a9 9d bd b4 f9 35 bd 27 15 c2 bd 30 68 a6 3d
       -0.0769827 -0.04442759 -0.09476691 0.08125341
000050 f9 69 98 3d 20 87 25 3d 82 af 1e bd 39 d0 3b bd
       0.07442088 0.04041207 -0.038741596 -0.045852873
000060 fb 05 e8 bc 67 aa 84 3d 6c 5b 89 3c 34 92 ba 3d
       -0.028323164 0.06477814 0.016767226 0.09109917
000070 72 72 5f 3d 07 bb 82 bb 7f b7 1e 3c 6c c2 79 bd
       0.054552503 -0.0039895806 0.009687304 -0.06097643

G.0.linears.2.weight f4 [10, 32]
000000 64 7b d6 3c 7b 74 a1 3c 0d 1a ef 3d f0 e8 87 3d
       0.026181884 0.019708863 0.11674891 0.06636226
000010 92 cd cb bc fa 3d b4 3d 22 9e 78 3d 36 12 de 3c
       -0.024878297 0.088008836 0.060697682 0.027108293
000020 fd c5 7d 3e 62 96 42 3d b1 b7 3a 3d 4c af d3 3b
       0.24782558 0.047506697 0.045585338 0.006460106
000030 b6 4b df 3d ea fa fc bb 9c b9 15 be 9e a2 bd bd
       0.109031126 -0.007720341 -0.14621586 -0.092595324
000040 14 23 1e be 05 33 05 be 48 e1 47 be 4f 3f 79 3d
       -0.15443069 -0.13007744 -0.19519532 0.06085139
000050 9f 54 fd 3c 6b e9 fb bd 06 ed 93 bd 9a dc 8b 3e
       0.03092414 -0.1230038 -0.07222943 0.27316743
000060 ca 91 95 bd f7 55 70 bc 52 ad 8f 3c 0b 38 a9 3d
       -0.07303198 -0.014668933 0.0175387 0.082626425
000070 99 31 2f 3e 19 e6 82 3b d6 bc 87 bc da 10 e2 bd
       0.17108764 0.003994715 -0.016569536 -0.110383704
000080 f9 47 4a be 8e a5 43 3d e5 cb 96 bd 71 c7 e4 bc
       -0.19754018 0.047765307 -0.073631085 -0.027927132
000090 09 21 37 3d 1f bb 26 3d 6d 45 7a 3e 2c 0b 96 bd
       0.04470924 0.040705796 0.24440546 -0.073263496
0000a0 cc 0c 2b 3e 08 07 1b be ef 35 01 3d 13 1f a1 bd
       0.167041 -0.15139401 0.031545576 -0.07867255
0000b0 92 a3 27 be b3 b6 a0 3c 01 ce 3f bc 2e 01 46 3e
       -0.16370991 0.019618368 -0.01170683 0.19336388
0000c0 06 39 b9 bc 98 77 0d be 33 27 22 3e 07 0b 69 3d
       -0.022610199 -0.13815153 0.15835266 0.056895282
0000d0 02 5c a4 bd 21 da e9 3c f6 91 82 bd 45 49 66 bc
       -0.080253616 0.028546395 -0.06375496 -0.014055555
0000e0 86 6e 37 3d 53 2c 51 be af 29 b9 bd e2 5c 86 3c
       0.044783138 -0.20427065 -0.09041154 0.016401712
0000f0 72 5d 32 3e 43 f6 0d bc 1f f3 e8 3c 5a da ec bd
       0.17418459 -0.00866467 0.028436242 -0.11565085
000100 11 22 ab bd 0e 4b 56 be 47 2c b8 bd 45 d6 77 bd
       -0.08356107 -0.20927069 -0.0899282 -0.060507078
000110 d6 4f 96 3d 22 77 47 3d bd b5 1c be f8 75 39 3d
       0.07339446 0.0486976 -0.15303703 0.04527852
000120 4c a6 da bc 85 27 dc bc 68 5d 19 3d fa 19 b2 bd
       -0.026690625 -0.026874313 0.037442595 -0.08696361
000130 83 db 54 be 45 0e 63 3d c4 ce 2e bc 14 89 e1 bd
       -0.20786862 0.05543353 -0.010669414 -0.11012474
000140 66 ac b6 3c 04 8d 1f 3d bf 17 a5 3d 16 9f b1 3d
       0.022299003 0.038952842 0.0806117 0.08672921
000150 a0 4d d2 3c 74 93 b9 3d f4 c6 f9 bd 76 b3 e8 3b
       0.02567178 0.090613276 -0.121961504 0.0071014715
000160 f7 ec 95 3b 31 2e f0 bd 97 49 87 bd d1 3a a7 3d
       0.0045753676 -0.1172756 -0.06605833 0.08165515
000170 ea bc 4d bd 65 4f 00 be 37 e2 fb 3c 1e 0f 41 3e
       -0.05022899 -0.12530287 0.030747516 0.18853423
000180 94 a4 e3 3c 44 fe 9d 3d af 87 e8 3c 44 3c 07 bc
       0.027788438 0.07714513 0.028385011 -0.008254115
000190 14 f4 ce 3d 1e 0b 50 be 4d 75 2a 3d af 9e 9a 3d
       0.10105148 -0.20316741 0.041615773 0.07549798
0001a0 78 19 08 3b da 13 b3 bd de af 6b bd 76 f6 8d bd
       0.0020767134 -0.08744021 -0.057540767 -0.06931774
0001b0 cd 9b b8 bc 3f 93 6d bd 72 b2 83 3d 6a 4a 94 3c
       -0.02253523 -0.058001753 0.0643052 0.01810189
0001c0 a0 88 ea 3d 6c d7 77 3c 7e 62 8f 3d f1 89 38 3e
       0.114518404 0.015127044 0.07001208 0.1802137
0001d0 7e b2 71 3d ef b4 bf 3c e1 cd e9 bb fa 85 5e bb
       0.059008114 0.023401706 -0.0071351384 -0.0033954368
0001e0 7f 53 8f bd c1 0a 82 bc 0e 54 54 3c 40 c7 11 3e
       -0.069983475 -0.015874268 0.012959493 0.14236164
0001f0 61 31 5a 3e fd 17 5b 3e 0b ad db bc 7b bb d2 3c
       0.21307899 0.2139587 -0.026815912 0.025724163
000200 dd e3 80 3d 34 83 4f 3d 03 2e 87 3d 47 2e d3 3d
       0.062934615 0.050662234 0.06600573 0.10311561
000210 d7 de 4d bd 75 20 ea bd 44 06 26 3d ff d1 ae 3c
       -0.050261345 -0.11431972 0.04053332 0.021340368
000220 30 06 89 3d b5 5d b2 bd 91 bf 51 bc 69 87 28 3e
       0.06690633 -0.087092794 -0.012802021 0.16457905
000230 c4 4f b8 3c b9 b0 d9 3c a8 c9 6e bd 11 fd 01 bc
       0.022498973 0.026573526 -0.058297783 -0.007933871
000240 b6 0f d3 3d 8c a9 c0 3c 66 2c 04 bb 00 e9 89 3d
       0.10305731 0.023518346 -0.0020168065 0.06733894
000250 39 ec 10 bd 53 d6 27 bd 40 2b 9d 3d fb 37 31 3d
       -0.03538153 -0.04097588 0.07674265 0.043266278
000260 e0 04 00 3e f6 e2 a6 bc 1a 69 71 3d 90 f6 83 bd
       0.1250186 -0.020371895 0.058938123 -0.064435124
000270 10 7c 4f 3d fc cb 8f b9 21 6d 50 3d e0 37 6a bd
       0.050655425 -0.00027427066 0.050885323 -0.057182193
000280 3f 85 2b 3d 64 46 2f bd 72 e9 1a 3c 07 74 ac bd
       0.04187512 -0.04279174 0.009455072 -0.08420568
000290 1b d1 18 be 6e 68 c8 bc b1 fd 44 bd 52 bc da 3d
       -0.14923517 -0.024463858 -0.0480935 0.106804505
0002a0 b0 ae b8 3d 94 cd 91 3b 91 16 85 bd 02 f9 ed 3d
       0.09017694 0.0044495557 -0.06498445 0.1161976
0002b0 68 76 af bd 56 f4 25 3d 54 c4 70 3c ad 09 ca 3c
       -0.08567506 0.04051622 0.014695246 0.024662817
0002c0 e8 01 13 be fa cc e7 bd af e5 ed bd 9e 08 60 bc
       -0.14356196 -0.11318393 -0.11616074 -0.0136739295
0002d0 11 92 2c bd 19 86 73 3c f5 87 6e bd 5b 87 0d 3e
       -0.042131487 0.014863514 -0.058235127 0.13821165
0002e0 fc 13 ea bd c5 98 05 3d d2 cc a2 3d f9 49 61 3c
       -0.11429593 0.032616396 0.079492226 0.013750547
0002f0 bb b5 21 be 6f 01 d8 bd ae 09 e9 3b dd a1 65 bd
       -0.15791981 -0.105471484 0.0071117496 -0.056062568
000300 fc d2 07 be c0 45 1f bd 9a c6 d8 3d 37 8a 05 3e
       -0.13264078 -0.03888488 0.10584755 0.13041006
000310 1f da 82 bd 64 31 a6 3c 73 a5 cf bc f3 0a 90 bd
       -0.063892595 0.020287223 -0.025347447 -0.070333384
000320 4f a4 d0 bc f9 e0 a6 bc 56 13 1b bd 2d f7 18 be
       -0.025468973 -0.020370947 -0.037860237 -0.1493804
000330 2b 13 31 3d 93 04 ff 3d 7c b5 40 be ff 36 71 bc
       0.04323117 0.12452044 -0.18819231 -0.014722585
000340 4e fe 17 3d c1 ca 0d 3e 33 c0 b0 3b c1 be 38 be
       0.03710776 0.13846876 0.0053940057 -0.18041517
000350 be 2a d2 3d 4a 2a e3 3a 5b 2b 4c be 3d 03 04 3e
       0.10262059 0.0017331329 -0.19938414 0.1289186
000360 28 f3 24 3e 02 29 19 be c3 bf 86 be 85 1a 38 3e
       0.16108382 -0.1495705 -0.26318178 0.17978866
000370 58 0f 26 bc 0d 1d 7a 3d 6c fe ad 3c 48 d1 05 be
       -0.010135494 0.06106286 0.021239482 -0.13068116
000380 62 d4 99 bd 94 39 5b bd b0 e4 8a 3d cd a5 e9 bd
       -0.07511212 -0.053521708 0.067819 -0.11408577
000390 e7 84 0a be 12 29 0a be 49 5a db 3d 69 7e 09 3e
       -0.1352726 -0.1349223 0.1071058 0.13427128
0003a0 ed fc 7b 3d af 41 e9 bd 92 e1 16 3e d8 fe 34 3e
       0.061520506 -0.11389481 0.14734486 0.1767534
0003b0 de a3 32 bc 51 00 19 3c f4 02 82 bd b8 85 05 3e
       -0.010903327 0.009338454 -0.063482195 0.13039291
0003c0 b9 b1 89 3d 93 fb 8d bb 6f 9e 74 3d 37 88 0f be
       0.06723351 -0.0043329685 0.059721407 -0.14016806
0003d0 bc 12 d9 bd b0 24 b6 3d 9d 0e 21 3e 07 1d 10 3e
       -0.105992764 0.08893716 0.15728231 0.14073573
0003e0 33 0e 70 bd 87 1b b1 bd 0e 74 72 3d 0a 75 29 bd
       -0.05860729 -0.086478285 0.05919271 -0.041371383
0003f0 e2 73 b6 3d 05 e5 6f bd 9f 33 ee 3d 67 ea b3 bc
       0.08908822 -0.05856802 0.1163094 -0.021962358

G.0.linears.2.bias f4 [10]
000000 7e 15 7b bd 0a 18 78 bd 73 75 38 3d 04 d2 1b bd
       -0.061299793 -0.0605698 0.045033883 -0.038042083
000010 d9 05 93 3d 37 01 53 bd 5f cb 35 bd 21 b3 26 3d
       0.0717885 -0.05151483 -0.044383403 0.040698174
000020 f1 40 2a bd 6d d4 cf 3d
       -0.04156584 0.10147939
