para_save/00016params.pth (torch, 118145 bytes, 76 tensors)

F.linears.0.weight f4 [32, 20]
00000000: ea70 8cbd 6fac b6bd ec97 1dbe 9433 513c
00000010: 798c a0bd 1b51 6cbd e009 00be fe1a d53d
00000020: 6427 bcbd 68cf 71bd 77f3 babc a5be cebc
00000030: baba b03d e4b3 16be 89a1 653c 7ff9 e13a
00000040: f706 703d 59d7 023e 9d81 8dbd 1060 f53d
00000050: f8e0 303e 003a d5bd 83f4 03bd e3d9 7abd
00000060: 9ca9 42bd e48f 11be 716d 493c 64c8 963d
00000070: bcd5 e53c ecad b2bc 4c24 233e 3aca 69bd
00000080: 3576 37be 8043 1fbc d6ee 7a3d a151 853d
00000090: 5c22 3b3d 4977 f63c abeb 89bd 44a2 923c
000000a0: 045a 9bbd 468f c83d 1f61 f0bd d27c 2bbe
000000b0: b834 01be d42a f5bd a017 fb3d e8cb 4d3d
000000c0: ccf9 cc3d 6634 1d3d 1ab4 033e 42ce b8bd
000000d0: d8db 59bd a78c 49be e5b9 b03d 85d8 553d
000000e0: 5751 ac3d c131 42be dec8 cabd 2433 283d
000000f0: 05c8 e63c 744b f4bd 45c8 b53c 11eb babd
00000100: d259 0c3e 6066 c8bd 8e39 ca3c 4f8f c3bc
00000110: f92d ba3b 166a 0a3e 1e55 abbc b1dd 1bbe
00000120: f31c 8abd 3740 ae3b ed1e ce3c e499 c23d
00000130: ae2a 78b9 762d 97bb 50b8 25be cd89 3f3d
00000140: ec39 923d c44c 42bc ecf9 f7bd 318b 973d
00000150: ab16 303d a815 17bd 128a 353d 2b1a 80bd
00000160: e2e3 443d 1bb9 0d3e ebdb c9bc faa1 b8bd
00000170: b539 3dbe 9cb2 dbbd 296d 263e ee8e ccbc
00000180: 0028 503e f55e ddbc 5ee7 f7bd d29b 033c
00000190: a9fb 27bd ae15 443e 4f66 30be f7a8 b0bd
000001a0: 0721 b63d 4a99 10bd b769 8b3d ee22 433e
000001b0: 2d53 0a3e e0d2 61bc 357f a63c fc62 12bd
000001c0: 0367 cdbc 44e4 edbc 794b 10bd 8803 583d
000001d0: f0aa 523e a3ac 8b3c b909 513d b727 17bd
000001e0: ae57 ee3d 4bae 723a d5ad b1bd 504a 63bd
000001f0: 539a 293d d050 953b 6e3e 603e e6a5 643d
00000200: e4da 643d 5ba1 f93d 0448 ef3d 1c22 c83d
00000210: bad4 d2bc 5124 f5bd db66 4d3e 38c3 033e
00000220: 8aeb 58be baab 76bd 28b8 943c 9c95 0e3d
00000230: 56a2 ba3d aaaf 4dbd 15dc 103e 4d0f 103c
00000240: 028b c4bb b104 be3c a64e 1abd 140b 843b
00000250: 5db2 ac3d aead 15be 3b56 c6bd 8fd1 c53d
00000260: aafe 5139 c245 ccbc fe71 703d f760 223c
00000270: b62f 1d3b bf31 ad3c 75e7 35be 99dd b43d
00000280: d8be 81bd 670d d13d 84f4 923d 7caf 5abc
00000290: 7e25 bdbd f245 733d 5503 01be bd75 a0bc
000002a0: d769 b4bd db84 603d c047 073e 6d89 fbbd
000002b0: 2189 04bb a005 633c 4d8b 80bd ddb1 833d
000002c0: 597b 813d 4b79 d3bd 07b2 8abb 83a2 0b3e
000002d0: a26f 343d 9a65 58bd 5af8 b23d 1b1b 5abd
000002e0: c121 85bc d877 93bc 6e77 adbd c647 793e
000002f0: fad0 043e 5c49 b0bd 21fb 99bb ba73 993c
00000300: b74a 9c3d b774 8bbd d4f8 513d 5301 74bd
00000310: 3b45 cebd f183 05be 4ddf 04be 55f3 1abd
00000320: df49 083d 6b46 b9bc b5aa bb3b b68b 37bc
00000330: 588d d5bd bb36 d43c cf82 ab3d 374d a9bd
00000340: 3b85 b9bb f231 f83c a67a a8bd 9742 083c
00000350: 617e 03be 1d5a ac3c d1ae 2a3e c780 483d
00000360: 6bd1 073e fb35 25be 161b 853d af7a 533d
00000370: 5e0c 9fbd beef e9bc 5de6 26bd 998c 76bc
00000380: 14ba 74bd d633 863d 2e26 bf3d 5eb4 94bd
00000390: 13b7 e9bc a166 4fbe 8ef1 003c 9c7c 75be
000003a0: c659 153e af26 ffbc 07b0 18bd d973 eb3d
000003b0: d072 523c f939 23bd 5cfe 6ebe 2e95 2a3e
000003c0: 96d4 fd3d 0af1 3fbd b989 83bc d887 86bd
000003d0: d2c6 c63c 8d95 273e a9e2 813c 8e06 923d
000003e0: 48d1 ad3a fcdf e5bd 94fc 083d e337 07be
000003f0: f4a9 5abd 5cae 2ebe 5c70 3a3c 5567 32bb
-0.06857474 -0.08919608 -0.15389985 0.012768645 -0.07839293 -0.057694536 -0.12503767 0.10405539
-0.09187201 -0.05903569 -0.022821171 -0.02523739 0.08629365 -0.1471706 0.014015564 0.0017240493
0.058600392 0.12777461 -0.069094874 0.11981213 0.17273319 -0.10411453 -0.032215606 -0.06124295
-0.047525033 -0.14215046 0.012294159 0.0736244 0.028056018 -0.021811448 0.15931815 -0.057077624
-0.17916186 -0.009720683 0.061262928 0.0650971 0.045687065 0.030086176 -0.06734403 0.01789964
-0.075855285 0.09792952 -0.117372744 -0.16746834 -0.12617767 -0.119710594 0.122603655 0.05024329
0.100085825 0.03838005 0.12861672 -0.090237156 -0.053188175 -0.19682561 0.086292066 0.052208442
0.08413952 -0.18964292 -0.099015936 0.041064397 0.028171549 -0.11928454 0.022190223 -0.091268666
0.13706139 -0.097851515 0.024685647 -0.023872046 0.00568175 0.13517031 -0.02091461 -0.15221287
-0.06743803 0.0053177136 0.025161231 0.095020086 -0.00023667022 -0.0046135737 -0.16183591 0.046762276
0.07139954 -0.011859123 -0.12108216 0.073995955 0.042990368 -0.036885887 0.044321127 -0.06254991
0.04806889 0.13840143 -0.024640998 -0.090152696 -0.18479045 -0.107274264 0.16252579 -0.024970498
0.20327759 -0.027022818 -0.12104677 0.008032756 -0.041011486 0.19148895 -0.17226528 -0.086259775
0.08893018 -0.035302438 0.06807273 0.19056293 0.13508292 -0.013783187 0.020324329 -0.03573893
-0.025073534 -0.02903951 -0.035228226 0.052737743 0.2057302 0.017050093 0.051034663 -0.03690311
0.11637817 0.0009257539 -0.08675734 -0.05549079 0.04140694 0.0045567527 0.21898815 0.055822276
0.055872813 0.12188979 0.11683658 0.09772131 -0.025736202 -0.119698174 0.20058767 0.12867439
-0.21183601 -0.060222365 0.018154219 0.034810647 0.091129944 -0.050216354 0.14146455 0.0087927105
-0.0059980163 0.023195596 -0.03767266 0.004029641 0.084324576 -0.14617035 -0.09684416 0.09659111
0.00020026663 -0.024935607 0.05870246 0.0099108135 0.0023984737 0.021141885 -0.17764075 0.08831329
-0.06335229 0.102076344 0.07175544 -0.013347503 -0.09235667 0.059392877 -0.12598927 -0.019587392
-0.0880925 0.0548142 0.13210964 -0.12282071 -0.0020223337 0.013856322 -0.062765695 0.06430409
0.06322355 -0.10325869 -0.0042326483 0.13636212 0.044051774 -0.05283127 0.087387756 -0.053248506
-0.016251447 -0.018001482 -0.08470045 0.24343786 0.12970343 -0.08607742 -0.0046991264 0.01873194
0.07631438 -0.06809371 0.05126269 -0.059571575 -0.100717984 -0.13038613 -0.12975807 -0.037829716
0.033273574 -0.022616586 0.005727137 -0.011202743 -0.1042735 0.025905004 0.08374559 -0.08266681
-0.0056616343 0.030297253 -0.08226518 0.0083166575 -0.12841178 0.021039063 0.1666825 0.048950937
0.1326348 -0.16133873 0.06499307 0.051630672 -0.07766031 -0.0285567 -0.040747035 -0.0150481695
-0.05974777 0.06552856 0.09333454 -0.07260965 -0.02852968 -0.20253994 0.007870091 -0.23973316
0.14585027 -0.031146375 -0.037277248 0.114967056 0.012844756 -0.03985021 -0.23339218 0.1665847
0.12394063 -0.046860732 -0.016056882 -0.06568879 0.024264727 0.16365643 0.01585515 0.071301565
0.0013261223 -0.11224362 0.033444002 -0.13204913 -0.053384736 -0.170587 0.011379328 -0.0027222235

F.linears.0.bias f4 [32]
00000000: 2283 08bd 08ad 6f3c fc1a 4d3d 3aa8 b2bd
00000010: 93c8 73bd 4d29 3bbd 93f5 aebd af04 113d
00000020: c40d b53c e936 973d c795 65bd 3543 0bbd
00000030: f7e7 d6bc cdd2 08bc 6dac 10bc 5aea 9b3c
00000040: 6d24 1a3c 0a5e a73d b573 983d ee99 b43c
00000050: 20bb e4bd 9da6 19bc 3119 c9bd 3fea 8ebd
00000060: 7eda 4ebd 1196 b3bc 37ae 8fbb f605 4dbd
00000070: 4c64 3839 092e 2a3b 434a a3bb 3bb1 08bc
-0.033328183 0.014628656 0.050074562 -0.08723493 -0.059517454 -0.045693684 -0.08542933 0.035404857
0.02210129 0.0738352 -0.056051042 -0.03399964 -0.026233656 -0.00835104 -0.008830172 0.019032646
0.009408099 0.081722334 0.07443944 0.022046056 -0.11168504 -0.009378103 -0.09819258 -0.06978273
-0.05050134 -0.021922143 -0.0043847817 -0.050054513 0.00017584971 0.002596738 -0.004983218 -0.008343036

F.linears.1.weight f4 [32, 32]
00000000: fd4b 0dbd 3d12 d93d 5aa2 933e 579c c6bd
00000010: 5125 d9bd 0857 073d b419 673c 4a94 bbbd
00000020: df78 07bd 2a0e 973b 081f 133d 8cb2 543b
00000030: 3ef4 99bd 04ab d6bd 40ce 2b3e f664 dc3d
00000040: 3041 44bd de66 12bd b81f cb3c 6468 eb3d
00000050: 1acc 61bd d712 f73c aca8 6e3e ff34 eebc
00000060: bbaf 0b3d 97ef e43d 386e 30bd ef1b c1bd
00000070: 0549 2abe c642 453d af7e 8b3c 0d23 6d3d
00000080: 445d d73d d34d 1a3d 59fe 8a3e a9fd 3d3d
00000090: 8549 e9bc 2b5f db3d 6cb7 e43c 5c00 94bd
000000a0: ad72 0d3d 4b86 a23c a9b3 173e ac7e 50be
000000b0: 1b29 63bb 5042 44bb 776c fdbd b880 963d
000000c0: 3261 703d 355d a93d afe7 21be d54a 143c
000000d0: bdf2 75bc 788d 3d3d e2f1 ee3c 6fc5 803d
000000e0: b3fb 1bbe 7f44 b3bd f571 cd3d 341c 363e
000000f0: 6272 5ebd 610a ea3d 20eb eb3d 1c6e bf3d
00000100: 5f18 13bd e4d2 203d 5217 0a3a c86d 2bbd
00000110: 24dd 6ebc a527 1fbb b5b4 0e3c 5312 4bbe
00000120: 7272 373d 4f76 65bd 0ac7 893d 20d6 1f3e
00000130: 6d0b 433e 42c4 a1bc 7ec9 33be e2e1 10bc
00000140: e5c0 3b3e fbc8 94bd d65f 32bd 89cc 833d
00000150: 1115 123e 32ec 153e e728 3fbc 5002 8bbd
00000160: b62e 30be 0be2 a23d 5572 7ebe f2d5 1e3e
00000170: 973a 823d 102d 6b3d bad8 fa3d 7d6b 9ebc
00000180: e65b f4bd 37d5 d8bc 3ca3 073d 85c6 cc3d
00000190: 42c7 e5ba 7a6f 3abe c041 453d 9d37 e73b
000001a0: c433 393e a214 41be 08a2 303e b14f 02be
000001b0: 28e0 213d 6099 e4bd 43fd 0cbe 25f4 82be
000001c0: 088d 12be 84aa adbd 4270 e7bd e3c5 69be
000001d0: 7542 983d c874 e73d ce83 e3bd a811 5b3e
000001e0: 749a 8f3d 8496 163e ecaf e9bb 3806 7ebd
000001f0: 3942 ce3b 3cb6 1dbd 03ed 193e cb42 c1bd
00000200: ebc9 b6b8 f9e4 263e c70e b93d 93ae d5bd
00000210: 60cf 0a3e 622c a8bc acd3 bbbc 6a41 043d
00000220: a30d 35bd 8af6 12bc 9a3f 733d 01fb 7e3d
00000230: e66d e4bd 035f 26be 3a7b f0b9 f9bd c8bd
00000240: 9278 2cbe 3b21 533b 266e 903d 9ca3 10ba
00000250: 3dcc 7abd 8376 7a3d f49d 8c3b 7b3f 48bc
00000260: ef3f c63d d96f 0bbd 09ef 0dbe ddf2 2c3e
00000270: 71e8 da3c 9729 cebd fda3 c43d ff61 acbb
00000280: 7cc7 acbd 279d 07bb 4950 e5bd 292f 8e3d
00000290: 4b11 eebd a7d1 37bc f7c7 56be 3b55 69be
000002a0: a89e 8b3a cc19 a9bb e763 e8bd 41d4 06be
000002b0: 8828 d43d 1ed4 943d 338f 8a3d d2c0 f93d
000002c0: be36 4bbd 9f6c babc 4712 dabc b465 dcbd
000002d0: 73a6 acbd 5885 903b 95aa 0e3d 984f d7bc
000002e0: 30f1 b23a 1f1d ae3d 8e48 a03d a9d9 a33c
000002f0: 624b 493d 150b 983d 34a6 d4bd d859 8bbd
00000300: afe9 10bc 9c3b e2bd 3121 cdbd efe9 58bd
00000310: d226 acbd d63f ddbb d4f0 be3d 3e19 23bd
00000320: b373 31be bae3 f5bd d340 b03d 9f18 49be
00000330: 7292 653d d5fa c4bd a297 efbd cb9b 333e
00000340: fffe 57bd ba92 ff3d 1f02 46bd 87c6 76bd
00000350: 6afd ee3a dd15 acbb 5f3c 643d 4f6c f3bd
00000360: 77ce 6bba d18f 06be f93f a63c 120e 84bc
00000370: e7b3 67bd 3e22 0f3b fa16 82bc 56e2 d8bd
00000380: a137 a93d 2219 603d a42d 1bbe 7d17 0a3c
00000390: e366 68bd 9d09 ee3d 19e6 8a3d ec2b 8d3d
000003a0: f6cf 7d3d 89b7 583b a357 093d 154b 4cbd
000003b0: 5e48 bdbd 664d 20be 8f2e 0a3d 13ce 5fbd
000003c0: 5c67 9abd b757 ae3d 2230 903d 1f41 27be
000003d0: 54b1 c53d dbb6 5e3d 014f 743e 361f acbc
000003e0: 41ef 9dbd 2538 61bc 8176 ba3c 8219 e43c
000003f0: f184 cd3d 9b60 653d 9fae 923d 6f4b 633e
-0.034496296 0.10599182 0.28834802 -0.09697788 -0.10602821 0.033041984 0.014105249 -0.09159143
-0.033074256 0.004609843 0.035918266 0.0032455055 -0.075172886 -0.104818374 0.16777897 0.10761444
-0.04791373 -0.035742633 0.024795398 0.1149452 -0.055126287 0.03016035 0.2330653 -0.029078005
0.034103137 0.11178511 -0.043073863 -0.09429156 -0.16629417 0.048159383 0.01702818 0.057894755
0.10515836 0.037671875 0.27147177 0.046384487 -0.02847744 0.10711511 0.027919494 -0.07226631
0.03453319 0.019839427 0.14814629 -0.20360821 -0.0034661952 -0.0029946752 -0.12374204 0.0734877
0.058686443 0.08269731 -0.15811037 0.0090510445 -0.015011487 0.046277493 0.029168073 0.062876575
-0.15232734 -0.08753299 0.10031501 0.17784196 -0.054308303 0.11427761 0.11519456 0.093471736
-0.035911914 0.03926362 0.0005267757 -0.041852742 -0.014579091 -0.0024285105 0.008710076 -0.19831209
0.044786878 -0.05602103 0.06727417 0.15609026 0.19047327 -0.019746903 -0.17557332 -0.008842917
0.18335302 -0.072648965 -0.043548428 0.06435496 0.14265849 0.14640883 -0.011667467 -0.067875504
-0.17205319 0.079532705 -0.24848302 0.15511301 0.063588314 0.05741602 0.122483686 -0.019338364
-0.11931591 -0.026468856 0.033114657 0.09998802 -0.0017530697 -0.18206587 0.048158407 0.00705619
0.18086153 -0.18855527 0.1724931 -0.12725712 0.039520413 -0.111620665 -0.13768487 -0.25576892
-0.14311612 -0.08479789 -0.11300708 -0.22829394 0.07434551 0.11301571 -0.11109124 0.21393454
0.070118815 0.14705855 -0.007131567 -0.06201765 0.0062945154 -0.03850387 0.15031819 -0.09436568
-8.7160464e-05 0.16298284 0.09036022 -0.10433688 0.1355567 -0.020528976 -0.022928081 0.032288946
-0.044202458 -0.008969912 0.059386827 0.062251095 -0.11153774 -0.16247182 -0.00045868178 -0.098018594
-0.16842869 0.0032215852 0.07052259 -0.0005517544 -0.061229933 0.061148178 0.0042912904 -0.012222166
0.09680163 -0.034042213 -0.13860716 0.1688952 0.026722165 -0.100665264 0.09601591 -0.0052607055
-0.08436486 -0.0020693035 -0.11196954 0.06942589 -0.11624392 -0.011219419 -0.20974718 -0.22786419
0.0010652142 -0.005160546 -0.1134718 -0.13166906 0.10359293 0.07267021 0.06765594 0.12194981
-0.049612753 -0.022756873 -0.026620043 -0.10761586 -0.08430185 0.004410427 0.03483065 -0.02628307
0.0013652202 0.08501648 0.07826339 0.02000125 0.049144156 0.07423989 -0.10383263 -0.06804246
-0.008844777 -0.11046526 -0.100160964 -0.05295747 -0.08405842 -0.0067519946 0.09323278 -0.039818995
-0.17329292 -0.12006326 0.08606114 -0.19638298 0.056047864 -0.09618155 -0.116988435 0.17539899
-0.052733418 0.12479158 -0.048341867 -0.060247924 0.0018233482 -0.0052516297 0.055721637 -0.118858926
-0.0008995304 -0.13140799 0.020294176 -0.01611999 -0.056568053 0.0021840478 -0.015880097 -0.10590045
0.082625635 0.05471147 -0.1515413 0.008428452 -0.056738745 0.11622927 0.06782169 0.06893143
0.061965905 0.003306838 0.033530843 -0.04987629 -0.092423186 -0.15654525 0.033735808 -0.054639887
-0.075392455 0.08512824 0.070404306 -0.16333435 0.09652963 0.054373603 0.23858263 -0.021010976
-0.0771165 -0.013746296 0.022761585 0.027844194 0.10035122 0.056000333 0.071622126 0.22196744

F.linears.1.bias f4 [32]
00000000: c8c7 c9bc f7ad fcbc a286 e7bc a4ad 213d
00000010: 5cec e03d 3d60 943c 00d8 d3bb e7bb fabc
00000020: 89b6 bb3d b880 41bd 7061 083c c2db b9bd
00000030: 47de 6f3c 7cfe c73d 32e4 4dbb fd15 c3bd
00000040: b3cb 033d 959b 6e3d 8f23 7abd 5db0 a43d
00000050: 68a7 0cbb 466a 66bd fdd6 f53c abff bfbd
00000060: c185 b03c 9dfa 713d 58f5 093c 1baf a83d
00000070: 91e7 81bd 4499 73bd f6c9 453d 643b d53d
-0.024631396 -0.030844672 -0.02826244 0.039472237 0.10982582 0.018112296 -0.006464958 -0.030607177
0.09165675 -0.047241896 0.008324012 -0.090751186 0.014640397 0.09765336 -0.0031416533 -0.09525678
0.032176685 0.058253843 -0.061069068 0.08041451 -0.0021462087 -0.056253694 0.030009741 -0.09374937
0.021548154 0.059076894 0.008420311 0.08236524 -0.06342996 -0.059472337 0.048288308 0.104117185

F.linears.2.weight f4 [10, 32]
00000000: 3f09 3c3d 5d91 9dbd be37 003d 5a8f 19bb
00000010: 45b6 b6bd 586a 1e3e e978 723e be0e 523d
00000020: 4a8d c53d 604e 0abe 9941 9f3d cb06 02bd
00000030: 192f 5a3d ed1c fbbd 2ebe 223d 56e9 2a3e
00000040: 3d9d a53b d9e6 173c 3af6 313e 5d9b 183e
00000050: 087f e7bc bce6 573e e2b6 acbc f89e 323d
00000060: 98f8 10be 5611 303c fd23 0c3e e5d5 8bbd
00000070: 3bdf 923c bd6a 2dbd fbd7 aabc 5e90 6dbd
00000080: 9b0b 173c 350a a8bd ca73 183d aeff 103e
00000090: 3eb7 b6bc 21a4 b33d 7a09 d4bd 9550 903e
000000a0: 6ba0 363d 2ce2 1ebe fbc1 d93d 4913 9d3c
000000b0: b6e1 b43d 4b67 aabd c2d3 c5bc b5ff 4c3d
000000c0: bcdd dabd 7dc5 b93d ea00 0b3d deca 123d
000000d0: 6569 233d 3a08 3fbe 08a1 57be d249 083e
000000e0: d4ed bb3d b88d c8bd 5d00 b03d d7a5 0cbe
000000f0: 22c5 04be a59a 773c e9f6 073e 3676 4dbe
00000100: 9dc6 c33d 8147 413e 20b4 79be 7d97 13be
00000110: d7a9 1fbd 78eb a03c a4df c73a a4f5 8f3d
00000120: 67bc 533d a429 04bc 1af9 dfbd 8f78 54bc
00000130: 4d63 953c 609a 35ba c89e fd3b 09a4 64bd
00000140: 4f82 0dbe 5fcc 443d 642b 143d d596 aa3d
00000150: 59c9 0d3c 9260 d03d 5e14 11be fd7a 07bd
00000160: 49ac 80bc b04c 093e 3139 7f3d 8e52 2dbe
00000170: 8832 d2bd 0fd0 183e 402d f6b9 c404 13be
00000180: 4124 083e 816f 813e e42a e7bc 451a 15be
00000190: 411c cf3d b741 9e3d b02c 03be 09c5 bfbc
000001a0: c3a2 cf3d 66b5 613b 3788 2c3d d53f 8cbe
000001b0: 3d79 293e 8ca6 cf3b 8eda babd 9df7 21be
000001c0: 1466 8fbd 6445 05bd e588 303e b964 3a3e
000001d0: 0975 55bd 567c 46bd df64 bc3d a610 c33b
000001e0: 6016 eebb c376 3ebd 7843 523d 6988 213d
000001f0: 6dd5 023e 27e4 e33c ef91 383c 4993 00be
00000200: a774 41be b8dd 883d beba 86bd acca e6bd
00000210: dc27 2cbc 7b85 21bd 42bc 8bbd 5e0b 3f3e
00000220: 5129 923c 0cd5 56bc fb9f 303d e12e 4b3e
00000230: 0e67 f8bd 72d5 7dbd 96b6 51ba be2e 9fbc
00000240: d122 4bbe e39f 42bc c90a ebbd 4b00 65bd
00000250: 7240 453d 4005 a23d e49f 85bd 0544 4cbe
00000260: 8e50 d1bd 8aeb 503e 7ebe cc3d ec7c 12bd
00000270: ad5a 8f3d 4beb de3d c45b 32be c666 9fbd
00000280: 7d2a 203e 662b b63c ff58 febc b506 66be
00000290: 904a 093d 0c08 6d3e f35e 87bd f696 833d
000002a0: eb2d e2bc 7ba2 4bbd 4d48 9abd 526c a03d
000002b0: ca87 f03c 1bbe 9bbd 7ff3 96bd a42c 243d
000002c0: 7e32 e4bd 6f38 fa3d 3401 e9bc 040b c33c
000002d0: 7ae5 32be eb4a b3bd 6110 323e de38 393e
000002e0: 74e4 7abc 5fa6 14be 2818 6abd 1744 2bbe
000002f0: dd50 e8bd 9d7b 17bd f43c c5bb d0af abbc
00000300: dfb6 a13d 2f58 b2bd 43eb 303e 382c 6abd
00000310: 93a9 793d 3958 1e3e d783 ed3d b8ca 9e3d
00000320: d15e bf3d 1722 8f3d 2c59 5ebe 5f93 71bc
00000330: b52f 8abd 841e d4bc 7f52 953c 8935 2cbe
00000340: ac84 a83d 8189 9a3c caed 033e fc54 983c
00000350: 358e 9bbd f723 1fbe bc4d 423d 4429 a43a
00000360: 0bdd eb3d db6c 2f3d 04b7 8f3d fe73 7abd
00000370: 1a10 1b3c c5dd bd3d 6a78 a1bc 9872 8fbd
00000380: fd1f 323d 75b2 0ebe fed5 113d 9bd1 babd
00000390: cfe0 bb3c b8fc 95b8 911c ccbd 9ea5 033e
000003a0: 579c 1cbe a872 fdbd 085e d63d 208c fcbd
000003b0: cc39 dabd a0f7 5f3b 7d3f 01be 7b98 86bd
000003c0: e553 983d fbe0 343e 74bf 443d 2dad 813e
000003d0: 7015 b8bd a025 ed3d 1ec5 88bc bcf7 853d
000003e0: 6a39 6dbe 4c72 1ebc 15e0 d2bc eedf a9bd
000003f0: 2231 d23d 87ef fdbc 6da3 1cbe 2a93 513e
0.045907255 -0.076937415 0.03130316 -0.0023431391 -0.08921484 0.15470254 0.23678936 0.05128359
0.096460894 -0.1350646 0.07776184 -0.03174476 0.053267572 -0.122613765 0.03973215 0.16690573
0.0050541447 0.009271347 0.17379084 0.14903016 -0.028258815 0.21084112 -0.0210833 0.043608636
-0.14157331 0.010746321 0.13685603 -0.068279065 0.01792871 -0.04233812 -0.02085494 -0.057999007
0.009219076 -0.08205072 0.0372198 0.14160034 -0.022304174 0.087715395 -0.1035337 0.2818648
0.04458658 -0.15515965 0.10632702 0.019174235 0.088321134 -0.08320483 -0.024148826 0.05004855
-0.10686824 0.09070871 0.03393642 0.035838 0.039895434 -0.18655482 -0.21057522 0.1330941
0.091762215 -0.09792656 0.08593819 -0.13735138 -0.12965825 0.015112554 0.13277782 -0.20064625
0.09559367 0.18874933 -0.24385118 -0.14413257 -0.03898033 0.01964353 0.0015249145 0.07029274
0.051693346 -0.0080665685 -0.10936184 -0.0129681965 0.018235827 -0.0006927606 0.0077398755 -0.0558205
-0.1381924 0.048046466 0.036174193 0.0832955 0.008653962 0.10174669 -0.14167926 -0.033076275
-0.015707152 0.1340816 0.0623104 -0.16926023 -0.10263544 0.14923118 -0.0004695449 -0.14357287
0.1329508 0.25280383 -0.028218694 -0.14560802 0.10112811 0.07727378 -0.12810016 -0.023409383
0.10138466 0.0034440397 0.042122092 -0.2739245 0.16550155 0.0063369926 -0.09123717 -0.15817113
-0.07001892 -0.03253688 0.17239721 0.18202485 -0.052113567 -0.04845842 0.09198927 0.0059529124
-0.007265851 -0.04649998 0.051333874 0.03943673 0.12776728 0.027818752 0.011265262 -0.12556185
-0.18892156 0.066829145 -0.06578587 -0.11269125 -0.01050755 -0.039433938 -0.06823017 0.1865668
0.017841967 -0.013112318 0.04312132 0.19842102 -0.12129031 -0.061971135 -0.0007999925 -0.019431468
-0.198375 -0.01187894 -0.114766665 -0.055908483 0.048157163 0.079111576 -0.06524637 -0.19947822
-0.10220443 0.20402351 0.09997271 -0.035763666 0.06999717 0.10884722 -0.17417818 -0.07783274
0.15641208 0.02223749 -0.031048296 -0.22463496 0.033518374 0.23147601 -0.06609907 0.06425278
-0.027609786 -0.0497155 -0.075333215 0.078331605 0.029361624 -0.07604619 -0.07370662 0.040081635
-0.11142443 0.12217795 -0.028442957 0.023808964 -0.17470351 -0.08754524 0.1738906 0.180881
-0.0153132565 -0.1451659 -0.057151943 -0.16725193 -0.113435484 -0.03698312 -0.006019229 -0.020957857
0.07896208 -0.08708226 0.17277245 -0.057171077 0.060952734 0.15463342 0.11597412 0.07753509
0.09344257 0.06988924 -0.21713704 -0.014744609 -0.06747381 -0.025893457 0.018227814 -0.16817297
0.0822843 0.018864395 0.12883678 0.018595211 -0.07595483 -0.15541063 0.047437415 0.0012524505
0.1151677 0.042828422 0.07017329 -0.061145775 0.009464288 0.09270815 -0.019710738 -0.07004279
0.043487538 -0.13935263 0.03560447 -0.0912201 0.022934346 -7.151946e-05 -0.09966386 0.12856147
-0.15294014 -0.123753846 0.10467154 -0.12331414 -0.10655555 0.0034174696 -0.12621875 -0.06572052
0.074378766 0.17663948 0.048034146 0.25327435 -0.08988464 0.11579442 -0.016695555 0.06541392
-0.23166433 -0.009670805 -0.025741616 -0.08294664 0.102632776 -0.030998005 -0.15296717 0.20466295

F.linears.2.bias f4 [10]
00000000: 9d49 ca3c 60e4 8dbd 0739 353d 47c4 a2bb
00000010: 4397 f1bc c0df 4ebd fbe2 79ba 32d3 963d
00000020: 863f 863d 8c66 9cbc
0.024693305 -0.06928325 0.04424384 -0.0049672457 -0.029491073 -0.050506353 -0.0009532419 0.07364501
0.06555085 -0.019091867

G.0.linears.0.weight f4 [32, 10]
00000000: 5e96 06bc 379d ec3c 6d9d fd3d 142f 343d
00000010: 79a8 b2bc ad4f 143d 8bf1 823d c217 143e
00000020: 8dde aabd 96c1 0fbe 5bc8 e13d 0096 4fbc
00000030: c70a 33be b533 af3c 3304 3bbe 1414 a73c
00000040: 73fa afbc 848d 8abd 565d a5bc 83ac 10bc
00000050: be62 4cbd 64f8 b4bc c87d 46bd b1c6 64bc
00000060: 33ec f73c 1974 e93d adf9 05bd 8edc b5bd
00000070: aa9a a33c f810 c53d 6676 0d3e af7b 053d
00000080: ca57 a73d a52d 22bd 421a 49be 82f3 04be
00000090: 304a d9bd 2411 2a3c 61de 023d 3ee4 cfbc
000000a0: ea12 e73d 4fd6 a73d f6c2 9ebd c825 3f3d
000000b0: 52c5 a53d ee21 383d 975d b3bd cc3a 3bbe
000000c0: d7a4 943d 2050 0a3d 55f2 01bc 9a0d 063c
000000d0: 1ec1 093e bdf4 94bd 3347 753d c2be 1dbd
000000e0: b89b 503b 4d94 863d 138d febd 38e4 edbd
000000f0: fb18 3b3e 3a82 913d 349d af3d 955b 2abe
00000100: 50a7 e43c a8ab 52bd a440 5e3d ea70 2fbd
00000110: 87a8 74bd 42ff adbd c46e e7bc a9ab 203e
00000120: 4923 39bd 1fbe 6d3c 9690 683d e7ef c6bd
00000130: b2ed 20be 1306 803d 57e4 b33c f305 f93c
00000140: c95c 15be d229 dc3d 781c 173e 5fbb e63b
00000150: 5850 cd3d a9d0 5ebd d555 543d 46da dabc
00000160: 0c8a cdbc 3972 753d 0d3b 823d 4eaf 043b
00000170: b939 853c a333 25bd 7485 1a3a de96 55bd
00000180: d18b 1f3e 640f cbbd e204 363c 81bb 0d3e
00000190: d893 4d3b 3314 3cbd c703 163e f255 40be
000001a0: 2fa8 303e 844c 853d 229f c73d b207 263d
000001b0: f21f ad3d 2547 e3bb 406f 29be f799 afbd
000001c0: 183b d53c b4b3 293d de68 79bc bc4f b03c
000001d0: 6956 b83c 0d8e 03be 71ac 5f3c 0161 f23d
000001e0: cc96 c4bd dac4 d1ba a4c2 f2bd 3741 45bd
000001f0: 712c e2bd d7f9 9c3c f2a7 09bd a4d1 89bd
00000200: 9c8f cd3c 6ce1 cd3c 4f59 393e 98cc 403d
00000210: 3ff2 8b3d ed02 e4bc 86e4 26bd 1ce2 a73c
00000220: daaf e9bd 9e01 9fbd de37 73be c82b b83d
00000230: 7910 15bd 5914 703d 32b0 233d c05b dbbd
00000240: 2e3d 023e c618 023d 4517 093d 92ba 183d
00000250: 727e 133e 12d7 5bbd 12ca 833c 0663 3e3d
00000260: e337 c0bd 3740 94bd acbc 113e 9838 d639
00000270: d5bf 993d e562 103e eeb8 833e a06a 6f3e
00000280: 18fc 1a3d 10d7 7cbc 5d1e 043e 8bbd bf3d
00000290: 5782 a8bc 3225 913d 96d6 be3d 8d39 3e3e
000002a0: edd9 1c3e 38b9 143c df02 e9bc f58f 613c
000002b0: 1c93 e4bb 2702 32bd 7ff4 9a3d 5d70 06bd
000002c0: 866a 853d 1145 2b3e 7b69 a0bd b7da e6bc
000002d0: 982c c93d b603 d33d 89c4 a33d a694 9c3c
000002e0: 6525 bbbc 6823 9c3d 5056 35bd 7bf2 0d3c
000002f0: b900 b33d eb86 0fbe fd50 15bd c1aa 66be
00000300: 199b 95bd 5cf0 2c3d abfe 95bd 6e76 b4bd
00000310: 8c19 273e 1c25 213d 8373 fdbd d647 373c
00000320: e0af 0abe c9c1 abbd 0f56 28bd 1289 163e
00000330: 4433 893d 4508 8ebd 96b7 19be 6242 7bbd
00000340: 30f7 c0bc 1592 43bd 37d8 193d be5b b13d
00000350: 2467 abbd cb6b 59bd c457 22bd 0def 75be
00000360: 9864 94bd ab98 f3bd 2738 2d3e f3f3 1abd
00000370: 1605 23be 6730 59bd 7a47 863d adce 1ebe
00000380: 95ba f7bd 6f1d 103e eabb babd 0988 0abe
00000390: ca2b c7bb 3c6c 35bd f190 293e d9c9 983e
000003a0: 081a 223d 3612 ddbd d69a 5fbe 14cc c93b
000003b0: cb6e d73d 73d8 733d ebf1 06bc 8b53 123e
000003c0: 3dbf e93d c8ad 4fbd 9d74 ef3d 09c0 4d3e
000003d0: c8e0 02be 34aa b53b c175 b53c f655 d03d
000003e0: 7c67 023e 474d 1fbe bcf9 20bb d635 e1bd
000003f0: 4ff8 c4bd 1e58 ee3d b3e3 7ebe 3e1d 0ebe
-0.008214561 0.02888356 0.12383542 0.04399021 -0.02180885 0.036208797 0.06393727 0.14462188
-0.083432294 -0.14038691 0.11024543 -0.01267004 -0.1748458 0.02138696 -0.1826332 0.020395316
-0.021481728 -0.06765273 -0.020186108 -0.0088301925 -0.049898855 -0.022091098 -0.048459798 -0.013963387
0.030263996 0.11399097 -0.032708813 -0.08879958 0.01997121 0.09622377 0.13814697 0.032588657
0.08171041 -0.03959431 -0.19638923 -0.12983516 -0.10609853 0.010380063 0.03195036 -0.025377389
0.112829044 0.08195173 -0.077520296 0.04666689 0.080942765 0.044954233 -0.08758085 -0.18284148
0.07258003 0.03376782 -0.007931312 0.008181954 0.13452575 -0.072732426 0.059882354 -0.038512
0.0031831097 0.06571255 -0.124292515 -0.11615795 0.18271248 0.07104917 0.08574906 -0.16636498
0.027911812 -0.051433235 0.054260865 -0.042832293 -0.059731033 -0.08495952 -0.02825106 0.15690483
-0.045199666 0.01451066 0.056778513 -0.097137265 -0.15715674 0.062511586 0.021959467 0.030398345
-0.14586176 0.10750164 0.14756954 0.0070413793 0.1002509 -0.054398213 0.05183967 -0.026715409
-0.02509024 0.059923384 0.06358919 0.0020246091 0.016262876 -0.040332448 0.000589452 -0.05214583
0.1558068 -0.09915045 0.011109563 0.13841058 0.003136864 -0.0459177 0.14649878 -0.18782786
0.17251657 0.06508735 0.09747149 0.040534683 0.08453359 -0.0069359713 -0.16546345 -0.08574288
0.026029155 0.041431144 -0.015222756 0.021522395 0.022502141 -0.12847157 0.013651953 0.11834908
-0.09599075 -0.0016004101 -0.11853531 -0.048157897 -0.11043633 0.019162102 -0.03360743 -0.06729439
0.025092892 0.025131904 0.18100475 0.047070116 0.06833314 -0.027833426 -0.04074528 0.02049356
-0.11410494 -0.0776398 -0.2375178 0.089927256 -0.036392663 0.058613155 0.039962955 -0.10710859
0.1271865 0.031761907 0.033469457 0.037287302 0.14403704 -0.053671904 0.016087566 0.046481155
-0.093856595 -0.072388105 0.14232129 0.00040859426 0.07507292 0.14100225 0.25727028 0.23380518
0.03783807 -0.015432134 0.12902208 0.09362324 -0.020569963 0.070871726 0.09318273 0.18576641
0.15317507 0.009077363 -0.028443752 0.013767232 -0.0069755446 -0.043459084 0.07566165 -0.032822
0.06514458 0.16725565 -0.07832619 -0.028180463 0.09822959 0.10303442 0.079964705 0.01911385
-0.02284498 0.07623941 -0.044271767 0.008663769 0.08740372 -0.14016311 -0.03645419 -0.22526075
-0.07304973 0.042221412 -0.07323965 -0.08811651 0.16318339 0.03934203 -0.12375548 0.011186561
-0.13543653 -0.08386571 -0.041097697 0.14700726 0.06699231 -0.06935171 -0.15011439 -0.061342604
-0.023555368 -0.047746737 0.037559714 0.086600766 -0.08369282 -0.053081315 -0.03963448 -0.24016972
-0.07245749 -0.118943535 0.16915952 -0.037830304 -0.15919909 -0.053024676 0.06556602 -0.15508528
-0.120961346 0.14073728 -0.09117873 -0.13528456 -0.006078218 -0.044292673 0.16559197 0.29841498
0.039575607 -0.10794489 -0.21836409 0.006158361 0.10519179 0.059532594 -0.008236389 0.14289682
0.11413429 -0.05070284 0.11692164 0.20092787 -0.1278106 0.0055439714 0.022150876 0.10172646
0.12734789 -0.15556823 -0.0024562916 -0.109965965 -0.096176736 0.11637901 -0.24891548 -0.13878343

G.0.linears.0.bias f4 [32]
00000000: 9260 54bd 4ab3 07bd 490d ab3d 8e10 ef3a
00000010: 7f73 4a3d a893 583d edf1 99bd cce8 763c
00000020: d6ec aa3d 4f13 c6bd bfb5 313d 340f e0bc
00000030: 58c5 e4bd 8118 06bd 89c9 61ba e983 09bd
00000040: 57ce 9f3d 387f 803d aaa9 f5bc 8074 a1bd
00000050: 863e 1dbd 47e3 3c3d 3414 d7bd 71fe 893d
00000060: f7aa c83d f3c7 963d 869e f93c 4318 5abc
00000070: d7c9 f4bc a954 94bd 783c bfbd 9037 bcbb
-0.05184991 -0.033129968 0.08352143 0.0018239187 0.049426552 0.05287519 -0.07516847 0.015070152
0.08345954 -0.096716516 0.043386217 -0.027351 -0.11170453 -0.032738212 -0.00086131 -0.033573065
0.07803028 0.06274265 -0.029988129 -0.07883549 -0.038389705 0.046115186 -0.105019 0.06737984
0.09798234 0.07362356 0.030471098 -0.0133114485 -0.029881401 -0.0724271 -0.093377054 -0.0057439283

G.0.linears.1.weight f4 [32, 32]
00000000: 0bbd 5e3c be1f 663d b4b4 bfbd 89b3 6a3c
00000010: 0377 193d 79a8 a03e 10e3 27be ae31 dcbc
00000020: e780 b33c 01bb 1dbe 35a0 cebc e031 0dbd
00000030: 6e25 03bd 7529 553d 322b 63be b315 483c
00000040: 914a 8d3d 3ee0 5f3d 4ca0 a13c ba4c 20ba
00000050: d692 2abc 082f fe3d c9d1 ac3d 3751 423c
00000060: 7b9d 053e 7692 2a3e 41ee 303e 9bbf c53d
00000070: b1f9 1b3e e4f1 a2bd 18fd fd3d e91d a33d
00000080: d9e3 af3c 58ae e53d 501c 683e 3ee1 ae3d
00000090: 1b86 823d f015 e3bd ece4 29be 60ab f13d
000000a0: f155 6cbd c2dc f53c 46ff 633d 591e d83d
000000b0: d000 cebc d050 c0bd a379 043d ec68 6d3c
000000c0: 41fe a3bd 3436 5e3d f056 febd 35cd 14be
000000d0: af7c 86bd 6174 ea3d 7a4d 2bbe 79af f2bd
000000e0: 2aa2 e13c 6d15 9a3d 2686 253e 330c 8b3c
000000f0: cabd 5ebd ccb7 1c3e 2a05 73bc 3825 443c
00000100: 7853 5cbe d542 113d dbe2 0abc d7ae 9b3c
00000110: f2d3 2cbd 414d 9cbd 067d 673d 2fb9 0e3e
00000120: 0034 c23c 3b7c 0e3d a06b 1f3c 703d 923c
00000130: 00b8 993d 06d5 43be 6f88 283d 4b13 ff3d
00000140: 691a 37be 56f9 07be a07f 44bd 3eb7 68be
00000150: 0f8c 453c a015 ca3d 85c3 8f3d ae10 623d
00000160: f932 36bc 9261 7bbc 1b3b a3bb ca39 a4bc
00000170: b94e 053e 5c9e 80bc 6c5b 233c bca0 6a3d
00000180: 5701 273e cbbf ffbc 4d94 3d3b 43bf 663c
00000190: 91e3 903d f9bf d7bb ba88 06be 3f26 513d
000001a0: 71bd c63c 7fa8 083d fb61 c23b 64a3 2cbe
000001b0: 1acf 14be 0bc2 9c3d 6024 b43d 4136 35bd
000001c0: 5e20 7cbd ade3 14be 53fd 6e3d c84c 043d
000001d0: 683b 3bbc 5a09 4abe 7567 ccbc ab2e 8b3a
000001e0: 0280 20be 4811 793e e78b c73d 1440 653d
000001f0: 88a5 51bd 553b 84bd c7b8 7cbd b86b 5dbe
00000200: 9c5d 233c 68e5 d43d 40e4 cfbc 0ce8 04be
00000210: 9b9e 29be 86d6 85bd 1eaf be3d 39bd 5ebd
00000220: 18f9 053e 6a8f c0bc 86cc 99bd 5c51 8e3d
00000230: 4681 93bd ba42 8a3d e862 43be ec96 083d
00000240: dc4b 9d3d 11ba 8dbe 03fa e33d ca23 b33d
00000250: 03cb a1bc a6b8 d23d 7d6f 723c 2de8 f4bd
00000260: 238b 393e 4137 8f3d 07a2 d33c f5c4 a43d
00000270: 058e 2d3e 65db 41be c1a9 1d3e 76f1 ca3d
00000280: 4237 b13d 2344 333b 35bb ee3d 28e1 3b3e
00000290: 2a70 9b3b cff5 cb3d 1fd9 94bd a769 43be
000002a0: 56f5 3b3e b2cc d73c 352a 903d 794f d7bb
000002b0: b5fe cebd f2b3 2e3b f0b8 9b3d 9739 1a3e
000002c0: 34ea a83d 0056 2639 377a eb3d 3f8e 233d
000002d0: 8766 c33d bf6b 943d 8a76 1bbd 6752 013e
000002e0: 48f4 083d 1bc3 12bc 3cfc eb3d f9bd 52be
000002f0: b29a b9bc 70dd d1ba 3e34 c0bd 7bb7 8e3d
00000300: 5e33 80bb a85c debc 1deb 0dbe 7e4e 9bbd
00000310: 40a5 3b3e 1c45 f43c 409c a43d a40a 7f3c
00000320: b6aa 973d 4c66 bbbd e439 13bd 4730 81be
00000330: 19cb 0ebc 4890 303b 79ad 313e f850 a6bd
00000340: dcbe 37bd d7e0 35be 6a7c 0a3d 72b5 d5bd
00000350: 40a1 5abc 4955 0dbe 46df 243e aa49 8f3d
00000360: 1cc8 f8bc de70 413e 4a57 be3c 40a0 e7bc
00000370: 0d84 48bd d96d 053e 5d75 1dbd 7793 b23c
00000380: 3587 2f3d 7ad0 6cbc a1db 98bd f3ef ab3d
00000390: 638d fd3d b5ee d2bc 4979 37bd fa4e 433d
000003a0: e597 073a 6560 b4bd 6b23 5fbd b4e7 0d3d
000003b0: da58 0dbe acfb a23d 793c 323d 5912 4e3e
000003c0: aa7e dbbd 04e4 5e3d 4d37 5c3c dd7b 01be
000003d0: 59fc 2dbe bfd7 5cbe 111f d53c 97cc 8ebd
000003e0: fbe1 123d 997a 113e d0a9 7e3d 9fcc afbd
000003f0: 130a 793d 44f5 14bc 6314 b9bd 187d 11be
0.013594876 0.056182615 -0.09360638 0.014325031 0.037467014 0.31378534 -0.16395211 -0.026879158
0.021912051 -0.15403368 -0.025222877 -0.034471393 -0.032018118 0.05204149 -0.22184446 0.012212205
0.06898988 0.054657213 0.019729756 -0.0006114949 -0.010410985 0.12411314 0.08438451 0.011860183
0.13048355 0.16657433 0.17278387 0.096556865 0.15231968 -0.07956293 0.124017894 0.07964689
0.02147095 0.11214894 0.2266705 0.08539055 0.06373235 -0.110881686 -0.16591233 0.11800265
-0.057699148 0.030012492 0.05566337 0.10552663 -0.025146872 -0.09390414 0.032342564 0.014490347
-0.080074795 0.05425091 -0.12418926 -0.14531405 -0.0656675 0.11447979 -0.16728774 -0.11849875
0.027543146 0.07523618 0.16164455 0.01697359 -0.054380216 0.15304488 -0.014832774 0.011971764
-0.21516216 0.035464127 -0.008476938 0.019004269 -0.042194314 -0.076319225 0.056515716 0.1393783
0.023706436 0.034786444 0.00973025 0.017851561 0.07505798 -0.1912423 0.04114574 0.12454852
-0.17881168 -0.13278708 -0.047973275 -0.22726151 0.012057318 0.09867406 0.07019714 0.05519169
-0.011120551 -0.015343087 -0.004981411 -0.020047087 0.13018312 -0.015700512 0.009970527 0.057282194
0.16309105 -0.031219384 0.0028927505 0.014083686 0.07074655 -0.006584164 -0.13138095 0.051061865
0.024260255 0.033363815 0.0059320903 -0.16859204 -0.14532128 0.07654198 0.087960005 -0.044241194
-0.061554305 -0.14539976 0.058347058 0.032299787 -0.011427738 -0.1973013 -0.024951676 0.0010618767
-0.15673831 0.24322999 0.09743481 0.055969313 -0.051183254 -0.06456629 -0.061699655 -0.21623123
0.009971049 0.10395318 -0.025377393 -0.12979144 -0.1656441 -0.06535058 0.09310745 -0.054379676
0.13083303 -0.023505885 -0.07509713 0.06949112 -0.07202391 0.06751008 -0.19080698 0.033347055
0.07680485 -0.2768102 0.1113167 0.087470606 -0.019750124 0.10289125 0.014797089 -0.119583465
0.18119483 0.06992961 0.025834097 0.08045379 0.16948707 -0.18931349 0.15396787 0.09909336
0.08653118 0.0027353845 0.11656801 0.18347609 0.0047435956 0.09958994 -0.07267975 -0.19083272
0.18355307 0.026342724 0.070393 -0.006570753 -0.10107175 0.0026657549 0.076036334 0.15061031
0.08247796 0.00015863031 0.1149792 0.03993058 0.0954104 0.072471134 -0.037954845 0.1262909
0.03343609 -0.00895765 0.11522719 -0.20580281 -0.022656772 -0.0016011428 -0.093849644 0.0696859
-0.0039123734 -0.027143791 -0.1385922 -0.075833306 0.18324757 0.02981811 0.08037615 0.015566502
0.074056074 -0.09150371 -0.03594388 -0.25232145 -0.008715414 0.0026941467 0.17351331 -0.08120912
-0.044859752 -0.17761551 0.033810057 -0.104349986 -0.013344109 -0.13802065 0.16100797 0.06996472
-0.030368857 0.18890712 0.023234982 -0.028274655 -0.04895406 0.13030185 -0.038442004 0.021798832
0.042853553 -0.014454002 -0.07463766 0.08395376 0.12380483 -0.02574859 -0.0447934 0.04768274
0.00051724754 -0.08807448 -0.054477137 0.034644797 -0.13803425 0.07958159 0.043514702 0.20124187
-0.10717519 0.05441667 0.013440919 -0.12644906 -0.16990794 -0.21566676 0.02601579 -0.06972616
0.035860043 0.14206924 0.062173665 -0.0858395 0.060800623 -0.009091679 -0.090370916 -0.14207876

G.0.linears.1.bias f4 [32]
00000000: c549 d33b 21d4 9a3d 5582 de3c 6303 6a3c
00000010: 4222 aebd 0edf de3b 8963 afbd 404c 2a3d
00000020: 29a3 813d 0e8d 23bd 3848 93bd ba29 013d
00000030: 9785 4dbc 8b23 5d3d 7f8d 9bbd b788 9a3d
00000040: 1f2c 91bd 8bc2 1dbd 5e4c cebd 82ad ab3d
00000050: 70b9 a33d 1f0b 1b3d 1402 14bd c549 54bd
00000060: 03bf 0cbd 7699 903d 0da1 b13c 1bae af3d
00000070: ad8c 483d 3cd1 02bb 9a95 783b fa66 60bd
0.006448003 0.07559992 0.027161757 0.014283034 -0.08502628 0.0068014925 -0.08563907 0.041576624
0.063299485 -0.039929442 -0.07191509 0.031533934 -0.012544057 0.053988975 -0.075953476 0.075456075
-0.070884936 -0.03851561 -0.1007316 0.08382703 0.07994354 0.037852403 -0.036134794 -0.051828165
-0.03436185 0.0706052 0.02168324 0.0857813 0.048962284 -0.001996114 0.0037930966 -0.054785706

G.0.linears.2.weight f4 [10, 32]
00000000: 7e3e a63c 4048 613c 0dc9 fa3d 484c 943d
00000010: e9fd fbbc ee11 ae3d fd77 883d bfd2 063d
00000020: 4e8b 7b3e d0c1 2a3d b080 523d 7ece 3e3c
00000030: 566e ea3d be98 05bb 6598 1bbe 753d b9bd
00000040: 1e03 23be ca5a febd 2ded 4dbe d2c0 613d
00000050: 5f7b cc3c 9754 f6bd 4db7 9abd ae0b 893e
00000060: 944f a0bd a587 a9bc df89 3b3c eaca 9d3d
00000070: a8cb 2a3e 7e69 1d3c 4a74 2ebc 5f4b d9bd
00000080: c647 50be 1e38 2d3d 015d 8abd a420 b7bc
00000090: f0ad 1f3d 7e6f 2c3d a72e 803e e9af 8abd
000000a0: cdfd 273e a53a 21be 3764 1a3d 75d3 95bd
000000b0: 48a0 21be d58f cd3c cbe0 8abc e890 473e
000000c0: b9f2 cabc 2c75 07be 49f8 1b3e 8f88 503d
000000d0: dd4d b0bd 8a44 033d da9a 71bd 36a4 a3bc
000000e0: 9fcf 1f3d 2327 57be 6671 c5bd 97a2 2d3c
000000f0: 25ad 2d3e 4961 0dbc 8865 0b3d c594 e8bd
00000100: 4d93 b5bd a60e 5abe c7d0 afbd 01c7 66bd
00000110: f8ae 8c3d 47f0 4f3d 7dc6 17be 6a07 4e3d
00000120: f364 efbc 4d1c fdbc 4fbc 293d 07a8 a8bd
00000130: 0dff 50be e015 6e3d 5175 4cbc 3c2c e1bd
00000140: 6323 cb3c 74a5 343d 80eb 9c3d 9247 aa3d
00000150: f317 ab3c 3c16 c33d 7566 eebd 4b25 113b
00000160: f841 e2b9 c7e4 f7bd b6d1 8abd 5849 9f3d
00000170: 35a1 4fbd 0f4d 03be d4a1 083d 3ae8 413e
00000180: f440 f53c 50f5 973d 3baf d33c 42e9 b7bb
00000190: 3082 d03d dce1 4dbe ef36 223d 2bfa 9f3d
000001a0: 8361 933b 48f6 adbd f213 73bd eb83 8cbd
000001b0: 495e cdbc e44e 6bbd f68b 7c3d a6c1 a83c
000001c0: bd61 e53d f0f1 5a3c d152 943d 2e19 3b3e
000001d0: 191c 763d 8739 d33c caa4 c3bb ae1a 56ba
000001e0: 0102 8abd 7f7e 84bc e36a 6a3c a2a3 133e
000001f0: 4b69 5c3e f917 5a3e 6927 d2bc bb04 be3c
00000200: c540 6e3d c1e1 613d 3a06 8c3d f59e cf3d
00000210: c3be 64bd b75e ecbd 0dff 2b3d 6d4d b93c
00000220: 6caf 873d 8821 b6bd a928 5abc 9483 2e3e
00000230: 5b79 c63c 2fa6 e03c 6bae 61bd 2e1f 0dbc
00000240: 29b3 d43d 0dc1 d03c 2779 55bb 4b78 863d
00000250: 3ff8 1dbd 30b2 2fbd 3775 a83d 9208 233d
00000260: d9f0 f73d ae96 bebc 7f85 643d 2f0c 89bd
00000270: 7d75 503d 3253 6cbb 05d9 573d 1c3e 6abd
00000280: a751 133d 02d0 48bd e484 6a3c 31b4 9fbd
00000290: cbb8 1dbe e5b7 f0bc 83c2 2cbd 1520 e73d
000002a0: 831b b63d c802 b3ba 50b5 73bd 068d e73d
000002b0: 639d a6bd af13 3b3d f0a1 113c 2379 db3c
000002c0: 6334 15be 55bb dbbd 1225 fabd 0ee8 9fbc
000002d0: bd45 44bd 3602 8c3c 3c7a 7fbd e394 083e
000002e0: 52b9 f1bd 27f4 db3c f7dd 9b3d 5f79 243c
000002f0: 5546 23be 23a5 cdbd a0c6 2d3c 947b 54bd
00000300: fdcc 0dbe 9eb0 33bd c6fe e43d 2b38 0a3e
00000310: cd6d 8ebd 6645 ab3c dafd 9ebc f441 85bd
00000320: 28b8 ecbc 5ba2 d6bc 2d7c 03bd 7769 13be
00000330: a8f9 473d bd58 033e 6048 45be 62be 76bc
00000340: f98d 193d f7ae 133e aaba bab9 6c8d 3ebe
00000350: 3b66 c63d 0a6b 8f3b 340e 47be 0802 fc3d
00000360: cd0f 1f3e 5bff 1ebe 7ba6 89be 235c 323e
00000370: c2fd 57bc b65b 753d 17c3 d33c 801d 03be
00000380: 64d4 a5bd 0c07 4cbd 8e9c 933d 06cf efbd
00000390: c99b 10be b8dc 0abe 00bd e63d 782d 0c3e
000003a0: edac 6c3d ed9c f1bd c485 1a3e 3bf2 3a3e
000003b0: ff68 d2bb 5d04 453c 5d25 6bbd 987c 023e
000003c0: 2d4a 923d 267b ac3a e603 653d 7709 13be
000003d0: 27b1 e4bd 8719 b33d 7cce 263e 57cc 0a3e
000003e0: 778d 83bd 58e8 bbbd c5e5 5d3d 564b 40bd
000003f0: b937 b13d 3601 84bd 8dcf f83d 81b1 a6bc
0.02029347 0.013750136 0.12245379 0.07241112 -0.030760722 0.084995136 0.06663511 0.032915827
0.2456486 0.04168874 0.051392257 0.011645911 0.11446826 -0.002038523 -0.15194853 -0.09044925
-0.15919158 -0.124196604 -0.20110007 0.05511553 0.024961172 -0.12027853 -0.07554493 0.26766723
-0.07827678 -0.020694563 0.011446445 0.077047184 0.16679251 0.009607671 -0.010647843 -0.10610079
-0.2033988 0.042289846 -0.0675602 -0.022354431 0.03898424 0.042098515 0.25035593 -0.067718334
0.16405411 -0.15745027 0.03769323 -0.07315723 -0.15783799 0.025092999 -0.016952893 0.19488871
-0.024773942 -0.13228291 0.15231432 0.050911482 -0.08608601 0.032047786 -0.05898557 -0.019975763
0.039016362 -0.21011023 -0.0964077 0.0105978465 0.1696058 -0.008629152 0.034032375 -0.113565005
-0.08865986 -0.2129465 -0.08584743 -0.05634213 0.0686931 0.050766256 -0.14821811 0.05030004
-0.029222941 -0.030897284 0.04143935 -0.08235174 -0.20409794 0.05812633 -0.012479142 -0.10994765
0.024797147 0.0441031 0.076621056 0.08314432 0.020885443 0.09525725 -0.11640636 0.0022147472
-0.0004315523 -0.12104183 -0.067782804 0.07777661 -0.05069085 -0.12822364 0.033357456 0.18936244
0.029938199 0.074198365 0.025840392 -0.0056125233 0.10181081 -0.2010569 0.03960317 0.07811388
0.0044977083 -0.0849424 -0.059345193 -0.06861099 -0.025069373 -0.057448283 0.061656915 0.020600151
0.11200283 0.013363346 0.072423585 0.18271324 0.06008539 0.025784267 -0.005970572 -0.0008167428
-0.067386635 -0.0161736 0.01430771 0.1441789 0.21524541 0.21298207 -0.025653558 0.023195615
0.058167238 0.055146936 0.06837125 0.101377405 -0.055845987 -0.11541503 0.041991282 0.022619927
0.06625256 -0.08893114 -0.013315358 0.1704238 0.024227789 0.027422993 -0.05509798 -0.008613391
0.103857346 0.025482679 -0.0032573433 0.06565913 -0.038566824 -0.042894542 0.08225482 0.039803095
0.12106485 -0.023265209 0.055791374 -0.06691777 0.050893296 -0.003606033 0.0526972 -0.05718814
0.03596654 -0.049026497 0.01431391 -0.07798041 -0.15402524 -0.029384563 -0.04217769 0.11285416
0.08891966 -0.0013657445 -0.059499085 0.11306195 -0.08135488 0.04567307 0.008888707 0.02679116
-0.14570765 -0.1072909 -0.12214102 -0.019519832 -0.04791807 0.017090898 -0.06237243 0.13338046
-0.11802925 0.02684982 0.07610696 0.010038703 -0.15944798 -0.10041263 0.010606438 -0.051875666
-0.13847728 -0.043869607 0.11181407 0.13497989 -0.069545366 0.020907115 -0.019408155 -0.0650672
-0.028896406 -0.026200464 -0.032100845 -0.143957 0.048822075 0.1282682 -0.1926589 -0.015060039
0.03748891 0.14422213 -0.0003561576 -0.18608636 0.09687468 0.0043767737 -0.19439012 0.12305075
0.15533371 -0.15527098 -0.26884827 0.1741796 -0.013183059 0.059901915 0.025849862 -0.12804222
-0.08097151 -0.049811408 0.07207595 -0.117094085 -0.14121927 -0.1356076 0.11266518 0.1368922
0.057782102 -0.11797509 0.1509009 0.18256466 -0.006421208 0.012024966 -0.05740868 0.12742841
0.07143054 0.001315926 0.05591192 -0.1435908 -0.11166602 0.08745103 0.16289705 0.13554512
-0.06423467 -0.091751754 0.054174203 -0.046946846 0.086532064 -0.064455435 0.12148962 -0.020348312

G.0.linears.2.bias f4 [10]
00000000: 4078 89bd 7f56 88bd 9706 243d aa09 12bd
00000010: c1c6 8e3d b997 6abd c21a 4ebd eef0 103d
00000020: d1ca 41bd c612 cb3d
-0.06712389 -0.06657123 0.040045347 -0.035653748 0.06971503 -0.0572736 -0.050318487 0.03538602
-0.04731256 0.0991569

L.0.linears.0.weight f4 [32, 20]
00000000: 679c 243d e36e 3b3d ffe3 febb 7d2e ffbb
00000010: e855 a33d 6739 013e cc7f c83b cc2b f03b
00000020: 91d2 f33d b1e1 c43c d4ca 603d 73a6 e63d
00000030: 7722 243e 5edd 033d dc6c c63c 8e5a 2f3e
00000040: f4cf cabd ed48 6abd 88fc 62be 4cfd 1abd
00000050: 808d 1e3e ed1d 55be e920 863d b352 d7bc
00000060: 9b1e 11be de8f b0bc f6bf fdbd 940d 5fbd
00000070: fcb2 9b3d 88fc b53d e531 c33d 4e4d 4abc
00000080: edc1 0b3d 1d05 c2bd 99a3 37bc b5cf e8bd
00000090: 02b1 0f3d e19a 90bc 2a22 a4bd 0fd7 ca3c
000000a0: 3be7 d53d c1cd b93d a5d6 bbbd dc17 e8ba
000000b0: a1ca 6fbe 31a9 8f3d 2939 d83d bd93 61bd
000000c0: 28c2 30be 6023 afbc 4031 e23b 8a96 ce3d
000000d0: a779 073e 9e84 0a3d 5c76 393d 462c 093c
000000e0: 474b 633d 05f8 67be 0e81 8b3d 9d86 c13d
000000f0: f871 0a3c 7e68 47bd 381b 1bbd 797d 8b3b
00000100: 3c82 97ba fce1 82bd 93f8 1ebd f069 183d
00000110: f524 b13b c92d 99bd 9069 9b38 364a e5bc
00000120: 1d3d 18be 431b 48be 81c5 2b3e 8108 9bbd
00000130: ccac 4ebd 38cc 96bc 2a7f 223e 5b76 91bd
00000140: 080f e3bd 8d8e 083c 7571 d13d fa0a 51bd
00000150: 396e 8fbd e77f 6abd 0ca6 1abd 2764 15be
00000160: 775a 8abd d323 103d 3ec6 a63d 2df2 d53a
00000170: b3d4 333d 37f7 723b 4b08 293c 1bb9 ef3d
00000180: 4fe1 c23b f31e 013d 9456 f9bc b4fa 90bd
00000190: 6ee6 0bbd ec27 36bd f809 2bbe 68dd 14bd
000001a0: f0f9 bcbe c0a9 e2bd bfe0 ed3d 4f84 253d
000001b0: 1ff8 1a3d 5e31 6ebb ca68 18bd c38f 4bbd
000001c0: 921a 62bd 9eb7 c53c 359c f5bd 7734 54bd
000001d0: 082d 4bbe ee4e b4bd f170 ccbd 158e 143e
000001e0: 1253 4a3e 7079 44bc 35e8 81bd 6eb2 e4bd
000001f0: 1401 13be 8954 57be feab 5f3e e8df 95bd
00000200: a239 ca3c 2fd5 0a3d a417 bebd d97c f43d
00000210: f82a 1c3e 17a6 63bd d072 5abd 11a0 733d
00000220: 24fb 86bd 1e7b b9bd c3db 733d f4bc 6cbd
00000230: d052 28bc 67d1 913d dda3 b9bd d7ff a4bd
00000240: 8af0 8c3c bac2 6f3d 82e0 ab3d 086a aebd
00000250: f4ed ecbd d14b 293c 6a97 ab3c eaaa d83d
00000260: 35c8 a43d 49fa 0c3d 9442 0e3d a54b 3cbc
00000270: 4660 f2bd d0e3 2c3e ae61 87bd 02f0 f13c
00000280: 6e0c 17be 760b 3cbd 6634 303e 153c 2d3e
00000290: e2d8 693d 33a2 163d b2c6 cbbd ce47 d13d
000002a0: bec1 453c f684 0b3a 7a10 4d3e b59f 763e
000002b0: 5bf7 2d3e 492c aa3d 8959 c4bc 4967 d3bd
000002c0: 04d6 25be b536 1cbd 4c36 fbbd b0a1 793d
000002d0: a091 40be 34a8 963b d5c4 223e 86cd 3cbe
000002e0: 198f a9bc a1ee c7bd ba0e d7bd 83ff c0bd
000002f0: 0f62 283c 4efa 3f3d 1b57 4e3e db5b 2abc
00000300: 2d06 2bbe e352 e6bc 203f 30bd 5685 493e
00000310: 8367 293c 58ee eebc 66e9 f6bd 5420 3cbd
00000320: 3c13 dfbd 45c9 093e e213 ed3c 6dde 09bd
00000330: d538 b4bc 7cf5 843d d985 44bd c6d2 e33b
00000340: 0726 0dbd 2cfb 10be c04a e0bd 6134 553d
00000350: 2837 763d a7a3 f1bd 1c73 cdbd d34d 8abd
00000360: 32a4 9cbb f99c d0bd 4a7f 0e3e d258 49bd
00000370: 7b37 6fbd 6d19 40bd 71da 963d 357f 9ebd
00000380: 8c0e 3ebd f62f bf3d 4a5e 24bd 5869 a2bd
00000390: 03ac e63d 7af7 463e e85a 4dba 9e5a 54be
000003a0: 4509 b3bd e6af 24be 0de5 3c3e 8bf4 2d3d
000003b0: 99e6 c93d ee36 8d3d 68cd bf3c 4f47 013e
000003c0: 51be 923d 4914 90bd 5590 353d 6dac 5b3e
000003d0: 57c7 99bd 08c2 c5bd 7253 72bd 98da 96bd
000003e0: a487 603d 626e 683d 8f7e 6ebd 29d1 dcbd
000003f0: f7d4 f1bc 9633 f9ba a002 8db9 60e2 ce38
0.04018822 0.045760047 -0.007778644 -0.0077875243 0.0797537 0.12619554 0.00611875 0.0073294397
0.11905397 0.0240334 0.054880932 0.112622164 0.16028772 0.032193534 0.02422183 0.17124388
-0.09902945 -0.057198454 -0.22166646 -0.03783922 0.15483665 -0.20812197 0.06549246 -0.026284551
-0.14171831 -0.021552976 -0.12390129 -0.05445631 0.07602498 0.08886057 0.09531001 -0.012347532
0.03412049 -0.094736315 -0.011208438 -0.11367742 0.035080917 -0.017651977 -0.08014329 0.024760751
0.10444494 0.090724476 -0.091717996 -0.0017707306 -0.2341714 0.070146926 0.105577774 -0.055072535
-0.17261565 -0.021379173 0.0069028437 0.10087307 0.1323 0.03381788 0.045278892 0.008372372
0.055491712 -0.22653206 0.068117246 0.094495036 0.008450024 -0.048683636 -0.037867755 0.004256901
-0.0011559199 -0.06390759 -0.038811278 0.037210405 0.005406017 -0.07479436 7.4106385e-05 -0.027989488
-0.14867063 -0.1954165 0.1677456 -0.07569981 -0.05045776 -0.018407926 0.15868822 -0.07102653
-0.11086851 0.008334768 0.10226718 -0.05103586 -0.07003445 -0.057250883 -0.03775601 -0.14588986
-0.06755536 0.035190415 0.081432804 0.0016322784 0.043904018 0.003707362 0.010316919 0.11705228
0.005947269 0.031523656 -0.030436791 -0.07079068 -0.0341553 -0.044471666 -0.16703022 -0.036343962
-0.36909437 -0.110675335 0.116151325 0.040409382 0.037834283 -0.0036345343 -0.03720931 -0.04969765
-0.05520112 0.024135407 -0.11992685 -0.051807847 -0.19841397 -0.08804117 -0.09982479 0.14507325
0.19758251 -0.011991844 -0.06343118 -0.11166845 -0.1435588 -0.21028341 0.21842954 -0.07318097
0.024685685 0.033894714 -0.09281853 0.11937875 0.15250766 -0.055578317 -0.05333215 0.059478823
-0.0659087 -0.09056686 0.059535753 -0.057797387 -0.01027365 0.071200185 -0.090644576 -0.0805661
0.017204542 0.058535315 0.08392431 -0.085163176 -0.115688235 0.010333017 0.020946223 0.10579474
0.08045999 0.034418378 0.034731463 -0.011492644 -0.11834769 0.16883779 -0.06610428 0.02953339
-0.14750835 -0.045909368 0.17207488 0.1691745 0.0570916 0.03677578 -0.099500075 0.10218774
0.0120701175 0.0005322242 0.20025817 0.24084361 0.1698889 0.08309228 -0.023968475 -0.103224345
-0.16194922 -0.03813811 -0.12266216 0.060945213 -0.18805552 0.004597688 0.15895398 -0.18437776
-0.020698117 -0.09762312 -0.10500856 -0.09423735 0.010277285 0.04686957 0.20150416 -0.010397877
-0.16701575 -0.028115695 -0.04302895 0.1967977 0.0103396205 -0.029166386 -0.12056236 -0.045929268
-0.108923405 0.13455684 0.028940145 -0.033659387 -0.021999756 0.06492135 -0.04797921 0.0069526164
-0.034460094 -0.14158314 -0.109517574 0.052051906 0.060111195 -0.11798792 -0.10031721 -0.06753125
-0.004780316 -0.1018619 0.13915744 -0.04915697 -0.05840252 -0.046899248 0.07365883 -0.077391066
-0.04640059 0.0933532 -0.040128984 -0.07930249 0.112632774 0.19430342 -0.00078336755 -0.20737693
-0.087420024 -0.16082725 0.18446751 0.042469542 0.09858436 0.06895243 0.023413375 0.12624858
0.07165206 -0.07035119 0.0443271 0.21452494 -0.07508724 -0.09656149 -0.05916161 -0.07365912
0.054816857 0.056745894 -0.058226164 -0.10782082 -0.029520495 -0.0019012566 -0.00026895572 9.865011e-05

L.0.linears.0.bias f4 [32]
00000000: c509 013d 38e1 a43d 40bd 573c d910 563c
00000010: 3d40 8f3d 4894 eabb 8730 893d 1963 163d
00000020: 6269 973d 96b9 7cbd 9f84 963d ba0a fabb
00000030: b011 0bbd e34d 4ebd a898 36bd 5746 be3d
00000040: f44b 493d a46e 713b 85ae b83d 96d0 f73c
00000050: 6bb1 633d c036 d0bd 2be8 d1bc 9612 a3bc
00000060: b3de 4ebd 2aa4 c93c 30e6 a7bd f02c 4fba
00000070: 2276 ef3b c7d1 a0bd 11db ecbb 312e 91bd
0.031503458 0.080507696 0.013167679 0.01306554 0.06994674 -0.00715879 0.06698709 0.0367156
0.07393147 -0.061700426 0.07349514 -0.0076306732 -0.033952415 -0.050367247 -0.044579178 0.0929076
0.0491447 0.0036839629 0.09017662 0.030250829 0.05558912 -0.10166693 -0.025623402 -0.019906323
-0.05050535 0.024614412 -0.08198202 -0.00079031195 0.0073077837 -0.07852512 -0.007228263 -0.070888884
