para_save/00014params.pth (torch, 118145 bytes, 76 tensors)

F.linears.0.weight f4 [32, 20]
0	0xbd8e4ce0	-0.069482565
1	0xbdb8fbd2	-0.09032406
2	0xbe1cb1fa	-0.15302268
3	0x3c4f4fe7	0.012653328
4	0xbda195e3	-0.07889917
5	0xbd7141d6	-0.058900677
6	0xbdfddbc7	-0.12395435
7	0x3dd637b5	0.10459844
8	0xbdbb366b	-0.09141239
9	0xbd74a6c1	-0.05972934
10	0xbcc3f2bd	-0.023919458
11	0xbcc8522b	-0.024453243
12	0x3db1651d	0.08661864
13	0xbe170ec6	-0.1475173
14	0x3c756806	0.014978414
15	0x3af8b229	0.0018973994
16	0x3d6d0af3	0.05787177
17	0x3e021972	0.12705019
18	0xbd8c1ab5	-0.068410315
19	0x3df37b9c	0.11888811
20	0x3e32277b	0.17397873
21	0xbdd1b1dc	-0.10239002
22	0xbd03f058	-0.03221163
23	0xbd7bad59	-0.061444614
24	0xbd3d8031	-0.04626483
25	0xbe0fceb2	-0.14043692
26	0x3c3da3c3	0.011574688
27	0x3d94ba3d	0.07262085
28	0x3ce027db	0.027362755
29	0xbcb36086	-0.021896612
30	0x3e24d5ef	0.16097234
31	0xbd6ed712	-0.058310576
32	0xbe37bc3a	-0.17942896
33	0xbc1c3890	-0.00953497
34	0x3d754ccf	0.059887704
35	0x3d88599a	0.06657715
36	0x3d3f711d	0.046738733
37	0x3d00858f	0.03137737
38	0xbd8c9c51	-0.068657525
39	0x3c9a0488	0.018800989
40	0xbd9811b0	-0.074252486
41	0x3dcb6b70	0.099326015
42	0xbdf1e6e3	-0.11811616
43	0xbe2a0567	-0.16603623
44	0xbe00735f	-0.1254401
45	0xbdf18b9e	-0.11794208
46	0x3df85c79	0.12127013
47	0x3d497daa	0.04919211
48	0x3dcae6ae	0.0990728
49	0x3d22364d	0.039602567
50	0x3e0385e0	0.12844038
51	0xbdb939b7	-0.09044211
52	0xbd55149d	-0.05202161
53	0xbe493d90	-0.1965239
54	0x3dae91e7	0.085239224
55	0x3d595ca3	0.05306686
56	0x3dadcce1	0.08486343
57	0xbe41fb84	-0.18943602
58	0xbdcc2459	-0.0996787
59	0x3d2798fe	0.04091739
60	0x3ce5e7d8	0.028064653
61	0xbdf5129e	-0.119664416
62	0x3cbce012	0.023056064
63	0xbdbd22a6	-0.09235124
64	0x3e0c81d5	0.13721402
65	0xbdcb34ea	-0.09922202
66	0x3cd3eeba	0.02587067
67	0xbcc5de0f	-0.024153737
68	0x3bb1e8cb	0.0054293624
69	0x3e0a3738	0.13497627
70	0xbcb5210b	-0.022110483
71	0xbe1b0a14	-0.15140563
72	0xbd88ee61	-0.06686092
73	0x3bb01e04	0.005374672
74	0x3cd64bad	0.026159132
75	0x3dc313b7	0.09525245
76	0xba3de472	-0.0007243819
77	0xbba9b955	-0.005179564
78	0xbe2569b7	-0.16153608
79	0x3d3a173d	0.045432318
80	0x3d8e84c2	0.06958915
81	0xbc4f6108	-0.012657411
82	0xbdf4e0d0	-0.11956942
83	0x3d946462	0.07245709
84	0x3d323df4	0.043516114
85	0xbd1ea35a	-0.038730003
86	0x3d374392	0.044742174
87	0xbd818f57	-0.06326168
88	0x3d43607f	0.047699448
89	0x3e0c315c	0.13690704
90	0xbccbe0c5	-0.024887452
91	0xbdb87b4c	-0.09007892
92	0xbe3d67e8	-0.18496668
93	0xbddb4c37	-0.10707896
94	0x3e25f0ec	0.16205186
95	0xbcd18423	-0.025575703
96	0x3e507cb5	0.20360072
97	0xbcde4595	-0.027132789
98	0xbdf7d2db	-0.12100764
99	0x3c09e902	0.00841737
100	0xbd23fdfe	-0.040037148
101	0x3e453480	0.19258308
102	0xbe303f78	-0.17211711
103	0xbdb01711	-0.085981496
104	0x3db79221	0.08963419
105	0xbd0d852e	-0.03455084
106	0x3d8a680e	0.06758128
107	0x3e426919	0.18985404
108	0x3e09b91f	0.13449524
109	0xbc5b17ea	-0.013372401
110	0x3caa4450	0.020784527
111	0xbd13fb5b	-0.036128383
112	0xbcca7edb	-0.024718693
113	0xbcec454f	-0.028841643
114	0xbd1234f6	-0.03569504
115	0x3d5b2418	0.05350122
116	0x3e532979	0.2062129
117	0x3c8fb75c	0.017543487
118	0x3d4e7425	0.050403733
119	0xbd17b9dc	-0.037042484
120	0x3df02b6d	0.11727033
121	0x3a13bd45	0.00056358083
122	0xbdaf29e9	-0.085529156
123	0xbd683ffd	-0.05670165
124	0x3d2b75a3	0.041860234
125	0x3b554e7a	0.0032547996
126	0x3e5f98c2	0.21835616
127	0x3d5fd201	0.054643635
128	0x3d603d95	0.05474623
129	0x3df8b106	0.121431395
130	0x3decbbb6	0.115592405
131	0x3dcb4a79	0.09926314
132	0xbcc23987	-0.023709072
133	0xbdf7048a	-0.12061413
134	0x3e4d667b	0.20058624
135	0x3e0347cd	0.12820359
136	0xbe59afaa	-0.21258417
137	0xbd7cb8bb	-0.06169961
138	0x3c9de192	0.0192726
139	0x3d08b019	0.033371065
140	0x3db8ced9	0.09023828
141	0xbd4f6d0a	-0.050641097
142	0x3e11984d	0.14218254
143	0x3be4115e	0.006960078
144	0xbbb9a0d7	-0.0056649256
145	0x3cb41c18	0.021986052
146	0xbd1607ed	-0.036628652
147	0x3b6b2c51	0.003588457
148	0x3dacb739	0.084333844
149	0xbe16ec48	-0.14738572
150	0xbdc5f1a4	-0.0966523
151	0x3dc761e6	0.097354695
152	0x3a301ad4	0.0006717865
153	0xbccfa9c0	-0.025349498
154	0x3d6e4ecf	0.058180626
155	0x3c1d1c77	0.009589306
156	0x3b09ee8a	0.0021046721
157	0x3ca77a64	0.020444103
158	0xbe355f54	-0.17712146
159	0x3db4f4c1	0.088357456
160	0xbd813437	-0.06308787
161	0x3dd4749c	0.10373804
162	0x3d965a54	0.073414475
163	0xbc7a6a11	-0.015284077
164	0xbdb9367d	-0.09043596
165	0x3d71387b	0.058891755
166	0xbe00142c	-0.12507695
167	0xbcaf50eb	-0.02140089
168	0xbdb78dbc	-0.089625806
169	0x3d57add4	0.05265601
170	0x3e096bb8	0.13419998
171	0xbdfb119e	-0.122592196
172	0xbade243e	-0.0016948057
173	0x3c53b1a1	0.012920768
174	0xbd840704	-0.064466506
175	0x3d86c99f	0.06581425
176	0x3d824c40	0.063622
177	0xbdd409d3	-0.10353436
178	0xbb8fcf02	-0.004388691
179	0x3e0c4501	0.13698198
180	0x3d398fd8	0.045303196
181	0xbd51c429	-0.051212464
182	0x3db33739	0.08750767
183	0xbd5a7c75	-0.053341348
184	0xbc785335	-0.015156557
185	0xbc879a27	-0.016552998
186	0xbdae6534	-0.08515397
187	0x3e783d81	0.24242212
188	0x3e040b24	0.12894875
189	0xbdb02747	-0.086012416
190	0xbb571373	-0.003281799
191	0x3c946bf6	0.018117886
192	0x3d9d1cc1	0.076715
193	0xbd8b62fe	-0.06805991
194	0x3d4d5f68	0.050139815
195	0xbd6ea78e	-0.05826526
196	0xbdccf9c2	-0.10008575
197	0xbe04bd96	-0.12962946
198	0xbe05d688	-0.13070118
199	0xbd19c7aa	-0.03754393
200	0x3d03f00a	0.03221134
201	0xbcc05b96	-0.023481172
202	0x3bb1ca92	0.0054257596
203	0xbc3af911	-0.011411921
204	0xbdd5f964	-0.10447958
205	0x3ccb7a66	0.024838638
206	0x3daa40e7	0.083131604
207	0xbda97e1a	-0.08276005
208	0xbbbe8610	-0.0058143213
209	0x3cfe32cb	0.03103008
210	0xbdaadad8	-0.083425224
211	0x3c087f87	0.008331186
212	0xbe039827	-0.1285101
213	0x3caf9515	0.021433393
214	0x3e2a9d5d	0.16661592
215	0x3d424a9d	0.047434438
216	0x3e0809ba	0.1328496
217	0xbe2554b9	-0.161456
218	0x3d855799	0.065108486
219	0x3d542cd9	0.051800583
220	0xbd9b3227	-0.07577925
221	0xbcdb9aec	-0.026807271
222	0xbd2b733c	-0.041857943
223	0xbc6b8081	-0.014373899
224	0xbd71be84	-0.05901958
225	0x3d8980a8	0.06713992
226	0x3dbdc642	0.0926633
227	0xbd960e40	-0.07326937
228	0xbcf010fb	-0.029304972
229	0xbe4f473e	-0.2024202
230	0x3c1da203	0.009621146
231	0xbe75c9a0	-0.24002695
232	0x3e160628	0.14650786
233	0xbd026669	-0.031835947
234	0xbd1d603f	-0.038421866
235	0x3deee1d6	0.116641685
236	0x3c565a1c	0.013083007
237	0xbd21c3f6	-0.039493524
238	0xbe6f99cc	-0.23398513
239	0x3e2b0f5d	0.1670508
240	0x3dfbbdfc	0.12292096
241	0xbd45cda3	-0.048291814
242	0xbc87a185	-0.01655651
243	0xbd8341ef	-0.0640906
244	0x3cbcafd3	0.023033058
245	0x3e2701fc	0.1630935
246	0x3c8a03d3	0.016847527
247	0x3d947364	0.072485715
248	0x3b14fd47	0.0022733973
249	0xbde5e23a	-0.1122479
250	0x3d051662	0.03249205
251	0xbe0668c5	-0.13125904
252	0xbd5c6d14	-0.053814963
253	0xbe2f1969	-0.17099537
254	0x3c507633	0.012723493
255	0xbb725ea1	-0.0036982673

F.linears.0.bias f4 [32]
0	0xbd047e1d	-0.032346833
1	0x3c5c0919	0.013429903
2	0x3d47f9ab	0.048822086
3	0xbdb209b5	-0.08693258
4	0xbd71b97b	-0.05901478
5	0xbd3e4c42	-0.046459444
6	0xbdb0503d	-0.08609054
7	0x3d12eb6d	0.03586905
8	0x3ca71a9a	0.020398427
9	0x3d94fb42	0.07274486
10	0xbd65a1fa	-0.056062676
11	0xbd126816	-0.035743795
12	0xbccdef80	-0.025138617
13	0xbc157bbd	-0.00912374
14	0xbc0644ee	-0.008195145
15	0x3c9f70bd	0.019462937
16	0x3c18cb92	0.009325879
17	0x3da68bfe	0.0813217
18	0x3d991790	0.07475197
19	0x3cb79eb1	0.022414537
20	0xbde2dc28	-0.11077148
21	0xbc20a37e	-0.009804605
22	0xbdc8ca7f	-0.09804248
23	0xbd920fc1	-0.07131911
24	0xbd558d5d	-0.052136768
25	0xbcb769d2	-0.022389326
26	0xbb4bb6ce	-0.0031084302
27	0xbd4fe6cc	-0.050757214
28	0x38fc6530	0.00012035144
29	0x3b798f4a	0.0038079792
30	0xbbce7e30	-0.006301664
31	0xbc254ad9	-0.010088646

F.linears.1.weight f4 [32, 32]
0	0xbd08f252	-0.03343422
1	0x3dd91216	0.10599153
2	0x3e939009	0.28820828
3	0xbdc87426	-0.097877786
4	0xbdd9438d	-0.106085874
5	0x3d037419	0.03209314
6	0x3c6a408f	0.0142976185
7	0xbdbfc784	-0.093642265
8	0xbd0c2587	-0.034215476
9	0x3bb1a964	0.0054218043
10	0x3d13ad79	0.03605411
11	0x3abf3164	0.0014586863
12	0xbd9ab34d	-0.0755373
13	0xbdd3b5b6	-0.10337393
14	0x3e2dd79d	0.16976781
15	0x3ddd5ad5	0.108083405
16	0xbd46e650	-0.048559487
17	0xbd123254	-0.035692528
18	0x3cd0ba04	0.025479324
19	0x3debb5bc	0.115092725
20	0xbd5bac9b	-0.053631406
21	0x3d015e55	0.031584103
22	0x3e6dd2ba	0.23224917
23	0xbcea79a3	-0.028622454
24	0x3d133311	0.035937373
25	0x3de89f8c	0.11358556
26	0xbd36e611	-0.044653002
27	0xbdbec715	-0.09315316
28	0xbe2b8836	-0.16751179
29	0x3d475027	0.048660424
30	0x3c9461ca	0.018113036
31	0x3d729618	0.05922517
32	0x3dd570ce	0.104219064
33	0x3d18f83a	0.037346102
34	0x3e8aa11b	0.2707604
35	0x3d3f8800	0.04676056
36	0xbce6f1d8	-0.028191492
37	0x3dd8c2a5	0.105840005
38	0x3ce8ddb1	0.028426023
39	0xbd950113	-0.072755955
40	0x3d0d9a03	0.034570705
41	0x3c9fa7b5	0.019489149
42	0x3e191ae8	0.1495167
43	0xbe50cd23	-0.20390753
44	0xbb793d81	-0.0038031044
45	0xbada13a6	-0.0016637936
46	0xbe0016d8	-0.12508714
47	0x3d99daa4	0.075124055
48	0x3d720b05	0.05909254
49	0x3da85f98	0.08221358
50	0xbe2221b0	-0.15833163
51	0x3c16e231	0.009209202
52	0xbc7044fa	-0.014664883
53	0x3d3b2f78	0.045699567
54	0x3cf342e0	0.029694974
55	0x3d806f70	0.06271255
56	0xbe1d61fc	-0.1536941
57	0xbdb570b8	-0.0885939
58	0x3dcde998	0.1005432
59	0x3e35dbfa	0.17759696
60	0xbd5dc417	-0.054142084
61	0x3dea9ba6	0.11455469
62	0x3ded0c57	0.11574619
63	0x3dbd77fd	0.092514016
64	0xbd0e96dd	-0.034811843
65	0x3d1f7713	0.038931917
66	0x3aafbb3c	0.0013407241
67	0xbd2f894e	-0.042855553
68	0xbc7b7680	-0.015348077
69	0xbb2dada5	-0.0026501205
70	0x3c192788	0.009347804
71	0xbe4c6dbe	-0.19963738
72	0x3d33b725	0.043875832
73	0xbd619c58	-0.05508074
74	0x3d88125e	0.06644128
75	0x3e1ea775	0.15493567
76	0x3e43ad7a	0.19109145
77	0xbc9d16cc	-0.01917591
78	0xbe3204f4	-0.17384702
79	0xbc0a2084	-0.008430604
80	0x3e3ace54	0.1824277
81	0xbd93495b	-0.07191726
82	0xbd2ee194	-0.042695597
83	0x3d851732	0.06498565
84	0x3e1270a6	0.14300784
85	0x3e171c70	0.14756942
86	0xbc4f1099	-0.0126382345
87	0xbd89523a	-0.067051366
88	0xbe2efcd7	-0.17088638
89	0x3da5e82f	0.08100926
90	0xbe7fb25f	-0.24970387
91	0x3e1fd52d	0.15608664
92	0x3d801798	0.062545
93	0x3d6e4626	0.058172368
94	0x3df9a013	0.12188735
95	0xbc938d91	-0.01801184
96	0xbdf393ae	-0.11893402
97	0xbcddc6ce	-0.027072337
98	0x3d0af6d6	0.033926807
99	0x3dcbfdc9	0.09960515
100	0xbb1898cc	-0.0023284433
101	0xbe3ac32a	-0.18238512
102	0x3d449a90	0.047998965
103	0x3bb9ef12	0.0056742514
104	0x3e38e9d2	0.18057945
105	0xbe40968d	-0.1880743
106	0x3e31d365	0.17365797
107	0xbe02e34a	-0.12782016
108	0x3d202b80	0.039103985
109	0xbde471bc	-0.111545056
110	0xbe0d3b79	-0.13792218
111	0xbe833623	-0.2562724
112	0xbe130856	-0.14358649
113	0xbdab93be	-0.08377789
114	0xbde6507c	-0.1124582
115	0xbe68aed3	-0.2272294
116	0x3d96a661	0.07355953
117	0x3de8236b	0.113348804
118	0xbde46c96	-0.111535236
119	0x3e5c3f1f	0.21508454
120	0x3d926a02	0.07149126
121	0x3e17aeaf	0.1481273
122	0xbbf8946e	-0.0075860536
123	0xbd7b53b3	-0.06135912
124	0x3bccdfab	0.0062522492
125	0xbd1dbdfa	-0.038511254
126	0x3e18a769	0.14907612
127	0xbdc05b77	-0.093924455
128	0xb8715f98	-5.7547906e-05
129	0x3e27bf4f	0.16381572
130	0x3db69e57	0.0891692
131	0xbdd3b2cf	-0.103368394
132	0x3e0c2fc1	0.13690092
133	0xbc9ef3b5	-0.019403318
134	0xbcc6d778	-0.024272665
135	0x3d05234e	0.032504372
136	0xbd2e3471	-0.04253048
137	0xbc286e40	-0.010280192
138	0x3d703905	0.058648128
139	0x3d8288be	0.06373738
140	0xbde53dd8	-0.111934364
141	0xbe27195c	-0.16318268
142	0x3a18020f	0.00057986466
143	0xbdc75207	-0.09732442
144	0xbe2b72e1	-0.16743042
145	0x3b05ca49	0.002041476
146	0x3d8d8543	0.06910183
147	0xbb087fc7	-0.0020828114
148	0xbd767913	-0.06017406
149	0x3d757149	0.05992249
150	0x3bb60b83	0.0055555715
151	0xbc618e4b	-0.013766835
152	0x3dc37fff	0.09545898
153	0xbd0f1d71	-0.034940187
154	0xbe0d0ffc	-0.13775629
155	0x3e2b53f2	0.16731241
156	0x3ce32a4a	0.027730126
157	0xbdd06e47	-0.10177284
158	0x3dc809b2	0.09767474
159	0xbbb025cd	-0.0053756
160	0xbdab8f4d	-0.08376942
161	0xbacb5095	-0.0015511686
162	0xbde2c3f4	-0.11072531
163	0x3d8d071c	0.06886122
164	0xbdef6696	-0.116894886
165	0xbc343dcc	-0.011001062
166	0xbe5676fe	-0.2094383
167	0xbe692433	-0.22767715
168	0x3983a6c0	0.00025110506
169	0xbb8ef357	-0.0043625045
170	0xbdeb256c	-0.11481747
171	0xbe07b904	-0.13254172
172	0x3dd43919	0.10362453
173	0x3d94daff	0.07268333
174	0x3d8d502d	0.06900058
175	0x3df8e91e	0.121538386
176	0xbd4d9a68	-0.05019608
177	0xbcb10152	-0.021607075
178	0xbcd3cbde	-0.025854047
179	0xbddb918d	-0.10721121
180	0xbdac296c	-0.08406338
181	0x3bb3018f	0.0054628323
182	0x3d0a83b2	0.033817
183	0xbcd12e38	-0.025534734
184	0x3b2c15a8	0.0026258025
185	0x3db1b311	0.08676732
186	0x3d9f5703	0.07780268
187	0x3cab947e	0.02094483
188	0x3d47714a	0.048692025
189	0x3d9828b4	0.074296385
190	0xbdd6f4cd	-0.10495911
191	0xbd895180	-0.06704998
192	0xbc0359f7	-0.008017055
193	0xbde2386c	-0.11045918
194	0xbdcac34a	-0.0990053
195	0xbd5ab2fd	-0.053393353
196	0xbdae0eb4	-0.08498898
197	0xbbd46dd3	-0.0064828186
198	0x3dbdd8ca	0.09269865
199	0xbd2545b9	-0.040349696
200	0xbe32149d	-0.17390676
201	0xbdf4307d	-0.11923311
202	0x3db0c575	0.08631412
203	0xbe49bb71	-0.1970041
204	0x3d60f9c3	0.05492569
205	0xbdc6169c	-0.09672281
206	0xbdeebb39	-0.11656804
207	0x3e3289b3	0.1743534
208	0xbd5ae1c7	-0.053437974
209	0x3e015fdf	0.12634228
210	0xbd42a17f	-0.047517296
211	0xbd71d76c	-0.059043333
212	0x3a730e2f	0.0009271828
213	0xbb903cb0	-0.0044017658
214	0x3d5fa55f	0.05460107
215	0xbdf08f7f	-0.1174612
216	0x3a818c9e	0.0009883826
217	0xbe04f571	-0.12984253
218	0x3ca54ef8	0.020179257
219	0xbc7611ae	-0.015018864
220	0xbd66b765	-0.056327242
221	0x3ac2a8e6	0.0014851361
222	0xbc8eb901	-0.017422201
223	0xbdd6d0e9	-0.10489065
224	0x3da73b0c	0.08165559
225	0x3d610e5e	0.054945342
226	0xbe1addfe	-0.15123746
227	0x3c0da7f0	0.008645996
228	0xbd6a7c28	-0.05724731
229	0x3ded96bf	0.11601018
230	0x3d8bf67d	0.06834123
231	0x3d90b663	0.070660375
232	0x3d7c096e	0.06153243
233	0x3b669e3e	0.0035189535
234	0x3d064cb6	0.032788
235	0xbd4b6c6f	-0.049663957
236	0xbdbc5918	-0.09196681
237	0xbe2046ab	-0.15651958
238	0x3d03acde	0.03214728
239	0xbd5eba9e	-0.05437719
240	0xbd9a381b	-0.075302325
241	0x3dae6fc6	0.08517413
242	0x3d90de4e	0.07073651
243	0xbe27067f	-0.16311072
244	0x3dc45b72	0.09587754
245	0x3d5ea4d2	0.054356404
246	0x3e73ee5b	0.23821394
247	0xbcabc925	-0.020969937
248	0xbd9faceb	-0.07796653
249	0xbc7078f2	-0.014677273
250	0x3cc21b48	0.02369465
251	0x3ce69d7c	0.028151266
252	0x3dcdb146	0.10043578
253	0x3d66246c	0.05618708
254	0x3d903b1d	0.07042525
255	0x3e62246a	0.22084203

F.linears.1.bias f4 [32]
0	0xbcc1f8b0	-0.023678154
1	0xbd009769	-0.031394396
2	0xbcdf340a	-0.027246494
3	0x3d2457d6	0.04012283
4	0x3dde4305	0.10852627
5	0x3c9d8bed	0.01923176
6	0xbbaac08a	-0.0052109407
7	0xbcf8ffc1	-0.03039539
8	0x3dba9cb6	0.091119215
9	0xbd456d95	-0.04820021
10	0x3bf3c54d	0.0074392916
11	0xbdb805ea	-0.08985503
12	0x3c720b73	0.0147732375
13	0x3dc55dfa	0.09637065
14	0xbb1f432b	-0.002430151
15	0xbdc048db	-0.09388896
16	0x3cfe2f08	0.031028286
17	0x3d6e7e80	0.05822611
18	0xbd79fbbb	-0.061031085
19	0x3da39785	0.079878844
20	0xbb24a2e2	-0.00251215
21	0xbd6cf7d8	-0.05785355
22	0x3cef26ca	0.0291933
23	0xbdbcbff2	-0.09216298
24	0x3cb93e5a	0.02261274
25	0x3d6abb07	0.05730727
26	0x3c1756c7	0.009236998
27	0x3da6e40a	0.08148964
28	0xbd84d86b	-0.06486591
29	0xbd795261	-0.06086958
30	0x3d4b703b	0.04966758
31	0x3dd1ac63	0.10237958

F.linears.2.weight f4 [10, 32]
0	0x3d4013cf	0.04689389
1	0xbd9c975c	-0.07646057
2	0x3cf68089	0.030090587
3	0xbb0cf1b2	-0.0021506366
4	0xbdb28004	-0.08715823
5	0x3e1cdb67	0.1531807
6	0x3e710450	0.23536801
7	0x3d4cfc4a	0.05004529
8	0x3dc3952b	0.09549936
9	0xbe0a1a6a	-0.13486639
10	0x3da370a3	0.07980468
11	0xbd08dc60	-0.03341329
12	0x3d59f47e	0.05321168
13	0xbdfb1525	-0.122598924
14	0x3d1b6033	0.03793354
15	0x3e29b19f	0.16571663
16	0x3bdd8885	0.006760659
17	0x3c325c2a	0.010886231
18	0x3e31366e	0.1730592
19	0x3e1ab732	0.15108946
20	0xbceb2860	-0.028705776
21	0x3e565f92	0.20934895
22	0xbcb77842	-0.02239621
23	0x3d2d2e5a	0.042280532
24	0xbe0fa7bc	-0.1402883
25	0x3c1cbe09	0.009566792
26	0x3e0aeaaa	0.1356608
27	0xbd885c59	-0.06658239
28	0x3ca269a8	0.019825771
29	0xbd2cfec3	-0.042235147
30	0xbc9c2a55	-0.019063154
31	0xbd66b06e	-0.0563206
32	0x3c339746	0.010961359
33	0xbda437f6	-0.08018486
34	0x3d16e53a	0.0368397
35	0x3e0ff6ae	0.14058945
36	0xbca5cdc4	-0.020239718
37	0x3db3e5ad	0.087840416
38	0xbdd4653e	-0.10370873
39	0x3e8f622a	0.2800458
40	0x3d305996	0.043054186
41	0xbe1edbae	-0.15513489
42	0x3dde2136	0.10846178
43	0x3c8e620d	0.017380739
44	0x3db4e97c	0.08833596
45	0xbdac78e7	-0.08421498
46	0xbcd544f7	-0.026033862
47	0x3d45fafc	0.04833506
48	0xbdd7104d	-0.10501156
49	0x3dbd96dc	0.0925729
50	0x3d0bc9c0	0.03412795
51	0x3d1a90be	0.037735693
52	0x3d1de66e	0.038549833
53	0xbe406eba	-0.18792239
54	0xbe594878	-0.21219051
55	0x3e06958f	0.1314299
56	0x3dbf9f50	0.09356558
57	0xbdcc0bfd	-0.09963224
58	0x3dac3982	0.08409406
59	0xbe0b08e0	-0.13577604
60	0xbe02c340	-0.12769794
61	0x3c6c3fd1	0.014419512
62	0x3e0a074a	0.13479343
63	0xbe4ba1f6	-0.19886002
64	0x3dc1d7b3	0.094649695
65	0x3e435934	0.19076997
66	0xbe7ac8d0	-0.24490666
67	0xbe13a0b1	-0.14416768
68	0xbd22c040	-0.039734125
69	0x3c9f0a4f	0.019414095
70	0x3b4a264a	0.0030845576
71	0x3d8c0063	0.06836011
72	0x3d553dd5	0.05206092
73	0xbbda485b	-0.0066614575
74	0xbdde7b26	-0.108633325
75	0xbc652e90	-0.013988152
76	0x3c9c6449	0.019090788
77	0xb9dd25ce	-0.00042180571
78	0x3be75d4f	0.007060684
79	0xbd6651aa	-0.056230225
80	0xbe0df572	-0.13863161
81	0x3d4d912c	0.050187275
82	0x3d17b69a	0.037039377
83	0x3daad2e4	0.083410054
84	0x3c17391e	0.009229926
85	0x3dd37f16	0.10326974
86	0xbe11abd8	-0.1422571
87	0xbd0c4322	-0.03424371
88	0xbc75f08c	-0.015010964
89	0x3e07c31f	0.13258027
90	0x3d7729ee	0.06034272
91	0xbe2ba076	-0.1676043
92	0xbdd35c06	-0.103202865
93	0x3e1914dc	0.14949363
94	0x3adb951a	0.001675281
95	0xbe10ee66	-0.14153442
96	0x3e07b9ac	0.13254422
97	0x3e81cbe3	0.25350866
98	0xbce108eb	-0.027470073
99	0xbe15534e	-0.1458256
100	0x3dcd0175	0.100100435
101	0x3d9f350e	0.07773791
102	0xbe01f299	-0.126902
103	0xbcbd5808	-0.023113266
104	0x3dd0602c	0.10174593
105	0x3b249abd	0.0025116645
106	0x3d290551	0.041264836
107	0xbe8c0e98	-0.27354884
108	0x3e2a223a	0.16614619
109	0x3bd1728c	0.006391829
110	0xbdb9ac4f	-0.090660684
111	0xbe21637b	-0.15760605
112	0xbd8f73b2	-0.07004489
113	0xbd0938c1	-0.03350139
114	0x3e3180c8	0.17334282
115	0x3e39881e	0.18118331
116	0xbd53f8aa	-0.051750816
117	0xbd442658	-0.04788813
118	0x3dbc6131	0.09198225
119	0x3bcb81d0	0.006210543
120	0xbbf4ff61	-0.0074767326
121	0xbd3d3c41	-0.04620004
122	0x3d5370d2	0.051621266
123	0x3d1ec0a8	0.03875795
124	0x3e02478b	0.12722604
125	0x3ce93239	0.02846633
126	0x3c2abcb2	0.010420965
127	0xbe01b34b	-0.12666051
128	0xbe4200f9	-0.18945684
129	0x3d889757	0.06669491
130	0xbd85efba	-0.06539865
131	0xbde78106	-0.11303906
132	0xbc4110ef	-0.011783822
133	0xbd1f3570	-0.03886932
134	0xbd8ac7c8	-0.067763865
135	0x3e3ed9d0	0.18637776
136	0x3c917b5f	0.017759023
137	0xbc51c984	-0.012804393
138	0x3d303146	0.04301574
139	0x3e4b238d	0.1983778
140	0xbdfa650c	-0.122263044
141	0xbd7f04ae	-0.062260322
142	0xba44e7be	-0.0007511339
143	0xbca3d6ca	-0.01999988
144	0xbe4bbdfc	-0.19896692
145	0xbc355a30	-0.011068866
146	0xbdea107f	-0.11428928
147	0xbd63627b	-0.05551384
148	0x3d44ac0c	0.04801564
149	0x3da2ae0e	0.079433545
150	0xbd856e2c	-0.06515154
151	0xbe4c8899	-0.19973983
152	0xbdd20884	-0.102555305
153	0x3e50c798	0.20388639
154	0x3dcc8097	0.09985464
155	0xbd0fe136	-0.035126887
156	0x3d8b81df	0.0681188
157	0x3dddef45	0.10836653
158	0xbe31b3a9	-0.17353691
159	0xbd9e9684	-0.07743552
160	0x3e215a25	0.15757044
161	0x3cbc47ad	0.022983396
162	0xbcfc4789	-0.03079583
163	0xbe66d03b	-0.22540371
164	0x3d0fa13a	0.035065867
165	0x3e6dc7a9	0.23220696
166	0xbd894201	-0.06702042
167	0x3d818179	0.06323523
168	0xbceadb83	-0.028669124
169	0xbd4cd43f	-0.0500071
170	0xbd97b842	-0.07408191
171	0x3d9e20bc	0.07721087
172	0x3ced8ba7	0.028997255
173	0xbd9d73f6	-0.076881334
174	0xbd996e59	-0.0749175
175	0x3d1fa2a6	0.038973473
176	0xbde1cec6	-0.11025767
177	0x3dfc6c75	0.12325374
178	0xbcea7804	-0.028621681
179	0x3ccdded3	0.025130665
180	0xbe33ef0f	-0.17571662
181	0xbdb5b2b5	-0.08871976
182	0x3e3106d5	0.17287762
183	0x3e382999	0.17984618
184	0xbc6a8e56	-0.014316162
185	0xbe15ab7c	-0.14616197
186	0xbd6df5fe	-0.058095925
187	0xbe2a3c2d	-0.16624518
188	0xbde51f30	-0.11187589
189	0xbd1a5670	-0.03768009
190	0xbba3900f	-0.0049915384
191	0xbca60e4f	-0.020270495
192	0x3da0b2aa	0.078465775
193	0xbdb4af78	-0.088225305
194	0x3e30ccf8	0.1726569
195	0xbd68d804	-0.056846634
196	0x3d7e1d54	0.06203969
197	0x3e1eac32	0.15495375
198	0x3dec71de	0.11545156
199	0x3da0ba5c	0.07848045
200	0x3dc018e0	0.093797445
201	0x3d900a65	0.070332326
202	0xbe5e6151	-0.21716811
203	0xbc669e91	-0.014075891
204	0xbd8b40e2	-0.06799485
205	0xbcd0f1b8	-0.025505885
206	0x3c99b64f	0.01876369
207	0xbe2be9b2	-0.16788366
208	0x3da6e1e8	0.08148557
209	0x3c94e10d	0.018173719
210	0x3e0465bd	0.12929435
211	0x3c9d70cd	0.019218827
212	0xbd9af674	-0.075665385
213	0xbe1f9f9d	-0.15588231
214	0x3d457a48	0.04821232
215	0x3af0e51a	0.0018378824
216	0x3dea1134	0.114290625
217	0x3d327cdb	0.043576103
218	0x3d919acf	0.071096055
219	0xbd7a7161	-0.061143283
220	0x3c0a0e2f	0.008426233
221	0x3dbe8728	0.09303123
222	0xbcab3b6b	-0.020902356
223	0xbd90c364	-0.07068518
224	0x3d2d5329	0.042315636
225	0xbe0fc943	-0.14041619
226	0x3d1754af	0.036945995
227	0xbdbb0c59	-0.091332145
228	0x3caf0c09	0.021368043
229	0x3a9aa3ae	0.0011798048
230	0xbdc9d8dd	-0.098558165
231	0x3e051f6d	0.13000269
232	0xbe1b7edb	-0.1518511
233	0xbdfedb0f	-0.12444126
234	0x3dd33cbf	0.10314321
235	0xbdf9446a	-0.12171252
236	0xbdd98be0	-0.10622382
237	0x3b699c48	0.003564613
238	0xbdfeea48	-0.12447029
239	0xbd84229d	-0.064519145
240	0x3d950973	0.07277193
241	0x3e32efd3	0.17474298
242	0x3d481585	0.048848648
243	0x3e80d6a3	0.25163755
244	0xbdb66fbb	-0.0890803
245	0x3def1875	0.11674587
246	0xbc7c7b2e	-0.015410228
247	0x3d88cf96	0.06680219
248	0xbe6ea875	-0.23306449
249	0xbc0744e8	-0.008256175
250	0xbcc71ef4	-0.024306752
251	0xbdac8e96	-0.084256336
252	0x3dce0295	0.10059086
253	0xbcf916e1	-0.030406417
254	0xbe1e5493	-0.1546195
255	0x3e502ef3	0.2033041

F.linears.2.bias f4 [10]
0	0x3cd92201	0.026505472
1	0xbd8a48db	-0.06752177
2	0x3d36bd14	0.044613913
3	0xbbb49db8	-0.0055119656
4	0xbceff62b	-0.029292187
5	0xbd4a1cdf	-0.04934394
6	0xbab5887f	-0.0013849883
7	0x3d93cf30	0.07217252
8	0x3d86ca99	0.06581611
9	0xbca62652	-0.020281944

G.0.linears.0.weight f4 [32, 10]
0	0xbbff551c	-0.0077921283
1	0x3cfd6a3c	0.030934446
2	0x3dffd8d9	0.12492532
3	0x3d2c2d97	0.042035665
4	0xbca27edd	-0.019835884
5	0x3d1a02ca	0.037600316
6	0x3d7f1857	0.06227907
7	0x3e1237de	0.14279124
8	0xbdadf4cc	-0.08493957
9	0xbe11763b	-0.14205258
10	0x3ddd7172	0.108126536
11	0xbc326439	-0.010888153
12	0xbe3359be	-0.17514703
13	0x3ca59fa9	0.020217733
14	0xbe39185f	-0.18075703
15	0x3c9f8858	0.019474193
16	0xbcb573e0	-0.02214998
17	0xbd872ebb	-0.0660071
18	0xbc97450a	-0.018465538
19	0xbc16c2c3	-0.009201708
20	0xbd4fb33a	-0.050708033
21	0xbcc60010	-0.024169952
22	0xbd4e0ce9	-0.05030528
23	0xbc42ecfa	-0.01189732
24	0x3ce73c3e	0.028226968
25	0x3de64a8d	0.11244688
26	0xbcfdbf35	-0.030974964
27	0xbdb1bbb9	-0.086783834
28	0x3cb1ff51	0.02172819
29	0x3dc8f900	0.09813118
30	0x3e0d58ad	0.13803358
31	0x3d0ddfe0	0.034637332
32	0x3da9d392	0.08292307
33	0xbd2a62c0	-0.04159808
34	0xbe470d61	-0.19438697
35	0xbe037086	-0.12835893
36	0xbddcd2b3	-0.10782375
37	0x3c0b8d42	0.008517565
38	0x3cf9f4c0	0.030512214
39	0xbcde503b	-0.027137866
40	0x3de9589f	0.11393856
41	0x3dac1a85	0.08403496
42	0xbd9c2e64	-0.07626036
43	0x3d36dac2	0.044642217
44	0x3da9e949	0.08296449
45	0x3d3e1a31	0.046411697
46	0xbdb6c1e5	-0.08923701
47	0xbe3d405d	-0.18481584
48	0x3d912a3e	0.07088135
49	0x3d033df0	0.03204149
50	0xbbc45502	-0.005991579
51	0x3c25a203	0.010109427
52	0x3e0acff2	0.13555887
53	0xbd98b77f	-0.07456874
54	0x3d7ce0cc	0.06173782
55	0xbd157a89	-0.03649381
56	0x3ae93d4b	0.0017794756
57	0x3d82bdfe	0.063838944
58	0xbe00f226	-0.12592372
59	0xbdf1e410	-0.118110776
60	0x3e3ba018	0.1832279
61	0x3d8d1b08	0.068899214
62	0x3daefeba	0.08544679
63	0xbe286307	-0.16444026
64	0x3cd36c7f	0.02580857
65	0xbd55cad5	-0.05219539
66	0x3d630f78	0.055434674
67	0xbd291918	-0.041283697
68	0xbd704ed1	-0.058668915
69	0xbdabb57f	-0.08384227
70	0xbcd68084	-0.026184328
71	0x3e22be8b	0.15892999
72	0xbd321e5d	-0.043485988
73	0x3c4cf2d6	0.0125090685
74	0x3d70c288	0.05877927
75	0xbdc30cf8	-0.09523958
76	0xbe22c08d	-0.15893765
77	0x3d77bc49	0.060482297
78	0x3ca4de3d	0.020125503
79	0x3ce92fa7	0.028465105
80	0xbe17761c	-0.14791149
81	0x3dd8c23d	0.10583923
82	0x3e163404	0.1466828
83	0x3c014131	0.007889078
84	0x3dcaa893	0.09895434
85	0xbd671bbb	-0.05642293
86	0x3d5330a4	0.05156006
87	0xbccf8fa2	-0.025337044
88	0xbcc4231c	-0.023942523
89	0x3d7cac59	0.0616878
90	0x3d80822c	0.06274828
91	0xb7f9cb00	-2.9777642e-05
92	0x3c6fdc53	0.014639932
93	0xbd1cfc8c	-0.038326785
94	0xbab94c82	-0.0014137181
95	0xbd5c2c7c	-0.05375336
96	0x3e2155f5	0.15755446
97	0xbdc721ea	-0.097232655
98	0x3c50a8e8	0.012735583
99	0x3e0fa267	0.14026795
100	0x3a9371c5	0.0011249116
101	0xbd421f53	-0.047393154
102	0x3e14e8f7	0.14541994
103	0xbe3f67f8	-0.18692005
104	0x3e2f8756	0.1714147
105	0x3d8124cc	0.063058466
106	0x3dc6f269	0.09714205
107	0x3d2a527e	0.041582577
108	0x3daeb5fa	0.08530803
109	0xbba26a27	-0.004956502
110	0xbe276c9c	-0.16350025
111	0xbdab6f1d	-0.083708026
112	0x3ce240b2	0.02761874
113	0x3d217bd4	0.039424732
114	0xbc58b0f0	-0.013225779
115	0x3cbed0ab	0.02329286
116	0x3ca8e49f	0.020616828
117	0xbe059d9f	-0.13048409
118	0x3c427694	0.011869092
119	0x3deea115	0.11651818
120	0xbdc6e575	-0.09711734
121	0xbb727fd5	-0.0037002463
122	0xbdf4d0a2	-0.11953856
123	0xbd3cbba3	-0.04607738
124	0xbde66af7	-0.11250871
125	0x3c9099e4	0.017651506
126	0xbd029469	-0.031879816
127	0xbd85b315	-0.06528298
128	0x3cdaccb0	0.02670893
129	0x3cdbc3b6	0.02682672
130	0x3e3a158c	0.18172282
131	0x3d38a4e5	0.04507913
132	0x3d8a8d3d	0.0676522
133	0xbcd47afe	-0.025937553
134	0xbd2ecf9d	-0.042678464
135	0x3c9e5230	0.0193263
136	0xbde657d5	-0.112472214
137	0xbd9bf87b	-0.07615753
138	0xbe725d59	-0.23668422
139	0x3dbb2fde	0.09139989
140	0xbd1b09ad	-0.037851024
141	0x3d67e534	0.05661507
142	0x3d202c3a	0.039104678
143	0xbdd74b3c	-0.10512397
144	0x3e003af9	0.12522496
145	0x3cf539e0	0.029934824
146	0x3d105597	0.035237875
147	0x3d20482d	0.039131332
148	0x3e14f68f	0.1454718
149	0xbd53f9b3	-0.051751804
150	0x3c952d0e	0.01820996
151	0x3d46c68b	0.04852919
152	0xbdbcc8d6	-0.09217994
153	0xbd985569	-0.07438166
154	0x3e13c974	0.14432317
155	0x3b185f9e	0.0023250352
156	0x3d965f5a	0.073424056
157	0x3e0e4e96	0.13897166
158	0x3e82c41a	0.2554024
159	0x3e6d684c	0.23184317
160	0x3d211def	0.039335188
161	0xbc5dd72d	-0.013540071
162	0x3e058bab	0.1304156
163	0x3dbc43dd	0.091926314
164	0xbc99dd75	-0.018782357
165	0x3d950518	0.07276362
166	0x3dbccedc	0.09219143
167	0x3e3cb07c	0.18426698
168	0x3e1bac17	0.15202366
169	0x3bea9b53	0.0071596294
170	0xbcdfe1d0	-0.027329355
171	0x3c3f6de1	0.011683912
172	0xbbfd62aa	-0.007732709
173	0xbd2a13f1	-0.041522924
174	0x3d96d57c	0.07364938
175	0xbd093afe	-0.033503525
176	0x3d88373d	0.06651161
177	0x3e2ccaeb	0.16874282
178	0xbd9e4db3	-0.07729664
179	0xbcdcb71c	-0.026942782
180	0x3dc536b0	0.096295714
181	0x3dd66060	0.10467601
182	0x3da3f2dc	0.08005306
183	0x3c90cb73	0.017675137
184	0xbcae045e	-0.021242317
185	0x3d9beb5a	0.07613249
186	0xbd3a4fab	-0.045486134
187	0x3c098bf3	0.008395183
188	0x3db31976	0.08745091
189	0xbe109f30	-0.14123225
190	0xbd0f7da3	-0.035031926
191	0xbe64876e	-0.22317287
192	0xbd92b2f8	-0.07163042
193	0x3d24461c	0.040105924
194	0xbd91b508	-0.07114607
195	0xbdb0f8b1	-0.08641184
196	0x3e255061	0.16143943
197	0x3d18b13e	0.037278406
198	0xbe008e87	-0.1255437
199	0x3c16a343	0.009194198
200	0xbe0c6e75	-0.13714011
201	0xbda79017	-0.0818178
202	0xbd23a04d	-0.039947797
203	0x3e147e79	0.1450137
204	0x3d8d4d3d	0.06899498
205	0xbd8bf63c	-0.06834075
206	0xbe1b4f0c	-0.15166873
207	0xbd80c39d	-0.0628731
208	0xbcc7fba2	-0.02441198
209	0xbd4a834b	-0.049441617
210	0x3d1fdff0	0.039031923
211	0x3db5be42	0.088741794
212	0xbda770e5	-0.0817583
213	0xbd6207a3	-0.055183064
214	0xbd19a96d	-0.037515093
215	0xbe746034	-0.23864824
216	0xbd97906d	-0.07400594
217	0xbdf7ca0c	-0.12099084
218	0x3e2b5af8	0.1673392
219	0xbd222df0	-0.03959459
220	0xbe226dd2	-0.15862206
221	0xbd61274c	-0.054969117
222	0x3d8529ee	0.06502138
223	0xbe1ceb0a	-0.15324035
224	0xbdfb93bc	-0.122840375
225	0x3e0f6538	0.14003456
226	0xbdb7ab6a	-0.089682415
227	0xbe0944bc	-0.13405126
228	0xbbb1e572	-0.0054289633
229	0xbd311408	-0.043231994
230	0x3e277761	0.16354133
231	0x3e97fe03	0.29685983
232	0x3d1eb0c9	0.038742814
233	0xbddac554	-0.106821686
234	0xbe60f12a	-0.21966997
235	0x3b9d3984	0.004798116
236	0x3dd844db	0.10560008
237	0x3d7b2bc3	0.06132103
238	0xbbd8a72d	-0.006611726
239	0x3e132b6a	0.1437203
240	0x3dec77c8	0.11546284
241	0xbd470b58	-0.048594803
242	0x3df0beec	0.117551655
243	0x3e4b9e7a	0.19884673
244	0xbe00b45f	-0.12568806
245	0x3be690e1	0.007036314
246	0x3ca9cf0c	0.02072861
247	0x3dcc6a7d	0.099812485
248	0x3e00dadf	0.12583493
249	0xbe211b1b	-0.15732996
250	0xbadb53b5	-0.0016733321
251	0xbddcde8a	-0.107846335
252	0xbdc310b3	-0.095246695
253	0x3dea0edd	0.11428616
254	0xbe7cbc58	-0.24681222
255	0xbe0caf9f	-0.13738869

G.0.linears.0.bias f4 [32]
0	0xbd5c93a5	-0.053851742
1	0xbd0b212e	-0.03396719
2	0x3daf4ae5	0.08559207
3	0xb95030d8	-0.00019854621
4	0x3d420b02	0.04737378
5	0x3d50e2bf	0.050997492
6	0xbd95de75	-0.07317821
7	0x3c55a01f	0.013038664
8	0x3dad9034	0.0847477
9	0xbdc1eac5	-0.09468607
10	0x3d359dbe	0.044339888
11	0xbcf0bcd6	-0.029386919
12	0xbde07dcc	-0.10961494
13	0xbcfc9041	-0.030830504
14	0x3a909388	0.0011030296
15	0xbd11d1b1	-0.035600368
16	0x3d9c3db2	0.07628955
17	0x3d848c25	0.06472043
18	0xbd00a41b	-0.031406503
19	0xbda5c43a	-0.08094068
20	0xbd257ada	-0.040400364
21	0x3d342d7e	0.043988697
22	0xbdd36869	-0.10322649
23	0x3d8d0d0f	0.06887256
24	0x3dc470cc	0.09591827
25	0x3d926ecc	0.07150039
26	0x3ceba0f1	0.028763266
27	0xbc6ea4d7	-0.014565668
28	0xbd00b825	-0.031425614
29	0xbd972edc	-0.073819846
30	0xbdc0a50e	-0.09406482
31	0xbbffc208	-0.0078051127

G.0.linears.1.weight f4 [32, 32]
0	0x3c4cf156	0.012508711
1	0x3d5dc7d3	0.054145645
2	0xbdbbd2c1	-0.091710575
3	0x3c49a529	0.012307444
4	0x3d220102	0.039551742
5	0x3ea1b214	0.31581175
6	0xbe25c27d	-0.16187473
7	0xbccb5f30	-0.024825662
8	0x3cc453dd	0.02396577
9	0xbe1bb17b	-0.15204422
10	0xbcbdbec6	-0.023162257
11	0xbd10ce15	-0.035352785
12	0xbd0a7c62	-0.033810027
13	0x3d5d3f24	0.054015294
14	0xbe611484	-0.21980482
15	0x3c680cc0	0.014163196
16	0x3d8931a0	0.06698918
17	0x3d5c66d5	0.053809006
18	0x3cb1c6c3	0.021701222
19	0xbb320cda	-0.0027168305
20	0xbc16861e	-0.0091872495
21	0x3e003c84	0.12523085
22	0x3db0e825	0.08638028
23	0x3c2251d1	0.009907202
24	0x3e03812d	0.12842245
25	0x3e2871ee	0.1644971
26	0x3e32f21a	0.17475167
27	0x3dc18b1b	0.094503604
28	0x3e1e09b0	0.15433383
29	0xbd9ebbdf	-0.07750677
30	0x3df9b45a	0.121926025
31	0x3d9ef767	0.07762032
32	0x3cac8c44	0.021062978
33	0x3de34221	0.110965975
34	0x3e67da08	0.22641766
35	0x3dad7a5d	0.084706046
36	0x3d82fe5b	0.06396171
37	0xbde3249e	-0.110909685
38	0xbe2a2751	-0.1661656
39	0x3df41ebf	0.11919927
40	0xbd68b779	-0.0568156
41	0x3cf47e20	0.029845297
42	0x3d652975	0.05594774
43	0x3dd961ca	0.10614355
44	0xbccf32a2	-0.025292698
45	0xbdc0c70d	-0.09412966
46	0x3d065625	0.032796998
47	0x3c86c817	0.016452832
48	0xbda48109	-0.08032424
49	0x3d5ea293	0.05435426
50	0xbe00dd48	-0.12584412
51	0xbe15577e	-0.14584157
52	0xbd843e60	-0.064572096
53	0x3deb5e23	0.114925645
54	0xbe2bf2cf	-0.16791843
55	0xbdf45408	-0.1193009
56	0x3cdd0725	0.026980946
57	0x3d9883e1	0.07447029
58	0x3e2476f3	0.16061
59	0x3c92cd4e	0.017920163
60	0xbd61357e	-0.054982655
61	0x3e1d0dc1	0.15337278
62	0xbc818d4c	-0.015814446
63	0x3c52bc2d	0.012862247
64	0xbe5b408f	-0.21411346
65	0x3d183989	0.037164245
66	0xbc161454	-0.00916012
67	0x3caa4271	0.020783635
68	0xbd32d13e	-0.04365658
69	0xbd9f7102	-0.077852264
70	0x3d617a37	0.055048194
71	0x3e0d0681	0.13772012
72	0x3cb61453	0.022226488
73	0x3d0c412f	0.03424185
74	0x3c043892	0.008070128
75	0x3c941f8f	0.018081455
76	0x3d9b2694	0.075757176
77	0xbe4471e8	-0.19184077
78	0x3d212815	0.039344866
79	0x3dfb8087	0.12280374
80	0xbe359c60	-0.17735434
81	0xbe07b379	-0.13252057
82	0xbd4b7508	-0.049672157
83	0xbe66d6f2	-0.22542933
84	0x3c31c5b6	0.010850361
85	0x3dc84221	0.09778238
86	0x3d8ccb54	0.06874719
87	0x3d68c5ef	0.05682939
88	0xbc1b9d23	-0.0094979135
89	0xbc5e87dc	-0.013582196
90	0xbbdbd839	-0.0067091254
91	0xbc96988e	-0.01838329
92	0x3e04476f	0.12917875
93	0xbc8d2cfa	-0.01723336
94	0x3c409c89	0.011756071
95	0x3d71d695	0.059042532
96	0x3e270618	0.16310918
97	0xbcfea7df	-0.031085907
98	0x3b0967b1	0.0020966346
99	0x3c743e4d	0.014907432
100	0x3d8ea9bc	0.06965968
101	0xbbf9931f	-0.007616415
102	0xbe082989	-0.13297094
103	0x3d537937	0.05162927
104	0x3ccaf2a1	0.024773898
105	0x3d00f17f	0.03148031
106	0x3ba31afe	0.004977583
107	0xbe2ba625	-0.16762598
108	0xbe1340f9	-0.14380254
109	0x3d99b164	0.07504538
110	0x3db2592b	0.08708414
111	0xbd2fa966	-0.04288616
112	0xbd79d1b0	-0.06099099
113	0xbe13fbd8	-0.1445154
114	0x3d66a057	0.056305256
115	0x3d08b888	0.033379108
116	0xbc2d979f	-0.010595231
117	0xbe49d071	-0.1970842
118	0xbcd17e3e	-0.025572892
119	0x3a933f75	0.0011234122
120	0xbe200e78	-0.1563052
121	0x3e79f9c6	0.24411687
122	0x3dc3b133	0.095552824
123	0x3d6c6d99	0.057721708
124	0xbd5756ee	-0.052573137
125	0xbd85ecef	-0.06539332
126	0xbd7b99af	-0.06142586
127	0xbe5b9061	-0.21441795
128	0x3c130bcf	0.008974983
129	0x3dd0c19f	0.1019318
130	0xbcc3942c	-0.023874365
131	0xbe07025b	-0.13184492
132	0xbe27b4e8	-0.16377604
133	0xbd81f2bf	-0.06345128
134	0x3dc2c709	0.09510619
135	0xbd57850a	-0.05261711
136	0x3e07bda3	0.13255934
137	0xbcb4222e	-0.021988954
138	0xbd95adb9	-0.073085256
139	0x3d8e652c	0.06952891
140	0xbd95c303	-0.07312586
141	0x3d8cf68d	0.06882963
142	0xbe413e3d	-0.18871398
143	0x3d10ec88	0.035381824
144	0x3d9a0732	0.07520904
145	0xbe8e199c	-0.27753913
146	0x3de7a46d	0.113106586
147	0x3daec5af	0.08533799
148	0xbc9936dc	-0.018702917
149	0x3dd4b54a	0.10386141
150	0x3c84dd37	0.016218765
151	0xbdf85fff	-0.12127685
152	0x3e37b289	0.179392
153	0x3d8af4d6	0.0678498
154	0x3ce2a476	0.027666312
155	0x3da08ee5	0.07839755
156	0x3e2f0150	0.17090344
157	0xbe3fe99c	-0.18741459
158	0x3e1b9f90	0.15197587
159	0x3dc6cdf1	0.09707249
160	0x3db3e365	0.087836064
161	0x3b585aba	0.0033013062
162	0x3deb608e	0.11493026
163	0x3e3d5b76	0.18491921
164	0x3b3494b3	0.0027554452
165	0x3dc845dd	0.0977895
166	0xbd99161a	-0.07474919
167	0xbe43169c	-0.19051594
168	0x3e3c82ac	0.18409222
169	0x3cc633d2	0.024194632
170	0x3d8cad95	0.06869046
171	0xbb9f1e1d	-0.0048558847
172	0xbdcb042b	-0.09912904
173	0x3a0ccf20	0.000537144
174	0x3d98de71	0.07464302
175	0x3e1bd56c	0.15218133
176	0x3dac91a7	0.084262185
177	0x3b10e1ad	0.002210717
178	0x3de72248	0.112858355
179	0x3d2af226	0.041734837
180	0x3dc67608	0.096904814
181	0x3d934e1f	0.07192635
182	0xbd223e9f	-0.0396105
183	0x3e0225eb	0.12709777
184	0x3d0f6848	0.03501156
185	0xbbed5304	-0.0072425622
186	0x3de7dbb1	0.113212
187	0xbe50a547	-0.20375548
188	0xbcca867f	-0.024722336
189	0xbb5d9e98	-0.0033816453
190	0xbdbda05c	-0.09259102
191	0x3d92d2e3	0.0716913
192	0xbb4f2a1c	-0.0031610793
193	0xbccdc38c	-0.025117658
194	0xbe0fa68d	-0.14028378
195	0xbd9728ba	-0.07380815
196	0x3e398f5b	0.18121092
197	0x3ce3c960	0.027805984
198	0x3da06f7c	0.07833764
199	0x3c5e1c30	0.013556525
200	0x3d9388f3	0.07203855
201	0xbdbefb28	-0.09325248
202	0xbd1b999c	-0.03798829
203	0xbe80b652	-0.251391
204	0xbbe590ba	-0.007005778
205	0x3a6c835e	0.0009022261
206	0x3e2f947c	0.17146486
207	0xbdaa55d5	-0.083171524
208	0xbd2fb95c	-0.04290138
209	0xbe35dc42	-0.17759803
210	0x3d028104	0.03186132
211	0xbdd16f31	-0.10226286
212	0xbc6f52a6	-0.014607107
213	0xbe0e65c5	-0.1390601
214	0x3e22d4e5	0.15901525
215	0x3d934281	0.07190419
216	0xbce82cf9	-0.028341757
217	0x3e438c4c	0.19096488
218	0x3cae1c84	0.021253832
219	0xbcd6e9ba	-0.026234496
220	0xbd5083f0	-0.050907075
221	0x3e035bc9	0.12827982
222	0xbd14fb59	-0.036372516
223	0x3cc3428b	0.023835441
224	0x3d313292	0.04326112
225	0xbc797f5d	-0.01522812
226	0xbd980dca	-0.07424505
227	0x3da97644	0.082745105
228	0x3dff9bce	0.12480889
229	0xbcc8a99b	-0.024494937
230	0xbd30fe42	-0.04321123
231	0x3d4235c3	0.047414552
232	0x3a0e8d7a	0.0005437952
233	0xbdb080ad	-0.08618293
234	0xbd5a6cbb	-0.05332635
235	0x3d096512	0.033543654
236	0xbe0f2d38	-0.13982093
237	0x3da5b0d8	0.08090371
238	0x3d36f67f	0.04466867
239	0x3e4dba32	0.20090559
240	0xbddc675e	-0.10761903
241	0x3d5d88d1	0.054085556
242	0x3c7d4a39	0.015459591
243	0xbe02ab34	-0.12760621
244	0xbe2ebb8b	-0.1706373
245	0xbe5d47c2	-0.21609405
246	0x3cd920bc	0.026504867
247	0xbd8f6c75	-0.070031084
248	0x3d10e66a	0.03537599
249	0x3e1061c2	0.14099792
250	0x3d832f6d	0.0640553
251	0xbdb36cbb	-0.08760973
252	0x3d7e12f4	0.062029794
253	0xbc05e6fd	-0.008172748
254	0xbdba3240	-0.09091616
255	0xbe13561e	-0.1438832

G.0.linears.1.bias f4 [32]
0	0x3b8ef3e3	0.0043625697
1	0x3d99ddff	0.075130455
2	0x3ceb09f3	0.028691268
3	0x3c76e2b8	0.015068702
4	0xbdb20550	-0.086924195
5	0x3c0de866	0.008661365
6	0xbdab3416	-0.08359544
7	0x3d26faaa	0.040766396
8	0x3d85cd22	0.065332666
9	0xbd2b731c	-0.041857824
10	0xbd8f9258	-0.07010335
11	0x3cf7418b	0.03018262
12	0xbc66ae36	-0.014079621
13	0x3d65c7cc	0.056098744
14	0xbd9fcd2e	-0.07802807
15	0x3d9e9d6d	0.0774487
16	0xbd957438	-0.072975576
17	0xbd264dea	-0.04060165
18	0xbdca7b41	-0.0988679
19	0x3dabc194	0.083865315
20	0x3d9fc54e	0.07801305
21	0x3d1daf84	0.038497463
22	0xbd186929	-0.037209664
23	0xbd4c5002	-0.04988099
24	0xbd049c7c	-0.032375798
25	0x3d8ca50f	0.0686742
26	0x3ca3f755	0.020015398
27	0x3db367fa	0.08760066
28	0x3d505bc6	0.050868772
29	0xbb1aae4f	-0.0023602431
30	0x3bbced34	0.0057655815
31	0xbd69065c	-0.05689083

G.0.linears.2.weight f4 [10, 32]
0	0x3cb74bf6	0.022375088
1	0x3c81af5c	0.015830688
2	0x3df698bc	0.120408505
3	0x3d900bc2	0.070334926
4	0xbceaf4b0	-0.02868113
5	0x3daef642	0.08543064
6	0x3d84308a	0.064545706
7	0x3cfcbe1f	0.030852376
8	0x3e7ba1f2	0.24573496
9	0x3d332d80	0.043744564
10	0x3d4a0957	0.049325313
11	0x3c237231	0.009975956
12	0x3de694b4	0.112588316
13	0xbb841ab6	-0.0040315045
14	0xbe198fdf	-0.14996289
15	0xbdbc22f7	-0.091863565
16	0xbe212515	-0.15736802
17	0xbe014726	-0.12624797
18	0xbe4bcf2f	-0.19903253
19	0x3d6a1307	0.057147052
20	0x3cdda7eb	0.027057609
21	0xbdf93846	-0.121689364
22	0xbd978281	-0.073979385
23	0x3e8a04db	0.2695683
24	0xbd9cea76	-0.076619074
25	0xbc985220	-0.018593848
26	0x3c5e1dc0	0.013556898
27	0x3da171d7	0.07883041
28	0x3e2c4ff5	0.16827376
29	0x3bf92267	0.007602978
30	0xbc505552	-0.012715654
31	0xbddbc094	-0.10730091
32	0xbe4e3009	-0.20135511
33	0x3d35599a	0.044274904
34	0xbd8ea70b	-0.06965455
35	0xbcc779c1	-0.024350049
36	0x3d27f47a	0.041004635
37	0x3d274f9c	0.040847406
38	0x3e7e3d12	0.24827984
39	0xbd8ec0f4	-0.06970397
40	0x3e281845	0.16415508
41	0xbe1f1f6b	-0.15539329
42	0x3d11bcde	0.03558051
43	0xbd99c5a3	-0.07508399
44	0xbe23991f	-0.1597638
45	0x3cbd62cd	0.023118401
46	0xbc76649d	-0.0150386365
47	0x3e462f60	0.1935401
48	0xbcbe4a00	-0.023228645
49	0xbe0982a9	-0.13428749
50	0x3e1e0cb2	0.1543453
51	0x3d58c710	0.052924216
52	0xbdac20b9	-0.08404679
53	0x3cf9967a	0.03046726
54	0xbd77575c	-0.060386047
55	0xbc935a14	-0.017987289
56	0x3d279850	0.04091674
57	0xbe550ca6	-0.20805606
58	0xbdc12954	-0.09431711
59	0x3c4d3e47	0.012527055
60	0x3e2efe1f	0.17089127
61	0xbc18e46d	-0.009331805
62	0x3d032b96	0.03202399
63	0xbde805ab	-0.11329206
64	0xbdb28191	-0.08716119
65	0xbe597fd8	-0.21240175
66	0xbdb1dcb2	-0.086846724
67	0xbd6b00dd	-0.05737387
68	0x3d8f8a73	0.07008829
69	0x3d4c45fd	0.049871434
70	0xbe190d79	-0.14946546
71	0x3d481111	0.0488444
72	0xbce8edff	-0.028433798
73	0xbcf625ee	-0.030047383
74	0x3d25a920	0.040444493
75	0xbdabc7ef	-0.08387744
76	0xbe52085c	-0.20511001
77	0x3d6adad4	0.057337597
78	0xbc4ee9e1	-0.012629003
79	0xbde16e8e	-0.11007415
80	0x3cc28123	0.023743218
81	0x3d2e5d6a	0.042569555
82	0x3d9e9272	0.07742776
83	0x3dab9b7b	0.08379265
84	0x3cb5ae91	0.022177966
85	0x3dc028bb	0.09382769
86	0xbdf278ef	-0.118394725
87	0x3b747e00	0.0037306547
88	0x3a99c33d	0.0011731159
89	0xbdf68e0d	-0.12038813
90	0xbd8a1a97	-0.06743353
91	0x3da1758d	0.07883749
92	0xbd4f8f02	-0.050673492
93	0xbe01ec86	-0.12687883
94	0x3d0550b4	0.032547668
95	0x3e421017	0.1895145
96	0x3cf05794	0.029338636
97	0x3d997d6d	0.07494626
98	0x3cd9519b	0.02652817
99	0xbbce2003	-0.006290437
100	0x3dd00a2b	0.101581894
101	0xbe4e7126	-0.2016035
102	0x3d249334	0.040179446
103	0x3d9e9dcc	0.07744941
104	0x3b7c9bcc	0.003854501
105	0xbdaf5b5a	-0.08562346
106	0xbd7115eb	-0.058858793
107	0xbd8ceea6	-0.06881456
108	0xbcc7ca01	-0.024388315
109	0xbd6bde00	-0.057584763
110	0x3d7f1c90	0.0622831
111	0x3ca35bc4	0.019941218
112	0x3de6c18f	0.11267387
113	0x3c62fc34	0.013854075
114	0x3d92fc0b	0.0717698
115	0x3e3a6891	0.18203951
116	0x3d74c1af	0.059755024
117	0x3cce1633	0.02515707
118	0xbbcf042b	-0.0063176355
119	0xbac5cda4	-0.0015091193
120	0xbd8b6d07	-0.06807905
121	0xbc843ce5	-0.016142318
122	0x3c644fbd	0.013935027
123	0x3e13259c	0.14369816
124	0x3e5bd018	0.214661
125	0x3e5a63ed	0.21327181
126	0xbcd4a15c	-0.025955848
127	0x3cc38623	0.023867672
128	0x3d73cc7f	0.059521195
129	0x3d5b4fc8	0.053542882
130	0x3d8b01cd	0.06787453
131	0x3dd14701	0.10218621
132	0xbd5dca2f	-0.054147895
133	0xbdec433a	-0.1153626
134	0x3d2b9893	0.041893553
135	0x3cb703ef	0.022340743
136	0x3d8810eb	0.06643852
137	0xbdb5a521	-0.088693865
138	0xbc548656	-0.012971481
139	0x3e2c7acd	0.1684372
140	0x3cc318dc	0.023815565
141	0x3cdff4ef	0.027338473
142	0xbd67aaf3	-0.056559514
143	0xbc09df5a	-0.008415068
144	0x3dd3cf08	0.103422225
145	0x3ccc53e0	0.024942338
146	0xbb55f862	-0.0032649268
147	0x3d86dbe7	0.06584912
148	0xbd1abb76	-0.037776433
149	0xbd2de47d	-0.04245423
150	0x3da45b06	0.08025174
151	0x3d2749c5	0.040841836
152	0x3dfa8d07	0.1223393
153	0xbcbf552b	-0.023356041
154	0x3d67de66	0.05660858
155	0xbd876d7b	-0.066126786
156	0x3d4fedb9	0.05076382
157	0xbb185087	-0.0023241357
158	0x3d55c0b0	0.052185714
159	0xbd694651	-0.056951825
160	0x3d1b9c09	0.037990604
161	0xbd403f6f	-0.046935495
162	0x3c4bdca5	0.0124427425
163	0xbda3fa37	-0.08006709
164	0xbe1bd9db	-0.15219824
165	0xbce7ec0b	-0.028310796
166	0xbd351bce	-0.04421597
167	0x3de2e8b8	0.11079544
168	0x3db627e5	0.08894328
169	0x3a35d09e	0.00069356884
170	0xbd7be558	-0.061498016
171	0x3de8bd3a	0.11364217
172	0xbdaa1189	-0.08304126
173	0x3d3331e3	0.043748748
174	0x3c31c0ce	0.010849191
175	0x3cd12cd8	0.025534078
176	0xbe13c672	-0.1443117
177	0xbddfff7c	-0.10937402
178	0xbdf5d8e3	-0.120042585
179	0xbc8ef114	-0.01744894
180	0xbd3c0e08	-0.04591182
181	0x3c7f7c98	0.01559367
182	0xbd789d4b	-0.06069688
183	0x3e0a7de3	0.13524584
184	0xbdeecbe7	-0.11659985
185	0x3cec09c2	0.028813247
186	0x3d9f2f97	0.07772749
187	0x3c3b454a	0.011430094
188	0xbe22a0f8	-0.15881717
189	0xbdd188a2	-0.10231139
190	0x3c1328a4	0.008981857
191	0xbd5934cd	-0.05302887
192	0xbe0bca58	-0.13651407
193	0xbd2c219f	-0.04202425
194	0x3de102a9	0.109868355
195	0x3e08682d	0.1332099
196	0xbd8a762b	-0.0676082
197	0x3ca4214c	0.020035408
198	0xbcaf6571	-0.021410676
199	0xbd890d77	-0.06692021
200	0xbce7148e	-0.028208043
201	0xbcc76f1a	-0.02434497
202	0xbd0b341c	-0.033985242
203	0xbe154c39	-0.14579858
204	0x3d40ed9b	0.0471016
205	0x3e01c0a2	0.1267114
206	0xbe437196	-0.19086298
207	0xbc7edbcd	-0.015555334
208	0x3d1ba978	0.038003415
209	0x3e11c1aa	0.14234033
210	0x3abe3646	0.0014512024
211	0xbe3cbe5c	-0.18431991
212	0x3dca5d14	0.098810345
213	0x3b4ccdc0	0.0031250566
214	0xbe48bda1	-0.19603588
215	0x3dffdab5	0.12492887
216	0x3e20ed12	0.15715435
217	0xbe1d01ab	-0.15332668
218	0xbe88a563	-0.2668868
219	0x3e342fed	0.17596407
220	0xbc4b088e	-0.012392176
221	0x3d76f9dd	0.060296882
222	0x3cc59a73	0.024121499
223	0xbe0352d9	-0.12824573
224	0xbda20365	-0.07910804
225	0xbd505e22	-0.050871022
226	0x3d913043	0.07089283
227	0xbdee2f48	-0.11630112
228	0xbe0e9bf6	-0.13926682
229	0xbe0b0497	-0.1357597
230	0x3de35420	0.1110003
231	0x3e0b165f	0.13582753
232	0x3d708853	0.05872376
233	0xbdef8322	-0.116949335
234	0x3e19c780	0.1501751
235	0x3e38f050	0.18060422
236	0xbbfaf8f8	-0.007659074
237	0x3c38c181	0.011276604
238	0xbd73848f	-0.05945259
239	0x3e032c14	0.12809783
240	0x3d8fa77d	0.07014368
241	0xb9df9ede	-0.0004265224
242	0x3d688d82	0.056775577
243	0xbe12354d	-0.14278145
244	0xbde100cf	-0.10986482
245	0x3db38cd4	0.08767095
246	0x3e24c9ac	0.16092557
247	0x3e0c6a0d	0.1371233
248	0xbd7ff281	-0.06248713
249	0xbdb8cdb5	-0.090236105
250	0x3d64632a	0.055758633
251	0xbd391d04	-0.045193687
252	0x3db24939	0.08705372
253	0xbd7fbb4e	-0.062434487
254	0x3df526a8	0.11970264
255	0xbca697e9	-0.020336108

G.0.linears.2.bias f4 [10]
0	0xbd854177	-0.06506627
1	0xbd84209a	-0.06451531
2	0x3d29f6be	0.041495077
3	0xbd14b4d4	-0.036305264
4	0x3d8fd4b9	0.070229955
5	0xbd622f75	-0.05522104
6	0xbd46264f	-0.048376378
7	0x3d177598	0.03697738
8	0xbd397ff9	-0.04528806
9	0x3dcc6faa	0.09982236
