para_save/00013params.pth (torch, 118145 bytes, 76 tensors)

F.linears.0.weight f4 [32, 20]
0	0xbd8f044f	-0.06983244
1	0xbdb9ea7b	-0.09077927
2	0xbe1c3e50	-0.15258145
3	0x3c4ec6f4	0.012620676
4	0xbda20f24	-0.07913044
5	0xbd736b2a	-0.05942837
6	0xbdfcb765	-0.12339667
7	0x3dd6c090	0.10485947
8	0xbdbac1ec	-0.09119019
9	0xbd762a10	-0.060098708
10	0xbcc71a55	-0.024304548
11	0xbcc55769	-0.024089532
12	0x3db19fef	0.08673083
13	0xbe17416f	-0.14771055
14	0x3c7d1902	0.015447857
15	0x3b0b0b23	0.0021216355
16	0x3d6b8b7e	0.057506077
17	0x3e01c283	0.12671857
18	0xbd8b74a6	-0.06809358
19	0x3df2897b	0.118426286
20	0x3e32c7d2	0.17459038
21	0xbdd01d83	-0.10161879
22	0xbd03ee37	-0.0322096
23	0xbd7b5dd7	-0.06136879
24	0xbd3b4326	-0.045718335
25	0xbe0eff53	-0.13964586
26	0x3c38d103	0.011280301
27	0x3d93d6c0	0.07218695
28	0x3cdd643b	0.027025333
29	0xbcb2bd5d	-0.021818811
30	0x3e258e64	0.16167599
31	0xbd70c4a6	-0.05878129
32	0xbe37b92b	-0.1794173
33	0xbc1aa24c	-0.009438109
34	0x3d732547	0.059361722
35	0x3d89b79c	0.06724474
36	0x3d410d50	0.047131836
37	0x3d02b660	0.031912208
38	0xbd8dbd5b	-0.06920882
39	0x3c9c663f	0.019091723
40	0xbd966a0b	-0.07344445
41	0x3dccd4d2	0.1000153
42	0xbdf285a4	-0.11841896
43	0xbe295e58	-0.16539896
44	0xbe0005d8	-0.12502229
45	0xbdefcec5	-0.1170936
46	0x3df6f644	0.1205869
47	0x3d472973	0.048623513
48	0x3dc9c73e	0.098524556
49	0x3d24bfc2	0.040221937
50	0x3e035162	0.12824014
51	0xbdb976a9	-0.09055836
52	0xbd529e14	-0.051420286
53	0xbe490b4d	-0.19633217
54	0x3dad762e	0.084698066
55	0x3d5b2a7e	0.05350732
56	0x3dae9ad5	0.085256256
57	0xbe41dcec	-0.18931931
58	0xbdccdc88	-0.100030005
59	0x3d272bdf	0.040813323
60	0x3ce68d35	0.028143505
61	0xbdf4f84d	-0.11961422
62	0x3cc08437	0.023500545
63	0xbdbe5ebd	-0.09295414
64	0x3e0cb608	0.13741314
65	0xbdcc680e	-0.09980784
66	0x3cd84d89	0.02640416
67	0xbcc7dc72	-0.024397109
68	0x3bab82f0	0.005234115
69	0x3e0a1a02	0.13486484
70	0xbcb846ce	-0.0224947
71	0xbe1ac5d7	-0.15114532
72	0xbd887397	-0.06662672
73	0x3bb1778e	0.0054158634
74	0x3cd8f9d6	0.026486319
75	0x3dc39e72	0.095517054
76	0xba5fad03	-0.00085325557
77	0xbbae8942	-0.005326421
78	0xbe2566b5	-0.16152461
79	0x3d37af4f	0.04484492
80	0x3d8cafb3	0.068694495
81	0xbc543733	-0.012952614
82	0xbdf3611d	-0.11883757
83	0x3d92c4e7	0.071664624
84	0x3d33993e	0.043847315
85	0xbd2258c6	-0.039635442
86	0x3d379019	0.044815157
87	0xbd826a5e	-0.06367944
88	0x3d425519	0.047444437
89	0x3e0b71cd	0.1361763
90	0xbccbdd80	-0.024885893
91	0xbdb8a81d	-0.0901644
92	0xbe3d96df	-0.18514584
93	0xbddb01da	-0.106937125
94	0x3e25999d	0.1617188
95	0xbcd3bded	-0.0258474
96	0x3e50bfb2	0.20385626
97	0xbcdddab3	-0.027081823
98	0xbdf7f936	-0.1210808
99	0x3c0ed886	0.008718615
100	0xbd21cd6b	-0.039502542
101	0x3e45d163	0.19318156
102	0xbe30246f	-0.17201398
103	0xbdafdd59	-0.085871406
104	0x3db86590	0.090037465
105	0xbd0bf3be	-0.034167998
106	0x3d89e23a	0.067326024
107	0x3e4200d2	0.18945625
108	0x3e0961f6	0.13416275
109	0xbc577ff6	-0.013153067
110	0x3cac69b9	0.021046506
111	0xbd14f1a1	-0.036363248
112	0xbcc91ffb	-0.024551382
113	0xbceb4862	-0.028721038
114	0xbd133990	-0.035943568
115	0x3d5ce972	0.05393357
116	0x3e53715e	0.20648715
117	0x3c921bbe	0.017835494
118	0x3d4cfc88	0.05004552
119	0xbd1806ca	-0.03711585
120	0x3df15622	0.11784007
121	0x3a3e77d8	0.0007265783
122	0xbdadd8d5	-0.08488623
123	0xbd6b4165	-0.057435412
124	0x3d2d41fe	0.042299263
125	0x3b3a342e	0.002841245
126	0x3e5f1b48	0.2178775
127	0x3d5cf58a	0.0539451
128	0x3d5d9379	0.05409572
129	0x3df80225	0.12109784
130	0x3debfba6	0.115226075
131	0x3dcc86d6	0.099866554
132	0xbcba5074	-0.022743441
133	0xbdf7b1e7	-0.12094479
134	0x3e4cfdab	0.20018642
135	0x3e03612e	0.1283004
136	0xbe59c48b	-0.21266381
137	0xbd7f0cd1	-0.062268082
138	0x3ca0728d	0.019585872
139	0x3d067711	0.032828394
140	0x3db7dd37	0.0897774
141	0xbd503f42	-0.050841577
142	0x3e11ece7	0.14250527
143	0x3bc591a3	0.006029324
144	0xbbb4308f	-0.0054989527
145	0x3caf6e6d	0.02141496
146	0xbd140ca9	-0.036144886
147	0x3b5daf8d	0.003382656
148	0x3dacbd37	0.08434527
149	0xbe178ce5	-0.14799841
150	0xbdc579f1	-0.09642399
151	0x3dc7f857	0.09764164
152	0x3a5e05a6	0.00084694696
153	0xbcd15b22	-0.02555615
154	0x3d6cff38	0.057860583
155	0x3c1a87f6	0.00943183
156	0x3b0361fa	0.0020047412
157	0x3ca5354e	0.02016702
158	0xbe3526e5	-0.17690618
159	0x3db53e5e	0.08849786
160	0xbd805aab	-0.062672935
161	0x3dd62085	0.10455421
162	0x3d97ee28	0.074184716
163	0xbc84f2c7	-0.016229047
164	0xbdb73fef	-0.08947741
165	0x3d70cad0	0.058787167
166	0xbdff9b32	-0.12480773
167	0xbcb719e7	-0.022351218
168	0xbdb95070	-0.09048545
169	0x3d534e68	0.051588446
170	0x3e0a789b	0.1352257
171	0xbdfa7642	-0.12229587
172	0xbaaf3fd0	-0.0013370458
173	0x3c4aee75	0.012385954
174	0xbd85b8a0	-0.06529355
175	0x3d8844b8	0.06653732
176	0x3d827415	0.06369797
177	0xbdd4a9fa	-0.10383983
178	0xbb8e14bf	-0.004335969
179	0x3e0c6ea9	0.13714088
180	0x3d3c3c29	0.04595581
181	0xbd4e88c9	-0.050423417
182	0x3db3629f	0.08759045
183	0xbd5a726c	-0.053331777
184	0xbc6f58e3	-0.014608595
185	0xbc81d715	-0.01584963
186	0xbdaeca03	-0.085346244
187	0x3e77b766	0.24191055
188	0x3e03a1df	0.12854718
189	0xbdaffd92	-0.085932866
190	0xbb2b95b4	-0.002618176
191	0x3c922fb8	0.01784502
192	0x3d9d9365	0.07694129
193	0xbd8b5271	-0.06802834
194	0x3d4b5ccc	0.049649045
195	0xbd6bee31	-0.057600204
196	0xbdcc6794	-0.099806935
197	0xbe045d4c	-0.12926215
198	0xbe064e39	-0.13115777
199	0xbd197009	-0.03746036
200	0x3d018ec1	0.03163028
201	0xbcc361a4	-0.02385027
202	0x3bacc4e2	0.0052724937
203	0xbc3dbb9e	-0.011580376
204	0xbdd6145b	-0.10453101
205	0x3cc71178	0.024300322
206	0x3da98327	0.082769684
207	0xbda9acf0	-0.08284938
208	0xbbc1d084	-0.0059147496
209	0x3d007ffd	0.03137206
210	0xbdabed91	-0.083949216
211	0x3c075d85	0.008262043
212	0xbe03b7f9	-0.12863149
213	0x3cb189a1	0.021672072
214	0x3e2a7ee5	0.16649969
215	0x3d3f290e	0.046670012
216	0x3e0837a7	0.1330248
217	0xbe2552bc	-0.16144842
218	0x3d8552ee	0.06509958
219	0x3d54d0c9	0.051956926
220	0xbd993c74	-0.07482234
221	0xbcd53b58	-0.026029274
222	0xbd2dee66	-0.042463683
223	0xbc6438f0	-0.013929591
224	0xbd70e159	-0.05880866
225	0x3d8b26f8	0.06794542
226	0x3dbd48e2	0.09242417
227	0xbd967941	-0.07347346
228	0xbcf28c19	-0.02960782
229	0xbe4eff34	-0.2021454
230	0x3c2a70b0	0.010402843
231	0xbe75beb0	-0.23998523
232	0x3e167889	0.14694418
233	0xbd040931	-0.032235328
234	0xbd1f35f6	-0.03886982
235	0x3df068c4	0.117387325
236	0x3c55bbcd	0.0130452635
237	0xbd21befd	-0.03948878
238	0xbe6fbb3d	-0.2341127
239	0x3e2b2141	0.16711904
240	0x3dfaa02b	0.12237581
241	0xbd48e4d2	-0.049046345
242	0xbc89e5cb	-0.016833207
243	0xbd818498	-0.063241184
244	0x3cb72783	0.022357708
245	0x3e26c02c	0.16284245
246	0x3c8e9ed8	0.017409727
247	0x3d95c2cd	0.07312546
248	0x3b377d83	0.0027998395
249	0xbde5fbcb	-0.11229666
250	0x3d02d2f6	0.03193947
251	0xbe05d58f	-0.13069747
252	0xbd5ce5c9	-0.053930078
253	0xbe2f6091	-0.17126681
254	0x3c5c5d75	0.013450016
255	0xbb8afa43	-0.0042412593

F.linears.0.bias f4 [32]
0	0xbd029180	-0.03187704
1	0x3c531593	0.012883562
2	0x3d454dcc	0.048169896
3	0xbdb1f9a9	-0.08690197
4	0xbd712330	-0.058871448
5	0xbd400b46	-0.04688575
6	0xbdb15816	-0.08659379
7	0x3d13db1e	0.03609764
8	0x3c9f4fef	0.019447295
9	0x3d93d9e1	0.072192915
10	0xbd65d8be	-0.056114905
11	0xbd15b7ea	-0.036552347
12	0xbcc8fff1	-0.024536105
13	0xbc1cf7f1	-0.009580598
14	0xbbff5914	-0.0077926014
15	0x3ca0d240	0.019631505
16	0x3c1663aa	0.009179035
17	0x3da647d6	0.0811917
18	0x3d999f4e	0.07501088
19	0x3cba2a10	0.022725135
20	0xbde1d0b7	-0.11026137
21	0xbc25e8bb	-0.010126288
22	0xbdc8a56a	-0.09797175
23	0xbd938639	-0.07203335
24	0xbd58d0cd	-0.052933503
25	0xbcb85b7f	-0.022504566
26	0xbb226a38	-0.002478255
27	0xbd51a7fa	-0.051185586
28	0x39415661	0.00018438093
29	0x3b92361a	0.004462016
30	0xbbe5e1e8	-0.0070154555
31	0xbc32986c	-0.010900598

F.linears.1.weight f4 [32, 32]
0	0xbd07200f	-0.032989558
1	0x3dd90de2	0.10598351
2	0x3e93913a	0.28821737
3	0xbdc95bee	-0.09831987
4	0xbdd96cd2	-0.10616459
5	0x3d01d90f	0.031701144
6	0x3c6ccbd0	0.01445289
7	0xbdc1dde5	-0.09466151
8	0xbd0eaeb9	-0.034834597
9	0x3bc03233	0.005865359
10	0x3d149898	0.036278337
11	0x3a153647	0.0005691987
12	0xbd9b0a6f	-0.075703494
13	0xbdd23151	-0.102633126
14	0x3e2ed4a8	0.1707331
15	0x3dddddfd	0.108333565
16	0xbd4838a8	-0.048882157
17	0xbd121a0d	-0.035669375
18	0x3cd417cc	0.025890253
19	0x3debf621	0.11521555
20	0xbd58d665	-0.052938838
21	0x3d044539	0.03229258
22	0x3e6d5f59	0.23180903
23	0xbce81c2d	-0.028333748
24	0x3d16c50d	0.036809016
25	0x3dea6362	0.11444737
26	0xbd3a09a7	-0.04541936
27	0xbdbd86ac	-0.09254202
28	0xbe2c22e9	-0.16810192
29	0x3d487674	0.04894109
30	0x3c971b84	0.018445738
31	0x3d74f204	0.059801117
32	0x3dd47f9a	0.103759006
33	0x3d18e032	0.037323184
34	0x3e8a6ce7	0.2703621
35	0x3d40c121	0.047059182
36	0xbce4c738	-0.027927026
37	0x3dd7b4aa	0.10532506
38	0x3ce9352b	0.028467735
39	0xbd94eed3	-0.072721146
40	0x3d0e937e	0.03480863
41	0x3c9d18d1	0.019176872
42	0x3e19acf7	0.15007387
43	0xbe50b0c0	-0.20379925
44	0xbb830aa8	-0.003999073
45	0xba97f7e9	-0.0011594269
46	0xbe00c4af	-0.12575029
47	0x3d9b4745	0.07581953
48	0x3d7352a0	0.05940497
49	0x3da7b01b	0.08187886
50	0xbe226727	-0.15859662
51	0x3c14c407	0.00907994
52	0xbc6cf053	-0.014461595
53	0x3d397eb1	0.045286838
54	0x3cf64cb3	0.03006587
55	0x3d7fdde8	0.062467486
56	0xbe1e15d6	-0.15438017
57	0xbdb6a344	-0.08917859
58	0x3dce8376	0.10083668
59	0x3e358cd5	0.17729504
60	0xbd5cc938	-0.053902835
61	0x3dea881c	0.11451742
62	0x3dedde64	0.11614683
63	0x3dbc77e8	0.09202558
64	0xbd0c7a99	-0.034296606
65	0x3d1e4efc	0.038649544
66	0x3aebfd35	0.0018004539
67	0xbd31e5bd	-0.043431986
68	0xbc819ff8	-0.01582335
69	0xbb38cc36	-0.002819789
70	0x3c207a50	0.009794787
71	0xbe4d221b	-0.20032541
72	0x3d317644	0.043325678
73	0xbd5f5367	-0.054522898
74	0x3d876909	0.06611831
75	0x3e1dfec2	0.15429214
76	0x3e4412c1	0.19147779
77	0xbc99bb0a	-0.018765945
78	0xbe31232f	-0.17298578
79	0xbc040ffd	-0.0080604525
80	0x3e3a410e	0.18188879
81	0xbd9272a1	-0.0715077
82	0xbd2cb8a7	-0.042168286
83	0x3d85fe47	0.0654264
84	0x3e129267	0.1431366
85	0x3e17c61f	0.14821671
86	0xbc584356	-0.013199648
87	0xbd884638	-0.06654018
88	0xbe2e8c10	-0.17045617
89	0x3da762fd	0.081731774
90	0xbe8032c2	-0.25038725
91	0x3e206c3e	0.15666291
92	0x3d7db868	0.06194344
93	0x3d704e7c	0.0586686
94	0x3df8c937	0.12147754
95	0xbc8e4143	-0.017365104
96	0xbdf30965	-0.11867026
97	0xbcdfd55e	-0.027323421
98	0x3d0cb29f	0.034350034
99	0x3dcbaede	0.09945463
100	0xbb27a65a	-0.002558133
101	0xbe3aceb4	-0.18242913
102	0x3d43e910	0.047829688
103	0x3ba4bacd	0.005027151
104	0x3e38e0af	0.1805446
105	0xbe40678c	-0.187895
106	0x3e3258d2	0.17416695
107	0xbe03118b	-0.12799661
108	0x3d1f49e6	0.038888834
109	0xbde4978c	-0.11161718
110	0xbe0d3f4e	-0.1379368
111	0xbe83635d	-0.25661746
112	0xbe133b48	-0.14378083
113	0xbdaa9418	-0.08329028
114	0xbde5e3f3	-0.112251185
115	0xbe6837e6	-0.22677574
116	0x3d95cedc	0.07314846
117	0x3de85ae6	0.113454625
118	0xbde4c607	-0.11170583
119	0x3e5cc94c	0.21561164
120	0x3d93d331	0.07218016
121	0x3e183fcd	0.14868088
122	0xbbfdba9d	-0.0077431933
123	0xbd7a562f	-0.061117347
124	0x3bce80a8	0.006301958
125	0xbd1e092f	-0.038582977
126	0x3e180f71	0.1484964
127	0xbdbfca1e	-0.09364723
128	0xb8b5230d	-8.637281e-05
129	0x3e283157	0.16425072
130	0x3db5564e	0.08854352
131	0xbdd29e49	-0.10284097
132	0x3e0ce659	0.13759746
133	0xbc9a8563	-0.018862432
134	0xbccca0de	-0.024979051
135	0x3d057e9d	0.03259145
136	0xbd2ab89d	-0.041679967
137	0xbc33ae80	-0.010966897
138	0x3d6ee209	0.058321033
139	0x3d841587	0.064494185
140	0xbde5c694	-0.112195164
141	0xbe27738b	-0.1635267
142	0x3a84ffbe	0.0010147018
143	0xbdc6b0cc	-0.0970169
144	0xbe2ae681	-0.16689493
145	0x3abd9a42	0.0014465528
146	0x3d8c01c8	0.06836277
147	0xbb3af6fa	-0.0028528557
148	0xbd744388	-0.059634715
149	0x3d72c697	0.05927142
150	0x3bcbc39a	0.006218386
151	0xbc6e7bdd	-0.0145558985
152	0x3dc2580f	0.09489452
153	0xbd10ea99	-0.03537998
154	0xbe0c936c	-0.13728112
155	0x3e2a807c	0.16650575
156	0x3ce7bf42	0.028289441
157	0xbdd1b134	-0.10238877
158	0x3dc9c65c	0.09852287
159	0xbbb3908d	-0.0054798783
160	0xbdab1935	-0.08354417
161	0xbaa8213f	-0.0012827291
162	0xbde16fcf	-0.11007654
163	0x3d8c6db6	0.06856863
164	0xbdf01d9f	-0.117244
165	0xbc31a1b6	-0.010841778
166	0xbe564217	-0.20923649
167	0xbe68da58	-0.22739542
168	0xb93b85e8	-0.00017883594
169	0xbb81214d	-0.0039407373
170	0xbdec8465	-0.1154869
171	0xbe08296d	-0.13297053
172	0x3dd45c2d	0.10369144
173	0x3d94e1a8	0.07269603
174	0x3d8e91d4	0.06961408
175	0x3df89477	0.121376924
176	0xbd4ee193	-0.050508093
177	0xbcac80fa	-0.021057595
178	0xbcd068b8	-0.025440559
179	0xbddb2836	-0.10701029
180	0xbdac0bed	-0.08400712
181	0x3bc4a593	0.0060011833
182	0x3d085570	0.033284605
183	0xbcce30d2	-0.025169764
184	0x3b4ee4bc	0.0031569442
185	0x3db363ec	0.08759293
186	0x3d9eeb36	0.07759707
187	0x3caf8368	0.021424964
188	0x3d467a46	0.048456453
189	0x3d984b23	0.07436206
190	0xbdd8373e	-0.105574116
191	0xbd887720	-0.06663346
192	0xbbf4e1c8	-0.0074732043
193	0xbde1a6d0	-0.11018145
194	0xbdc9830c	-0.09839448
195	0xbd5aed79	-0.053449128
196	0xbdaeb0f5	-0.085298456
197	0xbbc79bb2	-0.0060915584
198	0x3dbce4c4	0.09223321
199	0xbd25136f	-0.040301736
200	0xbe3220dd	-0.17395349
201	0xbdf3afc7	-0.11898761
202	0x3db04bf6	0.086082384
203	0xbe49c08a	-0.19702354
204	0x3d5ea324	0.0543548
205	0xbdc72157	-0.09723156
206	0xbdedbc63	-0.116081975
207	0x3e31d9f7	0.17368303
208	0xbd5bc52a	-0.053654827
209	0x3e021feb	0.12707488
210	0xbd41a0e6	-0.047272585
211	0xbd7042de	-0.05865752
212	0x39e40aac	0.000434955
213	0xbb8748ba	-0.0041285427
214	0x3d5dc22b	0.05414025
215	0xbdef6747	-0.116896205
216	0x3afdf404	0.001937509
217	0xbe04254f	-0.12904857
218	0x3ca71215	0.020394364
219	0xbc702029	-0.014656105
220	0xbd65531a	-0.055987455
221	0x3a7af5e0	0.00095733814
222	0xbc94d1ca	-0.018166441
223	0xbdd59b96	-0.10430066
224	0x3da62a88	0.08113581
225	0x3d6182ad	0.055056263
226	0xbe1acc47	-0.15116988
227	0x3c0f1e6e	0.008735282
228	0xbd6b7f36	-0.057494365
229	0x3ded39c9	0.11583287
230	0x3d8c9495	0.06864277
231	0x3d9283f9	0.07154078
232	0x3d7b0df7	0.061292615
233	0x3b6d7d6b	0.0036238085
234	0x3d04a682	0.032385357
235	0xbd4b3a1a	-0.049615957
236	0xbdbbcc38	-0.09169811
237	0xbe20341c	-0.15644878
238	0x3d0066c7	0.031348016
239	0xbd5de834	-0.054176524
240	0xbd9a2625	-0.07526807
241	0x3dae4b9e	0.085105166
242	0x3d913329	0.07089836
243	0xbe26f1ed	-0.16303225
244	0x3dc3e5b6	0.09565298
245	0x3d5eb217	0.05436906
246	0x3e73be64	0.23803097
247	0xbcac4cea	-0.02103277
248	0xbda0b14b	-0.07846316
249	0xbc79223b	-0.015205915
250	0x3cc59930	0.024120897
251	0x3ce7d40c	0.028299354
252	0x3dcdac11	0.10042585
253	0x3d66b4c0	0.05632472
254	0x3d8f22b8	0.06989044
255	0x3e618bde	0.22026011

F.linears.1.bias f4 [32]
0	0xbcbde159	-0.023178743
1	0xbd022328	-0.03177181
2	0xbcda7b17	-0.026670022
3	0x3d2582f7	0.0404081
4	0x3ddcdda8	0.10784465
5	0x3ca242b1	0.019807192
6	0xbb98a425	-0.0046582394
7	0xbcf84ab9	-0.030309068
8	0x3db9c020	0.09069848
9	0xbd479f63	-0.048735987
10	0x3bec89f2	0.007218593
11	0xbdb6fa57	-0.08934467
12	0x3c71388f	0.014722957
13	0x3dc4181a	0.095749095
14	0xbb0a58bc	-0.0021110019
15	0xbdbf1404	-0.093299896
16	0x3cf8f1fe	0.030388828
17	0x3d6eef57	0.05833372
18	0xbd7a6fb1	-0.061141673
19	0x3da2eea7	0.079556756
20	0xbb321276	-0.0027171648
21	0xbd706ed2	-0.058699436
22	0x3ceb8de0	0.028754175
23	0xbdbaf76b	-0.091292225
24	0x3cbd9363	0.023141569
25	0x3d66f4ec	0.05638592
26	0x3c1def5c	0.009639587
27	0x3da5dce2	0.08098771
28	0xbd86564a	-0.06559427
29	0xbd7c1508	-0.061543494
30	0x3d4e05f7	0.050298657
31	0x3dd008e3	0.10157945

F.linears.2.weight f4 [10, 32]
0	0x3d416857	0.047218647
1	0xbd9d0fdd	-0.07669041
2	0x3cf116f3	0.029429888
3	0xbaef967a	-0.0018279098
4	0xbdb06791	-0.08613504
5	0x3e1c24d1	0.1524842
6	0x3e7019f1	0.23447396
7	0x3d4b8d88	0.04969552
8	0x3dc2fc28	0.09520751
9	0xbe09bbcb	-0.13450544
10	0x3da577d5	0.08079497
11	0xbd0bb885	-0.03411152
12	0x3d58d385	0.052936096
13	0xbdfab099	-0.122407146
14	0x3d181a6d	0.037134577
15	0x3e29326b	0.16523139
16	0x3bf5bdfd	0.007499455
17	0x3c3d4487	0.011551983
18	0x3e30921e	0.1724324
19	0x3e1bbf31	0.15209652
20	0xbcebd162	-0.028786365
21	0x3e5599fb	0.2085952
22	0xbcbad62f	-0.022807209
23	0x3d2b52f6	0.041827165
24	0xbe0f4383	-0.13990597
25	0x3c179c50	0.009253576
26	0x3e0a9d86	0.13536653
27	0xbd86c93e	-0.06581353
28	0x3ca9d38b	0.020730754
29	0xbd2dfa1f	-0.042474862
30	0xbc95a307	-0.018266214
31	0xbd6348a5	-0.0554892
32	0x3c423760	0.011854023
33	0xbda25502	-0.0792637
34	0x3d168d47	0.036755826
35	0x3e0f6f8d	0.14007397
36	0xbc9d8c00	-0.019231796
37	0x3db45fe5	0.08807353
38	0xbdd4725f	-0.10373377
39	0x3e8eebc4	0.2791425
40	0x3d2d248c	0.042271182
41	0xbe1ef3b4	-0.15522653
42	0x3de0475d	0.109511115
43	0x3c8713a6	0.016488861
44	0x3db4c435	0.08826486
45	0xbdad99a5	-0.08476571
46	0xbcdcf332	-0.026971433
47	0x3d4270e6	0.04747095
48	0xbdd52fe0	-0.10409522
49	0x3dbf7b8e	0.09349738
50	0x3d0c1e02	0.034208305
51	0x3d1e7553	0.038686108
52	0x3d1afa11	0.03783614
53	0xbe413711	-0.18868662
54	0xbe5a1e3a	-0.21300593
55	0x3e05bc29	0.13060059
56	0x3dc175e3	0.09446313
57	0xbdcdc9ae	-0.10048233
58	0x3daa5d0c	0.083185285
59	0xbe0a384d	-0.1349804
60	0xbe01d11d	-0.12677427
61	0x3c654094	0.013992447
62	0x3e0b0ef1	0.13579918
63	0xbe4ac25e	-0.19800708
64	0x3dc0b700	0.094099045
65	0x3e4454d1	0.1917298
66	0xbe7b686e	-0.24551556
67	0xbe13664d	-0.14394493
68	0xbd248013	-0.040161204
69	0x3ca0faa2	0.019650761
70	0x3b77ac17	0.0037791783
71	0x3d8a296f	0.06746184
72	0x3d56917e	0.052384846
73	0xbbc3553a	-0.0059610875
74	0xbdde0ed0	-0.10842669
75	0xbc69df80	-0.014274478
76	0x3c9ebf64	0.019378372
77	0xb906cdbe	-0.00012855881
78	0x3be35527	0.006937641
79	0xbd669d7f	-0.056302544
80	0xbe0e6caf	-0.13908647
81	0x3d51d7ec	0.05123131
82	0x3d183f69	0.037169848
83	0x3daaaecb	0.0833412
84	0x3c1d550b	0.009602795
85	0x3dd4fd8a	0.10399921
86	0xbe11af0e	-0.14226934
87	0xbd0dd409	-0.03462604
88	0xbc74a00e	-0.014930738
89	0x3e072758	0.13198602
90	0x3d736289	0.059420142
91	0xbe2adec2	-0.16686538
92	0xbdd45bd6	-0.10369079
93	0x3e191c77	0.14952265
94	0x3b32ba72	0.0027271775
95	0xbe0fe025	-0.14050348
96	0x3e0774c0	0.1322813
97	0x3e81da26	0.25361747
98	0xbcde1397	-0.02710895
99	0xbe155ebd	-0.14586921
100	0x3dcbd83f	0.09953355
101	0x3d9fcaef	0.078023784
102	0xbe0155ca	-0.12630382
103	0xbcbb2c8b	-0.022848388
104	0x3dd0de7b	0.10198685
105	0x3b0680ee	0.0020523625
106	0x3d271473	0.040790986
107	0xbe8be6ae	-0.27324432
108	0x3e2a7ade	0.16648433
109	0x3bd431f2	0.0064756805
110	0xbdb8e2c5	-0.09027628
111	0xbe210ea7	-0.15728246
112	0xbd8fd844	-0.07023671
113	0xbd0b91f5	-0.034074742
114	0x3e32006a	0.1738297
115	0x3e390d92	0.18071583
116	0xbd530960	-0.051522613
117	0xbd42d1bc	-0.0475633
118	0x3dbcaaac	0.092122406
119	0x3bd2ea43	0.0064366176
120	0xbbfc2ee0	-0.0076960176
121	0xbd3c29d8	-0.045938343
122	0x3d54918c	0.051896617
123	0x3d1d2ba9	0.038371716
124	0x3e01d416	0.1267856
125	0x3cebf1dc	0.028801851
126	0x3c22bb6d	0.009932381
127	0xbe024935	-0.12723239
128	0xbe423513	-0.18965559
129	0x3d889425	0.06668881
130	0xbd856904	-0.06514171
131	0xbde7ff26	-0.113279626
132	0xbc4bf97a	-0.012449617
133	0xbd1dc912	-0.038521834
134	0xbd8a24ad	-0.067452766
135	0x3e3eaf32	0.18621519
136	0x3c908e9f	0.017646132
137	0xbc50ce36	-0.012744477
138	0x3d2f8333	0.04284973
139	0x3e4b0ac2	0.19828323
140	0xbdfb5cf9	-0.122735925
141	0xbd7fe198	-0.062471002
142	0xba5444ae	-0.0008097392
143	0xbca67e20	-0.020323813
144	0xbe4bf33a	-0.19917002
145	0xbc2e223f	-0.010628282
146	0xbde9691f	-0.113970034
147	0xbd626d63	-0.0552801
148	0x3d441dd5	0.047880013
149	0x3da2d49f	0.079507105
150	0xbd85817f	-0.0651884
151	0xbe4cbdee	-0.19994327
152	0xbdd235f1	-0.10264195
153	0x3e50a268	0.20374453
154	0x3dcc3999	0.099719234
155	0xbd0e6428	-0.034763485
156	0x3d899ed3	0.067197464
157	0x3dddc82a	0.10829194
158	0xbe315ad8	-0.1731981
159	0xbd9e6877	-0.07734769
160	0x3e2205ea	0.15822569
161	0x3cc1185a	0.023571182
162	0xbcfa2565	-0.03053541
163	0xbe6755dd	-0.22591348
164	0x3d12d0d3	0.03584368
165	0x3e6e3280	0.23261452
166	0xbd89d576	-0.067301676
167	0x3d802b38	0.06258243
168	0xbcefe918	-0.029285952
169	0xbd4dca96	-0.05024203
170	0xbd9659c4	-0.0734134
171	0x3d9cc0a4	0.07653931
172	0x3cec5575	0.028849343
173	0xbd9e87c3	-0.07740738
174	0xbd9adbdc	-0.07561466
175	0x3d1d1474	0.038349584
176	0xbde05e69	-0.10955507
177	0x3dfdc7b3	0.12391605
178	0xbcea3dc0	-0.028593898
179	0x3cd3b315	0.025842229
180	0xbe3488e1	-0.1763034
181	0xbdb6f2aa	-0.08933003
182	0x3e305f7c	0.17223924
183	0x3e378499	0.17921676
184	0xbc600690	-0.01367344
185	0xbe1650df	-0.14679287
186	0xbd708fc6	-0.058730863
187	0xbe29a269	-0.16565861
188	0xbde350e8	-0.11099416
189	0xbd1bbb07	-0.03802016
190	0xbb8e5ec4	-0.004344793
191	0xbca352fc	-0.019937031
192	0x3da01d9b	0.07818147
193	0xbdb603bd	-0.08887432
194	0x3e30bcb7	0.17259489
195	0xbd6815e3	-0.056661498
196	0x3d801d65	0.062556066
197	0x3e1ed75b	0.15511839
198	0x3debe0c8	0.11517483
199	0x3da1d028	0.07901031
200	0x3dc085ca	0.09400518
201	0x3d9080ec	0.0705584
202	0xbe5e7215	-0.21723206
203	0xbc6053ae	-0.013691826
204	0xbd8be2a5	-0.068303384
205	0xbccf30a6	-0.025291752
206	0x3c9c59c2	0.019085769
207	0xbe2bbd4b	-0.16771428
208	0x3da5ed78	0.08101934
209	0x3c919616	0.017771762
210	0x3e04a33e	0.12952897
211	0x3c9fb8c2	0.01949728
212	0xbd9a9c8e	-0.07549392
213	0xbe1fde71	-0.15612198
214	0x3d474780	0.048652172
215	0x3b0de00c	0.0021648435
216	0x3de9086b	0.11378559
217	0x3d3434e1	0.04399574
218	0x3d92ac20	0.071617365
219	0xbd7a77a9	-0.061149273
220	0x3bfda873	0.007741028
221	0x3dbee03d	0.09320114
222	0xbcb0bb09	-0.02157356
223	0xbd91859a	-0.071055606
224	0x3d2b0bca	0.04175929
225	0xbe102c41	-0.14079382
226	0x3d1a4465	0.037662882
227	0xbdbb7b4a	-0.09154375
228	0x3ca882ff	0.020570276
229	0x3aea3d52	0.0017871058
230	0xbdc88851	-0.09791625
231	0x3e05bfc2	0.13061431
232	0xbe1b00c0	-0.15137005
233	0xbdffbbac	-0.124869674
234	0x3dd1abfb	0.10237881
235	0xbdf7cf19	-0.121000476
236	0xbdd907ba	-0.10597177
237	0x3b684547	0.0035441683
238	0xbdfd3ea7	-0.123654656
239	0xbd82f1ed	-0.063938
240	0x3d939a12	0.07207121
241	0x3e3203b4	0.17384225
242	0x3d4a301a	0.04936228
243	0x3e806cc1	0.25082973
244	0xbdb5aabb	-0.08870455
245	0x3df0253e	0.117258534
246	0xbc73f0b9	-0.014888936
247	0x3d89ff1d	0.06738112
248	0xbe6f48c8	-0.23367608
249	0xbbfab5ab	-0.007651051
250	0xbcc23a03	-0.023709303
251	0xbdadd37b	-0.08487602
252	0x3dcbfe0e	0.099605665
253	0xbcf5db1e	-0.03001171
254	0xbe1f26ed	-0.15542193
255	0x3e4f75a7	0.20259725

F.linears.2.bias f4 [10]
0	0x3cdfdaf7	0.02732609
1	0xbd887558	-0.066630065
2	0x3d36cc7d	0.04462861
3	0xbbbfb742	-0.0058507035
4	0xbcee9de9	-0.029128032
5	0xbd4766aa	-0.048681892
6	0xbad66bc2	-0.0016359019
7	0x3d926011	0.071472295
8	0x3d876f90	0.06613076
9	0xbcab991a	-0.020947028

G.0.linears.0.weight f4 [32, 10]
0	0xbbfc03f7	-0.0076909023
1	0x3d02e29a	0.031954385
2	0x3e0089ec	0.12552613
3	0x3d280122	0.041016705
4	0xbc9a2ec6	-0.018821131
5	0x3d1c48b7	0.038155284
6	0x3d7b7cea	0.061398424
7	0x3e1137b7	0.1418141
8	0xbdafb6d7	-0.08579796
9	0xbe1248b5	-0.14285548
10	0x3ddb54eb	0.10709556
11	0xbc24405d	-0.010025111
12	0xbe338410	-0.17530847
13	0x3ca07fdc	0.019592218
14	0xbe3826fb	-0.1798362
15	0x3c9a5e47	0.018843783
16	0xbcb894fe	-0.022531983
17	0xbd85badd	-0.06529782
18	0xbc90ea3c	-0.017689817
19	0xbc180490	-0.009278432
20	0xbd506eb5	-0.05088683
21	0xbcce4ceb	-0.025183162
22	0xbd51d09b	-0.051224332
23	0xbc31db30	-0.010855481
24	0x3cdedc1a	0.027204562
25	0x3de50417	0.11182421
26	0xbcf66248	-0.030076161
27	0xbdafa657	-0.08576649
28	0x3cb99d71	0.022658082
29	0x3dcad32c	0.09903559
30	0x3e0d3f71	0.13793732
31	0x3d1204cf	0.035649117
32	0x3dab1276	0.083531305
33	0xbd2e9845	-0.042625684
34	0xbe46027d	-0.19336887
35	0xbe02d262	-0.12775567
36	0xbddeae7e	-0.108731255
37	0x3bf6bce9	0.007529844
38	0x3cf32c9e	0.029684361
39	0xbce532f0	-0.02797839
40	0x3dea3259	0.11435384
41	0x3dae372a	0.085066155
42	0xbd9ae158	-0.07562512
43	0x3d329b20	0.04360497
44	0x3dac068b	0.083996855
45	0x3d40828f	0.04699951
46	0xbdb88d0f	-0.0901128
47	0xbe3e4aff	-0.18583296
48	0x3d8f4985	0.069964446
49	0x3cffd2a9	0.03122838
50	0xbba4e766	-0.0050324677
51	0x3c355910	0.011068597
52	0x3e0b5509	0.13606657
53	0xbd9aa5a6	-0.07551126
54	0x3d806445	0.06269125
55	0xbd116f08	-0.03550628
56	0x3a8c46ac	0.0010702214
57	0x3d80c90b	0.06288346
58	0xbe01d363	-0.12678294
59	0xbdf3e619	-0.11909122
60	0x3e3bfb47	0.18357573
61	0x3d8af374	0.06784716
62	0x3daeb713	0.085310124
63	0xbe276b8e	-0.16349623
64	0x3ccae5cb	0.024767777
65	0xbd562ac6	-0.052286886
66	0x3d659264	0.056047812
67	0xbd25ed02	-0.04050923
68	0xbd6de8cc	-0.05808334
69	0xbdaaec34	-0.083458334
70	0xbcce409f	-0.025177298
71	0x3e23c085	0.15991409
72	0xbd2ec3bc	-0.042667136
73	0x3c3ca266	0.011513328
74	0x3d74d903	0.05977727
75	0xbdc13ed9	-0.09435815
76	0xbe23ab04	-0.15983206
77	0x3d739167	0.05946484
78	0x3c9d0044	0.019165166
79	0x3ce19b51	0.027539881
80	0xbe187da4	-0.14891678
81	0x3dd751db	0.105136596
82	0x3e15d60c	0.14632434
83	0x3c054184	0.008133296
84	0x3dc9a36e	0.09845625
85	0xbd6b0fdd	-0.057388175
86	0x3d5223fe	0.051303856
87	0xbccafbe3	-0.024778312
88	0xbcc01f12	-0.023452315
89	0x3d7fe72c	0.062476322
90	0x3d7fdde2	0.062467463
91	0xba88509a	-0.0010399998
92	0x3c62390a	0.0138075445
93	0xbd18ca40	-0.037302256
94	0xbb1f2d22	-0.0024288376
95	0xbd5ef699	-0.054434393
96	0x3e22448e	0.15846464
97	0xbdc51762	-0.096236005
98	0x3c5f6c4e	0.013636662
99	0x3e108cbb	0.14116184
100	0x392a76bc	0.00016256695
101	0xbd446b52	-0.04795391
102	0x3e1472cf	0.14496921
103	0xbe3f1df1	-0.18663765
104	0x3e2f2500	0.17103958
105	0x3d7e5571	0.062093202
106	0x3dc6647c	0.096871346
107	0x3d2bcce4	0.041943446
108	0x3daf424d	0.08557568
109	0xbb83af64	-0.004018711
110	0xbe267565	-0.1625572
111	0xbda96328	-0.08270866
112	0x3ce8ac1b	0.028402379
113	0x3d1d5123	0.038407456
114	0xbc4826e2	-0.012216302
115	0x3cc55d14	0.024092235
116	0x3ca0e6f0	0.01964137
117	0xbe06ab38	-0.13151252
118	0x3c32ce0a	0.010913381
119	0x3decd611	0.115642674
120	0xbdc7d5d8	-0.09757584
121	0xbb9af255	-0.0047285953
122	0xbdf5cebf	-0.12002324
123	0xbd3872b4	-0.045031264
124	0xbde88d3d	-0.11355064
125	0x3c8b9ae8	0.017041638
126	0xbcfdd575	-0.030985573
127	0xbd839c41	-0.064262874
128	0x3ce1dc15	0.027570764
129	0x3ce21a69	0.027600484
130	0x3e3a60a9	0.18200935
131	0x3d348612	0.044073172
132	0x3d89ce54	0.06728807
133	0xbccc3fc7	-0.024932755
134	0xbd32ecc2	-0.04368282
135	0x3c9a7c5a	0.018858124
136	0xbde4880e	-0.11158763
137	0xbd9a3030	-0.07528722
138	0xbe71cbf9	-0.23612966
139	0x3dbcaa48	0.09212166
140	0xbd1dcf1f	-0.038527604
141	0x3d63e228	0.0556356
142	0x3d1e6617	0.03867158
143	0xbdd53575	-0.10410587
144	0x3dfe6cda	0.124231055
145	0x3cee569d	0.029094035
146	0x3d141226	0.03615012
147	0x3d243238	0.040086955
148	0x3e15c3ed	0.14625521
149	0xbd501b0e	-0.05080705
150	0x3c9da1a4	0.019242115
151	0x3d4ad3a5	0.049518246
152	0xbdbb1ff7	-0.09136956
153	0xbd9a5855	-0.07536379
154	0x3e14cd65	0.14531477
155	0x3b52888e	0.003212485
156	0x3d94b5e7	0.072612576
157	0x3e0d4819	0.13797034
158	0x3e824729	0.25444916
159	0x3e6c737e	0.23090932
160	0x3d244747	0.040107038
161	0xbc4e7587	-0.012601263
162	0x3e064ab6	0.13114437
163	0x3dba75fd	0.09104536
164	0xbc925df0	-0.017867059
165	0x3d96dd47	0.07366424
166	0x3dbbcb60	0.0916965
167	0x3e3bdedd	0.18346734
168	0x3e1afe48	0.15136063
169	0x3bcab43e	0.0061860373
170	0xbcdba317	-0.026811166
171	0x3c2e2e4e	0.010631157
172	0xbc056b70	-0.008143291
173	0xbd25de22	-0.040495045
174	0x3d94b042	0.07260181
175	0xbd09efa2	-0.033675797
176	0x3d89c1ac	0.06726393
177	0x3e2db166	0.16962203
178	0xbd9cef85	-0.07662872
179	0xbcd80802	-0.026371006
180	0x3dc350c3	0.095368885
181	0x3dd84fa1	0.10562063
182	0x3da43a45	0.080189265
183	0x3c8973ca	0.016778845
184	0xbca679b7	-0.02032171
185	0x3d9be90a	0.07612808
186	0xbd3d43eb	-0.04620735
187	0x3c023510	0.007947221
188	0x3db2b946	0.08726744
189	0xbe115776	-0.1419352
190	0xbd0d5114	-0.03450115
191	0xbe637f43	-0.22216515
192	0xbd91666d	-0.07099614
193	0x3d1fffcb	0.039062303
194	0xbd8f9872	-0.070114985
195	0xbdaf7b85	-0.08568481
196	0x3e246b9e	0.16056678
197	0x3d148b60	0.03626573
198	0xbe017bcc	-0.12644881
199	0x3c073285	0.008251791
200	0xbe0d4758	-0.13796747
201	0xbda57965	-0.08079795
202	0xbd213ad8	-0.03936276
203	0x3e136e62	0.14397576
204	0x3d8f675d	0.07002137
205	0xbd8b4e64	-0.06802061
206	0xbe1c2abf	-0.15250681
207	0xbd82a39f	-0.063788645
208	0xbccd3c5c	-0.025053196
209	0xbd4dd783	-0.050254356
210	0x3d2245d9	0.039617393
211	0x3db7e3bd	0.089789845
212	0xbda582c3	-0.080815814
213	0xbd6654ec	-0.05623333
214	0xbd15506c	-0.03645365
215	0xbe73c221	-0.23804523
216	0xbd9933fe	-0.0748062
217	0xbdf9e23f	-0.12201356
218	0x3e2a6397	0.16639553
219	0xbd2571f1	-0.040391866
220	0xbe222f45	-0.15838344
221	0xbd653360	-0.0559572
222	0x3d8488e8	0.06471425
223	0xbe1be79f	-0.15225075
224	0xbdfd97ee	-0.12382494
225	0x3e0f25fd	0.13979335
226	0xbdb60132	-0.08886947
227	0xbe0883db	-0.13331549
228	0xbba3e96c	-0.0050021913
229	0xbd2ef8dd	-0.042717803
230	0x3e266bc6	0.1625205
231	0x3e978f76	0.2960164
232	0x3d1cd68b	0.03829054
233	0xbdd9851c	-0.10621092
234	0xbe61b2ed	-0.22040911
235	0x3b868d1d	0.0041061775
236	0x3dd8ae93	0.105801724
237	0x3d7ed14c	0.06221132
238	0xbbbd8b64	-0.005784439
239	0x3e139ea0	0.1441598
240	0x3ded782d	0.11595187
241	0xbd42da23	-0.047571313
242	0x3df147e2	0.11781289
243	0x3e4a9314	0.19782668
244	0xbdff460d	-0.12464533
245	0x3bf9371c	0.0076054465
246	0x3ca3ef92	0.020011697
247	0x3dca83b1	0.098883994
248	0x3e00137d	0.12507434
249	0xbe21e79f	-0.15811013
250	0xbab3253b	-0.0013667712
251	0xbddabc56	-0.106804535
252	0xbdc21087	-0.094758086
253	0x3de7e099	0.113221355
254	0xbe7ba61e	-0.24575087
255	0xbe0c241f	-0.13685654

G.0.linears.0.bias f4 [32]
0	0xbd60cc51	-0.05488235
1	0xbd0cfdea	-0.03442184
2	0x3db16b12	0.08663
3	0xbaa13c3c	-0.0012301276
4	0x3d3dc054	0.046325997
5	0x3d4cf4f9	0.05003831
6	0xbd93dd31	-0.07219923
7	0x3c45059c	0.012025263
8	0x3dae945a	0.085243896
9	0xbdbfcf1c	-0.09365675
10	0x3d36d0ee	0.044632845
11	0xbcf92c79	-0.030416714
12	0xbdde56b4	-0.10856381
13	0xbcf45e2b	-0.029830059
14	0x3b0972be	0.0020972933
15	0xbd15eb60	-0.036601424
16	0x3d9a6ba4	0.07540062
17	0x3d86aed3	0.06576314
18	0xbd043090	-0.032272875
19	0xbda7e297	-0.081975155
20	0xbd29be33	-0.041441154
21	0x3d2fd1fa	0.04292486
22	0xbdd1778c	-0.1022788
23	0x3d8eab9d	0.069663264
24	0x3dc260cd	0.094911195
25	0x3d903b13	0.070425175
26	0x3ce3d05c	0.027809314
27	0xbc761e74	-0.015021909
28	0xbd037ea7	-0.032103207
29	0xbd98b402	-0.07456209
30	0xbdc0e3b9	-0.09418435
31	0xbc110817	-0.008852026

G.0.linears.1.weight f4 [32, 32]
0	0x3c42419a	0.011856461
1	0x3d599338	0.053118914
2	0xbdba08a4	-0.09083679
3	0x3c394554	0.011308033
4	0x3d2650e6	0.040604495
5	0x3ea2397a	0.31684476
6	0xbe24b1db	-0.16083471
7	0xbcc2bce1	-0.023771705
8	0x3cccf3ed	0.025018657
9	0xbe1aa544	-0.15102106
10	0xbcb54317	-0.022126717
11	0xbd11cc15	-0.03559502
12	0xbd0e28ab	-0.034706753
13	0x3d6150af	0.055008586
14	0xbe600b93	-0.21879415
15	0x3c780b59	0.015139424
16	0x3d871676	0.06596081
17	0x3d5a5609	0.053304706
18	0x3cb980ff	0.022644518
19	0xbb760854	-0.0037541585
20	0xbc09b91b	-0.008405949
21	0x3e00fd60	0.12596655
22	0x3db2ef07	0.08736997
23	0x3c1182ed	0.008881313
24	0x3e026df7	0.12737261
25	0x3e276284	0.16346174
26	0x3e33ebb3	0.17570381
27	0x3dbf76a3	0.093488
28	0x3e1f149c	0.15535206
29	0xbd9c979e	-0.07646106
30	0x3df78d97	0.12087553
31	0x3d9cee81	0.076626785
32	0x3ca9de5c	0.020735912
33	0x3de1de9d	0.11028788
34	0x3e67bedf	0.22631405
35	0x3dacae5a	0.084316924
36	0x3d837f26	0.06420736
37	0xbde2dae1	-0.11076904
38	0xbe2a21d0	-0.16614461
39	0x3df5714b	0.119844995
40	0xbd66a1f3	-0.05630679
41	0x3cf47f95	0.029845992
42	0x3d66816f	0.05627578
43	0x3dda109c	0.10647699
44	0xbccfec85	-0.025381336
45	0xbdc0cf73	-0.09414568
46	0x3d080b42	0.03321386
47	0x3c8ed5e6	0.01743598
48	0xbda50dee	-0.080592975
49	0x3d5e72d7	0.05430874
50	0xbe019f96	-0.12658533
51	0xbe15d293	-0.14631109
52	0xbd830c67	-0.0639885
53	0x3dec0cb7	0.11525863
54	0xbe2c2719	-0.1681179
55	0xbdf55a06	-0.11980061
56	0x3cd9a871	0.026569577
57	0x3d9764cd	0.07392273
58	0x3e2413e5	0.16023214
59	0x3c94cc33	0.018163776
60	0xbd61da03	-0.055139553
61	0x3e1d5aae	0.15366623
62	0xbc868a6c	-0.016423427
63	0x3c5837ea	0.013196925
64	0xbe5aa171	-0.21350648
65	0x3d1c0380	0.038089275
66	0xbc1b15ab	-0.009465615
67	0x3cb1f96c	0.021725379
68	0xbd3603f9	-0.044437382
69	0xbda133e1	-0.07871223
70	0x3d5e3d6a	0.054257788
71	0x3e0c1ca8	0.13682806
72	0x3caf5526	0.021402907
73	0x3d0b047d	0.033939827
74	0x3beabae4	0.0071633924
75	0x3c9462cb	0.018113514
76	0x3d9bea8b	0.07613095
77	0xbe44c68d	-0.19216366
78	0x3d1d3118	0.038376898
79	0x3df9a3cc	0.12189445
80	0xbe34c934	-0.17654878
81	0xbe078999	-0.13236083
82	0xbd4efda7	-0.05053487
83	0xbe65dbe8	-0.22447169
84	0x3c26213a	0.010139758
85	0x3dc71b03	0.09721949
86	0x3d8b2010	0.06793225
87	0x3d6c8996	0.0577484
88	0xbc0d1fa3	-0.0086135
89	0xbc4f2de3	-0.012645218
90	0xbbf975ae	-0.0076129055
91	0xbc8f431b	-0.017488053
92	0x3e03b0d3	0.12860422
93	0xbc940dad	-0.018072927
94	0x3c504e75	0.012714018
95	0x3d75a9ba	0.059976317
96	0x3e26ed55	0.16301472
97	0xbcfda292	-0.030961309
98	0x3aecd993	0.0018070213
99	0x3c7be218	0.015373729
100	0x3d8daaf3	0.069173716
101	0xbc058895	-0.0081502395
102	0xbe08f28e	-0.13373777
103	0x3d54a00f	0.051910456
104	0x3cccf48e	0.025018957
105	0x3cfa8633	0.03058157
106	0x3b93a967	0.0045062783
107	0xbe2b2353	-0.16712694
108	0xbe126841	-0.14297582
109	0x3d984e6b	0.07436832
110	0x3db1733d	0.08664558
111	0xbd2d4091	-0.042297903
112	0xbd78ed86	-0.060773395
113	0xbe13a479	-0.1441821
114	0x3d6268c9	0.055275712
115	0x3d0abebd	0.03387331
116	0xbc26b2dc	-0.010174479
117	0xbe499ed2	-0.19689491
118	0xbcd387a3	-0.025821513
119	0x3a97990c	0.0011565997
120	0xbe1fdf6f	-0.15612577
121	0x3e7a6ad3	0.24454813
122	0x3dc1bb5a	0.094595626
123	0x3d6ffb60	0.05858934
124	0xbd59e55a	-0.053197242
125	0xbd86b8f6	-0.06578247
126	0xbd7b1487	-0.061298873
127	0xbe5aa20b	-0.21350877
128	0x3c09b3ee	0.008404715
129	0x3dcea720	0.1009047
130	0xbcbe5a7e	-0.02323651
131	0xbe080c72	-0.13285998
132	0xbe26be8a	-0.16283622
133	0xbd7fe582	-0.062474735
134	0x3dc4d0a2	0.09610106
135	0xbd53c7eb	-0.05170433
136	0x3e08aa2f	0.1334617
137	0xbcadd809	-0.021221178
138	0xbd939a1a	-0.07207127
139	0x3d8ec75d	0.06971619
140	0xbd96d307	-0.07364469
141	0x3d8e50b0	0.06948984
142	0xbe402d79	-0.18767346
143	0x3d151c32	0.036403842
144	0x3d985544	0.07438138
145	0xbe8e5052	-0.27795655
146	0x3de94cea	0.11391623
147	0x3dac9e21	0.08428598
148	0xbc93fb73	-0.018064236
149	0x3dd5f06c	0.104462475
150	0x3c8ab5fc	0.01693248
151	0xbdfa3a4c	-0.122181505
152	0x3e36c0d1	0.17846991
153	0x3d88d4be	0.06681202
154	0x3ce9a418	0.028520629
155	0x3d9e7c24	0.07738522
156	0x3e2fbe87	0.17162524
157	0xbe3eebb5	-0.18644603
158	0x3e1a98ae	0.15097305
159	0x3dc4cc91	0.096093304
160	0x3db4f0b9	0.08834977
161	0x3b6388e5	0.0034719047
162	0x3de9f6c0	0.11424017
163	0x3e3df90b	0.18552034
164	0x3aed9204	0.0018125181
165	0x3dc68d6f	0.09694945
166	0xbd9b2037	-0.07574504
167	0xbe42de57	-0.19030128
168	0x3e3cdbc6	0.18443212
169	0x3cbd9a9c	0.023145013
170	0x3d8b207c	0.06793305
171	0xbb86a575	-0.0041090795
172	0xbdc9046f	-0.09815299
173	0xba0312f8	-0.000500008
174	0x3d97c0a5	0.07409791
175	0x3e1c99c2	0.15293029
176	0x3dae3a96	0.08507268
177	0x3b51c0ca	0.003200578
178	0x3de50683	0.11182883
179	0x3d2e4132	0.042542644
180	0x3dc7cf5c	0.097563475
181	0x3d930276	0.07178204
182	0xbd252f46	-0.040328287
183	0x3e02804f	0.12744258
184	0x3d12353d	0.035695303
185	0xbbd46554	-0.006481806
186	0x3de5e664	0.11225584
187	0xbe4fa4a2	-0.20277646
188	0xbcd2a92c	-0.025715433
189	0xbb897e16	-0.004195939
190	0xbdbca187	-0.092104964
191	0x3d94c540	0.07264185
192	0xbb2d7f64	-0.0026473636
193	0xbcc56b01	-0.024098875
194	0xbe1062d8	-0.14100206
195	0xbd951a3f	-0.07280397
196	0x3e3882d5	0.18018658
197	0x3cdb6ca8	0.02678521
198	0x3d9e5adc	0.07732174
199	0x3c4d45cf	0.012528851
200	0x3d916e06	0.071010634
201	0xbdc0d21b	-0.094150744
202	0xbd1fcc5c	-0.03901325
203	0xbe8092c5	-0.25111976
204	0xbbc9d438	-0.0061593316
205	0x3771a640	1.44034275e-05
206	0x3e2e89f7	0.17044817
207	0xbdac5934	-0.08415452
208	0xbd2b9b7b	-0.041896325
209	0xbe35bccd	-0.17747803
210	0x3cfd698e	0.030934121
211	0xbdcf556b	-0.10123714
212	0xbc7c35a3	-0.015393647
213	0xbe0f1c8b	-0.13975732
214	0x3e21d207	0.15802775
215	0x3d955621	0.072918184
216	0xbcdfbd57	-0.027311964
217	0x3e449897	0.19198833
218	0x3ca63e69	0.020293431
219	0xbcceaa46	-0.025227677
220	0xbd548924	-0.0518886
221	0x3e024f2d	0.12725516
222	0xbd10bbe5	-0.03533544
223	0x3ccb7224	0.0248347
224	0x3d32431e	0.04352104
225	0xbc7f9170	-0.01559864
226	0xbd97cdd9	-0.07412309
227	0x3da833c5	0.08212999
228	0x3e00492e	0.12527916
229	0xbcc3a54f	-0.023882536
230	0xbd2dcbe3	-0.04243077
231	0x3d4191aa	0.047258057
232	0x3a065516	0.0005124373
233	0xbdae93c0	-0.08524275
234	0xbd5829a3	-0.052774083
235	0x3d070c3a	0.032970645
236	0xbe1023d1	-0.14076163
237	0x3da6f4a4	0.0815213
238	0x3d393ab7	0.04522201
239	0x3e4d97d4	0.20077449
240	0xbddcc349	-0.10779435
241	0x3d5d1d48	0.053983003
242	0x3c871cc0	0.016493201
243	0xbe033966	-0.12814865
244	0xbe2f20ed	-0.17102404
245	0xbe5d8ed0	-0.2163651
246	0x3cda9974	0.0266845
247	0xbd8fb008	-0.07015997
248	0x3d100cfd	0.035168637
249	0x3e0fda7e	0.14048192
250	0x3d8526b5	0.065015234
251	0xbdb53aec	-0.08849129
252	0x3d802e1c	0.06258795
253	0xbbfd93ed	-0.0077385814
254	0xbdbab171	-0.091158755
255	0xbe144553	-0.1447957

G.0.linears.1.bias f4 [32]
0	0x3b58d977	0.0033088604
1	0x3d9927d8	0.07478303
2	0x3cf1bd86	0.029509317
3	0x3c7ca9ee	0.015421374
4	0xbdb3fb2d	-0.08788142
5	0x3c1c03a0	0.009522349
6	0xbda918e4	-0.08256701
7	0x3d256eb1	0.040388767
8	0x3d87dca2	0.06633879
9	0xbd2f92f0	-0.04286474
10	0xbd8dacc2	-0.069177166
11	0x3cf24981	0.029576065
12	0xbc749eb3	-0.014930415
13	0x3d6a2803	0.057167064
14	0xbda1f552	-0.07908119
15	0x3da0b59d	0.0784714
16	0xbd978cc5	-0.073998965
17	0xbd2a6cd3	-0.04160769
18	0xbdc85c46	-0.09783225
19	0x3daafa42	0.08348514
20	0x3d9dd8ae	0.07707344
21	0x3d1f614b	0.038911145
22	0xbd1a854b	-0.037724774
23	0xbd482cee	-0.048870973
24	0xbd006424	-0.0313455
25	0x3d8a96f8	0.06767076
26	0x3c9ccf1c	0.019141726
27	0x3db54d73	0.08852663
28	0x3d5450c4	0.051834837
29	0xbb2d9964	-0.0026489133
30	0x3bdd5d16	0.0067554815
31	0xbd6d5026	-0.057937764

G.0.linears.2.weight f4 [10, 32]
0	0x3cbf82f6	0.023377877
1	0x3c89ebc8	0.016836062
2	0x3df498b8	0.11943191
3	0x3d8df94d	0.06932316
4	0xbce2c1ba	-0.027680267
5	0x3daff56c	0.085917324
6	0x3d821fea	0.063537434
7	0x3cf4a258	0.029862568
8	0x3e7bffec	0.24609345
9	0x3d373ad5	0.04473384
10	0x3d45f970	0.048333585
11	0x3c144181	0.0090488205
12	0x3de4afec	0.11166367
13	0xbba38d26	-0.0049911914
14	0xbe18943b	-0.14900295
15	0xbdbd2c33	-0.09236946
16	0xbe204667	-0.15651856
17	0xbe024dd5	-0.12725003
18	0xbe4ac88d	-0.19803067
19	0x3d6e1274	0.058123067
20	0x3ce5f3ba	0.02807032
21	0xbdfa6706	-0.122266814
22	0xbd962315	-0.0733091
23	0x3e8a8010	0.2705083
24	0xbd9b0ddf	-0.07571005
25	0xbc8ffb38	-0.017575845
26	0x3c6ef7f6	0.014585486
27	0x3da36a57	0.07979267
28	0x3e2d0b01	0.16898729
29	0x3bd9778c	0.0066365656
30	0xbc60b67c	-0.013715383
31	0xbddd3b48	-0.108023226
32	0xbe4d2934	-0.20035249
33	0x3d3932ff	0.04521465
34	0xbd90c305	-0.07068447
35	0xbccf3827	-0.02529533
36	0x3d2bfbfe	0.041988365
37	0x3d2580b2	0.040405937
38	0x3e7d33f6	0.24726853
39	0xbd90b823	-0.07066371
40	0x3e2883cd	0.16456528
41	0xbe1e121c	-0.15436596
42	0x3d0d7946	0.034539483
43	0xbd9bbe39	-0.076046415
44	0xbe249ec7	-0.16076194
45	0x3cb5c21d	0.022187287
46	0xbc67ce5e	-0.014148323
47	0x3e45afa3	0.19305281
48	0xbcb95db1	-0.022627683
49	0xbe0a8ac5	-0.13529499
50	0x3e1f1997	0.15537106
51	0x3d5cebd6	0.05393585
52	0xbdaa150e	-0.08304797
53	0x3cf3c6ca	0.029757876
54	0xbd7af873	-0.061272096
55	0xbc8b0e57	-0.016974611
56	0x3d2baaf0	0.041911066
57	0xbe54079f	-0.20706032
58	0xbdbf1535	-0.09330217
59	0x3c5da60b	0.013528357
60	0x3e2fb7e4	0.17159992
61	0xbc17a012	-0.009254472
62	0x3cfe77ef	0.031063048
63	0xbde8686c	-0.11348042
64	0xbdb09125	-0.08621434
65	0xbe58a019	-0.21154822
66	0xbdb383fa	-0.08765407
67	0xbd6e8d68	-0.058240324
68	0x3d916254	0.07098833
69	0x3d49f764	0.049308196
70	0xbe1a026d	-0.15039988
71	0x3d44358e	0.047902636
72	0xbce5e7ac	-0.028064571
73	0xbcefc3fb	-0.029268255
74	0x3d229782	0.03969527
75	0xbdad8b47	-0.08473831
76	0xbe52bc5a	-0.20579663
77	0x3d687d42	0.05676008
78	0xbc45503e	-0.012043057
79	0xbde1c541	-0.11023951
80	0x3cbfe7a0	0.023425877
81	0x3d2a8bdf	0.041637298
82	0x3da022f2	0.07819165
83	0x3dad0106	0.08447461
84	0x3cbd34c6	0.023096453
85	0x3dbe58f5	0.09294311
86	0xbdf46d6e	-0.119349346
87	0x3b973bac	0.0046152677
88	0x3b0748ce	0.002064276
89	0xbdf4da56	-0.11955707
90	0xbd891409	-0.066932745
91	0x3da2fba2	0.079581514
92	0xbd4f57fa	-0.05062101
93	0xbe015f28	-0.12633955
94	0x3d02e43b	0.03195594
95	0x3e42136a	0.18952718
96	0x3cede6b2	0.029040668
97	0x3d9a7698	0.07542151
98	0x3cdc7ede	0.026915964
99	0xbbdc1f60	-0.0067176074
100	0x3dcfeeee	0.10152994
101	0xbe4ec892	-0.20193699
102	0x3d25b974	0.040460065
103	0x3d9dbadc	0.07701656
104	0x3b63c54b	0.0034755047
105	0xbdb02310	-0.08600438
106	0xbd6ffa5c	-0.05858837
107	0xbd8d4654	-0.0689818
108	0xbcc499bf	-0.023999093
109	0xbd6c4560	-0.05768335
110	0x3d8071fe	0.06271742
111	0x3ca0231d	0.019547993
112	0x3de7945c	0.11307594
113	0x3c6711ad	0.014103335
114	0x3d923c14	0.07140365
115	0x3e3a03fb	0.18165581
116	0x3d745516	0.059651457
117	0x3ccb0333	0.024781799
118	0xbbd570d1	-0.006513693
119	0xbaf93420	-0.0019012727
120	0xbd8c3af4	-0.06847182
121	0xbc831bd9	-0.01600449
122	0x3c612d69	0.013743737
123	0x3e12e1f5	0.14344008
124	0x3e5b7785	0.21432312
125	0x3e5a8cc4	0.2134276
126	0xbcd643b8	-0.026155338
127	0x3cc6ca9c	0.024266534
128	0x3d7739f7	0.060358014
129	0x3d585b49	0.05282143
130	0x3d8a3818	0.0674898
131	0x3dd1cf5f	0.10244631
132	0xbd59cbc4	-0.05317284
133	0xbdec12b6	-0.11527006
134	0x3d2a74b0	0.041615188
135	0x3cb47502	0.02202845
136	0x3d884350	0.06653464
137	0xbdb50cf6	-0.08840363
138	0xbc531760	-0.012883991
139	0x3e2b74eb	0.1674382
140	0x3cc0d109	0.023537176
141	0x3cded5ca	0.027201552
142	0xbd6a0449	-0.057132993
143	0xbc085a2c	-0.00832228
144	0x3dd39006	0.10330205
145	0x3cc967f7	0.024585707
146	0xbb4a0ec6	-0.003083156
147	0x3d875cf6	0.06609528
148	0xbd1846ed	-0.037177015
149	0xbd2cd646	-0.042196535
150	0x3da2696a	0.079302624
151	0x3d29a867	0.041420367
152	0x3dfbeb42	0.12300731
153	0xbcbb0a19	-0.022831963
154	0x3d6a0c07	0.057140376
155	0xbd8688b4	-0.06569043
156	0x3d4fbb7a	0.0507159
157	0xbae55608	-0.0017496953
158	0x3d547209	0.051866565
159	0xbd6916c2	-0.05690647
160	0x3d1fb0d3	0.038986992
161	0xbd3bf7f4	-0.045890763
162	0x3c3d9c3f	0.0115728965
163	0xbda61f1d	-0.08111403
164	0xbe1af911	-0.15134074
165	0xbce0be69	-0.027434545
166	0xbd3937f3	-0.045219373
167	0x3de0d57c	0.10978219
168	0x3db6a8ea	0.089189366
169	0x3add2919	0.001687321
170	0xbd7fc47b	-0.062443238
171	0x3de9b7b4	0.11411992
172	0xbdab9e53	-0.08379807
173	0x3d2f7bdc	0.04284273
174	0x3c41bd1c	0.011824872
175	0x3ccddca7	0.02512963
176	0xbe134b9d	-0.14384313
177	0xbde20d64	-0.1103771
178	0xbdf3c4a5	-0.11902741
179	0xbc86c6c7	-0.016452206
180	0xbd38067f	-0.04492807
181	0x3c7659c1	0.015036047
182	0xbd756df9	-0.05991933
183	0x3e0b5d10	0.1360972
184	0xbded6521	-0.115915544
185	0x3cf3f9a8	0.029782131
186	0x3da094ba	0.07840867
187	0x3c4663cf	0.012108757
188	0xbe225c14	-0.15855438
189	0xbdd35356	-0.103186294
190	0x3c084074	0.008316148
191	0xbd5c3eae	-0.053770714
192	0xbe0ac33f	-0.13551043
193	0xbd2878e1	-0.041130904
194	0x3ddef0fb	0.10885807
195	0x3e078bde	0.13236949
196	0xbd887495	-0.06662861
197	0x3ca1c80c	0.01974871
198	0xbcb7bd29	-0.022429066
199	0xbd8af401	-0.06784821
200	0xbce2e390	-0.0276964
201	0xbcbf57a4	-0.02335722
202	0xbd0f3b3e	-0.034968607
203	0xbe164475	-0.14674552
204	0x3d3d132d	0.046160866
205	0x3e010685	0.12600143
206	0xbe429820	-0.19003344
207	0xbc802e06	-0.015646946
208	0x3d1c07cc	0.038093373
209	0x3e10be57	0.14135109
210	0x3b1f1967	0.0024276616
211	0xbe3bc499	-0.18336715
212	0x3dcc64ff	0.09980201
213	0x3b273438	0.0025513303
214	0xbe49a439	-0.19691552
215	0x3e00f293	0.12592535
216	0x3e21ee0a	0.15813461
217	0xbe1bfed6	-0.15233931
218	0xbe882505	-0.26590744
219	0x3e352cc8	0.17692864
220	0xbc435cf1	-0.011924014
221	0x3d77f929	0.060540352
222	0x3cbebfe8	0.023284867
223	0xbe03a878	-0.12857234
224	0xbd9ffb74	-0.07811633
225	0xbd52ab0f	-0.051432665
226	0x3d8fc813	0.07020583
227	0xbded5553	-0.1158854
228	0xbe0d928e	-0.13825437
229	0xbe0afefc	-0.13573831
230	0x3de1618b	0.11004933
231	0x3e0a8ce2	0.13530305
232	0x3d72e2f2	0.059298463
233	0xbdee2bb0	-0.116294265
234	0x3e193426	0.149613
235	0x3e37ecb3	0.17961387
236	0xbc094d49	-0.008380243
237	0x3c310ee5	0.010806774
238	0xbd77a13c	-0.0604565
239	0x3e039cce	0.12852785
240	0x3d8e55dd	0.06949971
241	0xbab5ac40	-0.0013860539
242	0x3d6b0745	0.05737998
243	0xbe11aad6	-0.14225325
244	0xbddf01d0	-0.108890176
245	0x3db3ea5e	0.08784936
246	0x3e23cda7	0.15996419
247	0x3e0d4a6d	0.13797922
248	0xbd7c1e17	-0.061552133
249	0xbdb6e998	-0.08931273
250	0x3d67d603	0.05660058
251	0xbd3543b1	-0.04425401
252	0x3db307ff	0.087417595
253	0xbd7ba4e3	-0.061436545
254	0x3df34ad3	0.11879506
255	0xbca7fef2	-0.02050731

G.0.linears.2.bias f4 [10]
0	0xbd8338c8	-0.064073145
1	0xbd8207e3	-0.063491605
2	0x3d2db840	0.042412043
3	0xbd162b9f	-0.036662694
4	0x3d90908d	0.07058821
5	0xbd5e2604	-0.054235473
6	0xbd41ffb7	-0.04736301
7	0x3d1b16e5	0.03786363
8	0xbd3580c3	-0.04431225
9	0x3dcd55b8	0.10026115
