para_save/00036params.pth (torch, 118145 bytes, 76 tensors)

F.linears.0.weight f4 [32, 20]
0	0xbd70bd25	-0.058774132
1	0xbdaf6c71	-0.085656054
2	0xbe26c501	-0.16286089
3	0x3ca5eece	0.020255473
4	0xbda05a43	-0.07829716
5	0xbd41d5f6	-0.04732319
6	0xbe09247b	-0.13392822
7	0x3dd24ebc	0.10268924
8	0xbdc2970f	-0.095014684
9	0xbd439dd6	-0.047757946
10	0xbcbc0dbf	-0.022955773
11	0xbcdb3414	-0.026758231
12	0x3dae0773	0.084975146
13	0xbe14c599	-0.14528503
14	0x3c56182e	0.013067288
15	0xbb43c324	-0.0029870952
16	0x3d79f15e	0.0610212
17	0x3e0415f0	0.12898993
18	0xbd8db772	-0.06919755
19	0x3dfa6ace	0.122274026
20	0x3e257613	0.16158323
21	0xbdf677a2	-0.12034537
22	0xbd0a9a77	-0.033838715
23	0xbd5da40e	-0.054111533
24	0xbd700b90	-0.058604777
25	0xbe21784c	-0.15768546
26	0x3ca56951	0.02019182
27	0x3dad38bc	0.08458087
28	0x3d0cde21	0.034391526
29	0xbc80fb53	-0.01574484
30	0x3e136a73	0.14396076
31	0xbd3442b8	-0.04400894
32	0xbe2fb43a	-0.17158595
33	0xbc1037fa	-0.008802408
34	0x3d9c7ca3	0.0764096
35	0x3d4df873	0.050285768
36	0x3d0b3113	0.033982348
37	0x3c91acd2	0.017782602
38	0xbd5d13c6	-0.053973936
39	0x3be24be6	0.0069060205
40	0xbdbc94aa	-0.09208043
41	0x3da37562	0.07981373
42	0xbdd8b97b	-0.105822526
43	0xbe3d22b3	-0.18470268
44	0xbe05840c	-0.13038653
45	0xbe0eb25e	-0.13935229
46	0x3e0ad1d8	0.13556612
47	0x3d71939d	0.058978666
48	0x3dde26c5	0.108472385
49	0x3ce15bbf	0.027509568
50	0x3df02c43	0.11727192
51	0xbdb166f3	-0.08662214
52	0xbd783cc6	-0.060604833
53	0xbe49adb2	-0.19695166
54	0x3dc58779	0.0964498
55	0x3d2c4104	0.04205419
56	0x3da157e7	0.07878094
57	0xbe45573f	-0.19271563
58	0xbdbd04c4	-0.092294246
59	0x3d1ccc54	0.0382808
60	0x3d1177de	0.035514705
61	0xbde005d7	-0.10938614
62	0x3c6d0103	0.014465573
63	0xbda3b0c3	-0.07992699
64	0x3e0e1ecc	0.13878936
65	0xbdaa873c	-0.08326575
66	0x3c3ed765	0.011648034
67	0xbcd259be	-0.025677558
68	0x3b888aa8	0.0041669197
69	0x3e0ededd	0.13952203
70	0xbc37d1e5	-0.011219476
71	0xbe249d16	-0.16075549
72	0xbd95954c	-0.07303867
73	0x3ba2c47e	0.0049672714
74	0x3c7178da	0.014738286
75	0x3dc9bf7b	0.09850975
76	0x3bb521ca	0.0055277096
77	0x3b38ba78	0.0028187316
78	0xbe2c1431	-0.16804577
79	0x3d69e020	0.057098508
80	0x3db770bf	0.089570515
81	0xbba13d3d	-0.0049206303
82	0xbe0b7a97	-0.13620983
83	0x3db3496d	0.08754239
84	0x3d1b56e8	0.037924677
85	0xbca350c3	-0.019935971
86	0x3d036656	0.032080017
87	0xbd787889	-0.060661826
88	0x3d37ab2d	0.04484098
89	0x3e1d9df4	0.15392286
90	0xbce0a18d	-0.027420783
91	0xbdb482bc	-0.08813998
92	0xbe3814da	-0.17976704
93	0xbdde0f28	-0.108427346
94	0x3e2b5bb5	0.16734202
95	0xbcd5398d	-0.026028419
96	0x3e4db738	0.20089424
97	0xbceefbf6	-0.029172879
98	0xbdf376be	-0.11887883
99	0x3b8a4509	0.0042196554
100	0xbd3e7272	-0.046495862
101	0x3e3e407e	0.1857929
102	0xbe2fc6eb	-0.17165725
103	0xbdbb775a	-0.09153624
104	0x3db12a37	0.0865063
105	0xbd274483	-0.040836822
106	0x3d93373e	0.07188271
107	0x3e467293	0.19379644
108	0x3e0d371a	0.13790551
109	0xbc8c9c3d	-0.017164344
110	0x3cae3dac	0.021269642
111	0xbd129aaa	-0.03579203
112	0xbce94d5d	-0.028479272
113	0xbcf3341d	-0.029687935
114	0xbd0db28b	-0.0345941
115	0x3d4d8f07	0.05018523
116	0x3e51abb6	0.20475659
117	0x3c83184a	0.016002793
118	0x3d596707	0.05307677
119	0xbd0ffd7a	-0.035153843
120	0x3df763b8	0.12079567
121	0x3c8086d5	0.015689293
122	0xbdbc0efe	-0.09182547
123	0xbd551b9f	-0.052028295
124	0x3d35e92f	0.044411834
125	0x3cc2b993	0.02377013
126	0x3e599b07	0.21250544
127	0x3d6bc6a3	0.05756248
128	0x3d6ed2c9	0.05830649
129	0x3df8f8db	0.121568404
130	0x3e0c50f5	0.13702758
131	0x3da32b2c	0.07967219
132	0xbd34e04c	-0.04415922
133	0xbdf5ff41	-0.120115764
134	0x3e3cbce0	0.18431425
135	0x3e15ee22	0.14641622
136	0xbe477b0c	-0.19480532
137	0xbd3a1a60	-0.04543531
138	0x3b067bd5	0.0020520587
139	0x3d4ce323	0.050021302
140	0x3dd0a146	0.101870105
141	0xbd2bbb0f	-0.04192644
142	0x3e09de87	0.13463794
143	0x3caee15f	0.0213477
144	0xbc0475e0	-0.008084744
145	0x3d1bf749	0.038077626
146	0xbd54cc69	-0.051952753
147	0x3b97f5ea	0.0046374695
148	0x3da7aa35	0.08186761
149	0xbe0c7930	-0.13718104
150	0xbdb9550a	-0.09049423
151	0x3db1d5b3	0.08683338
152	0xbbc7e9ca	-0.006100868
153	0xbccc0281	-0.024903538
154	0x3d5fb670	0.054617345
155	0x3c89fe9b	0.016845038
156	0x3c272c11	0.010203377
157	0x3cdf6b15	0.02727274
158	0xbe3c7b42	-0.18406394
159	0x3dbbdbe9	0.09172804
160	0xbd386462	-0.045017608
161	0x3de44fae	0.1114801
162	0x3d6030f5	0.05473419
163	0x3b048798	0.0020222422
164	0xbdce560a	-0.100750044
165	0x3da132c2	0.078710094
166	0xbe16aceb	-0.147144
167	0xbc9ea19b	-0.019364169
168	0xbdbc462b	-0.09193071
169	0x3d920ad0	0.071309686
170	0x3e03232c	0.12806386
171	0xbdf6d7c3	-0.12052872
172	0x3baec5f5	0.005333657
173	0x3c67dc70	0.0141516775
174	0xbd6f6609	-0.058446918
175	0x3d80f983	0.062975906
176	0x3d807a28	0.062732995
177	0xbddaa603	-0.106761955
178	0xbb92ea34	-0.0044834856
179	0x3e05d2eb	0.1306874
180	0x3d0f7caa	0.035031
181	0xbd85a902	-0.06526376
182	0x3db66a5b	0.089070044
183	0xbd615079	-0.055008385
184	0xbcb9f76c	-0.022700988
185	0xbcf13674	-0.02944491
186	0xbda7c1d2	-0.08191265
187	0x3e809f86	0.25121707
188	0x3e09f8a3	0.13473754
189	0xbdb1177a	-0.08647056
190	0xbbc539ea	-0.006018867
191	0x3c8570dc	0.016289167
192	0x3d8a7628	0.06760818
193	0xbd8dd60e	-0.06925593
194	0x3d58e4ef	0.052952703
195	0xbd7f2492	-0.062290736
196	0xbdca583a	-0.09880109
197	0xbe0712f8	-0.1319083
198	0xbe01c50a	-0.1267282
199	0xbd19f875	-0.037590463
200	0x3d1d8e0b	0.03846554
201	0xbc8a8521	-0.016909184
202	0x3c0ae92b	0.008478443
203	0xbc36fb29	-0.01116828
204	0xbdd281ab	-0.102786385
205	0x3d02a445	0.03189494
206	0x3db09f37	0.08624118
207	0xbda979ec	-0.08275208
208	0xbba751e1	-0.0051061963
209	0x3cd5c23a	0.026093591
210	0xbd9a3ee9	-0.075315304
211	0x3be16b30	0.006879233
212	0xbe04167e	-0.12899205
213	0x3c9915da	0.018687177
214	0x3e291ac2	0.16514114
215	0x3d6b9b77	0.05752131
216	0x3e08204d	0.13293572
217	0xbe243a5f	-0.16037892
218	0x3d822d94	0.063563496
219	0x3d524eb4	0.05134459
220	0xbdb6c20f	-0.089237325
221	0xbd2cc57a	-0.042180516
222	0xbd1295ee	-0.035787515
223	0xbc89d3ce	-0.01682463
224	0xbd88355d	-0.06650803
225	0x3d63df95	0.055633146
226	0x3dcc4075	0.09973232
227	0xbd86392f	-0.06553876
228	0xbcae2de8	-0.021262124
229	0xbe4a1f55	-0.19738515
230	0xbbae259d	-0.0053145424
231	0xbe70323e	-0.23456666
232	0x3e141dfc	0.14464563
233	0xbce3e16c	-0.02781745
234	0xbcde9aec	-0.027173482
235	0x3dcfe5f5	0.10151283
236	0x3c0da8a8	0.008646168
237	0xbd37cb8d	-0.044871856
238	0xbe67e672	-0.22646502
239	0x3e24deba	0.16100588
240	0x3e05e3e8	0.1307522
241	0xbd13bb53	-0.03606732
242	0xbc5fc6c8	-0.013658233
243	0xbd98659b	-0.07441255
244	0x3cfdaf2e	0.030967321
245	0x3e2d12fb	0.16901772
246	0x3c557f98	0.013030909
247	0x3d82b22f	0.06381642
248	0xbb78d60e	-0.0037969383
249	0xbdeb69ab	-0.11494764
250	0x3ccfd4ef	0.02537009
251	0xbdfc3c8b	-0.12316235
252	0xbd23649e	-0.039890878
253	0xbe2c7406	-0.16841134
254	0x3c5fc05e	0.013656704
255	0xbb821a41	-0.003970415

F.linears.0.bias f4 [32]
0	0xbd21eec8	-0.03953436
1	0x3cd18447	0.02557577
2	0x3d7b5415	0.061359484
3	0xbdc104c7	-0.09424739
4	0xbd8c16f2	-0.06840314
5	0xbd2bb081	-0.041916374
6	0xbdb5cbae	-0.088767394
7	0x3ced238f	0.02894762
8	0x3c5bc37b	0.013413305
9	0x3da6721b	0.08127233
10	0xbd677e54	-0.05651696
11	0xbcb255c7	-0.021769417
12	0xbd03fed3	-0.03222544
13	0xbbb845ca	-0.005623554
14	0xbc08c8b6	-0.0083486345
15	0x3c80ae2f	0.015708057
16	0x3c028c34	0.007967997
17	0x3dab4341	0.08362437
18	0x3d96e765	0.07368354
19	0x3ccc2158	0.024918243
20	0xbdf10805	-0.11769108
21	0xbc2be7d5	-0.010492285
22	0xbdcddc32	-0.100517645
23	0xbd693a34	-0.056940272
24	0xbd163fba	-0.036681868
25	0xbc780fcc	-0.015140485
26	0xbc7b467c	-0.015336629
27	0xbd3ee9bf	-0.046609636
28	0x3aa38d9a	0.0012478114
29	0xbb64b636	-0.0034898645
30	0xb9a25d76	-0.00030968682
31	0x3ab66ba0	0.0013917573

F.linears.1.weight f4 [32, 32]
0	0xbd22ea70	-0.03977436
1	0x3de187a3	0.11012199
2	0x3e9a12dd	0.30092517
3	0xbdbb968a	-0.091595724
4	0xbde4303a	-0.11142011
5	0x3d2b3514	0.041798666
6	0x3c25afd9	0.010112726
7	0xbda1b1d7	-0.078952484
8	0xbd024ce9	-0.03181163
9	0x3b7d9d60	0.003869854
10	0x3cd35bad	0.02580055
11	0x3c5774fc	0.01315045
12	0xbd9d1560	-0.076700926
13	0xbdeec4f4	-0.116586596
14	0x3e1f93e8	0.15583766
15	0x3dc5ec99	0.09664268
16	0xbd38b957	-0.04509863
17	0xbcf825ec	-0.03029152
18	0x3cd3101e	0.025764521
19	0x3df0045d	0.11719582
20	0xbd93ad07	-0.07210737
21	0x3cd80b90	0.0263727
22	0x3e6d002a	0.23144594
23	0xbcbdf496	-0.023187917
24	0x3d1d59f7	0.038415875
25	0x3de2d9b9	0.110766836
26	0xbd06668d	-0.032812644
27	0xbdc57a11	-0.09642423
28	0xbe20ad37	-0.15691076
29	0x3d1da85a	0.03849063
30	0xbad51c57	-0.0016259056
31	0x3d506a4a	0.050882615
32	0x3de137d2	0.10996975
33	0x3d2d2f7b	0.04228161
34	0x3e8d7fa1	0.27636436
35	0x3d3d2c2a	0.046184696
36	0xbce92a68	-0.028462604
37	0x3deedfcc	0.116637796
38	0x3cb07a15	0.021542588
39	0xbd958b7d	-0.07301996
40	0x3d1b09e2	0.03785122
41	0x3ca1267e	0.019671675
42	0x3e129ede	0.14318416
43	0xbe4b465b	-0.19851057
44	0xbacfa4c5	-0.0015841952
45	0xbc52ea7b	-0.012873287
46	0xbdeda883	-0.11604407
47	0x3d7abafd	0.061213482
48	0x3d6fa535	0.058507163
49	0x3daa2011	0.083068974
50	0xbe22b2f1	-0.15888573
51	0x3b9d16ce	0.0047939783
52	0xbc9d2b38	-0.019185647
53	0x3d39228e	0.04519897
54	0x3ce71e6e	0.028212752
55	0x3d82c5b1	0.06385363
56	0xbe0f5529	-0.1399733
57	0xbdaf439f	-0.085578196
58	0x3dd1da20	0.10246682
59	0x3e3288e3	0.1743503
60	0xbd552d75	-0.052045304
61	0x3de64ee5	0.11245517
62	0x3de806e8	0.11329442
63	0x3dc98b45	0.09841017
64	0xbd537fbd	-0.051635493
65	0x3d0228df	0.03177726
66	0xbc0efb15	-0.008726855
67	0xbd1c6161	-0.038178805
68	0xbc6ff2c9	-0.014645287
69	0xbbec90d3	-0.007219413
70	0x3c8e5b35	0.017377475
71	0xbe370f07	-0.17876826
72	0x3d3def5d	0.046370853
73	0xbd63b8dd	-0.05559622
74	0x3d9fee5a	0.07809134
75	0x3e2659ce	0.16245195
76	0x3e416712	0.18886974
77	0xbc486ab9	-0.012232476
78	0xbe472ff2	-0.19451883
79	0x3b8dc202	0.004326106
80	0x3e3e62d4	0.18592387
81	0xbd950094	-0.07275501
82	0xbd29441c	-0.04132472
83	0x3d9434d5	0.072366394
84	0x3e12ab5c	0.14323181
85	0x3e164078	0.1467303
86	0xbc18cfd9	-0.0093268985
87	0xbd999661	-0.074993856
88	0xbe46887d	-0.19388004
89	0x3d979d06	0.07402997
90	0xbe78a511	-0.24281718
91	0x3e25bcb8	0.16185272
92	0x3d897121	0.06711031
93	0x3d6b3f6a	0.057433523
94	0x3df14a72	0.117817774
95	0xbd1652e5	-0.036700148
96	0xbdf4affb	-0.11947628
97	0xbcb3a009	-0.021926897
98	0x3ce1695a	0.027516056
99	0x3dd3b680	0.103375435
100	0x3b92bf78	0.0044783913
101	0xbe36578d	-0.17806835
102	0x3d3f9178	0.04676959
103	0x3c877bbe	0.016538497
104	0x3e3f4ad1	0.18680884
105	0xbe46ddc1	-0.1942053
106	0x3e285f37	0.16442572
107	0xbdf8aa6d	-0.12141881
108	0x3d2feea3	0.04295219
109	0xbde92b7c	-0.11385247
110	0xbe06ddc5	-0.13170536
111	0xbe8224bc	-0.2541865
112	0xbe0dc931	-0.1384628
113	0xbdc216cd	-0.09477005
114	0xbdf4752c	-0.11936411
115	0xbe74bf0b	-0.23901002
116	0x3da564ca	0.080758646
117	0x3ddf1f62	0.10894658
118	0xbdd8ca9c	-0.1058552
119	0x3e509095	0.20367654
120	0x3d68905a	0.05677829
121	0x3e0c9610	0.1372912
122	0xbb37a145	-0.0028019708
123	0xbd8fb261	-0.07016445
124	0x3c010f2d	0.007877153
125	0xbd1fc2c7	-0.039004114
126	0x3e259d3b	0.1617326
127	0xbdc3e5d0	-0.09565318
128	0xbbbfb125	-0.0058499747
129	0x3e20b4c8	0.15693963
130	0x3dcaa66f	0.09895026
131	0xbde109a1	-0.10988165
132	0x3dff7c4c	0.124748796
133	0xbce6dc7d	-0.028181309
134	0xbc400f4c	-0.011722397
135	0x3d007717	0.031363573
136	0xbd6a7ef0	-0.057249963
137	0x3aba73ae	0.0014225149
138	0x3d903389	0.070410796
139	0x3d5cdf4b	0.053923886
140	0xbde58aa9	-0.11208088
141	0xbe1f84dd	-0.15578027
142	0xbc6bf2a3	-0.014401111
143	0xbdc40def	-0.0957297
144	0xbe333c03	-0.17503361
145	0x3c65100b	0.013980876
146	0x3da868c8	0.082231104
147	0x3c4fd66c	0.0126853995
148	0xbd924483	-0.07141974
149	0x3d8d2300	0.06891441
150	0xbbab2c0f	-0.005223758
151	0x3a8bf3b0	0.0010677483
152	0x3de99732	0.11405791
153	0xbccd73b1	-0.02507958
154	0xbe1199a5	-0.14218767
155	0x3e39f975	0.18161567
156	0x3cb9286e	0.022602286
157	0xbdc0cc89	-0.09414012
158	0x3da7810d	0.08178911
159	0xbc215541	-0.009846986
160	0xbdc0ed85	-0.09420303
161	0xbc07c017	-0.008285544
162	0xbdfca4c1	-0.12336112
163	0x3d90f25e	0.07077478
164	0xbdecc910	-0.11561787
165	0xbc6f8ef1	-0.014621482
166	0xbe5281f6	-0.20557389
167	0xbe5c968e	-0.21541807
168	0x3b209966	0.0024505495
169	0xbbc6796f	-0.0060569565
170	0xbdde545d	-0.10855935
171	0xbe03df12	-0.12878063
172	0x3dd38593	0.10328212
173	0x3d9d35ec	0.076763004
174	0x3d5b4b23	0.053538453
175	0x3e05e50c	0.13075656
176	0xbd488d3b	-0.048962813
177	0xbccadbad	-0.024762953
178	0xbcdacad6	-0.026708048
179	0xbdd55d0e	-0.104181394
180	0xbda98bab	-0.08278593
181	0x3b9a82c4	0.0047152955
182	0x3d1ac0e3	0.037781607
183	0xbd03e1ae	-0.032197647
184	0xbc6510c9	-0.013981053
185	0x3da8398e	0.08214103
186	0x3da1d050	0.079010606
187	0x3cb6bf76	0.022308093
188	0x3d4ac75c	0.04950653
189	0x3d9799a7	0.07402354
190	0xbdd0e47d	-0.10199831
191	0xbda79fc7	-0.08184772
192	0xbc32aa78	-0.010904901
193	0xbddb0dc7	-0.10695987
194	0xbdde18a1	-0.10844541
195	0xbd42828d	-0.047487784
196	0xbd9d3775	-0.07676593
197	0xbb870fdf	-0.004121765
198	0x3dbfa0a1	0.093568094
199	0xbcbff5f4	-0.02343271
200	0xbe2ad718	-0.16683614
201	0xbe01533b	-0.12629406
202	0x3d97838e	0.07398139
203	0xbe41afdc	-0.18914741
204	0x3d7edefd	0.062224377
205	0xbdc6a0ca	-0.09698637
206	0xbdeb85d8	-0.11500138
207	0x3e379d3f	0.17931078
208	0xbd3e9722	-0.04653085
209	0x3def1628	0.11674148
210	0xbd5f8478	-0.05456969
211	0xbd87d7d8	-0.06632966
212	0x3c30d8b7	0.010793856
213	0xbbf4261e	-0.007450833
214	0x3d810f69	0.063017674
215	0xbe077030	-0.1322639
216	0xbca63c48	-0.020292416
217	0xbe0c3a7d	-0.13694187
218	0x3ccf0435	0.02527056
219	0xbca713bb	-0.02039515
220	0xbd5c8258	-0.053835243
221	0xba3afdca	-0.00071331544
222	0xbbe84522	-0.0070883194
223	0xbde69790	-0.11259377
224	0x3db4a02a	0.08819611
225	0x3d48b97b	0.049005013
226	0xbe26244a	-0.1622478
227	0x3bbc6459	0.005749267
228	0xbd4f11cc	-0.05055408
229	0x3de7ffea	0.113281086
230	0x3d875233	0.06607475
231	0x3d683d68	0.056699187
232	0x3d86e389	0.06586368
233	0xb96605f8	-0.00021936733
234	0x3d1f3b7f	0.0388751
235	0xbd635c8c	-0.05550818
236	0xbdbf0cbe	-0.09328602
237	0xbe1ce00b	-0.1531984
238	0x3d37a005	0.04483034
239	0xbd5390a7	-0.051651623
240	0xbd9ca55d	-0.07648728
241	0x3d9dd4e4	0.07706621
242	0x3d86dde2	0.065852895
243	0xbe2d921c	-0.16950268
244	0x3ddfe232	0.10931815
245	0x3d5e0c21	0.054210786
246	0x3e790ed4	0.24322063
247	0xbcf98213	-0.030457532
248	0xbda403b7	-0.08008521
249	0xbc4df4de	-0.012570588
250	0x3c4f7771	0.012662754
251	0x3cbf920a	0.023385067
252	0x3dc4b212	0.09604277
253	0x3d6a7c4a	0.057247438
254	0x3db21604	0.086956054
255	0x3e6a8160	0.22900915

F.linears.1.bias f4 [32]
0	0xbcb9b9d9	-0.022671627
1	0xbcef6710	-0.029223949
2	0xbd0b41d0	-0.03399831
3	0x3d08fb83	0.033442985
4	0x3df38695	0.11890904
5	0x3c4c4bb2	0.012469219
6	0xbc81306f	-0.015770165
7	0xbd1170e7	-0.035508063
8	0x3dbc1848	0.09184319
9	0xbd294d43	-0.04133345
10	0x3c6e1e46	0.014533585
11	0xbdc4310d	-0.09579668
12	0x3c6c8277	0.014435402
13	0x3dddc993	0.10829463
14	0xbc183f66	-0.009292459
15	0xbddc5315	-0.10758034
16	0x3d1ebbad	0.0387532
17	0x3d7e8a1d	0.062143434
18	0xbd847bb7	-0.06468909
19	0x3da7e13c	0.08197257
20	0xbae763a5	-0.0017653598
21	0xbd566495	-0.052342016
22	0x3d1055ee	0.0352382
23	0xbdcad533	-0.09903946
24	0x3c8f34d6	0.017481249
25	0x3d8b667c	0.06806657
26	0x3ac9bec4	0.0015391936
27	0x3dafc68c	0.08582792
28	0xbd61eb3a	-0.05515597
29	0xbd489306	-0.048968337
30	0x3d22c9b7	0.03974315
31	0x3df27d4d	0.118403055

F.linears.2.weight f4 [10, 32]
0	0x3cf9981d	0.030468041
1	0xbdadc0b6	-0.08484022
2	0x3d2fee58	0.04295191
3	0x3a2c004f	0.0006561325
4	0xbdc99a32	-0.098438635
5	0x3e24d2ab	0.16095988
6	0x3e72c885	0.23709305
7	0x3d7811b3	0.060563754
8	0x3ddbb25d	0.107273795
9	0xbe0527fa	-0.13003531
10	0x3d88a4b5	0.066720404
11	0xbcb0e246	-0.02159227
12	0x3d40a038	0.047027797
13	0xbdf572b1	-0.11984766
14	0x3d4b77de	0.04967486
15	0x3e34868e	0.17629454
16	0xbb92ab17	-0.004475962
17	0xb8fcf8b2	-0.000120626195
18	0x3e30ccbf	0.17265604
19	0x3e0eb8e0	0.13937712
20	0xbca010f9	-0.019539343
21	0x3e55e279	0.20887174
22	0xbc369bda	-0.011145556
23	0x3d56b3d9	0.05241761
24	0xbe17ec5b	-0.14836256
25	0x3c9ead57	0.019369764
26	0x3e14f83f	0.14547823
27	0xbd952816	-0.072830364
28	0x3c0819c4	0.008306924
29	0xbd36d4cc	-0.044636533
30	0xbd2123a7	-0.03934064
31	0xbd9fe2dc	-0.07806942
32	0xbb9a138a	-0.0047020363
33	0xbdbe1b21	-0.09282518
34	0x3d48d54e	0.04903155
35	0x3e154690	0.14577699
36	0xbd293152	-0.0413068
37	0x3dc575c5	0.096416034
38	0xbdbb1403	-0.09134676
39	0x3e96a5bb	0.29423317
40	0x3d60016f	0.054688867
41	0xbe2aeecc	-0.16692656
42	0x3db02fb6	0.0860285
43	0x3d001a1a	0.031274892
44	0x3db4d75b	0.08830138
45	0xbda790d5	-0.081819214
46	0xbc30563a	-0.0107627455
47	0x3d8477ad	0.06468139
48	0xbdee41df	-0.11633658
49	0x3d9bab20	0.07600999
50	0x3d1d4778	0.038398236
51	0x3ca02e70	0.019553393
52	0x3d407fcf	0.046996888
53	0xbe3c63f1	-0.183975
54	0xbe517a37	-0.20456778
55	0x3e133e45	0.14379223
56	0x3daef7ba	0.08543344
57	0xbdb39ea4	-0.08770493
58	0x3dc853bf	0.09781598
59	0xbe16e7ab	-0.14736812
60	0xbe16f9aa	-0.14743677
61	0x3cca3004	0.024681099
62	0x3df05c73	0.11736383
63	0xbe616593	-0.22011404
64	0x3ddf6517	0.10907953
65	0x3e2ab216	0.16669497
66	0xbe841e9a	-0.25804597
67	0xbe030d17	-0.12797962
68	0xbd05a744	-0.03263022
69	0x3d1dbc3a	0.038509585
70	0xbc9a7826	-0.01885612
71	0x3db8635b	0.090033256
72	0x3d479116	0.04872235
73	0xbcf07da6	-0.029356789
74	0xbdf4e3a1	-0.11957479
75	0x3b20fec2	0.002456591
76	0x3aa11088	0.0012288252
77	0x3c28b8ab	0.0102979345
78	0x3c8d0127	0.017212464
79	0xbd44ba40	-0.048029184
80	0xbe1521ad	-0.14563628
81	0x3ce02a74	0.027363993
82	0x3c6d6d6e	0.014491422
83	0x3d938f45	0.07205061
84	0xba2801c4	-0.00064089545
85	0x3dabb84d	0.08384762
86	0xbe04816b	-0.12939994
87	0xbc893747	-0.016749991
88	0xbd0bdeda	-0.034148075
89	0x3e1d1329	0.1533934
90	0x3da5e461	0.081002004
91	0xbe44cf66	-0.19219741
92	0xbde382ac	-0.11108908
93	0x3e060bc8	0.13090432
94	0xbc37fcac	-0.011229675
95	0xbe14f363	-0.1454597
96	0x3e099fb9	0.13439836
97	0x3e814926	0.2525112
98	0xbd088174	-0.03332658
99	0xbe133b06	-0.14377984
100	0x3dd90755	0.105971016
101	0x3d946167	0.072451405
102	0xbe0b1b72	-0.13584688
103	0xbcd3104a	-0.025764603
104	0x3dcda343	0.10040905
105	0x3c439361	0.011936993
106	0x3d44472d	0.04791944
107	0xbe8cebc9	-0.2752364
108	0x3e26fbc3	0.16306977
109	0x3bee0622	0.0072639147
110	0xbdbe3db9	-0.092891164
111	0xbe25748b	-0.16157739
112	0xbd973d30	-0.073847175
113	0xbcbb483f	-0.022861598
114	0x3e2c8867	0.16848908
115	0x3e401c54	0.18760806
116	0xbd5916c3	-0.053000223
117	0xbd485452	-0.04890854
118	0x3dc3228f	0.09528076
119	0x3bb4bf31	0.005515956
120	0xbc07f9aa	-0.008299271
121	0xbd44a64d	-0.04801016
122	0x3d4ddd38	0.0502598
123	0x3d35ee68	0.044416815
124	0x3e059c17	0.13047825
125	0x3cc00419	0.023439454
126	0x3c8ccd63	0.01718778
127	0xbdf07542	-0.11741115
128	0xbe41ac4f	-0.18913387
129	0x3d8f5f98	0.07000655
130	0xbd7cf5c7	-0.06175783
131	0xbde6cbb9	-0.11269326
132	0xbc78b1e2	-0.015179129
133	0xbd1fccfb	-0.039013844
134	0xbd7bd1c4	-0.061479345
135	0x3e40993e	0.18808457
136	0x3c9a0908	0.018803135
137	0xbcaf2081	-0.021377804
138	0x3d0995a8	0.03358999
139	0x3e4c1de8	0.19933283
140	0xbde6aabe	-0.11263035
141	0xbd81cd32	-0.06337966
142	0x3a8cf715	0.0010754789
143	0xbc3a3883	-0.0113660125
144	0xbe46bdc2	-0.19408324
145	0xbc98ad88	-0.018637434
146	0xbde48958	-0.11159009
147	0xbd8568f3	-0.06514158
148	0x3d48cbc1	0.04902244
149	0x3da453a3	0.08023765
150	0xbd8db045	-0.06918386
151	0xbe4adf7f	-0.1981182
152	0xbdc76897	-0.09736746
153	0x3e50c972	0.20389345
154	0x3dcdcb44	0.100485355
155	0xbd285830	-0.041099727
156	0x3d9803a9	0.07422573
157	0x3ded5ef5	0.11590377
158	0xbe3ba58e	-0.18324873
159	0xbdbde9ff	-0.09273147
160	0x3e18442b	0.14869754
161	0x3cd9d362	0.026590053
162	0xbcb0a562	-0.021563236
163	0xbe694724	-0.22781044
164	0x3cce190d	0.02515843
165	0x3e632684	0.22182661
166	0xbd4e0961	-0.050301913
167	0x3d83680d	0.064163305
168	0xbcbf7f4b	-0.023376128
169	0xbd409d92	-0.04702527
170	0xbda4d1ab	-0.080478035
171	0x3da4ae4c	0.08041057
172	0x3d077e4b	0.033079427
173	0xbd9b7ef1	-0.075925715
174	0xbd900ceb	-0.07033714
175	0x3d38cb43	0.04511572
176	0xbde5d56c	-0.112223476
177	0x3dfa737c	0.12229058
178	0xbc6c6677	-0.014428726
179	0x3c8e37b6	0.01736055
180	0xbe2dd6f3	-0.16976528
181	0xbda50c9c	-0.08059046
182	0x3e323664	0.17403561
183	0x3e3a4647	0.18190871
184	0xbc3f6e4c	-0.011684012
185	0xbe151b04	-0.14561087
186	0xbd732503	-0.05936147
187	0xbe2aaa71	-0.1666658
188	0xbdea6f45	-0.11447004
189	0xbcc1eaa6	-0.02367146
190	0xbc3d5480	-0.011555791
191	0xbd0281ef	-0.031862196
192	0x3d97e273	0.07416239
193	0xbda1a72a	-0.07893212
194	0x3e3ae4f1	0.18251397
195	0xbd83c674	-0.06434336
196	0x3d790c5e	0.06080281
197	0x3e13b4a3	0.14424376
198	0x3dfd6797	0.12373274
199	0x3d8e6145	0.069521464
200	0x3dbd5262	0.09244229
201	0x3d9a3b16	0.07530801
202	0xbe59dc23	-0.21275382
203	0xbca9bd6a	-0.020720202
204	0xbd86cf8b	-0.065825544
205	0xbcff5b16	-0.031171363
206	0x3c5bee91	0.013423578
207	0xbe2f427c	-0.17115206
208	0x3db44a3d	0.08803222
209	0x3cde05c9	0.027102368
210	0x3e0bd51a	0.1365551
211	0x3ca4718e	0.020073678
212	0xbd97eeb5	-0.07418577
213	0xbe1b77e5	-0.15182455
214	0x3d2c8eda	0.04212842
215	0xbbb20b65	-0.0054334872
216	0x3dfdfe45	0.12402014
217	0x3d0fc5ad	0.035100628
218	0x3d7f454d	0.06232195
219	0xbd52bb8d	-0.051448394
220	0x3c72ab9a	0.014811421
221	0x3dcaef67	0.099089436
222	0xbc9ae86b	-0.018909654
223	0xbd980af5	-0.07423965
224	0x3d627dfa	0.05529592
225	0xbe0f5055	-0.13995488
226	0x3c9d311c	0.019188456
227	0xbdacd4a3	-0.08438995
228	0x3d0d5eb8	0.03451416
229	0xba30d223	-0.000674518
230	0xbde7c66e	-0.11317144
231	0x3df9e8d1	0.12202609
232	0xbe25ce93	-0.16192083
233	0xbdf8bf68	-0.12145883
234	0x3dee567b	0.116375886
235	0xbe076d2c	-0.1322524
236	0xbde151c0	-0.11001921
237	0x3c00736e	0.007840021
238	0xbe0d19e2	-0.13779405
239	0xbd99c082	-0.07507421
240	0x3da7c6fe	0.081922516
241	0x3e3ca8ec	0.18423814
242	0x3d146d4e	0.036237054
243	0x3e8752b7	0.26430294
244	0xbdc63d21	-0.09679628
245	0x3dde8231	0.10864676
246	0xbca801b7	-0.02050863
247	0x3d700df3	0.058607053
248	0xbe6cbe7a	-0.23119536
249	0xbc69b9f8	-0.01426553
250	0xbd027c6c	-0.03185694
251	0xbda74065	-0.08166579
252	0x3deacbdc	0.11464664
253	0xbd244a70	-0.04011005
254	0xbe0f7f14	-0.1401332
255	0x3e5fb9d7	0.21848236

F.linears.2.bias f4 [10]
0	0x3c4e59ba	0.012594635
1	0xbda66d94	-0.08126369
2	0x3d2302e4	0.03979768
3	0xbb3bb2b7	-0.0028640458
4	0xbd046435	-0.032322127
5	0xbd62d903	-0.05538274
6	0x3acfb502	0.0015846791
7	0x3dab71e7	0.083713345
8	0x3d90d56e	0.070719585
9	0xbc4b67ac	-0.012414854

G.0.linears.0.weight f4 [32, 10]
0	0xbcccb3bb	-0.024988046
1	0x3c519a5c	0.01279315
2	0x3de61a64	0.11235502
3	0x3d6906ea	0.05689136
4	0xbd0b1af9	-0.03396127
5	0x3cb94f10	0.022620708
6	0x3d9ff5c0	0.07810545
7	0x3e24b848	0.16085923
8	0xbd8a8376	-0.067633554
9	0xbe027b93	-0.12742452
10	0x3e0a082d	0.13479681
11	0x3bcb790c	0.0062094983
12	0xbe1df28a	-0.15424553
13	0x3afadc9a	0.0019139231
14	0xbe2ac020	-0.16674852
15	0x3d2b2205	0.04178049
16	0xbd19dd1b	-0.03756438
17	0xbdb9d5c6	-0.09073977
18	0xbd3402fb	-0.043948155
19	0xbcf00976	-0.029301386
20	0xbcebc33d	-0.02877962
21	0xbb8cd52b	-0.0042978725
22	0xbd01d6f0	-0.03169912
23	0xbcefaffa	-0.029258717
24	0x3d339bd9	0.0438498
25	0x3e03cf2b	0.12871997
26	0xbd3c3c1a	-0.045955755
27	0xbddff4c1	-0.10935355
28	0x3a017422	0.00049382646
29	0x3da1993a	0.07890554
30	0x3e144f41	0.14483358
31	0x3d048b2f	0.0323593
32	0x3daab59d	0.08335421
33	0xbd233858	-0.039848655
34	0xbe4d3155	-0.2003835
35	0xbe020ed0	-0.12700963
36	0xbdd832d5	-0.105565704
37	0x3c0bf3b4	0.00854199
38	0x3cfb73e6	0.030694913
39	0xbce43986	-0.02785946
40	0x3dc55015	0.09634415
41	0x3d8fdd47	0.07024627
42	0xbdabbad6	-0.083852455
43	0x3d5ee28f	0.05441528
44	0x3d92b1ef	0.071628444
45	0x3d1465cc	0.036229894
46	0xbdaaa2aa	-0.08331807
47	0xbe2d2d65	-0.16911848
48	0x3dad3b1c	0.0845854
49	0x3d2d25d4	0.042272404
50	0xbc31a3f8	-0.010842316
51	0x3c1c821b	0.009552504
52	0x3e0b7d44	0.13622004
53	0xbd96cb34	-0.07362977
54	0x3d6bf6b6	0.05760833
55	0xbd19bd84	-0.03753425
56	0x3b27cca6	0.0025604158
57	0x3d86c8e5	0.06581286
58	0xbdfdd4f3	-0.123941325
59	0xbdf1ca6f	-0.11806189
60	0x3e317962	0.1733146
61	0x3d8c2e2f	0.06844746
62	0x3d91bafa	0.07115741
63	0xbe25bd9d	-0.16185613
64	0x3cf9e8d0	0.030506521
65	0xbd7790b1	-0.060440723
66	0x3d6e28c5	0.05814435
67	0xbd3239a7	-0.043512013
68	0xbd747a04	-0.059686676
69	0xbd9d3d2c	-0.07677683
70	0xbcb232c7	-0.021752728
71	0x3e272e2c	0.16326207
72	0xbd1172ab	-0.035509747
73	0x3c11203a	0.008857781
74	0x3d654f80	0.05598402
75	0xbdb3729d	-0.08762095
76	0xbe299e83	-0.16564374
77	0x3d7151d1	0.058915917
78	0x3c8e8fd9	0.017402576
79	0x3cc02e12	0.023459468
80	0xbdff1289	-0.12454707
81	0x3e02a04b	0.1275646
82	0x3e27ef52	0.16399887
83	0xbbcf7b93	-0.00633187
84	0x3dec7c4d	0.11547146
85	0xbd0adb19	-0.033900354
86	0x3d3e2af3	0.04642768
87	0xbd398138	-0.04528925
88	0xbd2dbc43	-0.04241587
89	0x3d280d7c	0.041028485
90	0x3d93e393	0.07221141
91	0x3c0eb960	0.008711189
92	0x3ca716b7	0.020396573
93	0xbd3a31a1	-0.045457486
94	0x3bf291ca	0.0074026333
95	0xbd444c9e	-0.04792463
96	0x3e1887e3	0.14895587
97	0xbddab77d	-0.10679529
98	0x3b373f34	0.0027961256
99	0x3e09962e	0.13436195
100	0x3cce3b2c	0.0251747
101	0xbcdf6fba	-0.027274955
102	0x3e262cc3	0.16228013
103	0xbe4ed0a5	-0.20196779
104	0x3e4003d3	0.18751459
105	0x3dac3a1a	0.084095195
106	0x3db415e9	0.087932415
107	0x3cba2445	0.022722373
108	0x3d8b6c29	0.06807739
109	0xbcccd5eb	-0.025004348
110	0xbe37e5f9	-0.17958821
111	0xbdc06eb1	-0.09396113
112	0x3c91a813	0.01778034
113	0x3d41ca2e	0.047311954
114	0xbcbe0598	-0.023196027
115	0x3c71627a	0.014732951
116	0x3ce6eb33	0.028188324
117	0xbdf3ae7c	-0.11898515
118	0x3cb9bcd9	0.022673057
119	0x3dfe8bfc	0.12429044
120	0xbdc34ecb	-0.09536513
121	0x3a37fc42	0.00070184853
122	0xbdff00d9	-0.124513336
123	0xbd4a97ef	-0.0494613
124	0xbdd5df93	-0.10443034
125	0x3c851a14	0.016247787
126	0xbd017451	-0.03160507
127	0xbd95cc15	-0.07314316
128	0x3caf384d	0.021389151
129	0x3cd25075	0.02567313
130	0x3e319c97	0.1734489
131	0x3d4e13ec	0.050311968
132	0x3d94ae20	0.07259774
133	0xbd00511a	-0.031327344
134	0xbd1128b7	-0.03543922
135	0x3cb36e27	0.02190311
136	0xbdfba174	-0.12286654
137	0xbd9484f8	-0.07251924
138	0xbe70195f	-0.23447178
139	0x3db96346	0.09052138
140	0xbd22e280	-0.03976679
141	0x3d59a3ae	0.053134613
142	0x3d0155e9	0.03157607
143	0xbdcf937d	-0.10135553
144	0x3e013d30	0.12620997
145	0x3ccd503c	0.025062673
146	0x3d190fa6	0.03736844
147	0x3d2b1462	0.041767485
148	0x3e16b83f	0.14718722
149	0xbd3d44a5	-0.046208043
150	0xbc00a8d8	-0.0078527555
151	0x3cc34c17	0.023839993
152	0xbdee487b	-0.11634918
153	0xbd53dd4b	-0.051724713
154	0x3dfefb48	0.12450272
155	0xbcb5249c	-0.022112183
156	0x3dc126b6	0.09431212
157	0x3e26f2e3	0.16303591
158	0x3e8ea794	0.27862227
159	0x3e833c36	0.25631875
160	0x3cd23289	0.025658863
161	0xbcd2d8b4	-0.025738098
162	0x3df4ff31	0.119627364
163	0x3dd0349c	0.101662844
164	0xbcf1e3d8	-0.02952759
165	0x3d7b0854	0.06128724
166	0x3dd18d0b	0.1023198
167	0x3e46e060	0.1942153
168	0x3e25d5be	0.16194817
169	0x3c8de904	0.017323025
170	0xbd4b6eb0	-0.049666107
171	0x3b86ac1c	0.0041098725
172	0xbca63c64	-0.020292468
173	0xbd0f637b	-0.03500698
174	0x3d96e21f	0.07367348
175	0xbd435327	-0.047686722
176	0x3d90ad75	0.07064334
177	0x3e3814d9	0.17976703
178	0xbd88bbe4	-0.06676462
179	0xbc7911f1	-0.0152020315
180	0x3df7632f	0.12079465
181	0x3deb3a07	0.11485677
182	0x3dc612ca	0.096715525
183	0x3c188736	0.009309581
184	0xbca0aa03	-0.019612318
185	0x3dc2012c	0.0947288
186	0xbd4ea6e7	-0.05045214
187	0xbbe5e97e	-0.00701636
188	0x3d945072	0.07241906
189	0xbe1ef13c	-0.15521711
190	0xbd745aa0	-0.05965674
191	0xbe7a12e3	-0.24421267
192	0xbdb64f17	-0.08901804
193	0x3d6c80b2	0.05773992
194	0xbdb39e96	-0.08770482
195	0xbdd4f0dc	-0.10397503
196	0x3e322c55	0.17399724
197	0x3d7c9fc8	0.061675817
198	0xbdd27780	-0.10276699
199	0x3cf53795	0.02993373
200	0xbdedd627	-0.11613112
201	0xbda308cd	-0.07960663
202	0xbcec97aa	-0.028880913
203	0x3e1239be	0.1427984
204	0x3d844d8f	0.06460106
205	0xbd6e586e	-0.058189802
206	0xbe1f5fcc	-0.15563887
207	0xbd8e1d12	-0.069391385
208	0xbd032fea	-0.032028116
209	0xbd5f6d5e	-0.05454766
210	0x3c8e12ed	0.017343009
211	0x3d99d55e	0.075114
212	0xbdb6ac2e	-0.089195594
213	0xbd36e577	-0.04465243
214	0xbd498cc5	-0.049206514
215	0xbe7cc83a	-0.24685755
216	0xbd891bb1	-0.06694735
217	0xbdd37c86	-0.10326485
218	0x3e3c1f28	0.1837126
219	0xbce40edc	-0.027839117
220	0xbe1e2de6	-0.15447196
221	0xbd235064	-0.03987159
222	0x3d9b57e0	0.0758512
223	0xbe2ad6e4	-0.16683537
224	0xbde1a421	-0.11017633
225	0x3e1ab75f	0.15109013
226	0xbdd914b5	-0.10599653
227	0xbe110f80	-0.14166069
228	0xbc4564d6	-0.012047967
229	0xbd577132	-0.052598186
230	0x3e4119f9	0.18857564
231	0x3ea40b67	0.3203995
232	0x3d74d54f	0.05977374
233	0xbe04a595	-0.1295379
234	0xbe4a6ec0	-0.1976881
235	0x3ce40cdf	0.027838169
236	0x3db0ac79	0.086266465
237	0x3d1ccbb0	0.03828019
238	0xbce94d29	-0.028479176
239	0x3dfa25e1	0.12214256
240	0x3dc13371	0.0943364
241	0xbd6d8e3f	-0.057996985
242	0x3dfa41fe	0.12219618
243	0x3e50fe3a	0.2040948
244	0xbe09ede1	-0.1346965
245	0x3b90f4d9	0.0044237194
246	0x3ca90e59	0.020636724
247	0x3df301d1	0.11865581
248	0x3e11835a	0.14210263
249	0xbe198279	-0.14991178
250	0xba2a1892	-0.00064886466
251	0xbdde7e27	-0.108639054
252	0xbdb75146	-0.089510486
253	0x3de7f3a6	0.11325769
254	0xbe807652	-0.2509027
255	0xbe09cb12	-0.13456371

G.0.linears.0.bias f4 [32]
0	0xbd159e2f	-0.03652781
1	0xbd5926c5	-0.05301549
2	0x3d87cf64	0.066313535
3	0x3b78f248	0.0037986208
4	0x3d75b0cd	0.059983063
5	0x3d5caa54	0.053873375
6	0xbd9a0778	-0.07520956
7	0x3c431394	0.011906523
8	0x3d87bda6	0.066279694
9	0xbdd641ff	-0.104618065
10	0x3cd9972a	0.026561338
11	0xbc995e68	-0.018721774
12	0xbdedaf70	-0.11605728
13	0xbd167ea1	-0.036741856
14	0x3afeac6f	0.0019430051
15	0xbc4f7e3e	-0.012664376
16	0x3db4fcee	0.08837305
17	0x3d8ea220	0.06964517
18	0xbd20329e	-0.039110772
19	0xbd782e35	-0.06059094
20	0xbd26634c	-0.04062204
21	0x3d6bd865	0.057579417
22	0xbdf00cf7	-0.11721223
23	0x3d39cc8f	0.045361098
24	0x3ddb911e	0.10721038
25	0x3d98682e	0.07441746
26	0x3ce941cb	0.028473755
27	0x3c14d7f7	0.009084693
28	0xbce338d3	-0.027737057
29	0xbd978c2d	-0.07399783
30	0xbdca1c26	-0.0986865
31	0x3a044b38	0.0005046609

G.0.linears.1.weight f4 [32, 32]
0	0x3ca68389	0.020326393
1	0x3d74b18d	0.059739638
2	0xbdab66c0	-0.083692074
3	0x3c9c232d	0.019059742
4	0x3d190394	0.037356928
5	0x3ea25e1a	0.3171242
6	0xbe23ddd7	-0.16002594
7	0xbcef16d7	-0.029185696
8	0x3cc1c253	0.023652231
9	0xbe217e83	-0.15770917
10	0xbcb1f90c	-0.0217252
11	0xbd391601	-0.045187
12	0xbccea547	-0.025225295
13	0x3d6f57aa	0.058433212
14	0xbe5ff063	-0.21869044
15	0xbb234638	-0.002491368
16	0x3d89c9c9	0.067279406
17	0x3d521a29	0.05129448
18	0x3cda4dae	0.026648369
19	0xbbd61bd2	-0.006534078
20	0xbcd26239	-0.025681602
21	0x3de30f32	0.11086883
22	0x3dbf7d94	0.09350124
23	0x3cc56349	0.024095194
24	0x3e04e9c1	0.12979795
25	0x3e27aba4	0.1637407
26	0x3e360cf1	0.17778374
27	0x3dbab83a	0.0911717
28	0x3e23423f	0.1594324
29	0xbd9efec3	-0.07763436
30	0x3df868bd	0.12129352
31	0x3d9ba85b	0.07600471
32	0x3c8ae991	0.016957076
33	0x3ded0928	0.11574012
34	0x3e732339	0.23743905
35	0x3da7864f	0.08179914
36	0x3d9cfd58	0.07665509
37	0xbdc2e575	-0.09516422
38	0xbe184504	-0.14870077
39	0x3de3b50e	0.11118518
40	0xbd577c71	-0.05260891
41	0x3d2ec142	0.042664774
42	0x3d92d21a	0.0716898
43	0x3db6e436	0.089302465
44	0xbce042e5	-0.027375648
45	0xbda3eaa3	-0.08003738
46	0x3d455fc0	0.048187017
47	0xbc03d19f	-0.008045583
48	0xbdbe70c3	-0.09298851
49	0x3d2ccee9	0.042189512
50	0xbdd218e5	-0.102586545
51	0xbe261845	-0.16220196
52	0xbda615e7	-0.08109646
53	0x3de8e138	0.11371082
54	0xbe19c4b0	-0.15016437
55	0xbdddfd9e	-0.10839389
56	0x3c8eca69	0.017430501
57	0x3d7b6158	0.06137213
58	0x3e3ab2aa	0.18232217
59	0xbb824f44	-0.0039767344
60	0xbd17a319	-0.037020776
61	0x3e295522	0.16536382
62	0xbcc9fb98	-0.024656102
63	0xbbfbdf34	-0.00768652
64	0xbe6af806	-0.22946176
65	0x3d177287	0.036974456
66	0x3bae5ad2	0.005320885
67	0x3c928716	0.01788668
68	0xbcd640a9	-0.02615388
69	0xbd8468ae	-0.064652786
70	0x3d93b9fd	0.07213209
71	0x3e152233	0.14563827
72	0x3d0430bd	0.032273043
73	0x3d458719	0.048224542
74	0x3cbdaaf6	0.02315281
75	0x3bb7e3be	0.005611866
76	0x3d8f5369	0.06998331
77	0xbe348112	-0.17627361
78	0x3d5d5ba9	0.054042492
79	0x3dec9cc2	0.11553337
80	0xbe4717c0	-0.19442654
81	0xbe180458	-0.14845407
82	0xbd02797f	-0.03185415
83	0xbe78f8e9	-0.24313702
84	0x3badcb73	0.005303794
85	0x3dc5903f	0.096466534
86	0x3dab551e	0.08365844
87	0x3d781350	0.060565293
88	0xbccad4a9	-0.024759607
89	0xbcf414ea	-0.029795129
90	0x3c2b2843	0.010446611
91	0xbd113e43	-0.035459768
92	0x3e14a9a9	0.14517845
93	0xbae074f1	-0.0017124695
94	0xbb6a572a	-0.003575752
95	0x3d2d4e92	0.04231126
96	0x3e2a16fb	0.16610329
97	0xbd2215ee	-0.039571695
98	0x3cb6bdbe	0.022307273
99	0x3c0b574c	0.0085047
100	0x3db7629a	0.08954354
101	0x3c4d05c0	0.012513578
102	0xbde1b512	-0.110208645
103	0x3d577da9	0.052610073
104	0x3d115987	0.03548577
105	0x3d4f2540	0.050572634
106	0x3ccf3688	0.025294557
107	0xbe408d3e	-0.1880388
108	0xbe26761f	-0.16255997
109	0x3dc813e0	0.09769416
110	0x3ddc4d9d	0.10756991
111	0xbd835783	-0.06413176
112	0xbda031c5	-0.07821993
113	0xbe277b51	-0.16355635
114	0x3da52f37	0.08065646
115	0x3c3f9815	0.011693974
116	0xbce8fb94	-0.028440274
117	0xbe55d9c1	-0.20883848
118	0xbbd32cf4	-0.006444568
119	0x3c5639fc	0.013075348
120	0xbe30cb5b	-0.17265074
121	0x3e65008d	0.22363491
122	0x3df4116a	0.11917384
123	0x3d0d0bb6	0.034434997
124	0xbcf78e86	-0.030219328
125	0xbd3c7e0f	-0.046018656
126	0xbda19236	-0.07889216
127	0xbe72cccc	-0.23710936
128	0x3cc3b733	0.023891067
129	0x3dcfc6fe	0.101453766
130	0xbd1c9704	-0.038229957
131	0xbe00fed7	-0.12597214
132	0xbe39d5b1	-0.18147923
133	0xbd928d65	-0.07155875
134	0x3da0295e	0.0782039
135	0xbd6ef417	-0.05833825
136	0x3e007d8e	0.12547895
137	0xbd351c54	-0.04421647
138	0xbdac970d	-0.08427248
139	0x3d9caac9	0.07649762
140	0xbd8a3994	-0.067492634
141	0x3d536357	0.05160841
142	0xbe4afd5a	-0.19823208
143	0x3d226f4f	0.039656933
144	0x3db94e0a	0.09048088
145	0xbe857727	-0.2606747
146	0x3dc8904c	0.097931474
147	0x3dcccfb7	0.10000556
148	0xbc9b4674	-0.018954493
149	0x3dc44925	0.09584264
150	0x3bcd8987	0.006272498
151	0xbdf5739f	-0.119849436
152	0x3e4460f6	0.19177613
153	0x3da350ac	0.07974371
154	0x3c58f09b	0.013240959
155	0x3dc0bcb9	0.09410996
156	0x3e1f5687	0.15560351
157	0xbe4d1bfc	-0.20030206
158	0x3e25b8cb	0.16183774
159	0x3de5b225	0.11215619
160	0x3d91be20	0.071163416
161	0x3bad69a9	0.0052921367
162	0x3e0ee927	0.13956128
163	0x3e328870	0.1743486
164	0x3cda8176	0.02667306
165	0x3df9087a	0.1215982
166	0xbd4a8b09	-0.049449
167	0xbe477edb	-0.19481985
168	0x3e46f3f0	0.19428992
169	0x3d43952f	0.047749694
170	0x3dbde2e0	0.092717886
171	0xbcf63a74	-0.03005717
172	0xbded7181	-0.11593915
173	0x3cd6d2b4	0.026223518
174	0x3dc76a21	0.09737039
175	0x3e02b5f9	0.1276473
176	0x3d77b7e5	0.06047811
177	0xbcbc2747	-0.022967948
178	0x3e0e5165	0.13898237
179	0x3c86d83a	0.016460527
180	0x3d96ffe0	0.07373023
181	0x3d8d5af9	0.06902117
182	0xbc77da2c	-0.0151277
183	0x3e0d8bd6	0.13822874
184	0x3c5130f2	0.012768017
185	0xbd005acc	-0.03133659
186	0x3e0e0030	0.13867259
187	0xbe6b0aa4	-0.22953278
188	0x3a4f5268	0.0007908703
189	0x3ca75946	0.020428311
190	0xbdeb1cc9	-0.114801
191	0x3d40e12d	0.047089744
192	0xbc395a9e	-0.011313109
193	0xbd01378b	-0.03154711
194	0xbe1754c3	-0.14778428
195	0xbda72a0f	-0.08162319
196	0x3e3ea118	0.1861614
197	0x3cf6797b	0.030087223
198	0x3da27b3c	0.07933661
199	0x3c9d1d82	0.01917911
200	0x3d9cf2fd	0.07663534
201	0xbda8382c	-0.08213839
202	0xbd1356cd	-0.03597145
203	0xbe7887d5	-0.24270566
204	0xbc887221	-0.016655983
205	0xbb8f365d	-0.0043704943
206	0x3e31e232	0.17371443
207	0xbd8c33b7	-0.06845801
208	0xbd3e071b	-0.046393495
209	0xbe307c20	-0.1723485
210	0x3ceb40d5	0.028717438
211	0xbdce5b27	-0.1007598
212	0x39cd801e	0.00039196102
213	0xbe010268	-0.12598574
214	0x3e1d9cbf	0.15391825
215	0x3d730907	0.05933478
216	0xbd0558a4	-0.032555237
217	0x3e41745a	0.18892041
218	0x3cb163f7	0.021654112
219	0xbcd6facb	-0.026242634
220	0xbd6250cb	-0.05525283
221	0x3e068abf	0.13138865
222	0xbd1debf9	-0.03855512
223	0x3cb1765c	0.021662883
224	0x3cf67ba9	0.030088263
225	0xb969d390	-0.00022299425
226	0xbd90db14	-0.07073036
227	0x3dbe2ed9	0.09286279
228	0x3dfdd960	0.123949766
229	0xbd093919	-0.03350172
230	0xbd4c9010	-0.049942076
231	0x3d48b2cd	0.048998643
232	0xb9cd9f5a	-0.00039219373
233	0xbdb10c56	-0.08644931
234	0xbd766bd7	-0.060161438
235	0x3d1e59ac	0.038659737
236	0xbe00e79e	-0.12588355
237	0x3d9b72dc	0.07590267
238	0x3d1793fb	0.03700636
239	0x3e4da833	0.20083694
240	0xbde191bd	-0.110141255
241	0x3d4791f5	0.04872318
242	0x3bce5e8e	0.006297893
243	0xbdf9aa53	-0.1219069
244	0xbe2aae5f	-0.1666808
245	0xbe570139	-0.2099656
246	0x3cc2bf66	0.023772907
247	0xbd84d7c7	-0.06486469
248	0x3d101132	0.03517265
249	0x3e16a78c	0.14712352
250	0x3d63d2ec	0.055621073
251	0xbda24219	-0.079227634
252	0x3d661d68	0.056180388
253	0xbc4a4b07	-0.0123469895
254	0xbdb26f62	-0.08712651
255	0xbe0c4fa8	-0.13702261

G.0.linears.1.bias f4 [32]
0	0x3ba6c3b2	0.0050892467
1	0x3d83ba61	0.06432033
2	0x3c41e91d	0.011835364
3	0xbb8ddf11	-0.00432957
4	0xbd9318ba	-0.071824506
5	0xbc7ee547	-0.015557594
6	0xbdb1f471	-0.086892016
7	0x3d2ffb96	0.04296454
8	0x3d3a50f3	0.045487355
9	0xbd4859f0	-0.048913896
10	0xbd8060a3	-0.06268432
11	0x3d2a8f14	0.041640356
12	0xbce6f3fd	-0.028192515
13	0x3d3b566a	0.045736708
14	0xbd84072d	-0.06446681
15	0x3da90a71	0.08253945
16	0xbd3ed26d	-0.046587396
17	0xbcada422	-0.021196429
18	0xbdad6ab7	-0.0846762
19	0x3d9a9bfb	0.07549282
20	0x3d9dba8a	0.07701595
21	0x3d6451ca	0.055742063
22	0xbca336cc	-0.01992359
23	0xbd8d4aec	-0.06899056
24	0xbd0944a3	-0.033512723
25	0x3d87d960	0.06633258
26	0x3cbd66ad	0.023120249
27	0x3d943f38	0.072386205
28	0x3d5af12b	0.053452652
29	0xbc87f8b7	-0.016598089
30	0x3ba43fc0	0.0050124824
31	0xbd1f6a87	-0.03891995

G.0.linears.2.weight f4 [10, 32]
0	0xbb6020be	-0.0034199203
1	0xbc1bb365	-0.00950322
2	0x3e166717	0.14687763
3	0x3dc697f4	0.096969515
4	0xbd5ebe20	-0.054380536
5	0x3dd5a06a	0.10430987
6	0x3dbad9ce	0.09123574
7	0x3d65790a	0.056023635
8	0x3e87d68b	0.2653087
9	0x3cc7c8e0	0.024387777
10	0x3d8f07d0	0.06983912
11	0xbbc54dac	-0.006021222
12	0x3e0b9321	0.13630344
13	0x3cb7a2af	0.02241644
14	0xbe349625	-0.176354
15	0xbd8b7878	-0.06810087
16	0xbe3b74be	-0.18306252
17	0xbdd8ca43	-0.10585453
18	0xbe66e526	-0.2254835
19	0x3d1d48aa	0.038399376
20	0x3a53e6b2	0.00080833875
21	0xbe03aaed	-0.12858172
22	0xbdca8de3	-0.09890344
23	0x3e89b626	0.2689678
24	0xbd850f85	-0.06497101
25	0xbd38e182	-0.045136936
26	0xbc4f8738	-0.012666516
27	0x3db6ea65	0.08931426
28	0x3e143169	0.14471973
29	0x3d0a6a47	0.03379276
30	0x3c6043d0	0.013688043
31	0xbdea361f	-0.11436104
32	0xbe4eaea0	-0.20183802
33	0x3d42dc25	0.047573227
34	0xbd9669be	-0.073443875
35	0xbcfcb4a4	-0.030847855
36	0x3d301079	0.04298446
37	0x3cfb9bd5	0.030713955
38	0x3e7aa45d	0.24476762
39	0xbd8d0f49	-0.06887681
40	0x3e187c69	0.14891209
41	0xbe298d96	-0.16557917
42	0x3d209d04	0.03921224
43	0xbd7c257c	-0.061559185
44	0xbe23266b	-0.15932624
45	0x3c88ab4e	0.016683247
46	0xbbe1dd4d	-0.006892836
47	0x3e40a732	0.1881378
48	0xbc48720f	-0.012234225
49	0xbe00a48a	-0.12562767
50	0x3e1f9a99	0.15586318
51	0x3d3ee286	0.04660275
52	0xbdacac38	-0.084312856
53	0x3d32ff83	0.043700706
54	0xbd26d80a	-0.040733375
55	0xbce848ae	-0.028354969
56	0x3cc5d499	0.024149226
57	0xbe50ed03	-0.20402913
58	0xbdb63d01	-0.08898354
59	0x3b4bf2f7	0.003112016
60	0x3e3a1a04	0.18173987
61	0xbcbbb587	-0.022913707
62	0x3cf1118e	0.029427316
63	0xbdcb8fca	-0.09939535
64	0xbd923f97	-0.07141035
65	0xbe45e238	-0.19324577
66	0xbdd86d92	-0.10567774
67	0xbd9e2ae6	-0.07723026
68	0x3db1afea	0.08676131
69	0x3cf82c31	0.03029451
70	0xbe2c341c	-0.16816753
71	0x3d07b272	0.033129163
72	0xbd5071da	-0.050889827
73	0xbc9b3883	-0.018947845
74	0x3cf9fea6	0.030516934
75	0xbd8600dd	-0.065431334
76	0xbe6189fa	-0.2202529
77	0x3d1c8d4a	0.03822068
78	0x3c16d0b7	0.009205035
79	0xbe0434bc	-0.12910742
80	0x3d4143b6	0.047183715
81	0x3d0a92c1	0.03383136
82	0x3dc65004	0.096832305
83	0x3dc0e24b	0.09418162
84	0x3d2222ed	0.03958409
85	0x3dd049ad	0.101703025
86	0xbdbe9f5b	-0.093077384
87	0xbba8b08c	-0.005147999
88	0xbcafeee7	-0.021476222
89	0xbdcd785a	-0.10032721
90	0xbd40ea15	-0.047098238
91	0x3d8b28bb	0.06794878
92	0xbd049716	-0.03237065
93	0xbe1a8606	-0.15090188
94	0x3c695190	0.014240637
95	0x3e55ffb0	0.20898318
96	0x3d18c62c	0.037298366
97	0x3d9e5697	0.077313595
98	0x3c9f209e	0.019424733
99	0xbc1ef841	-0.009702743
100	0x3de186d1	0.11012042
101	0xbe51d2cd	-0.2049057
102	0x3cf790dc	0.030220442
103	0x3d9c6a5e	0.076374754
104	0x3b8771e8	0.0041334517
105	0xbda94b58	-0.08266324
106	0xbd81c9c9	-0.063373156
107	0xbd7e9dc8	-0.06216219
108	0xbcf67567	-0.030085279
109	0xbd7dd798	-0.061973184
110	0x3d8b0efa	0.06789966
111	0x3cb2c9b2	0.021824691
112	0x3dee1628	0.1162532
113	0x3c29b56f	0.010358199
114	0x3da1dcca	0.0790344
115	0x3e3e4899	0.18582381
116	0x3d8a7498	0.0676052
117	0x3cf6b37c	0.030114882
118	0x3b2d5305	0.0026447189
119	0x3af59704	0.0018737023
120	0xbd89a6a7	-0.067212395
121	0xbbfe8aeb	-0.007768025
122	0x3caf0ab7	0.021367414
123	0x3e18ad72	0.14909914
124	0x3e649919	0.22324027
125	0x3e51a10c	0.20471591
126	0xbce17d8d	-0.027525688
127	0x3cc38d5d	0.023871118
128	0x3d97fbb0	0.074210525
129	0x3d9b5db8	0.07586235
130	0x3d527e58	0.051390022
131	0x3da32193	0.07965388
132	0xbd22281b	-0.03958903
133	0xbe094082	-0.13403514
134	0x3cb2ba9e	0.021817502
135	0x3b8f0dce	0.0043656593
136	0x3d4fd0d3	0.05073626
137	0xbda62e8e	-0.08114348
138	0xbccf5d16	-0.025312942
139	0x3e42e8a5	0.1903406
140	0x3c6209b5	0.01379626
141	0x3c20fe4b	0.009826253
142	0xbd05f916	-0.03270825
143	0xbcb24508	-0.021761432
144	0x3dff3824	0.1246188
145	0x3c983c18	0.018583342
146	0x3c806c6f	0.015676705
147	0x3d9851fc	0.07437512
148	0xbca7b779	-0.020473229
149	0xbd1b8bdc	-0.037975177
150	0x3dd8a084	0.10577491
151	0x3d0b1b2b	0.033961456
152	0x3dd37532	0.103250876
153	0xbb20f3d2	-0.002455939
154	0x3d958a7a	0.07301803
155	0xbd948042	-0.07251026
156	0x3d8593d5	0.06522337
157	0xbcd209c0	-0.025639415
158	0x3d1aa835	0.03775807
159	0xbd307e96	-0.04308947
160	0x3c537262	0.012905689
161	0xbd8fd756	-0.07023494
162	0x3d1b1592	0.037862368
163	0xbd5d4fbc	-0.05403112
164	0xbe34d1c4	-0.17658144
165	0xbc170470	-0.009217367
166	0xbc966b25	-0.018361637
167	0x3e0aa5b0	0.13539767
168	0x3de0861b	0.109630786
169	0xbca8a94f	-0.020588545
170	0xbd2dd824	-0.042442456
171	0x3dbea6f2	0.09309186
172	0xbd6dda9f	-0.05806982
173	0x3d8df941	0.06932307
174	0xbc6fd23a	-0.014637524
175	0x3d440165	0.047852892
176	0xbe2ca542	-0.16859916
177	0xbdaeeae5	-0.08540896
178	0xbe161c3a	-0.14659205
179	0xbd174afb	-0.03693674
180	0xbd91fada	-0.07127924
181	0x3c4e866f	0.012605294
182	0xbdae7142	-0.08517696
183	0x3e08250c	0.13295382
184	0xbdcde6f5	-0.10053817
185	0x3b6a2432	0.003572714
186	0x3d5bdc17	0.05367669
187	0x3cdc0dac	0.026861988
188	0xbe3828ce	-0.17984316
189	0xbd9dad19	-0.076990314
190	0x3d08972a	0.033347286
191	0xbd8bfe34	-0.06835595
192	0xbe1499e4	-0.1451183
193	0xbd57c865	-0.052681345
194	0x3ded9782	0.116011634
195	0x3e0d102e	0.13775703
196	0xbd9b1cba	-0.075738385
197	0x3cc23605	0.0237074
198	0xbc5dcc10	-0.013537422
199	0xbd69f926	-0.057122372
200	0xbd0070cd	-0.031357575
201	0xbcfd94b1	-0.03095469
202	0xbcba7af4	-0.022763707
203	0xbe0c078a	-0.13674751
204	0x3d5f7bd2	0.054561444
205	0x3e052066	0.1300064
206	0xbe468612	-0.19387081
207	0xbc3f7bf6	-0.011687269
208	0x3d2373f2	0.039905496
209	0x3e1be225	0.15222986
210	0xbb925538	-0.0044657253
211	0xbe430ed6	-0.19048628
212	0x3dba8e09	0.09109122
213	0x3c2c29df	0.01050803
214	0xbe41165a	-0.18856183
215	0x3de8efd6	0.1137387
216	0x3e195332	0.14973143
217	0xbe2388c4	-0.1597014
218	0xbe8bee9e	-0.27330488
219	0x3e24332c	0.16035146
220	0xbc946112	-0.018112693
221	0x3d6c6fba	0.05772374
222	0x3cf17608	0.029475227
223	0xbe03f610	-0.12886834
224	0xbd9038d2	-0.070420876
225	0xbcfb297e	-0.030659433
226	0x3d73454f	0.05939227
227	0xbe0d76f8	-0.13814914
228	0xbe04cd7d	-0.12969013
229	0xbe1d0b67	-0.15336381
230	0x3dc48342	0.09595348
231	0x3dfb986f	0.12284934
232	0x3d1ef1ea	0.038804926
233	0xbde5526f	-0.111973636
234	0x3e0d8070	0.13818526
235	0x3e4dadf5	0.2008589
236	0xbc522fa7	-0.012828744
237	0xbbcb390b	-0.0062018684
238	0xbd0fb0fd	-0.0350809
239	0x3de4f1a2	0.111789
240	0x3dbf6ef7	0.09347337
241	0xbb346088	-0.0027523357
242	0x3d931d2f	0.07183301
243	0xbe0f3b81	-0.13987543
244	0xbdca25b5	-0.09870473
245	0x3dbb24d9	0.091378875
246	0x3e3eebce	0.1864464
247	0x3e03fcfd	0.12889476
248	0xbda66c27	-0.08126097
249	0xbd991609	-0.07474906
250	0x3d8cdfee	0.06878649
251	0xbd61c219	-0.055116747
252	0x3dd2f9c6	0.10301547
253	0xbdb3f649	-0.087872095
254	0x3ddd7181	0.10812665
255	0xbbb0d1b6	-0.0053960932

G.0.linears.2.bias f4 [10]
0	0xbdba0a41	-0.09083987
1	0xbd862ad5	-0.06551138
2	0x3d6af5e7	0.057363417
3	0xbcf32972	-0.029682849
4	0x3dae46b7	0.085095815
5	0xbda65741	-0.08122111
6	0xbd6b616f	-0.057465967
7	0x3d3d3809	0.046196017
8	0xbd655477	-0.055988755
9	0x3dd487b5	0.103774466
