para_save/00049params.pth (torch, 118145 bytes, 76 tensors)

F.linears.0.weight f4 [32, 20]
000000 24 34 5a bd f8 2c a5 bd 53 36 29 be bd 7d bd 3c
       -0.05327238 -0.08065218 -0.1652463 0.023131246
000010 84 e8 9e bd 93 f3 28 bd 4e 79 0f be 9f 7e d0 3d
       -0.077591926 -0.041247915 -0.14011118 0.10180401
000020 89 57 c6 bd 78 f8 34 bd 88 27 95 bc a4 79 09 bd
       -0.09684665 -0.04418227 -0.018207327 -0.03356327
000030 1c 50 95 3d 40 cd 16 be 51 37 f4 3b 28 10 96 bb
       0.0729067 -0.14726734 0.0074528833 -0.0045795627
000040 01 4d 88 3d 08 05 08 3e 48 2e 8a bd 0a c4 fc 3d
       0.06655312 0.1328317 -0.06747109 0.12342079
000050 06 9d 20 3e 2b a6 fe bd 89 5c f5 bc 41 43 62 bd
       0.156849 -0.12434038 -0.02995135 -0.05523992
000060 5d 0c 76 bd 97 0b 26 be c2 e8 8e 3c 14 99 b6 3d
       -0.060070384 -0.16215359 0.017444972 0.08915916
000070 cd 13 1d 3d 14 cb 77 bc 67 89 15 3e 0d eb 35 bd
       0.03834896 -0.015124101 0.14603196 -0.044413615
000080 2d d6 34 be 39 19 11 bc 28 41 a0 3d 4c 9f 34 3d
       -0.17659827 -0.008856111 0.078249276 0.04409723
000090 82 c0 11 3d 38 43 88 3c ff d3 4c bd ce de ab 3b
       0.03558398 0.016633615 -0.050006863 0.0052450662
0000a0 cf b0 d3 bd b4 5c 87 3d 20 6e c4 bd 0f 3c 48 be
       -0.10336458 0.066094786 -0.09591317 -0.1955416
0000b0 64 06 08 be f8 ae 1b be 8a fc 10 3e 29 dd 88 3d
       -0.13283688 -0.15203464 0.14158836 0.06682808
0000c0 85 0d ef 3d f9 eb bd 3c ba 44 d3 3d 0b fa aa bd
       0.116725005 0.02318381 0.10315843 -0.08348473
0000d0 cb 38 7d bd 54 37 48 be 60 48 d9 3d d4 51 f2 3c
       -0.06182174 -0.19552356 0.106095076 0.029580034
0000e0 c0 af 9b 3d 43 44 47 be cf 6c b0 bd e1 fa 15 3d
       0.07601881 -0.19459634 -0.086145036 0.03661621
0000f0 d0 9d 22 3d 76 71 df bd bf 4e d5 3b e3 13 8e bd
       0.039701283 -0.10910313 0.0065096314 -0.06937387
000100 9f a2 0b 3e 2f ad a3 bd cb 04 63 3c f1 a4 e6 bc
       0.13636254 -0.079920165 0.013856123 -0.028154822
000110 57 33 b8 3a a1 bf 15 3e 19 1c a0 bc 49 2f 20 be
       0.0014053386 0.14623882 -0.019544648 -0.15643038
000120 64 c2 8b bd 1b 7c c3 3b e9 96 9c 3c 3a d7 c2 3d
       -0.068241864 0.0059657223 0.019114928 0.095137075
000130 6d c7 bc ba 56 52 33 3b 26 a7 2a be 3f 6e 65 3d
       -0.0014402695 0.0027362308 -0.16665325 0.056013342
000140 37 8d c8 3d 42 ac 95 b9 37 3c 14 be 24 22 bf 3d
       0.097925596 -0.00028547837 -0.14476095 0.09332684
000150 85 b1 1b 3d 90 ca 37 bc f5 cf d2 3c c9 95 81 bd
       0.038011093 -0.011217728 0.025733927 -0.063273974
000160 8a a4 20 3d f9 3f 22 3e c3 d8 e9 bc 72 c3 b3 bd
       0.039219417 0.15844716 -0.028545743 -0.087775126
000170 e9 c8 37 be e8 e1 dd bd c2 6a 2d 3e 3e 61 dd bc
       -0.17947735 -0.10834104 0.16935256 -0.027023908
000180 5d e3 4c 3e e4 75 f2 bc a0 d9 f3 bd 8e ae 42 3b
       0.20008607 -0.02959723 -0.11906743 0.0029706093
000190 0f 2f 48 bd 24 fc 3a 3e d1 93 2e be 6f dc c3 bd
       -0.048873004 0.18260247 -0.17048575 -0.09563529
0001a0 3a fe af 3d 1b 46 38 bd aa 52 99 3d 9a 8a 47 3e
       0.08593412 -0.044988733 0.0748647 0.19486466
0001b0 0b 7f 0e 3e b2 3c 98 bc 62 b7 98 3c d9 37 11 bd
       0.1391565 -0.01858363 0.018642131 -0.03545365
0001c0 d8 77 ea bc 74 1d f3 bc 47 0a 08 bd ef c5 44 3d
       -0.0286216 -0.02967713 -0.033212926 0.048040327
0001d0 cb 23 51 3e ae e0 81 3c 0a 70 5d 3d 07 bd 0e bd
       0.2042381 0.015854206 0.054061927 -0.03484824
0001e0 e0 88 ff 3d e1 58 b1 3c 7e 28 c0 bd fd 0b 4c bd
       0.12477279 0.021648826 -0.09382723 -0.04981612
0001f0 dc 48 39 3d d8 80 f8 3c b3 a6 52 3e 75 e2 6a 3d
       0.0452355 0.030334875 0.20571403 0.057344873
000200 be 3f 6f 3d 7b 6d 01 3e 14 e3 12 3e 2c ee 92 3d
       0.0584104 0.1263942 0.14344436 0.07174334
000210 2b b1 5b bd e3 31 00 be 86 ca 33 3e b4 bc 16 3e
       -0.053635757 -0.1251903 0.17557725 0.14720422
000220 ae 5e 3f be 8b 47 25 bd 60 7e 1c 3a 6c 15 59 3d
       -0.18688461 -0.04035143 0.0005969759 0.052998945
000230 23 83 db 3d 75 f9 19 bd 6e c8 04 3e 84 9b d6 3c
       0.10718372 -0.037591416 0.12967083 0.026197203
000240 46 7b 12 bc 7b 38 36 3d 95 13 63 bd 82 8b 25 3b
       -0.0089405235 0.044487458 -0.055438597 0.0025260155
000250 85 c3 a1 3d db e5 08 be 1a d7 b8 bd e0 a2 ab 3d
       0.078986205 -0.13368933 -0.09025402 0.08380675
000260 88 fd 05 bc 29 4a d1 bc de 8c 55 3d 6d b4 a3 3c
       -0.008178122 -0.025548058 0.052136295 0.019983495
000270 eb 9e 48 3c 20 40 ef 3c d4 27 3f be bc 6b c0 3d
       0.01224492 0.029205382 -0.18667537 0.09395549
000280 94 27 05 bd 30 ae fd 3d 7b 66 36 3d a2 fc 13 3c
       -0.032508448 0.12386739 0.044531327 0.0090324
000290 b5 5f ce bd 72 94 b9 3d e3 11 23 be db 5f d8 bc
       -0.100768484 0.09061517 -0.15924792 -0.026412895
0002a0 c3 59 cf bd 15 33 a2 3d eb 98 04 3e c6 51 fd bd
       -0.101245426 0.079198994 0.12948959 -0.12369113
0002b0 f0 5d b2 3b f3 f5 3e 3c f9 bd 82 bd 3c f5 86 3d
       0.005443327 0.011655319 -0.06383891 0.065897435
0002c0 71 86 86 3d 7c 13 d7 bd d6 3b f1 bb 4a b1 06 3e
       0.065686114 -0.10501763 -0.0073618693 0.13153568
0002d0 85 8f 00 3d 6a 6f 89 bd f8 94 c2 3d 6c b9 7e bd
       0.03138687 -0.06710704 0.0950107 -0.06218855
0002e0 52 6d ba bc 16 b5 05 bd af f1 b4 bd d2 a6 82 3e
       -0.022757206 -0.0326434 -0.0883516 0.255179
0002f0 94 5f 0d 3e 50 79 b6 bd 61 43 19 3b 57 d3 11 3c
       0.13805991 -0.08909857 0.0023386108 0.008900485
000300 b2 fd 78 3d 63 59 94 bd 3d 7d 3c 3d e5 77 6a bd
       0.060788818 -0.07243612 0.046017874 -0.057243247
000310 ab 61 b8 bd 0f 83 03 be 57 a8 05 be 52 0b 01 bd
       -0.09003004 -0.12842964 -0.13052498 -0.031504937
000320 e0 bc 1c 3d 4c 23 8c bc 91 3a 3a 3c cd 3b 37 bc
       0.038266063 -0.017106675 0.011366502 -0.011183691
000330 54 fb d0 bd 41 41 0e 3d 42 37 ad 3d a3 0f a6 bd
       -0.10204187 0.0347302 0.08457805 -0.08108451
000340 b0 df 89 bb 5d 76 cf 3c a2 85 8f bd 36 4a 4a 3b
       -0.004207574 0.025324995 -0.0700791 0.0030866987
000350 1c b3 0a be 35 88 8e 3c ca a2 24 3e 3e 22 73 3d
       -0.13544887 0.017398933 0.16077724 0.059358828
000360 61 c0 0b 3e b3 de 22 be 94 02 7e 3d f6 d2 55 3d
       0.13647605 -0.15905266 0.062014177 0.05220314
000370 ca c8 bf bd 62 c0 36 bd a8 73 f9 bc e5 cc 90 bc
       -0.09364469 -0.044617064 -0.030450657 -0.017675826
000380 53 47 88 bd 79 83 5f 3d 82 70 be 3d 13 e1 71 bd
       -0.06654229 0.05456874 0.09298803 -0.059052538
000390 60 f6 5d bc 7f cc 46 be 20 d6 cd ba 4f 11 72 be
       -0.01354751 -0.19413947 -0.0015704073 -0.23639415
0003a0 c4 e0 11 3e d1 a5 dd bc e1 ad dd bc 78 4f c5 3d
       0.14245898 -0.027056606 -0.027060451 0.09634298
0003b0 b6 44 4d 3c 0e 0d 3d bd 31 a6 66 be fa 85 25 3e
       0.012528589 -0.046155028 -0.22524334 0.16164389
0003c0 20 a7 09 3e cf b2 02 bd cd 97 86 bc b7 76 97 bd
       0.1344266 -0.031908806 -0.016429806 -0.0739569
0003d0 47 f2 01 3d b9 4a 2e 3e 19 c2 9a 3c c9 4c 75 3d
       0.031725194 0.17020692 0.018891381 0.05988768
0003e0 4a e3 d9 bb 01 6a ed bd b1 e1 6f 3c 3a 9c e6 bd
       -0.0066494094 -0.11592484 0.014641211 -0.112602666
0003f0 a6 f6 ef bc 50 8a 29 be 3b b1 bd 3c bf cc 9c bb
       -0.029292416 -0.16556668 0.0231558 -0.00478515

F.linears.0.bias f4 [32]
000000 0c 1e 32 bd 1b b5 e4 3c 6c 5b 8b 3d 62 8c c3 bd
       -0.043485686 0.027918389 0.06804547 -0.0954826
000010 96 dd 97 bd 54 c8 25 bd 97 48 bb bd 16 2a d6 3c
       -0.07415311 -0.04047425 -0.09144705 0.026143115
000020 16 9e 46 3b 0f 90 a8 3d 63 a7 68 bd f1 69 a9 bc
       0.003030663 0.08230602 -0.056800257 -0.0206804
000030 40 c0 07 bd a1 0c be bb 8b 97 c6 bb 18 c4 61 3c
       -0.03314233 -0.0057998453 -0.006060546 0.013779663
000040 2a be e6 3b 5e e2 aa 3d 0c 4d 95 3d fa 5b e1 3c
       0.0070417123 0.08343957 0.07290086 0.027509678
000050 ed 3f f6 bd ad 0b 4a bc 08 fd d2 bd 6c 62 50 bd
       -0.120239116 -0.012331885 -0.10302168 -0.050875112
000060 35 27 de bc 81 99 7a bc e4 8e 9f bc cd 98 3b bd
       -0.027118305 -0.015295387 -0.019477315 -0.04580002
000070 1c fa 05 3b 9f 3f 9a bb 13 29 79 ba ae 5f 7b 3b
       0.0020443266 -0.0047072913 -0.0009504717 0.003835659

F.linears.1.weight f4 [32, 32]
000000 cd 06 2c bd f7 f9 e4 3d 95 30 9f 3e 45 fd bb bd
       -0.041998673 0.111804895 0.31091753 -0.09179167
000010 3f d2 f3 bd fb 95 33 3d 7e 3d 4a 3c 7b 47 8b bd
       -0.11905336 0.043844204 0.012343762 -0.06800743
000020 13 90 19 bd 2b be 18 3c 79 82 99 3c 8f dd 91 3c
       -0.037490916 0.009322683 0.018738972 0.017805843
000030 b0 78 a2 bd 25 67 ed bd c8 09 1c 3e 21 df c2 3d
       -0.079331756 -0.11591939 0.15238106 0.09515215
000040 fe 30 42 bd 86 3f d0 bc 8d 12 ff 3c 58 6f fc 3d
       -0.047410004 -0.025420915 0.031136775 0.12325925
000050 35 a7 a3 bd ab ab 01 3d 61 9d 66 3e bb 56 76 bc
       -0.079908766 0.031657856 0.22520973 -0.015035327
000060 21 63 45 3d 19 28 f5 3d 1d c3 fd bc 80 82 bd bd
       0.04819024 0.11970539 -0.030976826 -0.092534065
000070 a8 b6 1d be f1 a4 0b 3d 80 46 ed bb 4e 36 41 3d
       -0.15401709 0.034092847 -0.0072410703 0.04717093
000080 5a f3 e3 3d f9 e2 37 3d ed e9 8e 3e a1 63 3f 3d
       0.111304 0.044894192 0.27912846 0.046725873
000090 6e d6 e6 bc 4e 48 f7 3d d4 dd 75 3c cc be 9d bd
       -0.02817842 0.12074338 0.015006501 -0.07702407
0000a0 51 2d 22 3d 5c 67 98 3c 9d d4 14 3e 91 ed 49 be
       0.039594 0.018603973 0.1453423 -0.1971953
0000b0 e6 16 f4 ba 9b 1e 9e bc f8 bc e9 bd 27 56 5a 3d
       -0.0018622547 -0.019301703 -0.11412996 0.053304818
0000c0 4e 47 72 3d 70 12 ab 3d fa 01 25 be 6d 32 18 3b
       0.059150033 0.08353126 -0.16114035 0.0023223415
0000d0 d6 f8 ae bc 4c 1e 28 3d 82 71 ea 3c 0d 6f 88 3d
       -0.021358889 0.04104452 0.028618578 0.06661806
0000e0 71 71 04 be 0f 9a b3 bd 21 48 d6 3d 87 6c 2f 3e
       -0.129339 -0.08769619 0.10462976 0.17131244
0000f0 37 20 4a bd 65 01 e2 3d c8 8c e1 3d 98 6b d0 3d
       -0.04934713 0.11035422 0.1101318 0.10176772
000100 31 f7 7d bd cf fd eb 3c 12 2e 5b bc 22 d5 18 bd
       -0.06200332 0.028807549 -0.013377683 -0.037312634
000110 ec f7 7b bc 79 0d 0e bc 8b b2 c8 3c 3b f2 2a be
       -0.015378933 -0.008670204 0.024499198 -0.16693966
000120 0e 2c 47 3d 0b 0f 5e bd f0 0e a5 3d 6f d0 28 3e
       0.048626 -0.054213565 0.0805949 0.16485761
000130 61 ef 42 3e c0 6b 79 bb 92 c8 4e be c2 e1 4f 3c
       0.19036628 -0.0038058609 -0.20193699 0.012688102
000140 29 b6 3f 3e 24 c3 9b bd 95 1d 21 bd db 08 9d 3d
       0.18721832 -0.076055795 -0.039334852 0.07667705
000150 33 ce 15 3e 69 c7 19 3e 7d ea 0a bc b0 13 ab bd
       0.1462944 0.15017475 -0.008478758 -0.083533645
000160 86 fb 52 be 4f 51 91 3d e4 1f 76 be a5 5d 2b 3e
       -0.20603761 0.070955865 -0.24035603 0.16734941
000170 39 97 8b 3d e6 d0 71 3d 76 37 f0 3d 78 80 3e bd
       0.06815953 0.05903711 0.11729328 -0.046509236
000180 d3 8b f3 bd 7a 2e a9 bc d5 90 cf 3c 0f cb d5 3d
       -0.11891904 -0.020652045 0.025337616 0.10439121
000190 a0 fd e5 3b 3b b7 35 be e0 ee 3e 3d 8c 05 5f 3c
       0.00701876 -0.17745678 0.046614528 0.013612162
0001a0 51 30 42 3e 3e 15 49 be d3 f1 25 3e 09 ed f5 bd
       0.18963744 -0.1963701 0.1620553 -0.120081015
0001b0 59 34 36 3d 71 cf e9 bd 6a 9c 03 be 5a b4 81 be
       0.044483516 -0.114165194 -0.12852636 -0.2533291
0001c0 a6 0b 0c be d9 44 c9 bd d3 d0 f6 bd 54 a6 78 be
       -0.13676319 -0.09827585 -0.12051549 -0.24282199
0001d0 69 d1 a6 3d 33 11 dc 3d 06 49 d4 bd 67 df 4c 3e
       0.081454106 0.10745468 -0.103654906 0.20007096
0001e0 7c 71 55 3d 6e bf 07 3e f3 3e f0 ba 2b a7 95 bd
       0.05211018 0.13256618 -0.0018329307 -0.073072754
0001f0 3c 8b 00 3c 5c 7d 1a bd 69 89 2a 3e c7 7f c5 bd
       0.007845696 -0.03771721 0.1665398 -0.09643512
000200 61 96 e5 bb 6c 7b 26 3e d9 a3 d9 3d 51 5e dd bd
       -0.007006452 0.16258019 0.106269546 -0.10809005
000210 0f dd fa 3d 29 ed a6 bc dd e7 70 bc 16 47 0c 3d
       0.12249195 -0.020376759 -0.014703718 0.03424748
000220 04 c1 60 bd 66 f7 4c 3b ac d7 8d 3d 31 cd 7d 3d
       -0.054871574 0.003127539 0.06925902 0.061963264
000230 24 de e4 bd 45 92 24 be 33 1a 45 bc e0 80 cf bd
       -0.111751825 -0.16071422 -0.012030172 -0.10132003
000240 a4 4a 31 be 88 e5 5f 3c c3 59 ab 3d 96 fc 3d 3c
       -0.1731363 0.013665564 0.0836673 0.011595866
000250 3e c6 a0 bd de 02 88 3d ab e9 c0 bb b7 6e d3 3b
       -0.07850312 0.06641172 -0.0058872304 0.006452407
000260 81 13 00 3e 11 5c cd bc 67 55 0a be e9 01 36 3e
       0.1250744 -0.025068315 -0.13509141 0.17774166
000270 08 fd f8 3c 40 93 c0 bd f3 ce a3 3d 24 94 29 bc
       0.030394092 -0.09403086 0.07998457 -0.010350261
000280 67 bf d6 bd d9 fb 6a bc 9b 1b 05 be af 33 8e 3d
       -0.10485726 -0.014342272 -0.12998812 0.069434516
000290 e3 23 f3 bd 20 25 ab bc 6d 8c 49 be d4 4a 53 be
       -0.11872079 -0.020891726 -0.19682474 -0.20634013
0002a0 79 85 e1 39 55 1f 88 bb 20 cd dc bd 18 6c 05 be
       0.0004301479 -0.0041541257 -0.10781312 -0.13029516
0002b0 f3 81 d4 3d 81 17 af 3d b8 17 33 3d 57 ea 0e 3e
       0.10376348 0.08549405 0.04372379 0.13956581
0002c0 8f 5b 4e bd 4a 1c d1 bc e5 ee b3 bc f0 38 c6 bd
       -0.050380286 -0.025526185 -0.0219645 -0.09678829
0002d0 f8 8b 9b bd 14 4f 4a 3c a3 ad 10 3d 2d 61 22 bd
       -0.07595056 0.012347955 0.035321843 -0.039643455
0002e0 65 9b d3 bc 42 f1 af 3d 2f a7 9e 3d dc ff fa 3c
       -0.025830934 0.08590938 0.077467315 0.030639581
0002f0 c0 dc 3f 3d a6 1a 9a 3d e6 32 d2 bd fd 02 bf bd
       0.046841383 0.07524614 -0.10263614 -0.09326742
000300 e1 46 96 bc 77 02 e6 bd 43 ce eb bd 8c 8f 49 bd
       -0.018344345 -0.11230939 -0.11513951 -0.049209163
000310 c4 37 a1 bd 65 eb 19 bc 3f 56 d0 3d b1 48 7a bc
       -0.078719646 -0.009394501 0.101727 -0.01527612
000320 c4 02 2e be 9b 0b ff bd 5b 85 93 3d 93 57 43 be
       -0.16993243 -0.124533854 0.0720317 -0.19076376
000330 fd b1 81 3d f5 0e b8 bd eb bf fb bd cc 7c 3e 3e
       0.06332777 -0.08987228 -0.12292465 0.18602294
000340 2a 91 46 bd 6a fe ee 3d 75 95 4d bd 06 9c 7a bd
       -0.048478283 0.116696194 -0.05019136 -0.06118395
000350 eb fd 99 3c 5a 80 da 39 82 2c 77 3d 0f 1b 0f be
       0.018797835 0.0004167583 0.06034518 -0.13975166
000360 86 4f 03 bd 09 3f 0a be bd 95 bc 3c 4c 25 59 bc
       -0.03205826 -0.13500609 0.02302062 -0.013253521
000370 2c 65 6f bd ee 7c b9 39 e4 37 db bb 66 fa fb bd
       -0.058446094 0.0003537903 -0.0066900123 -0.12303619
000380 2c 52 b5 3d 0d da 38 3d df 39 2d be 4e b9 b3 3b
       0.08853564 0.045129824 -0.16916607 0.0054847365
000390 08 56 3c bd 85 01 e3 3d eb b3 87 3d 7b ab 51 3d
       -0.045980483 0.11084274 0.066261135 0.051188927
0003a0 ab 2a 8d 3d a2 ef 97 bb c8 b2 35 3d 91 2c 78 bd
       0.06892904 -0.0046367208 0.044359952 -0.060589377
0003b0 02 ff bc bd bc fd 1b be 8c bd 3d 3d 07 92 4e bd
       -0.092283264 -0.1523351 0.046323344 -0.05043223
0003c0 4b 34 9a bd 56 00 93 3d de 70 82 3d c3 6d 30 be
       -0.07529505 0.071777984 0.06369184 -0.17229371
0003d0 37 1a eb 3d c0 a1 58 3d a1 2f 7c 3e c2 0f 20 bd
       0.114796095 0.05288863 0.24627544 -0.039077528
0003e0 28 43 b4 bd d5 8b 97 bc cc aa 22 3c 90 7e bb 3c
       -0.088018715 -0.018499294 0.009928416 0.022887498
0003f0 f1 b4 bf 3d 7f 96 71 3d 04 97 b9 3d 5d 27 6b 3e
       0.09360684 0.058981415 0.09062007 0.22964235

F.linears.1.bias f4 [32]
000000 b2 df 84 bc fc f7 ed bc 9b d6 15 bd fd 98 00 3d
       -0.016219947 -0.029048912 -0.036581617 0.0313959
000010 dc 8a f6 3d c6 60 3f 3c 38 85 82 bc 38 59 22 bd
       0.12038204 0.011680787 -0.015932664 -0.039635867
000020 cd d2 ba 3d 36 72 2b bd a4 18 ac 3c 90 2c c8 bd
       0.09122238 -0.041856967 0.021007843 -0.097741246
000030 91 40 85 3c 4c 0f eb 3d ef 01 3b bc 9e 60 d8 bd
       0.01626614 0.11477527 -0.011414035 -0.10565303
000040 b2 9d 29 3d 2d 18 86 3d b4 77 84 bd 41 74 ac 3d
       0.041410156 0.0654758 -0.06468144 0.08420611
000050 af 8a c3 bb f3 5d 41 bd 5b 59 27 3d c8 12 c8 bd
       -0.00596746 -0.047208738 0.0408567 -0.09769207
000060 95 4c 62 3c 67 7a 8a 3d 40 ee 43 bb 5b b3 b0 3d
       0.013812204 0.06761628 -0.0029896647 0.08627959
000070 b8 e7 59 bd 99 e3 5c bd 8d f7 1d 3d ee 18 00 3e
       -0.0531995 -0.05392799 0.03856616 0.1250951

F.linears.2.weight f4 [10, 32]
000000 32 b2 97 3c f7 eb a3 bd 5b f1 5c 3d e8 20 cd bb
       0.018517587 -0.08003991 0.053941112 -0.0062600262
000010 54 9c c0 bd 88 43 1c 3e c1 dc 7d 3e ed e3 63 3d
       -0.09404817 0.15260136 0.24791242 0.05563729
000020 c7 78 e4 3d 2a a1 04 be 8e 19 81 3d b2 c5 d0 bc
       0.11155849 -0.12952104 0.06303702 -0.025484893
000030 24 bb 38 3d 4a c9 02 be 99 b7 40 3d 7f a1 37 3e
       0.045100346 -0.12772098 0.047050092 0.179327
000040 54 92 06 ba b6 10 ca 3a f5 7f 38 3e c2 9d 13 3e
       -0.0005133499 0.0015416357 0.18017562 0.14415649
000050 12 43 1f bc 63 ab 4e 3e 2e a8 63 bc 42 b1 43 3d
       -0.009720581 0.20182566 -0.013895078 0.047776468
000060 32 a2 10 be 1b 30 77 3c 06 f2 0f 3e ce a2 7d bd
       -0.14124373 0.015087153 0.14057168 -0.06192284
000070 2f 09 ec 3b 68 eb 0c bd c8 4f 3a bd f6 e3 b6 bd
       0.007203243 -0.03440419 -0.04548624 -0.08930199
000080 35 11 47 bc 0b 0a b8 bd 05 4f 59 3d fd d6 16 3e
       -0.012150099 -0.089862905 0.053053875 0.14730449
000090 0c 67 51 bd 05 17 d4 3d 7e a7 a5 bd 8d 93 99 3e
       -0.051123664 0.10355953 -0.08088587 0.29995385
0000a0 5b ba 66 3d ab 2e 34 be d1 d9 94 3d a0 4c 16 3d
       0.056330066 -0.17595927 0.07268108 0.03669417
0000b0 3f fd c0 3d a0 71 ae bd 44 51 50 bb 35 9f 99 3d
       0.09423303 -0.08517766 -0.003178672 0.075010695
0000c0 81 71 f7 bd 61 e5 8f 3d e0 c1 21 3d de e0 4e 3c
       -0.12082196 0.070261724 0.039491534 0.012626855
0000d0 65 ff 51 3d 85 de 3c be 4a 81 57 be 96 db 17 3e
       0.051268954 -0.1844426 -0.21045414 0.14829859
0000e0 96 f4 ae 3d 76 32 ab bd 4f bb d2 3d 52 71 16 be
       0.08542745 -0.08359234 0.102896325 -0.14691666
0000f0 7f a3 22 be 4b f8 f7 3c 45 5d eb 3d 98 84 6a be
       -0.15882681 0.030269763 0.11492399 -0.22902143
000100 2e 7d ef 3d bd 19 23 3e 16 a6 8b be f8 dd f3 bd
       0.11693798 0.15927787 -0.2727515 -0.119075716
000110 83 58 eb bc e8 89 45 3d 61 2b e9 bc b1 af c8 3d
       -0.02872873 0.04822722 -0.028463067 0.097991355
000120 ad e7 11 3d 5d ba 23 bd 4f 84 ea bd b8 21 fa 3b
       0.035621334 -0.03997265 -0.11451017 0.007633414
000130 04 ae 62 3a 86 9f 92 3c e0 92 87 3c 2c 62 43 bd
       0.0008647146 0.017898332 0.016549528 -0.047701046
000140 b0 12 16 be 42 40 b4 3c e8 92 d7 b9 58 26 8b 3d
       -0.14655566 0.022003297 -0.0004111745 0.06794423
000150 95 52 09 bc 3e d3 9c 3d 7f 5d 09 be fb 79 1c bc
       -0.0083815055 0.07657479 -0.13414572 -0.009550567
000160 69 48 2a bd 95 17 28 3e 8f 71 b1 3d 1a d5 51 be
       -0.041572962 0.16415246 0.08664238 -0.20491448
000170 67 16 e0 bd 3b b0 fe 3d 5f d2 95 bb 1f 02 0b be
       -0.10941773 0.12435957 -0.0045721973 -0.13575028
000180 e5 37 0b 3e 8c 94 82 3e ab 9d 1a bd 72 60 11 be
       0.13595541 0.25503957 -0.03774802 -0.14196947
000190 af e7 dc 3d 24 3b 94 3d dd ff 0e be 6b 82 d8 bc
       0.10786378 0.07237843 -0.13964792 -0.026429376
0001a0 4f 35 cd 3d 0a fb 85 3c 92 32 51 3d 56 a3 8c be
       0.100199334 0.016355056 0.05107362 -0.27468365
0001b0 9b 81 27 3e c2 d5 2e 3c 41 bf bf bd 09 e3 26 be
       0.16358034 0.010671081 -0.09362651 -0.16297545
0001c0 0c 9b 9b bd 2e 90 93 bc c3 d6 29 3e 6c ec 42 3e
       -0.07597932 -0.018013086 0.16585831 0.190355
0001d0 64 73 58 bd fd 8a 42 bd 9c 8c c5 3d 75 22 f3 3b
       -0.05284442 -0.04749583 0.0964596 0.007419879
0001e0 6e dd 2b bc 4c 60 42 bd 84 e9 4f 3d 70 1f 35 3d
       -0.010489805 -0.047455117 0.050759807 0.044219434
0001f0 76 5a 08 3e 35 c5 ab 3c 54 ba a5 3c 7d de e2 bd
       0.13315758 0.02096806 0.02023045 -0.110775925
000200 13 3d 48 be 8e a1 97 3d 97 35 7a bd ee bd e0 bd
       -0.19554548 0.07403861 -0.061086264 -0.10973726
000210 26 a2 c4 bc 99 f9 01 bd 31 6a 5e bd 23 6c 46 3e
       -0.0240031 -0.031732175 -0.05430049 0.19377188
000220 8d 7b 9f 3c 60 b2 ea bc 9d 35 b8 3c 84 2b 51 3e
       0.019468093 -0.028649509 0.022486502 0.20426756
000230 96 a1 d6 bd 91 97 81 bd 81 36 d5 3b 22 ce 0c bb
       -0.10480039 -0.06327737 0.0065067415 -0.002148517
000240 47 8a 49 be 39 f3 c2 bc d6 82 eb bd 17 ca 94 bd
       -0.19681655 -0.023797618 -0.11499564 -0.07265108
000250 c4 1c 52 3d 20 7c a3 3d 2a 15 9a bd da 51 46 be
       0.051296964 0.07982659 -0.07523568 -0.19367161
000260 50 92 c8 bd dc 7f 55 3e 28 6a d7 3d 69 b5 3d bd
       -0.09793532 0.20849556 0.105182946 -0.046315584
000270 dd 2e 89 3d 66 a7 f1 3d 53 99 3c be c4 35 ce bd
       0.066983916 0.11799507 -0.18417864 -0.10068849
000280 1e d9 0f 3e 53 55 09 3d 30 b9 12 bc 0e 85 70 be
       0.14047667 0.033528637 -0.008955285 -0.23488256
000290 c5 8a d6 3c f4 8e 59 3e 3a 15 16 bd a3 25 72 3d
       0.026189217 0.21245939 -0.036641337 0.059117924
0002a0 d7 94 a0 bc 5e 92 48 bd 47 d3 b0 bd 09 c3 9e 3d
       -0.019602222 -0.04896771 -0.08634048 0.07752044
0002b0 c8 ef 05 3d e3 b5 a3 bd 48 8a 94 bd 2d 8d 43 3d
       0.032699376 -0.079936765 -0.072529376 0.047742058
0002c0 29 36 db bd b7 fe fc 3d 70 d3 6b bb 9c 02 90 3c
       -0.107036896 0.123532705 -0.003598418 0.01757937
0002d0 a0 72 29 be f0 8c a6 bd bb 0b 2f 3e c8 35 36 3e
       -0.16547632 -0.081323504 0.17094319 0.17793953
0002e0 3a 56 00 bb 15 89 19 be e2 f3 87 bd 77 fe 21 be
       -0.0019582645 -0.14993699 -0.06638314 -0.15819727
0002f0 9d 7b f4 bd 39 ae 26 bc f3 1c 83 bc 50 e3 2e bd
       -0.1193764 -0.010173374 -0.016005015 -0.04269725
000300 e8 37 96 3d 94 69 a0 bd 06 10 3a 3e d8 a6 78 bd
       0.07334882 -0.078326374 0.18170175 -0.06070599
000310 34 69 56 3d c3 e1 10 3e fc 0d fc 3d e8 1f 96 3d
       0.052346423 0.14148621 0.12307355 0.073303044
000320 d7 84 c7 3d 5f 86 a3 3d d8 c6 5f be a4 11 66 bc
       0.09742134 0.079846136 -0.21853197 -0.014042292
000330 34 bb 7b bd cf 1e ff bc 7b 77 a7 3c fd 6f 27 be
       -0.061457828 -0.03114262 0.020442715 -0.16351314
000340 c7 fa a5 3d 2b 6f ce 3c 35 bd 0a 3e 76 af 81 3c
       0.081044726 0.025199493 0.13548739 0.015830737
000350 a8 5a 8f bd 6d c0 0f be 05 8d 39 3d 72 c7 fa 39
       -0.06999713 -0.14038248 0.045300502 0.00047832314
000360 94 87 f3 3d df 5f 1c 3d 28 88 8a 3d fd 49 4e bd
       0.11891094 0.038177367 0.06764251 -0.05036353
000370 af 55 07 3c 1c 1a c2 3d 40 57 b0 bc 7c e0 a1 bd
       0.008260175 0.09477636 -0.021525979 -0.07904145
000380 57 dd 83 3d b8 ad 14 be cb 40 19 3c 54 86 a1 bd
       0.064387016 -0.14519393 0.009353827 -0.07886949
000390 c0 7d 1f 3d 29 57 98 3b 3d 12 fe bd dc d4 fa 3d
       0.038938284 0.004649062 -0.124058224 0.12247631
0003a0 80 03 2c be f6 aa f5 bd 81 a3 ff 3d 1b 77 09 be
       -0.1679821 -0.11995499 0.12482358 -0.13424341
0003b0 a7 42 e6 bd b6 37 64 3c bf e4 11 be 5a 6b a9 bd
       -0.11243182 0.013929298 -0.14247416 -0.08272429
0003c0 d5 71 aa 3d d6 13 3f 3e 5b e7 f3 3c 75 6c 88 3e
       0.08322493 0.1865991 0.029773405 0.26645246
0003d0 47 bc d3 bd 5c 85 d9 3d aa 03 9d bc 10 8c 70 3d
       -0.103386454 0.106211394 -0.019166786 0.058727324
0003e0 4c 4a 72 be c3 48 4c bc f4 b3 00 bd f6 d9 b7 bd
       -0.23661155 -0.01246852 -0.031421617 -0.089771196
0003f0 5b f4 fc 3d 39 6a 46 bd 0f d1 0a be 12 0f 68 3e
       0.123512946 -0.048441146 -0.13556312 0.22661999

F.linears.2.bias f4 [10]
000000 7c 10 64 3c 49 6a b2 bd 76 f0 26 3d 29 7a 22 bb
       0.013919946 -0.087116785 0.040756665 -0.0024792051
000010 96 35 16 bd e4 d1 61 bd ed 62 8c bb 32 4c b2 3d
       -0.036672197 -0.055131808 -0.004284254 0.08705939
000020 6c d0 92 3d 5f 13 32 bc
       0.071686596 -0.010868876

G.0.linears.0.weight f4 [32, 10]
000000 51 60 29 bd 56 1f 31 bb ed e8 c8 3d ae da 8e 3d
       -0.04135162 -0.0027026734 0.09810052 0.069753036
000010 64 29 3d bd 0e f0 e4 3b 54 69 bd 3d 12 03 33 3e
       -0.04618205 0.0069866246 0.09248605 0.1748164
000020 4c bc 53 bd 0f a2 e6 bd 3e e6 15 3e f4 4d 9f 3c
       -0.051693246 -0.11261379 0.14638612 0.01944635
000030 af d4 0f be f9 10 2e bc e4 dd 20 be 30 6b 4d 3d
       -0.14045976 -0.010624164 -0.15709645 0.05015105
000040 ea ac 4b bd 63 51 d1 bd f9 f1 55 bd 0a 36 1b bd
       -0.04972545 -0.102206014 -0.052232716 -0.037893333
000050 f7 c4 4f bc 0e f0 64 3c 29 f1 4d bc b0 28 3f bd
       -0.012681237 0.013973249 -0.012569704 -0.046669662
000060 95 e9 74 3d 55 59 15 3e 08 a3 84 bd fd 71 fb bd
       0.059793074 0.14584859 -0.06476408 -0.12277601
000070 4f 3c 35 bc d8 78 7a 3d 59 be 1c 3e c9 69 27 3d
       -0.011061742 0.0611504 0.15306987 0.04087237
000080 e5 6a bd 3d a7 85 47 bd 08 6c 49 be 6b 31 fb bd
       0.09248904 -0.048711445 -0.19670117 -0.12265285
000090 ba 45 e6 bd 82 69 70 b9 d8 83 c2 3c f7 df 0e bd
       -0.11243768 -0.00022927488 0.023744509 -0.03488156
0000a0 a0 4c cb 3d 72 2a a5 3d dd 66 8b bd f2 3a 2f 3d
       0.099267244 0.080647364 -0.06806729 0.042780824
0000b0 15 43 a0 3d 25 a0 2e 3d 63 ff c9 bd a6 35 2c be
       0.07825295 0.042633194 -0.09863164 -0.1681734
0000c0 79 60 b1 3d 23 56 02 3d 54 e4 0a 3b 31 c1 cb 3c
       0.08660979 0.031820428 0.0021193223 0.024872394
0000d0 4d 64 1c 3e fa 49 b3 bd 69 66 8e 3d ac 2c d2 bc
       0.15272637 -0.08754344 0.06953127 -0.025656067
0000e0 fc be 59 bc 13 65 5b 3d 04 5d 09 be 33 e1 05 be
       -0.013290163 0.05356319 -0.13414389 -0.13074188
0000f0 19 2d 3b 3e 8d eb 8d 3d 0d 91 7e 3d 83 cd 1f be
       0.18278922 0.06929693 0.06215005 -0.1560574
000100 7c 9e f7 3c 56 2a 73 bd 22 80 88 3d 4e 6f 5b bd
       0.030226938 -0.059366547 0.066650644 -0.053572945
000110 2f 0c 94 bd c6 25 9c bd 1f c5 ed bb a7 1b 37 3e
       -0.07228886 -0.07624392 -0.0072561647 0.17881642
000120 00 8d 8e bc 7e 1f b5 bb b0 66 8b 3d 5f 13 95 bd
       -0.017401218 -0.005527436 0.068066955 -0.07279085
000130 3f dc 3b be 99 4d 41 3d 48 74 b5 3b 7d b1 03 3c
       -0.18345736 0.047193144 0.0055375434 0.008037922
000140 a2 7d e4 bd ad 13 0e 3e f0 2b 2f 3e 34 89 45 bc
       -0.11156775 0.13874693 0.17106605 -0.012056638
000150 2c 0d fe 3d f6 36 b4 bc 8c 16 22 3d db 13 66 bd
       0.12404856 -0.021998864 0.039572284 -0.05617128
000160 e5 24 64 bd 2f 29 01 3d 79 78 a0 3d 72 a0 76 3c
       -0.055699248 0.031533416 0.07835478 0.015052902
000170 76 9a e8 3c f4 5f 48 bd 3e 9f 47 3c 4f 0c 25 bd
       0.028393965 -0.048919633 0.012183962 -0.04029494
000180 d5 d8 0e 3e 46 af d9 bd 54 67 02 3b ff f4 05 3e
       0.13949902 -0.10629134 0.0019898014 0.1308174
000190 e0 27 13 3d 62 9e 49 bc d0 9e 38 3e c9 49 5e be
       0.0359267 -0.012305828 0.18029332 -0.21707834
0001a0 47 37 4f 3e a0 5f c8 3d ea 01 8e 3d 6f 06 a1 3c
       0.2023593 0.09783864 0.06933959 0.019656388
0001b0 8b ba 8d 3d 7b a9 1a bd 7f da 3c be 92 46 cb bd
       0.06920346 -0.037759285 -0.18442725 -0.099255696
0001c0 17 f1 35 3c 5f b6 4a 3d 1c d5 e4 bc e0 95 f8 3b
       0.011104844 0.04949033 -0.02793365 0.007586226
0001d0 01 03 13 3d e4 5b f3 bd 8d db c6 3c 38 0c 03 3e
       0.035891537 -0.11882761 0.024274612 0.1279763
0001e0 5c 98 d5 bd db 44 30 bc 4c a9 10 be 57 bb 1c bd
       -0.10429451 -0.010758604 -0.14127082 -0.0382646
0001f0 07 ec e1 bd 95 30 e0 3b b0 fd 7e bc 3c f9 90 bd
       -0.11031347 0.006841729 -0.0155634135 -0.07078788
000200 e6 56 b5 3c 9e 58 16 3d 81 13 2c 3e 36 11 42 3d
       0.022136163 0.036705606 0.16804315 0.047379695
000210 36 bd 9c 3d 0a 24 f1 bc e7 7e 12 bd 7c 24 bd 3c
       0.076532766 -0.02943613 -0.035765555 0.023088686
000220 42 81 05 be ea 81 82 bd ce ec 68 be d0 59 c2 3d
       -0.13037589 -0.063724354 -0.22746584 0.094897866
000230 e2 20 49 bd cd 94 33 3d 08 79 b9 3c 52 ed bb bd
       -0.049103625 0.04384308 0.02264072 -0.09176125
000240 2e c2 f6 3d c0 d7 9c 3c e9 01 33 3d 0b 87 54 3d
       0.120487556 0.019145846 0.043702994 0.0518866
000250 d1 4e 1f 3e 69 a3 1c bd 23 ee c6 bc 4c 1c ca 3b
       0.1555741 -0.038241778 -0.024283474 0.006167924
000260 80 45 0a be b4 78 0e bd 43 e0 de 3d 6f 4a 20 bd
       -0.13503075 -0.03478308 0.10882618 -0.039133485
000270 7b 45 e7 3d 1a aa 34 3e 39 23 96 3e 15 24 8c 3e
       0.11292549 0.17643014 0.29323748 0.27371278
000280 ae 90 92 3c 4c 01 13 bd b2 2a da 3d f9 37 e2 3d
       0.017891254 -0.03588991 0.10652675 0.11045832
000290 1e 5e 1f bd c7 1a 4e 3d 16 f1 ed 3d d3 f3 46 3e
       -0.038908117 0.050318506 0.11618249 0.19428949
0002a0 e9 74 27 3e 94 54 d1 3c 1f 1c 7f bd 86 87 3f bc
       0.16353191 0.025553025 -0.062282678 -0.011690026
0002b0 f9 78 1a bd 77 ca a3 bc 3b c6 7d 3d 93 a5 70 bd
       -0.037713025 -0.019994004 0.061956625 -0.058751654
0002c0 28 86 b2 3d 51 b5 43 3e 4b 4b 6f bd 6f ba 51 bb
       0.087169945 0.19112135 -0.058421414 -0.0032001992
0002d0 1c c7 08 3e 10 0c 06 3e 01 cd eb 3d 91 6c b9 bb
       0.13357204 0.13090539 0.11513711 -0.005658694
0002e0 84 fc 0e bc c6 62 db 3d 8f 7f 8b bd bd f1 88 bc
       -0.008727197 0.10712199 -0.06811439 -0.016716832
0002f0 6f b9 84 3d 04 a8 2c be 27 e2 9d bd 06 77 86 be
       0.06480681 -0.16860968 -0.07709151 -0.26262683
000300 2d 3e dc bd a2 ed 99 3d a2 03 d5 bd b3 57 f8 bd
       -0.107540466 0.07516028 -0.104010835 -0.12126102
000310 59 88 44 3e ec ef 9f 3d 9c 1b b2 bd ec 82 42 3d
       0.19192638 0.07809433 -0.08696672 0.047488138
000320 4a a9 fc bd 64 3b b1 bd 76 42 16 bd 65 75 15 3e
       -0.12336977 -0.08653906 -0.036684476 0.14595564
000330 8f dd 6e 3d 81 d2 83 bd 6e 5c 18 be 1a 0b 83 bd
       0.058316763 -0.06436635 -0.14879009 -0.06398602
000340 47 4b c1 bc a0 66 3f bd 14 03 02 39 6f 98 6e 3d
       -0.023595465 -0.04672873 0.00012398913 0.05825084
000350 8c 3a da bd 50 dd f2 bc 48 46 80 bd 5e 4a 86 be
       -0.10655698 -0.029646546 -0.06263405 -0.26228613
000360 78 ec 4c bd d2 5e b8 bd ab b1 49 3e 88 13 3c bc
       -0.0500302 -0.090024605 0.19696681 -0.011479266
000370 c4 f7 16 be 78 52 eb bc 04 dc ba 3d a6 c3 36 be
       -0.14742953 -0.028725848 0.09123996 -0.17848071
000380 fb 9c cc bd 8a 9f 26 3e 61 ff fa bd 59 a9 0f be
       -0.09990879 0.16271797 -0.12255741 -0.14029445
000390 f8 8b 48 bc 5d 3c 7e bd 2d db 4f 3e 0a 34 ac 3e
       -0.012240402 -0.062069286 0.20298453 0.33633453
0003a0 11 5d 9e 3d 49 ca 14 be 24 fb 39 be 18 68 31 3d
       0.07732595 -0.1453029 -0.18162209 0.043312162
0003b0 ec 03 8d 3d f8 a5 ff 3c ff d7 17 bd 15 c3 d9 3d
       0.06885514 0.03120707 -0.037071224 0.10632912
0003c0 ee 29 9f 3d f5 fb 96 bd ee 5c dc 3d 2f af 5d 3e
       0.07771669 -0.07372276 0.107599124 0.21648858
0003d0 36 32 16 be 5a e3 fa bb 38 a2 0c 3d e5 35 09 3e
       -0.14667591 -0.007656497 0.03433439 0.13399465
0003e0 08 10 20 3e 01 c0 0b be cf d4 53 3b 2f 2c d1 bd
       0.15631115 -0.13647462 0.0032322889 -0.102135055
0003f0 03 4a a9 bd ce c1 d6 3d a8 cf 7d be 1b be 08 be
       -0.0826607 0.10486184 -0.24786246 -0.1335377

G.0.linears.0.bias f4 [32]
000000 f1 5a b6 bc 1f 1c 85 bd 29 ba 46 3d 1c d0 3a bb
       -0.022260161 -0.06499504 0.04851738 -0.002850539
000010 c8 fc 4f 3d ba 12 23 3d f0 a5 97 bd d0 11 33 bb
       0.05077818 0.03981278 -0.07404697 -0.002732385
000020 f8 6c 69 3d e9 09 e3 bd 61 8b 34 3c 54 d3 5d bc
       0.056988686 -0.110858746 0.011019559 -0.013539154
000030 e8 38 da bd 1b 90 12 bd 21 39 1e 3c c7 91 90 3b
       -0.10655385 -0.03578196 0.009657175 0.0044119093
000040 1b a2 ca 3d d6 e2 ac 3d 66 f1 5c bd cb fa 2e bd
       0.098942004 0.08441703 -0.053941153 -0.042719644
000050 5e 2d 0c bd 35 e6 95 3d 58 3a 04 be 70 f7 ed 3c
       -0.034222953 0.07319299 -0.12912881 0.029048651
000060 2e 50 f9 3d 5a 7e 8d 3d 75 4d 7c 3c 30 b0 e0 3c
       0.12173496 0.06908865 0.015399327 0.027427763
000070 39 62 f1 bc ec 7d b8 bd 03 d9 b0 bd 51 d7 10 3c
       -0.029465782 -0.09008393 -0.08635142 0.008840398

G.0.linears.1.weight f4 [32, 32]
000000 36 0a 58 3c cf 20 6f 3d eb a0 90 bd 4e 08 d5 3c
       0.013186028 0.058380898 -0.07061943 0.026004937
000010 7c c9 3b 3d 76 3d a9 3e 89 3e 18 be a9 1f 88 bc
       0.045846447 0.33054703 -0.14867605 -0.01661666
000020 9d 65 18 3d 53 e7 1e be 5e ea 15 bc 22 73 70 bd
       0.03720628 -0.1551793 -0.009150116 -0.05870355
000030 25 96 13 bd 05 54 92 3d f0 eb 54 be bc e8 6a bc
       -0.03603186 0.07144932 -0.20793128 -0.014337715
000040 2c 2d 69 3d 92 d5 1a 3d 1c 84 26 3d b3 f3 a9 bc
       0.056927845 0.037801333 0.040653333 -0.020746088
000050 e9 a9 fe bc f2 94 d3 3d 6b ab dc 3d ba 11 0e 3d
       -0.031086879 0.103311434 0.10774883 0.034684874
000060 5f b9 f7 3d 76 a4 1b 3e 62 04 43 3e 50 11 a0 3d
       0.120959036 0.15199456 0.1904464 0.07815802
000070 3e 3b 32 3e 37 a2 86 bd 2a f3 e0 3d 71 e7 8c 3d
       0.17405412 -0.06573909 0.1098388 0.068800814
000080 0a 2a c7 3b 38 1c ec 3d 21 82 82 3e e3 10 bf 3d
       0.0060780095 0.1152882 0.25489905 0.09329393
000090 f4 9e bb 3d ab f3 9d bd 56 8e 06 be c6 bb fc 3d
       0.09161177 -0.077124916 -0.13140234 0.123405024
0000a0 93 27 16 bd 49 7f 2b 3d 6e 64 b7 3d 54 c2 91 3d
       -0.036658835 0.041869435 0.08954702 0.07117143
0000b0 54 66 29 bd eb 91 80 bd e5 c7 84 3d 03 58 d1 bc
       -0.041357353 -0.06277832 0.06483439 -0.025554663
0000c0 65 65 df bd d2 f7 ca 3c 60 68 ac bd 84 a3 38 be
       -0.10908011 0.024776373 -0.084183455 -0.18031126
0000d0 78 ef a5 bd 7f a9 cd 3d b8 83 07 be 7c b9 bd bd
       -0.08102316 0.100420944 -0.1323384 -0.09263894
0000e0 b8 cc e6 3a 1e 6d 34 3d ab 46 4d 3e 02 6f b7 bc
       0.0017608618 0.044049375 0.20046489 -0.0223918
0000f0 f1 a4 9d bc c1 ff 3a 3e 95 32 2a bd 04 41 9a bc
       -0.01924369 0.18261625 -0.041552145 -0.01882983
000100 84 6b 78 be 3a 4f 05 3d ad 33 c3 3c 78 4e f7 3c
       -0.24259764 0.03254626 0.023828352 0.030188784
000110 d1 1e 36 bc 30 0f 3f bd 53 e2 b4 3d 86 ed 26 3e
       -0.011115746 -0.046645343 0.088322304 0.16301546
000120 b7 81 4c 3d 72 b2 2f 3d 9e 13 27 3d ce 02 46 bc
       0.049928393 0.042894788 0.040790193 -0.01208563
000130 77 c9 5b 3d 06 1d 23 be bf 70 90 3d a2 e2 c8 3d
       0.05365893 -0.1592904 0.070527546 0.09808852
000140 c1 68 57 be 2c 1d 2a be fe e7 61 bc d9 ea 85 be
       -0.21036054 -0.1661269 -0.013788221 -0.26155737
000150 0b cb 3e 3b 04 c7 a3 3d 16 0c d0 3d e6 5b 99 3d
       0.0029112722 0.079969436 0.10158555 0.07488231
000160 11 1b 24 bd 4f 44 42 bd 50 a1 e4 3c a6 56 5a bd
       -0.040064875 -0.047428425 0.027908951 -0.05330529
000170 18 8f 26 3e 66 b0 7c 3c 60 16 ae bc 71 e9 e7 3c
       0.16265523 0.015422916 -0.021250904 0.028309556
000180 3d d6 32 3e e0 ec 67 bd 1d c5 0d 3d 80 15 bc 3c
       0.17464538 -0.056622386 0.03461181 0.02295947
000190 18 25 c7 3d 8f 64 f1 3c b3 a7 c9 bd 05 2e 90 3d
       0.09723872 0.029466895 -0.09846439 0.070400275
0001a0 d7 99 56 3d 20 d6 1a 3d 80 00 28 3d 51 27 50 be
       0.052392807 0.03780186 0.0410161 -0.20327498
0001b0 4a 13 38 be b9 2a e3 3d b7 8c fc 3d 13 f6 97 bd
       -0.17976108 0.11092133 0.12331527 -0.07419982
0001c0 21 85 b1 bd 30 51 32 be 97 a5 c4 3d e6 e7 9d bb
       -0.086679704 -0.17413783 0.09601896 -0.004818904
0001d0 5f 9f e4 bc 68 c9 63 be 98 b0 1a 3c 74 cc b3 3c
       -0.027908025 -0.22244799 0.009441517 0.021948077
0001e0 45 63 3b be ea 52 54 3e cd 10 08 3e 05 6e a9 3c
       -0.18299587 0.20734754 0.13287659 0.020682344
0001f0 47 02 77 bc a7 dd fd bc de 60 c3 bd 51 5d 77 be
       -0.015076227 -0.030989481 -0.0953996 -0.24156691
000200 9a d2 20 3d 2c 09 bb 3d 6d 0e 64 bd ba e5 08 be
       0.039263345 0.09132609 -0.05567782 -0.13368884
000210 22 a9 4a be 74 05 b3 bd bd 9e 7a 3d 30 9a 94 bd
       -0.19791082 -0.087412745 0.06118654 -0.072559714
000220 32 44 e1 3d f3 22 60 bd 0e aa cd bd c0 8b bf 3d
       0.10999335 -0.05472083 -0.10042201 0.09352827
000230 ce 4c 57 bd 60 8b 0b 3d 50 30 59 be c9 7c 69 3d
       -0.05256348 0.034068465 -0.21209836 0.05700377
000240 d8 e6 da 3d 8b b3 78 be 1a ba a4 3d 04 5f f0 3d
       0.10688561 -0.2428724 0.080433086 0.11736873
000250 7e 79 66 bc f1 a2 de 3d 8a ac 2c bc ff f2 09 be
       -0.014067052 0.10870922 -0.010539183 -0.13471602
000260 23 8c 53 3e b8 06 c4 3d 66 8d 81 bb 57 1a e4 3d
       0.20658927 0.09571594 -0.0039536236 0.111378364
000270 51 88 0d 3e b6 ac 5d be f0 8d 35 3e 7b 6b 03 3e
       0.13821532 -0.21647915 0.17729926 0.1283397
000280 82 d6 77 3d 8d 13 e5 3b d5 d5 1e 3e dc 2d 3c 3e
       0.060507305 0.006990856 0.15511258 0.18376869
000290 32 47 17 3d bd b7 0b 3e 67 8b 1a bd 71 e3 38 be
       0.03693313 0.1364431 -0.0377306 -0.18055512
0002a0 07 30 57 3e e3 b5 51 3d 1e c8 d9 3d 4a 40 35 bd
       0.21014415 0.05119885 0.106338724 -0.044250764
0002b0 38 5b 05 be c1 00 20 3d 74 b3 df 3d 15 33 e9 3d
       -0.13023078 0.03906322 0.109229 0.11386696
0002c0 71 9f 48 3d 7f 78 16 bd 3f bd 1c 3e 14 ea cd 3a
       0.04898018 -0.036736008 0.15306567 0.001571002
0002d0 e8 e6 89 3d 6d 6a 68 3d 0d d0 a5 ba bc f6 1a 3e
       0.06733495 0.05674212 -0.0012650505 0.15133184
0002e0 64 58 cd 3a 1b fa 37 bd e7 33 1b 3e 32 e0 78 be
       0.0015666601 -0.044916254 0.15156518 -0.24304274
0002f0 40 6a 64 3c bf 62 09 3d fc f9 03 be 39 08 1b 3d
       0.013941348 0.033541437 -0.1288833 0.03784964
000300 a1 7b 92 bc 06 76 01 bd 51 3b 14 be 0d 12 aa bd
       -0.017881216 -0.031606697 -0.14475752 -0.08304224
000310 42 94 40 3e ac 64 fb 3c fc ca a0 3d 43 96 ac 3c
       0.18806556 0.030687653 0.07851216 0.021067744
000320 07 c7 a2 3d c3 9d a2 bd 03 2b 13 bd 1f ee 76 be
       0.07948118 -0.07940247 -0.03592969 -0.24114273
000330 5c b2 bf bc 8a 5b b2 bb 20 af 30 3e 26 2e 8f bd
       -0.023400478 -0.005443041 0.17254305 -0.06991224
000340 4c ea 40 bd a4 2f 34 be 4c 99 eb 3c dc 8c ce bd
       -0.047098443 -0.17596298 0.028759621 -0.100854605
000350 60 17 e9 3b 52 3a 04 be 80 be 1b 3e ad 4d 6c 3d
       0.007113382 -0.12912872 0.15209389 0.057691265
000360 22 0e 07 bd 81 91 41 3e f1 fb b6 3c d1 3d df bc
       -0.032972462 0.18903162 0.022336932 -0.027251156
000370 8a 6e 6b bd 19 7a 06 3e 82 5d 1e bd 18 a9 ac 3c
       -0.057478465 0.13132514 -0.038663395 0.021076724
000380 a7 3d 6b 3c 45 f1 60 3c 5b c0 69 bd 39 7b d6 3d
       0.014357961 0.013729398 -0.05706821 0.104727216
000390 57 0a 0d 3e d5 73 b2 bc a2 4a 16 bd f9 ec 7a 3d
       0.13773476 -0.021783749 -0.03669227 0.06126115
0003a0 44 e1 53 3c 55 30 92 bd 12 04 44 bd 34 a1 d3 3c
       0.0129321255 -0.07138125 -0.047855444 0.025833704
0003b0 80 cf 0a be fa af b7 3d fe 57 41 3d 3e ea 3f 3e
       -0.13555717 0.08969112 0.047203057 0.187417
0003c0 8c f5 fd bd 64 14 0b 3d 1f 61 a0 3c 72 a0 0a be
       -0.1240035 0.033954993 0.019577561 -0.13537768
0003d0 45 bc 34 be 19 c3 5e be f5 84 15 3d da aa 4c bd
       -0.17649944 -0.21754111 0.03650375 -0.049967624
0003e0 7e d3 b3 3c 73 49 0a 3e 55 09 8d 3d dc d1 bc bd
       0.021951433 0.13504581 0.068865456 -0.09219715
0003f0 19 4d 8f 3d c1 1c 20 3a cb 81 ca bd 1a f8 18 be
       0.06997127 0.00061078 -0.09888037 -0.14938393

G.0.linears.1.bias f4 [32]
000000 6a 6d cb bb f6 3f 43 3d fc 51 a6 bb 84 3b 9a bc
       -0.0062081115 0.04766842 -0.0050756913 -0.018827207
000010 d2 2e 63 bd 10 9d e5 bc 1a 15 b3 bd bc 2f f4 3c
       -0.055464573 -0.028028995 -0.08744259 0.029807918
000020 bd a6 fe 3c 5b a8 80 bd 8b aa 4b bd b3 12 05 3d
       0.031085366 -0.06282111 -0.04972319 0.032488536
000030 29 30 3a bd 82 f9 3d 3d a3 a7 6c bd 1a 28 b6 3d
       -0.045456085 0.046380527 -0.05777706 0.088943675
000040 5a cb f4 bc 89 2d 07 bc d3 5b 8a bd 3f a9 95 3d
       -0.029882122 -0.0082506025 -0.06755795 0.07307672
000050 a6 25 a4 3d 35 21 97 3d d4 4a 82 bc 0d 86 aa bd
       0.08014993 0.073793806 -0.015904821 -0.083263494
000060 e1 9e bb bc 13 1a 5a 3d 16 35 58 3c bd 6e 90 3d
       -0.022902908 0.053247523 0.01319625 0.07052372
000070 b8 06 88 3d 4c f5 0c bd ff 28 34 3c e4 e4 c4 bc
       0.066419065 -0.03441362 0.010996102 -0.024034925

G.0.linears.2.weight f4 [10, 32]
000000 97 93 89 bc 21 a5 b7 bb 6d 28 28 3e 98 87 e6 3d
       -0.01679401 -0.0056044017 0.16421671 0.11256331
000010 5b 95 90 bd 9d 48 f8 3d 72 bd da 3d b5 10 94 3d
       -0.07059737 0.12123225 0.10680665 0.07229749
000020 4d fa 8f 3e e9 08 13 3d 0b 2e 74 3d 61 e4 a0 bc
       0.28120652 0.03589717 0.059614222 -0.01964015
000030 8a 83 1d 3e 16 b8 16 3d 1e 89 45 be 8c ad 83 bd
       0.1538221 0.03679665 -0.19290587 -0.06429586
000040 71 c9 4b be 32 9e e2 bd c2 6d 77 be 37 91 33 3d
       -0.19901063 -0.110653296 -0.24162963 0.04383966
000050 53 3a 5a bc b2 ea 13 be 5a b5 eb bd 75 48 91 3e
       -0.01331957 -0.14444998 -0.115091994 0.28375593
000060 23 ed 68 bd 1c f0 65 bd 36 0f db bc 47 78 d8 3d
       -0.056866776 -0.05613719 -0.026740652 0.10569816
000070 de 3e 02 3e 0f 8d 4d 3d d8 af cd 3c fb f1 05 be
       0.12719294 0.050183352 0.025108263 -0.1308059
000080 fe 6f 46 be c0 16 3a 3d 9f 8d b7 bd 13 f0 36 bd
       -0.19378659 0.045431852 -0.08962559 -0.044662546
000090 6f 05 68 3d 9d 18 6a 3c 5a 6f 6c 3e 88 f7 a3 bd
       0.056645807 0.014288095 0.23089352 -0.08006197
0000a0 87 ec 08 3e 06 17 36 be 39 ef 55 3d 5c cd 57 bd
       0.13371478 -0.1778222 0.052230094 -0.05268608
0000b0 3d 84 33 be cd 7d b6 3b 8e 65 0e 3c d5 c7 3e 3e
       -0.17530914 0.005569196 0.008691205 0.18630917
0000c0 e4 35 14 3b d3 69 f5 bd 7e ca 2d 3e d5 ec 2f 3d
       0.002261513 -0.11983075 0.16971776 0.04295047
0000d0 44 0e 9a bd 90 bf 6e 3d 1f b0 cf bc e8 9b 16 bd
       -0.07522252 0.058288157 -0.025352536 -0.036769778
0000e0 3d 8d 9e 3c e3 4f 48 be 63 0f 9a bd d4 c8 97 bb
       0.019354457 -0.19561724 -0.07522466 -0.004632095
0000f0 f9 5d 4b 3e 9d 47 1e bd 43 57 c9 3c f8 12 ab bd
       0.19860066 -0.038642514 0.024577742 -0.083532274
000100 51 92 5e bd c5 72 4e be cb e0 ff bd 82 d2 c5 bd
       -0.054338757 -0.20160969 -0.12494048 -0.09659292
000110 89 1e d9 3d 1d e7 33 3c cd e8 3f be 29 ab 67 3c
       0.10601527 0.010980395 -0.1874115 0.014139929
000120 60 e1 8f bd 89 62 0d bd 25 b3 41 3d a1 8b 65 bd
       -0.07025409 -0.0345178 0.047289986 -0.056041364
000130 9c 19 75 be 8c 6a b3 3c f4 f9 e9 3c f9 4c 0a be
       -0.2393555 0.021901391 0.02856157 -0.13505925
000140 4e 50 88 3d b4 31 2f 3d ec f9 ed 3d c4 5e a1 3d
       0.06655942 0.04277201 0.116199344 0.07879403
000150 cd 94 6e 3d 10 27 f7 3d 49 12 97 bd 1b 77 c4 bc
       0.058247376 0.120679975 -0.073765345 -0.023982575
000160 c6 88 d1 bc 5b 87 bc bd 5f 2e e5 bc 30 ca 4b 3d
       -0.025577914 -0.092055045 -0.027976213 0.049753368
000170 01 24 59 bc 4a 62 2e be 38 03 88 3b f5 a0 69 3e
       -0.013253213 -0.17029682 0.0041507743 0.22815306
000180 27 db 16 3d 2d 09 b0 3d b9 bc a5 3c 53 65 81 ba
       0.036830094 0.085955 0.020231592 -0.0009872116
000190 60 cc da 3d cc 37 4f be 5e 4b 02 3d 78 11 a6 3d
       0.10683513 -0.20236129 0.031810157 0.08108801
0001a0 d8 29 ec 3b ae d6 a5 bd 30 24 93 bd 5a 8c 79 bd
       0.0072071366 -0.080975875 -0.071846366 -0.060924865
0001b0 13 2b f3 bc f0 b6 7a bd 13 4d 82 3d 36 a1 bb 3c
       -0.029683625 -0.06120962 0.06362357 0.02290402
0001c0 9d 53 de 3d 12 ec 15 3c 95 7f 95 3d c1 81 41 3e
       0.10855792 0.009150522 0.07299725 0.18897153
0001d0 4c 89 81 3d d2 0e b6 3c 89 5b c1 ba 14 7b b2 3b
       0.063250154 0.022223864 -0.0014752011 0.005446801
0001e0 1b fb 8a bd 88 ea 68 bb cc 75 a8 3c b4 4d 24 3e
       -0.06786176 -0.0035540182 0.020563982 0.16045266
0001f0 75 40 64 3e 51 4a 55 3e 61 2b c8 bc 96 63 b1 3c
       0.22290213 0.2082913 -0.024434747 0.021653932
000200 0f 48 b7 3d 77 af 8b 3d eb 45 05 3d 87 b1 7b 3d
       0.08949291 0.06820577 0.032537382 0.0614486
000210 b4 f4 ab bc 82 85 1c be 8c 8a 5e 3b 67 f5 5f bc
       -0.020990707 -0.15285304 0.0033957092 -0.013669348
000220 6b 72 04 3d 45 61 c5 bd ee ae 21 bc 00 35 4d 3e
       0.03233568 -0.09637693 -0.009868367 0.20039749
000230 5c e4 9a bb 26 f5 90 bb 2a d9 65 bc 0f 44 d0 bc
       -0.0047269296 -0.004423755 -0.014028827 -0.025423078
000240 00 49 12 3e f9 37 f8 3c de 8b 0a 3d dd 85 82 3d
       0.1428566 0.030300127 0.033824794 0.06373189
000250 08 b4 62 bb d4 48 a4 bc 9c 87 fe 3d b3 76 92 3c
       -0.003459217 -0.020054258 0.12428209 0.017878866
000260 71 b5 ca 3d c6 d1 e6 3b b9 2f bb 3d ab ab b0 bd
       0.098978885 0.00704405 0.09139962 -0.08626493
000270 8b db ab 3d ec ad 35 bd c6 fd f9 3c 41 6e c8 bc
       0.08391484 -0.044355318 0.030516516 -0.024466636
000280 bc 32 2c bb 7f 91 83 bd bc 27 59 3d d7 ab 1a bd
       -0.0026275357 -0.064242356 0.05301641 -0.037761535
000290 52 7b 44 be 3c e7 bc 3b ef ab 2e bb 8f 20 1a 3e
       -0.19187668 0.00576487 -0.0026652773 0.15051483
0002a0 0e 27 00 3e 3d 22 3e bc de 2a 5a bd 9e 9b 9e 3d
       0.12514898 -0.011604843 -0.053263538 0.077445254
0002b0 19 9f 31 bd 24 99 af 3d e2 d7 f7 bc 1a 2c 73 3d
       -0.043364618 0.08574131 -0.030254308 0.05936823
0002c0 16 23 3d be 48 bd b1 bd 2c ab 26 be fc 32 d1 bc
       -0.18470415 -0.08678681 -0.16276234 -0.025537007
0002d0 46 26 b2 bd bc c3 3d bb 26 e6 ce bd fa 1f 18 3e
       -0.08698706 -0.0028955778 -0.10102491 0.14855948
0002e0 d5 07 b2 bd 5c f6 20 bc f5 a7 1e 3d 76 cb 32 3d
       -0.086929 -0.009824362 0.038734395 0.043651067
0002f0 6b f7 46 be fd 3f 7b bd cd 79 4c 3d e0 73 a9 bd
       -0.1943032 -0.06134032 0.049920846 -0.082740545
000300 09 72 0f be b6 85 71 bd 4a 1b da 3d 3c 55 05 3e
       -0.14008345 -0.058965407 0.10649736 0.13020796
000310 9c fe 8e bd b5 32 83 3c 11 5b a6 bc 19 66 77 bd
       -0.06982157 0.01601539 -0.020307096 -0.060400102
000320 ae cf 1b bd 04 3e 0b bd b2 fd 8e bc 08 af 00 be
       -0.038039856 -0.03399469 -0.017454956 -0.12566769
000330 f5 ae 3d 3d 1b d0 f7 3d 5d f1 3d be f3 f0 07 bc
       0.04630943 0.1210024 -0.18549104 -0.008297193
000340 06 6e 44 3d 16 da 1e 3e f4 b3 6d 3b 1a 2f 44 be
       0.04795649 0.1551288 0.003627059 -0.19158593
000350 fc 22 c6 3d 1d 54 96 3c 6a 15 38 be 52 72 da 3d
       0.096746415 0.018350655 -0.17976919 0.10666336
000360 03 a5 15 3e 78 0e 1b be b3 0d 89 be a9 23 19 3e
       0.14613728 -0.15142238 -0.26768264 0.1495501
000370 94 c7 32 bc 44 33 4d 3d 9d 45 be 3c 1a 54 fd bd
       -0.010911841 0.05009772 0.023226554 -0.12369557
000380 a5 29 81 bd 5a b2 e6 bc 94 71 3b 3d bd 37 1c be
       -0.06306771 -0.028161217 0.045762613 -0.15255637
000390 0b aa f0 bd f9 c5 2c be 61 03 ac 3d db cb e5 3d
       -0.11751183 -0.16872396 0.08399082 0.11220523
0003a0 2a a1 ca 3c 1d dc ee bd 59 38 16 3e 44 f7 55 3e
       0.024735052 -0.11663077 0.14669932 0.20895106
0003b0 3e 29 d7 bc 44 e8 80 bc 36 24 a9 bc 9b 45 da 3d
       -0.026264783 -0.015735753 -0.02064715 0.106578074
0003c0 12 7c de 3d 3b e0 01 bb d9 5b b0 3d 45 4f 12 be
       0.10863508 -0.001981749 0.086112686 -0.14288051
0003d0 3c 39 b9 bd 9a 1d dc 3d d6 07 4e 3e 24 e4 fa 3d
       -0.0904412 0.107478335 0.20120177 0.122505456
0003e0 02 9d b2 bd c7 94 8a bd 68 43 a6 3d 7e 97 80 bd
       -0.08721353 -0.06766658 0.081183255 -0.06278895
0003f0 e5 33 f5 3d e0 4f d2 bd 83 bc d0 3d 22 1c 11 3c
       0.11972789 -0.10269141 0.10192206 0.008856805

G.0.linears.2.bias f4 [10]
000000 34 22 da bd ad e4 59 bd 44 b2 9c 3d 2e e2 f2 bc
       -0.10651055 -0.053196598 0.07651189 -0.029648867
000010 d6 9d d3 3d c5 97 c5 bd 7f 5c 53 bd 3e 4b 66 3d
       0.10332839 -0.09648088 -0.051601883 0.0562241
000020 92 fd 76 bd 2d cf d9 3d
       -0.060300417 0.10635219
