para_save/00042params.pth (torch, 118145 bytes, 76 tensors)

F.linears.0.weight f4 [32, 20]
0	0xbd646146	-0.05575683
1	0xbdabe3c1	-0.0839305
2	0xbe28b25a	-0.16474286
3	0x3cb51eb4	0.022109367
4	0xbda0ea1e	-0.07857154
5	0xbd367d62	-0.044553168
6	0xbe0b7da1	-0.13622142
7	0x3dd1b025	0.10238675
8	0xbdc437f1	-0.095809825
9	0xbd38bbe6	-0.04510107
10	0xbcae6655	-0.02128903
11	0xbcea974e	-0.0286366
12	0x3da59184	0.080843955
13	0xbe152937	-0.14566503
14	0x3c3bccfe	0.011462448
15	0xbb5fdbdc	-0.0034158146
16	0x3d808ad1	0.06276477
17	0x3e04e1e8	0.12976801
18	0xbd8d43c4	-0.06897691
19	0x3dfbfdd4	0.12304273
20	0x3e230845	0.15921123
21	0xbdfbcf6a	-0.122954205
22	0xbd07ec5f	-0.033184405
23	0xbd5c677e	-0.053809635
24	0xbd759571	-0.05995697
25	0xbe243a66	-0.16037902
26	0x3ca6e286	0.020371687
27	0x3db1ee31	0.086880095
28	0x3d14680d	0.036232043
29	0xbc6f9e95	-0.014625211
30	0x3e11d1fc	0.14240259
31	0xbd3253a4	-0.043536797
32	0xbe31806f	-0.1733415
33	0xbc0e6bcb	-0.008692692
34	0x3d9ff930	0.078112006
35	0x3d3f612b	0.046723526
36	0x3d0a7556	0.033803307
37	0x3c8a3323	0.016870087
38	0xbd5431e3	-0.05180539
39	0x3bc0d9ad	0.005885324
40	0xbdc77840	-0.09739733
41	0x3d95eb73	0.07320299
42	0xbdd09ba2	-0.101859346
43	0xbe42069c	-0.18947834
44	0xbe06eddb	-0.13176672
45	0xbe14f795	-0.1454757
46	0x3e0e4cd4	0.13896495
47	0x3d7fbc17	0.062435236
48	0x3de56cd3	0.11202397
49	0x3cd28cf1	0.025701972
50	0x3de2345d	0.11045144
51	0xbdb19130	-0.086702704
52	0xbd840739	-0.0644669
53	0xbe49595d	-0.19662996
54	0x3dcc3ba3	0.09972312
55	0x3d12a381	0.03580046
56	0x3da0229b	0.078191005
57	0xbe457580	-0.19283104
58	0xbdb69f06	-0.0891705
59	0x3d197e32	0.037473865
60	0x3d1a67cf	0.037696656
61	0xbddebbd9	-0.10875673
62	0x3c34ee63	0.011043164
63	0xbd997abd	-0.074941136
64	0x3e0d5a88	0.13804066
65	0xbda5b671	-0.080914386
66	0x3c4275a6	0.01186887
67	0xbcdaecb1	-0.026724191
68	0x3b3fa8cc	0.0029244898
69	0x3e11bd88	0.14232457
70	0xbc850f55	-0.016242662
71	0xbe216bc3	-0.15763764
72	0xbd8c518b	-0.068514906
73	0x3bbbcd3e	0.005731254
74	0x3c9168a0	0.017750084
75	0x3dc96ff5	0.09835807
76	0x3ad45ca9	0.0016201931
77	0x3b0b3215	0.0021239568
78	0xbe2c9385	-0.16853149
79	0x3d693d5f	0.056943294
80	0x3dbdf7bb	0.092757665
81	0xbb887b18	-0.0041650645
82	0xbe1018be	-0.14071938
83	0x3dba3877	0.09092801
84	0x3d150231	0.036379043
85	0xbc8a67c0	-0.016895175
86	0x3cf1acef	0.029501406
87	0xbd778633	-0.060430717
88	0x3d341584	0.04396583
89	0x3e226215	0.15857728
90	0xbd0487ca	-0.03235606
91	0xbdb0b546	-0.08628325
92	0xbe3539c3	-0.17697816
93	0xbddcc0bc	-0.10778949
94	0x3e2ef716	0.17086443
95	0xbcf79348	-0.030221596
96	0x3e4b20b3	0.19836693
97	0xbcf49e12	-0.02986053
98	0xbdef41bb	-0.11682459
99	0x3b51b781	0.0032000246
100	0xbd4234dc	-0.047413692
101	0x3e3d3e67	0.18480836
102	0xbe2f3397	-0.17109524
103	0xbdbf927a	-0.0935411
104	0x3db0eead	0.08639274
105	0xbd2cecb1	-0.042217914
106	0x3d9575e8	0.072978795
107	0x3e46cf72	0.19415072
108	0x3e0d9e45	0.13829906
109	0xbc9463ec	-0.018114053
110	0x3cb91e92	0.022597585
111	0xbd1414aa	-0.03615252
112	0xbcede932	-0.02904186
113	0xbcf3e3c7	-0.029771699
114	0xbd0fb8e4	-0.035088435
115	0x3d4e6deb	0.050397795
116	0x3e520eca	0.20513454
117	0x3c831a76	0.016003828
118	0x3d596d33	0.053082656
119	0xbd0e9b47	-0.034816053
120	0x3dfc6f18	0.12325877
121	0x3c9c6188	0.019089475
122	0xbdbeed94	-0.09322658
123	0xbd51d756	-0.05123075
124	0x3d386db5	0.0450265
125	0x3ce43629	0.027857857
126	0x3e56b757	0.20968376
127	0x3d698c65	0.057018656
128	0x3d6ca608	0.057775527
129	0x3dfb5b2c	0.12273249
130	0x3e109c49	0.14122118
131	0x3d9d295a	0.07673903
132	0xbd3fd51c	-0.046834096
133	0xbdf94423	-0.12171199
134	0x3e3910e6	0.18072852
135	0x3e19ee33	0.15032272
136	0xbe43e135	-0.19128878
137	0xbd326059	-0.043548916
138	0xba2624be	-0.00063378725
139	0x3d55e489	0.0522199
140	0x3dd5ebbd	0.10445354
141	0xbd21adea	-0.039472498
142	0x3e080248	0.1328212
143	0x3cc15cba	0.023603786
144	0xbc08a4b8	-0.008340053
145	0x3d29a4fb	0.041417103
146	0xbd615cd9	-0.055020187
147	0x3b83d969	0.00402372
148	0x3da5a574	0.08088198
149	0xbe0aa25f	-0.13538502
150	0xbdb5ae35	-0.08871118
151	0x3daccc84	0.08437446
152	0xbc07b3e2	-0.0082826335
153	0xbcd0357d	-0.02541613
154	0x3d573876	0.05254408
155	0x3c97d70d	0.018535161
156	0x3c4ab9d4	0.012373406
157	0x3ceab76b	0.028651914
158	0xbe3dfb72	-0.1855295
159	0x3dbecb59	0.09316129
160	0xbd1ddaa8	-0.038538605
161	0x3df17e35	0.1179165
162	0x3d4cec0e	0.050029807
163	0x3bad25a6	0.005284029
164	0xbdcd8dc4	-0.10036805
165	0x3dae3b10	0.08507359
166	0xbe1d2d52	-0.1534932
167	0xbcbc8c75	-0.023016194
168	0xbdc650b6	-0.09683363
169	0x3d989aa2	0.07451369
170	0x3e06640e	0.13124105
171	0xbdf87d9f	-0.12133335
172	0x3c0164db	0.007897581
173	0x3c564454	0.013077814
174	0xbd799159	-0.06092963
175	0x3d8b2e27	0.06795912
176	0x3d841ad9	0.06450433
177	0xbdda71c8	-0.10666233
178	0xbc00e53a	-0.007867152
179	0x3e0679a9	0.13132347
180	0x3d089818	0.033348173
181	0xbd860aa5	-0.06544999
182	0x3dbd7753	0.09251275
183	0xbd718ce8	-0.05897227
184	0xbcb89034	-0.022529699
185	0xbcfa9ead	-0.03059324
186	0xbdb0c6da	-0.08631678
187	0x3e81a4e8	0.25321126
188	0x3e0badaa	0.13640466
189	0xbdb4147b	-0.08792969
190	0x3a82a829	0.0009968329
191	0x3c1afabf	0.009459197
192	0x3d75784d	0.05992918
193	0xbd937d5e	-0.07201646
194	0x3d3d2e99	0.046187017
195	0xbd74c3d5	-0.059757072
196	0xbdbc9da6	-0.092097566
197	0xbe03286b	-0.12808387
198	0xbe0346ea	-0.1282002
199	0xbd0be558	-0.034154266
200	0x3d18ba46	0.03728702
201	0xbc90c2c8	-0.017671004
202	0x3c2019af	0.009771748
203	0xbc35eaa0	-0.011103302
204	0xbdd2782a	-0.10276826
205	0x3d02c7bf	0.031928774
206	0x3daf3ef5	0.0855693
207	0xbda704a6	-0.081551835
208	0xbb7ee11d	-0.0038891502
209	0x3cdb9ed2	0.02680913
210	0xbd950695	-0.07276646
211	0x3b98426b	0.0046465895
212	0xbe08e535	-0.13368686
213	0x3c933e27	0.017973972
214	0x3e26e8f8	0.16299808
215	0x3d65a12b	0.056061905
216	0x3e09cedf	0.13457821
217	0xbe233eb9	-0.15941896
218	0x3d831eef	0.064023845
219	0x3d5350b4	0.051590636
220	0xbdbbffa0	-0.09179616
221	0xbd36226f	-0.044466432
222	0xbd0b22da	-0.033968784
223	0xbc8ba696	-0.017047208
224	0xbd89ffae	-0.0673822
225	0x3d5e502a	0.05427567
226	0x3dc7a6a0	0.09748578
227	0xbd7fe369	-0.062472735
228	0xbc8dc036	-0.017303567
229	0xbe46b96a	-0.19406667
230	0xbb41f830	-0.0029597394
231	0xbe731a52	-0.23740509
232	0x3e0fe1dc	0.14051002
233	0xbce7ab6b	-0.02827998
234	0xbcea5c76	-0.028608542
235	0x3dc36039	0.095398374
236	0x3c3daaee	0.011576397
237	0xbd340279	-0.04394767
238	0xbe652bae	-0.22379944
239	0x3e24d79d	0.16097875
240	0x3e082ef9	0.13299169
241	0xbd07592d	-0.03304403
242	0xbc6df583	-0.014523867
243	0xbd98f0a5	-0.07467774
244	0x3d032592	0.03201825
245	0x3e2f7488	0.17134297
246	0x3c7d9d86	0.015479451
247	0x3d7c2637	0.061559882
248	0xbbb8919a	-0.0056325914
249	0xbdeecacb	-0.116597734
250	0x3c9f3eae	0.019439068
251	0xbdee1773	-0.11625566
252	0xbd02b225	-0.031908173
253	0xbe2aa543	-0.16664605
254	0x3ca155f1	0.0196943
255	0xbb2d27cc	-0.0026421426

F.linears.0.bias f4 [32]
0	0xbd280472	-0.041019864
1	0x3cde9c7f	0.027174233
2	0x3d846dd4	0.064662606
3	0xbdc2e347	-0.09516006
4	0xbd8fc590	-0.07020104
5	0xbd2968fa	-0.04135988
6	0xbdb896d3	-0.090131424
7	0x3cdfe269	0.02732964
8	0x3c01f550	0.007932022
9	0x3da6ef77	0.08151143
10	0xbd66d774	-0.056357816
11	0xbca6dbf1	-0.020368548
12	0xbd078542	-0.03308607
13	0xbbb7423a	-0.0055926116
14	0xbbe7fce3	-0.007079707
15	0x3c6a61d3	0.01430555
16	0x3be36e70	0.0069406554
17	0x3dad5584	0.084635764
18	0x3d93ccb2	0.07216777
19	0x3cd19121	0.025581898
20	0xbdef2df5	-0.116786875
21	0xbc5334b8	-0.012890987
22	0xbdd03633	-0.10166588
23	0xbd5951ce	-0.05305653
24	0xbcfd6f52	-0.03093687
25	0xbc8ff756	-0.017573994
26	0xbc878302	-0.016541962
27	0xbd3f1aa0	-0.04665625
28	0x3ac28d52	0.0014843142
29	0xbb80bddf	-0.0039288844
30	0x39a8dccf	0.00032207972
31	0x3b79d2fe	0.0038120146

F.linears.1.weight f4 [32, 32]
0	0xbd25a1b6	-0.040437423
1	0x3de74458	0.112923324
2	0x3e9d08a9	0.3067067
3	0xbdb954e7	-0.09049397
4	0xbde8ab63	-0.113608144
5	0x3d372ca3	0.044720303
6	0x3c142e6e	0.009044273
7	0xbd9cf51d	-0.07663939
8	0xbd05ac0e	-0.032634787
9	0x3b9ae619	0.004727137
10	0x3cba0c2c	0.022710882
11	0x3c7ef102	0.01556039
12	0xbd9ea3de	-0.07746099
13	0xbdf3cdfe	-0.11904524
14	0x3e1f3e7d	0.15551181
15	0x3dbed4f5	0.09317962
16	0xbd35d0e4	-0.044388667
17	0xbcec210b	-0.02882435
18	0x3ce19930	0.027538866
19	0x3df2211b	0.118227206
20	0xbd9f2b85	-0.077719726
21	0x3cd8d11b	0.026466897
22	0x3e6b67b6	0.22988781
23	0xbc9f5928	-0.019451693
24	0x3d32f5df	0.043691512
25	0x3de62e94	0.11239353
26	0xbcf95aed	-0.030438865
27	0xbdc60abf	-0.096700184
28	0xbe1dd2c2	-0.15412429
29	0x3d15a9d3	0.03653891
30	0xbbb67b96	-0.005568932
31	0x3d4ca20c	0.049959227
32	0x3de32ca6	0.110925004
33	0x3d37d1bf	0.044877764
34	0x3e8e73a5	0.27822605
35	0x3d40a782	0.047034748
36	0xbce26c56	-0.02763955
37	0x3df62d50	0.120203614
38	0x3c95df59	0.018294977
39	0xbd98f46a	-0.07468493
40	0x3d25ea22	0.04050649
41	0x3c976083	0.018478638
42	0x3e130f8b	0.14361398
43	0xbe483558	-0.19551599
44	0xba89481c	-0.0010473761
45	0xbc85fc84	-0.01635576
46	0xbde85328	-0.11343986
47	0x3d68b93b	0.056817275
48	0x3d742b8d	0.059611846
49	0x3da75327	0.08170157
50	0xbe23dc73	-0.16002063
51	0x3b043e33	0.0020178675
52	0xbcae37a2	-0.021266762
53	0x3d2f36e2	0.04277695
54	0x3cedcaea	0.029027421
55	0x3d839cf7	0.06426423
56	0xbe0ada2f	-0.13559793
57	0xbdb36e6e	-0.08761297
58	0x3dd671c3	0.10470917
59	0x3e2ee72b	0.17080371
60	0xbd4c16e1	-0.049826507
61	0x3de5fe19	0.11230106
62	0x3de8daef	0.11369883
63	0x3dcbdfe6	0.099548146
64	0xbd6b725f	-0.05748212
65	0x3cfe9b41	0.03107989
66	0xbc2f24c2	-0.010689916
67	0xbd17a8e1	-0.03702629
68	0xbc72ce1c	-0.014819648
69	0xbbe0d06a	-0.0068607824
70	0x3cbeec17	0.023305936
71	0xbe2eef02	-0.17083362
72	0x3d494531	0.04913825
73	0xbd605a5f	-0.054773685
74	0x3d9d58a4	0.076829225
75	0x3e298c9f	0.16557549
76	0x3e432d5a	0.19060269
77	0xbbe13b56	-0.0068735285
78	0xbe4a8388	-0.19776738
79	0x3c314700	0.01082015
80	0x3e40250f	0.18764137
81	0xbd9d16b6	-0.076703474
82	0xbd1d9431	-0.038471404
83	0x3d9886c6	0.07447581
84	0x3e123696	0.14278635
85	0x3e19fe32	0.15038374
86	0xbc102e33	-0.008800077
87	0xbda5785b	-0.080795966
88	0xbe4ec903	-0.20193867
89	0x3d98bd81	0.0745802
90	0xbe763dfb	-0.24047081
91	0x3e281ccd	0.16417237
92	0x3d8cb421	0.06870294
93	0x3d75e90e	0.06003671
94	0x3df5c7ac	0.12000975
95	0xbd328db7	-0.04359218
96	0xbdf45413	-0.119300984
97	0xbcb811d2	-0.022469435
98	0x3cd3f5d1	0.02587405
99	0x3dd3b824	0.103378564
100	0x3baa2242	0.005192072
101	0xbe36fbe5	-0.17869528
102	0x3d3fc361	0.046817187
103	0x3c7be232	0.015373753
104	0x3e3f9015	0.18707307
105	0xbe4759ed	-0.19467898
106	0x3e277e47	0.16356765
107	0xbdf96bcd	-0.121787645
108	0x3d3138f8	0.04326722
109	0xbde8ca89	-0.113667555
110	0xbe06bd60	-0.13158178
111	0xbe81bf8f	-0.2534146
112	0xbe0db877	-0.13839899
113	0xbdc379a7	-0.09544688
114	0xbdf5de1a	-0.12005253
115	0xbe759607	-0.23983012
116	0x3da8732c	0.08225092
117	0x3dded024	0.108795434
118	0xbdd7af88	-0.10531527
119	0x3e4f342b	0.20234744
120	0x3d60222b	0.054720085
121	0x3e0ba63d	0.13637634
122	0xbb5a463d	-0.0033306025
123	0xbd8fee11	-0.070278294
124	0x3bed86e0	0.0072487444
125	0xbd1f65f3	-0.038915586
126	0x3e2713ee	0.16316196
127	0xbdc3c02b	-0.095581375
128	0xbbbeb050	-0.005819358
129	0x3e25994e	0.16171762
130	0x3dd3d1b3	0.10342731
131	0xbddcf34c	-0.10788593
132	0x3e001295	0.12507088
133	0xbcb5f7ea	-0.022212941
134	0xbc7b0a8c	-0.015322339
135	0x3ce9e1d3	0.028550064
136	0xbd5cd083	-0.05390979
137	0x3a002fc5	0.0004889931
138	0x3d913f57	0.07092159
139	0x3d6fb979	0.05852649
140	0xbde3f1a4	-0.11130074
141	0xbe24e9ba	-0.16104785
142	0xbc39e7eb	-0.011346797
143	0xbdd13f72	-0.10217179
144	0xbe30a798	-0.17251432
145	0x3c4e463f	0.01258999
146	0x3da8b0f5	0.08236877
147	0x3c2216cd	0.009893131
148	0xbd9cdb84	-0.07659057
149	0x3d85012e	0.06494366
150	0xbb8e20ef	-0.004337422
151	0x3b73e5f9	0.0037215932
152	0x3df89a7c	0.121388406
153	0xbcefd926	-0.02927835
154	0xbe0babeb	-0.136398
155	0x3e354b50	0.1770451
156	0x3ce5a189	0.028031128
157	0xbdbf1a96	-0.09331243
158	0x3da4289b	0.080155574
159	0xbc17b110	-0.009258524
160	0xbdcdac78	-0.100426614
161	0xbc4b2f06	-0.012401348
162	0xbe030437	-0.12794577
163	0x3d8efc90	0.06981766
164	0xbdf14785	-0.117812194
165	0xbc983565	-0.018580148
166	0xbe4c6384	-0.19959837
167	0xbe54662f	-0.20742105
168	0x3aaf34f8	0.0013367226
169	0xbb7f09c0	-0.0038915724
170	0xbde1834f	-0.11011373
171	0xbe03fab9	-0.12888612
172	0x3dd4cb91	0.1039039
173	0x3daa5881	0.08317662
174	0x3d432f76	0.047652684
175	0x3e0d0d97	0.13774715
176	0xbd4d45b3	-0.0501153
177	0xbcd2f264	-0.025750346
178	0xbcc0aa78	-0.023518786
179	0xbdcb6c8c	-0.09932813
180	0xbda04c35	-0.07827035
181	0x3c29ced5	0.010364254
182	0x3d148739	0.03626177
183	0xbd17bc49	-0.037044797
184	0xbcb245e9	-0.021761851
185	0x3db232e0	0.0870111
186	0x3d9f1c7e	0.07769106
187	0x3ce24597	0.027621074
188	0x3d441b90	0.04787785
189	0x3d9aa155	0.07550303
190	0xbdcde928	-0.10054237
191	0xbdb72e63	-0.089443944
192	0xbc8006a0	-0.015628159
193	0xbde2e8b2	-0.11079539
194	0xbde747da	-0.112930015
195	0xbd49af59	-0.04923949
196	0xbda219af	-0.07915055
197	0xbbf71ed2	-0.007541516
198	0x3dcb9df7	0.09942239
199	0xbc809bb0	-0.015699238
200	0xbe2d12c7	-0.16901694
201	0xbdfd3476	-0.12363522
202	0x3d917346	0.07102065
203	0xbe42b0d8	-0.19012773
204	0x3d8071cd	0.06271706
205	0xbdbbf579	-0.091776796
206	0xbdf597fe	-0.11991881
207	0x3e3da103	0.18518452
208	0xbd46aa80	-0.048502445
209	0x3def5037	0.11685222
210	0xbd52679c	-0.05136834
211	0xbd7f8696	-0.06238421
212	0x3c8114ae	0.015756931
213	0xba91fe66	-0.0011138439
214	0x3d783251	0.06059486
215	0xbe0c0be0	-0.13676405
216	0xbce6b381	-0.028161766
217	0xbe07a778	-0.13247478
218	0x3cbd0aa5	0.023076365
219	0xbc7e8288	-0.015534051
220	0xbd686261	-0.056734446
221	0x39b3549e	0.00034204585
222	0xbbb92817	-0.005650531
223	0xbdf4a71b	-0.11945935
224	0x3db44a10	0.08803189
225	0x3d33501e	0.043777578
226	0xbe2b7033	-0.1674202
227	0x3b8d2bdb	0.0043082065
228	0xbd4c2970	-0.049844205
229	0x3de1537c	0.110022515
230	0x3d8a742c	0.06760439
231	0x3d6d7fac	0.057983086
232	0x3d85ccda	0.06533213
233	0xb9d1f3cc	-0.0004004523
234	0x3d2a2146	0.04153564
235	0xbd6f4fc0	-0.058425665
236	0xbdbee31b	-0.09320661
237	0xbe199b76	-0.1500071
238	0x3d328c30	0.043590724
239	0xbd464f9a	-0.048415758
240	0xbd9fc604	-0.0780144
241	0x3d9b9218	0.075962245
242	0x3d859274	0.06522074
243	0xbe2bf004	-0.16790777
244	0x3deb39ca	0.11485632
245	0x3d6654c6	0.05623319
246	0x3e7951df	0.24347638
247	0xbd0f8589	-0.03503946
248	0xbdae9600	-0.08524704
249	0xbc46b016	-0.012126943
250	0x3c13d4e3	0.009022924
251	0x3cd78335	0.026307682
252	0x3dbf131b	0.09329816
253	0x3d6d0b3a	0.057872035
254	0x3db8ec46	0.090294406
255	0x3e69d8ce	0.2283661

F.linears.1.bias f4 [32]
0	0xbca85d40	-0.020552278
1	0xbcf1f176	-0.029534083
2	0xbd142eb9	-0.03617737
3	0x3d0638e0	0.032769084
4	0x3df3b9fa	0.119007066
5	0x3c42b502	0.011883976
6	0xbc815607	-0.015788091
7	0xbd1607de	-0.036628596
8	0x3dbbc6e9	0.091687985
9	0xbd2f94cf	-0.042866524
10	0x3c9985ab	0.018740496
11	0xbdc5b1f8	-0.096530855
12	0x3c7380cd	0.0148622515
13	0x3de4869c	0.11158487
14	0xbc2494e9	-0.010045269
15	0xbdda3c01	-0.10655976
16	0x3d221948	0.03957489
17	0x3d834a9c	0.06410715
18	0xbd859ae4	-0.06523684
19	0x3da98060	0.08276439
20	0xbb0e1c85	-0.002168448
21	0xbd47d27e	-0.048784725
22	0x3d130b56	0.035899483
23	0xbdca23b3	-0.0987009
24	0x3c7bd4fe	0.0153706055
25	0x3d8e809d	0.06958125
26	0x381e09d0	3.7679274e-05
27	0x3dad572b	0.084638916
28	0xbd61bae9	-0.055109892
29	0xbd4bfd99	-0.049802396
30	0x3d1e7840	0.038688898
31	0x3dfa5ae1	0.12224365

F.linears.2.weight f4 [10, 32]
0	0x3cbef103	0.023308283
1	0xbdaa7166	-0.0832241
2	0x3d50ebfd	0.051006306
3	0xbb91c77b	-0.0044488288
4	0xbdc577ae	-0.09641968
5	0x3e203dcd	0.15648575
6	0x3e7937cd	0.24337693
7	0x3d6a3751	0.05718166
8	0x3de32484	0.11090949
9	0xbe018f48	-0.12652314
10	0x3d84c814	0.064834744
11	0xbcc800ee	-0.024414506
12	0x3d341ef6	0.04397484
13	0xbe0066f9	-0.12539281
14	0x3d42faee	0.047602586
15	0x3e3411c9	0.1758491
16	0xbacc7ef6	-0.0015601802
17	0x3a7c0a59	0.0009614579
18	0x3e37c673	0.17946796
19	0x3e10b381	0.14130975
20	0xbc801f63	-0.015639966
21	0x3e50ebbc	0.20402426
22	0xbc2d691d	-0.010584143
23	0x3d481397	0.048846807
24	0xbe12de92	-0.14342716
25	0x3c807be8	0.015684083
26	0x3e118eef	0.14214681
27	0xbd86eee5	-0.06588534
28	0x3c0c12f5	0.008549442
29	0xbd1eaddb	-0.03874002
30	0xbd3bd899	-0.04586086
31	0xbdb0eb24	-0.086385995
32	0xbc30bc26	-0.010787046
33	0xbdbd5b5e	-0.092459425
34	0x3d64b5fa	0.05583761
35	0x3e12456a	0.14284292
36	0xbd3766f1	-0.044775907
37	0x3dc7397d	0.09727762
38	0xbdad40df	-0.08459639
39	0x3e96e7e6	0.294738
40	0x3d6c61f0	0.057710588
41	0xbe2e6800	-0.1703186
42	0x3da4bc66	0.08043747
43	0x3d02e684	0.031958118
44	0x3db45d96	0.088069126
45	0xbdad9ef3	-0.08477583
46	0xbc18d54c	-0.009328198
47	0x3d8b43e9	0.06800062
48	0xbdebbb74	-0.11510363
49	0x3d972906	0.073808715
50	0x3d364805	0.044502277
51	0x3c874b63	0.01651544
52	0x3d4895ef	0.048971113
53	0xbe3e725a	-0.18598309
54	0xbe524c56	-0.20536932
55	0x3e131fc0	0.1436758
56	0x3db76c0a	0.08956154
57	0xbdb4853d	-0.08814476
58	0x3dc7a890	0.097489476
59	0xbe1492f2	-0.1450918
60	0xbe1b438c	-0.15162486
61	0x3d001206	0.03126719
62	0x3de8209a	0.11334343
63	0xbe684490	-0.22682405
64	0x3de566fc	0.11201283
65	0x3e27cab3	0.16385917
66	0xbe878f3d	-0.2647647
67	0xbdfeeb27	-0.124471955
68	0xbce516bb	-0.02796494
69	0x3d30e7d6	0.043189846
70	0xbcbad898	-0.022808358
71	0x3dbe5509	0.09293563
72	0x3d30db61	0.043177966
73	0xbd18057b	-0.0371146
74	0xbdebba28	-0.11510116
75	0x3b8839ca	0.0041572796
76	0x39a04b5c	0.00030573725
77	0x3c847c4f	0.016172556
78	0x3c6ac96d	0.01433025
79	0xbd474349	-0.048648153
80	0xbe136063	-0.14392237
81	0x3ccca005	0.024978647
82	0x3becf452	0.0072312737
83	0x3d921d3f	0.071344845
84	0xbb53c51c	-0.0032313531
85	0x3da2cacf	0.07948839
86	0xbe0885b9	-0.13332261
87	0xbc5db274	-0.013531316
88	0xbd166b8a	-0.03672365
89	0x3e22501a	0.15850869
90	0x3da8aef0	0.08236492
91	0xbe4c0e37	-0.19927298
92	0xbde220e4	-0.1104143
93	0x3e039466	0.12849578
94	0xbbdb8984	-0.0066997427
95	0xbe0e7a64	-0.13913876
96	0x3e0ad8fd	0.13559337
97	0x3e8051e4	0.25062478
98	0xbd141a0f	-0.036157664
99	0xbe11076d	-0.14162989
100	0x3dd692a0	0.10477185
101	0x3d942c5f	0.072350256
102	0xbe0e530d	-0.13898869
103	0xbccb9fad	-0.024856413
104	0x3dce4717	0.10072153
105	0x3c6c5318	0.014424108
106	0x3d4460e4	0.047943965
107	0xbe8c44aa	-0.27396137
108	0x3e26b4f0	0.1627996
109	0x3c02498a	0.007952103
110	0xbdba6a25	-0.09102277
111	0xbe25aa61	-0.16178276
112	0xbd9f0947	-0.077654414
113	0xbcb88257	-0.022523088
114	0x3e2b1a36	0.16709217
115	0x3e402ee9	0.18767895
116	0xbd59a0ee	-0.05313199
117	0xbd4328eb	-0.047646444
118	0x3dc9e813	0.09858718
119	0x3be19ef8	0.0068854056
120	0xbc38c2ae	-0.011276884
121	0xbd433967	-0.047662165
122	0x3d57fe78	0.052732915
123	0x3d3687fa	0.04456327
124	0x3e040344	0.1289187
125	0x3ca71005	0.02039338
126	0x3c91113a	0.01770841
127	0xbdec69a7	-0.11543589
128	0xbe45575c	-0.19271606
129	0x3d912ff9	0.07089228
130	0xbd6fd46b	-0.058552187
131	0xbde6c5d5	-0.11268202
132	0xbc9f511b	-0.019447854
133	0xbd186679	-0.0372071
134	0xbd6bd9e7	-0.057580855
135	0x3e42293e	0.18961045
136	0x3ca67145	0.020317683
137	0xbcc94e59	-0.024573492
138	0x3ce82922	0.028339926
139	0x3e4d927d	0.20075412
140	0xbde3eb20	-0.11128831
141	0xbd836b49	-0.064169474
142	0x3b4bcf94	0.0031099068
143	0xbc016c16	-0.007899305
144	0xbe46fa4c	-0.19431418
145	0xbcad757a	-0.021174181
146	0xbde1332a	-0.10996087
147	0xbd8cbcbf	-0.06871938
148	0x3d4cf711	0.05004031
149	0x3da480f9	0.08032412
150	0xbd8ff7c4	-0.070296794
151	0xbe49cea1	-0.19707729
152	0xbdc4eacb	-0.09615096
153	0x3e5199c3	0.20468812
154	0x3dd02118	0.10162562
155	0xbd2d7495	-0.04234751
156	0x3d90fa9c	0.0707905
157	0x3df0deab	0.117612205
158	0xbe3f46cb	-0.18679349
159	0xbdca2dba	-0.09872003
160	0x3e14af9e	0.14520118
161	0x3ceb8eb4	0.02875457
162	0xbc649f7d	-0.013954041
163	0xbe6d56e7	-0.23177682
164	0x3cc726eb	0.02431055
165	0x3e5e7fa0	0.21728373
166	0xbd3270bd	-0.043564547
167	0x3d7c89ab	0.061654728
168	0xbcadfefc	-0.02123975
169	0xbd39904f	-0.04530364
170	0xbdabd688	-0.08390528
171	0x3da1843d	0.078865506
172	0x3d03e00d	0.032196093
173	0xbda0fc0d	-0.07860575
174	0xbd9129d2	-0.07088055
175	0x3d3bdcd0	0.04586488
176	0xbde13890	-0.109971166
177	0x3dfba31e	0.122869715
178	0xbbd86822	-0.0066042105
179	0x3c89aab7	0.016805036
180	0xbe2c7676	-0.16842064
181	0xbda5409a	-0.080689624
182	0x3e329a25	0.17441614
183	0x3e37dfdf	0.17956494
184	0xbbdabb95	-0.0066751936
185	0xbe181486	-0.14851579
186	0xbd805671	-0.062664874
187	0xbe258e29	-0.16167511
188	0xbdec92cc	-0.11551437
189	0xbc8acef2	-0.016944382
190	0xbc832e43	-0.01601327
191	0xbd1ecac8	-0.038767606
192	0x3d96efa7	0.07369929
193	0xbda39640	-0.07987642
194	0x3e3d0e34	0.1846245
195	0xbd80e268	-0.062931836
196	0x3d60d932	0.054894634
197	0x3e114728	0.141873
198	0x3dfd9d10	0.12383473
199	0x3d91886b	0.07106098
200	0x3dc3a059	0.09552068
201	0x3da255dd	0.07926533
202	0xbe5e5c27	-0.21714841
203	0xbc9558e3	-0.018230861
204	0xbd868cb3	-0.06569805
205	0xbd08dd46	-0.033414148
206	0x3c933cfa	0.017973412
207	0xbe2bd467	-0.16780244
208	0x3dabd1b1	0.08389605
209	0x3cd1ba49	0.025601523
210	0x3e0edde5	0.13951834
211	0x3c82b26c	0.015954219
212	0xbd954770	-0.07289016
213	0xbe158b2b	-0.1460387
214	0x3d3b4397	0.045718756
215	0xbb84b12e	-0.004049442
216	0x3df919a4	0.12163094
217	0x3d0eb687	0.03484204
218	0x3d8545dd	0.06507466
219	0xbd474153	-0.048646282
220	0x3c366ce1	0.011134357
221	0x3dc5fd75	0.09667484
222	0xbcbfc279	-0.023408161
223	0xbda41ad3	-0.08012929
224	0x3d74555b	0.059651714
225	0xbe1079af	-0.14108919
226	0x3c41acd0	0.011820987
227	0xbda30af5	-0.07961074
228	0x3d1a1852	0.03762085
229	0x3b58a229	0.003305564
230	0xbdf2c65f	-0.118542425
231	0x3dfc4dc3	0.12319519
232	0xbe2a094c	-0.16605109
233	0xbdfc2c8e	-0.12313186
234	0x3df809ae	0.12111221
235	0xbe073939	-0.13205422
236	0xbde0663a	-0.10956998
237	0x3c54eb86	0.012995606
238	0xbe0f9717	-0.1402248
239	0xbd9ed9f9	-0.07756419
240	0x3da7efd4	0.082000405
241	0x3e3de4e6	0.18544349
242	0x3cf0dd73	0.02940247
243	0x3e887ee6	0.26659316
244	0xbdca7ef8	-0.098874986
245	0x3ddca10e	0.10772906
246	0xbcba55d3	-0.022746002
247	0x3d7840ad	0.060608555
248	0xbe70f184	-0.23529631
249	0xbc36e8f3	-0.011163938
250	0xbcfcd18a	-0.030861635
251	0xbdb36392	-0.08759226
252	0x3df1d85c	0.118088454
253	0xbd368039	-0.044555876
254	0xbe0a1eb3	-0.13488273
255	0x3e65dda0	0.22447824

F.linears.2.bias f4 [10]
0	0x3c5e3291	0.013561861
1	0xbda9be59	-0.08288259
2	0x3d2e81fd	0.042604435
3	0xbb57f337	-0.0032951364
4	0xbd0ab4ab	-0.033863705
5	0xbd63cf10	-0.055617392
6	0xbb00173e	-0.0019545103
7	0x3daf29a9	0.08552868
8	0x3d92a1c1	0.07159758
9	0xbc3d2090	-0.011543408

G.0.linears.0.weight f4 [32, 10]
0	0xbd039a08	-0.032129318
1	0x3bb98384	0.00566143
2	0x3dd63ae5	0.10460452
3	0x3d81c910	0.06337178
4	0xbd21a837	-0.039467063
5	0x3c7e6b0d	0.015528453
6	0x3db048aa	0.086076096
7	0x3e2a6561	0.16640235
8	0xbd798ee4	-0.060927287
9	0xbdf66b7f	-0.12032222
10	0x3e123e95	0.14281686
11	0x3c63f7ca	0.013914058
12	0xbe162e1f	-0.14666031
13	0xbbb1327c	-0.0054076295
14	0xbe230fba	-0.15923968
15	0x3d4a21b0	0.049348533
16	0xbd36d6dd	-0.044638503
17	0xbdca17c3	-0.098678134
18	0xbd56638b	-0.052341025
19	0xbd17f9e5	-0.037103552
20	0xbca8fb35	-0.020627597
21	0x3b7191da	0.0036860616
22	0xbcbef3d5	-0.023309628
23	0xbd16da26	-0.036829136
24	0x3d4e1dab	0.050321262
25	0x3e0bf515	0.1366771
26	0xbd5dbbdf	-0.054134246
27	0xbdeeac65	-0.116539754
28	0xbbf67f95	-0.007522533
29	0x3d90c79d	0.07069323
30	0x3e1b70a1	0.15179683
31	0x3d1ab614	0.0377713
32	0x3db5ab22	0.088705316
33	0xbd372ee8	-0.044722468
34	0xbe49f630	-0.1972282
35	0xbdf8eb09	-0.121542044
36	0xbde11a40	-0.10991335
37	0x3af0efa8	0.001838197
38	0x3cc036c4	0.023463614
39	0xbd0c743a	-0.03429053
40	0x3dcc5080	0.09976292
41	0x3d956cc0	0.07296133
42	0xbd9e7e43	-0.07738926
43	0x3d500491	0.050785605
44	0x3d954c2d	0.0728992
45	0x3d23b476	0.039967023
46	0xbdb72ce6	-0.089441106
47	0xbe2e81b6	-0.17041668
48	0x3da7ed2b	0.08199533
49	0x3d199ba8	0.03750196
50	0xbb55a339	-0.003259851
51	0x3c89cbfd	0.016820902
52	0x3e12d8ba	0.14340487
53	0xbda4454c	-0.0802103
54	0x3d81c422	0.063362375
55	0xbcf90dc1	-0.030402066
56	0xbb8c8a58	-0.004288953
57	0x3d6f3c66	0.05840721
58	0xbe06cab4	-0.13163263
59	0xbe0094c2	-0.12556747
60	0x3e33f570	0.17574096
61	0x3d8cec20	0.06880975
62	0x3d8aebd2	0.067832604
63	0xbe2331d6	-0.1593698
64	0x3cfdb546	0.030970227
65	0xbd792a46	-0.06083133
66	0x3d79c2e8	0.060976893
67	0xbd3f40be	-0.046692602
68	0xbd82da2e	-0.06389271
69	0xbd9b978d	-0.075972654
70	0xbc64c421	-0.013962776
71	0x3e2e9757	0.17049919
72	0xbcdfcd1a	-0.02731948
73	0x3afedbb8	0.0019444143
74	0x3d7a7fc5	0.061157007
75	0xbda40922	-0.080095544
76	0xbe31d294	-0.17365485
77	0x3d573f50	0.052550614
78	0x3c239ce4	0.009986136
79	0x3c81b272	0.01583216
80	0xbdf466c3	-0.11933663
81	0x3e0811ba	0.13288012
82	0x3e2d4451	0.16920592
83	0xbc1f310f	-0.009716286
84	0x3df556ec	0.1197947
85	0xbcea7344	-0.028619416
86	0x3d29caab	0.041453045
87	0xbd4a396f	-0.04937118
88	0xbd42a6da	-0.047522403
89	0x3d1574d9	0.036488388
90	0x3d9507a7	0.0727685
91	0x3c2d3020	0.010570556
92	0x3cca2c32	0.024679277
93	0xbd3ff5ee	-0.046865396
94	0x3c1267ca	0.008935878
95	0xbd3bdbf6	-0.045864068
96	0x3e130568	0.14357531
97	0xbdd577c4	-0.10423234
98	0x3bbff470	0.0058579966
99	0x3e09795c	0.13425201
100	0x3cf1b78a	0.029506464
101	0xbcb099ec	-0.02155777
102	0x3e2df466	0.16987762
103	0xbe5507b9	-0.20803727
104	0x3e45c409	0.19313063
105	0x3db775ba	0.089580014
106	0x3da37de5	0.07982997
107	0x3cb18740	0.021670938
108	0x3d8a6f66	0.06759529
109	0xbcf507fd	-0.029911036
110	0xbe36f6f8	-0.17867649
111	0xbdc1967d	-0.094525315
112	0x3c760263	0.0150152175
113	0x3d4204a3	0.047367703
114	0xbcc5bbc8	-0.024137393
115	0x3c614adc	0.013750758
116	0x3d01ba11	0.031671587
117	0xbdf9608a	-0.121766165
118	0x3c9ea3d1	0.019365223
119	0x3dfcb714	0.12339607
120	0xbdd0c2a2	-0.10193373
121	0xbb7d75fc	-0.003867506
122	0xbe06dce3	-0.13170199
123	0xbd377ca8	-0.044796616
124	0xbdd9d5f7	-0.10636514
125	0x3c30950f	0.010777726
126	0xbccbe0d1	-0.024887474
127	0xbd8fdf47	-0.07025009
128	0x3cd032a0	0.025414765
129	0x3d0084ca	0.031376638
130	0x3e2bb7df	0.1676936
131	0x3d44498f	0.047921713
132	0x3d9ad8ad	0.07560859
133	0xbcfa935f	-0.03058785
134	0xbd1450ea	-0.03620998
135	0x3ca5887b	0.02020668
136	0xbe03893b	-0.12845318
137	0xbd86c312	-0.065801755
138	0xbe68fb8b	-0.22752206
139	0x3dc2508e	0.09488021
140	0xbd409f48	-0.047026902
141	0x3d3ef489	0.046619926
142	0x3cd1c108	0.02560474
143	0xbdc354f3	-0.09537687
144	0x3df7da3a	0.1210217
145	0x3c996b06	0.01872779
146	0x3d2d024a	0.04223851
147	0x3d496881	0.04917193
148	0x3e1e8fb5	0.15484507
149	0xbd2036df	-0.03911483
150	0xbc7ef995	-0.015562435
151	0x3c835b4e	0.016034748
152	0xbdff7978	-0.1247434
153	0xbd346d26	-0.044049405
154	0x3df17bb5	0.11791173
155	0xbcf563aa	-0.02995475
156	0x3dd25300	0.10269737
157	0x3e2d27ad	0.16909666
158	0x3e926e1f	0.2859964
159	0x3e875cc6	0.26437968
160	0x3cc866cc	0.02446308
161	0xbceb6c67	-0.028738214
162	0x3de9201e	0.11383079
163	0x3dd6b0eb	0.10482963
164	0xbd0438f5	-0.03228088
165	0x3d6d07de	0.05786883
166	0x3ddf5ad5	0.10905997
167	0x3e441764	0.19149548
168	0x3e22c344	0.158948
169	0x3c9c3d43	0.01907218
170	0xbd6d6070	-0.057953298
171	0xbb6d6966	-0.0036226152
172	0xbce84140	-0.028351426
173	0xbce3180c	-0.027721427
174	0x3d8a45b5	0.06751577
175	0xbd63abd8	-0.055583805
176	0x3da02955	0.078203835
177	0x3e4011c1	0.18756773
178	0xbd7013ac	-0.05861251
179	0xbbebd00a	-0.007196431
180	0x3e03ed52	0.128835
181	0x3dfa0e3b	0.122097455
182	0x3dd7190a	0.10502823
183	0x3b296c36	0.0025851852
184	0xbc73ba84	-0.014876012
185	0x3dd1d19b	0.10245057
186	0xbd6e862b	-0.05823342
187	0xbc5e2c47	-0.013560361
188	0x3d84c5b5	0.06483022
189	0xbe26e06f	-0.16296552
190	0xbd8bbe1c	-0.0682337
191	0xbe814d5c	-0.25254333
192	0xbdc729f0	-0.09724796
193	0x3d8654b0	0.065591216
194	0xbdc21887	-0.094773345
195	0xbde5d7cc	-0.112228006
196	0x3e3a256a	0.18178335
197	0x3d8ecf24	0.06973103
198	0xbdc0fec2	-0.09423591
199	0x3d1d33e3	0.03837956
200	0xbdf06f87	-0.11740022
201	0xbda41598	-0.08011931
202	0xbce8ddbe	-0.028426047
203	0x3e11363a	0.14180842
204	0x3d826f33	0.06368866
205	0xbd6e6307	-0.05819991
206	0xbe20550c	-0.15657443
207	0xbd8b68a8	-0.06807071
208	0xbcea27a1	-0.02858335
209	0xbd5bcdd5	-0.053663094
210	0x3c156d47	0.009120292
211	0x3d8bc991	0.06825555
212	0xbdc56679	-0.09638686
213	0xbd1f3048	-0.038864404
214	0xbd5d372c	-0.054007694
215	0xbe81cff6	-0.25353974
216	0xbd76548f	-0.060139235
217	0xbdc80d53	-0.097681664
218	0x3e4330b3	0.19061546
219	0xbcaa380e	-0.020778682
220	0xbe1d4580	-0.15358543
221	0xbd156794	-0.036475733
222	0x3da89f49	0.08233506
223	0xbe2f5b1a	-0.17124596
224	0xbddb8efe	-0.10720633
225	0x3e1e9ce5	0.15489538
226	0xbde8ca69	-0.11366732
227	0xbe0dc340	-0.13844013
228	0xbc0f3726	-0.008741176
229	0xbd611ab2	-0.0549571
230	0x3e478397	0.19483791
231	0x3ea7ba09	0.3275912
232	0x3d8bc290	0.06824219
233	0xbe0c8bb5	-0.13725169
234	0xbe42ec19	-0.19035377
235	0x3d0ec00b	0.034851115
236	0x3d9f0d86	0.07766251
237	0x3d133262	0.03593672
238	0xbcffd323	-0.031228608
239	0x3deb13fc	0.11478421
240	0x3dafef87	0.08590608
241	0xbd84e38c	-0.064887136
242	0x3dedfd8a	0.11620624
243	0x3e5622fe	0.20911786
244	0xbe0f5a17	-0.1399921
245	0xbad348ed	-0.0016119756
246	0x3cd3f2e2	0.025872651
247	0x3e014f7c	0.12627977
248	0x3e19be1c	0.15013927
249	0xbe124812	-0.14285305
250	0x3ba8731d	0.0051406757
251	0xbdd57371	-0.10422409
252	0xbdb0ecdf	-0.086389296
253	0x3ddefef3	0.108884715
254	0xbe7df3f4	-0.24800092
255	0xbe059492	-0.13044956

G.0.linears.0.bias f4 [32]
0	0xbcf3d9fb	-0.029767027
1	0xbd78337f	-0.060595986
2	0x3d70418d	0.058656264
3	0xba3e3735	-0.00072561513
4	0x3d6cd6b6	0.05782195
5	0x3d419355	0.047259647
6	0xbd99e04e	-0.07513486
7	0x3bab2642	0.0052230665
8	0x3d7c13ca	0.06154231
9	0xbddae433	-0.10688057
10	0x3ca7d2c3	0.020486241
11	0xbc9108e4	-0.017704435
12	0xbde674f9	-0.112527795
13	0xbd1231da	-0.035692073
14	0x3c008a66	0.007845497
15	0xbba984df	-0.00517331
16	0x3dbc3816	0.09190385
17	0x3d9d96d4	0.07694784
18	0xbd3b31a8	-0.045701653
19	0xbd575053	-0.052566838
20	0xbd2525fd	-0.04031943
21	0x3d82640e	0.0636674
22	0xbdf84dd2	-0.12124218
23	0x3d1ad562	0.037801154
24	0x3de8b5a3	0.113627695
25	0x3d90f43e	0.070778355
26	0x3cb75754	0.022380508
27	0x3c8f851e	0.01751953
28	0xbcd7603d	-0.026291007
29	0xbda72fa9	-0.08163387
30	0xbdc14e06	-0.0943871
31	0x3b787f97	0.0037917846

G.0.linears.1.weight f4 [32, 32]
0	0x3c82609a	0.015915204
1	0x3d7c6fad	0.06162994
2	0xbd9bad34	-0.07601395
3	0x3cae0c66	0.021246146
4	0x3d2dcd27	0.042431977
5	0x3ea59a19	0.3234413
6	0xbe1d7907	-0.153782
7	0xbcc6f420	-0.02428633
8	0x3cf0f1aa	0.02941211
9	0xbe1d034f	-0.15333293
10	0xbc819e9b	-0.0158227
11	0xbd56293d	-0.05228542
12	0xbcf3f16b	-0.029778203
13	0x3d861b75	0.06548206
14	0xbe5b2d84	-0.21404082
15	0xbc26fc69	-0.010192015
16	0x3d7a9f5a	0.061187126
17	0x3d338729	0.04383007
18	0x3d09ae18	0.033613294
19	0xbc595b04	-0.013266329
20	0xbcfc744c	-0.030817173
21	0x3dd5e1fe	0.10443495
22	0x3dcd7b0e	0.100332364
23	0x3cf4c51c	0.029879145
24	0x3e002148	0.12512696
25	0x3e2231b6	0.15839276
26	0x3e3c8c11	0.18412806
27	0x3dac72e5	0.08420352
28	0x3e2a4bd9	0.16630496
29	0xbd936510	-0.071970105
30	0x3deda815	0.11604325
31	0x3d9019ae	0.07036148
32	0x3c3f741a	0.011685396
33	0x3df87a88	0.12132746
34	0x3e7afca9	0.24510445
35	0x3dad1488	0.08451182
36	0x3daafd75	0.08349124
37	0xbdb28951	-0.08717597
38	0xbe106ef4	-0.14104825
39	0x3deaa6dc	0.11457607
40	0xbd3ce01f	-0.046112176
41	0x3d430fb0	0.047622383
42	0x3da2d4e1	0.0795076
43	0x3da6a007	0.081359915
44	0xbd041f8e	-0.032256655
45	0xbd94b052	-0.07260193
46	0x3d620b2e	0.055186443
47	0xbc8671b4	-0.01641164
48	0xbdcd7bba	-0.100333646
49	0x3d0ddb3e	0.034632914
50	0xbdc15a03	-0.094409965
51	0xbe2e4f76	-0.170225
52	0xbdafe9e5	-0.08589534
53	0x3dde32aa	0.10849507
54	0xbe11d04b	-0.14239614
55	0xbdcf59ac	-0.101245254
56	0x3c324eb5	0.010883023
57	0x3d5cd8e6	0.053917788
58	0x3e42edea	0.1903607
59	0xbc485a60	-0.012228578
60	0xbcf08d26	-0.02936418
61	0x3e30cec6	0.17266378
62	0xbd023454	-0.031788185
63	0xbc7c7216	-0.01540806
64	0xbe6fccd6	-0.23417982
65	0x3d174d28	0.036938816
66	0x3c5e695b	0.013574923
67	0x3cbc7e80	0.023009539
68	0xbca07338	-0.01958619
69	0xbd686268	-0.056734473
70	0x3da2c944	0.079485446
71	0x3e1c8f5c	0.15289062
72	0x3d2272db	0.039660316
73	0x3d42fc1c	0.04760371
74	0x3cfd1e09	0.030898111
75	0xbb20d03c	-0.002453818
76	0x3d81ffbc	0.063476056
77	0xbe2c9a29	-0.16855682
78	0x3d7b21b5	0.061311442
79	0x3ddc6c4b	0.10762843
80	0xbe4e68aa	-0.20157114
81	0xbe1fe99e	-0.15616462
82	0xbcc2c930	-0.023777574
83	0xbe80b113	-0.25135097
84	0x3b0329f6	0.0020014024
85	0x3db6e24f	0.08929884
86	0x3dbbb5b7	0.09165519
87	0x3d891e35	0.06695215
88	0xbd005aed	-0.031336714
89	0xbd1a0d8e	-0.037610583
90	0x3c94c8e8	0.018162206
91	0xbd31ed63	-0.04343928
92	0x3e1cb512	0.15303448
93	0x3bbefc68	0.005828429
94	0xbc39ef30	-0.011348531
95	0x3d135ebf	0.03597903
96	0x3e307c5e	0.17234942
97	0xbd40f2ae	-0.047106437
98	0x3cdb63d5	0.026781002
99	0x3c718540	0.014741242
100	0x3dbcd3d8	0.092200935
101	0x3ca2bd57	0.019865675
102	0xbdd7b0dd	-0.10531781
103	0x3d76aa68	0.060221106
104	0x3d2e4e03	0.042554867
105	0x3d38cb7a	0.045115925
106	0x3d028232	0.031862445
107	0xbe473b30	-0.19456172
108	0xbe2e3815	-0.17013581
109	0x3dd346e6	0.10316257
110	0x3dea389d	0.114365794
111	0xbd8a97fb	-0.06767269
112	0xbda6758a	-0.081278875
113	0xbe2aea68	-0.16690981
114	0x3db23e81	0.08703328
115	0x3b9a37bc	0.004706351
116	0xbcf6c45a	-0.030122925
117	0xbe5bd252	-0.2146695
118	0x3994920c	0.00028337573
119	0x3c8a7961	0.016903581
120	0xbe34d539	-0.17659463
121	0x3e5ddba8	0.21665823
122	0x3dff438b	0.12464055
123	0x3cecfc12	0.02892879
124	0xbcc382ce	-0.023866083
125	0xbd22e529	-0.039769325
126	0xbdb0280f	-0.086013906
127	0xbe7479cd	-0.23874588
128	0x3cf87e01	0.03033352
129	0x3dc64ac7	0.096822314
130	0xbd3e8394	-0.0465122
131	0xbe0444e6	-0.12916908
132	0xbe41b3d1	-0.18916251
133	0xbda15a68	-0.07878572
134	0x3d8f7703	0.070051216
135	0xbd83075b	-0.06397887
136	0x3df34fad	0.11880431
137	0xbd4c14ff	-0.04982471
138	0xbdbbe741	-0.091749676
139	0x3dad6134	0.08465806
140	0xbd79296c	-0.06083052
141	0x3d30dddf	0.043180343
142	0xbe519014	-0.20465118
143	0x3d44d4f7	0.04805466
144	0x3dc900e3	0.09814622
145	0xbe812d72	-0.25229985
146	0x3db78062	0.08960034
147	0x3ddd84bd	0.108163334
148	0xbc7c3b5e	-0.015395014
149	0x3dcf83ed	0.10132585
150	0xbacfd445	-0.0015856108
151	0xbe018297	-0.12647472
152	0x3e4b177d	0.19833179
153	0x3db26a90	0.087117314
154	0x3ba77a4c	0.0051110145
155	0x3dd1b734	0.10240021
156	0x3e16d703	0.14730458
157	0xbe54ba45	-0.20774181
158	0x3e2cc58c	0.16872233
159	0x3df5ad78	0.11995977
160	0x3d8970df	0.067109816
161	0x3bd6abeb	0.006551256
162	0x3e16c0b6	0.14721951
163	0x3e363aef	0.17795919
164	0x3d02ab8f	0.031901892
165	0x3e046101	0.12927629
166	0xbd316be7	-0.043315794
167	0xbe40dde9	-0.18834652
168	0x3e4eb039	0.20184411
169	0x3d4bb6cf	0.049734887
170	0x3dcc3751	0.09971488
171	0xbd19520a	-0.037431754
172	0xbdfb28d8	-0.1226365
173	0x3d064db8	0.032788962
174	0x3dd4685c	0.103714675
175	0x3df694c3	0.12040093
176	0x3d5f078d	0.05445056
177	0xbcf23b78	-0.029569373
178	0x3e159f36	0.14611515
179	0x3c13a6c8	0.009011932
180	0x3d8f0af8	0.06984514
181	0x3d800b06	0.062521026
182	0xbc024d9d	-0.007953075
183	0x3e13dd3c	0.14439863
184	0x3be5a032	0.007007622
185	0xbd1cde63	-0.038298022
186	0x3e14bbc2	0.14524749
187	0xbe72354f	-0.23653148
188	0x3bf51c75	0.007480199
189	0x3cde4017	0.02713017
190	0xbdf9de4e	-0.122006044
191	0x3d2b820b	0.041872066
192	0xbc5cc180	-0.013473868
193	0xbcfcb6de	-0.030848917
194	0xbe1a3a68	-0.15061343
195	0xbda9ee33	-0.08297386
196	0x3e3e0e8d	0.18560238
197	0x3ce0e14e	0.027451184
198	0x3d9d54e7	0.076822095
199	0x3c8af285	0.016961345
200	0x3d9a1527	0.07523566
201	0xbd9eebb5	-0.07759801
202	0xbd1d30cd	-0.03837662
203	0xbe73fc83	-0.23826794
204	0xbc8b7d93	-0.017027652
205	0xbc0a0efb	-0.008426423
206	0x3e2fa565	0.17152937
207	0xbd86259e	-0.06550144
208	0xbd380610	-0.044927657
209	0xbe2df711	-0.1698878
210	0x3cccd5ac	0.02500423
211	0xbdc72ec5	-0.097257175
212	0x3b5844f2	0.003300008
213	0xbdfdebec	-0.12398514
214	0x3e193943	0.1496325
215	0x3d6a7c10	0.05724722
216	0xbd00a948	-0.03141144
217	0x3e43d6eb	0.19124953
218	0x3c9dd060	0.0192644
219	0xbcc026c8	-0.023455992
220	0xbd749e73	-0.05972142
221	0x3e045ae8	0.12925303
222	0xbd14ab69	-0.036296282
223	0x3cb9fb5e	0.022702869
224	0x3cb38666	0.021914672
225	0x3c03934a	0.008030722
226	0xbd805456	-0.06266086
227	0x3dc8713b	0.09787222
228	0x3e06ca26	0.13163051
229	0xbcd94729	-0.02652319
230	0xbd2e334a	-0.04252938
231	0x3d6276b6	0.055288993
232	0x3be21ae1	0.006900177
233	0xbda064d0	-0.078317285
234	0xbd597f03	-0.053099643
235	0x3d00008e	0.03125053
236	0xbe07751b	-0.13228266
237	0x3dab0f55	0.08352534
238	0x3d2f7707	0.042838123
239	0x3e456fb2	0.1928089
240	0xbdf1764f	-0.11790144
241	0x3d263658	0.04057917
242	0x3c625d5e	0.013816206
243	0xbe047bc2	-0.12937835
244	0xbe30019c	-0.17188114
245	0xbe5d2676	-0.21596703
246	0x3cfd9fc5	0.030959973
247	0xbd6af657	-0.057363834
248	0x3ce4a71f	0.02791172
249	0x3e0fa991	0.14029528
250	0x3d8136d5	0.063092865
251	0xbdb1e9aa	-0.08687146
252	0x3d81fbb3	0.06346836
253	0xbba9a082	-0.0051766047
254	0xbdc0397a	-0.09385963
255	0xbe141393	-0.14460592

G.0.linears.1.bias f4 [32]
0	0xb97bbdd0	-0.00024007936
1	0x3d6b3734	0.057425693
2	0x3b8fb1bd	0.0043852017
3	0xbc2864d4	-0.010277946
4	0xbd8390d5	-0.06424109
5	0xbcb387b3	-0.021915292
6	0xbdae25b3	-0.08503284
7	0x3d124636	0.03571149
8	0x3d1e2562	0.03860987
9	0xbd63ec58	-0.055645317
10	0xbd6b6ca6	-0.057476662
11	0x3d1699c7	0.036767747
12	0xbd13eead	-0.03611629
13	0x3d3adafb	0.045618992
14	0xbd7da335	-0.061923224
15	0x3db49ae6	0.08818607
16	0xbd1c0c01	-0.038097385
17	0xbc5ef9f0	-0.013609394
18	0xbd9c9395	-0.076453365
19	0x3d91e1c4	0.071231395
20	0x3da0e45c	0.07856056
21	0x3d8304be	0.06397389
22	0xbc91713d	-0.017754192
23	0xbd9bb4bd	-0.076028325
24	0xbce02c6e	-0.027364936
25	0x3d74bf63	0.059752833
26	0x3c8bdb77	0.017072422
27	0x3d91decb	0.071225725
28	0x3d7654f2	0.060139604
29	0xbcc5324e	-0.024071839
30	0x3bf06ed7	0.007337432
31	0xbd07ca30	-0.033151805

G.0.linears.2.weight f4 [10, 32]
0	0xbc34e1ef	-0.011040195
1	0xbc25f327	-0.010128773
2	0x3e1f181a	0.15536538
3	0x3dd7f48b	0.1054469
4	0xbd80b0dc	-0.06283733
5	0x3de6e296	0.112736866
6	0x3dcb9f34	0.09942475
7	0x3d83d707	0.064374976
8	0x3e8c2367	0.2737076
9	0x3ce7c414	0.02829174
10	0x3d8509cf	0.064960115
11	0xbc5c60fd	-0.013450858
12	0x3e1444c9	0.14479364
13	0x3cf7d413	0.030252492
14	0xbe3d3ca2	-0.18480161
15	0xbd809d7a	-0.06280036
16	0xbe442777	-0.1915568
17	0xbdd709cc	-0.104999155
18	0xbe6fa0b8	-0.23401153
19	0x3d2879f8	0.041131943
20	0xbbe50981	-0.0069896583
21	0xbe0c4c19	-0.13700904
22	0xbddbb22c	-0.10727343
23	0x3e8dbfb2	0.27685314
24	0xbd6fe543	-0.05856825
25	0xbd5499e9	-0.051904593
26	0xbcaa0b30	-0.020757288
27	0x3dc7fb7f	0.09764766
28	0x3e0b8bf8	0.13627613
29	0x3d2ce489	0.042210136
30	0x3cad6ec0	0.021170974
31	0xbdfb2df3	-0.122646235
32	0xbe49da97	-0.19712292
33	0x3d485196	0.04890593
34	0xbda5cf17	-0.0809614
35	0xbd1e95e4	-0.038717166
36	0x3d4b77ba	0.049674727
37	0x3cbb549b	0.022867491
38	0x3e736d92	0.23772267
39	0xbd982d86	-0.07430558
40	0x3e107bf8	0.1410979
41	0xbe2ed6aa	-0.17074075
42	0x3d38c6e4	0.045111552
43	0xbd63a8a2	-0.055580743
44	0xbe2a9a4b	-0.1666042
45	0x3c223a20	0.009901553
46	0x3a657ae2	0.00087539677
47	0x3e3d2380	0.18470573
48	0xbb8a1cdb	-0.0042148656
49	0xbdfef63c	-0.12449309
50	0x3e276a0b	0.16349046
51	0x3d33a9c5	0.043863077
52	0xbda24738	-0.0792374
53	0x3d53bf12	0.05169589
54	0xbd06a54a	-0.032872476
55	0xbd083f80	-0.033263683
56	0x3c9be82f	0.019031612
57	0xbe4b4288	-0.19849598
58	0xbda7cd83	-0.08193495
59	0xbb0b8a46	-0.0021292134
60	0x3e422287	0.18958484
61	0xbcfc6075	-0.030807713
62	0x3cc94574	0.02456925
63	0xbdbbcf99	-0.091704555
64	0xbd8218b9	-0.06352372
65	0xbe45ccbc	-0.19316381
66	0xbde9e287	-0.1142016
67	0xbdafbf84	-0.085814506
68	0x3dc312fd	0.09525106
69	0x3cb22cec	0.021749936
70	0xbe34eb75	-0.17667945
71	0x3ccb4168	0.024811462
72	0xbd737db9	-0.05944607
73	0xbcc9762c	-0.024592482
74	0x3d187610	0.03722197
75	0xbd6c79f4	-0.05773349
76	0xbe6a290f	-0.22867225
77	0x3cf6fca6	0.030149769
78	0x3c917d5b	0.01775997
79	0xbe0a3365	-0.13496168
80	0x3d646207	0.05575755
81	0x3d0bd5a9	0.03413931
82	0x3dd7dd95	0.1054031
83	0x3db5557d	0.08854196
84	0x3d437b0f	0.04772478
85	0x3de139f6	0.10997383
86	0xbdad1eda	-0.0845315
87	0xbc5a29b2	-0.013315605
88	0xbce9bc84	-0.028532274
89	0xbdbed9e8	-0.09318906
90	0xbd1e4999	-0.038644407
91	0x3d74b2b9	0.059740756
92	0xbcc4293a	-0.02394544
93	0xbe234f53	-0.15948229
94	0x3be1f045	0.0068950974
95	0x3e5eb09f	0.21747063
96	0x3d1d1043	0.038345587
97	0x3da415ac	0.08011946
98	0x3c96300a	0.018333454
99	0xbc06b527	-0.008221901
100	0x3de42956	0.11140697
101	0xbe52df74	-0.20593053
102	0x3cec036a	0.028810222
103	0x3d9c43c8	0.07630116
104	0x3b8223dc	0.00397156
105	0xbda94fab	-0.082671486
106	0xbd85ea6a	-0.065388516
107	0xbd7dc55d	-0.0619558
108	0xbcfd9ca3	-0.03095848
109	0xbd808f88	-0.062773764
110	0x3d8c56b0	0.06852472
111	0x3cb2a21f	0.021805821
112	0x3dec5287	0.11539178
113	0x3c2be502	0.010491611
114	0x3da0ceaf	0.07851922
115	0x3e3f167b	0.1866092
116	0x3d8b2dc7	0.06795841
117	0x3cec71c7	0.028862847
118	0x3b5688d4	0.0032735365
119	0x3b32d4ff	0.00272876
120	0xbd8a7307	-0.06760221
121	0xbbb5fe5e	-0.0055540046
122	0x3cbb8387	0.022889866
123	0x3e1d3c3e	0.15355012
124	0x3e669402	0.22517398
125	0x3e50ab4e	0.20377848
126	0xbcdfdd31	-0.027327152
127	0x3cc9235e	0.024552997
128	0x3da79427	0.08182555
129	0x3d9bbb01	0.076040275
130	0x3d2ff265	0.042955775
131	0x3d919b48	0.07109696
132	0xbcffb106	-0.031212341
133	0xbe11e9f2	-0.142494
134	0x3c5a8049	0.01333625
135	0xbb6d21fe	-0.003618359
136	0x3d2dadb2	0.042401977
137	0xbdb1d424	-0.08683041
138	0xbca0e2e3	-0.019639438
139	0x3e4aceaf	0.19805406
140	0x3bb87bed	0.0056300075
141	0x3b01cc6e	0.0019805687
142	0xbcc6064e	-0.024172928
143	0xbccff5ee	-0.025385823
144	0x3e085ce2	0.13316682
145	0x3cadb8bd	0.021206254
146	0x3cc637fc	0.024196617
147	0x3d91100c	0.07083139
148	0xbc4ef54e	-0.012631727
149	0xbcf48bcc	-0.029851817
150	0x3dea2a4a	0.11433847
151	0x3cdb616d	0.026779855
152	0x3dc686c5	0.09693674
153	0x3b92429b	0.0044635064
154	0x3da6c3e1	0.0814283
155	0xbda3f9c4	-0.080066234
156	0x3d9698e1	0.07353378
157	0xbd0c0bb0	-0.034190834
158	0x3d021653	0.03175957
159	0xbd0ea519	-0.03482542
160	0x3b9b3e4c	0.004737651
161	0xbd8cc276	-0.06873028
162	0x3d3e69e3	0.0464877
163	0xbd39da77	-0.04537436
164	0xbe3d9220	-0.18512774
165	0xba2bc1f0	-0.0006552031
166	0xbc1ff9ad	-0.009764117
167	0x3e132ef2	0.14373377
168	0x3df20bf0	0.11818683
169	0xbc8682ff	-0.016419886
170	0xbd464ccc	-0.048413083
171	0x3dae32f2	0.08505811
172	0xbd4b0080	-0.049561024
173	0x3d9f05ff	0.077648155
174	0xbcbe9d69	-0.023268418
175	0x3d5d747f	0.054066177
176	0xbe357966	-0.17722091
177	0xbdac8ded	-0.08425508
178	0xbe1ef9e1	-0.15525009
179	0xbd0375fc	-0.03209494
180	0xbda31119	-0.079622455
181	0x3b8be572	0.0042692954
182	0xbdc0167b	-0.09379288
183	0x3e108f0b	0.14117067
184	0xbdbecd54	-0.09316507
185	0xbb77e9e0	-0.003782861
186	0x3d390f7b	0.04518078
187	0x3d113d7f	0.035459038
188	0xbe40cd67	-0.18828355
189	0xbd8bfdd3	-0.068355225
190	0x3d29d4f1	0.041462842
191	0xbd9d18c8	-0.07670742
192	0xbe10358b	-0.14082925
193	0xbd6caa6d	-0.05777972
194	0x3de07ddc	0.10961506
195	0x3e05ce86	0.13067064
196	0xbd8ff0b6	-0.07028334
197	0x3c911ab4	0.017712928
198	0xbc9b9a9a	-0.018994618
199	0xbd7be2b8	-0.061495513
200	0xbd1a670f	-0.03769594
201	0xbd0dd5cf	-0.034627732
202	0xbc82427c	-0.015900843
203	0xbe05515e	-0.1301932
204	0x3d48267b	0.048864823
205	0x3dfd0ef6	0.12356369
206	0xbe3faf82	-0.18719295
207	0xbc54303b	-0.012950952
208	0x3d412ddf	0.047162887
209	0x3e1d3413	0.15351896
210	0x3b32ce14	0.0027283477
211	0xbe4760b1	-0.19470479
212	0x3dc58454	0.0964438
213	0x3c95f205	0.01830388
214	0xbe3a2061	-0.18176414
215	0x3ddac365	0.106818
216	0x3e156c67	0.14592133
217	0xbe1ee20d	-0.15515919
218	0xbe896e2f	-0.26841876
219	0x3e1bdb24	0.15220314
220	0xbc51a178	-0.012794845
221	0x3d526548	0.05136612
222	0x3cbf4cab	0.023351988
223	0xbdfd5354	-0.12369409
224	0xbd87f1a4	-0.06637886
225	0xbce39b46	-0.027784001
226	0x3d587ec4	0.052855268
227	0xbe14a834	-0.1451729
228	0xbdfda679	-0.12385268
229	0xbe24aaae	-0.16080734
230	0x3db80669	0.08985598
231	0x3df18de2	0.1179464
232	0x3d02f345	0.03197028
233	0xbde803f7	-0.11328881
234	0x3e0fcf2d	0.14043875
235	0x3e52f693	0.20601873
236	0xbc9c2d72	-0.019064639
237	0xbc3de2e8	-0.011589743
238	0xbce4f230	-0.027947515
239	0x3dde9f43	0.108702205
240	0x3dce8ee4	0.10085848
241	0xbb69fb28	-0.003570268
242	0x3da14380	0.07874203
243	0xbe0ff78d	-0.14059277
244	0xbdc18da4	-0.09450844
245	0x3dc9d906	0.09855847
246	0x3e46815d	0.19385286
247	0x3e01367e	0.12618443
248	0xbdaebaf0	-0.08531749
249	0xbd8fecd5	-0.07027594
250	0x3d99d2a7	0.07510882
251	0xbd7024cc	-0.058628842
252	0x3de36d19	0.11104793
253	0xbdc2ec4a	-0.09517725
254	0x3dd5dec4	0.1044288
255	0x3ab143ea	0.0013524268

G.0.linears.2.bias f4 [10]
0	0xbdca83b0	-0.09888399
1	0xbd747478	-0.059681386
2	0x3d86b890	0.06578171
3	0xbceae5f3	-0.028674101
4	0x3dbf0764	0.093275815
5	0xbdb7cd50	-0.08974707
6	0xbd5a2995	-0.053262312
7	0x3d51e5f0	0.051244676
8	0xbd73be55	-0.059507687
9	0x3dd82408	0.105537474
