para_save/00057params.pth (torch, 118145 bytes, 76 tensors)

F.linears.0.weight f4 [32, 20]
00000000: 1e99 44bd b629 96bd f533 28be 3567 b53c
00000010: cfe9 91bd 8f70 07bd fd4d 16be 2f86 ca3d
00000020: 59fe d0bd 91f7 50bd 8921 15bc e3a8 20bd
00000030: 0c93 8b3d 513a 19be 2e99 783a 3e1e 963b
00000040: 831e 963d f4e7 0a3e e615 97bd b3c1 ff3d
00000050: 81cf 1e3e 6330 febd d2f8 d1bc e608 6dbd
00000060: 0e8f 73bd d555 27be e0f3 613c 4e6a b93d
00000070: 1bc0 243d 5bc1 86bc b765 1c3e 0e6e 39bd
00000080: 588a 35be bad4 16bc 5bc5 9f3d 2016 303d
00000090: 0faf 1b3d fcb6 873c 15fa 45bd ab68 963b
000000a0: 6f91 e0bd 3c55 733d f15a b8bd 6ed1 4fbe
000000b0: 83b8 0bbe 3a45 24be b78c 143e 15e9 903d
000000c0: d4bc fa3d 4fa2 be3c f08f ca3d f7c2 9dbd
000000d0: e4ba 5dbd 1a93 46be 943f ea3d 2394 af3c
000000e0: ea8d 943d 2fdd 4abe d1b0 a6bd dd9f 143d
000000f0: f8bf 2f3d 9881 e6bd 1a85 09ba ece5 7cbd
00000100: 4b8b 0a3e da0c 9bbd da79 8d3c 57f6 fabc
00000110: 4c9d 76bb a85e 173e 651f c0bc b6cc 1ebe
00000120: 31c6 8cbd 0218 023c b30a a43c 669d c83d
00000130: b67e 9bbb 709c 0b3b 0a2f 30be e0c8 773d
00000140: 0ac7 da3d 22ec ba3b b693 1abe 4193 c53d
00000150: e2ef 353d 4d65 ddba 015d c93c 6a8d 8fbd
00000160: fa52 f23c 7f27 1c3e 22c4 cabc 0a5c babd
00000170: c02d 3dbe 4806 dfbd 1797 283e ad5e 9dbc
00000180: 2293 4f3e 96c4 eebc cb01 03be 9767 b83b
00000190: dd99 4ebd ed10 393e 78ba 2dbe d215 cabd
000001a0: 898e af3d 5a1c 45bd 67e3 9b3d c723 483e
000001b0: 2553 0f3e 1e9a 9fbc 980e a53c d609 0fbd
000001c0: cb93 e2bc 8ad8 f2bc 5315 03bd d973 473d
000001d0: d52e 513e b49b 803c 7b6a 5e3d e1bd 0dbd
000001e0: c51d 013e 961e c73c 753e bebd 87e0 46bd
000001f0: 1ab1 3a3d 1b87 053d ddef 4d3e a243 6d3d
00000200: e7b6 723d 5af5 043e aa6e 163e 770e 853d
00000210: 9f24 7dbd 1bee 05be b364 2c3e 6b12 123e
00000220: 6475 39be 24a2 12bd 06ae 663b 8df7 563d
00000230: 03c3 e13d 04bb 1cbd b8d1 fe3d 9541 f53c
00000240: 306c 0cbc c0b8 493d 7872 55bd a0ca e539
00000250: 4b74 993d 7d08 09be 1cad c6bd f76d b03d
00000260: 87e1 a7bb 213e c8bc f47b 5d3d b96c c63c
00000270: b928 0d3c a493 e63c b44b 44be a475 c53d
00000280: 60d1 dcbc 7722 033e a619 183d a4b2 5b3c
00000290: 2a88 d2bd ce9d c33d 101e 26be 7c94 f3bc
000002a0: 40cc d9bd a538 ae3d 2e06 fa3d 8aa3 ffbd
000002b0: 132d 2f3b 7da2 363c b66e 85bd 12f2 793d
000002c0: ce0b 843d 5790 d4bd 0583 03bc e482 083e
000002d0: da26 f03c b8f5 85bd 9e0e cb3d e69c 8bbd
000002e0: 893e b9bc cb18 17bd feeb b9bd ab09 833e
000002f0: 87a7 0f3e d935 babd 2abc ee3b e049 313c
00000300: f372 853d 36fb 94bd 973a 443d 461f 56bd
00000310: 9f6d b5bd 12c5 05be 1bd8 06be 5e45 ffbc
00000320: ac4c 263d ef57 87bc daf7 483c 14e4 28bc
00000330: 26a0 d1bd 8a4e 183d b09a ae3d cfa9 a5bd
00000340: 1646 82bb e544 d93c cd16 94bd 187d 6b3b
00000350: 7ee3 09be 49dd 8e3c a161 253e 7578 693d
00000360: 3fe2 0a3e b01c 23be 9c6d 813d 3614 533d
00000370: 0eb6 c3bd dcd8 17bd b381 b7bc 6fb2 bdbc
00000380: baf3 7cbd 03ea 5c3d 5d79 ae3d 9d51 63bd
00000390: 1322 bbbb e4aa 4abe 8208 a13b b88e 74be
000003a0: 355e 113e 7527 fcbc e2ae f1bc a366 cb3d
000003b0: 19b7 8d3c 11c8 36bd 0fbd 61be 17a0 1f3e
000003c0: d636 0a3e 8aad 0abd a047 a3bc cff1 91bd
000003d0: 68ad fd3c 2d8a 2c3e a952 b53c 354b 723d
000003e0: 8d46 fbbb d4e5 eabd 5dd3 273c f905 e8bd
000003f0: 51a3 06bd 3b3e 29be 0bc2 b83c 138e d9bb
-0.047997586 -0.073321745 -0.1642607 0.02214394 -0.071246736 -0.03306633 -0.14678188 0.09888875
-0.10204763 -0.051017348 -0.009102234 -0.039223563 0.06815156 -0.14963652 0.0009483275 0.004581242
0.073300384 0.13565046 -0.07377224 0.12488117 0.15508844 -0.12411573 -0.025631342 -0.057869814
-0.0594626 -0.16341336 0.0137910545 0.09053479 0.04022227 -0.016449621 0.15273176 -0.045270972
-0.17728555 -0.009205991 0.078013144 0.04298985 0.038008746 0.016566746 -0.0483342 0.004590114
-0.10965239 0.059407458 -0.09001721 -0.20294735 -0.13644604 -0.16042033 0.14506803 0.07075707
0.12243047 0.023270754 0.09890735 -0.07703202 -0.05413331 -0.19392052 0.11437908 0.021432942
0.072536305 -0.19810937 -0.08139194 0.03628527 0.042907685 -0.11255187 -0.0005245969 -0.061742708
0.13529699 -0.075708106 0.017270017 -0.030635042 -0.0037630377 0.14782202 -0.02345247 -0.15507779
-0.068737395 0.007940294 0.020024633 0.09795646 -0.0047453297 0.002130296 -0.17205444 0.060494304
0.10682495 0.0057044188 -0.1509541 0.09647227 0.044418223 -0.0016891152 0.02458048 -0.070093945
0.029580582 0.15249442 -0.024751727 -0.09099586 -0.18474483 -0.1088987 0.16463886 -0.019210184
0.2027097 -0.029146474 -0.12793653 0.0056275832 -0.050439704 0.18072863 -0.16965663 -0.09867443
0.08572108 -0.04812274 0.07611733 0.19544898 0.13996561 -0.019482668 0.02014856 -0.03492149
-0.027658364 -0.02964427 -0.03200276 0.048694465 0.20428021 0.015699245 0.054300766 -0.03460491
0.12609012 0.024306577 -0.092892565 -0.04855397 0.045579053 0.03259955 0.20111032 0.057925828
0.05925646 0.12984219 0.14690652 0.064968996 -0.061802503 -0.13079111 0.16835289 0.14264838
-0.18111187 -0.03579916 0.003519894 0.052482177 0.11023524 -0.03826429 0.124423444 0.029938499
-0.008570716 0.049248457 -0.05211112 0.0004382925 0.07492884 -0.13382144 -0.09700987 0.08614724
-0.0051233205 -0.024443688 0.05407329 0.024221765 0.008615666 0.028146572 -0.19169503 0.09641579
-0.026955307 0.12806116 0.037133835 0.01340929 -0.102798775 0.09551583 -0.16222405 -0.029733889
-0.10634661 0.08506898 0.1220821 -0.124823645 0.0026729747 0.011147139 -0.06515257 0.061021872
0.06447564 -0.10379093 -0.008026843 0.13331181 0.0293154 -0.06541008 0.099148974 -0.068170354
-0.022612827 -0.03688888 -0.09078215 0.25593314 0.1402875 -0.09092302 0.0072856145 0.010820836
0.065160654 -0.07274477 0.047907438 -0.05227592 -0.08858799 -0.13063458 -0.13168375 -0.031161007
0.040600464 -0.016521422 0.012266124 -0.010308284 -0.10235624 0.037184276 0.08525598 -0.08089029
-0.00397564 0.02652211 -0.072309114 0.0035932716 -0.13465688 0.017439501 0.16150524 0.056999642
0.13562869 -0.15928912 0.063197345 0.051532947 -0.095562086 -0.037072048 -0.022400713 -0.023156373
-0.061755873 0.05393411 0.08519242 -0.055497754 -0.005710849 -0.19791752 0.0049143443 -0.23882568
0.14196093 -0.030780533 -0.029502336 0.09931686 0.017299222 -0.044624392 -0.22044776 0.15588413
0.13497481 -0.033856906 -0.019931614 -0.071261995 0.030966476 0.16849585 0.022134142 0.059153754
-0.0076683224 -0.114696175 0.010243264 -0.11329264 -0.032870594 -0.16527645 0.022553464 -0.006639251

F.linears.0.bias f4 [32]
00000000: 386a 48bd be85 e43c 6018 933d 2226 c2bd
00000010: 18c3 a3bd 76c7 22bd 9c49 bebd 5939 d33c
00000020: c2ef 46b9 d967 a83d 0a7a 68bd 019b d8bc
00000030: f497 04bd 0e13 bcbb b119 bcbb ed4d 753c
00000040: 7d71 d43b 7ad1 a33d bb8f 983d d151 ed3c
00000050: e628 fcbd a4e0 3ebc 9dc5 d5bd ab89 47bd
00000060: 6266 cbbc 67a1 63bc e00d c1bc c693 37bd
00000070: 1adb 373b d70f b8bb 85dd 66bb 3648 353b
-0.048929423 0.027895804 0.071823835 -0.094799295 -0.079961956 -0.039741002 -0.092913836 0.025784181
-0.00018972068 0.08222932 -0.05675701 -0.0264411 -0.032371476 -0.005739576 -0.0057403673 0.014972192
0.0064832554 0.07998939 0.074492894 0.028969677 -0.12312488 -0.011650238 -0.10438082 -0.048715275
-0.024829093 -0.013893462 -0.023566186 -0.044818662 0.0028054179 -0.0056171226 -0.003522725 0.002766145

F.linears.1.weight f4 [32, 32]
00000000: e4c6 2fbd e62a e13d 00b5 a13e 2d63 c2bd
00000010: 7bd2 00be de18 2d3d 5247 6a3c 3654 86bd
00000020: 40d4 32bd 3123 753c e999 5e3c 87cb 8b3c
00000030: 3ff3 a9bd fd8b eabd f9ba 183e 5b9d c43d
00000040: 6204 53bd aec2 a3bc 8371 0e3d c109 043e
00000050: 43b9 a8bd ec60 143d ad13 613e 60d0 e5bb
00000060: 2eff 683d 6257 013e df78 07bd 9ee1 b4bd
00000070: b302 1ebe 3733 fa3c 4191 34bc 31ed 4f3d
00000080: 040d e93d 7455 3d3d 42f6 8f3e adc8 413d
00000090: 26dd ecbc 0cf3 f93d 5471 803c 0635 9cbd
000000a0: 6f65 243d 96ee 9a3c 44ba 123e d88e 46be
000000b0: c814 29bb d748 a2bc d298 e4bd ff34 5a3d
000000c0: df6b 733d 0cef a73d da27 24be ac4e 373b
000000d0: d7f9 c9bc 2263 333d ebe5 da3c dd73 8a3d
000000e0: 4796 03be 678b aabd 7368 d73d b615 2d3e
000000f0: f2a4 44bd af2c e23d 3de9 e43d cad8 d23d
00000100: b1e7 82bd 1f3e e63c d998 6abc 5381 16bd
00000110: d0c6 63bc 1e12 12bc cb22 b53c 8aac 2fbe
00000120: bd51 443d 3bad 61bd b6ec ab3d c706 273e
00000130: 0379 423e b8a9 debb 4e8d 51be 5c3a 153c
00000140: 8a7f 3f3e ca8e 97bd 2540 29bd 02a5 9c3d
00000150: 1e8d 183e 5a93 143e 3fa1 e9bb 0bea a8bd
00000160: 827e 50be 4231 813d b7ce 75be b73e 2d3e
00000170: 475e 8b3d 5429 693d 9f5a e63d ae43 3dbd
00000180: 9667 f6bd c662 a8bc 7bb1 bb3c 852a d73d
00000190: 7382 163c 02b8 35be f96f 3a3d 02c3 623c
000001a0: 58ae 433e 4cdf 4abe 0d26 283e 0017 f6bd
000001b0: 1c2d 3d3d a4c4 e9bd 50a7 04be 42ed 81be
000001c0: c932 0bbe 3834 cabd d0ee f9bd ec29 7bbe
000001d0: 2af7 ac3d 8380 d43d 72d0 cebd 8880 493e
000001e0: 65b4 483d b46d 003e 167c 3fba c753 93bd
000001f0: e5b7 ee3b d0ad 18bd 6544 2a3e 8f4a ccbd
00000200: 41a2 1dbc b4a4 263e aa88 e03d a7b7 e2bd
00000210: a970 ef3d 6a42 a3bc fd5e 2bbc d9ab 173d
00000220: d9c1 6abd 03df 063c 3b5f 7b3d b598 7f3d
00000230: eec2 e9bd 9e4b 23be d3a8 46bc 3b43 c6bd
00000240: 6aa6 32be 585c 803c 978b b33d 53b9 7c3c
00000250: 1912 a8bd c7f3 913d f9c1 1ebc 0faa 443c
00000260: 9e60 043e 2ce7 95bc c0ea 0bbe 91e4 363e
00000270: eccf 033d 843a c0bd 44cb aa3d c67c 07bc
00000280: 5e56 d3bd 6311 76bc 7833 06be 494c 903d
00000290: 1cbb f2bd 9bf9 b2bc dacd 49be 0bde 52be
000002a0: a0e0 22ba a03f 8ebb 28d2 d7bd 14e5 03be
000002b0: a55d d53d c147 b03d ba0c 2c3d d55c 0e3e
000002c0: da1b 52bd c1f6 c4bc 04a5 babc c714 c3bd
000002d0: a9ad 99bd 7946 523c 8436 0d3d 6b67 2abd
000002e0: d2eb d4bc ae96 ae3d e5d2 9e3d f789 063d
000002f0: 0a27 3b3d ecc5 963d 5487 dabd 8a07 c4bd
00000300: 9243 89bc 5424 f0bd 8bb3 f6bd 48b8 4bbd
00000310: 9078 9dbd 991c 64bc c5f0 c93d 8423 5fbc
00000320: 2e11 33be dfe4 ffbd 1a27 a53d bd3d 45be
00000330: 1116 813d 2240 b3bd f3f8 04be 0fdf 3b3e
00000340: 2453 58bd 7f03 fa3d a1ef 60bd de6b 6fbd
00000350: 2197 dc3c e325 beba 1870 7a3d e49a 12be
00000360: 463c 07bd bca4 0dbe c0ad a93c e8d5 dbbb
00000370: f75f 82bd 9940 b4bb 48ba 73bc 83d9 00be
00000380: b281 b83d add4 453d 2d98 2ebe 62df 133c
00000390: 29e4 26bd 83b0 e73d c2b0 843d c3fe 453d
000003a0: 9a5e 973d 5082 1ebc 7108 3a3d 0c0e 6bbd
000003b0: 15c3 b6bd 9e5f 1ebe 63ca 4c3d cd19 56bd
000003c0: 4e8d 92bd 8211 873d 012a 7d3d 2ba0 35be
000003d0: 9997 e73d 6d23 4a3d a207 803e fa5b 3ebd
000003e0: ac9d bbbd 0931 c5bc 9cfb 593c 8df8 9f3c
000003f0: da08 c23d a4fb 793d ba54 bc3d 68b7 673e
-0.042914286 0.1099451 0.31583405 -0.094915725 -0.12580292 0.042260043 0.014299231 -0.06559031
-0.04365945 0.014962004 0.0135865 0.017064823 -0.08298349 -0.11452482 0.14915074 0.09600326
-0.05151785 -0.019990291 0.034776222 0.12894346 -0.08238461 0.036225244 0.21980162 -0.0070133656
0.056883983 0.1263099 -0.033074256 -0.088320956 -0.15430717 0.030542 -0.011020959 0.050763313
0.11379436 0.046224073 0.28117567 0.04731052 -0.028914046 0.12204561 0.015679039 -0.07627301
0.040135797 0.018912595 0.14328867 -0.19390428 -0.002579974 -0.019810123 -0.11161961 0.053273197
0.059429046 0.081998914 -0.16030827 0.0027970476 -0.024655266 0.043795712 0.026720962 0.067603804
-0.12850295 -0.0832737 0.10517969 0.16902813 -0.048008867 0.11043679 0.11177299 0.102952555
-0.06391848 0.028105794 -0.014318668 -0.036744427 -0.013902381 -0.008915452 0.022111317 -0.17155662
0.047929514 -0.055096846 0.083947584 0.16311179 0.18991475 -0.0067951344 -0.2046406 0.009108152
0.18700996 -0.07400282 -0.04132094 0.0764866 0.14897582 0.14509335 -0.0071298177 -0.08247765
-0.20360759 0.06308223 -0.24004637 0.16918455 0.06805091 0.05692418 0.11247753 -0.046207123
-0.12031476 -0.020554911 0.022911778 0.10506157 0.009186375 -0.17745975 0.04551694 0.013840439
0.19109476 -0.19811743 0.16420765 -0.12016106 0.046185598 -0.11414459 -0.1295445 -0.25376326
-0.13593592 -0.09873241 -0.12203753 -0.2452771 0.0844558 0.10376074 -0.100983515 0.19677937
0.049000163 0.12541848 -0.0007304562 -0.07193714 0.0072851055 -0.037275136 0.16627653 -0.099751584
-0.009621204 0.16273767 0.109635666 -0.11070185 0.1169141 -0.01992913 -0.010459659 0.03702912
-0.057313774 0.008231881 0.061370116 0.062401492 -0.11414133 -0.15946814 -0.012125212 -0.09680792
-0.17446294 0.015669033 0.08766859 0.015425044 -0.08206577 0.07126575 -0.009689801 0.012003436
0.12927482 -0.018298708 -0.13663769 0.17860629 0.03218071 -0.09386161 0.08339551 -0.008269494
-0.103192076 -0.015018794 -0.13105571 0.070458 -0.118520945 -0.021847537 -0.19707432 -0.20592515
-0.00062132813 -0.004341081 -0.10538131 -0.12880355 0.10418252 0.08607436 0.042004324 0.139026
-0.051296093 -0.024043443 -0.022783764 -0.09525447 -0.07503826 0.012834185 0.03447582 -0.041602533
-0.025991354 0.085248336 0.07755069 0.032846417 0.045691527 0.07361969 -0.10670343 -0.095717505
-0.016755853 -0.11725679 -0.12045964 -0.04973629 -0.07689011 -0.013922834 0.09860376 -0.013619307
-0.17487022 -0.124948256 0.08064099 -0.19261833 0.06303037 -0.08752467 -0.12985592 0.18346809
-0.052813664 0.12207698 -0.054916028 -0.05845248 0.026927533 -0.0014507141 0.061142057 -0.14316899
-0.033016466 -0.13832372 0.020712733 -0.006708849 -0.0636596 -0.0055008647 -0.014875956 -0.12582974
0.090091124 0.048298527 -0.17050238 0.009025427 -0.040744934 0.11312964 0.064790264 0.048338663
0.07391091 -0.009674624 0.045418207 -0.057386443 -0.08923928 -0.15466163 0.0499977 -0.0522707
-0.07155858 0.06595136 0.061807636 -0.1773688 0.11308212 0.04935019 0.25005823 -0.046474434
-0.09160933 -0.024071233 0.013304617 0.019527698 0.094743446 0.061031 0.09195848 0.22628558

F.linears.1.bias f4 [32]
00000000: 5179 31bc 3245 edbc d0c0 15bd 2c76 f83c
00000010: 6b79 fa3d 96b6 473c 99fa 50bc 399a 32bd
00000020: 353e be3d e322 1cbd 5c9e 773c 5171 c9bd
00000030: 77dc 893c f8b7 ed3d 1273 31bc 09f7 d5bd
00000040: 11a9 373d 6ece 853d 6e9e 82bd 66f3 ac3d
00000050: c118 16bc f89c 41bd 49e3 3a3d 5d94 c7bd
00000060: 93bc 743c 3ec9 883d abeb b4bb ed47 b43d
00000070: 05a0 52bd e03d 66bd b6f3 223d 86e2 023e
-0.010832147 -0.028963659 -0.036560833 0.030329786 0.1223019 0.012189528 -0.01275506 -0.04360411
0.09289209 -0.038119208 0.015113439 -0.098360665 0.016828759 0.11607355 -0.010830658 -0.10447509
0.04483897 0.06533514 -0.06377874 0.08444862 -0.009161175 -0.047268838 0.045626912 -0.09745095
0.014937538 0.06679009 -0.005521258 0.08802781 -0.051422138 -0.056211352 0.039783202 0.12781724

F.linears.2.weight f4 [10, 32]
00000000: 0f9c 603c 1fc8 a0bd 6a73 623d 9757 f7bb
00000010: 8965 b9bd 3441 183e eb3c 803e 7fe3 5c3d
00000020: 10d6 e93d 13f5 09be 4fb4 823d 0d75 c5bc
00000030: 0224 473d b3a8 02be 7349 3d3d 84e2 3b3e
00000040: e27e 9839 1a7f 383a beae 363e f205 1b3e
00000050: edda a8ba 45d1 513e e84d 84bc f67c 4d3d
00000060: 8a6a 0fbe a0b8 7b3c 8740 0f3e d499 73bd
00000070: 3b12 8e3b 1a5f 00bd 6371 2abd 2661 b9bd
00000080: 755c 6cbc 9807 babd fb37 523d 92fa 1a3e
00000090: 1940 73bd 2492 e43d c770 9cbd 5b3f 9c3e
000000a0: 80c0 6c3d 2821 38be c20c 813d c037 303d
000000b0: 5097 d13d deb1 b3bd eeec 973b 36a2 a93d
000000c0: 3e4d 03be b2e8 873d f384 113d 4b9d 343c
000000d0: 8f6b 643d b8dd 35be e356 5abe 847c 1e3e
000000e0: 1b52 a43d cab9 a2bd d917 e13d 4234 17be
000000f0: a97b 2cbe 32b6 e33c 6612 ef3d 6633 6ebe
00000100: 2145 ed3d 7301 233e acf8 8cbe f645 efbd
00000110: 8787 efbc 5448 5c3d 6f3f e0bc 2e6b ce3d
00000120: 084b 113d aa64 38bd 2bf9 eebd 31fe 583c
00000130: e674 ce3b dd08 9f3c 852e 903c 288c 24bd
00000140: 3ec8 16be 0f92 963c 63af fcbb fed3 893d
00000150: 6850 03bc 1259 973d 584b 0cbe 3b49 08bb
00000160: ef79 2fbd 2c06 2e3e cfc5 b53d 80d6 54be
00000170: e193 eabd 30e4 fb3d 5aa2 ddb9 fb3d 0bbe
00000180: 9262 103e c43e 813e 9ee4 34bd 6ee3 0ebe
00000190: 97f4 de3d e379 8c3d 8c37 16be 35f3 d5bc
000001a0: 5e52 c33d aee6 b53c 051e 623d d184 8ebe
000001b0: 7f7f 233e 6f5c 383c ad73 c0bd 6ffc 2abe
000001c0: 210f 9ebd 5520 60bc b501 2a3e 4fd4 403e
000001d0: dcaf 65bd bc2c 45bd c6b5 ca3d 5a98 3c3b
000001e0: 5ad2 54bc dccf 49bd 2e3a 503d 7efe 323d
000001f0: 35b2 113e 0f5a 983c 1e5f 943c 451a d9bd
00000200: 16ea 49be f2f0 8f3d b691 81bd f221 d8bd
00000210: 85fd 03bd 5ab7 f0bc 98e0 5abd 8b10 4b3e
00000220: 16f6 9e3c 3978 05bd f89d 6d3c 4a56 553e
00000230: e952 dabd 009b 85bd 63d3 493c a654 7c3b
00000240: 5682 4ebe f0ef f2bc 23a4 f3bd b4ae a2bd
00000250: c12d 553d 9b06 a53d ab34 9cbd 2afb 43be
00000260: ab8b cfbd c7e4 573e 038d e13d ec51 47bd
00000270: 24e4 733d 2828 e93d 36f4 3cbe 2af9 dabd
00000280: d4a8 0d3e acdf 033d 84c9 f2bb 5706 71be
00000290: 8989 d13c 99de 523e a4ae 10bd 675e 6d3d
000002a0: 6a1f 99bc c26d 53bd c591 b3bd 1301 9e3d
000002b0: 4f87 fa3c a780 a7bd 9112 93bd d6be 473d
000002c0: 59fb dbbd 98ed f93d d79b 5abb 6293 933c
000002d0: 1115 27be 689a a4bd 6b90 2e3e c4e1 343e
000002e0: 239e 92ba 75bf 1abe 2b06 89bd 33df 1fbe
000002f0: 0f26 fdbd 3519 04bc 5cd6 81bc 0153 3cbd
00000300: 4dea 8a3d 56b5 8fbd 805a 383e 0c40 82bd
00000310: c750 6c3d 0c6d 143e 6ddb 033e c244 923d
00000320: 0e8c cd3d 6de5 973d 86f6 5abe 5eeb 30bc
00000330: c794 53bd 7c17 bfbc c9fc 823c 39ac 23be
00000340: 4286 ad3d 2296 f33c 23b3 023e edcc c33c
00000350: d898 81bd 018e 0dbe 7dba 1b3d 6bfb 043c
00000360: 5485 f83d 8e07 333d 3323 853d 443d 5dbd
00000370: a351 193c 1a13 ca3d 0709 53bc 6a9a 90bd
00000380: c460 923d 4389 17be d8c4 d83b 36fa 9cbd
00000390: 863f 193d 1e64 e23b 56b4 04be 0aaa fe3d
000003a0: f511 31be f0ae e9bd 7112 013e 6d5e 0dbe
000003b0: 9166 eebd d54b 5a3c 484b 11be 4069 b4bd
000003c0: c634 a83d d07a 413e e969 013d b52e 853e
000003d0: 3d27 e4bd 3890 d23d f5a9 85bc 7b77 5c3d
000003e0: 7aab 74be 1210 5abc 06d0 fbbc aab1 bbbd
000003f0: 9701 063e 9609 59bd d86f 0ebe ea3d 6a3e
0.013709082 -0.0785067 0.05528585 -0.0075482833 -0.090525694 0.14868623 0.25046477 0.053927895
0.11417782 -0.13472395 0.063820474 -0.024103666 0.048618324 -0.12759666 0.046212625 0.18348128
0.00029086234 0.00070379826 0.17840096 0.15138987 -0.0012882628 0.20489986 -0.01615043 0.050168
-0.14005485 0.015363842 0.13989459 -0.059472874 0.0043356693 -0.031340696 -0.04161204 -0.09051733
-0.01442634 -0.0908348 0.05132292 0.15134647 -0.0593873 0.111606866 -0.07638698 0.30517086
0.05780077 -0.17981398 0.063012615 0.043021917 0.10233939 -0.0877416 0.0046363985 0.082828924
-0.12822434 0.0663618 0.03552718 0.01102383 0.05576664 -0.1776036 -0.21322207 0.15477186
0.08023473 -0.07945593 0.10990877 -0.14766029 -0.16844048 0.027796838 0.11673431 -0.23261794
0.11585451 0.15918522 -0.27533472 -0.11683266 -0.02923943 0.053779915 -0.027373997 0.10079037
0.035471946 -0.045017876 -0.11668619 0.013244198 0.0063005565 0.019413406 0.017600307 -0.040172726
-0.14724824 0.018380193 -0.0077113374 0.067298874 -0.008014776 0.07390036 -0.13700616 -0.0020795602
-0.042840894 0.16994542 0.088756196 -0.2078495 -0.11453987 0.12299383 -0.00042273366 -0.13597862
0.14100102 0.252432 -0.04416334 -0.13953945 0.108864956 0.068591855 -0.14669627 -0.026116947
0.09537195 0.022204723 0.05520441 -0.27835706 0.15966605 0.011252507 -0.093970634 -0.16697858
-0.07717729 -0.013679584 0.16602214 0.1883099 -0.056075916 -0.048138365 0.09897952 0.0028777332
-0.012989605 -0.049270496 0.050836734 0.043699734 0.14228137 0.01859763 0.018111762 -0.10600714
-0.19718203 0.070283785 -0.0632662 -0.105533496 -0.032224197 -0.029384304 -0.053436846 0.1983053
0.019404452 -0.032585356 0.014502995 0.20833698 -0.10660345 -0.065237045 0.012318465 0.0038502603
-0.20166907 -0.029655427 -0.11896541 -0.07943478 0.052045587 0.080579005 -0.07627233 -0.1913878
-0.101340614 0.21083365 0.11013224 -0.04866211 0.059543744 0.11384612 -0.18452534 -0.106920555
0.13833934 0.032195732 -0.0074092764 -0.23537575 0.025578277 0.20592727 -0.0353228 0.057951357
-0.018691737 -0.051618345 -0.08768038 0.07715049 0.030582098 -0.08178835 -0.07181276 0.04876598
-0.107413 0.122035205 -0.0033357048 0.018014614 -0.1631663 -0.08037263 0.17047279 0.17664248
-0.0011186044 -0.15112098 -0.066906296 -0.15612487 -0.12360775 -0.00806265 -0.015849285 -0.045977596
0.067829706 -0.07017009 0.18003273 -0.06359872 0.057694223 0.14494723 0.12876673 0.07142021
0.10036479 0.07416806 -0.21383104 -0.010798303 -0.051655557 -0.023326628 0.015989678 -0.15983666
0.08472873 0.029734675 0.12763648 0.023901427 -0.06327981 -0.13823701 0.038019646 0.008116583
0.12134805 0.043708377 0.06500854 -0.054013506 0.009357843 0.098669246 -0.01288057 -0.07060702
0.07147363 -0.14798455 0.0066152625 -0.076649114 0.037414096 0.0069089076 -0.12959418 0.12434776
-0.17292006 -0.1141032 0.12604691 -0.13805552 -0.11640657 0.013323744 -0.14188874 -0.08809137
0.08213191 0.18894506 0.031595144 0.26012197 -0.111402966 0.10281414 -0.016316393 0.053824883
-0.23893538 -0.0133094955 -0.030738842 -0.09164746 0.13086544 -0.052987657 -0.13909853 0.22875181

F.linears.2.bias f4 [10]
00000000: ae25 733c 00a3 bdbd c0e8 233d 6f14 34bb
00000010: 39e4 25bd 06a8 62bd ccfb 85ba c887 b13d
00000020: 8b63 913d 72ed 13bc
0.0148405265 -0.092596054 0.04001689 -0.0027478 -0.040500853 -0.05533602 -0.0010222136 0.08668476
0.070990644 -0.009028779

G.0.linears.0.weight f4 [32, 10]
00000000: 0c36 48bd cdce 15bc 8721 bf3d 5eed 943d
00000010: 8f98 42bd 8d68 453b 6fce c13d 0d59 383e
00000020: 94ec 4bbd 1978 e5bd 7754 153e fa1d 8c3c
00000030: b9e5 13be 2082 07bc 9711 28be fc74 3c3d
00000040: 7d57 3ebd 2ef6 d1bd 5b77 50bd 6677 fabc
00000050: 4f76 d3bb b45c d43c 9023 3d39 8976 6fbd
00000060: f2f0 903d fb6c 1b3e cb43 9dbd 37cc febd
00000070: 31ec 57bb 1472 513d 0cdb 183e 39e7 313d
00000080: 4900 ca3d 7d25 5fbd 47da 46be 8280 00be
00000090: 6d10 f5bd 5db2 393b bffd e53c e234 16bd
000000a0: c412 c33d c5cd bd3d 47ba 64bd 1cab fa3c
000000b0: 2e00 b73d 233a 3b3d 4764 e2bd d100 25be
000000c0: be4b c63d ac19 ad3c 7763 4e3b d82c fe3c
000000d0: 1b6f 253e 7064 c0bd ee6d 963d 9918 d2bc
000000e0: 1fb5 b3bc 5627 5d3d 6d4e 05be 9282 07be
000000f0: e269 403e 43f2 893d d98f 663d 522e 1bbe
00000100: e105 d03c 7ae7 7ebd 5859 953d 8a3c 6bbd
00000110: 028f 9bbd dd92 91bd 7233 84bb 5152 403e
00000120: f7a1 b5bb 3b29 65bc 446f 9c3d 8c65 8cbd
00000130: eb50 47be 8171 403d 8c34 2c3c 5015 1b39
00000140: 46d2 d9bd ef47 0f3e 78cf 2b3e 47a9 12bc
00000150: a4c5 f53d f637 b2bc 6368 333d c1d0 70bd
00000160: 2318 69bd ea53 133d dc70 ae3d a254 713c
00000170: b435 c13c 6e20 36bd 028a 033c f57d 1cbd
00000180: 4223 143e b6ef e3bd 4401 61bb 4109 0b3e
00000190: b664 323d 4da1 afba 71bf 443e 9a3c 69be
000001a0: b238 593e b3eb d53d bbc7 6e3d 817f 8e3c
000001b0: d8b9 9e3d e083 3abd 6fce 43be d474 dabd
000001c0: e432 8a3b b83f 5b3d 4765 ffbc 1f6f 743b
000001d0: 8fb1 243d d725 eebd 6c00 c03c f3fd 053e
000001e0: 313e d3bd ec65 a8bc cb24 1cbe 86bf ebbc
000001f0: 3811 f1bd f9d9 a43b ca43 96bb 0134 9abd
00000200: 55f1 5a3c 587e 363d ac7e 313e 3bd4 3c3d
00000210: 2772 933d 2f7f c7bc b3a8 24bd 28f4 c33c
00000220: 740f ffbd c018 88bd 4cfd 6abe 2202 cc3d
00000230: f329 3dbd 9eb9 3d3d 6291 c93c 467c bbbd
00000240: 6b09 fc3d c580 b93c ddb8 323d 15c9 4c3d
00000250: 6c52 1d3e d001 26bd 0ed6 febc ea53 b2bb
00000260: 2562 17be b68b c0bc 156d c93d e85b 38bd
00000270: 2e0f 003e 8d40 373e f457 933e 28e9 903e
00000280: 2b95 273c 2ff2 35bd 2dbe c83d 0444 ee3d
00000290: 9988 33bd 4156 373d 2986 f93d 1c94 4a3e
000002a0: 89b1 273e 902f f23c f0ba 7fbd c810 abbc
000002b0: 7e4e 47bd 3aaa 2dbc bd4c 613d 8665 6dbd
000002c0: 0d2a c83d d630 423e 6660 84bd d189 023a
000002d0: 4a90 093e f18b 113e ad6d 023e 2765 89bc
000002e0: 4c73 683a b830 de3d 22b6 a3bd b11f 73bc
000002f0: 8246 943d 009a 34be 3b0b abbd 2957 8cbe
00000300: 7588 f6bd 994f b13d cf21 eabd 4c94 01be
00000310: a7f6 503e 9570 a63d 6223 bbbd c6b9 653d
00000320: 267b 03be a0c7 c2bd 280b 45bd 2f72 1c3e
00000330: 7b5e 543d 5c62 8dbd 0b20 0ebe dbf1 81bd
00000340: 7f65 ecbc 9ac8 21bd 281f e0bb 5848 3a3d
00000350: f8ec f4bd 441a 8cbc 29da 98bd 25e4 89be
00000360: 94d9 17bd 9e1a b6bd 0f13 423e a86e 5239
00000370: 282b 0fbe 5941 96bc e256 d23d af6e 40be
00000380: b645 bbbd 5279 2d3e 52a4 07be e825 12be
00000390: 4830 2dbc 2b93 8ebd cb17 573e 5446 b13e
000003a0: 2a0a b53d ce76 1dbe 69bc 31be 9437 463d
000003b0: a341 753d 482a f13c 1022 06bd 2fc6 cc3d
000003c0: 0659 943d 3de8 acbd ba6b c33d f232 683e
000003d0: fa6e 1ebe f5dd 1cbc 0262 3c3d e12c 0c3e
000003e0: dba9 1b3e 000f 06be 49ce fbba ece5 cdbd
000003f0: f820 a0bd feca cc3d 0c64 7bbe 3f42 0cbe
-0.048879668 -0.009143543 0.09332567 0.07271837 -0.047508772 0.0030122132 0.09463202 0.1800272
-0.049786165 -0.112045474 0.14583002 0.017104138 -0.14443101 -0.00827077 -0.1641296 0.046010002
-0.046470154 -0.10252033 -0.050895076 -0.030574512 -0.0064533125 0.02592311 0.00018037693 -0.058462653
0.07077207 0.15178291 -0.07678946 -0.12441295 -0.0032947178 0.051134184 0.1492731 0.0434334
0.09863336 -0.05447911 -0.19419204 -0.12549022 -0.119660236 0.0028335073 0.028075097 -0.036671527
0.09525064 0.09267763 -0.05584171 0.03059917 0.08935581 0.04570974 -0.11054283 -0.16113593
0.096824154 0.021130405 0.003149239 0.031027243 0.16155665 -0.09394157 0.07345186 -0.025646495
-0.021936951 0.05399259 -0.13018198 -0.13233402 0.18790391 0.06735661 0.056289528 -0.15154389
0.025393428 -0.062232472 0.072924316 -0.05743078 -0.07595636 -0.0710809 -0.004034453 0.18781401
-0.0055429894 -0.013986881 0.0763841 -0.06855306 -0.19464462 0.046983246 0.010510575 0.00014789891
-0.106358096 0.13992284 0.16778362 -0.008951492 0.120005876 -0.0217552 0.043800723 -0.058792833
-0.056907784 0.0359687 0.0851762 0.014729651 0.023585178 -0.04446452 0.008028509 -0.03820606
0.14466575 -0.111297056 -0.003433303 0.13577749 0.043553077 -0.0013399512 0.19213654 -0.22777024
0.21213034 0.10445347 0.058295947 0.017394783 0.07750291 -0.045535922 -0.19121717 -0.106668144
0.0042174924 0.053527564 -0.031176222 0.0037297679 0.040208396 -0.11628311 0.023437701 0.13085155
-0.103145964 -0.020556413 -0.1524841 -0.028777849 -0.11770862 0.005030867 -0.004585718 -0.0752945
0.013363202 0.044554085 0.17333478 0.046100836 0.07199507 -0.024352638 -0.040199947 0.023920134
-0.12454119 -0.06645346 -0.22948188 0.09961344 -0.046182584 0.046319596 0.024605457 -0.09154563
0.12306484 0.02264441 0.04363333 0.049996454 0.15363473 -0.040529072 -0.031107929 -0.0054421322
-0.14783533 -0.02350412 0.09835259 -0.045009524 0.1250579 0.17895718 0.2877804 0.28302884
0.0102284355 -0.044420417 0.09801898 0.11634067 -0.04383144 0.044759993 0.12183792 0.19783062
0.16376318 0.029563695 -0.062434137 -0.020882025 -0.04865884 -0.010599667 0.055004824 -0.05795815
0.097736456 0.18963942 -0.06463699 0.00049796427 0.13433948 0.1421354 0.1273715 -0.016771866
0.0008867278 0.10849136 -0.079937235 -0.014839099 0.07240011 -0.17636871 -0.083517514 -0.27410248
-0.12037746 0.0865776 -0.1143223 -0.12654227 0.2040659 0.08126942 -0.09137608 0.05608537
-0.12839946 -0.09510732 -0.048106343 0.15277933 0.051847916 -0.06903526 -0.13879411 -0.063449584
-0.02885699 -0.03949795 -0.0068396516 0.04547915 -0.11959261 -0.017102368 -0.07463486 -0.26931873
-0.037072733 -0.088917956 0.18952583 0.00020068383 -0.13981307 -0.018341707 0.10270478 -0.18792222
-0.09144156 0.16940811 -0.13246277 -0.14272273 -0.010570593 -0.06961664 0.2100517 0.3462397
0.08839829 -0.15377352 -0.17357029 0.048392847 0.05987705 0.029439107 -0.03274733 0.09998738
0.072435424 -0.084427334 0.095420316 0.22675684 -0.15472022 -0.009574403 0.045991905 0.13688995
0.15201513 -0.1309166 -0.0019211258 -0.1005362 -0.07818788 0.09999655 -0.24549884 -0.13697146

G.0.linears.0.bias f4 [32]
00000000: 2f1d 98bc 755d 7abd b663 183d 3011 cfbb
00000010: 6a22 203d fbea 0b3d b841 8fbd 6110 3bbc
00000020: 812c 703d 443d ddbd 14c5 433a 28a6 0ebc
00000030: f20a c8bd 6de4 01bd 2767 fc3b af32 7a3c
00000040: 3cfa d73d 0c6b be3d db79 84bd 53ad 02bd
00000050: 93e3 d9bc 9645 af3d 9fd5 0dbe 2954 a73c
00000060: 2080 063e cf65 873d b8ed df3b 58ef 1a3d
00000070: 2f0c fabc f030 cbbd 574b 9abd a14c d03b
-0.018568603 -0.061124284 0.037204467 -0.0063191876 0.03909532 0.03415964 -0.06994957 -0.011417479
0.058636192 -0.10802701 0.00074680266 -0.008706607 -0.09767713 -0.031711984 0.0077027264 0.015270873
0.10545775 0.09297761 -0.064685546 -0.031903576 -0.026597774 0.08558194 -0.13851021 0.020425873
0.13134813 0.06611215 0.006833758 0.037825912 -0.030523388 -0.099214435 -0.07533901 0.006356791

G.0.linears.1.weight f4 [32, 32]
00000000: f28f 793c 3fe9 4e3d b08a 86bd 0260 043d
00000010: af1d 463d e3b2 ad3e a563 13be e070 e6bb
00000020: 9a02 3e3d ea3c 27be 5bc0 89ba bdc3 86bd
00000030: 51be 35bd b90d 9c3d 7a97 4cbe 578d 8bbc
00000040: 09fe 5b3d faf3 063d 25d6 463d 791b f0bc
00000050: 7736 ddbc 1ed9 d13d c502 ee3d 504e 193d
00000060: 50c5 ee3d af9a 133e 9e7d 4a3e f262 923d
00000070: 35f8 3a3e a73a 6ebd 6670 d03d cade 8e3d
00000080: 18c1 65bb ba0b d53d 350b 893e 2878 d73d
00000090: 888b d43d cb2b 84bd c81b f3bd 5bb4 0a3e
000000a0: 86f9 c7bc b64e 013d 0218 d13d e7ca 6e3d
000000b0: b6d1 5cbd 637f 4fbd fa01 9e3d c80d 1cbd
000000c0: bb8a f8bd 5d8f 443c b084 92bd 0473 45be
000000d0: 320f 98bd 357b b43d fac0 f5bd 0276 a4bd
000000e0: 3e02 30bc 9c29 023d 0c47 5a3e 715d 10bd
000000f0: f955 debb 2bf8 473e 1f62 5dbd 5415 d3bc
00000100: 85ee 80be 4172 c33c 7c70 093d 328c 273d
00000110: a4cb 32bb 9e28 15bd ea50 c63d df0c 323e
00000120: 9962 793d 5a09 263d d506 503d 8981 b0bc
00000130: bcda 2d3d 2589 1abe ce60 a43d 0d6d b83d
00000140: c2e0 5ebe 768f 34be 0870 80bb fa39 8bbe
00000150: c06e e639 7305 953d 7dce e33d 4405 af3d
00000160: 1d3d 45bd 0c8d 69bd a38d 1a3d 62c0 80bd
00000170: 5df1 303e f69b ce3c 9838 ffbc dc8d c13c
00000180: 20eb 2d3e 23b6 8abd 2139 353d ef01 0e3d
00000190: cc58 d73d cd8d 253d d494 b7bd e5f4 a73d
000001a0: eeb2 823d 2a48 063d f9d5 533d 4e8f 5abe
000001b0: c6ae 43be f95b f53d cd0b 093e ee85 a8bd
000001c0: dc3e c0bd 12db 3cbe a134 da3d d304 82bc
000001d0: 317c ebbc 9c34 6bbe 1c4b a33c b4c2 043d
000001e0: b008 44be 73b2 493e a792 123e fe7f 2f3c
000001f0: 561f 88bb 04e1 a6bc e126 d9bd 5d99 7abe
00000200: 0db3 383d 7384 c63d 5a77 83bd 01d2 12be
00000210: a887 52be e46c c7bd e1fb 583d 5993 abbd
00000220: 356a cb3d f535 53bd 5ccb e1bd 7391 d23d
00000230: f223 2cbd 66cf d83c 0973 63be 7155 833d
00000240: 8ad8 e83d 73b7 6fbe d7ea 903d 85a3 023e
00000250: fc22 4bbc 11de ea3d 5111 a6bc 124b 13be
00000260: 0e54 5b3e c7f8 d73d d7b1 5dbc 7f9e f63d
00000270: 8703 033e bba2 67be 81c1 3f3e cbdf 073e
00000280: 9c88 5b3d 872f c03b 8784 223e 595b 463e
00000290: 00bf 243d 932a 0f3e fedd 0bbd 829a 32be
000002a0: 7e54 5d3e e087 613d e09f e13d 8f7c 45bd
000002b0: 6f0c 0abe d924 323d 1b83 e63d 3a34 e63d
000002c0: 1c3e 403d f47f 2fbd 3d5e 213e ab3d 7abb
000002d0: 8e95 803d 4e9e 733d 4af3 383b d85e 243e
000002e0: cebc 78ba a57c 48bd 3c4a 1f3e 5ec5 7bbe
000002f0: 70f7 9f3c cd04 1a3d 82b2 07be 1a93 1d3d
00000300: c225 d6bc 6c02 11bd 6550 0abe 8929 a3bd
00000310: b543 463e df5d 1e3d bb5a ac3d c17a f63c
00000320: 246e b53d 3ae4 a5bd 37f6 edbc 6910 7fbe
00000330: 26d2 0abd 4a39 df3a e693 353e ab82 9fbd
00000340: 1516 55bd 4000 3fbe 6bf7 183d d855 e0bd
00000350: 06c1 e33b 9747 0bbe 9652 233e 3dfc 813d
00000360: 6941 18bd a266 3b3e 9db3 f53c 4dad 11bd
00000370: 8600 4abd 6fff 0c3e 241e 39bd 2de5 953c
00000380: 90cd 4c3c 118a 653c c9e0 6bbd 535c e43d
00000390: 130f 0e3e 6f89 b4bc b5a5 11bd 5b2d 813d
000003a0: 4870 593c 458d 8ebd b16d 42bd 69c1 cc3c
000003b0: bdeb 08be b843 bb3d 79df 453d 190f 403e
000003c0: b50e 00be 2e20 063d 9705 a83c 9bd7 0bbe
000003d0: f12a 36be 7423 5bbe cdfe 193d 372c 3fbd
000003e0: cf7d ad3c c63d 093e 96b1 8e3d ffca bcbd
000003f0: 24b4 943d 9a08 d53a 223e cbbd 2eed 17be
0.015232073 0.05051541 -0.06569421 0.032318123 0.048368152 0.33925542 -0.1439348 -0.0070324987
0.0463892 -0.1633183 -0.0010509597 -0.06580303 -0.044370953 0.07619805 -0.19979659 -0.01703517
0.053709064 0.032947518 0.048544068 -0.029309975 -0.02700351 0.1024649 0.11621622 0.0374282
0.11658728 0.14414476 0.19774482 0.071477786 0.18258746 -0.058161404 0.10177688 0.069760874
-0.003505772 0.10402627 0.26766363 0.10520965 0.10378176 -0.06453665 -0.11870533 0.13545363
-0.024410974 0.031569205 0.10209657 0.05829897 -0.053910933 -0.050658595 0.07715221 -0.03809908
-0.12135836 0.011997071 -0.071542144 -0.19282156 -0.07424773 0.088125624 -0.11999698 -0.08030321
-0.010742722 0.031777963 0.21316165 -0.035245363 -0.006785151 0.19528262 -0.054048654 -0.025767006
-0.25181976 0.023858191 0.03355454 0.040905185 -0.0027282024 -0.03641569 0.09683402 0.17387722
0.060885046 0.040536262 0.050787766 -0.021546142 0.04244493 -0.15091379 0.080262765 0.09005175
-0.21765426 -0.17632851 -0.003919605 -0.2719267 0.00043951534 0.0727643 0.11123369 0.08545926
-0.048153985 -0.05701928 0.03773273 -0.06286694 0.17279573 0.025220852 -0.031154916 0.023627214
0.16984224 -0.06773021 0.044243935 0.034669813 0.105149835 0.040418435 -0.089639336 0.08201007
0.063817844 0.032783665 0.051717732 -0.21343729 -0.1910964 0.11980433 0.13383408 -0.0822867
-0.093869895 -0.18442944 0.106545694 -0.015871441 -0.028745743 -0.22969288 0.019933276 0.032412246
-0.19143939 0.19696979 0.14313756 0.010711668 -0.004154126 -0.020370968 -0.10603119 -0.24472566
0.04509263 0.096932314 -0.06419249 -0.14337923 -0.20559561 -0.09737566 0.052974585 -0.08377714
0.09932367 -0.05156513 -0.11025116 0.102816485 -0.042026468 0.026466083 -0.22211851 0.06412781
0.113694265 -0.23409824 0.07076042 0.1275769 -0.012398478 0.11468137 -0.020271929 -0.14384106
0.21418783 0.105454974 -0.01353117 0.120419495 0.12794314 -0.2262067 0.1872616 0.13268964
0.053597078 0.0058650407 0.15870868 0.19370784 0.040221214 0.13981085 -0.034147255 -0.17441753
0.21614262 0.05506122 0.11016822 -0.04821449 -0.13481306 0.043492172 0.11255475 0.1124043
0.046934232 -0.042846635 0.15758605 -0.003818373 0.06278525 0.059477143 0.0028221183 0.16051805
-0.00094885833 -0.048946995 0.15555662 -0.24587008 0.019527167 0.037602235 -0.13251689 0.038470365
-0.026141051 -0.0354027 -0.1350723 -0.079669066 0.19361766 0.03866374 0.08415743 0.03008783
0.08858898 -0.081001714 -0.029048068 -0.24908604 -0.03389182 0.0017030623 0.177322 -0.07788595
-0.052023012 -0.18652439 0.03734533 -0.109538734 0.0069505004 -0.13601528 0.15949473 0.06346939
-0.037171755 0.1830087 0.029992873 -0.035565663 -0.049316905 0.13769315 -0.04519476 0.018297756
0.012500182 0.014009968 -0.05758742 0.11150422 0.13872938 -0.02203819 -0.03555842 0.06307479
0.013271399 -0.06960539 -0.04746789 0.024994569 -0.13371177 0.09143776 0.048308823 0.1875576
-0.1250561 0.032745533 0.020510478 -0.13656466 -0.17789818 -0.21400243 0.037596513 -0.046673026
0.021178154 0.13402471 0.069674656 -0.09218406 0.072609216 0.0016253174 -0.0992396 -0.1483657

G.0.linears.1.bias f4 [32]
00000000: 3e21 58bc a8f6 103d a880 66bc 7ab9 eabc
00000010: 23fa 3dbd 3657 02bd 59f6 bebd 4dec e73c
00000020: fc2e fb3c 5b09 94bd e358 1dbd 3888 f83c
00000030: 1a7f 66bd 852f 503d ce8e 68bd e1c0 ab3d
00000040: 0e62 bebc 5b0b d7bb 942d 72bd 9dd5 9e3d
00000050: 768a aa3d 2bbb ad3d 8fff a9bc 68b7 a9bd
00000060: aa83 bfbc f189 353d ec4d 1a3c b824 9b3d
00000070: fd86 973d 0a91 3fbd c493 863c 1a70 54bc
-0.013191519 0.03539148 -0.01406876 -0.028652895 -0.046381127 -0.031821452 -0.09324331 0.02831092
0.030662052 -0.07228347 -0.038414847 0.030338392 -0.056273557 0.05082657 -0.056776814 0.08386398
-0.023240115 -0.006562633 -0.059125498 0.07755587 0.083271906 0.08482965 -0.020751743 -0.08286935
-0.023378212 0.044321004 0.009417992 0.07575363 0.07398794 -0.04676918 0.016427882 -0.01296618

G.0.linears.2.weight f4 [10, 32]
00000000: 3685 8cbc fbfc 39bc c089 273e d6ed df3d
00000010: 4242 89bd ce22 f53d 2ba1 d83d 465e 8c3d
00000020: cb6a 8e3e 5cb6 0b3d fb09 8a3d 0d64 e4bc
00000030: 2088 1c3e 279f 2e3d 7df6 44be 97cb 96bd
00000040: 8f11 49be 7bd1 e2bd 0833 75be f5e2 193d
00000050: f088 1fbc ddff 0ebe 0f37 ebbd 3462 8f3e
00000060: 9e7a 58bd 6b2f 7bbd c353 bebc 8e1f e23d
00000070: 07e0 023e 1ffc 463d 12c0 db3c 9cf0 01be
00000080: 6599 44be e273 133d 9ab4 cdbd 09ac 57bd
00000090: 3dba 873d 6374 693b 0170 633e a051 b6bd
000000a0: 0aa6 fe3d 31c7 40be 8550 803d 82cd 68bd
000000b0: b8af 3ebe 2b1f fa3b 591a 963c 76a5 3f3e
000000c0: a28c 293c 00a0 e3bd 8dd7 353e 1e39 243d
000000d0: d298 8dbd 1468 893d 8fd5 84bc 012e 2ebd
000000e0: 6c0f db3c bfa7 4abe f89c 89bd bb04 65bb
000000f0: 3dd5 563e bb15 47bd aec9 003d c440 95bd
00000100: b5c5 3cbd 5b5d 5bbe 5e6e 0dbe 0af8 e0bd
00000110: ab3c f43d 9059 11bb 646d 4dbe 4a16 743a
00000120: 5af4 aabd ce6f 42bd bfc3 763d e0ad 86bd
00000130: 1446 81be ffc0 ce3c 101f 2b3d bf85 0dbe
00000140: 5f80 a33d 0d44 623d b194 043e 651e 873d
00000150: 024d 923d d019 093e 2106 78bd 7a68 18bd
00000160: d73b 64bc 9692 cebd 54f3 7abc cf57 1e3d
00000170: 60d5 95b8 1cf5 3bbe 487d 613c bf20 773e
00000180: 978c 0b3d 41cf ae3d b97e 983c 8253 b23a
00000190: e11f da3d cc40 50be 6064 023d f6c9 a73d
000001a0: 0168 083c 9951 aabd 1348 94bd e83e 7dbd
000001b0: 8098 ffbc 3f03 67bd ecda 813d b192 c83c
000001c0: 2a7c d93d 6772 353c 1ad7 913d 0888 433e
000001d0: 72bd 783d 19ea a43c 9561 fbba 2399 df3b
000001e0: d97f 86bd 4afd 84bb a83b 983c 588d 2a3e
000001f0: eedd 663e 3b33 553e ef1c 93bc a36f b83c
00000200: 4401 bf3d 6775 663d 3271 a03c 35aa 493d
00000210: 9acf 06bc 0dc0 29be 0ad7 16bc c648 d7bc
00000220: c756 a13c 60dc debd 3508 2e3b ed65 433e
00000230: 3cea 90bc f1dd 213b 07ad abba 748e dcbc
00000240: cbce 1e3e 1993 2f3d 3876 3c3d 112c 5b3d
00000250: e617 0b3c 3840 fdbb b01c 0c3e 62a6 c83b
00000260: 7bd7 e13d 2a01 53ba 642d d43d c851 adbd
00000270: 4965 c63d dee0 69bd 6e33 283d f4b3 3ebc
00000280: 51f3 a2bb 06fc 89bd 9851 553d 2c5b 18bd
00000290: 8184 43be 10fd a23b 114d 0cbb aa10 193e
000002a0: 60c7 ff3d bbc0 6fbc a2ef 4ebd 8a0e 933d
000002b0: a854 36bd 73fe b53d 7460 f6bc 7f67 7b3d
000002c0: c930 3dbe f467 a7bd 74b8 26be b03c ccbc
000002d0: 3b4e b2bd 1a84 13bb 738b cfbd d90a 183e
000002e0: cc69 a3bd effc 6abc 604a 1a3d 1b29 383d
000002f0: 1291 45be a9aa 7bbd 7dd6 5a3d 1fb2 a5bd
00000300: 483f 10be 8a3f 72bd b6ac d53d 5483 063e
00000310: 0fb5 8ebd d47d 713c 8d6c a9bc 649f 71bd
00000320: fc64 1abd aecf 05bd ecf6 8fbc 1caf 00be
00000330: db72 333d 672c f93d 37e8 3dbe 97a9 95bb
00000340: 0b94 3f3d 1811 203e 9c41 153b fb5d 40be
00000350: 0dbf c33d 1cfe 8c3c 060f 38be 90d6 de3d
00000360: d66b 183e bc12 1abe 7a1d 88be 5a28 1b3e
00000370: 05f8 12bc 36a7 4c3d 6be3 d73c 41b0 fcbd
00000380: 54ce 79bd bd32 10bd 52f0 133d 6ae0 25be
00000390: dd8e debd b03e 37be b1a1 9d3d 2260 d43d
000003a0: 6320 813c 71c2 ffbd 1cd8 213e af26 543e
000003b0: 4316 14bd bd2e 83bc 556b 3ebc 63eb d63d
000003c0: 214d f23d 7999 843b 688c c33d 2110 16be
000003d0: 9fce aebd 8a46 f43d 0a04 573e 52ee ee3d
000003e0: 6259 acbd 12ec 8abd 74ef b23d 6768 87bd
000003f0: 3924 063e bdd8 e5bd 5f52 d43d 3f01 9f3c
-0.017153364 -0.011351819 0.16361141 0.109340355 -0.06702091 0.11969529 0.10577615 0.06853919
0.27815852 0.03410946 0.06740185 -0.02787974 0.15286303 0.04263225 -0.19234653 -0.073630504
-0.19635604 -0.110751115 -0.23945248 0.03756996 -0.009737238 -0.13964792 -0.11485111 0.2800461
-0.05285131 -0.06132452 -0.0232333 0.11041175 0.12780772 0.048580285 0.026824985 -0.12689441
-0.1919914 0.035999186 -0.10044213 -0.0526543 0.06627319 0.003562235 0.22210695 -0.089022875
0.12434013 -0.18825985 0.06265358 -0.056836613 -0.18621719 0.00763311 0.01832311 0.18715462
0.010348471 -0.11114502 0.17758007 0.040093534 -0.06913914 0.067093045 -0.016215114 -0.04252434
0.026740752 -0.19790553 -0.067193925 -0.0034945447 0.20979781 -0.04860471 0.031442337 -0.07287744
-0.046086986 -0.21422331 -0.13811633 -0.1098481 0.11925634 -0.0022178628 -0.2006126 0.00093111827
-0.083473876 -0.047469907 0.06024527 -0.06576133 -0.25248778 0.025238512 0.04177767 -0.13820551
0.07983469 0.05524068 0.12947346 0.06597594 0.07143594 0.13388753 -0.06055272 -0.03720901
-0.013930283 -0.10086553 -0.015316803 0.03865796 -7.144618e-05 -0.1835522 0.0137627795 0.24133585
0.034069624 0.08535624 0.018615114 0.001360521 0.10650612 -0.20337218 0.031834006 0.08192818
0.008325578 -0.08316345 -0.072403096 -0.06182757 -0.031200647 -0.05639958 0.06340584 0.02448401
0.106193855 0.011074639 0.071211055 0.1909486 0.060727544 0.020131158 -0.0019178862 0.0068236752
-0.06567354 -0.0040585147 0.018583134 0.16655481 0.22545597 0.20820324 -0.017958133 0.02251417
0.09326413 0.056264307 0.019585226 0.049234588 -0.008228207 -0.16577168 -0.009206543 -0.026279818
0.019694699 -0.10881877 0.0026555185 0.1908185 -0.017689817 0.0024698938 -0.0013097831 -0.026923396
0.15508573 0.042864893 0.04601118 0.053508822 0.008489585 -0.0077286027 0.13682818 0.00612335
0.11027428 -0.00080491847 0.1036022 -0.08462864 0.09687287 -0.057099216 0.041064672 -0.011639584
-0.004972853 -0.06737523 0.052079767 -0.037196323 -0.19093515 0.004974015 -0.002140824 0.14947763
0.124892 -0.014633353 -0.0505215 0.071805075 -0.04451433 0.08886423 -0.03007529 0.061378
-0.18475641 -0.08174124 -0.16281301 -0.024931282 -0.087063275 -0.0022509159 -0.1013402 0.14847888
-0.079791635 -0.014342531 0.037668586 0.044961076 -0.19293621 -0.06144205 0.05342721 -0.080906145
-0.1408664 -0.059142627 0.104333326 0.13136035 -0.06968128 0.014739472 -0.020681644 -0.058989897
-0.037693962 -0.032668762 -0.017573796 -0.12566799 0.043810707 0.12166672 -0.18545614 -0.004567336
0.046772044 0.15631521 0.0022774702 -0.1878585 0.095579244 0.017211013 -0.17974481 0.10880768
0.14884886 -0.15046209 -0.2658499 0.15152112 -0.008970265 0.049964152 0.026353559 -0.12338305
-0.060987785 -0.035204638 0.03611786 -0.16198888 -0.10867093 -0.17895007 0.07696856 0.103698984
0.015762514 -0.12488259 0.15805095 0.20717882 -0.036154043 -0.016013497 -0.01162227 0.10494115
0.118311174 0.0040466157 0.09548265 -0.1465459 -0.085355036 0.11927517 0.20997635 0.1166655
-0.08415486 -0.06783308 0.08737078 -0.0661171 0.13099755 -0.1122298 0.103672735 0.019409774

G.0.linears.2.bias f4 [10]
00000000: bff2 d9bd 0179 37bd be4f b73d 1ad8 efbc
00000010: b896 ed3d 50a7 c6bd cf1a 4dbd d037 7e3d
00000020: d688 83bd cb08 e03d
-0.10642003 -0.044793133 0.089507565 -0.02927785 0.11601013 -0.09699881 -0.050074395 0.062064946
-0.06422584 0.10939177

L.0.linears.0.weight f4 [32, 20]
00000000: 8200 993d db8b ae3d a8ac 653c a697 1bbd
00000010: 2104 d43d 021c 253e 7762 e6bc 5650 b1bc
00000020: bcab c33d b33c 0c3a 4cf0 723d c9bf 1e3e
00000030: 46e8 593e e0fc 1e3d 553f 713d 8ca0 2a3e
00000040: 6312 d2bd 4721 c9bd 181e 51be 43f7 7ebd
00000050: 919e 3c3e 7f1a 38be 2aeb b23d 3b4a 31bd
00000060: d6ce 01be 1045 ff3b f801 0fbe f012 98bd
00000070: d01b 713d 3acb 7f3d 5deb f63d 6652 2cbc
00000080: 7ac3 3f3d a9a8 d9bd d5ae a5bc 3560 bdbd
00000090: c71c 2c3d 9bd8 d7bc aceb a1bd 40b3 923c
000000a0: 1bbd 0e3e 6573 fe3d 6123 6bbd 7c70 02bd
000000b0: 5104 52be db76 d13d 33ab 7e3d ffba b1bd
000000c0: c11d 53be 963f 61bd 8993 073d cafa de3d
000000d0: c3da 2b3e bc73 1d3d be8e 7b3d a1c4 e23c
000000e0: a217 823d 2000 6fbe bef9 663d 2051 ca3d
000000f0: 2ceb 01bd 332b afbd 370e 12bd 2276 ab3c
00000100: a98c c5bc 6dfa cebd f293 2dbc c77d 8e3d
00000110: 4840 1c3d 151d 4dbd 5741 dbbc f2ae c2bc
00000120: 62a1 2cbe 2331 57be 0bb0 2e3e e00c eabd
00000130: ef20 80bd f25c d9bc 69a7 3c3e 8844 adbd
00000140: dfbd a8bd 1162 f53c 49c0 f83d 41dc 7dbd
00000150: 1e43 82bd df9b d2bc bdc2 41bd 50ee 1fbe
00000160: 9782 a1bd d7fd 2b3c b3a6 b53d 86ca 7b3c
00000170: 81e7 9b3d 80a2 69bb f264 c33c 3001 103e
00000180: 8e6c 113b c43b 923c c05a 07bd 0e12 9fbd
00000190: a66a 9dbd f026 adbd fc1c 39be 07b3 72bc
000001a0: 8a5f c9be 5c90 17be c6aa 163e 4e3d 973d
000001b0: 358e 903d ff25 b03c 5fc4 8bbd 4b3c 5cbd
000001c0: 4ac8 afbd c955 173c 3f55 08be 35d7 a2bd
000001d0: 9a41 58be 3a0d b6bd 8897 a6bd aed7 0a3e
000001e0: 71ff 373e e27d 30bc a964 3cbd 3711 f7bd
000001f0: d090 12be 6a2e 56be 7f46 583e 73b0 7fbd
00000200: 5e13 163d 0671 a33c 1479 90bd 5076 ed3d
00000210: 80d8 263e 4094 73bd dccc 2fbd 3c0e 5a3d
00000220: 6b6e 73bd 46d1 b7bd 3b28 823d 0f50 68bd
00000230: 0f2e b43c f6e7 d83d 4b12 babd 385c bdbd
00000240: 6cc6 073d 6bf7 ba3d fe8b 893d 6041 dabd
00000250: d9de 09be 22cd f8b9 0c1a 0f3d c6b2 f63d
00000260: 3d9f f63d 46f3 333d eee8 593d f7b2 2b3c
00000270: cad1 eebd 126d 263e 7e51 a2bd b801 0d3d
00000280: b64e 39be 5380 a3bd deee 353e f4a8 3a3e
00000290: f723 193d 9624 1a3a 1097 a3bd cdb2 033e
000002a0: 48f9 163d 973f a63c 3f75 3c3e 68f4 713e
000002b0: 1876 0c3e 17b5 8c3d 90e6 d3bc a74d 12be
000002c0: a094 29be c8e3 24bd 09aa c1bd 4e4e 503d
000002d0: 03c7 24be d14d 0b3d 8d89 153e 8714 3bbe
000002e0: 2640 0abc 7608 85bd 6a73 febd 0423 e4bd
000002f0: a267 acbb f9b4 5a3d 2023 643e 8ccc c3bc
00000300: ceef 32be 32cd c5bc 9a6e 73bd 8da0 5d3e
00000310: 223e c03c e202 90bc 3797 09be 2080 0dbd
00000320: b66a 88bd 35a2 333e f9c1 903d ff73 95bd
00000330: fe81 8b3c a1e9 db3d 1f49 b1bd 8c88 0cbd
00000340: 1917 a1bd 4b9b 3cbe d337 ccbd b69f cb3d
00000350: 681f ec3d ebd5 d6bd 4919 5abd 90b0 5abd
00000360: 910d b4bc 3450 14be 504c 0d3e 20eb 96bd
00000370: 57f0 86bd 26b0 7fbd 9a9f 7d3d 4948 6abd
00000380: 179e 54bd 1044 b63d 87b6 3cbd 23e2 90bd
00000390: 4f16 dc3d 70de 523e 9540 c0bb 718f 55be
000003a0: 2802 d4bd d7e9 22be 234c 393e 7cb2 2a3d
000003b0: 14a4 c73d 0a4d 903d e128 963c 7f6f 003e
000003c0: e890 f93c a3fc e5bd 0ef7 f03c 3aca 723e
000003d0: beb5 c7bd daa7 09be a15c 02bd e6a4 33bd
000003e0: 8b0b a63d 6cee a23d 3f34 cabd e038 e5bd
000003f0: c0f8 7cbd 5bf6 60bc 821c 0dbc c7ee 23bd
0.074708 0.08522769 0.014018215 -0.03798642 0.1035235 0.16123965 -0.028123124 -0.021644752
0.0955424 0.0005349621 0.059311196 0.15502848 0.21280012 0.03881538 0.05889829 0.16662806
-0.10257413 -0.098208 -0.20421636 -0.062247526 0.18419863 -0.17978857 0.0873626 -0.043283682
-0.12676558 0.0077902153 -0.13965595 -0.07425487 0.058864415 0.06244967 0.12056611 -0.010517692
0.04681728 -0.106278725 -0.020224968 -0.09246866 0.04201963 -0.026348403 -0.07906279 0.017907739
0.13939326 0.124243535 -0.057406787 -0.031845555 -0.20509459 0.10227748 0.062174987 -0.08678245
-0.20616819 -0.05499228 0.033099685 0.10887678 0.1678267 0.03844045 0.061415426 0.02768165
0.06352164 -0.23339891 0.056390516 0.098787546 -0.031718418 -0.085531615 -0.035658088 0.020930354
-0.024114924 -0.10106359 -0.010594355 0.06957584 0.03814724 -0.050076563 -0.026764555 -0.023765061
-0.16858438 -0.21014838 0.17059343 -0.11428237 -0.062562816 -0.026533578 0.18423237 -0.08460337
-0.0823934 0.029953988 0.121460505 -0.06197763 -0.06360458 -0.02570909 -0.047304858 -0.15618253
-0.07886236 0.010497532 0.08869686 0.01536811 0.07612515 -0.0035649836 0.023851845 0.14062953
0.0022189948 0.017850764 -0.03304553 -0.077671155 -0.07686357 -0.08454692 -0.18077463 -0.014813191
-0.39330703 -0.14801162 0.14713582 0.0738474 0.07058374 0.021502493 -0.06824564 -0.053768437
-0.08583124 0.009236761 -0.13313769 -0.07951204 -0.21118775 -0.088892415 -0.08134371 0.13558838
0.17968537 -0.0107722 -0.045994435 -0.1206383 -0.14313054 -0.20916143 0.21120642 -0.062424134
0.036639564 0.019951355 -0.07054344 0.11594832 0.16293526 -0.059467554 -0.04291998 0.05323623
-0.059431475 -0.089754626 0.063553296 -0.056716975 0.021994619 0.10591118 -0.0908552 -0.09246105
0.033148214 0.091292225 0.067161545 -0.106570005 -0.13463916 -0.00047455082 0.03493695 0.12045817
0.12042091 0.043933176 0.053200655 0.01047968 -0.11661108 0.16252545 -0.079257 0.034425467
-0.18096432 -0.0798346 0.17766902 0.18228513 0.037387814 0.00058800855 -0.07987797 0.12861176
0.036858827 0.020293994 0.18404101 0.2362839 0.13716924 0.06870478 -0.025866777 -0.14287435
-0.16560602 -0.04025629 -0.0945626 0.050855927 -0.16091542 0.03400976 0.14603253 -0.1826955
-0.008438146 -0.064957544 -0.12424357 -0.11139491 -0.0052613774 0.053395245 0.22279024 -0.023901246
-0.1747429 -0.024145696 -0.05943165 0.21643277 0.023467127 -0.0175795 -0.1343659 -0.034546018
-0.066609785 0.17542346 0.07068247 -0.07297515 0.017029759 0.107379206 -0.08656525 -0.03430991
-0.07865734 -0.18418615 -0.09971585 0.09942572 0.11529428 -0.1049002 -0.05324677 -0.05339104
-0.021979125 -0.1448372 0.13798642 -0.07369065 -0.0658881 -0.062423848 0.061919786 -0.057197843
-0.05190858 0.08899701 -0.04607251 -0.07074382 0.107464425 0.20592666 -0.005867074 -0.208555
-0.10351974 -0.15909515 0.1809545 0.041674122 0.09748092 0.07045944 0.01833004 0.12542532
0.030464604 -0.11229827 0.02941468 0.23709956 -0.097514614 -0.13442937 -0.03182662 -0.04385843
0.081076704 0.079556316 -0.098732464 -0.11192489 -0.061760664 -0.013730611 -0.008612754 -0.040022638

L.0.linears.0.bias f4 [32]
00000000: f773 223b 7b89 733d 830a a7bc 8f7f 2d3d
00000010: d266 763d ce07 c63c 5b30 903d f95f 8a3c
00000020: a7e1 c73d a875 a2bd 9ea2 053d 3cec 06bb
00000030: 3c94 b5bb b394 28bd 6147 6fbc cd26 e13d
00000040: 3e01 173d 45eb bbbc 5b29 023e b87c 693d
00000050: 0a04 933d 874b a3bd f163 433c 81be 1bbc
00000060: f2da 09bd 7328 fdbb 921e f5bd 94c9 2cbd
00000070: 46b4 403d 8bd8 3bbd 3b3a e6bc febb c2bd
0.0024788359 0.059457283 -0.020390755 0.042357977 0.06015665 0.024173643 0.07040473 0.016891466
0.09759837 -0.079325974 0.032625787 -0.0020587584 -0.0055413526 -0.041157436 -0.01460442 0.10993729
0.03686642 -0.022939334 0.12711088 0.057003707 0.07178505 -0.0797339 0.011925683 -0.009505869
-0.03365607 -0.007725769 -0.119687214 -0.042184427 0.047046922 -0.04586081 -0.028103938 -0.09508513
