para_save/00069params.pth (torch, 118145 bytes, 76 tensors)

F.linears.0.weight f4 [32, 20]
00000000: 7b41 1dbd 5ccf 7dbd 4bde 27be ef6a b63c
00000010: 914a 83bd 447c c0bc 2925 1ebe bfa3 c13d
00000020: 3233 ddbd e0fc 67bd a8ac 1a3a 2ac8 38bd
00000030: c6f4 843d d779 1cbe b421 bdbb c169 7d3c
00000040: c85d a33d 6978 0e3e 0641 99bd 7434 f63d
00000050: 656c 1e3e 231d f9bd 3a28 b0bc c24d 7abd
00000060: 3cb4 6ebd bfb2 27be 11f6 263c 5611 b93d
00000070: 287b 283d 719b 95bc b126 243e 3160 3bbd
00000080: 2fcb 33be 20b9 1ebc 3e32 9f3d 09d2 383d
00000090: d570 263d 6672 863c 610e 40bd ac4b 6e3b
000000a0: ddab f0bd 167d 4d3d 69fd abbd c9ec 59be
000000b0: 2c01 12be 941b 2fbe 2286 1a3e 163c 983d
000000c0: 52fb 033e 202b c63c 2718 c93d 4fd1 8cbd
000000d0: d731 2dbd 5085 44be 1610 fc3d ca87 873c
000000e0: b46a 903d bd12 51be 37d9 9cbd affa 173d
000000f0: b595 433d 9dee edbd ac1c 0fbc 2fc5 51bd
00000100: 586a 0a3e fd24 8cbd b622 a53c 089a 04bd
00000110: 3da2 28bc 5fe7 193e 9bfe debc 8699 1dbe
00000120: b3c7 90bd 9e78 2b3c 961d ae3c 2104 cc3d
00000130: 7e24 07bc 15df f83a 682a 37be ae63 853d
00000140: c273 f23d c5b9 563c 177e 23be 79bb cf3d
00000150: 0fbd 4c3d 3163 073c 5f58 db3c 43b1 a1bd
00000160: 5b76 9e3c 334a 193e 17c2 c8bc 1be8 c3bd
00000170: cad3 46be 673a e1bd d978 233e e1df 74bc
00000180: a5f7 4f3e 75e5 dabc 8e98 08be 16bd c73b
00000190: f5aa 56bd c25c 353e 2a0d 2dbe 8205 d1bd
000001a0: 0e3c ae3d 6be3 54bd be64 a13d 95bb 483e
000001b0: 572c 103e 54ba a4bc 05b2 a53c 678d 04bd
000001c0: 2a68 b4bc c540 f0bc d43a e7bc 728c 453d
000001d0: e88e 503e 4542 733c 8255 5c3d 5d2d 07bd
000001e0: eec6 013e e324 c53c 51cd c1bd 185d 3dbd
000001f0: 391f 373d 36dd 093d e5e1 4b3e e7af 6f3d
00000200: 48c5 733d 13c5 093e 262c 163e a211 7b3d
00000210: b654 88bd 3a16 09be 4a60 283e 79de 0d3e
00000220: f27a 36be 9664 08bd 1a54 8b3b 7f76 5a3d
00000230: 3039 e53d f554 27bd 2300 f53d 7983 0b3d
00000240: 103a 00bc f177 5a3d eb72 47bd b87c 1139
00000250: 8946 933d a092 09be 22da d0bd bd2e ae3d
00000260: a42c 39bc e6c9 c0bc 9b5c 5b3d e0cc c73c
00000270: f673 a63b 3001 f23c 2bfa 46be 2e89 c73d
00000280: ebc9 aabc 6795 063e c68b e23c ff76 9b3c
00000290: 3dc3 d7bd ae31 cf3d 8460 28be 2ccb 09bd
000002a0: 2263 e8bd 92d1 bd3d 0cf9 e53d e1bb ffbd
000002b0: 93cc 1fba 966f 3e3c 9319 85bd 8eec 5d3d
000002c0: db36 7a3d 22ff d2bd 335e 4fbc f336 0d3e
000002d0: cfd5 d73c 5f02 85bd ff94 d33d 9951 9abd
000002e0: 5c89 c6bc de41 35bd fe5b bbbd fde3 823e
000002f0: e736 123e 4b52 babd a570 1d3c d396 813c
00000300: ce3c 973d f2df 91bd 887a 573d 7e38 50bd
00000310: 1add b4bd 3e58 0bbe e8af 08be cbe8 e9bc
00000320: 03ea 393d b5e0 4cbc 742b 663c 896e 21bc
00000330: 75a1 d0bd 2057 293d cbeb ae3d 2468 a7bd
00000340: c9ff 89bb 7155 d83c 72bd 99bd 29b5 883b
00000350: 50eb 08be bf00 903c 0909 263e 4332 5c3d
00000360: 49cc 093e 8088 23be 83c4 843d 80c7 4f3d
00000370: 3b06 c5bd c447 f3bc 216a 7dbc fbe2 f0bc
00000380: 0481 73bd a8de 543d e1d9 a13d 9ebb 66bd
00000390: 7da0 1539 ee01 4bbe fe2e 233c b628 74be
000003a0: 4000 163e fefe 06bd a015 f1bc 8bbb c73d
000003b0: c5f6 ad3c 65cb 3dbd 7ccc 5cbe 7732 1d3e
000003c0: 1ea4 093e 95ff 21bd d541 d3bc ff84 85bd
000003d0: 6050 f03c e597 2b3e 3c79 db3c d3b0 723d
000003e0: 43a2 18bc 1d53 e5bd 9185 aa3b 3f04 eabd
000003f0: a9f4 1bbd 6d45 28be bc20 b63c 6c0e 1dbc
-0.038392525 -0.06196533 -0.16393392 0.022267787 -0.06410707 -0.023496754 -0.15443863 0.0945506
-0.1080078 -0.056637645 0.00059003616 -0.045112766 0.06491999 -0.15280853 -0.00577184 0.015467108
0.07976872 0.1391312 -0.07483105 0.120217234 0.15471037 -0.121637605 -0.021503557 -0.061109312
-0.058277354 -0.1637678 0.010190503 0.0903651 0.041133076 -0.018262597 0.16030385 -0.045746032
-0.17557977 -0.009687692 0.07773255 0.04512218 0.04063495 0.016411971 -0.046888713 0.0036361022
-0.1175153 0.05016812 -0.083979435 -0.21281733 -0.1425826 -0.17100364 0.1509023 0.074333355
0.1288884 0.024190485 0.0981906 -0.0687586 -0.04228386 -0.1919148 0.12307756 0.016544241
0.07051602 -0.20417304 -0.07658618 0.037104305 0.047750194 -0.116177775 -0.008734863 -0.05121344
0.1351713 -0.068429925 0.020158153 -0.03237346 -0.010292587 0.15029667 -0.027221015 -0.15390596
-0.070693396 0.010465769 0.021254342 0.09961725 -0.0082484465 0.0018987382 -0.1788727 0.06513153
0.11838485 0.013105814 -0.15966068 0.101431794 0.049984988 0.008263395 0.026775537 -0.07895138
0.019343546 0.14969711 -0.024506612 -0.09565755 -0.19416729 -0.109974675 0.15964068 -0.014945955
0.20309313 -0.026720742 -0.13339445 0.006095539 -0.05240913 0.17711166 -0.16899553 -0.10206129
0.08507548 -0.051974695 0.07880543 0.19602807 0.14079414 -0.02010838 0.020226488 -0.032361414
-0.022022326 -0.02932776 -0.028226294 0.048229642 0.20367014 0.014847343 0.053792484 -0.033002246
0.12673542 0.02406544 -0.09462989 -0.04623136 0.04470751 0.03365823 0.1991039 0.058517363
0.059514314 0.13454084 0.14665279 0.061296113 -0.06656782 -0.13387385 0.16442981 0.13854398
-0.17820337 -0.03329905 0.004251969 0.053335663 0.11192548 -0.040852506 0.11962917 0.03406093
-0.007826343 0.05333704 -0.04869358 0.00013874739 0.07191188 -0.13434839 -0.101978555 0.08505008
-0.011302147 -0.023533773 0.053555112 0.024389684 0.0050797416 0.029541582 -0.19431369 0.09742962
-0.020848235 0.1314293 0.02765454 0.01897764 -0.105352856 0.101168975 -0.16443068 -0.033641025
-0.11347033 0.09268488 0.112291425 -0.12487007 -0.00060958526 0.011623284 -0.064990185 0.054180674
0.06108747 -0.10302569 -0.012656736 0.13790493 0.02634707 -0.06494593 0.10331153 -0.07535095
-0.02423542 -0.04425227 -0.091484055 0.25564566 0.14278756 -0.090977274 0.009609376 0.015818989
0.073846444 -0.07122792 0.05260709 -0.050835125 -0.08831234 -0.1360788 -0.13348353 -0.028553387
0.045389187 -0.012504746 0.014048446 -0.009853014 -0.101870455 0.041342854 0.08541068 -0.0817416
-0.0042114 0.02640793 -0.07506837 0.0041719866 -0.13371015 0.01757848 0.16214384 0.05375887
0.13456835 -0.1597004 0.06482794 0.050727367 -0.09620329 -0.029697306 -0.015467198 -0.029405108
-0.05944921 0.051970154 0.07902885 -0.05633127 0.00014269534 -0.19824955 0.009959934 -0.23843655
0.14648533 -0.032958023 -0.029429257 0.09752568 0.021235833 -0.04633655 -0.2156238 0.15351282
0.13441512 -0.039550383 -0.025788227 -0.065195076 0.0293352 0.16757162 0.026791207 0.059250664
-0.00931603 -0.11197493 0.0052039106 -0.11426591 -0.038075123 -0.16432734 0.022232406 -0.009585958

F.linears.0.bias f4 [32]
00000000: d70f 64bd 9424 de3c 9d35 9d3d af6e c0bd
00000010: 5ec6 aebd 8960 1ebd 0aeb bebd ceae d63c
00000020: 9f3a 38bb d6b9 a93d 42c8 6cbd b051 02bd
00000030: bfeb f7bc d513 60bb 7295 cabb 003e 993c
00000040: 41ec e63b 9fcd a33d 9869 9d3d 9826 ea3c
00000050: e0c8 00be d7ca 12bc 9017 d6bd 3f18 3abd
00000060: af36 c2bc 3621 32bc f32d f7bc 5f02 2ebd
00000070: beb6 823b ba16 f2bb fc37 14bc c83a 1b3a
-0.05567917 0.027117051 0.076762415 -0.09396111 -0.08533929 -0.03866628 -0.09322174 0.0262064
-0.0028111113 0.082873985 -0.05780817 -0.031816185 -0.03026378 -0.0034191508 -0.006182366 0.018706322
0.0070472066 0.079982035 0.07686156 0.028582856 -0.12576628 -0.008959494 -0.10453713 -0.04543328
-0.023707716 -0.010872176 -0.030173277 -0.04248273 0.0039890697 -0.007387963 -0.009046551 0.000592154

F.linears.1.weight f4 [32, 32]
00000000: e87c 2abd 2fe3 dc3d 9348 a53e af82 cdbd
00000010: a2fb 0abe d941 233d 036a 4f3c fda3 7cbd
00000020: d603 53bd f4b4 be3c fb69 c33b ab27 923c
00000030: 746e b6bd ac46 e5bd bf43 183e b7c8 c63d
00000040: 5131 69bd ff9f 43bc cff3 1c3d af51 0c3e
00000050: 0fc5 b0bd 9502 2d3d ca23 5a3e 18f9 b83b
00000060: 1edb 8c3d f573 0a3e 6394 16bd 9a5e a9bd
00000070: 7249 1ebe 6913 cb3c 5988 71bc f82c 703d
00000080: b437 f23d 7ab7 3e3d ad4f 913e ee62 423d
00000090: 736d fabc b733 fa3d 1760 913c 9106 a0bd
000000a0: 511d 223d 8221 9c3c 5d2d 0f3e 95d5 41be
000000b0: 9120 93bb b666 a6bc 11d5 dbbd 8f3d 5f3d
000000c0: 917d 713d 4da7 a53d 2672 22be 7761 863b
000000d0: 0b2f eebc 5ea9 3f3d 9aca bf3c f9b1 8f3d
000000e0: cfdd 00be ea12 a1bd 6631 d73d 45f1 293e
000000f0: 1ca5 41bd 34ef e33d 936d ec3d 6797 d93d
00000100: 50bc 85bd 6939 e73c fb7e 69bc bd2f 10bd
00000110: d517 39bc 2824 0fbc b0b3 a33c a26e 32be
00000120: b275 403d f5f2 63bd efad b13d a0b4 253e
00000130: cc61 433e ce0b 1fbc ee15 54be e891 ac3b
00000140: 9eb0 3e3e b7e5 92bd d4a1 2fbd bd95 9b3d
00000150: d268 1a3e 2f63 113e 3c8e bebb 0fb4 a8bd
00000160: 26d9 4cbe 5a8a 6e3d 2f1a 75be a33b 2f3e
00000170: 637b 8a3d bac3 613d 302b da3d 13b3 3abd
00000180: 121c ffbd ed00 9abc f5c7 a23c 934c d93d
00000190: 32fb 4b3c 78b0 33be b1e2 383d f61a 353c
000001a0: d904 473e df68 4ebe 0864 2a3e 34f8 f8bd
000001b0: 3897 493d 2a91 edbd cc19 07be 2e8d 82be
000001c0: 5854 08be b153 cfbd b07d fcbd a4db 7fbe
000001d0: 3056 b23d 113e c73d b4e5 c6bd 5b60 443e
000001e0: ca6e 333d 9cde e93d 64fc dc3a 8c20 93bd
000001f0: b020 003c a3ad 14bd c7b2 293e 5791 d9bd
00000200: ac63 4dbc c255 273e ebf2 eb3d 3c42 eebd
00000210: 0c10 db3d a0ab a0bc 14ad 14bc 3230 253d
00000220: 1742 7bbd 3d51 863c 8f7d 4d3d d5f2 833d
00000230: 7973 f4bd 88ad 21be a8d1 ffbb 4af1 bbbd
00000240: 1ba8 34be 32b9 af3c 97f0 bd3d 0c75 b53c
00000250: 55a0 b5bd 1d15 9f3d 55fa 77bc 368e c43c
00000260: cb9f 0c3e 29f5 12bc 46af 0fbe ef96 383e
00000270: 45c8 0e3d 043d c4bd 6085 b53d 22f7 4aba
00000280: d860 cdbd c8d6 88bc d058 08be 7bcb 933d
00000290: 34e4 eebd cc27 c2bc c065 4abe 5cca 53be
000002a0: a302 46bb 9c40 b2bb e639 d1bd 4614 03be
000002b0: 471f d93d 8305 b03d 4876 1d3d 23b3 0c3e
000002c0: 7082 5cbd cd4b b3bc 4e6b ccbc 3ddc c0bd
000002d0: 08ea 93bd eb1e 443c 5ac2 0b3d 8940 39bd
000002e0: 0fa7 c2bc 03af a93d 07a7 9d3d 1368 133d
000002f0: 3e33 303d 8e32 923d ab88 e7bd 869c c9bd
00000300: 1f78 56bc d992 00be c175 04be 63c6 4dbd
00000310: ae49 94bd d310 b2bc 60f0 bf3d 00c9 04bc
00000320: 079f 3bbe bf09 febd 6720 bd3d cce0 48be
00000330: 956f 823d f9d6 a8bd f175 10be cf77 383e
00000340: 40d3 7abd b077 053e 7c48 81bd 8181 5bbd
00000350: 18fa 1f3d 1e59 1dbb af53 823d 0a18 1abe
00000360: c238 0fbd 6a34 10be 2764 853c 48dd 633b
00000370: 25bb 94bd f16e 6cbc 60df dbbc 4bfc 04be
00000380: ff53 b73d 731c 523d a01d 32be 8981 623c
00000390: f03a 08bd 7c86 ed3d 2f90 863d 2241 2b3d
000003a0: 2de9 a33d 18d8 8fbc 4af1 3c3d 1b90 62bd
000003b0: eff2 acbd 1f76 22be 69c9 503d fdda 5bbd
000003c0: 3388 88bd 157c 673d 3136 753d c03d 3dbe
000003d0: 9016 e53d 7e4c 303d 7f05 823e f892 6cbd
000003e0: 6f3b c5bd 55e6 07bd 3298 913c 25f6 6c3c
000003f0: 42f5 c33d 9047 843d 3727 c03d a2b2 603e
-0.041623026 0.10785519 0.32281932 -0.100346915 -0.13572553 0.03985772 0.0126595525 -0.06167983
-0.05151733 0.023279645 0.0059635616 0.01784118 -0.08907786 -0.1119512 0.14869593 0.09706252
-0.056931797 -0.0119400015 0.03831845 0.13703035 -0.08631336 0.04223879 0.21302715 0.0056449287
0.06877731 0.13520797 -0.036762606 -0.08269997 -0.15457705 0.024789529 -0.0147419805 0.058636636
0.11827031 0.046561696 0.283811 0.047457628 -0.030569768 0.12216895 0.017746015 -0.078137524
0.03957874 0.019058947 0.13982148 -0.18929131 -0.004489966 -0.020312648 -0.107339986 0.054502066
0.05895764 0.08088551 -0.15863857 0.004100974 -0.029075166 0.04679238 0.023412038 0.070163675
-0.12584613 -0.07864936 0.10507469 0.16595943 -0.0472766 0.11129609 0.11544337 0.10624581
-0.065300584 0.028225617 -0.014251466 -0.035201777 -0.011297186 -0.008736648 0.019983143 -0.17425016
0.046987243 -0.055651624 0.08675753 0.16182184 0.19080275 -0.009707404 -0.2071149 0.005266417
0.18622062 -0.07172721 -0.04287894 0.0759692 0.15079048 0.14197992 -0.0058152955 -0.082374685
-0.2000471 0.05823741 -0.2393577 0.17112593 0.067618154 0.0551183 0.106527686 -0.045580935
-0.12456526 -0.01879927 0.019870738 0.106103085 0.012450026 -0.17547786 0.045138065 0.011053791
0.19435443 -0.20157193 0.16639721 -0.12156716 0.04921648 -0.115999535 -0.13193434 -0.25498337
-0.13313425 -0.10123385 -0.123286605 -0.2498613 0.08707845 0.09728635 -0.09711781 0.19177382
0.04380683 0.114194125 0.0016859886 -0.07183942 0.007820293 -0.036298405 0.16572104 -0.106234245
-0.012535971 0.16341308 0.11520942 -0.11633727 0.1069642 -0.019613087 -0.009074468 0.040329166
-0.061342325 0.01639616 0.05016857 0.06442801 -0.11936087 -0.15788853 -0.0078069754 -0.091768816
-0.17642252 0.021450613 0.092744045 0.022150539 -0.088684715 0.07767699 -0.015135367 0.023993593
0.13732831 -0.008969584 -0.14031705 0.18026327 0.03485896 -0.0958195 0.0886333 -0.0007742514
-0.10028237 -0.016703978 -0.1331513 0.07216545 -0.1166462 -0.023700617 -0.19765377 -0.20682663
-0.0030213974 -0.005439831 -0.102161214 -0.12800702 0.10601669 0.08594801 0.03844288 0.1374021
-0.053835332 -0.02188673 -0.02495351 -0.09417007 -0.07222372 0.011970262 0.034120895 -0.04522756
-0.0237613 0.08285334 0.076978736 0.035987925 0.04301762 0.07138549 -0.11305364 -0.098443076
-0.013090163 -0.12556018 -0.12935545 -0.050238024 -0.07240616 -0.021736538 0.0937202 -0.008104563
-0.18322383 -0.12404203 0.09234696 -0.19617003 0.06368939 -0.08244128 -0.14107491 0.18014453
-0.06123662 0.13033938 -0.063126534 -0.0535903 0.039056867 -0.0024009417 0.06363618 -0.15048233
-0.034966238 -0.14082494 0.016283108 0.0034769345 -0.072622575 -0.014430747 -0.026839912 -0.12986867
0.08951568 0.051296663 -0.17394114 0.013824829 -0.033259332 0.115979165 0.065704696 0.041810162
0.08003459 -0.017559096 0.04612855 -0.05531321 -0.084447734 -0.15865372 0.05097333 -0.05367564
-0.06666603 0.05651482 0.059866134 -0.18480587 0.11185944 0.0430417 0.25394818 -0.057757348
-0.09630477 -0.033178646 0.017772768 0.014462982 0.095682636 0.06458962 0.0938248 0.21943143

F.linears.1.bias f4 [32]
00000000: 8263 78bb 89ce e7bc 8c1a 13bd 24e8 e53c
00000010: 0f5d 003e 165c 643c dedc cfbb b760 47bd
00000020: da2a c63d e8e5 01bd 19d9 103c 6fd5 cabd
00000030: 1968 973c 517f e93d e8ee 09bc fd81 d3bd
00000040: c59b 473d 2c46 803d 6f44 7cbd 262c ad3d
00000050: c6f2 30bc 6855 3abd b678 4f3d 8eb4 cabd
00000060: 6ab9 8d3c be27 8b3d 74d1 93bb ca9c ba3d
00000070: 6c5d 3ebd e25d 60bd e72d 253d 1e55 043e
-0.0037901108 -0.028296726 -0.03591399 0.028064795 0.12535499 0.013937971 -0.006343468 -0.04867622
0.09676142 -0.031713396 0.008840823 -0.099039905 0.018482255 0.11401237 -0.008418776 -0.10327528
0.048732538 0.06263384 -0.0615887 0.08455686 -0.010800069 -0.045491606 0.05065223 -0.09897719
0.017300326 0.067946896 -0.0045110527 0.091119364 -0.046475813 -0.054777034 0.04032698 0.12923095

F.linears.2.weight f4 [10, 32]
00000000: d238 8e3b 1009 9bbd c048 703d 3e41 2bbc
00000010: ba1f afbd 36a7 133e 8f51 843e c05c 513d
00000020: ab50 f63d 3d6c 14be 01a2 823d 87ed a1bc
00000030: b808 5c3d 1cc5 00be cb3d 333d 8b28 463e
00000040: 0141 443b f161 81bb d27d 343e af89 253e
00000050: 7c00 393c 1bd9 513e 4100 9dbc 9e71 633d
00000060: f756 0cbe df72 883c 4eeb 0d3e 1ed0 65bd
00000070: bc4e 6bbb 87e3 d5bc 76fe 0fbd f332 bdbd
00000080: e261 c7bc 96bb bdbd 06c2 4d3d a99a 223e
00000090: 4d11 96bd c6a2 003e abad 7fbd a8c1 a03e
000000a0: 2d89 6a3d 5f2a 45be 64f6 413d a63f 503d
000000b0: 52f5 ea3d 1d1b b7bd 9d4a 883c c8fe c33d
000000c0: ae5a 0fbe 92a0 7a3d 1eb9 003d 444d 093b
000000d0: 7ecf 823d 2c14 2cbe c885 62be a745 283e
000000e0: dbb2 943d ce6f 91bd 35ab f33d 40be 1abe
000000f0: 1a61 3cbe 38e0 dd3c 5286 fa3d f223 72be
00000100: 8344 dd3d 6e73 243e da6c 8cbe 050c eabd
00000110: 030c 04bd ae15 713d 0f93 afbc 5a74 d63d
00000120: e117 213d 6411 62bd bad7 fcbd 731e b83c
00000130: f907 653c 1f12 b13c 69b6 a03c 1b17 d3bc
00000140: 092f 18be 8c80 553c 0c77 60bc 4a38 873d
00000150: 4b13 11bb 464e 963d f942 13be a835 103c
00000160: 9547 2fbd 0646 373e c1fb b93d ea2a 59be
00000170: 8b3b 03be f8b4 fc3d ecd8 ac3b e18b 0fbe
00000180: 3b90 1a3e 469a 7c3e b199 53bd 097d 0fbe
00000190: 75ac e33d e2e4 7a3d 50ae 21be ae44 f1bc
000001a0: 3c38 b43d cba6 043d 6853 823d 5b33 93be
000001b0: 4d8b 1a3e 1a7d 293c 1b90 c5bd 471f 34be
000001c0: e275 9cbd 2e08 c7bb e95f 2d3e 3985 3d3e
000001d0: b93c 80bd 36a2 4bbd 3e98 db3d 18b1 efbb
000001e0: 33df 72bc 2a12 69bd 5607 473d 5bce 333d
000001f0: eb75 213e 9aa3 713c 822d 393c f57b cebd
00000200: 42b9 4fbe 0c07 833d 7d39 83bd ef86 d0bd
00000210: 48cb 30bd 7f90 f0bc c250 4abd 2f6e 4f3e
00000220: d905 a33c b011 31bd 4c53 a93b b825 5a3e
00000230: 78c6 ebbd 4b67 8cbd 26d7 953c 2879 3a3c
00000240: ba86 53be 8477 1bbd 9783 fcbd fd85 b4bd
00000250: e5dd 5f3d a139 a23d 45bd 9ebd 351f 43be
00000260: 1cd8 d3bd 6b9d 593e ef2b eb3d 290b 56bd
00000270: a19a 3f3d 48df e03d 3264 3ebe 18f8 efbd
00000280: ca69 0b3e f0e4 ed3c 387e 03bc 8710 6fbe
00000290: 933e ba3c 0981 4e3e d795 08bd bb0e 743d
000002a0: 5063 a3bc af15 73bd e26e bcbd a9a3 a03d
000002b0: f03b 013d a003 a8bd 4768 8cbd 7c89 593d
000002c0: 7887 e3bd cf8d f43d e60d bbbb 4959 903c
000002d0: 4bf1 23be aca3 a0bd 6f9c 2a3e 0e35 363e
000002e0: 22fb 66bb 3a21 19be beb3 83bd 06ac 20be
000002f0: 7347 09be aa2e edbb e8b7 6abc 6102 41bd
00000300: ac39 7f3d 5b14 6fbd 54e4 3c3e 63ad 93bd
00000310: cd99 8c3d bd85 193e f36e 0d3e f732 803d
00000320: 5da4 df3d 5ec6 923d b957 53be 7885 1dbc
00000330: daec 25bd 484c 77bc 23df d03b 8844 22be
00000340: ab0d c23d daad 103d 9039 f73d eab3 193d
00000350: 4448 63bd fb89 10be 3a34 053d 71a2 7d3c
00000360: bf2a 043e 0d9a 3e3d a83d 6b3d 385c 51bd
00000370: 5e98 7b3c 01dd d73d 0c37 e1ba 47f3 74bd
00000380: 9f7f a53d 69c5 1abe 0f65 423b c3b8 97bd
00000390: 7598 0e3d 04f8 fe3b 1767 0ebe 208c 013e
000003a0: f4e5 36be fdf9 d5bd 60f4 033e 059a 13be
000003b0: e2b7 fabd 2d91 333c c643 10be 14a7 c7bd
000003c0: 665a a53d 57e2 463e 0f30 0c3d 9e22 813e
000003d0: 6e4f f9bd f8fa ce3d 8cb2 46bc 7976 3c3d
000003e0: b66b 77be e68e 81bc d2df f4bc 9ca5 c0bd
000003f0: aa62 113e 0170 72bd f2ba 14be 88ba 6b3e
0.0043402696 -0.07570088 0.05866313 -0.010452567 -0.08550973 0.14419255 0.25843474 0.051113844
0.12027105 -0.14494415 0.06378556 -0.019766582 0.053719252 -0.12575191 0.043760102 0.19351403
0.0029945972 -0.003948443 0.17626122 0.16165803 0.011291619 0.20492975 -0.01916516 0.055528276
-0.1370505 0.016656337 0.13859293 -0.05610668 -0.0035905084 -0.02610947 -0.035154782 -0.092382334
-0.024338666 -0.09264295 0.050233863 0.1587931 -0.073275186 0.12562093 -0.062421482 0.31397748
0.057259727 -0.19254445 0.047354117 0.05084195 0.114725724 -0.08940718 0.01663714 0.0957008
-0.13999435 0.061188288 0.03142654 0.0020950595 0.06387232 -0.1680457 -0.22121346 0.1643282
0.072606765 -0.07101403 0.118978895 -0.15111637 -0.18396416 0.027084455 0.12232651 -0.23646525
0.10804083 0.16059658 -0.27426797 -0.11428074 -0.032238018 0.058858566 -0.021432428 0.10471411
0.039329413 -0.055192366 -0.12345834 0.022475457 0.013978952 0.021615086 0.01961823 -0.025767853
-0.14861692 0.013031136 -0.013700258 0.06602533 -0.0022136744 0.07339148 -0.14381017 0.008801855
-0.042792875 0.17897806 0.09081221 -0.21207777 -0.12815683 0.123392045 0.0052748825 -0.14018203
0.15094082 0.24668226 -0.051660243 -0.14012541 0.11116878 0.061253436 -0.15789151 -0.029451694
0.08799788 0.03238563 0.06363565 -0.2875012 0.15092202 0.010344768 -0.096466266 -0.17590056
-0.07639672 -0.006073973 0.16931118 0.18507852 -0.06261582 -0.049715243 0.10722397 -0.0073148124
-0.014823723 -0.05690209 0.04859098 0.043897968 0.15767638 0.014748478 0.011302354 -0.10082237
-0.20285514 0.063978285 -0.064074494 -0.101819865 -0.043162614 -0.029365776 -0.049393423 0.20256875
0.01990025 -0.04322976 0.0051674005 0.21303451 -0.11512464 -0.06855639 0.018291067 0.011381425
-0.20656863 -0.037955776 -0.12329786 -0.08814619 0.054654974 0.07921148 -0.07750944 -0.19054873
-0.10343954 0.21251456 0.11482989 -0.052256737 0.046778325 0.109800875 -0.18592909 -0.11717242
0.13614574 0.02903983 -0.008025698 -0.23346148 0.022734916 0.2016641 -0.033346023 0.05958436
-0.019944817 -0.05934685 -0.09200837 0.07843716 0.0315513 -0.082038164 -0.06855827 0.05310963
-0.11109823 0.1194111 -0.005708444 0.0176207 -0.16010015 -0.07843718 0.16661237 0.17793676
-0.0035244902 -0.14954081 -0.064307675 -0.15690622 -0.13406162 -0.007238229 -0.014326073 -0.04712141
0.06231086 -0.058369022 0.18446475 -0.07210805 0.06865273 0.14992423 0.13811855 0.06259721
0.10920022 0.07166742 -0.20638932 -0.009614341 -0.040509082 -0.01509387 0.006374256 -0.15846455
0.09475263 0.035322048 0.12071526 0.037525095 -0.05548884 -0.14115135 0.03252051 0.015480624
0.12906931 0.046533633 0.057431847 -0.051113337 0.015356151 0.105402 -0.0017182543 -0.05980232
0.080809824 -0.15114368 0.0029662286 -0.074082874 0.034813363 0.0077810306 -0.13906513 0.1265111
-0.17861158 -0.10448072 0.1288619 -0.14414223 -0.12242104 0.010959906 -0.14088354 -0.097486645
0.08073883 0.1942228 0.03422552 0.25221723 -0.12173353 0.10106462 -0.01212753 0.04601142
-0.24162182 -0.01581521 -0.029891882 -0.094065875 0.14197794 -0.059188846 -0.14524439 0.23020375

F.linears.2.bias f4 [10]
00000000: abaf 973c ad0e cebd 91ca 1e3d f7c4 0cbb
00000010: c350 32bd 44cb 66bd ee95 e33b 63ac ad3d
00000020: 3cd4 933d 28a3 d6bb
0.018516382 -0.10061393 0.0387674 -0.0021479705 -0.04353405 -0.056346193 0.0069453632 0.08480146
0.07218215 -0.0065502115

G.0.linears.0.weight f4 [32, 10]
00000000: ca66 66bd d8e5 87bc 9aed b03d 582e 9f3d
00000010: ba9d 42bd 8e5a c53a 1cd9 c53d 295b 3d3e
00000020: 3866 50bd 4238 e3bd 0b38 0e3e 4fe2 b6ba
00000030: 2f8b 27be d5af 173c 8d46 3cbe 3cfc 0f3d
00000040: 9d94 e2bc 832c e3bd d2a9 82bd 32e9 31bc
00000050: a70e a33b b17e 3d3d b15e a23c 8fb1 9fbd
00000060: 5337 b93d 38eb 243e 1317 c4bd 6096 f7bd
00000070: 7cd8 513c 71cb fb3c 2ed0 123e 6c6b 3d3d
00000080: edf2 d93d fd91 7abd 5741 42be 6fa7 02be
00000090: 8e63 04be 2715 263c fd5f 103d 0ebe 2bbd
000000a0: b8d7 c63d 5606 e73d ee96 18bd cf82 3e3c
000000b0: 6795 dd3d 88ad 643d 1bed 03be e474 16be
000000c0: 6eb6 e83d a12b 8a3a f36c 573b 383c 283d
000000d0: 1db7 323e b10c d5bd 531e a73d e9f0 d0bc
000000e0: 12bc 0bbd eabd 6a3d 362d fcbd 55c3 10be
000000f0: 533d 453e e750 893d 4a25 563d c18c 19be
00000100: 552a 993c 8be9 88bd c017 a23d f2fd 81bd
00000110: 08ac a2bd e9e2 84bd 0d36 adb9 54b3 513e
00000120: 3859 4a3c a466 ebbc 2c76 bd3d 1066 81bd
00000130: 300e 59be 3e54 593d 33e9 c23c 60f3 90bc
00000140: db5c cfbd a1a0 193e b2a5 363e 6c00 8cbc
00000150: 4c38 fd3d 9abf abbc 9097 133d debc 68bd
00000160: cecd 4cbd 953f f33c e58c b43d 2f4b 91ba
00000170: 1001 be3b 3370 e0bc c963 0dbc c82c 37bd
00000180: c83f 263e 124e 00be 933e a5bc ad72 1d3e
00000190: 2be1 6b3d 782c 983c fab6 583e 5f03 7dbe
000001a0: 81d6 6c3e cd3a ec3d 7815 223d 1435 983c
000001b0: c655 c13d ba38 85bd 1964 4ebe 95ea ffbd
000001c0: ac1c 5dbc 9e8c 8d3d dfea 37bd 1405 09bb
000001d0: 9e8f 653d de28 f1bd ab82 583c 3492 163e
000001e0: 9827 e2bd 3937 25bd ac01 30be 9a55 22bc
000001f0: 69a6 0bbe c32c aabb aab6 743c c5ff b4bd
00000200: c273 6fbb f190 833d 77e3 3a3e 8602 4e3d
00000210: 86cb 903d b970 cbbc 844d 32bd 0f54 c93c
00000220: 82aa f3bd 05c2 99bd ab97 6fbe cdd8 d03d
00000230: 07bd 22bd 0b6a 773d d92d 203d 0f81 d0bd
00000240: 633b 0a3e 7a9c e83c 4940 ff3c 5455 473d
00000250: 0771 203e fef3 58bd 4bc5 2cbd 88b4 d2bc
00000260: 1dcb 2bbe 5b8f 88bb 7b26 a13d 3910 5cbd
00000270: d539 143e d1c7 323e d196 8b3e d244 9b3e
00000280: 0f28 27ba f345 7dbd 9e04 a63d cb1d 073e
00000290: 7cf0 68bd 36e0 1c3d 967c 0b3e 1ca9 4c3e
000002a0: 9204 203e 986d 343d 4322 81bd 72c2 11bd
000002b0: fa89 82bd 52be 373b 5e8b 2b3d a005 70bd
000002c0: 2abe e53d f567 3d3e b5b9 97bd 007a 653c
000002d0: dfbc 0c3e 2ad0 233e b6ce 133e fa91 06bd
000002e0: 45b9 8c3c b975 e63d 2b10 c5bd 7433 14bc
000002f0: 42bb ac3d 4ce1 46be 6b4c bebd bb99 96be
00000300: 28a3 0fbe b707 d93d 90ec 08be 1954 09be
00000310: dcfd 643e 8cc1 9f3d ffda d7bd ae77 9b3d
00000320: 28f0 0dbe d654 e7bd 3f23 89bd 965b 2c3e
00000330: 40c3 183d 9149 9abd f56b f9bd 4d47 84bd
00000340: 1a7d 2cbd 9b59 adbc 89f5 a8bc 3723 c63c
00000350: bb5e 0fbe 5a5b 633b 8b6d c3bd 8b57 90be
00000360: c4be 86bc 710f cebd e8c1 2f3e 4817 af3c
00000370: 5b8a 01be 4bbb c33a df34 fa3d 04be 53be
00000380: 475d 96bd 546b 373e 37e3 1abe de25 11be
00000390: 9f77 a53a e8c0 b4bd c852 613e c7ea ba3e
000003a0: 4a81 da3d 235e 2ebe b707 20be d07d 5d3d
000003b0: 0877 313d d07d 023d a505 a1bc 053f a83d
000003c0: e111 873d bcf9 d2bd 1d73 9c3d 8da6 7a3e
000003d0: c178 2fbe 8a15 58bc fd74 843d d472 093e
000003e0: 3301 0f3e 8a86 e8bd a950 19bc 8c88 e2bd
000003f0: 8b3e abbd cea9 d63d 9f4c 80be d6df 10be
-0.05625037 -0.01658909 0.08639069 0.07772511 -0.0475137 0.0015056895 0.09660551 0.18491806
-0.050878733 -0.11094715 0.13888566 -0.0013952943 -0.16361688 0.00925823 -0.18386288 0.03515266
-0.027658755 -0.11092474 -0.06380047 -0.010858821 0.004976112 0.0462634 0.019820543 -0.077975385
0.090437554 0.16105354 -0.095747136 -0.12089229 0.012807962 0.030736657 0.14337227 0.046245024
0.106420375 -0.06117438 -0.18970238 -0.12759183 -0.12928602 0.010136879 0.03524779 -0.041929297
0.09709114 0.11280505 -0.037253313 0.011627867 0.10819512 0.055829555 -0.12883417 -0.14693028
0.11362921 0.0010541567 0.0032871335 0.041073054 0.17452665 -0.10402811 0.08160081 -0.0255055
-0.034114905 0.057310022 -0.12313311 -0.14137013 0.19261675 0.06704884 0.052281655 -0.149951
0.018696943 -0.0668517 0.07914686 -0.06347264 -0.079429686 -0.06488592 -0.00033037402 0.20478565
0.012350373 -0.028735466 0.09251055 -0.06318295 -0.21196818 0.053058855 0.023792839 -0.017694175
-0.10125133 0.15002681 0.17836645 -0.017090045 0.123642534 -0.020965386 0.036033213 -0.056820743
-0.05000096 0.029693404 0.08815936 -0.0011085029 0.0057984665 -0.02739725 -0.008629748 -0.04472044
0.16235268 -0.12529781 -0.02017144 0.15375777 0.057587784 0.018575892 0.2116355 -0.24708317
0.23128702 0.11534653 0.039571255 0.018579997 0.09440188 -0.0650496 -0.20155372 -0.12495915
-0.013495605 0.06911586 -0.044901725 -0.0020907568 0.056045167 -0.11775373 0.013214747 0.1470421
-0.11042708 -0.040335868 -0.17188138 -0.009908104 -0.13637699 -0.0051933243 0.014936129 -0.08837847
-0.0036537503 0.0642413 0.18250833 0.050295375 0.07070069 -0.024834024 -0.043530956 0.024576215
-0.11897756 -0.075077094 -0.233977 0.101976015 -0.03973105 0.060403865 0.039106224 -0.10180866
0.13499217 0.028394926 0.031158583 0.04866536 0.15668117 -0.052967064 -0.04218034 -0.02572085
-0.167767 -0.00416748 0.07868668 -0.05372641 0.14475186 0.17459036 0.272635 0.30325943
-0.00063765136 -0.061834287 0.081063494 0.13194959 -0.05686997 0.03829976 0.13621745 0.19986385
0.15626743 0.04404983 -0.06305363 -0.035585828 -0.06373973 0.0028037024 0.041880958 -0.058599114
0.112179115 0.18496688 -0.07408468 0.014006138 0.13743924 0.15997377 0.14434323 -0.032854058
0.017178187 0.112529226 -0.096222244 -0.0090454705 0.08434154 -0.19421881 -0.09291919 -0.29414162
-0.14027083 0.105971746 -0.13371491 -0.13410987 0.22362465 0.07800588 -0.10539817 0.075911865
-0.13861144 -0.11295478 -0.06696176 0.16831812 0.03729558 -0.07533563 -0.12178794 -0.06458912
-0.042111494 -0.021160891 -0.020624893 0.024186714 -0.1400098 0.00346919 -0.09542378 -0.2819179
-0.016448386 -0.10061539 0.17163813 0.021373406 -0.12650435 0.0014933137 0.122171156 -0.20677954
-0.0734201 0.17912036 -0.15125738 -0.14174601 0.0012624151 -0.088258564 0.22004235 0.36507246
0.10669191 -0.17028098 -0.15627943 0.054075062 0.043326408 0.031858265 -0.019656012 0.08215145
0.06595207 -0.10301539 0.076391436 0.24477597 -0.17135908 -0.013188729 0.06467626 0.1342271
0.13965301 -0.11353786 -0.00935761 -0.110612005 -0.083615385 0.104816064 -0.25058457 -0.14147887

G.0.linears.0.bias f4 [32]
00000000: cd53 7dbc 0115 2fbd c3c1 953c 185c 3abc
00000010: 098a a53c 122a d03c 5aaa 85bd e951 dabc
00000020: 41c6 563d cac6 bbbd 7e93 91bc a841 cd3b
00000030: 1f4f a1bd ac58 f3bc c369 75bb d612 0c3d
00000040: 9142 f53d 9a37 d93d 0f6a a5bd 0ff3 58bc
00000050: f475 3dbc 166e d93d 497e 20be d8c8 853b
00000060: e8cc 173e 6e74 923d 3f78 93bb 5810 693d
00000070: 64f4 27bd 5cb3 eabd 9901 62bd f872 67bb
-0.015461874 -0.04274464 0.01828087 -0.011374496 0.020207422 0.025410686 -0.065266326 -0.026650386
0.052435163 -0.091687754 -0.017770525 0.0062639304 -0.07876419 -0.029705368 -0.0037447072 0.03419765
0.11975587 0.10606308 -0.0807687 -0.013241543 -0.011563767 0.106167 -0.15673174 0.0040827803
0.1482426 0.071511135 -0.0045004184 0.056900352 -0.041004553 -0.11459991 -0.055177305 -0.003531633

G.0.linears.1.weight f4 [32, 32]
00000000: f062 ca3c cac0 153d aac4 55bd 9bd5 2d3d
00000010: 0f96 6f3d c78a b53e ea91 09be efb3 0e3c
00000020: 2958 7a3d ea0e 38be 03d1 573c 9192 a5bd
00000030: 49c2 78bd 823b a63d f11d 3ebe b047 e9bc
00000040: 071a 393d 3f78 aa3c a729 813d 503f 35bd
00000050: b86e e9bc 6f08 ba3d 2462 053e b17e 3e3d
00000060: 52d3 da3d 2635 063e 2b1e 593e 3c39 693d
00000070: 8261 483e 10c8 34bd ca15 b13d 98fd 873d
00000080: 367c eaba 904a ad3d fdd7 933e 8b9f ff3d
00000090: b499 ff3d e159 35bd 7f2d cabd 4928 1f3e
000000a0: 8048 9fbb 9457 3f3c d621 fa3d 7c70 183d
000000b0: 2831 99bd e61a 0fbd 1822 c73d 839c 72bd
000000c0: eb64 11be a683 10bc daaa 51bd be40 5abe
000000d0: eed7 acbd 4b0b 893d 0a66 cdbd e406 72bd
000000e0: 3e67 ffbc db4c 4a3c 5f42 6f3e 6bb9 65bd
000000f0: 9552 4d3c 91c6 5c3e a919 99bd c412 37bd
00000100: b81a 85be 174d a33b cca8 513d b0ce 6d3d
00000110: 4a45 573c 32d0 96bc b951 e33d 5416 453e
00000120: 9b4b a13d 1b33 d13c 282e 8b3d 50b2 21bd
00000130: cc9d ba3c 2370 10be 74b9 c83d 64c1 963d
00000140: 3e3c 6dbe 8e8a 45be 21f9 533c e036 94be
00000150: dbdb 50bc dd79 683d 2aa1 023e 9684 d23d
00000160: b370 81bd 542e 95bd a3e4 603d 9405 a5bd
00000170: 0d32 413e ecc3 2d3d 0e75 4abd d858 513c
00000180: 57be 273e c87b b1bd 2f9f 7d3d 956d 583d
00000190: 44d1 f83d 44e1 6f3d cf8c 98bd 033d ce3d
000001a0: db68 a73d acf4 963c 44dd 8d3d 4e58 6dbe
000001b0: 6338 57be ee24 063e ac5b 1b3e 469e cbbd
000001c0: 679a dfbd 40cd 4ebe 3e1b fe3d 74ed 0abd
000001d0: b64b 26bd 7f35 7bbe 5112 183d c642 4f3d
000001e0: 2d74 54be ead8 383e dc9d 243e 56f3 ebbb
000001f0: bc11 513c 2b77 28bb 0fe3 febd 5bb1 82be
00000200: b936 2d3d 02d3 eb3d 3993 a5bd 01ea 24be
00000210: 121e 62be 910d eebd 12eb 1b3d 93cc d3bd
00000220: fc12 a53d 2dcb 06bd 37ac 03be 6b9d f83d
00000230: cf7b b6bc 9d5e 8e3c ec19 77be e519 a33d
00000240: 9077 013e 3471 5fbe 491a 583d 4db1 153e
00000250: 7ca2 c23a ac09 053e 7a10 1dbd b117 25be
00000260: 413d 6a3e d637 fc3d 8d7b 01bd d4ca 0d3e
00000270: 06c3 e13d 5656 7abe b54f 533e 4e4d 103e
00000280: 9ea2 363d f893 fc3b f648 283e 2ea5 503e
00000290: fe2d 353d 950c 133e c13c f6bc 9649 2cbe
000002a0: 5cbc 633e d574 733d 5c3d e93d 198c 5abd
000002b0: 9384 0fbe ce8d 443d 3e9f ec3d ff7c de3d
000002c0: 4878 333d a293 4dbd 4d16 263e 9cb9 1dbc
000002d0: b564 643d b596 773d 9693 e13b cd98 2f3e
000002e0: e2cb 8bbb 3786 56bd c19e 233e 7ede 7fbe
000002f0: 864c cc3c 20eb 2b3d 1a25 0cbe e156 1b3d
00000300: e1d9 14bd 7051 49bd e7e3 edbd cf27 8ebd
00000310: 53b8 553e 63c5 663d 2939 c93d b311 473d
00000320: 26ea d93d c72f c4bd 1945 51bc 24fd 88be
00000330: bcbc 5abd dc79 613c 0c82 443e eec4 c4bd
00000340: 2255 87bd 4c8a 52be 8b2d 623d 6fb9 02be
00000350: 066c cbbb de70 1cbe 0786 343e a257 a13d
00000360: 77ec 4abd c493 2c3e 3d6f 413d 8745 5cbd
00000370: c262 04bd 6066 1d3e 16be 7ebd 03dd 033c
00000380: 2582 873c cd0c 853c 537e 82bd 9bcf eb3d
00000390: 5b6c 093e 6947 e0bc d648 1dbd 842e 6a3d
000003a0: ceaf ff3b 5ef6 89bd 466a 56bd f16a f73c
000003b0: a86e 01be e39c b83d f884 323d 3387 443e
000003c0: b1e5 f8bd 0402 173d a9e9 833c 7bd6 06be
000003d0: 72f7 30be 10bb 53be 1c5d 0b3d d771 4abd
000003e0: ad9b d23c 8579 0d3e 1f5c 853d ba3b b2bd
000003f0: 7a7b 903d 54b8 40bb 0ff3 bebd c773 13be
0.02470538 0.03656081 -0.052189507 0.04244004 0.058492716 0.3545744 -0.13434568 0.008709892
0.061119232 -0.1797444 0.013172391 -0.08084596 -0.06073216 0.08116819 -0.18566109 -0.028476566
0.045190837 0.02080929 0.06306773 -0.044249833 -0.028495178 0.0908364 0.13025719 0.04650754
0.106848374 0.13106212 0.21202914 0.05693935 0.19568446 -0.044136107 0.08646734 0.06640166
-0.0017889801 0.08461487 0.28875723 0.12481602 0.124804884 -0.04427517 -0.09871959 0.15542711
-0.0048609376 0.011678595 0.12213485 0.03721665 -0.07480079 -0.03493776 0.097233 -0.059231292
-0.14198653 -0.00882045 -0.051188327 -0.2131376 -0.08439623 0.06691607 -0.10029228 -0.059088603
-0.03117716 0.012347425 0.23365162 -0.05608503 0.012531896 0.21560122 -0.074755974 -0.04469563
-0.25996947 0.004983555 0.051186368 0.05805844 0.013139078 -0.018409822 0.11099572 0.19246799
0.07875749 0.025537064 0.06795913 -0.039476693 0.022780322 -0.14105277 0.098009974 0.07361105
-0.23167512 -0.19291136 0.012937815 -0.28948116 -0.01274773 0.056756843 0.12756792 0.10279195
-0.06320324 -0.07284227 0.054905545 -0.080577046 0.18866749 0.042423174 -0.04942804 0.01277753
0.16381203 -0.086661875 0.061919387 0.05283888 0.12149289 0.05856444 -0.07448732 0.10070231
0.081742965 0.018427216 0.06926969 -0.23178217 -0.21017604 0.13100025 0.15171689 -0.09942298
-0.10918122 -0.20195484 0.1240754 -0.03391786 -0.040599547 -0.24532126 0.037126843 0.05060079
-0.20747443 0.18051496 0.16075844 -0.0072006388 0.012760576 -0.0025705795 -0.12445652 -0.25525936
0.042288516 0.11514856 -0.08084721 -0.1610489 -0.22081783 -0.11623681 0.038065977 -0.10341754
0.080602616 -0.032908607 -0.12858663 0.121394 -0.022275833 0.0173791 -0.24130982 0.07963923
0.12643266 -0.21820527 0.052759442 0.14618416 0.001484945 0.12991971 -0.03834579 -0.16122319
0.22874929 0.12315337 -0.031611968 0.13846904 0.11023526 -0.24446997 0.20635875 0.1409199
0.044588678 0.007708069 0.16434082 0.20375511 0.044233315 0.14360268 -0.030058267 -0.16824946
0.22239822 0.05943759 0.113886565 -0.053356264 -0.14015417 0.047986798 0.115538105 0.10863685
0.04381588 -0.05018962 0.16219445 -0.009626772 0.055760104 0.06044646 0.0068840487 0.17148133
-0.004266248 -0.05237409 0.15978529 -0.24987218 0.024938833 0.04197228 -0.13686028 0.03792465
-0.036340598 -0.04914993 -0.116157345 -0.06941187 0.20871095 0.056340586 0.098253556 0.048600864
0.106403634 -0.09579425 -0.012772822 -0.2675563 -0.053402647 0.013761964 0.19190234 -0.09607874
-0.06608035 -0.20560569 0.055219214 -0.1276605 -0.0062079458 -0.1527743 0.17629252 0.07878043
-0.049541917 0.16853243 0.047225226 -0.053777244 -0.032320745 0.15371084 -0.062193 0.008048299
0.01654155 0.016241455 -0.06371751 0.11514207 0.1342024 -0.027377801 -0.03839954 0.057173267
0.00780294 -0.06736444 -0.052347444 0.03020236 -0.12639868 0.09014299 0.04358384 0.191922
-0.12153185 0.036867157 0.016102629 -0.13167755 -0.17281893 -0.20676827 0.034024343 -0.049424972
0.025708998 0.13815887 0.06511711 -0.08702798 0.07054801 -0.0029406743 -0.093237035 -0.14399634

G.0.linears.1.bias f4 [32]
00000000: d412 cfbc 5b54 833c f986 eabc 1d1d 36bd
00000010: edd3 f5bc 4776 0fbd 4ee0 dabd 784a 013d
00000020: f25e 1c3d 6eff b3bd 11e5 98bc 0fef c43c
00000030: 0cee 95bd 9e16 863d 4a67 5dbd 00d3 8a3d
00000040: 747e 87bc a0fa 21bc 8324 3cbd 865c bb3d
00000050: 34d8 b93d af93 d43d 5f2f 06bd 7d15 99bd
00000060: 5754 f5bc 5fde f13c 23ae 0a3c c201 b63d
00000070: 73e1 b03d 171c 85bd e701 053d f5e9 d93b
-0.025277533 0.016031435 -0.028628813 -0.04446136 -0.03000828 -0.035024907 -0.10687314 0.03156516
0.038176484 -0.08788954 -0.018663915 0.024039773 -0.073207945 0.06547283 -0.054053582 0.06778526
-0.01653979 -0.009886414 -0.045933258 0.09148507 0.090744406 0.10379731 -0.03276002 -0.07474802
-0.029947443 0.02952498 0.008464369 0.08887054 0.08636751 -0.06499498 0.032472517 0.0066502043

G.0.linears.2.weight f4 [10, 32]
00000000: d699 b2bc 6620 e7bc 6474 193e 51aa c13d
00000010: 3605 53bd 49e1 d73d e284 bd3d 588d 593d
00000020: 00d9 873e f12d 953c 8548 ae3d 2b19 34bd
00000030: b506 0e3e f258 743d aceb 38be 4198 bbbd
00000040: 39db 3abe e99d d6bd 195c 67be 8586 c43c
00000050: bf2c 963b d00d fdbd d76f d4bd 2d83 893e
00000060: f6b3 28bd 5694 9cbd 7442 35bc 18a8 ff3d
00000070: 7427 123e 6142 0d3d 3b8d 303d b2d7 e2bd
00000080: 80a7 48be 15a0 8f3c a108 f2bd 33bd 8fbd
00000090: a0da ac3d d927 65bc 710c 523e 934d dabd
000000a0: d1f1 dd3d 1c19 54be 821c a73d 96d7 93bd
000000b0: 49a3 50be f708 c33c 324e 0f3d 6df5 2f3e
000000c0: 3fce e33c fbb4 cbbd 19a4 473e 1546 dd3c
000000d0: 1918 58bd 1567 af3d b8b4 1939 d804 67bd
000000e0: 44bb 233d 732d 59be bd5b 5cbd 53a8 183c
000000f0: b9a4 693e d2b8 87bd 13fa 483d 6c53 5ebd
00000100: f031 63bd 723c 71be 4748 23be 5080 06be
00000110: 3835 103e 081f c0bc 8166 63be eed9 a7bc
00000120: d4b5 d5bd 5622 8dbd 8a4e a73d 6c56 b1bd
00000130: 3822 8cbe 9fd1 383d 0722 813d dbbf 21be
00000140: 5ba9 cf3d c437 963d f5ad 1a3e 002d 3e3d
00000150: 0a72 be3d 4520 1f3e 120e 21bd 9bd4 6cbd
00000160: 402a 863b 36e2 f8bd de89 9e3b e7c9 493d
00000170: 1654 af3c 89e1 51be eebe 0d3d 5b9b 863e
00000180: c3b7 053d c7d9 a33d ebcc 663c 8d73 a6ba
00000190: f580 e23d 7fa5 54be 776a e93c d2fe a03d
000001a0: 6ae8 cd3b 2319 b5bd 507f 8cbd c969 83bd
000001b0: 59c1 0ebd b29f 5abd 11e8 8a3d 591a ce3c
000001c0: 2a27 e03d c562 873c 2f19 993d 8a5e 443e
000001d0: 17b8 803d 6063 c03c 18bc 0e3b 8e17 b93b
000001e0: 4711 80bd db0e cabb 8792 933c 9445 2a3e
000001f0: 348c 6c3e a411 513e 23a0 57bc fc11 dd3c
00000200: 06fd ab3d 91de 133d 2496 f639 9a6e f03c
00000210: aa14 433c e102 3dbe 2710 ebbc 94e2 3bbd
00000220: bb54 de3a 4f67 04be 8db5 be3c 0ce2 2f3e
00000230: 964a 15bd 2bc7 b23c 5a91 8e3c aba0 3bbd
00000240: 4554 333e 592e 6d3d f34a 873d 8339 133d
00000250: 1a32 eb3c 93f8 543c 8a40 1f3e e0ef 3dbc
00000260: 09ed 003e 2628 a3bc 1460 f63d 3bde 88bd
00000270: b16c ee3d cc7f 9cbd 49d9 793d 3853 0b3c
00000280: 24ab 02bc a1b8 a7bd debe 223d 71a0 47bd
00000290: 3941 36be dd19 e0bb fa91 59bc f741 0c3e
000002a0: c9e7 ea3d 08bf efbc cd05 15bd ba40 713d
000002b0: f28a 68bd 0558 ca3d afcb 9cbc 91e2 463d
000002c0: 25fd 30be d652 8dbd 926f 1abe 4b7b 05bd
000002d0: d40b 9abd 1f28 363c 5834 babd a003 0e3e
000002e0: 1a78 89bd ca3d e3bc 6d50 343d 86b3 3b3d
000002f0: 5a29 38be e8b9 95bd c98a 843d a1e2 89bd
00000300: 1cae 10be 5e30 5fbd 6e0d dc3d 40bd 0a3e
00000310: 6905 97bd 432e 903c 963d 8dbc 518c 5fbd
00000320: 059b 0dbd b255 dbbc 3216 b2bc cab8 fcbd
00000330: 04fc 3d3d f8ec f73d f2ed 41be 828b a539
00000340: 8950 2c3d f8c6 1b3e 4d49 31bb 39d8 3cbe
00000350: bbe6 ba3d e6f7 473c d703 3cbe c6b1 e73d
00000360: 357e 173e af03 16be 8db7 87be 9079 1e3e
00000370: 7c1b 4ebc 1076 5b3d 7636 d63c 73a0 02be
00000380: 1a0a 79bd 0d6c 55bd 48b2 a93c a3ed 36be
00000390: d658 bdbd 8348 47be c981 843d 25f9 b43d
000003a0: 70eb 213b dbc4 11be 863a 363e 3944 4a3e
000003b0: 7bc2 52bd 7089 f0bb b2da 223b 381d c43d
000003c0: f367 0a3e 38fc 2e3c 3582 e53d f008 1ebe
000003d0: 40c7 98bd 307b 0e3e 1ad7 643e d5b4 da3d
000003e0: 8993 9fbd 6551 97bd a30f c43d b62c 7ebd
000003f0: 9c18 183e 53d0 02be 2055 e93d e24f 193d
-0.02180187 -0.028213691 0.14985806 0.094563134 -0.05151864 0.105410166 0.09253861 0.05311331
0.26532745 0.018210383 0.08509926 -0.043969315 0.13869746 0.059655137 -0.18058652 -0.091598995
-0.1824769 -0.10479338 -0.22593726 0.023989925 0.004582971 -0.1235615 -0.10372894 0.26857892
-0.04118725 -0.0764548 -0.011063207 0.12483233 0.14272863 0.034487132 0.043103438 -0.11076297
-0.19595146 0.017532388 -0.11818052 -0.07018509 0.08440137 -0.013986551 0.20512559 -0.10659327
0.108371384 -0.20712703 0.08159734 -0.07218854 -0.20374788 0.023807986 0.034986682 0.17183466
0.027808307 -0.09946629 0.19496192 0.027010957 -0.052757356 0.08564583 0.0001465854 -0.056401104
0.039973512 -0.21208744 -0.053798426 0.009317475 0.22816743 -0.066270486 0.049066614 -0.054278776
-0.055467546 -0.23558214 -0.1594554 -0.13134885 0.14082801 -0.023452297 -0.22207071 -0.02048966
-0.104350716 -0.06891315 0.08169277 -0.08659062 -0.27369857 0.045121785 0.06305318 -0.15795843
0.10139724 0.07334855 0.15105422 0.046429634 0.09299095 0.15539654 -0.03932006 -0.057819944
0.004094392 -0.12152521 0.0048382124 0.049264815 0.0214024 -0.20496191 0.034605913 0.26290402
0.032645952 0.08000522 0.014086942 -0.0012699232 0.11059753 -0.20766257 0.02849315 0.07861103
0.0062838094 -0.08842685 -0.068602204 -0.06416661 -0.03485236 -0.053374954 0.067825444 0.025159048
0.1094497 0.01652659 0.074755065 0.19176689 0.06285112 0.023484886 0.0021779593 0.00564856
-0.062532954 -0.0061663217 0.018014206 0.16628104 0.23100358 0.20416886 -0.013160738 0.026986115
0.0839787 0.036100928 0.0004703264 0.029349614 0.011906782 -0.1845813 -0.028694225 -0.04587038
0.0016962508 -0.12930034 0.02327993 0.17176074 -0.036448084 0.021823486 0.017403293 -0.04580752
0.17512615 0.05790553 0.06606092 0.03594352 0.028710414 0.012998718 0.15551963 -0.011592835
0.12590422 -0.019916605 0.12030044 -0.06683012 0.11641825 -0.07641563 0.060998235 0.008503728
-0.007975373 -0.08189512 0.039732806 -0.048736993 -0.17798318 -0.0068390206 -0.013279432 0.13697039
0.11469991 -0.029265895 -0.036382485 0.05889962 -0.056773134 0.0988007 -0.019140093 0.048555914
-0.17284067 -0.06900565 -0.15081623 -0.032588284 -0.07521787 0.011117964 -0.09092015 0.1386857
-0.06712361 -0.027739424 0.044022013 0.045825504 -0.17984524 -0.073108494 0.06471784 -0.06732679
-0.14128917 -0.054489486 0.10744749 0.13548756 -0.07374079 0.017600184 -0.01724128 -0.054577176
-0.034571666 -0.026774261 -0.0217391 -0.12339933 0.04638292 0.12105745 -0.18938425 0.00031575194
0.04206899 0.1521262 -0.0027051747 -0.18441857 0.091260396 0.0122051 -0.1836084 0.113132045
0.14794238 -0.14649843 -0.26507226 0.1547606 -0.012579795 0.05357939 0.026149016 -0.12756519
-0.06080065 -0.052105 0.020714894 -0.17864089 -0.0924546 -0.19461255 0.06470067 0.08836583
0.0024706982 -0.1423525 0.17795762 0.19752587 -0.051455002 -0.0073406026 0.002484959 0.095758855
0.13516216 0.010680251 0.11206476 -0.15433097 -0.07459879 0.1391418 0.2234768 0.10679022
-0.07791812 -0.07388572 0.09573295 -0.06205436 0.14853138 -0.12774782 0.113931894 0.037429698

G.0.linears.2.bias f4 [10]
00000000: 5445 c3bd 5a73 f7bc 35cc e13d 67e2 e0bc
00000010: 0e0c 093e a1bf b3bd 6587 54bd e3a7 903d
00000020: 25d2 8abd c757 f03d
-0.09534708 -0.030206371 0.110252775 -0.027451707 0.13383505 -0.08776785 -0.051886935 0.07063272
-0.06778363 0.11735492

L.0.linears.0.weight f4 [32, 20]
00000000: 5f3e a33d 6828 ad3d f69d 2b3b 766c 0bbd
00000010: 6c67 c23d b504 233e 9f2a babc 0437 debc
00000020: e8f1 b83d ae40 6d3c 0d92 4a3d 3b78 223e
00000030: 8736 6a3e 95bc 193d aa48 813d 1d82 1c3e
00000040: 79e2 d2bd d5b2 d4bd 5ac6 47be b60c 88bd
00000050: df43 3f3e 096f 39be 9508 ab3d 9614 28bd
00000060: c1fe 03be 12af 173c 8d0a 0fbe c56d 9abd
00000070: 5042 653d 0aa4 893d c6c6 ec3d 8ad0 c3bb
00000080: f09d 7e3d e602 d8bd 4ec9 3cbc 0859 c7bd
00000090: eada 2a3d 50fb ebbc 5222 aabd fd47 aa3c
000000a0: 0ffb 123e 12ce ff3d f41b 7bbd 62e1 00bd
000000b0: 1964 55be cae7 ce3d 70fd 803d 207b b8bd
000000c0: 0b81 57be b663 49bd 3457 db3c 83e3 ef3d
000000d0: a806 3e3e ab19 2b3d 127a 913d 5b06 ae3c
000000e0: 498d 7a3d b144 76be c73e 6e3d d5f4 c93d
000000f0: eb6f 22bd a8e3 bcbd 2337 c9bc e576 8e3c
00000100: 7fe5 d2bc f8ba dabd 56aa a5bb a862 993d
00000110: dbec 3a3d 3f41 5ebd caac 00bd 7663 d1bc
00000120: 43f8 3abe dc98 55be baf5 2d3e ae46 fbbd
00000130: cb5e 84bd 9b71 c9bc 89e6 3f3e 1887 acbd
00000140: 8469 9ebd cb85 053d b84c f43d 6dad 75bd
00000150: bcb6 81bd 7049 acbc 31ee 4cbd 6c34 21be
00000160: db42 a7bd 9a46 3c3c 791b b03d 0c1a 833c
00000170: 204e a13d a1c6 57bb 59b3 ce3c 7e48 143e
00000180: 610b 8b3a eb7e 8e3c d6c2 07bd dcf8 a1bd
00000190: c633 aebd cdff b9bd bc69 2fbe 5e3c 89bc
000001a0: 5bf3 c8be 4041 1bbe 651a 1a3e cbcd a33d
000001b0: 9520 9f3d 361f 5d3c 7f44 96bd 5d00 68bd
000001c0: 8143 d2bd b3e3 2c3c 1f17 0cbe c972 a8bd
000001d0: 7513 5cbe 9f0d afbd 7419 afbd def2 0e3e
000001e0: dbff 353e c8b3 22bc 9bc7 2abd 8f51 fcbd
000001f0: 1ff2 11be c168 59be 6c2d 553e 0ebe 7bbd
00000200: d21a 1d3d b186 9a3c 7ff8 87bd c855 f63d
00000210: 2e1f 393e 64cf 6fbd dbd7 09bd a5cd 443d
00000220: d901 73bd 3b0c bdbd 88ca 863d 94c1 66bd
00000230: f48a e63c 717e e33d a9e9 c3bd cdd8 babd
00000240: d3da 043d ea5d c03d 8e38 893d eb28 e2bd
00000250: e5e6 0dbe 1e1e 7f3b 57c8 113d 0469 f73d
00000260: aa06 0a3e 589c 303d 1f66 5c3d 19bf 723c
00000270: 7b2e ecbd a0d7 243e 5546 97bd 7665 e63c
00000280: 7fa8 3ebe 50ba acbd 06bd 3d3e a330 373e
00000290: 0733 123d a043 9bbb e994 9fbd 7f31 073e
000002a0: 08e4 2a3d 817e 9f3c 8304 423e 69d4 683e
000002b0: 6dfa fa3d b06a 813d a6d8 09bd 81c9 18be
000002c0: 557c 26be 26bf 0dbd b74b afbd af66 3b3d
000002d0: 74da 1ebe 0c05 263d 18fa 0f3e ed4b 36be
000002e0: 75b0 f0bb 554c 6dbd 85e6 03be 56f9 e9bd
000002f0: 4f66 11bc 119e 6a3d bb18 673e dc8d c8bc
00000300: 0ad0 32be a344 c8bc 79c0 79bd 7eb9 603e
00000310: b11c c63c 2df1 8dbc f176 0abe 824f 0cbd
00000320: c8c9 7ebd 18bd 343e 93cf 8c3d 7ea5 96bd
00000330: 717e 5f3c d2c2 da3d 3e3e b0bd 3c59 1cbd
00000340: e0e1 a9bd 3758 39be e3ce c8bd e235 cf3d
00000350: a082 033e a8f8 d8bd 9b02 52bd bfa7 51bd
00000360: c230 97bc cb4c 18be e593 103e 8b19 a5bd
00000370: 9151 7ebd 4fdf 66bd f5ed 8b3d 2438 6abd
00000380: e4a2 2ebd ef33 c43d cbd2 6abd 2f6f 8dbd
00000390: 6b17 d93d 054a 483e 602a a23b 0cd8 5cbe
000003a0: 49db efbd 891c 26be 5804 303e 111c 5a3d
000003b0: f86f d43d 4075 963d 8a8f 543c decb fc3d
000003c0: 906c b33c 6311 eebd d8be 243d dbea 6e3e
000003d0: de89 bcbd fdd8 0abe 9382 08bd 5da1 18bd
000003e0: 36d7 b33d 9bc7 893d 176c c6bd f343 e8bd
000003f0: f9df 9dbd 3c2d 29bc ea2e 15bc 0ff0 21bd
0.07970881 0.084549725 0.0026186681 -0.034038983 0.094923824 0.15919764 -0.022725401 -0.027125843
0.09030515 0.014480753 0.04945569 0.15866177 0.22872363 0.03753336 0.06312688 0.1528401
-0.102971025 -0.10385672 -0.19509259 -0.066430494 0.18678235 -0.18108763 0.08351246 -0.041035257
-0.1289015 0.009258049 -0.13968869 -0.07540468 0.055971444 0.06720741 0.115613505 -0.0059757875
0.06216234 -0.10547428 -0.011522604 -0.09733778 0.04171268 -0.028806359 -0.08307327 0.02078628
0.14353584 0.12490477 -0.061305955 -0.03146494 -0.20838965 0.10102804 0.06298339 -0.09007859
-0.2104532 -0.049167357 0.02677498 0.11713316 0.18557227 0.041772526 0.07103361 0.021243265
0.061169896 -0.24049641 0.058165338 0.09861151 -0.039657515 -0.092231095 -0.024562424 0.017390678
-0.025744198 -0.10680193 -0.005055706 0.0748952 0.04563604 -0.054261442 -0.031414784 -0.025560122
-0.18258767 -0.20859092 0.16988268 -0.122693405 -0.06463393 -0.024590304 0.18740286 -0.084242046
-0.07734969 0.032598298 0.119286954 -0.059979845 -0.06333682 -0.021031111 -0.050031845 -0.15742654
-0.081670485 0.011491442 0.0859899 0.016003631 0.07876229 -0.0032924789 0.025232004 0.14480779
0.001060825 0.017394504 -0.033144794 -0.07908794 -0.08505969 -0.09081993 -0.17130178 -0.016752418
-0.39248165 -0.1516161 0.15049131 0.07998236 0.077698864 0.013496211 -0.07337283 -0.05664097
-0.102667816 0.010552335 -0.13680695 -0.082250185 -0.21491797 -0.0854752 -0.08549777 0.13959834
0.17773382 -0.0099305585 -0.041694265 -0.123202436 -0.14252518 -0.21231367 0.20818108 -0.061460547
0.038355656 0.018863054 -0.06639194 0.1202808 0.180783 -0.058547392 -0.03365312 0.04804768
-0.059327934 -0.092308484 0.065815985 -0.056336954 0.02814243 0.11108101 -0.095660515 -0.09123383
0.03243525 0.09392913 0.0670024 -0.11042961 -0.1385761 0.0038927863 0.03559145 0.12080577
0.13479105 0.04311785 0.053808328 0.014816069 -0.11532303 0.1609788 -0.07386462 0.028124552
-0.18618964 -0.08433974 0.18529138 0.17889647 0.035693195 -0.004738286 -0.07792074 0.13202475
0.041721374 0.019469501 0.18947034 0.22737278 0.12254796 0.06319177 -0.033653878 -0.14920618
-0.16258366 -0.03460612 -0.08559363 0.045752224 -0.15513021 0.040532157 0.14060247 -0.17802401
-0.007345254 -0.057934124 -0.12880905 -0.1142451 -0.00887449 0.05727965 0.22568028 -0.024481706
-0.17462173 -0.024446791 -0.06097457 0.2194576 0.024183603 -0.017326916 -0.13521935 -0.034255512
-0.062204152 0.17650259 0.06875529 -0.07355784 0.013640986 0.1068169 -0.08605622 -0.038171038
-0.08295035 -0.18100058 -0.098050855 0.10117699 0.12842798 -0.105943024 -0.051272016 -0.051185366
-0.018455867 -0.14873044 0.14118917 -0.080615126 -0.062089507 -0.056365307 0.06832496 -0.057182446
-0.042635813 0.09580218 -0.057329934 -0.06905972 0.1060017 0.19559486 0.004948899 -0.2156679
-0.11711747 -0.16221823 0.17189157 0.053249422 0.10372919 0.073465824 0.0129736755 0.12343572
0.021902353 -0.1162441 0.040221065 0.23331778 -0.092059836 -0.13559337 -0.03332765 -0.037263263
0.087812826 0.06727525 -0.09688585 -0.11341085 -0.07708735 -0.010325726 -0.009105423 -0.03953558

L.0.linears.0.bias f4 [32]
00000000: e3cc 993b a5cb 743d 096c 9fbc 28b9 3b3d
00000010: a29c 6f3d 4ac8 db3c 5729 903d ccff 803c
00000020: 8e4b cc3d 2ced a7bd 0927 073d 62c6 0bbc
00000030: 852e b1bb 1f3d 25bd d28a 02bc f403 e43d
00000040: 5ff1 263d b634 d8bc 2c7e 033e f82c 7e3d
00000050: af37 993d 33ab a4bd 0085 3f3c fe52 dabb
00000060: 7954 f7bc c1db 01bc bf47 febd e372 2cbd
00000070: 14c6 4c3d 831e 30bd 75d5 00bd 675a ccbd
0.004693614 0.059764523 -0.019460695 0.045830876 0.058498986 0.026828904 0.07039135 0.015746973
0.099753484 -0.08199534 0.03299621 -0.008531185 -0.005407157 -0.040341493 -0.007967668 0.111335665
0.040757533 -0.026392322 0.128411 0.062054604 0.07481324 -0.08040466 0.0116894245 -0.0066627255
-0.030191647 -0.007925929 -0.12416028 -0.042101752 0.04999359 -0.04299785 -0.03145357 -0.099781804
