para_save/00062params.pth (torch, 118145 bytes, 76 tensors)

F.linears.0.weight f4 [32, 20]
00000000: e1bc 33bd e6ea 8bbd 7b04 28be eaf1 b53c
00000010: 1989 8abd f896 e8bc 3618 1abe c6ce c63d
00000020: fde9 d6bd 2a1c 5ebd 205e 97bb f122 28bd
00000030: 4acc 8a3d 0b1f 1abe 6ea8 b4ba c0be 1f3c
00000040: 4101 9c3d 5caf 0b3e 7cd2 9cbd 8377 ff3d
00000050: 5880 1e3e 32cc fbbd b29a bfbc 416e 73bd
00000060: 23a7 70bd 158b 27be 8f00 3f3c 47b4 b93d
00000070: 3836 273d d6c0 8fbc f2e2 203e 874b 3bbd
00000080: 1f52 35be 62da 1bbc bcfa 9e3d 5f69 363d
00000090: 04c2 213d 8fca 873c e483 43bd a642 853b
000000a0: becd e7bd 08e7 623d 87c3 b2bd 553f 54be
000000b0: b348 0ebe ae24 29be 0900 173e 759a 943d
000000c0: 596c 003e 53c6 c03c b0dd c83d 5d5f 94bd
000000d0: c312 46bd bf42 45be 8586 f43d f018 983c
000000e0: 6446 913d 2f0d 4ebe 5010 a4bd c968 1b3d
000000f0: aaed 363d 0bd6 ebbd 2118 95bb 215b 69bd
00000100: d998 093e b58b 95bd a0fa 9d3c c06b 01bd
00000110: 2b69 dcbb 82f6 183e 76b0 d4bc d173 1ebe
00000120: 3407 8fbd 4cc9 133c 839f a63c 0efa c83d
00000130: dbeb debb 4ae1 113b a478 32be 3775 7e3d
00000140: aeab e63d bf3c 2f3c 2711 1ebe cecb c93d
00000150: 2087 463d 6c66 683b 3a9f c73c 4f2b 98bd
00000160: e909 c83c ee1f 193e cb94 c1bc 414c bfbd
00000170: c4d7 41be a591 e0bd 769c 253e feba 75bc
00000180: b496 503e 6e83 e5bc 98aa 07be f532 d23b
00000190: 096c 52bd e27f 373e 7a5e 2dbe ef6c cdbd
000001a0: a305 af3d 1f6e 4cbd 2df7 9d3d 5274 483e
000001b0: f0be 0f3e e4b4 a2bc 63cf a83c fa1b 0bbd
000001c0: 67f6 d1bc 2de4 f1bc 87f8 f9bc 87cb 473d
000001d0: 4efb 503e 654e 7c3c 943f 5e3d d4d6 0bbd
000001e0: ad7d 013e f58b c83c ce70 bfbd fdfc 42bd
000001f0: 6efe 383d 61bb 073d ffba 4c3e e05e 6e3d
00000200: 3b99 733d ae40 073e d49e 163e 5a37 803d
00000210: 2eba 84bd b7f0 07be 1ad5 293e 25d6 0f3e
00000220: afad 37be fd08 0cbd edb7 973b 6f2b 563d
00000230: c1c7 e33d e8d7 22bd a47d f93d a70a 033d
00000240: 26d6 0cbc 5910 523d b9f4 4cbd b25a 84b7
00000250: fbef 953d eeff 08be cb44 cdbd 35e0 af3d
00000260: 54c1 f2bb f655 c4bc 032c 5d3d 8e67 c43c
00000270: 4cde d73b ade4 e93c 3451 45be 3e21 c63d
00000280: f847 c6bc 1ce3 043e 7fd8 063d 28bd 813c
00000290: af32 d5bd d0b9 c83d 1e41 27be 40ce 00bd
000002a0: 50e8 dfbd 6bfa b43d 992a f13d 147a 00be
000002b0: 5782 1a3a 21f5 343c c4c1 86bd a630 6f3d
000002c0: b485 813d d80c d3bd 8d70 11bc f089 093e
000002d0: c511 e73c b3b7 83bd 9031 cf3d 6453 92bd
000002e0: 0b31 b9bc ba1c 22bd 85e5 bbbd fdff 823e
000002f0: d8b3 103e 5a79 bbbd 551f 143c f98f 5c3c
00000300: fb0e 8e3d 9231 93bd 07ab 4e3d 88d2 4ebd
00000310: 5ccc b4bd 088d 08be dcf6 08be db95 edbc
00000320: 33c1 2f3d 7eec 74bc b98c 513c e3c3 20bc
00000330: 8d30 d1bd 0c42 203d 043c af3d f284 a6bd
00000340: 4d9b 8bbb 9537 dc3c 0611 97bd e87f 883b
00000350: 6d08 09be 315a 903c caf2 253e cc5c 633d
00000360: 6758 0a3e 6784 23be 36b6 803d 4872 543d
00000370: cdab c4bd b2c1 06bd a5f4 97bc 5f6d d7bc
00000380: 78e4 73bd 4b8c 5a3d 73d9 a63d e1a0 60bd
00000390: aba4 14bb e31b 4cbe 29e3 033c e9ad 74be
000003a0: 3ef5 123e a22b 03bd 5262 f3bc 7605 cc3d
000003b0: f0c7 a03c 4c94 38bd 70db 5fbe 2882 1e3e
000003c0: f6cc 093e 9b4d 16bd a9f0 b7bc a328 8dbd
000003d0: ca24 f53c 8a98 2b3e 98b5 c73c bc81 723d
000003e0: 4cef 06bc 186a e8bd 7100 ff3b 0504 eabd
000003f0: 4555 12bd 541d 29be d514 b33c abf0 04bc
-0.0438813 -0.06831913 -0.16407959 0.02221008 -0.067644306 -0.0283923 -0.15048298 0.09707408
-0.104938485 -0.054226078 -0.004619375 -0.041048948 0.06777246 -0.15050904 -0.0013783106 0.009750068
0.07617427 0.13641113 -0.07657334 0.12473967 0.15478647 -0.122948065 -0.023389194 -0.05943132
-0.058753144 -0.1636165 0.011657848 0.09067588 0.04082319 -0.017548006 0.15711573 -0.045726325
-0.17707108 -0.009512516 0.077626675 0.044534083 0.03949167 0.01657608 -0.047733203 0.004066783
-0.11318539 0.05539611 -0.087287 -0.20727284 -0.1389492 -0.16517898 0.14746107 0.07256023
0.12541331 0.023532068 0.098079085 -0.072447516 -0.048357736 -0.19263743 0.1193972 0.018566579
0.07093504 -0.20122217 -0.08010924 0.037941728 0.044660248 -0.11515435 -0.0045499955 -0.056971673
0.13437213 -0.073020376 0.019284546 -0.0315969 -0.006726404 0.14937785 -0.02596305 -0.15473868
-0.06983796 0.009020161 0.020339733 0.09813319 -0.0068030185 0.0022259527 -0.17428833 0.062123504
0.11263214 0.010695635 -0.1543623 0.09853326 0.04846871 0.0035461439 0.024367917 -0.074301355
0.024418788 0.14953586 -0.02363052 -0.09340716 -0.18929964 -0.109652795 0.16172966 -0.014998196
0.20369989 -0.028016772 -0.1324867 0.006414766 -0.05137256 0.17919877 -0.16930571 -0.10030543
0.08545997 -0.049909707 0.07713161 0.19575623 0.1403768 -0.019861646 0.020606702 -0.033962227
-0.02563019 -0.029527748 -0.030514015 0.048778083 0.20408365 0.01539955 0.05425985 -0.034140423
0.12645598 0.0244808 -0.09347688 -0.04760455 0.045164518 0.033137683 0.19993208 0.05819595
0.059472304 0.13208267 0.14709026 0.062605575 -0.064808235 -0.13275419 0.16585198 0.14046533
-0.17937349 -0.03418826 0.00463008 0.052287515 0.111220844 -0.039756685 0.12182167 0.03199258
-0.008595979 0.05128512 -0.050038073 -1.577786e-05 0.07321163 -0.1337888 -0.10022887 0.08587686
-0.0074083004 -0.02396677 0.05399705 0.02397516 0.006587779 0.028551424 -0.19269258 0.09674309
-0.02420424 0.1297726 0.03292131 0.015837267 -0.10410058 0.09801066 -0.16333434 -0.031446695
-0.10932982 0.08836826 0.11775703 -0.12546569 0.0005894056 0.011044771 -0.065799266 0.058396004
0.0632433 -0.10305184 -0.008876932 0.13431525 0.028206715 -0.06431522 0.10116875 -0.07144812
-0.022606393 -0.039578177 -0.09174637 0.2558593 0.14131105 -0.09154005 0.009040673 0.01346206
0.06936451 -0.07187189 0.050456073 -0.050493747 -0.08828041 -0.13335049 -0.1337542 -0.02900212
0.04290886 -0.014948962 0.012789899 -0.009812328 -0.102143385 0.039125487 0.08556369 -0.08130826
-0.0042604567 0.026881972 -0.07376294 0.0041656382 -0.1338212 0.017621132 0.16205898 0.05550842
0.13510285 -0.15968476 0.06284754 0.0518668 -0.09603081 -0.032899566 -0.018549273 -0.02629727
-0.059544057 0.05335645 0.08146944 -0.054840926 -0.0022681158 -0.19932513 0.008049765 -0.23894466
0.14351365 -0.032024033 -0.029709969 0.09961979 0.019626588 -0.045063302 -0.21861053 0.15479338
0.13457093 -0.036695104 -0.022453623 -0.068925165 0.029924769 0.16757408 0.024378583 0.059205756
-0.008235764 -0.11348361 0.007782035 -0.11426548 -0.03572585 -0.16515094 0.02186052 -0.00811402

F.linears.0.bias f4 [32]
00000000: 2777 55bd 454f e13c f998 973d fb7f c0bd
00000010: 9fcb aabd d7d9 20bd 31ca bebd 7d67 d53c
00000020: c8a7 c2ba 1555 a83d e5cb 69bd 5885 f2bc
00000030: 0996 00bd 73db 9cbb 7b23 b9bb eca7 883c
00000040: 9d25 d13b 842b a13d fba9 9a3d 407b ee3c
00000050: a575 ffbd 1d03 2fbc e19c d5bd 364c 45bd
00000060: 8818 cbbc c1bc 56bc 07aa d8bc 3c13 33bd
00000070: b97c 453b ee98 cabb d270 c2bb 03e0 c73a
-0.052115586 0.027503619 0.07402224 -0.0939941 -0.08339619 -0.03927025 -0.09315909 0.026050324
-0.0014851028 0.08219353 -0.057079215 -0.029604599 -0.031393085 -0.0047869026 -0.0056499816 0.016681634
0.0063826577 0.07869628 0.075519525 0.029111505 -0.12473611 -0.010681895 -0.10430313 -0.048168384
-0.02479197 -0.013106526 -0.026448263 -0.043719515 0.0030134155 -0.0061827814 -0.0059338594 0.0015249256

F.linears.1.weight f4 [32, 32]
00000000: 9d3f 2ebd 7853 dc3d b9cf a23e 51b4 c8bd
00000010: 7fea 05be 7c41 233d 91b5 583c 4e24 80bd
00000020: 2aa8 45bd 06d5 9f3c de19 413c cd32 853c
00000030: d978 b0bd 2b75 e6bd 86f8 163e 1aea c63d
00000040: 2a0f 62bd a569 77bc d9b0 123d 5fbd 083e
00000050: ddf9 a9bd ba8b 233d 699b 5d3e 208b bcba
00000060: b5d1 7d3d 6a90 063e 8a18 11bd aae9 acbd
00000070: 9a46 1fbe d604 df3c 7f2d 68bc dab4 613d
00000080: d857 ec3d 5faf 3c3d 2c65 903e f936 413d
00000090: 5148 f5bc 7774 f93d 67a8 853c fe68 9cbd
000000a0: be1a 223d 3e49 9e3c 45a5 113e c8fa 44be
000000b0: b069 5bbb f4e1 a0bc 7d4e e2bd 14bd 5c3d
000000c0: dd6e 713d 5a9a a73d 2fb2 23be 4ebb 783b
000000d0: 1f47 d7bc b265 3a3d 3cf8 ce3c b8bc 8c3d
000000e0: feab 02be e650 a5bd 28cb d63d 2151 2c3e
000000f0: 6867 44bd e01c e23d 2e13 e73d 6e89 d53d
00000100: 75ef 85bd 509b eb3c fdec 60bc 8b98 12bd
00000110: c1cb 47bc 6cd8 04bc ae5d ad3c 7ef0 33be
00000120: 6c02 453d f3c2 68bd e718 ae3d 951f 263e
00000130: 7921 433e 1ddc 21bc c897 52be 8a32 c83b
00000140: fbee 3f3e 4499 96bd 0c73 2bbd f327 9a3d
00000150: 5acb 183e a7ce 103e 4483 bfbb ef41 a6bd
00000160: 6e84 4dbe d762 6d3d 6bca 74be 215e 2d3e
00000170: 3a65 8c3d 2ae4 663d aafe e03d 9477 3cbd
00000180: c11e f9bd 734e a0bc 62e8 b13c 390f d93d
00000190: 57c5 373c 03ae 34be d4ff 393d 9389 553c
000001a0: b56c 453e 8e97 4cbe 4ffb 283e 7ccb f5bd
000001b0: 4e1b 433d 321d ebbd ae21 05be 373c 82be
000001c0: bfc9 09be 8912 cdbd 47fe fabd 3ba9 7dbe
000001d0: 58d5 af3d 9ab4 ce3d f902 cbbd 3eb6 463e
000001e0: 1af4 3c3d fc1a f63d a0bd 153a 19d3 93bd
000001f0: b83e f93b 9248 16bd fe66 2a3e 07bf d2bd
00000200: 6778 2abc 30d0 263e 5208 e53d fc8e e7bd
00000210: 9da1 e63d e0dc a2bc f309 19bc 2c9c 213d
00000220: 7eee 71bd 1a57 493c d5fc 653d 4cbb 813d
00000230: 1596 eebd 2d33 22be 0634 2cbc 5b1e c0bd
00000240: e0b1 33be f8eb 943c 2552 b83d 14a4 973c
00000250: e7a9 adbd 1088 993d 11f2 49bc bbc7 853c
00000260: 354b 073e 027e 5abc 319a 0dbe bcbb 373e
00000270: 40f2 073d 8569 c1bd b11a b03d 82c5 afbb
00000280: c18c d2bd 688f 83bc ed56 07be 0ce8 903d
00000290: 6505 f2bd b1e0 bbbc 374a 4abe 12cc 53be
000002a0: 3587 00bb bc98 a4bb 24cc d3bd 0e24 04be
000002b0: 8ea4 d63d 6cf7 af3d 1b9c 233d 8556 0d3e
000002c0: a16e 57bd bb77 b9bc 6669 c4bc 646a c1bd
000002d0: 582b 97bd d99e 433c 5e19 0d3d 0a46 2cbd
000002e0: 8e6a c9bc f971 ab3d fb1a 9e3d 10b2 0d3d
000002f0: 89b8 353d 130c 943d 5744 e1bd 6c18 c6bd
00000300: e455 84bc 57f1 f8bd 3c74 ffbd 1516 50bd
00000310: 89c7 9abd 49a5 92bc 8dbe c43d 3381 44bc
00000320: ac78 37be 26fa ffbd ee8d b13d 5dd1 47be
00000330: 339d 803d f7ec aebd d7bc 0abe c9df 393e
00000340: c75e 69bd 4278 013e 9674 71bd 91b7 64bd
00000350: 2ec4 053d 0631 3bbb 633d 7f3d 9c9d 14be
00000360: f7f7 07bd 90b7 0fbe 83e1 963c a896 d7ba
00000370: b950 8bbd 40ed 24bc 7c89 aabc 9057 02be
00000380: 0966 b83d 8503 4d3d aada 2fbe c99e 3b3c
00000390: 226d 18bd a2dc ea3d 5e44 853d 7cb5 3a3d
000003a0: 4293 9d3d 32cc 59bc 58b0 3a3d 28c5 64bd
000003b0: 19ea b1bd 9b32 20be 8fce 503d 77f4 59bd
000003c0: f588 8dbd 2300 7c3d 07f4 793d 1244 39be
000003d0: f458 e63d 5b05 3e3d 8b19 813e bba0 52bd
000003e0: 70b4 bfbd 0f41 e8bc df9e 7d3c aa49 8d3c
000003f0: 8c69 c33d 8051 803d af8c be3d 6c4e 643e
-0.042541135 0.10758108 0.31799105 -0.098000176 -0.13077734 0.039857373 0.013226883 -0.062569246
-0.048256077 0.019510757 0.011785952 0.016259575 -0.086168 -0.11252817 0.14743242 0.0971262
-0.055190243 -0.015100871 0.035813186 0.1335349 -0.08299611 0.039928176 0.21641316 -0.0014384724
0.06196757 0.13141027 -0.035423793 -0.084430054 -0.15554276 0.027223986 -0.014171003 0.055104114
0.11540192 0.046065684 0.28202188 0.047171567 -0.02994171 0.12180417 0.016315652 -0.07637213
0.039576285 0.019322034 0.14223202 -0.1923629 -0.0033479743 -0.019638993 -0.11050127 0.053891256
0.058943618 0.08183737 -0.1598594 0.003795344 -0.02627903 0.04550714 0.025264852 0.06871933
-0.12760922 -0.08072071 0.10487968 0.16827823 -0.04795018 0.11040664 0.11282955 0.10426603
-0.065398134 0.028760582 -0.013728377 -0.035790008 -0.012194575 -0.00810824 0.021162834 -0.17572209
0.048098013 -0.056826543 0.085008435 0.16222985 0.19055738 -0.009879139 -0.20565712 0.0061095404
0.18743508 -0.07353452 -0.041857764 0.07527151 0.14921322 0.14141332 -0.0058445055 -0.081180446
-0.20070049 0.05795559 -0.23905341 0.16930439 0.06855245 0.056369938 0.10986073 -0.046012476
-0.12164069 -0.019568658 0.021717254 0.105986066 0.011216483 -0.17644505 0.045409992 0.0130332885
0.1927975 -0.19979689 0.16502117 -0.12001702 0.04763346 -0.11480178 -0.13001129 -0.25436565
-0.13455866 -0.10013301 -0.12255531 -0.24771588 0.08585614 0.10093041 -0.09912676 0.19405457
0.04613123 0.120168656 0.0005712155 -0.07217998 0.0076063536 -0.036690302 0.16640851 -0.10290342
-0.010404683 0.16290355 0.111832276 -0.11306569 0.11261294 -0.019880712 -0.009340751 0.039455578
-0.059065334 0.012288833 0.056149323 0.06334552 -0.116497196 -0.15839835 -0.01051045 -0.0938079
-0.17548323 0.018178925 0.09000043 0.018510856 -0.08479672 0.07496655 -0.01232578 0.01633059
0.13212283 -0.013335707 -0.1382835 0.17942709 0.033190012 -0.094439544 0.08598841 -0.005364121
-0.10280753 -0.016059592 -0.13216753 0.070755094 -0.11817435 -0.02293429 -0.19754873 -0.20683315
-0.001961184 -0.00502309 -0.10341671 -0.12904379 0.10480605 0.08592114 0.039943796 0.13802536
-0.05259574 -0.0226401 -0.02397604 -0.094441205 -0.07381314 0.011939728 0.03444802 -0.042058982
-0.024586942 0.08371348 0.0771999 0.03459364 0.04436544 0.072288655 -0.10999363 -0.09672627
-0.016154237 -0.12155407 -0.12473342 -0.05080231 -0.075575896 -0.01790108 0.09606657 -0.011993694
-0.17917126 -0.12498884 0.08669649 -0.1951346 0.06279983 -0.08541291 -0.13548599 0.18151774
-0.056975152 0.12643531 -0.058949076 -0.055839125 0.032657795 -0.0028563156 0.062314402 -0.14513248
-0.033195462 -0.14034867 0.01841808 -0.0016448097 -0.06802506 -0.01006633 -0.02081751 -0.12728715
0.09003837 0.050052185 -0.17173257 0.011451432 -0.037213452 0.114678636 0.06507181 0.045583233
0.07694103 -0.013293313 0.04557833 -0.055852085 -0.08687229 -0.15644304 0.05097824 -0.053211655
-0.06910888 0.061523568 0.06102374 -0.18092373 0.11247435 0.046391826 0.252148 -0.051422816
-0.093605876 -0.028351335 0.015479772 0.01724704 0.09541616 0.06265545 0.09304177 0.2229554

F.linears.1.bias f4 [32]
00000000: 3221 e6bb f5e4 e9bc c427 16bd eb82 ef3c
00000010: f722 fd3d 7051 573c f04a 1bbc 02a6 3cbd
00000020: 36f1 c13d 427d 10bd 4159 333c 573a cabd
00000030: 9a6a 8f3c 1de3 eb3d 24da 1fbc 6024 d3bd
00000040: ee3b 403d 304d 843d 3b8e 80bd f279 ad3d
00000050: 6d45 32bc 6f5c 3ebd ca3b 463d 886c c7bd
00000060: 0be5 813c bf83 883d e130 ccbb 7f54 b63d
00000070: 1991 4cbd 39bc 67bd ee58 263d 3577 033e
-0.007023 -0.028551558 -0.036659017 0.029237231 0.12360185 0.013141975 -0.009478316 -0.046056755
0.094698355 -0.035275705 0.010946573 -0.09874409 0.017506886 0.11517928 -0.009756599 -0.10309672
0.046932153 0.06460035 -0.06277128 0.08470525 -0.01088081 -0.04647487 0.048396863 -0.097374976
0.015856287 0.066657536 -0.0062314128 0.08902835 -0.049943063 -0.056575987 0.040612154 0.12838443

F.linears.2.weight f4 [10, 32]
00000000: d18b 183c f7a3 9bbd 27cb 673d 79aa 0dbc
00000010: 2cc8 b3bd fc1f 173e 415f 823e 44f2 563d
00000020: 3851 ee3d 718e 0fbe 19cb 813d 7866 b8bc
00000030: ecec 553d 92d9 00be 4b48 383d b0a5 403e
00000040: 36bc b23a 7068 0138 43fc 343e f90c 203e
00000050: 387f a43b 1ed4 523e 4219 9abc 13c3 593d
00000060: 0e1e 0ebe a2aa 863c ee38 0e3e 64fb 6fbd
00000070: 56bf 533a b772 e9bc 6f10 19bd 2285 b8bd
00000080: a7b3 94bc 9aa7 bdbd 5167 4e3d a4d0 1e3e
00000090: 27a3 87bd cc82 ef3d 416a 91bd 3e88 9e3e
000000a0: e35f 6b3d fbec 3dbe 11e7 643d 40e3 403d
000000b0: 057e dd3d 3b21 b6bd 90c8 2e3c 66d1 b53d
000000c0: b06e 09be 5abb 823d f777 083d 649b f03b
000000d0: 87d1 743d 0101 30be c5e5 5dbe 60f7 223e
000000e0: 6b8d 9b3d 78e1 9abd 7551 eb3d 4458 19be
000000f0: 0716 34be 856d da3c d820 f33d 6f87 70be
00000100: 1dbe e63d ff0a 243e 547e 8cbe 3701 efbd
00000110: 32f3 f1bc 655b 643d c5e4 cabc 9e0e d03d
00000120: e442 1c3d 61a4 48bd 2dc4 f2bd d04e 8c3c
00000130: 0ae0 163c 988c a53c a791 8f3c d710 0dbd
00000140: 1c39 16be 0d76 813c 6f0b 29bc abcd 8a3d
00000150: fddb b6bb afda 943d 7061 0ebe 49dd 1b3b
00000160: 210c 2cbd 212e 313e 2c4f b63d f3da 55be
00000170: 9f1e f5bd fcc5 fc3d 0017 083b 19b4 0dbe
00000180: 6b86 143e 31f9 7f3e 0ead 43bd d53e 0ebe
00000190: cf41 e03d a1f0 873d e521 1bbe d5dd dbbc
000001a0: 0c3a bc3d 9ff6 d73c 496c 6e3d cb75 90be
000001b0: d1fb 1f3e fb5e 353c e07b c1bd 949e 2ebe
000001c0: 4cd1 9ebd b794 2abc 2437 2b3e 90f2 3e3e
000001d0: 6a3e 71bd 0ea5 47bd e2af d03d 9dba a0ba
000001e0: 3e71 6abc 1746 54bd 9728 4e3d 6c0a 333d
000001f0: 1346 183e e617 8a3c e4ed 7d3c 4332 d3bd
00000200: c2c8 4bbe c6ef 873d 9132 83bd badc d2bd
00000210: dff1 1bbd 6a34 efbc 579f 57bd 22df 4d3e
00000220: 35a6 9b3c 558d 16bd fff2 1a3c b860 573e
00000230: 1c19 e1bd 05ef 88bd ec76 843c 6766 ef3b
00000240: da13 52be 6ef8 08bd 0a47 f7bd b6f3 acbd
00000250: cbe5 573d 7e37 a73d 62a4 9dbd 3268 43be
00000260: 30f2 d3bd 1eed 583e 887e e73d c381 4ebd
00000270: 0a5e 5c3d e1b6 e33d 8154 3ebe 7c54 e4bd
00000280: b37e 0c3e a1d8 023d 4c4c f5bb 378c 70be
00000290: 8593 ce3c a0ca 513e 0817 0abd c028 6d3d
000002a0: 0c3d 9dbc 5ca7 60bd a845 b7bd 9271 9e3d
000002b0: 2865 023d 21e8 a6bd ea6e 91bd 96d1 4e3d
000002c0: 680f debd 4551 f93d 5a18 9cbb f277 973c
000002d0: 0453 25be 5010 a3bd 7d62 2c3e 32aa 353e
000002e0: e58b d3ba 94e5 19be 3e70 88bd 3c01 20be
000002f0: 7d53 02be 4b84 e2bb 0d73 66bc bf7a 3abd
00000300: 9977 843d c453 84bd f7e1 383e 0d24 88bd
00000310: 71b6 7e3d c93f 173e 949b 083e 633e 8c3d
00000320: ce53 d23d c9fb 903d 38fb 57be 0648 21bc
00000330: cd24 3bbd 492d 99bc a994 483c f1d5 21be
00000340: cdc2 b43d 4268 063d 2af5 fb3d 9052 f23c
00000350: 24a1 72bd 00fd 0dbe 4d30 0a3d 1cfa 4c3c
00000360: 69e7 fd3d d720 3e3d f234 7e3d a2d1 5fbd
00000370: 8570 323c 9e3f d03d caf1 e3bb 4bab 84bd
00000380: 6a39 9c3d 081a 1abe e053 a33b fee6 9abd
00000390: 1667 133d 2aa1 dd3b a1cd 09be b37e 003e
000003a0: 219a 33be cfe7 debd 0bd1 023e c255 10be
000003b0: f43b f6bd e4d8 3d3c 1cc1 10be 6efa bdbd
000003c0: 251f a73d d3cf 423e c705 093d c117 833e
000003d0: 6283 efbd e059 cf3d f08a 5abc 7cb6 4a3d
000003e0: 70eb 75be 1603 75bc 4c10 f6bc 489f bcbd
000003f0: 0ed6 0b3e a60c 67bd db5b 12be 993e 6a3e
0.009310679 -0.07599633 0.056590226 -0.008646601 -0.08778414 0.14758295 0.25463298 0.052477136
0.11636585 -0.14019181 0.06337566 -0.022509798 0.0522279 -0.12582996 0.04499082 0.18813205
0.0013636413 3.085326e-05 0.17674355 0.15629949 0.0050200485 0.20588729 -0.018810872 0.053164553
-0.13878652 0.016438786 0.13888904 -0.058589354 0.00080775225 -0.028497083 -0.037369188 -0.09009768
-0.018152071 -0.09260483 0.0503915 0.15509278 -0.06622916 0.116948694 -0.071003444 0.3096332
0.05746449 -0.18547432 0.055884425 0.047091722 0.10815052 -0.08893057 0.010667935 0.0887783
-0.1342113 0.06383391 0.033317532 0.0073427428 0.059770133 -0.17187883 -0.21669681 0.15914679
0.07595333 -0.07562536 0.11490146 -0.14975077 -0.17586528 0.026663551 0.11871499 -0.23489164
0.1126673 0.1601982 -0.2744013 -0.116701536 -0.02953491 0.055751223 -0.024767289 0.10159038
0.03814973 -0.04898489 -0.11853824 0.017127424 0.0092086885 0.020208642 0.017525507 -0.034439888
-0.14670223 0.015803361 -0.010317667 0.06777509 -0.005580424 0.07268273 -0.13904357 0.002378302
-0.042003755 0.17302753 0.089018196 -0.20884304 -0.11968731 0.1234245 0.0020765662 -0.13838233
0.14504401 0.24997403 -0.04777246 -0.13891156 0.10950052 0.06637693 -0.15149648 -0.026839176
0.09190759 0.026362715 0.058208738 -0.2821487 0.15623404 0.011070008 -0.094474554 -0.1705268
-0.07754764 -0.010411433 0.16720253 0.18647218 -0.058897413 -0.048741393 0.10189797 -0.0012262646
-0.014309226 -0.051824655 0.05033168 0.04371111 0.14870481 0.016857099 0.015498612 -0.10312321
-0.19900802 0.0663753 -0.06406129 -0.102960065 -0.038072463 -0.029199798 -0.052642193 0.2010465
0.019000152 -0.03675588 0.009457349 0.21032989 -0.10991117 -0.06686214 0.016169988 0.0073059085
-0.20515385 -0.033440046 -0.120740965 -0.08444922 0.052709382 0.08164881 -0.07697369 -0.19082716
-0.10348928 0.21184203 0.11303431 -0.05041672 0.05380062 0.11118866 -0.18586923 -0.111489266
0.13720207 0.031944875 -0.007485902 -0.23490988 0.025216827 0.20487452 -0.03371337 0.05790019
-0.019194148 -0.054847106 -0.08948833 0.077365056 0.03183475 -0.08149744 -0.07101233 0.050492845
-0.10842782 0.12173704 -0.004763645 0.018489812 -0.16144949 -0.07962096 0.16834445 0.17740706
-0.0016139714 -0.15028983 -0.066620335 -0.15625471 -0.12727161 -0.006912743 -0.014065516 -0.045527216
0.06468124 -0.064612895 0.18054949 -0.06647501 0.06218571 0.14770426 0.13340598 0.06847837
0.10269891 0.07079274 -0.21091926 -0.009843832 -0.045689393 -0.018698351 0.012242475 -0.15804268
0.08826218 0.03281427 0.12302621 0.029580384 -0.059235707 -0.13866043 0.03373747 0.012510803
0.123976536 0.046418037 0.06206221 -0.05464328 0.010891085 0.10168384 -0.0069563137 -0.06477984
0.07628138 -0.15048993 0.004984364 -0.075635895 0.035986982 0.006763597 -0.13457347 0.12548332
-0.17539264 -0.10884058 0.12775056 -0.14095214 -0.12023154 0.011587355 -0.14136165 -0.09276281
0.08160237 0.19024591 0.033452775 0.2560406 -0.11694981 0.10124564 -0.013338789 0.049490437
-0.24015594 -0.014954349 -0.030037068 -0.09210068 0.13655874 -0.056408547 -0.14292853 0.22875442

F.linears.2.bias f4 [10]
00000000: 0d5c 873c 4ad9 c5bd 1902 253d 06a4 35bb
00000010: 68c8 2ebd 1d1c 63bd 0693 093b dabb af3d
00000020: 22b8 903d da2f febb
0.016523385 -0.09660585 0.040285204 -0.0027716174 -0.04267159 -0.055446733 0.0020992174 0.08580752
0.070663705 -0.007757169

G.0.linears.0.weight f4 [32, 10]
00000000: f578 56bd 9cdb 57bc d347 b63d c32c 9b3d
00000010: 62b2 43bd 610e 1f3b 7d4a c53d dd6c 3a3e
00000020: 2f29 52bd 285f e4bd 3d63 133e 20b8 2c3c
00000030: 3a4d 1bbe ea10 10bb 05ce 2fbe 301d 2f3d
00000040: 19fa 21bd dbbe d6bd 4bae 60bd b137 bdbc
00000050: e860 e3ba 44c9 0b3d 0fa9 0b3c 8f48 88bd
00000060: 082a a13d 8f5d 1e3e 2d59 adbd 64ac fdbd
00000070: e8d0 6a3b 3669 303d 5e64 153e b73e 333d
00000080: dc38 d13d bc1a 6cbd 8d91 45be 7d4b 02be
00000090: 377c fdbd 5b40 cb3b 32b5 013d 68ad 1cbd
000000a0: c728 c23d 7485 ce3d 10ca 43bd 8d99 b83c
000000b0: add3 c63d 6bf7 443d 1e46 f2bd 6611 1fbe
000000c0: aa79 d53d f06c 553c 1845 383b 8363 0c3d
000000d0: 1309 2b3e a7c6 c8bd 8c20 9b3d b46b d8bc
000000e0: 190d dcbc ee38 633d a0d4 01be fcea 09be
000000f0: 9668 413e 60b2 853d 5fa3 5b3d a36d 19be
00000100: a101 ad3c fb75 85bd 1b6f 9c3d f92c 72bd
00000110: 85be 9cbd 0e35 88bd d731 33bb 2f1d 473e
00000120: 7613 183b 9abc a5bc 4c84 a93d c628 89bd
00000130: 8fe0 4ebe 9cd7 493d d588 863c b5df debb
00000140: ce5f d7bd a00a 113e 6778 2e3e 8f18 2cbc
00000150: 19a4 f13d b6d2 bfbc d5ae 303d 4740 6ebd
00000160: abbd 5cbd 402b 173d c8dd b43d 7234 203c
00000170: 37a7 8b3c ff70 1dbd 7edc 103b 81bc 1ebd
00000180: 05ba 1a3e 1da0 eebd 54e6 1ebc a2b3 113e
00000190: 882a 4a3d c422 d53b e7f5 4c3e 5528 71be
000001a0: 7bd6 603e 5548 dd3d 2d40 503d 90ad 873c
000001b0: 5909 ad3d cabe 58bd e3d6 47be 2b6e e8bd
000001c0: 36de 35bb e3d6 723d f7ba 10bd 5b9f 303b
000001d0: 32a3 3b3d b106 eebd a383 9d3c b149 0b3e
000001e0: 6dfb d5bd f26d e7bc 5a3e 24be da14 aebc
000001f0: 8280 ffbd 7bdb 533b fe42 523b eaf3 a3bd
00000200: 6661 cc3b a282 553d 8e14 363e 4664 433d
00000210: 9ab4 903d f675 c0bc dc14 2cbd 17e9 c53c
00000220: 22eb f8bd 01c6 8fbd ef12 6dbe 62d5 cf3d
00000230: fae0 31bd 8da5 503d 8cf2 f13c 3564 c1bd
00000240: c1fc 013e 06ca ca3c dba7 233d 6af0 473d
00000250: 98b3 1d3e 3f2f 35bd 29c1 10bd e546 5dbc
00000260: 14f9 1fbe 9f2e 7fbc 7bab b93d 8ef7 41bd
00000270: 7b47 083e c543 363e b004 903e 8fed 943e
00000280: db4b b13b 09d0 51bd 4586 ba3d 23b0 fa3d
00000290: b431 46bd 6e28 2e3d a83b 023e 4d35 4c3e
000002a0: a3b9 243e e9a4 0c3d 675d 7fbd 2c95 dbbc
000002b0: bea2 63bd ed3a 93bb 3465 4c3d 52ef 6abd
000002c0: 4c33 d53d 043e 403e 07bc 8dbd 13f3 ae3b
000002d0: bc33 0a3e 8ed4 183e 5d23 0a3e 93a2 c2bc
000002e0: 0767 f13b da3b df3d 811b b2bd 4b1b 4bbc
000002f0: a6c2 9f3d f2a1 3bbe e17b b2bd 2b67 90be
00000300: d9e0 03be 17a3 c13d 07b3 f9bd c4a1 03be
00000310: 6e2f 593e f7fd a43d 415f c7bd f67d 823d
00000320: 0b5e 07be 287f d0bd 6df3 64bd 1a72 223e
00000330: 1941 3f3d d419 91bd 0b3c 07be 38e1 82bd
00000340: af81 0dbd 974d 06bd 9102 42bc db06 173d
00000350: d038 03be 575f 0dbc 9f0e aabd 5ec9 8bbe
00000360: a70b eabc 1d18 bebd 9e53 3a3e 5dcc 0e3c
00000370: 6684 09be c0c4 2bbc 8fff e23d 7837 48be
00000380: e605 adbd b6f6 303e dd58 0fbe 689f 12be
00000390: b89d c0bb 91e9 9cbd 853d 5b3e 960e b53e
000003a0: 6f01 c53d 9660 24be 8c1c 2bbe da9e 4c3d
000003b0: 8415 5a3d be53 f53c 80a2 dcbc a581 bf3d
000003c0: 2dc2 8f3d a998 bbbd 85ee b23d 3abf 6f3e
000003d0: 7ab9 24be 4aa2 21bc 29c9 5b3d 3c60 0b3e
000003e0: 9217 163e 936c ffbd 2814 a4bb c671 d2bd
000003f0: 1e12 a1bd f1d8 cc3d 0b95 7bbe e298 0dbe
-0.052361447 -0.013174918 0.08900418 0.07576897 -0.04777754 0.0024270045 0.09633348 0.1820559
-0.051308807 -0.11150962 0.14393325 0.010541946 -0.15166178 -0.0021982738 -0.17168434 0.042752445
-0.039545152 -0.104856215 -0.05485372 -0.023097845 -0.0017347606 0.03412749 0.008524193 -0.066544645
0.07869345 0.15465377 -0.084642746 -0.123863965 0.0035830084 0.043069087 0.14589068 0.04376098
0.10215923 -0.057642683 -0.19293804 -0.12724109 -0.12377208 0.00620274 0.031666942 -0.03825131
0.09480434 0.10084048 -0.047800124 0.022534156 0.09708343 0.04808752 -0.1182978 -0.1553398
0.10423596 0.013026461 0.0028117355 0.03427459 0.1670268 -0.09803515 0.07574567 -0.026418544
-0.026861714 0.055474214 -0.12678766 -0.13468546 0.18887553 0.06528163 0.0536226 -0.1498323
0.02111894 -0.065166436 0.07638379 -0.05912492 -0.07653526 -0.066507444 -0.002734294 0.19444726
0.002320496 -0.020231534 0.08277187 -0.0669723 -0.2020285 0.049277887 0.016422668 -0.0068015703
-0.1051632 0.1416421 0.17038117 -0.010503902 0.11798877 -0.023415904 0.043135483 -0.05816677
-0.05389182 0.03690648 0.08831364 0.009778129 0.017047508 -0.03843784 0.002210408 -0.03875399
0.15110023 -0.11651633 -0.009698469 0.1422868 0.049356967 0.0065043885 0.2001568 -0.23550542
0.21956818 0.10804812 0.050842453 0.016562253 0.084490485 -0.052916326 -0.19515567 -0.11349138
-0.0027750856 0.059286963 -0.035334554 0.0026950452 0.045809932 -0.1162237 0.019227808 0.1360233
-0.10448346 -0.028250668 -0.1603941 -0.021250177 -0.12475683 0.0032326865 0.0032083387 -0.08005507
0.0062371967 0.052126534 0.17781278 0.04770305 0.07065697 -0.023493748 -0.04201208 0.024158997
-0.12154223 -0.07020188 -0.23151754 0.101481214 -0.043427445 0.05093913 0.0295346 -0.09442941
0.12694074 0.024754535 0.039955 0.04881326 0.15400541 -0.04423451 -0.035340462 -0.013505672
-0.1562236 -0.01557508 0.090659104 -0.047355227 0.13308518 0.1779929 0.28128576 0.29087493
0.005410654 -0.05122379 0.09107641 0.12240627 -0.048387244 0.042519026 0.1271807 0.19942208
0.1608644 0.034336958 -0.062344935 -0.02680453 -0.055575125 -0.0044931085 0.049901202 -0.05735714
0.10410175 0.18773657 -0.06920629 0.0053390353 0.13496298 0.14924833 0.13490053 -0.023759162
0.007367018 0.10900088 -0.08696652 -0.012396644 0.07800798 -0.18323496 -0.08715034 -0.2820371
-0.12878741 0.09454935 -0.1219235 -0.12854677 0.21209499 0.080562524 -0.09734965 0.063716814
-0.13219468 -0.10180503 -0.05589621 0.15863839 0.04669294 -0.070850044 -0.13206498 -0.06390613
-0.034547504 -0.03278884 -0.011841432 0.036871772 -0.12814641 -0.008628688 -0.0830357 -0.27302068
-0.02857001 -0.09281943 0.1819596 0.008715716 -0.13429412 -0.010483921 0.110839 -0.1955241
-0.08448391 0.17281613 -0.13998742 -0.14318621 -0.0058781765 -0.07661737 0.21410187 0.3536269
0.09619414 -0.1605247 -0.16710109 0.04995618 0.053243175 0.029947158 -0.026932955 0.093508996
0.07019458 -0.09159977 0.087369 0.23412791 -0.16086379 -0.009865353 0.05365864 0.13610929
0.14657429 -0.12471881 -0.0050072856 -0.10275607 -0.07864784 0.10002316 -0.24568574 -0.13827851

G.0.linears.0.bias f4 [32]
00000000: cfb7 87bc 721e 5fbd 1f8c f13c 6d71 04bc
00000010: ccd2 ff3c aa48 fe3c 8d01 89bd a983 90bc
00000020: 18ec 6f3d aee0 d1bd 694e d6bb e880 68bb
00000030: 580a b9bd 25a5 f8bc 0b0c 853b b3c0 ba3c
00000040: 4f0b e33d 0fb9 c93d c72b 92bd 864e c8bc
00000050: 3add abbc 4a72 c03d e739 15be 74c7 653c
00000060: d644 0d3e 2230 883d a203 003b 48ac 393d
00000070: 7c08 09bd 3aa3 d7bd 1dfc 89bd e3ed 2b3b
-0.016567139 -0.054472394 0.02948576 -0.008083683 0.031228445 0.031040508 -0.06689749 -0.017640905
0.058574766 -0.102479324 -0.006540109 -0.0035477225 -0.09035176 -0.030352185 0.0040602735 0.022796964
0.11086141 0.0984975 -0.07137256 -0.024451505 -0.020979512 0.09396799 -0.14572869 0.014024604
0.1379579 0.066498056 0.0019533415 0.045330316 -0.033455357 -0.1052918 -0.0673754 0.002623432

G.0.linears.1.weight f4 [32, 32]
00000000: 76df 9e3c d043 373d eddb 79bd 2482 173d
00000010: 4704 533d 2ae8 b03e 6186 0fbe 482f 1cba
00000020: cdf5 563d d2cd 2dbe 71d0 9b3b ca85 92bd
00000030: af27 50bd 06a4 a03d b5ae 46be a7c9 aabc
00000040: 58e3 503d e5cc e93c dba2 5e3d 4a98 10bd
00000050: 9f36 d6bc 0ccd ca3d a3ec f93d e12e 253d
00000060: b3ce e73d cc23 0e3e 0049 503e d5e9 863d
00000070: 8ac8 403e d114 57bd 9630 c43d 961f 8e3d
00000080: f8f2 92bb 1ac1 c43d ed73 8d3e c82a e83d
00000090: b613 e63d 9ab8 65bd f6d8 e1bd 9e25 133e
000000a0: db07 85bc e6c2 c23c fb42 e23d 524e 4b3d
000000b0: 5f07 80bd c459 32bd 1310 af3d 0868 3fbd
000000c0: f6d6 04be e061 613b 912c 81bd cd0e 4ebe
000000d0: 73ed 9abd f1e0 a23d 6706 e5bd 58e7 92bd
000000e0: e75a 9cbc ebad c13c ab01 633e e9b3 33bd
000000f0: 5e34 b43a 0da4 503e fa16 80bd b4ae 07bd
00000100: 8657 83be c3f8 853c 211f 263d 725b 463d
00000110: c899 673b 27a0 edbc c48b d23d 0ee4 393e
00000120: 4e0c 8c3d a936 133d bb20 6d3d b803 ebbc
00000130: 8bf7 0c3d 12c4 15be 0028 b33d a665 ab3d
00000140: 6768 64be c3a0 3bbe c6e3 453b 3ced 8ebe
00000150: 0634 87bb 7f1b 893d 148a f13d aee9 bd3d
00000160: d68d 5dbd ea33 82bd 366f 373d 7260 8fbd
00000170: eeeb 373e e856 043d b594 1dbd 0418 a23c
00000180: 95fd 293e ac5a 9abd f85c 523d 78ba 2d3d
00000190: 63b3 e43d dd63 443d 0d6b aabd 44df b73d
000001a0: 9a36 923d 1594 e73c f0d6 713d 6f26 62be
000001b0: 30b0 4bbe 292e 003e 968d 103e 084b b6bd
000001c0: c28f ccbd f756 44be 201b e93d 0b78 bfbc
000001d0: 684b 05bd aa30 71be 4a5a dd3c 3ed3 233d
000001e0: aca5 4abe c3a1 423e 7008 1a3e 11ac 5f3b
000001f0: 7f09 493b f572 54bc a577 e8bd b18b 7ebe
00000200: 6434 333d e828 d53d 51a6 8fbd 7ac2 1abe
00000210: 90e3 57be edcf d6bd 9f9b 413d 65c0 bbbd
00000220: dd07 bc3d a0cf 36bd 22b6 f0bd 9023 e13d
00000230: 9c03 0cbd 4d41 ba3c 9b4e 6bbe d95a 8e3d
00000240: b631 f13d 2ca3 69be 5176 823d 0125 0a3e
00000250: 02d5 05bc 37de f43d d814 e1bc 981c 1abe
00000260: 5f7b 603e 2648 e63d f8c9 a8bc 6b61 023e
00000270: 7700 f73d 6405 6fbe 0362 473e 19ab 093e
00000280: b723 483d 99b6 f13b ce96 243e 35ae 4b3e
00000290: 8e88 2b3d a885 103e 3f56 04bd da0c 30be
000002a0: 5c0c 603e f9fe 6d3d 04b1 e43d 0122 4dbd
000002b0: cec5 0bbe 852a 3b3d 66d2 e83d 5206 e43d
000002c0: 8180 3b3d d23c 3dbd de56 233e d073 cdbb
000002d0: 0fd1 733d 5fdd 7a3d 2610 953b 52bf 293e
000002e0: 6b7c 14bb e557 4ebd 1811 213e 9425 7dbe
000002f0: 7d65 b53c ab82 213d 7d34 09be 906d 1e3d
00000300: e105 01bd 7a63 23bd 93cd 02be 2a05 9cbd
00000310: ddd9 4b3e d90e 3a3d a744 b73d bd9f 183d
00000320: dfb6 c33d 8042 aebd 16cd bbbc 7820 83be
00000330: 8745 2abd 69f0 e13b bfd2 3a3e 6c91 adbd
00000340: ec47 69bd bdc8 46be 874a 353d 61ac eebd
00000350: c4a4 513b 2372 11be 7dbe 293e 7974 8d3d
00000360: 98b6 29bd a6e8 353e fabf 153d 014d 2ebd
00000370: d0f2 2ebd 4818 133e 4b9c 52bd 248c 723c
00000380: 8d00 6f3c 56ed 5e3c a93f 75bd 9dca ec3d
00000390: 436e 0c3e 7857 c0bc 9606 15bd a7c3 7c3d
000003a0: a7da 3f3c f441 8fbd ecbf 47bd c0e9 d83c
000003b0: 6b7d 06be a84a ba3d d763 423d 1d96 413e
000003c0: 1b97 fdbd 4ee1 0a3d f0b9 9e3c ac8f 0abe
000003d0: 3169 35be 6ceb 57be 5dfb 173d e597 3fbd
000003e0: 423c ba3c d558 0a3e 9732 8c3d 7773 b9bd
000003f0: 7e4c 953d 5480 063a ada9 c7bd 2ec8 15be
0.019393664 0.044742405 -0.061000753 0.036989346 0.05151775 0.34552127 -0.14016105 -0.0005957973
0.052480508 -0.16973045 0.0047550728 -0.071544245 -0.050819095 0.07843785 -0.19402583 -0.020848108
0.050998062 0.028540084 0.05435453 -0.035301484 -0.026149092 0.09902391 0.12203338 0.04032791
0.113187216 0.13880843 0.20340347 0.06587569 0.188265 -0.052510086 0.095795795 0.06939618
-0.0044845305 0.09607144 0.27627507 0.11336285 0.11234228 -0.056084253 -0.1102771 0.14369819
-0.016239097 0.023774575 0.11047932 0.04963524 -0.06251406 -0.04354264 0.08547988 -0.04673007
-0.12972626 0.0034390613 -0.063073285 -0.20122834 -0.07564821 0.079530604 -0.11182862 -0.071730316
-0.019086314 0.0236425 0.22168605 -0.043872748 0.0013748517 0.2037508 -0.062543824 -0.033125594
-0.25652713 0.01635397 0.04055703 0.048427053 0.0035339464 -0.02900703 0.102805644 0.18153402
0.068382844 0.0359408 0.057892542 -0.028688297 0.034415763 -0.14625576 0.08747864 0.08368997
-0.22305451 -0.18323044 0.0030195578 -0.2791537 -0.0041260747 0.066946976 0.117939144 0.092730865
-0.054090343 -0.06357558 0.044783793 -0.07000817 0.17961094 0.032309443 -0.038471896 0.019786842
0.1660064 -0.075368255 0.051358193 0.04241416 0.11167028 0.0479468 -0.083211996 0.089781314
0.07139321 0.028268853 0.05904287 -0.22084974 -0.19891429 0.12517609 0.14116511 -0.0890103
-0.09988357 -0.191738 0.11382127 -0.02337267 -0.032542616 -0.2355372 0.027020592 0.039996378
-0.19789761 0.1900702 0.15042281 0.003412966 0.0030675826 -0.012966861 -0.113509454 -0.24857976
0.043751135 0.10408193 -0.07014144 -0.1511325 -0.21082902 -0.104888774 0.047267552 -0.09167556
0.09181187 -0.0446316 -0.11753489 0.10993111 -0.03418313 0.022736216 -0.22979204 0.069509216
0.1177706 -0.22816151 0.06370223 0.13490678 -0.008168461 0.119564466 -0.02747576 -0.1504997
0.21922062 0.1124423 -0.020604119 0.12732475 0.120606355 -0.233419 0.19470982 0.13444175
0.048862185 0.0073765037 0.16073152 0.19890673 0.041878276 0.14113486 -0.032308813 -0.17192402
0.21879715 0.05810449 0.111665756 -0.050081257 -0.13649675 0.045694847 0.11368255 0.11134018
0.045776848 -0.04620058 0.15951106 -0.0062699094 0.059525546 0.061246272 0.004549044 0.16576889
-0.0022657167 -0.05037679 0.15729177 -0.24721366 0.02214312 0.039431255 -0.13398929 0.038678706
-0.031499747 -0.03988979 -0.12773733 -0.076181725 0.19907327 0.045424316 0.08948641 0.037261713
0.09556364 -0.085087776 -0.022924941 -0.2561071 -0.041570213 0.006895114 0.18244456 -0.08475003
-0.056953356 -0.19412513 0.044260528 -0.116539724 0.0031989077 -0.14203696 0.16576572 0.06906981
-0.0414339 0.1776453 0.036560036 -0.042553905 -0.042712033 0.14364731 -0.051418584 0.01480392
0.014587534 0.01360639 -0.059875164 0.11562083 0.13713937 -0.023479208 -0.036383234 0.061710026
0.011709846 -0.069950014 -0.048767015 0.026478648 -0.1313378 0.09096271 0.047458496 0.1890492
-0.12382337 0.033906274 0.019375771 -0.13531369 -0.17715909 -0.210859 0.037104953 -0.046775717
0.022733811 0.13510449 0.06845587 -0.09055226 0.0728998 0.0005130817 -0.0974916 -0.14627144

G.0.linears.1.bias f4 [32]
00000000: 685a 94bc 555b df3c 52fc a4bc 4f8a 10bd
00000010: a2a4 23bd 7b30 08bd a54f c9bd aee1 ed3c
00000020: 42c0 073d 2d69 a1bd 0bc0 f9bc 7afd e83c
00000030: c0e7 81bd f46a 643d fdf6 64bd 850b a03d
00000040: 2934 a5bc 17dc 00bc a2b6 5bbd ecc0 a93d
00000050: 4db9 ae3d 9767 bd3d 1ffa cebc 58d5 a4bd
00000060: cfc8 d1bc 31a6 1c3d b55b 083c 719a a43d
00000070: 46ba a13d 72bb 5fbd 1ae5 b53c 702f a8bb
-0.018109515 0.02726523 -0.020139847 -0.03528815 -0.039951928 -0.03324936 -0.09829644 0.029038277
0.033142336 -0.07881389 -0.030487081 0.02844118 -0.06343031 0.05576606 -0.05589961 0.07814697
-0.020166473 -0.0078649735 -0.05364097 0.0828875 0.08531437 0.09248274 -0.025265751 -0.080485046
-0.025608448 0.03824443 0.008322646 0.0803727 0.07896857 -0.05462212 0.02220397 -0.005132608

G.0.linears.2.weight f4 [10, 32]
00000000: 80a9 91bc 36b6 8ebc fb33 233e 2afa d53d
00000010: c52a 7dbd 708a eb3d f979 d03d f983 813d
00000020: ca33 8c3e 15d7 eb3c d19b 973d 465e 0abd
00000030: 6ede 173e e9a3 473d 8e9e 41be 8cb4 a4bd
00000040: 2eb6 44be d8c3 dfbd 2f1c 71be 3b1e 033d
00000050: c9cb a9bb 8358 09be 4114 e5bd 9b5f 8d3e
00000060: 6f52 45bd 58ef 87bd a68b 9abc 825a ec3d
00000070: e3c5 073e 1c9d 343d f631 043d dc71 f8bd
00000080: 847e 45be 21d5 e93c ecf7 dcbd 4381 74bd
00000090: f0b6 963d f4b6 7dbb af59 5c3e a10b c5bd
000000a0: c8b0 f03d af95 48be f4dd 8f3d ab33 80bd
000000b0: c94d 46be 4227 5f3c 57b7 ce3c 1b89 3a3e
000000c0: 9fc6 8d3c e11e d7bd eae6 3c3e f010 0e3d
000000d0: 2b9e 80bd 096b 983d de71 19bc 927e 46bd
000000e0: 69a1 073d 75c9 4fbe 118f 7cbd 1c8e 323a
000000f0: 7ab4 5e3e 7a21 65bd 085e 1d3d 10c0 85bd
00000100: fae9 3ebd f02f 64be 195d 16be 0ee3 f2bd
00000110: b515 033e 0828 33bc 7562 56be 6418 00bc
00000120: 68b5 bcbd 20df 65bd 2918 8d3d 798d 97bd
00000130: 59b9 85be 2e37 063d 68c2 4e3d f12b 15be
00000140: 8271 b53d f0dd 813d 658d 0d3e 01ba 6a3d
00000150: 1431 a43d deff 113e 1a55 54bd d019 3cbd
00000160: edb4 b7bb 0728 dfbd 6f9d e9bb 0fc3 203d
00000170: 8112 0e3c bbeb 44be e00e b43c 790a 803e
00000180: 1683 083d c5f6 a93d f303 873c e20e c539
00000190: cac1 dd3d 9f56 52be bfbe f83c d7e3 a43d
000001a0: 2967 f53b 8829 afbd 6dfe 90bd 6302 81bd
000001b0: 33f9 06bd 4e54 60bd dbda 853d 32b7 cc3c
000001c0: daec db3d 8d2e 5e3c fb90 943d 09fd 433e
000001d0: ac74 7b3d 43f4 ae3c eafc 1cb9 0613 d33b
000001e0: e422 83bd bcbf a3bb 5a0b 963c 39d7 2a3e
000001f0: a390 693e 6656 533e bc8c 7cbc 42c2 c83c
00000200: 74c1 ba3d aa96 443d 6241 3c3c 63fe 273d
00000210: a0c1 9038 84fd 31be a51c 8ebc bf3f 0dbd
00000220: eac6 423c 520c f0bd 3a6f 353c 688f 3b3e
00000230: 249c d2bc 4531 253c c101 d83b b6bf 0abd
00000240: 673b 273e c5e8 4d3d 1a13 5e3d e974 3b3d
00000250: fc23 893c 3aab 343a 623f 143e 752d d7ba
00000260: 0e30 f13d 7bd1 07bc 11d5 e23d 6990 a0bd
00000270: 7c3a d73d 979b 85bd b65f 493d dacd 5abb
00000280: 53f5 96bb 40ee 94bd 0f4b 443d efca 27bd
00000290: aceb 3ebe e22d 8c3a 15f3 b8bb 7697 143e
000002a0: a973 f83d 6e4c a3bc ef52 3abd 7ea0 893d
000002b0: 3a1c 47bd 7bcd b93d 77d9 d7bc 52a1 6a3d
000002c0: b50a 39be f8b0 9cbd bb8b 22be 69aa e4bc
000002d0: 0a2c aabd edc2 1c3b 9f91 c8bd 2f4c 143e
000002e0: 033f 98bd 34f3 9bbc 30e9 203d ad46 2f3d
000002f0: 4621 41be 34a0 85bd 71cc 653d aaf5 9bbd
00000300: 0828 11be 9e1d 6cbd 5f24 d73d d004 083e
00000310: 7e57 91bd 6e85 7c3c 7028 a1bc 8e0b 6bbd
00000320: 2ed0 15bd 0fb9 fabc cfbd 99bc 9135 00be
00000330: 3740 353d 9f8c fb3d 6850 3fbe d4e8 34bb
00000340: 9371 383d 71a7 1e3e 98f1 d839 9580 3ebe
00000350: bd95 c03d 3d07 7d3c 1e62 39be c9a1 e23d
00000360: 7c45 183e c9c4 18be 6eb9 87be 729c 1d3e
00000370: 1044 1fbc 7626 513d be6a e23c c638 ffbd
00000380: b8d7 77bd 2861 2abd f9fe f43c 478b 2cbe
00000390: b0dc d1bd 36d4 3dbe a105 943d 3c19 c83d
000003a0: de8d 273c a6bb 06be b7fb 293e 3729 513e
000003b0: bfb4 2dbd 0957 61bc 21b8 c3bb e451 d23d
000003c0: 79c6 ff3d ede2 023c 30bb d03d 1639 19be
000003d0: ab08 a7bd 5348 023e 42ac 5c3e 5957 e63d
000003e0: 9b0d a6bd 0001 8ebd 16bb b93d 1ae3 87bd
000003f0: da77 0d3e f091 f2bd 86e1 da3d ef3e d93c
-0.01778102 -0.01742087 0.15937798 0.10448106 -0.061808366 0.11501014 0.101795144 0.06324
0.27383262 0.028789083 0.074027665 -0.033781312 0.14830944 0.0487403 -0.1890814 -0.08042249
-0.19210121 -0.10926026 -0.23545907 0.032011252 -0.005181764 -0.13412671 -0.11185504 0.27612004
-0.048174318 -0.06637448 -0.018865418 0.115407005 0.13259082 0.044095144 0.03227421 -0.12131092
-0.19286543 0.02854401 -0.10789475 -0.059693586 0.07359111 -0.0038713785 0.21518587 -0.09621359
0.11752468 -0.1958835 0.07024756 -0.06259855 -0.1936561 0.0136202 0.025233908 0.18216364
0.017306624 -0.105039366 0.18447462 0.03468412 -0.06280168 0.0744229 -0.009365527 -0.04846055
0.033112917 -0.20291694 -0.061659876 0.0006811337 0.21748534 -0.05594013 0.038419753 -0.06530774
-0.046609856 -0.22283912 -0.14683951 -0.118597135 0.1280125 -0.010934837 -0.20935996 -0.007818315
-0.09214288 -0.05612099 0.06889374 -0.07400031 -0.26117972 0.032767467 0.05047837 -0.14567544
0.088595405 0.06341159 0.13823469 0.057306293 0.080171734 0.14257762 -0.05183897 -0.045923054
-0.005606285 -0.108963065 -0.0071293632 0.039248522 0.008671404 -0.19230549 0.02197975 0.2500799
0.03332814 0.08299021 0.016481375 0.00037585857 0.10827978 -0.20540856 0.030364392 0.080512695
0.0074891043 -0.08552843 -0.07079778 -0.06299283 -0.0329525 -0.0547679 0.06535884 0.024989698
0.10738535 0.013560903 0.07254215 0.19139494 0.061390564 0.021356707 -0.00014971537 0.0064414768
-0.06403139 -0.0049972218 0.01831596 0.16683663 0.22809081 0.20638427 -0.015414413 0.024506692
0.091189295 0.047995247 0.011490198 0.041014086 6.9025205e-05 -0.17381865 -0.017347643 -0.03448462
0.011888245 -0.117211 0.011073882 0.18316424 -0.02570922 0.010082548 0.006592006 -0.033874236
0.16331254 0.050270814 0.054217435 0.04576579 0.016740791 0.000689197 0.14477304 -0.0016416745
0.11776744 -0.00828969 0.110757954 -0.07840044 0.10509202 -0.06523817 0.049163543 -0.0033386857
-0.0046068816 -0.07272005 0.047923144 -0.040965017 -0.18644589 0.0010694826 -0.005644212 0.14510903
0.121314354 -0.019933905 -0.045489248 0.067200646 -0.048610903 0.090723954 -0.026348813 0.057282753
-0.1807049 -0.076509416 -0.15873615 -0.02791329 -0.08309181 0.0023919896 -0.097934 0.14482187
-0.074338935 -0.019036867 0.039284885 0.04279201 -0.18860349 -0.06524697 0.056103174 -0.07615216
-0.14175427 -0.057645433 0.10504984 0.13283086 -0.07096766 0.0154126715 -0.019672602 -0.057384066
-0.03657549 -0.030605821 -0.018767266 -0.12520434 0.044250693 0.12282681 -0.18683016 -0.0027604597
0.045030188 0.15493561 0.00041378732 -0.18603738 0.0940356 0.01544362 -0.18103835 0.11066014
0.14870256 -0.14918818 -0.2650866 0.1539171 -0.009720817 0.05106207 0.02763879 -0.124620005
-0.06050846 -0.04159656 0.029906737 -0.16850005 -0.10247171 -0.18537983 0.07227636 0.09770438
0.010226695 -0.1315752 0.16599928 0.20425878 -0.0424087 -0.013753661 -0.0059728776 0.10269526
0.124890275 0.007988674 0.10191953 -0.14963183 -0.0815595 0.12722902 0.21550086 0.11247129
-0.08108064 -0.069337845 0.09068887 -0.06635113 0.13815251 -0.118442416 0.106875464 0.026519267

G.0.linears.2.bias f4 [10]
00000000: f13a d3bd db2b 1ebd e6d2 c83d 1cbe e8bc
00000010: 376a fd3d 7eec c0bd f962 4ebd 154f 863d
00000020: a6b7 86bd 1464 e53d
-0.103139766 -0.038616043 0.09805851 -0.028410964 0.123737745 -0.09420107 -0.050387356 0.065580525
-0.06577997 0.11200729

L.0.linears.0.weight f4 [32, 20]
00000000: 5cf7 9c3d 7833 b03d 4668 273c 74c6 17bd
00000010: 6ff4 cd3d 5a97 243e 8ebe e1bc 4e7d c0bc
00000020: f5c4 c03d 10f4 b13b 051a 683d 0eb7 213e
00000030: 93da 603e c96b 213d fef0 7e3d e783 253e
00000040: 95e2 d1bd a026 d0bd 53ad 4cbe cc28 83bd
00000050: f7a9 3d3e 10d0 37be d400 b23d f7e3 2fbd
00000060: 7812 02be ee31 0e3c d8e7 0fbe 8fdb 98bd
00000070: 5899 6d3d 69b1 813d 64f6 f53d 63d2 1abc
00000080: baae 543d 8e61 d9bd 23b2 91bc e232 bfbd
00000090: 1d16 2d3d c5f0 dcbc c965 a3bd 12fc 963c
000000a0: e81e 103e 7777 ff3d ee95 6dbd 8755 03bd
000000b0: df2d 53be 45c0 d03d 3486 7a3d 4586 b3bd
000000c0: aae1 53be 431c 5abd f8c2 ff3c e3d8 e73d
000000d0: 6ebd 333e 8ea6 263d d980 883d c02a cb3c
000000e0: 1ef9 7e3d a091 72be 37c6 6c3d a32a ca3d
000000f0: 1aab 0fbd 6cfe b4bd 6c32 febc 96f5 9f3c
00000100: b4ab cbbc 064c d4bd cb67 02bc e61d 933d
00000110: ae00 293d c14f 52bd d15c efbc 29b6 ccbc
00000120: 438f 32be fd2f 57be 31a2 2d3e 6fb2 f1bd
00000130: c459 81bd ede4 d0bc 4f0c 3e3e 2c45 adbd
00000140: 91f8 a3bd 7c5d fe3c 227a f63d c67c 7abd
00000150: a7f2 81bd b5db c0bc 2fcc 45bd 849e 20be
00000160: 3975 a4bd 27c4 303c ac44 b13d a377 893c
00000170: e775 a23d 779a 4abb d82a d53c 9be5 113e
00000180: 2828 ae3a 619a 8b3c 9a9b 0abd 5351 9fbd
00000190: d952 a4bd 1ab2 b2bd 7a3c 35be 4fdc 7fbc
000001a0: dd42 c9be 7f56 19be ffc8 183e 2c2b 9c3d
000001b0: d61e 963d 56bd 983c 6a87 90bd 0e60 66bd
000001c0: d5a5 bebd ac14 113c 1ba4 0bbe 58e2 a3bd
000001d0: 2c6c 59be cdc4 b1bd 4c0d a9bd dca9 0b3e
000001e0: 8c30 363e 77e3 2bbc 4fdb 30bd 8837 fabd
000001f0: 3536 12be 54d2 57be a236 563e 0310 7cbd
00000200: 9ef5 1b3d 885b 9b3c c0a1 89bd 2acf f03d
00000210: e467 2e3e dae8 71bd 059c 1ebd e8ae 4e3d
00000220: 1433 72bd 56bb b9bd 0939 863d 2991 69bd
00000230: 1e6e c93c 208d dd3d af77 bebd 9ce1 bbbd
00000240: 673b 073d f21e be3d 648d 883d f057 ddbd
00000250: 2080 0bbe 2a34 5e3a c0c4 0e3d 5478 fb3d
00000260: 0208 023e da54 363d b8fc 643d 64fa 4d3c
00000270: c73c efbd 9d65 243e e4d0 a0bd d48b 083d
00000280: 47be 3bbe cfa5 a7bd 8c53 393e 273b 393e
00000290: d212 163d 7571 f9ba d9af a1bd 844d 053e
000002a0: 3cf5 1f3d b01b a63c 87ec 3d3e ef65 6e3e
000002b0: 228b 063e 5136 883d e3f2 ebbc 4c4a 16be
000002c0: ae2f 28be a13c 1cbd f746 babd 0696 4a3d
000002d0: 2d16 22be 2f25 173d 8606 133e b5f0 38be
000002e0: 228e 02bc 2304 7dbd 7f48 01be e3c9 e6bd
000002f0: 3728 e1bb d7d0 613d 4a71 653e d5f3 c5bc
00000300: 40ba 32be 0ed4 c6bc c33b 76bd 86fb 5e3e
00000310: 7a00 c33c 2702 8fbc fa02 0abe a7d8 0cbd
00000320: 31c4 84bd a3d8 343e d27d 913d 5f5e 97bd
00000330: aacd 863c f553 dc3d 68e8 b3bd c28f 12bd
00000340: 07e7 a3bd 5971 3cbe 27f5 c7bd 1953 d03d
00000350: fd32 f83d 433f d5bd 2daf 4fbd 6bbf 52bd
00000360: cf32 a9bc 5e3f 17be cd57 0e3e ce0c 9cbd
00000370: aaed 81bd 8f08 75bd 6166 833d d00d 69bd
00000380: 6edf 43bd f45f bd3d e30c 50bd 902c 91bd
00000390: 62b3 d83d 7cad 4e3e cc35 86ba 35d9 58be
000003a0: ff7e dfbd 5963 24be 32de 343e 9569 3f3d
000003b0: 01af cd3d 76c2 923d a317 793c 6d54 003e
000003c0: 5653 de3c 7f07 eabd 3a4c 093d ea65 713e
000003d0: d48f c3bd b85f 0abe eccc 00bd ccf1 29bd
000003e0: 11a9 aa3d 4ac0 993d 2454 c9bd b213 eabd
000003f0: 9834 8cbd 96a8 5fbc c513 34bc a188 22bd
0.076643676 0.08603567 0.010217732 -0.037054494 0.10056388 0.16073361 -0.027556684 -0.02349725
0.094125666 0.005430706 0.05666544 0.15792486 0.2195838 0.039409433 0.062241547 0.16163598
-0.10248295 -0.10163617 -0.19987993 -0.06404266 0.18521868 -0.17950463 0.08691564 -0.042942014
-0.12702358 0.008678896 -0.14053285 -0.074637525 0.058007568 0.063326664 0.12009886 -0.009449574
0.051924445 -0.1061431 -0.017785138 -0.09335877 0.042257417 -0.026970277 -0.07978398 0.018430743
0.1407429 0.12473958 -0.058004312 -0.032063987 -0.20622967 0.101929225 0.061163142 -0.08765844
-0.20691553 -0.05324961 0.031220898 0.11320665 0.1755273 0.040686183 0.06665201 0.024800658
0.062249295 -0.23688364 0.05780622 0.098714136 -0.035075285 -0.088375896 -0.031029902 0.019526284
-0.024862148 -0.10366063 -0.0079593165 0.07183437 0.041260414 -0.05134559 -0.029219063 -0.024989204
-0.17437463 -0.210144 0.16956402 -0.11801612 -0.063159496 -0.025499785 0.18559383 -0.08460459
-0.08006395 0.031050436 0.12035014 -0.06115415 -0.063451104 -0.023542264 -0.048290428 -0.15685469
-0.08030171 0.010788954 0.08655676 0.01678068 0.07932644 -0.0030914822 0.026021406 0.14247744
0.0013287114 0.017041387 -0.0338398 -0.07779183 -0.080236144 -0.087253764 -0.17698851 -0.0156164905
-0.39308825 -0.14974402 0.14920424 0.07625422 0.073301 0.01864497 -0.07057078 -0.05624395
-0.09308974 0.008855026 -0.1363682 -0.08002156 -0.2123267 -0.08680115 -0.08254489 0.13639015
0.17791957 -0.010491244 -0.0431779 -0.12217623 -0.14278491 -0.21076328 0.20919278 -0.061538707
0.038076036 0.018964544 -0.067203045 0.117582634 0.17031819 -0.059059955 -0.03872301 0.050459772
-0.059130743 -0.090689346 0.06553847 -0.0570232 0.02458864 0.10817933 -0.093001716 -0.09173891
0.033015635 0.09283246 0.06667593 -0.10807788 -0.13623095 0.0008476401 0.034855604 0.1227881
0.12698367 0.044514515 0.055905074 0.012571905 -0.11681514 0.16054387 -0.07852343 0.033336475
-0.18334304 -0.08185922 0.18098277 0.18088971 0.036639042 -0.0019031005 -0.078948684 0.13017851
0.039052233 0.020276874 0.1854726 0.23281072 0.13139012 0.06650985 -0.02880234 -0.1467678
-0.16424438 -0.038143758 -0.09095567 0.04945948 -0.15828772 0.036900695 0.14357957 -0.18060572
-0.007968457 -0.061771523 -0.12625311 -0.112689756 -0.006871249 0.055130806 0.22406498 -0.02416412
-0.17453861 -0.024271037 -0.060115587 0.21775636 0.023803938 -0.017457081 -0.13477698 -0.034386303
-0.06482733 0.17660765 0.071040764 -0.07391047 0.01645549 0.10758201 -0.08784562 -0.03578163
-0.08003049 -0.18402614 -0.09763556 0.101720996 0.121191 -0.10412457 -0.05070417 -0.05145208
-0.02065411 -0.14770266 0.13900681 -0.0761963 -0.06344159 -0.059822615 0.064160116 -0.05689794
-0.0478205 0.09246817 -0.05079354 -0.07088578 0.105810896 0.20183367 -0.0010239421 -0.21176608
-0.109128945 -0.16053523 0.17662886 0.04673155 0.10043145 0.07165997 0.015203389 0.12532206
0.027139347 -0.11427211 0.03351996 0.23574033 -0.095489174 -0.13513076 -0.03144543 -0.04149036
0.08333028 0.07507379 -0.09830502 -0.11429538 -0.06845969 -0.013651034 -0.010991042 -0.03968108

L.0.linears.0.bias f4 [32]
00000000: e0e3 323b bce2 713d 3542 a7bc 0b2d 343d
00000010: 308a 733d 6409 d13c e1ef 8f3d e3f5 843c
00000020: c208 ca3d 9af5 a4bd b34a 033d 9e2e a5bb
00000030: 3a63 a8bb 9d9a 27bd bf5b 40bc e91d e23d
00000040: aea5 1d3d eb01 c9bc 4169 033e 0a22 723d
00000050: d389 953d b0a3 a3bd 28f2 4b3c c919 0abc
00000060: 79ab 04bd c0c0 05bc 5bc1 f9bd 092d 30bd
00000070: 2f84 473d 94d1 35bd 772a f3bc d8be c6bd
0.0027296469 0.05905412 -0.020417312 0.04398827 0.059457958 0.025517173 0.07028175 0.01623053
0.09864952 -0.08054657 0.03205366 -0.0050409576 -0.005138782 -0.040918935 -0.011740624 0.11040861
0.038488083 -0.024537047 0.1283312 0.059114493 0.073016785 -0.07990205 0.012447871 -0.008428999
-0.03239009 -0.008163631 -0.12195083 -0.0430117 0.048710044 -0.044389322 -0.029683335 -0.09704369
