para_save/00081params.pth (torch, 118145 bytes, 76 tensors)

F.linears.0.weight f4 [32, 20]
00000000: 13f4 f4bc 3753 67bd 20c9 2abe 5f22 c23c
00000010: 5dbd 7fbd ba5a 99bc 5edb 1fbe a384 b63d
00000020: 3b1e e7bd a84f 5ebd 9440 4a3b b50d 43bd
00000030: 6743 883d 917f 1ebe cf08 11bc 945a 803c
00000040: cc94 a83d 6ef1 0f3e 3656 8ebd f809 ed3d
00000050: 9150 1f3e c42f f3bd 5577 a2bc e0bc 81bd
00000060: 25ee 6abd a40f 27be 8ad1 0f3c 23e7 b53d
00000070: 60ea 253d 9863 9ebc 9aff 263e 5c2a 3abd
00000080: 11e9 30be fa6a 1fbc 5ad5 9f3d ef24 3e3d
00000090: 0738 2a3d 6d7f 833c f7b0 3dbd 8c83 483b
000000a0: de6b fabd e186 423d 2455 a2bd 03d0 60be
000000b0: 4ee4 13be d40d 35be 4a00 1d3e ca99 9c3d
000000c0: e1f4 073e 65db b33c 2d14 ce3d d683 83bd
000000d0: c07c 06bd 15f0 43be fc1c 013e ea04 9c3c
000000e0: 9905 953d 02f4 55be 0a2d 9abd 4b36 103d
000000f0: 7c84 533d 95f0 efbd c2ef 45bc 3583 3dbd
00000100: f70a 0b3e da76 82bd baf9 a53c 65be 07bd
00000110: 2633 5cbc f5af 1b3e ba11 d8bc 21bd 1ebe
00000120: 42db 98bd be3e 273c 16f7 a83c 2a0d cf3d
00000130: 514a fcbb 0163 7d3b 7fc9 37be 7857 863d
00000140: bcb3 fd3d 9f91 c53b 765f 2fbe dd2d dd3d
00000150: 4b6e 363d 63bf 233c 030d 1a3d 9327 b0bd
00000160: f341 703c ef1f 223e 7323 f9bc fa74 c2bd
00000170: b0dc 46be 0dc2 dcbd b1b7 243e 10c0 c8bc
00000180: 8b54 493e 8995 e4bc 664b 04be f21b 293c
00000190: ef27 5bbd 3cf0 323e 5491 2cbe d7ac d5bd
000001a0: a957 ad3d f7a3 5ebd 2268 a63d a6e9 483e
000001b0: faa5 103e f24b a7bc e8d2 9a3c 0f01 f9bc
000001c0: 6bb7 8bbc 022d eebc 5d48 d1bc a774 3e3d
000001d0: 9112 503e 1c9c 663c a717 5a3d 47b1 00bd
000001e0: cd14 013e e31e d03c e898 bebd 1067 3dbd
000001f0: b145 3a3d 1631 0d3d f0de 483e 9fa3 753d
00000200: 016c 773d 8696 083e 538b 183e 697d 733d
00000210: 42a5 8ebd 9308 0bbe ff47 263e d7e3 103e
00000220: 6bed 33be 0afd 01bd a301 ac3b 1252 553d
00000230: 0ffa e13d 419e 3bbd 86c6 ee3d 9b91 173d
00000240: 05e5 23bc da54 553d 30aa 38bd 2378 d73a
00000250: 7e37 953d 7987 07be 0c69 d6bd 0bdf ae3d
00000260: 69dc 5dbc 1005 b5bc de6f 5f3d 25e9 b23c
00000270: 9453 0c3b c9ce ee3c db64 45be a9ac c93d
00000280: 8646 85bc 2c44 0b3e cb3b c43c 89e3 b13c
00000290: 8a19 d5bd f482 d93d 949a 2cbe 87e3 14bd
000002a0: 1a65 f3bd 9e99 c33d 91fa e33d 2d99 02be
000002b0: c7ca e3bb 0fcd 2c3c 26f1 88bd 9c95 5e3d
000002c0: 92a0 7c3d 2031 ccbd 4074 66bc bfc5 0d3e
000002d0: 99cd c33c 64f4 8dbd 3a09 d33d 8c0b 9dbd
000002e0: 7b45 e3bc f8b8 4ebd 218f b4bd ced6 823e
000002f0: 0265 133e e8db b4bd 0c01 c33b 3118 ad3c
00000300: aee6 a83d 753d 8bbd 1bbb 6b3d 547e 63bd
00000310: 93e2 bbbd 55fc 11be b719 0cbe e49e c6bc
00000320: 311d 473d daa8 2fbc 3443 613c b122 14bc
00000330: 57be d0bd c913 343d dde6 af3d 567f a9bd
00000340: 5dee 9fbb 967d d93c 0a58 9ebd a4ec af3b
00000350: 2a2a 07be d648 983c 6965 273e b39b 513d
00000360: 1579 073e 75ea 24be 986b 853d 8276 533d
00000370: 558b c0bd 4989 d1bc 4db8 5abc d238 03bd
00000380: da7d 72bd 16b0 533d aa3a 9e3d 5ecf 78bd
00000390: a0b6 fc37 3ac8 49be cad2 263c f85a 73be
000003a0: c6bc 193e 41e3 08bd 3422 edbc 8175 c13d
000003b0: ac12 b13c 57d8 43bd 7586 5abe ed5b 1c3e
000003c0: c88b 083e baef 27bd 41cc debc 8c98 81bd
000003d0: 2eac ef3c f471 2b3e a096 df3c 834f 763d
000003e0: 7189 17bc 3b04 e4bd 6269 b33b a4a6 f0bd
000003f0: 26a4 39bd bb92 29be 44c2 a23c 07a2 15bc
-0.02990154 -0.056475844 -0.16678286 0.02369803 -0.06243645 -0.01872002 -0.15611026 0.08912017
-0.11285063 -0.054275185 0.0030861245 -0.047620494 0.06653481 -0.1547835 -0.008852198 0.015668191
0.08231506 0.14056942 -0.06950037 0.11574167 0.15558077 -0.11874345 -0.019832293 -0.06334853
-0.05735602 -0.1631456 0.008777985 0.088819765 0.04050672 -0.0193346 0.16308442 -0.045450553
-0.17276408 -0.009730095 0.078043655 0.04642194 0.041557338 0.016051972 -0.046311345 0.0030595986
-0.12227605 0.04749191 -0.079263955 -0.2195435 -0.1444256 -0.17681056 0.15332142 0.076465204
0.13277008 0.021955201 0.10062442 -0.0642163 -0.032833815 -0.19134553 0.12608713 0.019045312
0.07276458 -0.20893863 -0.07528122 0.035208028 0.05164002 -0.11715809 -0.0120810885 -0.046267707
0.13578402 -0.063703254 0.02026068 -0.03314056 -0.013439929 0.15203841 -0.02637564 -0.15501834
-0.07463695 0.01020783 0.020625632 0.10109933 -0.007699289 0.0038663747 -0.17947958 0.06559652
0.12387797 0.0060293223 -0.17126259 0.10799763 0.044538777 0.009994361 0.037610065 -0.08601298
0.014664161 0.15832494 -0.030412411 -0.09494968 -0.19420123 -0.107792 0.16085698 -0.024505645
0.19661157 -0.027903335 -0.12919387 0.010321604 -0.05350488 0.17474455 -0.16852313 -0.10433357
0.084639855 -0.054355588 0.081253305 0.1962038 0.14125815 -0.020421956 0.018899396 -0.030396013
-0.017055234 -0.029074196 -0.0255472 0.046497967 0.20319583 0.014075305 0.053245213 -0.031419065
0.12605591 0.025405353 -0.09306508 -0.046240866 0.04547662 0.03447064 0.19616294 0.059970494
0.060405735 0.1333867 0.14896898 0.059445772 -0.06965114 -0.1357749 0.16238402 0.14149414
-0.17571037 -0.031735457 0.0052492185 0.05208022 0.11034023 -0.04580522 0.11658959 0.037004095
-0.010003333 0.052082874 -0.04508418 0.0016439002 0.07285975 -0.13235272 -0.10469255 0.08538636
-0.013541319 -0.02209714 0.054550044 0.021839688 0.002141212 0.029151337 -0.19276755 0.098473854
-0.01626898 0.13600224 0.023954293 0.021714943 -0.10405262 0.106206805 -0.16855842 -0.0363498
-0.11884518 0.095507845 0.11131776 -0.12753744 -0.006951663 0.010546937 -0.066866204 0.054341897
0.06167657 -0.09970307 -0.014065802 0.13844965 0.023901748 -0.069313794 0.10304494 -0.07668218
-0.027743092 -0.05046937 -0.08816362 0.25554508 0.14394 -0.08831006 0.0059510525 0.0211297
0.08247124 -0.067988314 0.057551485 -0.055540398 -0.09174075 -0.14256413 -0.13681684 -0.024245687
0.048611823 -0.01072141 0.013748933 -0.009041474 -0.101925544 0.04396418 0.085889556 -0.082762405
-0.00488071 0.026549142 -0.07731636 0.005368786 -0.13199678 0.018589418 0.16347279 0.051173877
0.13229783 -0.16105063 0.065146625 0.05162669 -0.094015755 -0.025578158 -0.013349605 -0.03203661
-0.059202053 0.0516816 0.07726033 -0.060744636 3.0125782e-05 -0.19705287 0.010182092 -0.2376517
0.15013418 -0.03341985 -0.028946973 0.0944624 0.021615349 -0.04781374 -0.21340354 0.15269442
0.13334572 -0.041000105 -0.027197005 -0.06327924 0.029256906 0.16742688 0.027293503 0.060134422
-0.009249077 -0.111336194 0.005475209 -0.11750534 -0.04532256 -0.1655988 0.019868024 -0.009132869

F.linears.0.bias f4 [32]
00000000: 22e3 6fbd 2d65 d73c d5d6 a13d d237 c1bd
00000010: 371d a7bd 8089 1bbd dca8 c0bd 3035 e93c
00000020: 3218 cabb ded8 ae3d 226c 6ebd 9836 0cbd
00000030: e17f f3bc 346e b7ba b3cb fabb 6ecf ac3c
00000040: ced4 143c 7d09 ab3d c60b a63d 3e5d e83c
00000050: a61f 03be 38cc 94bb 33d6 d6bd 39a0 2ebd
00000060: 868f c5bc 2680 d0bb b86d 15bd 486e 21bd
00000070: cce1 be3b 49e9 1fbc ba13 4fbc 8a20 e1ba
-0.05856622 0.026293362 0.07902304 -0.09434475 -0.08159869 -0.037972927 -0.09407207 0.028467745
-0.006167435 0.08537458 -0.058208592 -0.034231752 -0.029724063 -0.0013994635 -0.0076536774 0.021095004
0.00908394 0.08351419 0.08107714 0.028364774 -0.12805042 -0.0045409463 -0.10490074 -0.04263327
-0.024116289 -0.0063629327 -0.03648159 -0.039411813 0.005825257 -0.009760209 -0.0126389805 -0.0017175835

F.linears.1.weight f4 [32, 32]
00000000: d601 16bd 4785 e13d fbfd a83e 4548 d0bd
00000010: 2cfa 10be 6f18 2b3d dac6 603c 806c 66bd
00000020: b157 5bbd 543d f73c d5de b7bb 261c ef3c
00000030: 65fa bbbd 6778 debd ab27 223e b0ff cb3d
00000040: f7a7 67bd ede5 1dbc 15da 333d ae57 103e
00000050: f4dd bebd a8f8 433d 8793 553e 52b5 663c
00000060: 812c 983d 5e70 123e 3cf2 1bbd c8b7 a8bd
00000070: 1ac8 1abe 8235 bf3c 8c44 e5bb d1ee 7d3d
00000080: 37ca f63d f1b0 403d 2fd1 923e e4bc 3c3d
00000090: 7765 00bd b7b4 fa3d 6d47 923c 32db abbd
000000a0: b99d 203d 3c8d 8e3c c243 0e3e eb2a 41be
000000b0: 894a 0abc 7a0d bbbc 1e79 d3bd 1747 593d
000000c0: 591f 723d 259d a53d bdbd 20be 3226 9d3b
000000d0: fecb 06bd 9292 383d c490 b53c f4f9 9a3d
000000e0: 7c26 f7bd ff53 a1bd 3231 d83d 99e4 263e
000000f0: 677f 3dbd ca20 e63d 40b6 f13d b55e e33d
00000100: c990 87bd d182 e53c 7f49 67bc 8b0a 10bd
00000110: fc80 29bc 4e15 17bc 2084 953c 85f4 32be
00000120: 56c1 3a3d 7e4d 65bd 421c b93d 64a7 213e
00000130: d43f 433e d78c 35bc bafb 57be f099 4a3b
00000140: 2bb0 3c3e 424b 8fbd 4363 36bd b836 9c3d
00000150: a67e 1c3e 56b4 103e d009 bcbb 4378 aebd
00000160: c98d 4abe 3de7 683d b930 75be 052e 313e
00000170: 5aad 873d ddb9 5b3d 755e ce3d 352f 3abd
00000180: 3845 03be 196f 97bc 31cc 8d3c 166a d93d
00000190: 1ca8 503c 0919 33be c4d1 3b3d 2ba7 373c
000001a0: b335 483e 0247 4fbe eed9 2a3e f6ac fcbd
000001b0: 1557 543d a7f7 edbd 28b5 09be 6dc6 81be
000001c0: 3e48 07be c28d d1bd e9c6 fdbd 30b6 80be
000001d0: 5bc1 b43d 2970 c43d 2d4c c5bd 593c 413e
000001e0: 91f1 203d ae2b e23d 3fde 063b 577d 91bd
000001f0: a19a f83b 4ece 13bd 7ff8 283e c3ee e1bd
00000200: 03f5 85bc 2d95 233e f63e f23d 45c1 f9bd
00000210: d810 c83d 9ccd c3bc 6f3e 3dbc 3d3b 3c3d
00000220: fd2b 8dbd d6b5 d33c 25d2 2f3d 044e 8f3d
00000230: 9651 fabd 5307 1cbe 9ac1 80bb db97 b2bd
00000240: 3b89 39be b8b4 003d 8781 c23d a37c fc3c
00000250: f230 babd 0809 af3d c626 a7bc 24fe 1b3d
00000260: 25e2 103e dce1 7539 7db4 16be c8f7 3e3e
00000270: f897 093d b36e d2bd 918f b63d 1a21 173c
00000280: aff1 c6bd d99e 8bbc 3893 08be 4b11 983d
00000290: 5d16 e8bd 42de c7bc b707 4bbe 6948 55be
000002a0: 36e4 83bb b891 03bc 9a51 cabd 4940 04be
000002b0: 1cd3 da3d 6baa ad3d 3c95 113d a727 0a3e
000002c0: a752 63bd 6ce2 b0bc a6ea dbbc 8a65 c2bd
000002d0: b915 8fbd 584e 2d3c f9fd 0e3d 5959 4fbd
000002e0: 76e1 b5bc b77d a33d 9102 9f3d 8d91 163d
000002f0: b7cd 293d 75d8 903d 4a2b f1bd da65 ccbd
00000300: 2737 08bc 4781 02be a171 07be 0d73 42bd
00000310: d647 89bd 61ba c2bc 6363 bd3d 6fb5 a4bb
00000320: 89de 3dbe 72dc febd 918e c63d 1440 48be
00000330: 855c 873d b74b a5bd 6edf 14be 3bd1 363e
00000340: 6c68 83bd e210 073e 684a 88bd 84ab 5abd
00000350: b7b2 343d f4ad f5ba e597 853d d37e 22be
00000360: 94b8 14bd 984d 11be 6a01 843c b09b cf3b
00000370: e55f 9bbd 0432 8abc 2b67 02bd ca2a 08be
00000380: db0e b33d 3fbc 4e3d 0270 36be cef4 713c
00000390: 1281 ebbc f7db ec3d 4bc5 863d 6646 153d
000003a0: 99c9 a83d 3dc8 c0bc bb87 503d 9dc7 75bd
000003b0: cbd9 a9bd 223d 25be 72c0 423d 1979 5fbd
000003c0: c74c 85bd 65f1 563d 61e9 683d 1ff9 40be
000003d0: d66f e63d c4d4 1b3d f834 833e cefc 84bd
000003e0: c3ef cebd a3b6 22bd 8afc a43c 9d04 453c
000003f0: 27e3 c13d 94a9 873d b029 bd3d 0556 5e3e
-0.036622845 0.11011749 0.33006272 -0.10170034 -0.14157933 0.04177135 0.013719285 -0.056255817
-0.053550426 0.03018061 -0.0056112804 0.029188227 -0.09178618 -0.10862809 0.15835445 0.09960878
-0.056556668 -0.009637338 0.04390915 0.14095947 -0.09319678 0.04784456 0.20857058 0.014081316
0.074303634 0.14300677 -0.03807281 -0.082381785 -0.15115395 0.023340944 -0.006996697 0.06199533
0.12050288 0.047043744 0.2867522 0.046078578 -0.031346764 0.122415 0.017856324 -0.083914176
0.039212916 0.01740133 0.13893035 -0.18864028 -0.008440622 -0.022833575 -0.10325836 0.053046312
0.059111927 0.080866136 -0.1569738 0.004795813 -0.032909386 0.045061655 0.022163756 0.07567206
-0.12067887 -0.07877349 0.10556258 0.1629814 -0.04626408 0.11236723 0.118023396 0.11102048
-0.066194125 0.02801648 -0.014116644 -0.035166305 -0.010345694 -0.009221388 0.018251479 -0.1747609
0.045594536 -0.055982105 0.09038593 0.1578651 0.19067317 -0.011080942 -0.2109212 0.0030914508
0.18426578 -0.06996776 -0.044528257 0.07627624 0.15282688 0.14131293 -0.0057384744 -0.08519032
-0.19780649 0.05686115 -0.23944367 0.17302711 0.06624861 0.05364405 0.1007661 -0.045455176
-0.12819374 -0.018485593 0.01730928 0.106159374 0.012735393 -0.17490019 0.045854345 0.01120929
0.19551735 -0.20241931 0.16684696 -0.12337677 0.05184086 -0.116195016 -0.13448012 -0.253467
-0.13211152 -0.10232116 -0.12391455 -0.25138998 0.08825942 0.09591705 -0.0963367 0.18870677
0.039292876 0.110434875 0.0020579246 -0.07103985 0.0075867926 -0.03608542 0.16501044 -0.11031868
-0.016352182 0.15974875 0.11828415 -0.12195066 0.09768838 -0.023901753 -0.01155053 0.04595493
-0.06893156 0.025843542 0.04292502 0.06997302 -0.122225925 -0.15237169 -0.003929329 -0.087203704
-0.18118756 0.031422347 0.09497362 0.03082115 -0.09091367 0.085466444 -0.02040423 0.038084164
0.14148767 0.0002344916 -0.14717288 0.18649209 0.033592194 -0.102750205 0.08914102 0.009224201
-0.09714066 -0.017043518 -0.1333741 0.07425173 -0.113323905 -0.024397973 -0.19827162 -0.20828404
-0.0040250076 -0.0080303475 -0.098788455 -0.12915148 0.10684797 0.0847977 0.03554271 0.13491689
-0.055498745 -0.021592341 -0.026845288 -0.09492023 -0.06986565 0.010577761 0.034910176 -0.050622318
-0.022202235 0.079829626 0.077641614 0.0367599 0.04145595 0.07072536 -0.11775835 -0.09980364
-0.008313931 -0.12744628 -0.1322694 -0.047473002 -0.06703155 -0.023770513 0.09247472 -0.0050265114
-0.18541922 -0.1244439 0.09695161 -0.19555694 0.066094436 -0.08071082 -0.14538357 0.17853253
-0.06416401 0.13190034 -0.06654817 -0.053386226 0.04411575 -0.0018743859 0.06523112 -0.15868692
-0.03630884 -0.14189756 0.016113956 0.006335698 -0.0758665 -0.016869552 -0.03183667 -0.13297573
0.08743068 0.050472494 -0.17816165 0.014767839 -0.028748069 0.115653925 0.065805994 0.03644409
0.08241577 -0.023532981 0.050910693 -0.06000482 -0.08293494 -0.16136602 0.04754681 -0.054558847
-0.06508785 0.052476306 0.056863192 -0.18845032 0.112518 0.038044706 0.2562635 -0.06493531
-0.10104325 -0.039724957 0.020139951 0.012025026 0.09467154 0.06624141 0.09236467 0.21712501

F.linears.1.bias f4 [32]
00000000: 6c3b a7ba b4c0 e2bc 4d6c 0ebd f6bb dd3c
00000010: f460 053e b421 743c 4bbf 92bb 82bc 50bd
00000020: c973 cd3d 98bd d3bc c4b8 243c 27ad ccbd
00000030: 998c b23c 3507 e13d a993 efbb 364a d3bd
00000040: d10f 543d 0d0d 7a3d 0ab6 79bd 878a aa3d
00000050: 5f03 1cbc 168a 47bd cc2d 573d b5cc cebd
00000060: 6697 b43c 1bd6 8a3d 2363 5fbb 65a6 c33d
00000070: 9925 29bd d15f 54bd 2cdc 273d 507e 033e
-0.0012758798 -0.027679779 -0.034771252 0.027067166 0.13025266 0.014900614 -0.0044783703 -0.050961025
0.1003185 -0.025847241 0.010053817 -0.09993964 0.021795558 0.10987703 -0.0073113036 -0.10316889
0.051772896 0.061047602 -0.06096462 0.08327203 -0.009522288 -0.048715673 0.05253391 -0.100976385
0.022044849 0.067791186 -0.003408619 0.095532216 -0.04129562 -0.05184919 0.040981457 0.12841153

F.linears.2.weight f4 [10, 32]
00000000: 974c 69bb 499a 9abd 487e 733d eac1 20bc
00000010: 08bf b0bd 27c2 0f3e f42f 873e 6c41 553d
00000020: 3a80 fc3d f7c9 1ebe e4ef 6e3d 7697 70bc
00000030: 4e6d 5b3d 2d30 febd ff0e 383d 9fb9 503e
00000040: 44e9 fe3a ba57 3dbc 2925 323e 6283 283e
00000050: e331 9a3c 1b04 513e c770 b8bc c1cd 733d
00000060: cc71 0cbe 3af7 9f3c 64ce 0f3e 2b8a 62bd
00000070: 56f2 5ebc a253 cbbc c081 00bd 42ef bfbd
00000080: 18de 18bd 871d aebd 9623 563d c50c 253e
00000090: a795 a0bd 1733 0f3e b4d5 40bd 67b3 a13e
000000a0: 075a 733d 608f 52be 31d6 123d 97c0 613d
000000b0: 34d5 fa3d 5e88 b7bd 8b04 a63c 2bde d63d
000000c0: ea02 12be 48a3 693d 97a5 e83c 5fa5 29bb
000000d0: 3021 913d 5a58 30be 6651 6abe d4b2 2d3e
000000e0: 0aaf 963d 2231 85bd b45a f53d cdce 19be
000000f0: 4382 47be 42bc 083d 79fd 053e 71c6 72be
00000100: 54c3 d13d 3459 1e3e f182 8cbe 62f7 e0bd
00000110: dcc1 22bd 6956 663d 9ca9 b0bc 2bc2 e33d
00000120: 5247 273d d9be 76bd 8797 05be 836c f33c
00000130: c59f 483c 1323 9d3c 6101 d03c 55bc 80bc
00000140: 8d88 1dbe e4a7 da3b 9a01 41bc 6468 783d
00000150: 7831 7fb9 965b a03d 379a 13be 34b8 6d3c
00000160: b84d 3dbd 85f4 3a3e 70a3 c43d 3cf5 5cbe
00000170: b576 0dbe 4b85 f53d 77d1 023b 2971 1abe
00000180: fe2b 243e 2eb8 7c3e bef9 6bbd 4ca0 11be
00000190: 6a6e ec3d 2ebc 603d 68c9 28be 3bdb 08bd
000001a0: a8ee a53d ac42 243d bf8f 953d 9de5 96be
000001b0: 61c2 153e 373c 443c 576f cdbd 33b4 3bbe
000001c0: 4e75 97bd 702e 983b 05fb 2a3e df2d 3c3e
000001d0: 8b16 8abd 2895 52bd 6e8d df3d 5e98 57bc
000001e0: 6f33 70bc 7c58 7cbd 2c0c 363d b81f 283d
000001f0: 5484 2d3e 4117 593c 1147 133c 6403 c0bd
00000200: 4131 57be a86a 8c3d f86f 88bd b1cd cabd
00000210: ecdd 47bd 1b66 e0bc 7ef1 29bd a4d7 513e
00000220: 0759 8c3c 6458 66bd 9041 e8ba b483 5e3e
00000230: c4ec f1bd 3df8 88bd f79b aa3c c941 9c3c
00000240: cc15 56be 6122 21bd b7c6 06be a1da c0bd
00000250: 24c2 6d3d ba77 973d ca50 afbd 0c36 40be
00000260: bf63 d4bd ba04 5f3e 3fbf ed3d 0f2d 72bd
00000270: eeed 163d 0e35 e23d 4251 35be bfd9 f0bd
00000280: 52bf 063e d106 e33c 44b7 2dbc 9ce5 6abe
00000290: 112d 963c f109 4b3e c7e2 f9bc 9945 823d
000002a0: cc50 b6bc d9a4 90bd f903 cdbd 4088 a83d
000002b0: bdfe fc3c 7f4f a3bd 8dc6 83bd 681d 763d
000002c0: 2f7f edbd 8f96 ed3d bec7 2fbc 389b 713c
000002d0: 8d22 21be 2221 9ebd 694d 233e 4c0d 3a3e
000002e0: 0df9 e6bb a229 14be 944d 77bd 7df1 24be
000002f0: 1a66 16be 30ff 04bc e694 39bc fe6f 3bbd
00000300: e361 833d 4ae0 59bd 79ed 423e b70a a3bd
00000310: 2418 9d3d 3dac 193e 3e6a 0f3e f7b7 5d3d
00000320: 9d57 f03d 9c48 a03d 91e1 4cbe c30e 3cbc
00000330: 05ea 16bd a384 59bc 9ef7 51ba 908c 26be
00000340: f725 d33d 9a23 163d ceaf f83d 12a5 413d
00000350: d799 5abd e3d7 13be d326 123d fa06 7b3c
00000360: 123c 0a3e 2e9a 303d bdc1 553d 21b2 2ebd
00000370: f04f c53c ec2f df3d 8c23 5b3a 99b7 64bd
00000380: 410c b03d fa9a 1dbe 4447 163b 61a7 97bd
00000390: 4b36 0a3d afd8 ec3b 24fd 14be 1ffe 013e
000003a0: 3169 38be b697 c6bd 4036 083e 48b2 16be
000003b0: 5e19 febd 79ec 073c 662d 10be e0da d4bd
000003c0: 77b3 a53d f1dc 4b3e 435f 173d 0a04 803e
000003d0: 1263 01be 3dfe d23d 0638 06bc 61f2 2b3d
000003e0: db38 78be e24f 9cbc c859 f3bc a19c c2bd
000003f0: 441d 193e bef6 7dbd 2787 19be 9048 6a3e
-0.003559863 -0.07548959 0.059446603 -0.009811858 -0.08630186 0.14038907 0.26403773 0.052064344
0.12329145 -0.15506731 0.058334246 -0.014684549 0.053571038 -0.124115326 0.044936176 0.20383309
0.0019448181 -0.01155656 0.17396988 0.16456369 0.018822616 0.20411722 -0.022514714 0.059522394
-0.13715285 0.019527066 0.14043576 -0.05530755 -0.013607582 -0.024820153 -0.03137374 -0.09371807
-0.03732118 -0.08501726 0.05228003 0.16118152 -0.07841044 0.13984333 -0.047078803 0.31582186
0.05941203 -0.20562506 0.0358488 0.05511531 0.122476965 -0.08961557 0.020265838 0.10491594
-0.14258924 0.057040483 0.028399272 -0.0025885922 0.07086408 -0.17221203 -0.22882614 0.16962749
0.07357605 -0.06503512 0.11980191 -0.15020294 -0.19483285 0.03338266 0.13084973 -0.23708512
0.10242334 0.15463716 -0.2744365 -0.109846845 -0.03973566 0.05623475 -0.021565251 0.11121019
0.0408395 -0.0602406 -0.13046084 0.029714828 0.012245123 0.019181764 0.025391283 -0.015714804
-0.15384121 0.006672846 -0.011780167 0.06064643 -0.00024337124 0.07829969 -0.14414297 0.0145092495
-0.046216697 0.1825734 0.09601486 -0.21577924 -0.13814814 0.11988314 0.0019961277 -0.1508223
0.16032407 0.24679634 -0.05761122 -0.14221305 0.11544497 0.054866962 -0.1648308 -0.0334122
0.08102161 0.040102646 0.07302808 -0.29472056 0.14624931 0.011977247 -0.10031002 -0.1833046
-0.07395421 0.0046442077 0.16697319 0.18376873 -0.06742581 -0.051411778 0.109156474 -0.013158886
-0.0146607 -0.061607823 0.0444452 0.041045874 0.1694501 0.013250173 0.0089891115 -0.09375647
-0.21014883 0.068562806 -0.06661981 -0.09902514 -0.048795626 -0.027392438 -0.04149007 0.20492417
0.017132295 -0.05623664 -0.0017719734 0.21729928 -0.118127376 -0.06687973 0.020826323 0.019074338
-0.20906752 -0.039339427 -0.13161741 -0.094167 0.058046475 0.07395883 -0.08560331 -0.18770617
-0.103705876 0.21779147 0.11608743 -0.059125002 0.036848 0.11045276 -0.17706779 -0.11760282
0.1315892 0.027713211 -0.010602776 -0.22939152 0.018332036 0.19828011 -0.030503644 0.06360931
-0.022255324 -0.07062692 -0.10010523 0.082291126 0.030883187 -0.07974147 -0.06434355 0.060086638
-0.11596524 0.116009824 -0.010728775 0.01474648 -0.15735836 -0.07721163 0.15947498 0.18169135
-0.007048732 -0.14469007 -0.06037672 -0.16107745 -0.14687386 -0.008117482 -0.011327004 -0.0457611
0.06415155 -0.053192414 0.19035901 -0.07961028 0.0767062 0.1500711 0.14005372 0.05413052
0.11735461 0.07826349 -0.20007922 -0.011478129 -0.036844272 -0.013276252 -0.0008009615 -0.16264558
0.103099756 0.036655046 0.12142907 0.047276564 -0.05336937 -0.14437823 0.035681557 0.015321488
0.13499478 0.043115787 0.052186716 -0.042650346 0.024085969 0.10897812 0.0008359484 -0.055839155
0.08596087 -0.1539115 0.0022930661 -0.07404972 0.033743184 0.007227979 -0.1454969 0.12694596
-0.18008877 -0.09696905 0.13301945 -0.14716446 -0.12407182 0.008296126 -0.14079818 -0.103933096
0.08090871 0.19908501 0.036956083 0.25003082 -0.12635449 0.10302398 -0.008192068 0.041979197
-0.24240439 -0.01908106 -0.029705897 -0.09502531 0.1495257 -0.06200289 -0.14992963 0.22879243

F.linears.2.bias f4 [10]
00000000: d027 9e3c 5e9b d1bd 3e01 0a3d 783d 43ba
00000010: c985 35bd 34fa 6dbd e675 523c 8b05 ab3d
00000020: c4cc 983d 38c2 3abb
0.019306093 -0.10234712 0.03369259 -0.0007447819 -0.04431704 -0.05809994 0.012845492 0.083506666
0.07460931 -0.002849711

G.0.linears.0.weight f4 [32, 10]
00000000: bf93 84bd 98d4 e2bc 3f82 a13d 4cf9 ae3d
00000010: 4858 5fbd b680 98bb b7fc d03d 055b 443e
00000020: 6801 34bd 4e6d d0bd 931d 023e c923 bebc
00000030: 508a 3dbe e851 fc3c 3aca 51be 2ece 823c
00000040: ab3a d5bb d8c9 f0bd 9ab9 91bd 1d21 283c
00000050: 1541 8c3c 635f 893d f68b 1e3d 4d1f c8bd
00000060: 9e4d e13d 474d 363e 730c eabd ba1c f8bd
00000070: 509a 943c eb15 2b3c 8052 113e fd27 543d
00000080: c4ec e63d d369 89bd 6302 3dbe 5614 01be
00000090: 81d5 0bbe 5fc9 613c 077f 1b3d 5ded 42bd
000000a0: 207c d53d 3b3f 073e 6e88 adbc 209b b9bb
000000b0: 92eb ff3d 494d 963d 0b10 14be c51d 0ebe
000000c0: 9d2c f83d 38f5 8abc 8ff5 df3b 84fc 6e3d
000000d0: 515c 433e 125b f4bd 0292 c53d fb60 92bc
000000e0: eebf 4abd f5a6 6c3d eaa6 f8bd ca54 21be
000000f0: 802e 533e c3b5 ac3d 9dc9 853d 4b20 28be
00000100: ac04 f63c 3862 6dbd d273 8d3d 58ce 97bd
00000110: 0172 b7bd 9fcf a1bd a504 a23b 3a19 643e
00000120: c651 e43c a96c 31bd b03c dd3d 1cd7 59bd
00000130: 3f8e 68be 1666 633d f592 e93c 2a0e 0fbd
00000140: ebb7 b4bd 09ff 2e3e 98d0 4b3e 575a 18bd
00000150: 4b4c 123e 70ce a3bb 2cac 823c f579 71bd
00000160: fbe3 59bd 5131 1d3c afdf a63d 2635 b4bc
00000170: 858e 73bc d3e1 d4bb c6c5 e7bc 09fe 7fbd
00000180: b503 3b3e 9b49 0bbe c43e f1bc c533 323e
00000190: 1178 943d 4694 233d ec75 6d3e 913a 89be
000001a0: 38de 803e 5cb4 083e 8634 a13c ef01 8c3c
000001b0: 59c3 c93d ed18 b0bd 3e5f 5ebe fba2 16be
000001c0: 3545 0fbd 752d b93d f8be 86bd e313 a4bc
000001d0: 7836 9e3d 1012 edbd 9d13 743c a2de 2c3e
000001e0: a64b 02be d7be 7fbd 72ae 45be 4739 3e3c
000001f0: ca46 21be 4e16 d9bc 04a4 133d c7fe c4bd
00000200: 0c0d 1dbc a6c5 af3d 0909 453e 3f71 7c3d
00000210: efd2 a03d b313 0fbd c5af 1abd 1952 013d
00000220: 46ec fcbd 0f02 acbd 6e85 77be de77 c03d
00000230: 02b0 07bd e6d5 a23d 4df1 6c3d 7b23 f3bd
00000240: 4e03 1b3e 17cd 1d3d bcb2 563c c9ff 453d
00000250: a15a 213e 9739 90bd a0a6 6cbd 64e8 44bd
00000260: 18b0 41be 2703 903c 5f0c 693d 3343 95bd
00000270: 3423 2a3e af6a 333e 95ce 8a3e f39a a63e
00000280: bfa9 4ebc 2bba a7bd 8ded 7e3d 37b9 1a3e
00000290: 9857 99bd cf19 cb3c b62b 1e3e 6980 4f3e
000002a0: a072 213e 9677 813d c0c1 88bd d4ba 54bd
000002b0: 3722 9dbd a24b 7d3c a2c0 e13c 85b3 86bd
000002c0: 4029 003e 7892 3b3e f00b 9cbd b01c f23c
000002d0: d521 143e 681a 373e a6ac 233e b12c 48bd
000002e0: 61e5 093d 85b2 fe3d 50b4 e3bd 78f1 01bc
000002f0: b613 b33d c563 59be 5fee d7bd 50a8 a1be
00000300: 2b4b 24be bcc6 013e 1223 1ebe 60c2 1abe
00000310: 3b9e 793e 13b5 a13d ee81 ddbd 55c4 c63d
00000320: a65a 1ebe fe74 0abe b3f3 b5bd 1b50 423e
00000330: d48c 853c 113e bebd 489c cdbd 5707 77bd
00000340: 69f8 2fbd 88d9 993a 7cff 1dbd e8de 143b
00000350: c447 24be c255 ca3c 102c eebd 6407 9bbe
00000360: 04c7 833b dc66 d6bd 1888 2a3e 317f 2e3d
00000370: e33b e9bd 1a88 ae3c a9d3 0f3e b945 67be
00000380: 0af7 62bd 0b22 463e 73a0 2dbe ffc3 11be
00000390: 691b 783b ad5a dbbd 9003 6d3e 6f0f c53e
000003a0: b70d fe3d 143a 40be 46f2 0cbe 7e3f 883d
000003b0: 2fbe d73c 5751 fe3c 5289 92bc 58d1 803d
000003c0: 8447 623d 76a6 fdbd c145 693d 1874 873e
000003d0: 4664 43be f0d2 dbbc e20d ac3d 350f 0b3e
000003e0: 3d09 0d3e ea78 bfbd f4e2 a5bc efeb 05be
000003f0: 74a2 cfbd 55cc fb3d d455 89be 9543 1fbe
-0.06473493 -0.027689263 0.078861706 0.08543643 -0.05452755 -0.0046540154 0.102044515 0.19175346
-0.043946654 -0.10177098 0.12706594 -0.023210423 -0.18509793 0.030800775 -0.204873 0.015967455
-0.006507238 -0.11757249 -0.07115479 0.010261801 0.017120877 0.06707647 0.038707696 -0.09771595
0.110011324 0.17802916 -0.11428156 -0.12114854 0.018139988 0.010442237 0.14191628 0.05179595
0.11275628 -0.067096375 -0.18457942 -0.12605414 -0.13655664 0.013780921 0.03796294 -0.04758965
0.104240656 0.13207714 -0.021183219 -0.0056642443 0.12496103 0.0733896 -0.14459245 -0.13878544
0.12117884 -0.016962633 0.006834693 0.058346286 0.19078185 -0.11931433 0.096469894 -0.01786851
-0.049499445 0.05777641 -0.12141211 -0.15755 0.20623207 0.08433106 0.06532595 -0.16418569
0.030031525 -0.057954997 0.069068566 -0.07412404 -0.089572914 -0.07900929 0.0049444013 0.22275248
0.027871024 -0.043316517 0.10802591 -0.05318366 -0.22710513 0.05551728 0.028512457 -0.034925617
-0.08824142 0.17089476 0.19903791 -0.03719553 0.14286916 -0.0049989745 0.015951239 -0.058954198
-0.053195935 0.0095942775 0.08148133 -0.021998 -0.014865522 -0.006496647 -0.028292548 -0.062498126
0.18263133 -0.13602297 -0.029448874 0.17402561 0.07249463 0.039936326 0.23189515 -0.26802495
0.2516954 0.13350052 0.019678365 0.017090766 0.09851713 -0.08598504 -0.2171602 -0.1471061
-0.03497811 0.09041873 -0.06579393 -0.020029014 0.07725233 -0.11575711 0.014897254 0.16881803
-0.1272417 -0.06243786 -0.19304827 0.011610336 -0.1574966 -0.026499894 0.03604509 -0.096189074
-0.00958563 0.0858262 0.19241728 0.061631437 0.078527324 -0.034930896 -0.037765283 0.031572435
-0.12349753 -0.0839883 -0.24171993 0.09397863 -0.03312684 0.07950954 0.05784731 -0.11872002
0.1513798 0.038525667 0.013104137 0.04833964 0.15757228 -0.070422344 -0.057776093 -0.048073187
-0.1891483 0.017579628 0.056896564 -0.07288208 0.16614991 0.17521165 0.27110735 0.32540092
-0.012613713 -0.081898056 0.062238265 0.15109716 -0.0748741 0.02479258 0.15446362 0.20263828
0.15766382 0.06321637 -0.0667758 -0.051935986 -0.076725416 0.015459927 0.027557675 -0.065772094
0.12515736 0.18317592 -0.076194644 0.029554695 0.14466031 0.17881167 0.15983829 -0.048870746
0.03366602 0.12436394 -0.11118376 -0.007931106 0.08743994 -0.21229465 -0.105435126 -0.31573725
-0.160443 0.12673467 -0.15443066 -0.1511321 0.24376766 0.07895865 -0.10815798 0.09705416
-0.15464267 -0.13521191 -0.088843726 0.1897587 0.016302504 -0.09289182 -0.10039574 -0.060309734
-0.04296151 0.0011737803 -0.038573727 0.002271587 -0.16043001 0.024699096 -0.11629498 -0.30279076
0.0040215272 -0.104688376 0.16653478 0.042601768 -0.113883756 0.021305133 0.14045586 -0.22585191
-0.055411376 0.19348924 -0.16955738 -0.14234923 0.0037858135 -0.107106544 0.2314589 0.38488337
0.1240496 -0.18772155 -0.13764295 0.06652735 0.026335804 0.031044645 -0.017887745 0.06289929
0.055243984 -0.123852655 0.056951288 0.2645576 -0.1908122 -0.026833981 0.084010854 0.1358002
0.13773055 -0.093492344 -0.020249821 -0.13078283 -0.10138407 0.122948326 -0.26823294 -0.15553124

G.0.linears.0.bias f4 [32]
00000000: 0f95 13bc 0612 b3bc 6445 e6b9 a586 89bc
00000010: fc75 683b 3940 3a3c e757 9dbd aa30 28bd
00000020: 3488 073d 16be 92bd dca9 19bd a4da dd3c
00000030: 1040 6cbd 32d0 15bd ea86 a2bc 9bd3 623d
00000040: 070f 0d3e 3bcd f33d d6a7 c5bd 9e28 da3b
00000050: e0fc 173c 5bcd 013e 03ca 32be aed9 56bc
00000060: 9130 2b3e 7c9b b63d c2e3 6dbc 4255 a03d
00000070: ede9 70bd ba79 05be d250 09bd 04e6 1eba
-0.009007706 -0.02185918 -0.0004392072 -0.016787836 0.0035470715 0.011367851 -0.07682782 -0.041062035
0.033088878 -0.07165162 -0.037515506 0.027081795 -0.057678282 -0.036575504 -0.019839723 0.055377584
0.13775264 0.11904379 -0.09651153 0.006657674 0.009276599 0.12675993 -0.17459874 -0.013113422
0.16717745 0.08916375 -0.014519634 0.07828762 -0.05881684 -0.13034716 -0.033524342 -0.00060614967

G.0.linears.1.weight f4 [32, 32]
00000000: 30c4 b33c a4a8 b43c fdf1 0dbd de35 5c3d
00000010: 49a9 963d f972 bd3e 5e5c fbbd 5a22 c83c
00000020: b10b 9d3d d474 49be 558a e23c 76b4 c7bd
00000030: 18ae 9fbd d577 b73d e359 2fbe 4ffa 36bd
00000040: a7ea fb3c 14e1 863b 4708 a03d 015e 76bd
00000050: c288 31bd 5b01 973d 7db5 143e 3f34 7f3d
00000060: 9d71 bc3d 998c f03d 8d64 683e 60b6 273d
00000070: dd34 563e 04e2 efbc c2e6 8e3d f441 713d
00000080: 382e 67bc 2ff9 883d da0b 9e3e 35eb 113e
00000090: 3f7d 133e e229 dfbc 5ced a7bd 4093 303e
000000a0: 7f54 493c 53fa f8bb cd0e 0e3e 88e9 963c
000000b0: b9ba bfbd 7472 9fbc 00fc e93d 29f8 a1bd
000000c0: f9de 25be d879 e9bc 1926 0cbd b85d 6cbe
000000d0: 6acd d6bd 39e0 3c3d a4ff a9bd 39a2 1ebd
000000e0: c957 50bd 8c52 84bb d34c 803e 60bc 97bd
000000f0: a0de ec3c 245e 6e3e 6e47 bfbd abed 7abd
00000100: 1f8d 8abe 5c6f 56bc 824f 8d3d 5dcc 933d
00000110: 4b08 ed3c 71ee 26bb 8ba1 fc3d a8c3 553e
00000120: 9c1c c23d 0594 ef3b 60bd a93d 9f4f 67bd
00000130: 10a4 993b 9955 07be 4d42 e93d 0767 673d
00000140: 2a62 7dbe 80fd 55be 7e89 e23c 6455 9cbe
00000150: 05eb fcbc 970e 1d3d c50b 123e 87b0 f33d
00000160: edd3 a2bd c318 b2bd 46ed 8e3d 4860 c6bd
00000170: 70f1 4e3e d235 6c3d 4dd2 88bd 84f2 9b3a
00000180: 90c3 203e 786a d3bd 7c9c a03d 5949 893d
00000190: c4c6 0b3e 7d24 963d e27b 7fbd db42 ed3d
000001a0: 4ac4 c53d bad7 123b 7e9f aa3d c6af 7dbe
000001b0: 100d 68be 4677 0f3e a67b 2a3e b7e1 ecbd
000001c0: cd17 ffbd 4dbc 5ebe 8481 0d3e 9659 48bd
000001d0: dc1c 69bd 9718 86be da7c 533d 7536 883d
000001e0: b064 64be 5c1d 2b3e a11a 333e 3272 b7bc
000001f0: fa35 d53c a13c 433c 07f6 0fbe 2be7 87be
00000200: 653a 613d 2029 0b3e d92e d1bd cd8b 38be
00000210: 84f7 76be 62fd 0bbe f853 9f3c e245 febd
00000220: fde2 743d 902c 3cbc 7234 18be 16f4 113e
00000230: 78de 4bba 1bcb f03a c616 86be 20dc cd3d
00000240: 5015 163e fd35 4abe 955e 063d 8bec 2a3e
00000250: 0193 bd3c 45f3 1a3e 7fbf 70bd 2bbf 3abe
00000260: 8173 7f3e 0980 123e a814 53bd a0f9 223e
00000270: 74b1 b93d ca8d 87be 6224 693e 64a1 203e
00000280: 50ec 0c3d 6cb6 8abb 7ca2 373e c958 593e
00000290: a4e2 5a3d 9e99 1f3e 61b8 bfbc e4e5 1dbe
000002a0: 78dc 713e d4bd 4d3d b408 fe3d 5445 88bd
000002b0: 58a3 1fbe 3f1e 5c3d f67b 003e bec7 c33d
000002c0: d67f 0b3d 2db9 7ebd f377 303e 3bcc b2bc
000002d0: a1cb 353d e7fd 3d3d f208 8a3c a001 3c3e
000002e0: 63f3 6ebc f28a 7bbd e498 2d3e 581e 86be
000002f0: 4e02 063d 221c 563d c21f 1abe 8835 043d
00000300: adbd 49bd e06c 88bd 6c7c c5bd 874c 69bd
00000310: 4208 673e 8419 973d 86a2 e63d 913f 883d
00000320: d962 fe3d e22e edbd ee0a 673b dfa2 92be
00000330: 5b36 95bd 5416 dd3c 43ed 543e 4a73 ecbd
00000340: 51f6 aabd 4042 66be 2937 943d 4427 15be
00000350: 210a d7bc 41e8 30be 5d7b 463e ffbb c43d
00000360: af87 86bd 48da 1c3e 98e3 823d 4e1d 93bd
00000370: b133 7fbc de43 2e3e 920d a5bd 0425 48bb
00000380: 78d6 803c b384 8f3c b1bb 84bd ebc4 eb3d
00000390: f38d 083e 63de edbc 25b3 1ebd 2c85 623d
000003a0: 91a2 d13b a87d 87bd df3f 5dbd c23f 003d
000003b0: ef8d ffbd fcf3 b93d 9c5f 2b3d 8711 453e
000003c0: 1db7 f8bd 98fe 193d 8559 6f3c 857f 05be
000003d0: b251 30be 777d 52be d32b 063d d7eb 4bbd
000003e0: 4743 d63c e1b8 0e3e 0c21 823d 8faf afbd
000003f0: a59d 8e3d ab18 8ebb 0b41 bcbd 0c96 12be
0.021944135 0.02205307 -0.034654606 0.05376231 0.07356507 0.3700178 -0.12273477 0.024430443
0.076682456 -0.19673473 0.027653852 -0.09751217 -0.077968776 0.08958403 -0.17124133 -0.044672307
0.03075154 0.004116187 0.07814079 -0.060148243 -0.043343313 0.073733054 0.14522357 0.062305685
0.092013575 0.11745567 0.22694607 0.04094541 0.20918603 -0.029282577 0.06977607 0.05890079
-0.0141101405 0.06688153 0.30868417 0.1424988 0.14403246 -0.027241651 -0.081995696 0.17243671
0.012288212 -0.0075982003 0.13872834 0.018421903 -0.093617864 -0.019463755 0.11425018 -0.07908661
-0.16198339 -0.028500482 -0.03421602 -0.23082626 -0.104883984 0.046112273 -0.08300713 -0.038728926
-0.05086497 -0.0040381607 0.25058612 -0.074089766 0.02891475 0.232781 -0.09339796 -0.061261814
-0.27060792 -0.013088074 0.068999305 0.072167136 0.028934618 -0.0025471712 0.123354994 0.20875418
0.09478113 0.0073113465 0.082880735 -0.056472417 0.004688747 -0.13216247 0.11389599 0.05649474
-0.24744478 -0.20897484 0.027653452 -0.30533898 -0.030873785 0.038343992 0.14262302 0.11898904
-0.07950578 -0.08696129 0.0697885 -0.09686333 0.20209289 0.057668515 -0.06680737 0.0011897837
0.15699601 -0.10323042 0.07842347 0.06703443 0.13650042 0.07331178 -0.062374003 0.11585017
0.0965658 0.0022406415 0.08331202 -0.24774083 -0.22661233 0.14010343 0.1664873 -0.11566489
-0.124557115 -0.21751519 0.13818938 -0.04891356 -0.056912288 -0.26190636 0.05163274 0.06651012
-0.22304034 0.16710418 0.17490627 -0.02239332 0.026026715 0.0119163105 -0.14058696 -0.26543555
0.05498733 0.13589907 -0.102140136 -0.1802208 -0.24117857 -0.13670877 0.01944922 -0.12415673
0.059786785 -0.011485234 -0.14863756 0.14253268 -0.0007776986 0.0018371077 -0.2618925 0.10051751
0.14656568 -0.19747157 0.032805044 0.16691796 0.023141386 0.15131862 -0.058776375 -0.18236987
0.24946405 0.14306654 -0.05153337 0.15915537 0.090670496 -0.26475364 0.22767785 0.15686566
0.034405053 -0.004233172 0.17933077 0.21225275 0.053438798 0.15585944 -0.023403348 -0.15419728
0.23619258 0.050229862 0.12404004 -0.06653848 -0.15589654 0.053739782 0.12547287 0.09559582
0.03405746 -0.062188316 0.17233257 -0.0218259 0.04438365 0.04638472 0.016849969 0.18359995
-0.014584395 -0.061411805 0.16952854 -0.26195025 0.03271704 0.052272923 -0.15051177 0.032277614
-0.049253155 -0.06661391 -0.09642872 -0.056957748 0.22561744 0.073779136 0.11261468 0.06652749
0.124211974 -0.11581208 0.0035254317 -0.28639886 -0.07285758 0.026988186 0.20793633 -0.11545427
-0.083477624 -0.2248621 0.072370835 -0.1456576 -0.026249947 -0.17276098 0.19382997 0.0960617
-0.06568848 0.15317643 0.06391066 -0.07183324 -0.015576289 0.17018077 -0.08059229 -0.003053964
0.015727267 0.01751933 -0.06481112 0.115121685 0.133354 -0.029036706 -0.038745064 0.055302784
0.0063975533 -0.06615764 -0.05401599 0.031310804 -0.124782436 0.090797395 0.041839227 0.19244967
-0.12144301 0.037596315 0.014608745 -0.13036926 -0.17218664 -0.20555674 0.032756638 -0.04978546
0.026155127 0.13937713 0.063539594 -0.08578407 0.06963662 -0.0043364367 -0.091920935 -0.14315051

G.0.linears.1.bias f4 [32]
00000000: d4b3 19bd b4e5 143a 024d 27bd fe34 68bd
00000010: d541 3fbc 32ee 29bd 65cb f6bd fdad 063d
00000020: ee19 103d 0678 cebd 0a94 a23a 1817 593c
00000030: c1fe afbd ca93 ad3d d610 41bd 05eb 503d
00000040: 60fa d6bb 71de cbbb a273 f8bc 4485 d43d
00000050: 01a0 d33d 20f2 fd3d 44f6 29bd fc71 91bd
00000060: 801f 08bd 00b9 8b3c c31f 3e3c d577 d43d
00000070: dd46 c73d 1f1e 9fbd bcf9 573d 7681 da3c
-0.037525013 0.00056799804 -0.040844925 -0.056691162 -0.01167341 -0.041486926 -0.12050513 0.032880772
0.03518098 -0.100814864 0.0012403738 0.013250135 -0.08593512 0.08475454 -0.047135197 0.051005382
-0.0065606087 -0.0062215854 -0.030328576 0.10376981 0.10333253 0.12399697 -0.041494623 -0.07101819
-0.033233166 0.017055988 0.011604252 0.10374419 0.09730313 -0.07769417 0.0527284 0.02667306

G.0.linears.2.weight f4 [10, 32]
00000000: ddd5 00bd d1f6 2cbd 7634 0c3e 14a4 a63d
00000010: 8145 1bbd 67d4 bd3d bb6c a33d 937c 243d
00000020: b878 823e 3460 843b cb6d cb3d 5ae5 6abd
00000030: 09d3 003e 4840 983d be9f 2cbe 1554 d9bd
00000040: 5289 2dbe 3a5d ccbd 96e7 59be 6f9d c43c
00000050: 73b9 923c 1967 e0bd fa2b bdbd 8f47 863e
00000060: 093b 28bd 1c92 b8bd 9a0e 0cba 0fb4 0e3e
00000070: 6427 203e b0b9 b03c 1db7 6c3d e84b c6bd
00000080: 6618 53be 1067 84b8 050c 09be 1ba9 b1bd
00000090: 48bd d13d 223b edbc a3dd 413e 11e8 fabd
000000a0: 6df0 c23d 50f9 66be da5a ce3d 1812 b7bd
000000b0: ee04 60be cee4 2e3d 50b2 513d e188 1c3e
000000c0: c388 3a3d 365b c1bd 8c3b 5a3e 3f6d e83c
000000d0: c3e8 0dbd 13bf d63d c78f 723c 2baf 84bd
000000e0: 7cb1 1e3d ef58 6abe 8e6b 26bd 7723 ea3c
000000f0: bc39 7b3e b2e8 a7bd 6906 8b3d 2780 12bd
00000100: a2ef 9ebd 3edc 83be 0f09 39be 2f9b 1cbe
00000110: 434c 273e 4b7e 35bd ed72 79be 68e3 2abd
00000120: 9d8d febd a306 bbbd d844 d63d 4400 e0bd
00000130: bbd7 96be c9e6 8b3d 2e4a ae3d 830c 39be
00000140: ad9b fd3d 2ee2 b23d 1ee9 313e 26d2 5f3d
00000150: f08f ed3d df92 363e 74fc 96bc a56d 92bd
00000160: 4a74 38bb 5e85 13be 0ba7 d93c bf82 933d
00000170: 97b7 323d df92 67be 58a9 6c3d 6842 923e
00000180: 8a64 f03c eed9 923d 4d02 043c 74f9 f6bb
00000190: 4c20 f23d 228a 5abe dcf9 b83c 7b29 953d
000001a0: b62d 2e3b ad75 c5bd 5794 76bd 68c3 8fbd
000001b0: c7cb 22bd 2a80 3fbd 7d92 983d 24ce ae3c
000001c0: 7428 ef3d ce94 b43c 11b7 a83d 6834 473e
000001d0: f55f 8f3d b299 023d daa5 043c 6c80 8c3b
000001e0: 5ee7 81bd 5849 44bc 32c8 a33c 02c6 2f3e
000001f0: 3521 743e 22be 4a3e f50b cfbb 5b71 0e3d
00000200: 751d 8f3d 967f a43c b23a 5ebc 6a35 653c
00000210: 2a65 e83c 1ca7 4abe e112 32bd ed93 77bd
00000220: ecc9 2bbc d282 15be f5dc 263d 7c19 1f3e
00000230: 1921 4cbd 1da8 203d 623c 033d 8705 83bd
00000240: 011c 443e 0a8c 813d 1d96 a93d 32d5 063d
00000250: 76bd 3b3d 65b8 fb3c d526 2d3e 4bc3 adbc
00000260: 7cb7 023e 8838 16bd d19a 083e 100b 45bd
00000270: f3b2 063e 26a4 b9bd c4d1 9f3d 663f ce3c
00000280: 40a5 90bc 05b0 c2bd 4abd e03c 6be4 78bd
00000290: e145 29be 4fd0 99bc 63e3 cebc c907 003e
000002a0: 5b5a d73d 8dfd 2ebd 455f bdbc a10a 3d3d
000002b0: 9457 8dbd 310f e63d b051 01bc 33e6 0f3d
000002c0: acae 24be 6a49 79bd 48f5 0dbe cda9 f4bc
000002d0: 21c7 80bd e467 c53c 8c12 a4bd 1705 083e
000002e0: 8fb7 8bbd 4d6c 27bd 21d1 5a3d ee16 6a3d
000002f0: 13d4 2abe f859 aebd 7768 a03d b83a 5ebd
00000300: ade6 0fbe 9a81 52bd 2f71 e13d d07e 0d3e
00000310: 78be 9cbd 581f a43c c1f7 6fbc 5abd 53bd
00000320: 21a5 04bd 223f bfbc 24f5 c9bc b45f f8bd
00000330: 090a 483d 4720 f33d 277d 44be 165a 593b
00000340: f59e 203d 432b 193e 00e0 b7bb 8917 3bbe
00000350: 1291 b53d 05da 163c a5c6 3ebe 971e ee3d
00000360: 0bb4 163e 2b35 13be 8a04 88be bc76 1e3e
00000370: 0516 7ebc a552 663d a242 c53c f49d 05be
00000380: 8ac6 86bd 8ffc 92bd 1c76 683b 5a04 4abe
00000390: ace0 94bd 295c 58be 3cfd 493d cf39 913d
000003a0: 6892 3ebc 8e9a 26be 7561 4c3e 41e6 383e
000003b0: 2968 8bbd 0ce6 353c b8de a23c d06f 9f3d
000003c0: d9cf 1e3e 2465 3c3c 1268 073e 3a42 1dbe
000003d0: 383f 6bbd e095 243e 8898 743e e499 ca3d
000003e0: 3b8e a8bd f771 b2bd cbb0 db3d 9641 2ebd
000003f0: c01f 2c3e 5e6f 14be 2c90 073e ee29 6e3d
-0.031453956 -0.04222757 0.13691887 0.08136764 -0.03790808 0.09269028 0.07979723 0.040157866
0.25482726 0.0040397886 0.09933051 -0.057347633 0.12580504 0.07434136 -0.16857812 -0.106117405
-0.16946915 -0.09978719 -0.2127975 0.024000851 0.017910695 -0.10957164 -0.092369035 0.2622647
-0.041071925 -0.09012243 -0.0005342752 0.13935874 0.15640026 0.021572918 0.057791818 -0.09682447
-0.20614776 -6.3134474e-05 -0.13383491 -0.086748324 0.10241181 -0.02895886 0.18932204 -0.122512944
0.09518514 -0.22556043 0.10075922 -0.08938998 -0.2187688 0.042698674 0.051195443 0.1528659
0.045540582 -0.09441225 0.21311778 0.028372405 -0.034645807 0.10485663 0.014804787 -0.06478723
0.03874348 -0.22885488 -0.040629916 0.028581364 0.24533743 -0.0819868 0.06788332 -0.035766747
-0.0776055 -0.2575397 -0.18069862 -0.15293573 0.16337685 -0.044309895 -0.24360247 -0.041720778
-0.12429354 -0.09132125 0.1046235 -0.10937551 -0.29461464 0.06831128 0.085102424 -0.18071179
0.123832084 0.087345466 0.17374083 0.054643773 0.115997195 0.17829464 -0.018430926 -0.07149819
-0.0028145486 -0.14406344 0.02656891 0.07202672 0.043632116 -0.2261462 0.057778686 0.2856629
0.029344816 0.07170473 0.008057189 -0.0075370613 0.118225664 -0.21341756 0.02258008 0.072833024
0.0026577539 -0.096415855 -0.06020006 -0.07019693 -0.03974512 -0.046753086 0.074498154 0.02133853
0.11677638 0.022043612 0.08238042 0.19453585 0.07000724 0.031884857 0.008096183 0.00428777
-0.06342958 -0.011980377 0.019992922 0.17165378 0.23840792 0.19799092 -0.006318564 0.034776073
0.0698804 0.020080369 -0.013563799 0.013989786 0.028368551 -0.1979031 -0.043475036 -0.060443807
-0.010485154 -0.14600685 0.040738065 0.15537065 -0.049836252 0.039222825 0.032040007 -0.06397539
0.19151308 0.063255385 0.08280585 0.032918163 0.04583498 0.030727575 0.16909344 -0.021211287
0.12765306 -0.036675006 0.13340308 -0.048106253 0.13154201 -0.09064512 0.078036815 0.025176715
-0.017656922 -0.09506229 0.02743401 -0.06076471 -0.16530563 -0.018776087 -0.02525491 0.1250297
0.10515281 -0.042722274 -0.023116717 0.046152715 -0.0690147 0.11233366 -0.007893011 0.035131644
-0.16082257 -0.06086103 -0.13863099 -0.029866124 -0.06287981 0.02409739 -0.0801135 0.13283192
-0.068221204 -0.040874768 0.053422097 0.057150774 -0.16682462 -0.08513254 0.07832425 -0.054255217
-0.1405284 -0.05139313 0.11007916 0.13817906 -0.076535165 0.020034477 -0.0146464715 -0.05169425
-0.03238404 -0.023345534 -0.024653025 -0.12127629 0.048837695 0.11871391 -0.19188367 0.0033165268
0.039214093 0.1495791 -0.0056114197 -0.18270697 0.088655606 0.009207253 -0.18630464 0.11626928
0.14717118 -0.1437575 -0.26565963 0.15474981 -0.01550818 0.05623116 0.024079625 -0.13048536
-0.06580837 -0.07177078 0.003547079 -0.19728222 -0.07269415 -0.21128906 0.04931377 0.07091104
-0.011631586 -0.16269895 0.19959052 0.18056585 -0.06806976 0.011102211 0.019881591 0.077849984
0.15508975 0.011498723 0.13223293 -0.15357295 -0.057433337 0.16072798 0.23886311 0.098926336
-0.08230253 -0.08713143 0.1072708 -0.042543016 0.16808987 -0.14495608 0.13238591 0.058145456

G.0.linears.2.bias f4 [10]
00000000: bc30 adbd be0b 95bc 2e23 053e 2c2f cbbc
00000010: 7451 153e 8188 9ebd 9f28 5cbd cee1 a33d
00000020: 2dd5 83bd 94ce 013e
-0.08456561 -0.018194076 0.13001701 -0.024802767 0.14581853 -0.0774088 -0.053749677 0.08002053
-0.064371444 0.1267646

L.0.linears.0.weight f4 [32, 20]
00000000: 85e5 ae3d bd05 9b3d dadf 55bc eb6c cbbc
00000010: af95 ab3d 64d6 1d3e ec06 15bc 26c0 0cbd
00000020: 9bab aa3d 08a4 fd3c a6f9 153d 76e2 1e3e
00000030: 43f4 7b3e a360 e73c e6dd 6c3d f085 0c3e
00000040: 8e85 d8bd 6fce d2bd 9393 41be ec59 8cbd
00000050: 0574 423e cd75 3dbe fe3e 9b3d 8cb2 14bd
00000060: c25f 07be ef3d 233c 4b85 0dbe da62 9cbd
00000070: b993 573d cd7d 973d cd64 e23d 75f0 423a
00000080: dd16 a53d 6da5 d4bd 78c1 7fba f638 c9bd
00000090: 3661 223d 996f 07bd 3d90 babd 0220 d63c
000000a0: acc4 183e 4b1b fb3d 0b41 90bd 95ba e8bc
000000b0: 4bdb 59be 6d81 ca3d fd1e 903d b42a c3bd
000000c0: cf98 5fbe 9c2b 28bd 810e a93c 1730 f33d
000000d0: 86a6 4e3e 7608 1b3d 1eb2 913d 9138 913c
000000e0: ae1f 783d bff4 78be 60d0 653d 5740 ca3d
000000f0: 6d3e 41bd c586 cbbd 3a58 96bc 213f 7e3c
00000100: 92ff e2bc 9fa6 e4bd 9956 b039 4a9c a33d
00000110: b6aa 583d d6e2 6bbd 4c4b 21bd 82fd b6bc
00000120: b7d0 48be a51a 4dbe 3367 343e 55a9 08be
00000130: 5ec5 91bd db03 d5bc bab5 403e 5e87 a3bd
00000140: 5767 96bd e7eb 063d 52b2 eb3d 51d2 68bd
00000150: 7ed1 83bd 0e77 95bc 7888 51bd 292d 22be
00000160: 9b3f abbd 45f8 7f3c 9b8f aa3d 7f8f 6c3c
00000170: e6c6 a23d c633 82bb 65c9 bb3c bd33 133e
00000180: 6056 8939 8a72 943c 8139 03bd 128c a4bd
00000190: 56a6 bebd a1c7 c3bd eab9 25be 270c 98bc
000001a0: f652 c8be 6096 1dbe 3d1f 193e eeb5 b13d
000001b0: cc4d af3d 7c09 8c3b 4f2f 9fbd 5796 56bd
000001c0: ca4e f4bd 620e 973c 1677 05be c331 b0bd
000001d0: d851 63be bb28 b2bd 77d1 bdbd 6eae 173e
000001e0: 5360 393e 63ba 08bc f15f 2dbd 29b2 fcbd
000001f0: 435c 11be f522 5abe 7196 543e 51ba 80bd
00000200: 5976 153d 69d3 9e3c e7ab 83bd 14ea f73d
00000210: 5c2a 463e babe 75bd 246d 04bd 657d 523d
00000220: 166f 70bd 645c bebd 2c82 813d 529b 60bd
00000230: 84d5 0d3d ed55 e63d 2de4 d2bd 971d b8bd
00000240: 4637 f43c a0fc be3d 6e06 953d 7709 edbd
00000250: 2ce9 12be ea49 533c ef7d 083d 5854 e63d
00000260: f465 1b3e ed37 133d 0c2b 313d c603 263c
00000270: 2097 e2bd de68 2a3e 0c48 81bd 207c 8a3c
00000280: c87c 43be 37d3 b3bd 19b6 453e 0402 343e
00000290: f73b 0d3d 4818 0abc 49a2 a0bd d06c 0a3e
000002a0: 26a8 3d3d 90d9 8b3c 683f 4d3e 3185 5e3e
000002b0: cb70 d53d e55e 693d ff1f 2dbd ed25 17be
000002c0: 3b2d 22be c7fd d8bc e5a8 9cbd 516b 183d
000002d0: 34a8 1abe e8a8 3a3d e927 0c3e 9fe7 32be
000002e0: 94e3 d1bb 80af 58bd 439b 07be fd1b eebd
000002f0: 729c 3ebc 6a11 763d 4579 693e 9365 ccbc
00000300: 1d7d 33be 458e cabc b0c1 7ebd 6126 633e
00000310: 0dca ca3c d457 8cbc 59df 0abe f854 0cbd
00000320: 94a0 6abd 32fa 2f3e d53f 743d 25ea 8dbd
00000330: 0a3b c83b 17c6 d43d 5ce3 9dbd fcba 30bd
00000340: 3165 b6bd 8223 30be f346 d0bd 350c c23d
00000350: 1fdf 113e 7bcd ecbd c8ed 72bd 476d 5ebd
00000360: bc59 6dbc d20d 14be c618 143e ac42 b3bd
00000370: 50dd 85bd 9f98 62bd 61f7 993d 1b96 71bd
00000380: e058 1cbd de04 c73d c32e 81bd e0f3 81bd
00000390: ccc2 e03d 16b7 3f3e 104b 303c 565f 61be
000003a0: 0df7 04be 66f5 27be 9d18 2b3e 6189 773d
000003b0: 2bd0 da3d 33d6 9b3d df81 473c c3a1 f43d
000003c0: c9b5 443c bf95 edbd 6dfb 5a3d 589f 683e
000003d0: 2eac afbd b69f 0abe 6353 28bd dbdc eabc
000003e0: 6f4e c63d 2561 5a3d c327 c0bd ff62 dcbd
000003f0: a669 c0bd a47c c239 ea4b 033a 4067 1abd
0.08539871 0.07569454 -0.013053859 -0.02483221 0.08378159 0.15413815 -0.009095889 -0.034362935
0.083335124 0.030962005 0.036615036 0.15516075 0.24604897 0.028244322 0.057828806 0.13722968
-0.105723485 -0.1029328 -0.18903951 -0.06853089 0.1898957 -0.18501969 0.07580374 -0.036303088
-0.13220122 0.009963497 -0.13820378 -0.07636042 0.052631114 0.073970415 0.110543825 0.00074363436
0.080610014 -0.10383115 -0.0009756307 -0.098253176 0.03964349 -0.033065412 -0.091095425 0.02613831
0.14918774 0.12261065 -0.07043656 -0.028409282 -0.2127506 0.09887967 0.070371605 -0.09529629
-0.21835636 -0.041057214 0.020636799 0.11874407 0.20180711 0.037849866 0.07114051 0.017727168
0.060577087 -0.24312113 0.056106925 0.09875553 -0.047178674 -0.099378146 -0.018352617 0.015517981
-0.027709756 -0.11164593 0.00033633856 0.07988794 0.052897178 -0.057589374 -0.03937845 -0.022337679
-0.19610868 -0.20029695 0.17617492 -0.13345845 -0.07117723 -0.026002815 0.18819323 -0.079848036
-0.07343929 0.032939818 0.11508621 -0.0568412 -0.06436442 -0.018245246 -0.051155537 -0.1583754
-0.08361741 0.015623157 0.08328172 0.014438509 0.07948093 -0.003973457 0.02292318 0.14375205
0.0002619503 0.018121023 -0.032037262 -0.08034529 -0.0930907 -0.095595606 -0.16184202 -0.018560482
-0.39125794 -0.15389395 0.14953323 0.086772785 0.085597605 0.0042735916 -0.07772695 -0.05238947
-0.1192909 0.018439475 -0.13033709 -0.08603241 -0.2219919 -0.08699175 -0.09268468 0.14812633
0.18103151 -0.008345219 -0.042327825 -0.12338669 -0.14195351 -0.21302398 0.20760514 -0.06285537
0.03648982 0.019387918 -0.06429272 0.12105194 0.19352096 -0.059996344 -0.032330647 0.051389117
-0.05869969 -0.09294966 0.063236564 -0.054835625 0.034627452 0.11246858 -0.10297427 -0.08990019
0.029811513 0.09325528 0.07276617 -0.11574071 -0.1434676 0.01289604 0.033323225 0.11246556
0.15175611 0.035942007 0.043253943 0.010132736 -0.11063981 0.16641566 -0.0631257 0.01690489
-0.19090569 -0.087805204 0.19307746 0.17578894 0.034481015 -0.008428641 -0.078434534 0.13518071
0.046302937 0.017071515 0.20043719 0.21730496 0.10421904 0.056975264 -0.042266842 -0.14760561
-0.15837567 -0.026488198 -0.076494016 0.03721172 -0.15103227 0.045571238 0.136871 -0.17471169
-0.0064053033 -0.052901745 -0.13242821 -0.11626432 -0.011633979 0.0600752 0.22800167 -0.024950778
-0.17528196 -0.024726043 -0.062196434 0.22182609 0.024754548 -0.017131723 -0.13561763 -0.03426072
-0.057282045 0.17185286 0.059631187 -0.06929425 0.0061105536 0.10389345 -0.07709381 -0.043147072
-0.089060195 -0.17201045 -0.101697825 0.094749846 0.1424527 -0.1156263 -0.059308797 -0.054303434
-0.014486726 -0.14458397 0.14462575 -0.08752951 -0.06536353 -0.055321332 0.07517887 -0.058981042
-0.038170695 0.09717725 -0.06307747 -0.063453436 0.109746546 0.18722185 0.010760084 -0.22009024
-0.12984867 -0.16402206 0.16708608 0.06043375 0.10684236 0.07609215 0.01217696 0.11944916
0.012006232 -0.116008274 0.053462435 0.22717035 -0.085777625 -0.13537487 -0.04109515 -0.028669765
0.09682929 0.0533153 -0.09382584 -0.107610695 -0.09395151 0.00037095428 0.00050085655 -0.037696123

L.0.linears.0.bias f4 [32]
00000000: f6c1 2e3c cbcf 7a3d e4e2 86bc 0b16 483d
00000010: 5e33 6d3d c4fa e63c 4410 903d 4d87 873c
00000020: ad64 ce3d afb7 abbd 3f83 183d b2cf 2dbc
00000030: cb4d eebb 9bc5 21bd 963f 28bb fcac e63d
00000040: 7dc6 323d 1658 ebbc 71ff 023e b061 863d
00000050: 91a2 9d3d 3484 a3bd b5d0 183c e6ec 85bb
00000060: ab7f d5bc b06c 9fbb a626 00be 8b77 1ebd
00000070: f6e3 533d fbf3 29bd 9a7d 07bd db6a cfbd
0.010666361 0.061233323 -0.016465612 0.048849147 0.057910316 0.028195746 0.070343524 0.016544009
0.10077796 -0.08384644 0.03723454 -0.0106086 -0.0072724572 -0.039495092 -0.0025672666 0.11263463
0.043646324 -0.028728526 0.12792756 0.06561601 0.07697023 -0.079842 0.009327103 -0.0040870784
-0.026061853 -0.0048652515 -0.12514743 -0.038688224 0.051731072 -0.041492444 -0.033078767 -0.10127803
