para_save/00082params.pth (torch, 118145 bytes, 76 tensors)

F.linears.0.weight f4 [32, 20]
0	0xbcee610e	-0.029099014
1	0xbd64186c	-0.055687353
2	0xbe2abefd	-0.16674419
3	0x3cc10e73	0.02356646
4	0xbd7e9afc	-0.062159523
5	0xbc95aac7	-0.01826991
6	0xbe20187a	-0.15634337
7	0x3db57646	0.088604495
8	0xbde8104d	-0.11331234
9	0xbd5e63f9	-0.05429456
10	0x3b58edbd	0.0033100687
11	0xbd43c91e	-0.047799222
12	0x3d888096	0.06665151
13	0xbe1eb947	-0.15500365
14	0xbc1530c3	-0.009105864
15	0x3c81050c	0.015749477
16	0x3da967a9	0.08271725
17	0x3e101774	0.14071447
18	0xbd8d96bb	-0.06913515
19	0x3dec400a	0.11535652
20	0x3e1f798c	0.1557371
21	0xbdf324cb	-0.11872252
22	0xbca40e19	-0.020026254
23	0xbd81b065	-0.06332473
24	0xbd6b2778	-0.057410687
25	0xbe270d05	-0.1631356
26	0x3c12c29c	0.008957531
27	0x3db56618	0.088573635
28	0x3d25519f	0.040361043
29	0xbc9d2c7b	-0.019186249
30	0x3e26e4c4	0.16298205
31	0xbd39c576	-0.04535433
32	0xbe308dab	-0.17241542
33	0xbc1e8d9a	-0.009677315
34	0x3da00a88	0.07814509
35	0x3d3e1966	0.04641094
36	0x3d2977eb	0.04137413
37	0x3c82cfbb	0.015968194
38	0xbd3e78a0	-0.046501756
39	0x3b4ff686	0.0031732633
40	0xbdfaf575	-0.122538485
41	0x3d4156f5	0.04720207
42	0xbda288e2	-0.079362646
43	0xbe60d921	-0.21957828
44	0xbe142285	-0.14466293
45	0xbe357455	-0.17720158
46	0x3e1d47a5	0.15359361
47	0x3d9cb4a3	0.07651641
48	0x3e082779	0.13296308
49	0x3cb499e6	0.02204604
50	0x3dcdfa39	0.10057492
51	0xbd82d1ff	-0.0638771
52	0xbd04396f	-0.032281335
53	0xbe43ce55	-0.19121678
54	0x3e015766	0.12630996
55	0x3c9d1541	0.019175174
56	0x3d94cce8	0.07265645
57	0xbe565408	-0.20930493
58	0xbd9ae65f	-0.07563471
59	0x3d104cdf	0.03522956
60	0x3d547e68	0.051878363
61	0xbdef535e	-0.11685823
62	0xbc424954	-0.011858303
63	0xbd3e3e32	-0.046446033
64	0x3e0b55a4	0.13606888
65	0xbd81b4fb	-0.063333474
66	0x3ca3b7d1	0.019985111
67	0xbd076bac	-0.03306167
68	0xbc5df00d	-0.013546002
69	0x3e1b7a7d	0.15183444
70	0xbcd60df4	-0.0261297
71	0xbe1f1100	-0.15533829
72	0xbd99e3f7	-0.07514184
73	0x3c22ed2f	0.009944244
74	0x3ca6cca9	0.020361261
75	0x3dcf2a25	0.1011546
76	0xbbf2d0ba	-0.007410136
77	0x3b8bd52f	0.004267357
78	0xbe374360	-0.17896795
79	0x3d85fcb8	0.06542343
80	0x3dfe5f6c	0.12420544
81	0x3bb9e17e	0.0056726327
82	0xbe2fe7d7	-0.17178284
83	0x3dddee09	0.10836417
84	0x3d34ce97	0.044142332
85	0x3c23650e	0.009972824
86	0x3d1c4704	0.038153663
87	0xbdb141d7	-0.08655136
88	0x3c6cb6d1	0.014447884
89	0x3e22c07e	0.15893742
90	0xbcfc6463	-0.030809587
91	0xbdc23333	-0.09482422
92	0xbe46aed9	-0.19402637
93	0xbddc5d12	-0.10759939
94	0x3e24e0a7	0.16101323
95	0xbccf247a	-0.025285948
96	0x3e49017d	0.19629474
97	0xbce5cb05	-0.028050909
98	0xbe03c6ce	-0.12868807
99	0x3c2d6edd	0.010585514
100	0xbd5b4d8a	-0.053540744
101	0x3e330589	0.1748258
102	0xbe2c77ae	-0.16842529
103	0xbdd62d08	-0.10457808
104	0x3dad6b9a	0.08467789
105	0xbd5ef516	-0.05443295
106	0x3da678f2	0.08128537
107	0x3e48e77e	0.19619557
108	0x3e10a846	0.14126691
109	0xbca83f2c	-0.020537935
110	0x3c9b97ff	0.018993376
111	0xbcf8760f	-0.030329732
112	0xbc89dcc2	-0.016828898
113	0xbcee28e0	-0.029072225
114	0xbcd0b944	-0.025478967
115	0x3d3eb280	0.04655695
116	0x3e502fbe	0.20330712
117	0x3c6630f0	0.014049754
118	0x3d59ed3e	0.053204767
119	0xbd0081c3	-0.03137375
120	0x3e00f91d	0.12595029
121	0x3cd11be8	0.025526002
122	0xbdbe41dd	-0.09289906
123	0xbd3da82f	-0.04630297
124	0x3d3adba4	0.045619622
125	0x3d0dc0e1	0.03460777
126	0x3e48abda	0.19596806
127	0x3d767ac3	0.06017567
128	0x3d77d25c	0.06050335
129	0x3e086b35	0.13322146
130	0x3e189963	0.14902262
131	0x3d73661b	0.059423547
132	0xbd8ecb06	-0.069723174
133	0xbe0afa63	-0.13572077
134	0x3e26480b	0.1623842
135	0x3e10d7b5	0.14144786
136	0xbe33ea55	-0.1756986
137	0xbd01f563	-0.03172816
138	0x3baff0d7	0.0053692865
139	0x3d55cf90	0.0521999
140	0x3de18354	0.11011377
141	0xbd3cdd38	-0.04610941
142	0x3dee6aea	0.11641486
143	0x3d187519	0.037221048
144	0xbc26e941	-0.010187448
145	0x3d548faa	0.05189482
146	0xbd37b718	-0.044852346
147	0x3af2d6ea	0.0018527184
148	0x3d959d71	0.0730542
149	0xbe075ec7	-0.13219748
150	0xbdd70136	-0.10498278
151	0x3daf9d6f	0.0857495
152	0xbc565883	-0.013082626
153	0xbcb288ae	-0.02179369
154	0x3d60f413	0.054920267
155	0x3cb01c21	0.021497788
156	0x3aec1d62	0.0018014128
157	0x3ceb6086	0.02873255
158	0xbe454cf1	-0.19267632
159	0x3dca7b86	0.098868415
160	0xbc82f0b9	-0.015983926
161	0x3e0bce66	0.13652954
162	0x3cc5c88f	0.024143485
163	0x3cb18c58	0.021673366
164	0xbdd45fb0	-0.103698134
165	0x3dda67b7	0.10664313
166	0xbe2d1313	-0.16901807
167	0xbd156112	-0.036469527
168	0xbdf401a8	-0.119143784
169	0x3dc34dbc	0.09536311
170	0x3de479e4	0.11156061
171	0xbe02f8d8	-0.12790239
172	0xbbf4d3ba	-0.007471529
173	0x3c28c60f	0.010301127
174	0xbd898cb4	-0.0671629
175	0x3d5ed090	0.05439812
176	0x3d7df1b0	0.06199807
177	0xbdcb5b56	-0.0992953
178	0xbc5f8d54	-0.013644535
179	0x3e0d9026	0.1382452
180	0x3cc35266	0.023843002
181	0xbd8e6314	-0.069524914
182	0x3dd2c49a	0.10291405
183	0xbd9cf09f	-0.07663082
184	0xbce4ee7b	-0.027945748
185	0xbd4ffa8a	-0.050776042
186	0xbdb4212f	-0.08795392
187	0x3e82cbd7	0.25546142
188	0x3e135a0a	0.14389816
189	0xbdb49e96	-0.0881931
190	0x3bbd5d1e	0.0057789227
191	0x3caf63d2	0.021409903
192	0x3da9d2a6	0.08292131
193	0xbd8afb68	-0.06786233
194	0x3d6c9718	0.05776128
195	0xbd634ea9	-0.055494938
196	0xbdbc2e22	-0.09188487
197	0xbe124fa7	-0.14288197
198	0xbe0c9866	-0.1373001
199	0xbcc5bf16	-0.024138968
200	0x3d4798db	0.04872976
201	0xbc34078e	-0.010988129
202	0x3c5bcbc8	0.013415284
203	0xbc0fb700	-0.008771658
204	0xbdd131be	-0.10214566
205	0x3d33d75d	0.04390656
206	0x3db06ae1	0.086141355
207	0xbda9b2e5	-0.082860745
208	0xbba0640f	-0.0048947404
209	0x3cdbe81d	0.026844079
210	0xbd9eec03	-0.077598594
211	0x3bb5e671	0.0055511524
212	0xbe06eada	-0.13175526
213	0x3c99d25e	0.018777069
214	0x3e2799da	0.16367283
215	0x3d50a9ef	0.05094331
216	0x3e0719f6	0.13193497
217	0xbe252398	-0.16126859
218	0x3d8534de	0.06504224
219	0x3d54502c	0.05183427
220	0xbdbfa9c6	-0.093585536
221	0xbcd0fdee	-0.025511708
222	0xbc5bf2ce	-0.013424588
223	0xbd0336d6	-0.032034718
224	0xbd72d233	-0.059282493
225	0x3d53ba28	0.051691204
226	0x3d9e5e72	0.07732858
227	0xbd7b05bb	-0.061284762
228	0xb980d573	-0.00024573095
229	0xbe499aa0	-0.19687891
230	0x3c258290	0.010101929
231	0xbe735bd4	-0.23765498
232	0x3e19e319	0.15028037
233	0xbd093c39	-0.0335047
234	0xbced72ac	-0.028985344
235	0x3dc168a0	0.09443784
236	0x3cb0641c	0.02153211
237	0xbd43ddbe	-0.04781889
238	0xbe5a9dee	-0.21349308
239	0x3e1c4cd2	0.1526368
240	0x3e085e1a	0.13317147
241	0xbd279cc0	-0.040920973
242	0xbcddda05	-0.027081499
243	0xbd81b9ba	-0.06334253
244	0x3cf0810d	0.029358411
245	0x3e2b8013	0.16748075
246	0x3cdea853	0.027179873
247	0x3d770b89	0.060313735
248	0xbc158537	-0.009125999
249	0xbde42c7b	-0.111412965
250	0x3bb53d62	0.005530999
251	0xbdf106e4	-0.117688924
252	0xbd3b082c	-0.04566209
253	0xbe299eb0	-0.1656444
254	0x3ca1f5d0	0.019770533
255	0xbc176573	-0.009240496

F.linears.0.bias f4 [32]
0	0xbd71380a	-0.058891334
1	0x3cd785bf	0.026308892
2	0x3da25a70	0.07927406
3	0xbdc1cd6a	-0.09463008
4	0xbda689ee	-0.08131777
5	0xbd1b8547	-0.0379689
6	0xbdc0e31f	-0.0941832
7	0x3ceaeead	0.028678263
8	0xbbd7a1b4	-0.006580556
9	0x3daf3c61	0.08556438
10	0xbd6dbd6f	-0.058041986
11	0xbd0c4b8d	-0.03425174
12	0xbcf41f4d	-0.029800082
13	0xbabcea6d	-0.0014413126
14	0xbbfd0478	-0.00772148
15	0x3cac66d6	0.02104513
16	0x3c14fbb1	0.009093211
17	0x3dab901f	0.08377098
18	0x3da6eb6e	0.081503734
19	0x3ce97e36	0.028502565
20	0xbe034d4f	-0.1282246
21	0xbb8dfb66	-0.0043329475
22	0xbdd739aa	-0.105090454
23	0xbd2e0f6d	-0.04249518
24	0xbcc4f54b	-0.024042746
25	0xbbc3c7f5	-0.0059747645
26	0xbd17705f	-0.0369724
27	0xbd20cafe	-0.03925609
28	0x3bc728fc	0.0060778838
29	0xbc249c90	-0.010047093
30	0xbc50a795	-0.012735267
31	0xbae6305d	-0.0017562021

F.linears.1.weight f4 [32, 32]
0	0xbd14b472	-0.0363049
1	0x3de1c2b7	0.11023467
2	0x3ea93c4d	0.33053818
3	0xbdd00234	-0.1015667
4	0xbe113930	-0.14181972
5	0x3d2b6de5	0.04185285
6	0x3c65ee87	0.01403392
7	0xbd651290	-0.055925906
8	0xbd5b8fb6	-0.05360385
9	0x3cf9ae06	0.030478489
10	0xbbc9b734	-0.0061558727
11	0x3cf8602c	0.030319296
12	0xbdbc3aac	-0.09190878
13	0xbdde094b	-0.10841616
14	0x3e230969	0.15921558
15	0x3dcc4d76	0.09975712
16	0xbd6703e9	-0.056400213
17	0xbc1e35d1	-0.0096563855
18	0x3d36285f	0.044472095
19	0x3e10822a	0.14112154
20	0xbdbfc19c	-0.093631
21	0x3d44d400	0.04805374
22	0x3e555a1e	0.20835158
23	0x3c6cb2c7	0.014446921
24	0x3d988b78	0.074484766
25	0x3e12dac5	0.14341266
26	0xbd1c18a5	-0.03810944
27	0xbda8da45	-0.082447566
28	0xbe1a89e6	-0.15091667
29	0x3cbf739a	0.023370553
30	0xbbc99f81	-0.0061530476
31	0x3d7dfd30	0.062009037
32	0x3df6f1ce	0.12057839
33	0x3d4105d0	0.047124684
34	0x3e92e59e	0.2869081
35	0x3d3bbe6e	0.045835905
36	0xbd008a49	-0.03138188
37	0x3dfae8dc	0.12251446
38	0x3c905f99	0.01762371
39	0xbdac8c89	-0.084252425
40	0x3d20db31	0.039271537
41	0x3c8e2c5e	0.01735514
42	0x3e0e3a5c	0.1388945
43	0xbe413666	-0.18868408
44	0xbc0fed3d	-0.008784589
45	0xbcbcb0e8	-0.023033574
46	0xbdd2f885	-0.103013076
47	0x3d58b5bd	0.052907694
48	0x3d728b23	0.059214722
49	0x3da5b3be	0.08090924
50	0xbe209c09	-0.15684523
51	0x3b9cdfe4	0.004787432
52	0xbd07f153	-0.03318913
53	0x3d380d6f	0.044934686
54	0x3cb5f019	0.022209214
55	0x3d9ba682	0.07600118
56	0xbdf6a19b	-0.120425425
57	0xbda15f48	-0.078795016
58	0x3dd858bf	0.10563802
59	0x3e26baef	0.16282247
60	0xbd3cdec0	-0.04611087
61	0x3de642ea	0.112432316
62	0x3df21924	0.118212014
63	0x3de4182a	0.111374214
64	0xbd87cb1f	-0.06630539
65	0x3ce5e653	0.028063929
66	0xbc6726fb	-0.014108415
67	0xbd10cb5a	-0.03535018
68	0xbc2a0859	-0.010377967
69	0xbc162c92	-0.0091659
70	0x3c936c52	0.017995987
71	0xbe331a89	-0.17490591
72	0x3d3aaa45	0.045572538
73	0xbd6567c9	-0.05600718
74	0x3db97372	0.090552226
75	0x3e211e89	0.15734304
76	0x3e433b3f	0.1906557
77	0xbc38730d	-0.011257899
78	0xbe5843fd	-0.21119685
79	0x3b4129df	0.002947442
80	0x3e3c95d7	0.18416534
81	0xbd8f13a6	-0.069861695
82	0xbd370ca2	-0.044689782
83	0x3d9c2a92	0.07625307
84	0x3e1c8884	0.15286452
85	0x3e109f97	0.14123379
86	0xbbba7364	-0.005690025
87	0xbdae9e5c	-0.085262984
88	0xbe4a52a7	-0.19758092
89	0x3d685c07	0.05672839
90	0xbe752c3b	-0.23942654
91	0x3e314189	0.17310156
92	0x3d87a00d	0.06622324
93	0x3d5b5f98	0.053557962
94	0x3dcd8e0a	0.100368574
95	0xbd39f54b	-0.045399945
96	0xbe038531	-0.12843777
97	0xbc98f520	-0.018671572
98	0x3c8c365f	0.01711577
99	0x3dd98d1b	0.10622617
100	0x3c4f5dd2	0.012656646
101	0xbe3351a7	-0.17511617
102	0x3d3c970c	0.046042487
103	0x3c3bd0fe	0.011463402
104	0x3e480758	0.19534051
105	0xbe4f2880	-0.20230293
106	0x3e2adfd7	0.1668695
107	0xbdfcf226	-0.12350874
108	0x3d55624b	0.052095693
109	0xbded6664	-0.11591795
110	0xbe09f580	-0.13472557
111	0xbe819abc	-0.25313365
112	0xbe0777cf	-0.13229297
113	0xbdd15aff	-0.10222434
114	0xbdfdfb68	-0.124014676
115	0xbe80a0dd	-0.2512273
116	0x3db53ad1	0.08849109
117	0x3dc4f0f3	0.0961627
118	0xbdc5b149	-0.09652955
119	0x3e412e86	0.18865404
120	0x3d1f74ad	0.03892963
121	0x3de273d9	0.110572524
122	0x3af51f88	0.0018701414
123	0xbd910e83	-0.07082846
124	0x3bf1282d	0.0073595257
125	0xbd14465b	-0.03619991
126	0x3e28c2fb	0.16480629
127	0xbde22d0b	-0.110437475
128	0xbc87c012	-0.016571078
129	0x3e234b2b	0.15946643
130	0x3df2bc3f	0.11852311
131	0xbdfa2f3c	-0.122160405
132	0x3dc6cfa1	0.09707571
133	0xbcc6a208	-0.024247184
134	0xbc3d5177	-0.011555067
135	0x3d3e0074	0.04638715
136	0xbd8e4b82	-0.06947996
137	0x3cd9044e	0.02649131
138	0x3d2d9250	0.042375863
139	0x3d91065c	0.07081291
140	0xbdfa6874	-0.12226954
141	0xbe1b8cef	-0.1519048
142	0xbb68b84b	-0.0035510238
143	0xbdb1d7a9	-0.08683712
144	0xbe39da77	-0.18149744
145	0x3d032569	0.0320181
146	0x3dc30dda	0.09524126
147	0x3d00bc5b	0.03142963
148	0xbdba51a9	-0.09097607
149	0x3db01e3e	0.08599518
150	0xbcaae3e3	-0.020860618
151	0x3d204170	0.039124906
152	0x3e11043c	0.14161772
153	0x3a6ae2b6	0.0008960174
154	0xbe1737fe	-0.14767453
155	0x3e3f66f5	0.18691619
156	0x3d09093a	0.033456065
157	0xbdd35fda	-0.103210166
158	0x3db6c3cc	0.08924064
159	0x3c219afc	0.009863611
160	0xbdc69da7	-0.096980385
161	0xbc8a5f17	-0.016891045
162	0xbe087bed	-0.13328524
163	0x3d980224	0.07422283
164	0xbde79b0f	-0.11308872
165	0xbcc68f1e	-0.024238165
166	0xbe4b3863	-0.19845729
167	0xbe55886e	-0.20852825
168	0xbb7fc662	-0.0039028157
169	0xbc0798c9	-0.008276173
170	0xbdc9c4bf	-0.098519795
171	0xbe049084	-0.12945753
172	0x3dda90cc	0.10672149
173	0x3dad1b01	0.08452416
174	0x3d114926	0.03547015
175	0x3e09dd7c	0.13463396
176	0xbd631cf6	-0.05544754
177	0xbcb16e72	-0.02165911
178	0xbcdcab24	-0.026937075
179	0xbdc2c6a1	-0.09510542
180	0xbd8f2901	-0.06990243
181	0x3c296a29	0.010340252
182	0x3d0fdcac	0.03512256
183	0xbd509a34	-0.05092831
184	0xbcb3dd2a	-0.021956045
185	0x3da2db5a	0.07951994
186	0x3d9f634f	0.077826135
187	0x3d161b58	0.03664717
188	0x3d2a2e80	0.041548252
189	0x3d90ff6b	0.07079967
190	0xbdf18074	-0.117920786
191	0xbdcc7c40	-0.09984636
192	0xbc06cc3a	-0.008227402
193	0xbe027ec3	-0.12743668
194	0xbe078e46	-0.13237867
195	0xbd42e9fd	-0.04758643
196	0xbd88feab	-0.06689199
197	0xbcc2854f	-0.023745207
198	0x3dbd286f	0.09236228
199	0xbba1da7e	-0.0049393764
200	0xbe3de008	-0.18542492
201	0xbdfec6ef	-0.12440287
202	0x3dc6da90	0.09709656
203	0xbe485c52	-0.19566467
204	0x3d878731	0.066175826
205	0xbda56091	-0.08075059
206	0xbe15033c	-0.14552015
207	0x3e36c603	0.17848973
208	0xbd838b70	-0.0642308
209	0x3e0722a1	0.13196804
210	0xbd889d70	-0.06670654
211	0xbd5acd11	-0.053418223
212	0x3d35161c	0.04421054
213	0xbaf4b918	-0.0018670885
214	0x3d85c88a	0.065323904
215	0xbe22e488	-0.1590749
216	0xbd147d2e	-0.036252193
217	0xbe1150ee	-0.14191028
218	0x3c844de8	0.01615043
219	0x3bd183a9	0.006393869
220	0xbd9b7806	-0.07591252
221	0xbc8ab026	-0.016929697
222	0xbd032531	-0.03201789
223	0xbe08431b	-0.13306849
224	0x3db2d589	0.08732135
225	0x3d4ea5b3	0.05045099
226	0xbe36b5bd	-0.17842765
227	0x3c70dddf	0.014701336
228	0xbce8c8f6	-0.028416138
229	0x3decef65	0.115690984
230	0x3d869b33	0.06572571
231	0x3d13b131	0.036057655
232	0x3da93723	0.082624696
233	0xbcc48ecf	-0.023993878
234	0x3d528581	0.05139685
235	0xbd77e9be	-0.06052565
236	0xbda9f101	-0.08297921
237	0xbe2583fb	-0.16163628
238	0x3d41d13f	0.047318693
239	0xbd6021df	-0.054719802
240	0xbd84fbc6	-0.064933345
241	0x3d55e792	0.052222796
242	0x3d680dea	0.056653894
243	0xbe4143c1	-0.18873502
244	0x3de67856	0.11253421
245	0x3d1a0754	0.037604645
246	0x3e8353c6	0.25649852
247	0xbd85f378	-0.065405786
248	0xbdcf81fb	-0.10132214
249	0xbd24adcb	-0.040204804
250	0x3ca6c394	0.02035693
251	0x3c414c89	0.011798033
252	0x3dc1dcb4	0.09465924
253	0x3d87e9c3	0.066363834
254	0x3dbd20bd	0.0923476
255	0x3e5e441c	0.21705669

F.linears.1.bias f4 [32]
0	0xba97c865	-0.0011580108
1	0xbce322bf	-0.02772653
2	0xbd0e6584	-0.03476478
3	0x3cdef39f	0.027215777
4	0x3e05cd2d	0.1306655
5	0x3c7229cb	0.014780472
6	0xbb93494b	-0.004494821
7	0xbd51873b	-0.051154356
8	0x3dcda0dd	0.10040448
9	0xbccef9f5	-0.025265673
10	0x3c2771c5	0.010219996
11	0xbdcce506	-0.1000462
12	0x3cb3a70f	0.021930246
13	0x3de0dc50	0.10979521
14	0xbbeea084	-0.0072823185
15	0xbdd36f6f	-0.10323989
16	0x3d555f29	0.052092705
17	0x3d79dd09	0.06100181
18	0xbd79fd50	-0.061032593
19	0x3daa2ed7	0.08309715
20	0xbc187cb6	-0.009307077
21	0xbd491797	-0.049094763
22	0x3d570e18	0.052503675
23	0xbdcf1c28	-0.10112792
24	0x3cb8bd91	0.02255133
25	0x3d8acd90	0.06777489
26	0xbb6a2397	-0.003572678
27	0x3dc48e24	0.09597424
28	0xbd27c33b	-0.04095767
29	0xbd53e941	-0.05173612
30	0x3d28a37b	0.041171532
31	0x3e038ba5	0.12846239

F.linears.2.weight f4 [10, 32]
0	0xbb830cee	-0.003999344
1	0xbd9a6818	-0.075393856
2	0x3d72f70a	0.059317626
3	0xbc1dc44d	-0.009629321
4	0xbdb10006	-0.086425826
5	0x3e0fb961	0.1403556
6	0x3e874ef3	0.2642742
7	0x3d5623db	0.05228029
8	0x3dfc7b29	0.123281784
9	0xbe1f4e1b	-0.15557139
10	0x3d6c8e10	0.05775267
11	0xbc6a787e	-0.014310954
12	0x3d5b1ab6	0.05349227
13	0xbdfda797	-0.12385481
14	0x3d38b6ea	0.045096315
15	0x3e51681f	0.20449875
16	0x3aea4336	0.0017872814
17	0xbc44e5ed	-0.012017709
18	0x3e31e672	0.17373064
19	0x3e286923	0.16446356
20	0x3c9b9485	0.018991718
21	0x3e50f85e	0.20407245
22	0xbcbb50e6	-0.022865724
23	0x3d75371a	0.059867002
24	0xbe0c9339	-0.13728036
25	0x3ca31ac4	0.019910224
26	0x3e100892	0.1406577
27	0xbd62e375	-0.0553927
28	0xbc6485fd	-0.013947961
29	0xbccb9f1d	-0.024856145
30	0xbcff46db	-0.031161716
31	0xbdbfae8b	-0.09359463
32	0xbd1d0353	-0.03833325
33	0xbdace739	-0.0844254
34	0x3d567456	0.05235704
35	0x3e253fef	0.1613767
36	0xbda10ad7	-0.07863396
37	0x3e101520	0.14070559
38	0xbd3c76a3	-0.04601158
39	0x3ea1bd01	0.3158951
40	0x3d73be62	0.059507735
41	0xbe53caa7	-0.20682774
42	0x3d0f8186	0.035035633
43	0x3d62ecd5	0.055401642
44	0x3dfb7dc7	0.122798495
45	0xbdb778c6	-0.089585826
46	0x3ca7490a	0.02042057
47	0x3dd837bf	0.10557508
48	0xbe121d5d	-0.14269014
49	0x3d682c19	0.05668268
50	0x3ce61763	0.028087324
51	0xbb417e18	-0.002952462
52	0x3d921332	0.071325675
53	0xbe30e367	-0.17274247
54	0xbe6b0c2f	-0.22953866
55	0x3e2dff3b	0.16991894
56	0x3d96fe87	0.07372766
57	0xbd84512f	-0.06460797
58	0x3df54bda	0.11977358
59	0xbe19d80e	-0.15023825
60	0xbe485fc4	-0.19567782
61	0x3d0a9076	0.033829175
62	0x3e06a6ef	0.13149618
63	0xbe72bbe6	-0.2370449
64	0x3dd0cce3	0.10195329
65	0x3e1de2af	0.15418504
66	0xbe8c7f39	-0.27440813
67	0xbde09d6a	-0.10967524
68	0xbd246249	-0.040132795
69	0x3d6574df	0.05601966
70	0xbcb11e17	-0.021620793
71	0x3de41998	0.11137694
72	0x3d27d0e8	0.040970713
73	0xbd781bf2	-0.060573526
74	0xbe060cfa	-0.13090888
75	0x3cf56ad7	0.029958172
76	0x3c450125	0.012024199
77	0x3c9b3ce9	0.018949943
78	0x3cd25958	0.025677368
79	0xbc74d261	-0.014942736
80	0xbe1dc05a	-0.15405408
81	0x3bc63ab0	0.0060494766
82	0xbc3cbfa1	-0.011520297
83	0x3d7783f1	0.060428564
84	0xb7fb03c8	-2.9923292e-05
85	0x3da0ef92	0.078581944
86	0xbe1374aa	-0.14399973
87	0x3c6ef64e	0.014585091
88	0xbd3ddd27	-0.046353485
89	0x3e3ade3a	0.18248835
90	0x3dc51267	0.096226506
91	0xbe5d12a9	-0.2158915
92	0xbe0dd18e	-0.1384947
93	0x3df518d4	0.11967626
94	0x3add54d7	0.0016886246
95	0xbe1b5dbe	-0.15172479
96	0x3e24f24f	0.16108058
97	0x3e7cccdc	0.24687523
98	0xbd6d6676	-0.057959042
99	0xbe11a43e	-0.1422281
100	0x3decdafd	0.11565206
101	0x3d5fab9d	0.054607023
102	0xbe294000	-0.1652832
103	0xbd08d60b	-0.033407252
104	0x3da4d902	0.080492035
105	0x3d26ac4c	0.04069166
106	0x3d97333a	0.073828176
107	0xbe97065f	-0.29497048
108	0x3e159944	0.14609247
109	0x3c47eefb	0.0122029735
110	0xbdcdb418	-0.10044116
111	0xbe3c44f1	-0.18385674
112	0xbd976252	-0.073918
113	0x3bb91a07	0.0056488547
114	0x3e2aa240	0.16663456
115	0x3e3c0499	0.18361129
116	0xbd8adf59	-0.067808814
117	0xbd52d41d	-0.05147182
118	0x3ddf4a4f	0.10902845
119	0xbc591f76	-0.01325213
120	0xbc715fdb	-0.014732326
121	0xbd7ca27b	-0.06167839
122	0x3d35a80d	0.04434972
123	0x3d2734a6	0.040821694
124	0x3e2e02f3	0.16993313
125	0x3c573ab7	0.013136557
126	0x3c112f47	0.008861369
127	0xbdbec826	-0.09315519
128	0xbe57ab1e	-0.2106137
129	0x3d8d3ad1	0.06895984
130	0xbd8902e8	-0.066900074
131	0xbdca35b1	-0.09873522
132	0xbd49194b	-0.049096387
133	0xbce07c99	-0.027403163
134	0xbd28bcbc	-0.041195616
135	0x3e5220fd	0.20520397
136	0x3c89b4f5	0.01680992
137	0xbd692f27	-0.056929734
138	0xbb0f6386	-0.002187939
139	0x3e5ef599	0.21773376
140	0xbdf2278c	-0.11823949
141	0xbd886d12	-0.066614285
142	0x3cac73f5	0.021051386
143	0x3ca122a6	0.019669842
144	0xbe564c5f	-0.20927571
145	0xbd2096a9	-0.03920618
146	0xbe078130	-0.13232875
147	0xbdc1c013	-0.094604634
148	0x3d6df4ad	0.05809467
149	0x3d9720fc	0.07379338
150	0xbdb08b62	-0.08620335
151	0xbe3fd940	-0.18735218
152	0xbdd4aed3	-0.103849076
153	0x3e5faa57	0.21842323
154	0x3dee2bc4	0.116294414
155	0xbd73c315	-0.059512217
156	0x3d158274	0.036501363
157	0x3de21b38	0.11040348
158	0xbe34a683	-0.17641644
159	0xbdf06820	-0.1173861
160	0x3e067638	0.13131034
161	0x3ce3868d	0.02777412
162	0xbc31c43f	-0.010850011
163	0xbe6a9a0d	-0.22910328
164	0x3c946716	0.018115561
165	0x3e4afdc8	0.19823372
166	0xbcf90629	-0.030398445
167	0x3d82dc85	0.06389717
168	0xbcb82ef3	-0.022483325
169	0xbd91c81c	-0.07118246
170	0xbdce3cae	-0.100701675
171	0x3da94a69	0.08266146
172	0x3cfc6195	0.03080825
173	0xbda2ac5b	-0.079430304
174	0xbd83480d	-0.06410227
175	0x3d780238	0.06054899
176	0xbdedfe33	-0.1162075
177	0x3ded5bb8	0.115897596
178	0xbc375852	-0.011190491
179	0x3c6d4909	0.014482745
180	0xbe212393	-0.15736227
181	0xbd9e0bce	-0.07717095
182	0x3e22c8a1	0.15896846
183	0x3e3a6dc7	0.18205939
184	0xbbee2ce6	-0.007268536
185	0xbe1395d4	-0.14412624
186	0xbd76296e	-0.060098104
187	0xbe25303f	-0.16131686
188	0xbe16bc72	-0.14720324
189	0xbc068be8	-0.008212067
190	0xbc362a9c	-0.011118557
191	0xbd3a2405	-0.045444507
192	0x3d846d5b	0.064661704
193	0xbd58e006	-0.05294802
194	0x3e431b79	0.19053449
195	0xbda3f2a9	-0.08005268
196	0x3d9e375a	0.07725401
197	0x3e198ac7	0.14994346
198	0x3e0f4571	0.13991334
199	0x3d5b79c8	0.053582937
200	0x3df0c4de	0.117562994
201	0x3da18878	0.078873575
202	0xbe4c6939	-0.19962014
203	0xbc4138a9	-0.011793294
204	0xbd165f76	-0.036712132
205	0xbc57e07c	-0.01317608
206	0xbaa220b6	-0.0012369368
207	0xbe270d20	-0.163136
208	0x3dd422ae	0.10358177
209	0x3d16b836	0.03679677
210	0x3df8e7e8	0.121536076
211	0x3d43f0d9	0.047837112
212	0xbd5af1e0	-0.053453326
213	0xbe141918	-0.14462698
214	0x3d13241d	0.035923112
215	0x3c7868b1	0.015161679
216	0x3e0a8767	0.13528214
217	0x3d2f1d9c	0.042752847
218	0x3d546b4b	0.051860135
219	0xbd2c55a0	-0.042073846
220	0x3ccb6297	0.024827285
221	0x3ddf87fd	0.109146096
222	0x3a57980a	0.00082242547
223	0xbd634eef	-0.0554952
224	0x3db03e37	0.086056165
225	0xbe1de285	-0.15418442
226	0x3b19bbd8	0.002345791
227	0xbd97b282	-0.074070945
228	0x3d09bb89	0.033626113
229	0x3be84e52	0.0070894146
230	0xbe1540f0	-0.14575553
231	0x3e01f3b0	0.12690616
232	0xbe38600e	-0.18005392
233	0xbdc64134	-0.09680405
234	0x3e087459	0.13325633
235	0xbe16ce02	-0.14727023
236	0xbdfe3b03	-0.12413599
237	0x3c0491e7	0.008091426
238	0xbe102367	-0.14076005
239	0xbdd544f7	-0.104135446
240	0x3da5ab24	0.08089283
241	0x3e4bf95b	0.1991934
242	0x3d181f5b	0.037139278
243	0x3e800498	0.25003505
244	0xbe0162e6	-0.12635383
245	0x3dd37143	0.10324337
246	0xbc026ddd	-0.007960764
247	0x3d2b2740	0.04178548
248	0xbe783e89	-0.24242605
249	0xbc9ebce3	-0.019377178
250	0xbcf36d00	-0.029715061
251	0xbdc2b596	-0.09507291
252	0x3e192366	0.1495491
253	0xbd7e6112	-0.062104292
254	0xbe19c571	-0.15016724
255	0x3e6a09db	0.22855322

F.linears.2.bias f4 [10]
0	0x3c9d0086	0.019165289
1	0xbdd1a644	-0.10236791
2	0x3d094159	0.033509586
3	0xba455f0d	-0.0007529117
4	0xbd364e99	-0.04450855
5	0xbd6edd4f	-0.058316525
6	0x3c5821df	0.013191669
7	0x3dab0431	0.08350409
8	0x3d99199c	0.07475588
9	0xbb25ba5b	-0.0025288078

G.0.linears.0.weight f4 [32, 10]
0	0xbd85a9f3	-0.06526556
1	0xbce5c71f	-0.02804905
2	0x3da0fa65	0.07860259
3	0x3daf8d61	0.08571888
4	0xbd6086eb	-0.054816168
5	0xbba5d57a	-0.005060849
6	0x3dd16aab	0.102254234
7	0x3e44bf01	0.19213487
8	0xbd31a5de	-0.043371074
9	0xbdcfb79c	-0.101424426
10	0x3e00e805	0.12588508
11	0xbcccae19	-0.02498536
12	0xbe3f60ce	-0.18689272
13	0x3d05724e	0.032579713
14	0xbe538efc	-0.20660013
15	0x3c682246	0.014168328
16	0xbb9c1069	-0.0047626984
17	0xbdf20730	-0.11817777
18	0xbd913fdb	-0.070922576
19	0x3c44826a	0.011993984
20	0x3c93c403	0.018037802
21	0x3d8c96d6	0.06864707
22	0x3d24b7bc	0.040214285
23	0xbdcb3f48	-0.09924179
24	0x3de45ee8	0.111509144
25	0x3e37dfee	0.17956516
26	0xbded0102	-0.11572458
27	0xbdf7dc81	-0.12102605
28	0x3c935109	0.017982977
29	0x3c11d20a	0.008900175
30	0x3e115ff0	0.14196754
31	0x3d55c39f	0.052188512
32	0x3de7be9e	0.11315654
33	0xbd8a3572	-0.06748475
34	0xbe3c9ce2	-0.18419221
35	0xbe00d32e	-0.12580559
36	0xbe0c4013	-0.13696317
37	0x3c64ff26	0.013976848
38	0x3d1b9891	0.037987296
39	0xbd4465c7	-0.047948625
40	0x3dd6f2b7	0.10495513
41	0x3e08aad5	0.13346417
42	0xbca381a5	-0.01995928
43	0xbbe391c3	-0.0069448664
44	0x3e013a26	0.12619838
45	0x3d992fd7	0.07479828
46	0xbe1541bf	-0.14575861
47	0xbe0d901a	-0.13824502
48	0x3df86ee2	0.12130524
49	0xbc9599dd	-0.018261844
50	0x3bebd62d	0.0071971626
51	0x3d745f27	0.059661057
52	0x3e44abaf	0.19206117
53	0xbdf6dd75	-0.12053958
54	0x3dc80718	0.09766978
55	0xbc8b522a	-0.017006952
56	0xbd4fa958	-0.05069861
57	0x3d6cdd84	0.05782844
58	0xbdf8e9cd	-0.12153969
59	0xbe229b24	-0.15879494
60	0x3e5461b1	0.20740391
61	0x3daf9bd8	0.08574647
62	0x3d8872fd	0.06662557
63	0xbe297a49	-0.16550554
64	0x3cffbd05	0.031218061
65	0xbd68d576	-0.056844197
66	0x3d8b333f	0.06796884
67	0xbd99144a	-0.07474573
68	0xbdb993ca	-0.09061392
69	0xbda46b9e	-0.08028339
70	0x3bb06c92	0.0053840363
71	0x3e65710d	0.22406407
72	0x3cedd595	0.029032508
73	0xbd35e229	-0.044405136
74	0x3ddf8d93	0.10915675
75	0xbd560b2c	-0.052256748
76	0xbe69ac3f	-0.22819613
77	0x3d63edce	0.05564671
78	0x3ce9614e	0.028488781
79	0xbd142b84	-0.036174312
80	0xbdb251de	-0.08707021
81	0x3e30ac8f	0.17253326
82	0x3e4d8598	0.20070493
83	0xbd1efe55	-0.03881677
84	0x3e13ec60	0.14445639
85	0xbb61e080	-0.0034466088
86	0x3c6af7a8	0.014341272
87	0xbd71907d	-0.058975685
88	0xbd5dc235	-0.05414029
89	0x3c029eae	0.0079724025
90	0x3da4d775	0.08048908
91	0xbcc16af3	-0.023610568
92	0xbc86efeb	-0.016471824
93	0xbba0236e	-0.004887036
94	0xbcf48e79	-0.029853093
95	0xbd833989	-0.06407458
96	0x3e3ca0d8	0.18420732
97	0xbe0c1e7c	-0.13683504
98	0xbcef9fd0	-0.02925101
99	0x3e33d122	0.17560247
100	0x3d96d2c5	0.0736442
101	0x3d2a43a6	0.04156842
102	0x3e6f21e8	0.23352778
103	0xbe8a119d	-0.26966563
104	0x3e81ad8c	0.25327718
105	0x3e0a5a2c	0.1351096
106	0x3c945faf	0.018112032
107	0x3c8c6369	0.017137246
108	0x3dc8d888	0.09806925
109	0xbdb369e4	-0.087604314
110	0xbe5fbfab	-0.2185046
111	0xbe186e01	-0.14885713
112	0xbd16964a	-0.03676442
113	0x3dbcbf8d	0.09216223
114	0xbd8a3c0b	-0.067497335
115	0xbcb1f7d0	-0.021724612
116	0x3da1be91	0.07897676
117	0xbded00ad	-0.115723945
118	0x3c815c04	0.015790947
119	0x3e2ea9bf	0.1705694
120	0xbe03efe1	-0.12884475
121	0xbd838437	-0.06421702
122	0xbe477cbd	-0.19481178
123	0x3c5b1157	0.013370833
124	0xbe230dec	-0.1592328
125	0xbce89d3f	-0.028395293
126	0x3d1abb96	0.037776552
127	0xbdc66d6f	-0.096888416
128	0xbc168d3d	-0.009188947
129	0x3db36377	0.08759206
130	0x3e45b843	0.19308572
131	0x3d7e376e	0.06206458
132	0x3da180ae	0.07885872
133	0xbd10b2fb	-0.03532694
134	0xbd195f00	-0.037444115
135	0x3d030d73	0.031995248
136	0xbdfd6fbf	-0.123748295
137	0xbdad178a	-0.08451755
138	0xbe7832e5	-0.24238165
139	0x3dbfb2c2	0.09360267
140	0xbd057663	-0.032583605
141	0x3da5e46f	0.08100211
142	0x3d733e29	0.059385452
143	0xbdf60375	-0.12012378
144	0x3e1c5ec8	0.15270531
145	0x3d21ea68	0.039530188
146	0x3c3ed776	0.01164805
147	0x3d4623e4	0.04837407
148	0x3e21143a	0.15730372
149	0xbd9314a4	-0.07181671
150	0xbd722c43	-0.059124243
151	0xbd4c3ca3	-0.049862515
152	0xbe4388af	-0.1909511
153	0x3c9ea34f	0.019364981
154	0x3d61cc28	0.05512634
155	0xbd98ef8d	-0.07467566
156	0x3e2bf03e	0.16790864
157	0x3e334517	0.17506824
158	0x3e8b2e57	0.27183792
159	0x3ea7866a	0.32719737
160	0xbc5d7996	-0.013517758
161	0xbdaa6b19	-0.083212085
162	0x3d79ac43	0.060955297
163	0x3e1c07de	0.15237376
164	0xbd9bdb0c	-0.07610139
165	0x3cc1c145	0.023651728
166	0x3e1f6a0e	0.155678
167	0x3e4f921f	0.20270585
168	0x3e221786	0.15829286
169	0x3d8410fc	0.06448552
170	0xbd8994a2	-0.067178026
171	0xbd597759	-0.053092334
172	0xbd9f2bb2	-0.07772006
173	0x3c868cf4	0.016424634
174	0x3cd8feb3	0.026488638
175	0xbd88497c	-0.06654641
176	0x3e012781	0.12612726
177	0x3e3b78f7	0.18307863
178	0xbd9bc9d3	-0.07606854
179	0x3cfb5f2b	0.030685028
180	0x3e14ca55	0.14530309
181	0x3e3875f4	0.18013746
182	0x3e24e2a0	0.16102076
183	0xbd4d16e3	-0.050070655
184	0x3d0ed52e	0.034871273
185	0x3e007366	0.12544021
186	0xbde5fb04	-0.11229518
187	0xbc010b5c	-0.007876243
188	0x3db2cf63	0.08730962
189	0xbe5aafac	-0.21356076
190	0xbdda0c42	-0.10646869
191	0xbea282f6	-0.3174054
192	0xbe25fac9	-0.16208948
193	0x3e0375f6	0.12837967
194	0xbe1fcd76	-0.15605721
195	0xbe1c6748	-0.15273774
196	0x3e7b4180	0.24536705
197	0x3da1a6e1	0.07893158
198	0xbddca5f7	-0.10773843
199	0x3dca29b6	0.09871237
200	0xbe1fd673	-0.1560915
201	0xbe0c4d6b	-0.13701408
202	0xbdb9a39e	-0.090644106
203	0x3e44220b	0.19153611
204	0x3c6e1075	0.014530291
205	0xbdc1d1bc	-0.09463832
206	0xbdc9fb95	-0.098624386
207	0xbd77b457	-0.06047472
208	0xbd2c3fe3	-0.042053115
209	0x3b44377a	0.0029940293
210	0xbd243f78	-0.04009959
211	0x3a115400	0.0005543828
212	0xbe260030	-0.16211009
213	0x3cd83e5a	0.026396919
214	0xbdf19050	-0.117951035
215	0xbe9bf93a	-0.30463582
216	0x3bb956b3	0.0056560873
217	0xbdd71509	-0.10502059
218	0x3e2af751	0.16695906
219	0x3d3564a3	0.044285428
220	0xbde77675	-0.11301891
221	0x3cb9a91f	0.022663651
222	0x3e112dd6	0.14177641
223	0xbe68a58c	-0.22719401
224	0xbd5dde5b	-0.054167133
225	0x3e475411	0.19465663
226	0xbe2eefd0	-0.17083669
227	0xbe11bfbc	-0.14233297
228	0x3b63cfa2	0.003476121
229	0xbdde04a5	-0.108407296
230	0x3e6decfb	0.23234932
231	0x3ec5c2ba	0.38625127
232	0x3e005141	0.12530996
233	0xbe4182d9	-0.1889757
234	0xbe0b9dcb	-0.13634412
235	0x3d8a8259	0.06763143
236	0x3ccdec4a	0.025137085
237	0x3cfdc97b	0.030979862
238	0xbc95e44a	-0.018297333
239	0x3d7c26d9	0.061560486
240	0x3d5e8c71	0.054333154
241	0xbe006f71	-0.12542512
242	0x3d62de1e	0.05538761
243	0x3e883f9c	0.2661103
244	0xbe44ee83	-0.1923161
245	0xbce6a698	-0.02815561
246	0x3daf21ff	0.08551406
247	0x3e0b141f	0.13581894
248	0x3e0d70b8	0.1381253
249	0xbdbc5b15	-0.0919706
250	0xbcad6153	-0.021164572
251	0xbe076a60	-0.13224173
252	0xbdd288fd	-0.10280035
253	0x3dfeac05	0.12435154
254	0xbe8a0854	-0.2695948
255	0xbe209554	-0.15681964

G.0.linears.0.bias f4 [32]
0	0xbc0f2c6c	-0.008738618
1	0xbca51a8c	-0.02015426
2	0xbaf3a890	-0.0018589664
3	0xbc8cb918	-0.017178103
4	0x3b18cc68	0.0023315195
5	0x3c278699	0.010224962
6	0xbd9fc3f2	-0.078010455
7	0xbd2c6fa5	-0.04209866
8	0x3d011522	0.031514294
9	0xbd8f8747	-0.07008224
10	0xbd1fe2bf	-0.0390346
11	0x3ceba323	0.028764313
12	0xbd653a26	-0.055963658
13	0xbd172e32	-0.03690929
14	0xbcad25b4	-0.021136142
15	0x3d69dcbe	0.05709528
16	0x3e0e4ff0	0.13897681
17	0x3df5ccf0	0.12001979
18	0xbdc80758	-0.09767026
19	0x3c068448	0.008210249
20	0x3c349f5d	0.011024323
21	0x3e03751b	0.12837641
22	0xbe340ca4	-0.17582947
23	0xbc6aa0c2	-0.014320554
24	0x3e2cb4b3	0.16865806
25	0x3db96867	0.09053116
26	0xbc799914	-0.015234251
27	0x3da3dca3	0.080010675
28	0xbd765a57	-0.06014475
29	0xbe06a431	-0.13148572
30	0xbd025b35	-0.031825263
31	0x38aef698	8.342898e-05

G.0.linears.1.weight f4 [32, 32]
0	0x3cae2a36	0.021260362
1	0x3cabd5b1	0.02097592
2	0xbd090fbe	-0.03346228
3	0x3d5fdb54	0.054652527
4	0x3d98ebf5	0.0746688
5	0x3ebe01d4	0.3711077
6	0xbdf97b81	-0.121817596
7	0x3cd11edb	0.025527408
8	0x3d9f532b	0.07779535
9	0xbe4aa25f	-0.19788502
10	0x3ceb1002	0.028694157
11	0xbdca108d	-0.09866438
12	0xbda214e7	-0.07914143
13	0x3db9211a	0.09039517
14	0xbe2e47df	-0.17019604
15	0xbd3ba9ee	-0.045816354
16	0x3cf2f60a	0.029658336
17	0x3b416b84	0.0029513547
18	0x3da23835	0.07920877
19	0xbd7af322	-0.061267026
20	0xbd361fac	-0.0444638
21	0x3d949b65	0.07256202
22	0x3e15cfcf	0.14630054
23	0x3d81f016	0.06344621
24	0x3dba2d02	0.09090616
25	0x3dee78f7	0.11644166
26	0x3e697957	0.22800194
27	0x3d231ab8	0.039820403
28	0x3e573d04	0.2101937
29	0xbce72997	-0.028218074
30	0x3d8c8973	0.06862154
31	0x3d6e8f42	0.05824209
32	0xbc7d7b3c	-0.015471276
33	0x3d86377f	0.06553554
34	0x3e9ecb90	0.3101468
35	0x3e1338f8	0.143772
36	0x3e14e461	0.14540245
37	0xbcd58345	-0.02606357
38	0xbda58ac5	-0.08083109
39	0x3e31c434	0.17360002
40	0x3c5d5578	0.013509147
41	0xbc14e081	-0.009086729
42	0x3e0f36c8	0.13985741
43	0x3c8bc2d6	0.017060678
44	0xbdc2981d	-0.095016696
45	0xbc954524	-0.018221445
46	0x3dec6803	0.11543276
47	0xbda4ff00	-0.0805645
48	0xbe27637f	-0.16346548
49	0xbcf5660b	-0.029955884
50	0xbd076f13	-0.033064913
51	0xbe6da2a9	-0.23206581
52	0xbdda41c6	-0.106570765
53	0x3d363bb0	0.044490516
54	0xbda78376	-0.08179371
55	0xbd18a096	-0.03726252
56	0xbd564ae4	-0.052317515
57	0xbbaa26f2	-0.005192631
58	0x3e80e171	0.25171998
59	0xbd9a54d8	-0.07535714
60	0x3cf64afc	0.030065052
61	0x3e6f9401	0.23396303
62	0xbdc2082a	-0.094742134
63	0xbd7f834c	-0.062381074
64	0xbe8afbef	-0.27145335
65	0xbc6a8737	-0.014314464
66	0x3d8fbd3a	0.07018514
67	0x3d95b84a	0.07310541
68	0x3cf58fe2	0.029975835
69	0xbac7aa7c	-0.0015233303
70	0x3dfe4b42	0.12416698
71	0x3e56d370	0.20979095
72	0x3dc444f9	0.09583468
73	0x3bc6fcbe	0.0060726097
74	0x3dabb1de	0.08383535
75	0xbd6be9df	-0.057596084
76	0x3b645a60	0.0034843907
77	0xbe06aaa5	-0.13151033
78	0x3deb5e0c	0.114925474
79	0x3d62a61b	0.05533419
80	0xbe7e7e0e	-0.24852774
81	0xbe571b1f	-0.2100644
82	0x3cea386f	0.028591363
83	0xbe9cdca7	-0.30637094
84	0xbd03c4d1	-0.03217012
85	0x3d17dc9f	0.037075635
86	0x3e130f21	0.1436124
87	0x3df5df77	0.12005513
88	0xbda51a62	-0.08061673
89	0xbdb401c0	-0.08789396
90	0x3d90d945	0.07072691
91	0xbdc88dae	-0.09792648
92	0x3e4fd897	0.20297466
93	0x3d703b12	0.058650084
94	0xbd8b2a55	-0.067951836
95	0x39e3ae9a	0.00043426902
96	0x3e2037a6	0.15646228
97	0xbdd56f3b	-0.10421606
98	0x3da2a377	0.07941335
99	0x3d8b012c	0.06787333
100	0x3e0cb1f6	0.13739762
101	0x3d97e837	0.07417338
102	0xbd7c8503	-0.061650287
103	0x3def0df4	0.11672583
104	0x3dc79134	0.09744492
105	0x3aa57488	0.001262323
106	0x3dac4aae	0.084126815
107	0xbe7ea8b6	-0.24869046
108	0xbe690e5c	-0.22759384
109	0x3e10173c	0.14071363
110	0x3e2b5dc8	0.16734993
111	0xbdeee738	-0.11665195
112	0xbe0083a3	-0.12550215
113	0xbe5fb3d7	-0.21845947
114	0x3e0e57e2	0.13900712
115	0xbd4bf6b0	-0.049795806
116	0xbd6d59c2	-0.057946928
117	0xbe869ea7	-0.26292917
118	0x3d56ffab	0.052489918
119	0x3d8a2592	0.06745447
120	0xbe655d8c	-0.22398967
121	0x3e2a4c2a	0.16630617
122	0x3e33efd0	0.1757195
123	0xbcbece6b	-0.023291787
124	0x3cdb9fd5	0.026809612
125	0x3c5113ea	0.012761096
126	0xbe10f0a5	-0.14154299
127	0xbe883849	-0.26605442
128	0x3d66de75	0.056364495
129	0x3e0ce6cd	0.13759919
130	0xbdd4a692	-0.10383333
131	0xbe3a270e	-0.1817896
132	0xbe78a075	-0.2427996
133	0xbe0da24a	-0.1383144
134	0x3c92d6cb	0.017924687
135	0xbe00c6cd	-0.12575836
136	0x3d6e20a1	0.058136586
137	0xbc201509	-0.00977064
138	0xbe19cfd3	-0.15020685
139	0x3e13ab9e	0.14420936
140	0x3a75d41e	0.0009377616
141	0x39cda548	0.0003922379
142	0xbe86eae4	-0.26351082
143	0x3dd152ed	0.10220895
144	0x3e17c5e0	0.14821577
145	0xbe487d9e	-0.19579169
146	0x3cfffb72	0.031247828
147	0x3e2c97da	0.16854802
148	0x3ccc31b9	0.024926053
149	0x3e1cbcdf	0.15306424
150	0xbd775ccc	-0.060391232
151	0xbe3c758d	-0.18404217
152	0x3e80953e	0.25113863
153	0x3e1422f6	0.14466462
154	0xbd596705	-0.053076763
155	0x3e24a684	0.16079146
156	0x3db67753	0.08909478
157	0xbe885e08	-0.2663424
158	0x3e6adc89	0.2293569
159	0x3e220160	0.15820837
160	0x3d09e099	0.03366146
161	0xbba556e1	-0.005045757
162	0x3e38a5fe	0.18032071
163	0x3e5a00c3	0.21289353
164	0x3d5dd753	0.054160427
165	0x3e207fc5	0.1567374
166	0xbcbb3fd7	-0.02285759
167	0xbe1cf0ca	-0.15326229
168	0x3e72d054	0.23712283
169	0x3d4a9417	0.049457636
170	0x3dff9eff	0.12481498
171	0xbd8a2f17	-0.06747263
172	0xbe20a45d	-0.156877
173	0x3d5e1b3e	0.0542252
174	0x3e01450b	0.12623994
175	0x3dc1d59f	0.09464573
176	0x3d084952	0.03327305
177	0xbd812998	-0.063067615
178	0x3e314130	0.17310023
179	0xbcb9fc21	-0.022703232
180	0x3d3235ea	0.043508448
181	0x3d39ffed	0.045410085
182	0x3c905bfd	0.017621988
183	0x3e3ce11b	0.18445246
184	0xbc7c2a65	-0.015390967
185	0xbd7e8147	-0.062135007
186	0x3e2e5b52	0.17027023
187	0xbe8692ff	-0.26284024
188	0x3d089043	0.033340704
189	0x3d594fa9	0.053054485
190	0xbe1b150b	-0.15144746
191	0x3d022be0	0.031780124
192	0xbd4e1982	-0.050317295
193	0xbd8b41cb	-0.067996584
194	0xbdc2895d	-0.09498856
195	0xbd657fde	-0.056030147
196	0x3e684736	0.22683415
197	0x3d999c2f	0.07500493
198	0x3de8b482	0.11362554
199	0x3d8acb08	0.067770064
200	0x3e007ff8	0.12548816
201	0xbdf06eda	-0.11739893
202	0x3b98a6f5	0.0046585747
203	0xbe935660	-0.28776836
204	0xbd982e16	-0.07430665
205	0x3ce59b2b	0.028028091
206	0x3e561ab1	0.2090862
207	0xbdef62f0	-0.11688793
208	0xbdada103	-0.08477976
209	0xbe67b294	-0.22626716
210	0x3d96a140	0.07354975
211	0xbe167483	-0.14692883
212	0xbce40da8	-0.027838543
213	0xbe328352	-0.17432907
214	0x3e47c279	0.19507779
215	0x3dc74578	0.09730047
216	0xbd8907b8	-0.06690925
217	0x3e1bb5e3	0.15206103
218	0x3d853679	0.065045305
219	0xbd95bc40	-0.073112965
220	0xbc6bbf5f	-0.014388888
221	0x3e2f726e	0.17133495
222	0xbda7cdad	-0.081935264
223	0xbb79567d	-0.0038045936
224	0x3c7e7248	0.015530176
225	0x3c8e910a	0.017403144
226	0xbd848001	-0.06469727
227	0x3debf561	0.11521412
228	0x3e08aa24	0.13346153
229	0xbced2619	-0.02894883
230	0xbd1e3c54	-0.038631752
231	0x3d62e6fc	0.055396065
232	0x3bd548a5	0.006508904
233	0xbd87aa1e	-0.06624244
234	0xbd5cea05	-0.053934116
235	0x3cff9a09	0.03120138
236	0xbdffc9d9	-0.12489671
237	0x3dba3a61	0.09093166
238	0x3d2bc6da	0.041937687
239	0x3e44f4a1	0.19233944
240	0xbdf8f932	-0.12156905
241	0x3d198701	0.037482265
242	0x3c70aa4a	0.014689038
243	0xbe059b0d	-0.13047428
244	0xbe307a83	-0.17234235
245	0xbe529a02	-0.20566562
246	0x3d068d31	0.032849494
247	0xbd4b5770	-0.049643934
248	0x3cd532c9	0.026025193
249	0x3e0e9e67	0.13927613
250	0x3d8249be	0.063617215
251	0xbdafe440	-0.08588457
252	0x3d8ed1cf	0.069736116
253	0xbb8b179c	-0.004244758
254	0xbdbc7bac	-0.09203276
255	0xbe12a665	-0.14321287

G.0.linears.1.bias f4 [32]
0	0xbd1d6053	-0.03842194
1	0xb9ea4dc4	-0.00044689898
2	0xbd2a6dd4	-0.041608647
3	0xbd6b10d1	-0.057389084
4	0xbc27cb6a	-0.010241369
5	0xbd2c0d96	-0.042005144
6	0xbdf8af1e	-0.12142776
7	0x3d066c85	0.032818336
8	0x3d0d2788	0.034461528
9	0xbdd02ede	-0.10165189
10	0x3b3565f0	0.0027679168
11	0x3c4b7960	0.012419075
12	0xbdb19371	-0.086707
13	0x3db0badf	0.08629393
14	0xbd4002f3	-0.046877813
15	0x3d4c3d63	0.04986323
16	0xbbbcbba0	-0.0057596713
17	0xbbbbd329	-0.0057319594
18	0xbcee1805	-0.029064188
19	0x3dd57d45	0.10424284
20	0x3dd56610	0.104198575
21	0x3e00a42c	0.12562627
22	0xbd2c1f31	-0.042021934
23	0xbd913575	-0.07090274
24	0xbd0848ec	-0.03327267
25	0x3c84e5e3	0.0162229
26	0x3c3f7bd7	0.011687241
27	0x3dd678bf	0.10472249
28	0x3dc85bc4	0.09783128
29	0xbda09955	-0.07841746
30	0x3d5ef137	0.05442926
31	0x3ce67e73	0.028136468

G.0.linears.2.weight f4 [10, 32]
0	0xbd030d35	-0.031995017
1	0xbd2facd6	-0.04288944
2	0x3e0b87ad	0.13625975
3	0x3da54a1f	0.08070778
4	0xbd18c6b0	-0.03729886
5	0x3dbc7ba6	0.092032716
6	0x3da21782	0.0791464
7	0x3d21dfe7	0.03952017
8	0x3e822c78	0.25424552
9	0x3b5ed389	0.0034000596
10	0x3dcca27a	0.099919274
11	0xbd6d5b7b	-0.05794857
12	0x3e0024a1	0.12513973
13	0x3d996b16	0.07491128
14	0xbe2c02f3	-0.16798
15	0xbdda9aa0	-0.10674024
16	0xbe2ced5a	-0.16887417
17	0xbdcb7d75	-0.099360384
18	0xbe594d02	-0.21220782
19	0x3cc84081	0.02444482
20	0x3c975f61	0.018478097
21	0xbddf3199	-0.10898132
22	0xbdbbeb93	-0.091757916
23	0x3e8626c2	0.26201445
24	0xbd29bb02	-0.04143811
25	0xbdb9dc8e	-0.090752706
26	0x3808ff40	3.2662647e-05
27	0x3e0f3c25	0.13987787
28	0x3e20c913	0.15701704
29	0x3cab4d48	0.020910874
30	0x3d6f19fa	0.058374383
31	0xbdc50f60	-0.09622073
32	0xbe53f41c	-0.20698589
33	0xba9cc566	-0.0011960685
34	0xbe0a1010	-0.1348269
35	0xbdb3d420	-0.08780694
36	0x3dd43665	0.103619374
37	0xbcf4f785	-0.029903183
38	0x3e40d42b	0.18830936
39	0xbdfd00a0	-0.12353635
40	0x3dc12843	0.094315074
41	0xbe68351e	-0.22676513
42	0x3dd1029f	0.10205578
43	0xbdb980fb	-0.09057804
44	0xbe60fc09	-0.21971144
45	0x3d343f71	0.044005815
46	0x3d563a36	0.052301608
47	0x3e1b3b1a	0.15159264
48	0x3d3f6be2	0.046733744
49	0xbdc0b870	-0.09410179
50	0x3e5b7ebf	0.21435069
51	0x3cedb9db	0.029019287
52	0xbd08cac6	-0.033396505
53	0x3dd965f4	0.10615149
54	0x3c80fae2	0.01574463
55	0xbd8592ce	-0.065221414
56	0x3d1c8438	0.03821203
57	0xbe6b822f	-0.2299888
58	0xbd2280a0	-0.039673448
59	0x3cf51d4a	0.029921193
60	0x3e7c62d1	0.2464707
61	0xbda9f0a9	-0.082978554
62	0x3d8da74f	0.06916677
63	0xbd0d65b9	-0.03452084
64	0xbda2f2cf	-0.07956468
65	0xbe84c3ee	-0.25930732
66	0xbe3ac395	-0.18238671
67	0xbe1e5dc6	-0.15465459
68	0x3e293845	0.16525371
69	0xbd3c4b31	-0.045970146
70	0xbe7b35a5	-0.24532183
71	0xbd31e061	-0.043426875
72	0xbe00f6ee	-0.12594196
73	0xbdbec708	-0.09315306
74	0x3dda3cd4	0.10656133
75	0xbde3f278	-0.111302316
76	0xbe97b076	-0.29626817
77	0x3d8ffe9c	0.07030985
78	0x3db20c76	0.08693783
79	0xbe3afedd	-0.18261285
80	0x3e00b57f	0.12569235
81	0x3db5aa52	0.08870377
82	0x3e33d9f2	0.17563608
83	0x3d66c9a6	0.05634465
84	0x3df18e4b	0.11794718
85	0x3e388ac5	0.18021686
86	0xbc89807d	-0.0167849
87	0xbd93d53b	-0.07218405
88	0xbb8e59b2	-0.0043441886
89	0xbe156e97	-0.14592968
90	0x3ce91b82	0.0284555
91	0x3d97a508	0.07404524
92	0x3d3a3e20	0.045469403
93	0xbe6949e3	-0.22782092
94	0x3d74c912	0.059762068
95	0x3e933c4c	0.2875694
96	0x3ceb8c22	0.028753344
97	0x3d914c51	0.07094634
98	0x3bf16cec	0.007367721
99	0xbc071cab	-0.008246581
100	0x3df3a18e	0.118960485
101	0xbe5b3bee	-0.2140958
102	0x3cb34c59	0.021886991
103	0x3d93c367	0.072150044
104	0x3b0b2204	0.0021229992
105	0xbdc6fef3	-0.097165965
106	0xbd739ced	-0.059475828
107	0xbd9135ca	-0.070903376
108	0xbd255687	-0.040365722
109	0xbd3c943e	-0.046039812
110	0x3d9a08fc	0.07521245
111	0x3ca99880	0.0207026
112	0x3df0a8e1	0.11750961
113	0x3cba5fb7	0.022750719
114	0x3daa3cc7	0.083123736
115	0x3e47c828	0.19509947
116	0x3d90e2bc	0.07074496
117	0x3d059968	0.032617003
118	0x3c0f9906	0.008764511
119	0x3b8a2c34	0.004216695
120	0xbd82d037	-0.0638737
121	0xbc4fd318	-0.012684606
122	0x3ca7da07	0.020489706
123	0x3e307ddf	0.17235516
124	0x3e74e21e	0.23914382
125	0x3e4a0714	0.19729263
126	0xbbb7410c	-0.005592471
127	0x3d1177e5	0.03551473
128	0x3d8df8f5	0.069322504
129	0x3c9ebb2d	0.019376362
130	0xbc68749c	-0.014187958
131	0x3c5a0378	0.013306491
132	0x3cee393d	0.029080028
133	0xbe4b429e	-0.19849631
134	0xbd34c4c6	-0.04413297
135	0xbd7a3fe4	-0.061096087
136	0xbc34c44d	-0.01103313
137	0xbe164098	-0.14673078
138	0x3d29e01b	0.04147349
139	0x3e1e6378	0.15467632
140	0xbd4e9293	-0.050432753
141	0x3d235fa9	0.03988615
142	0x3d05e756	0.032691322
143	0xbd8495eb	-0.06473907
144	0x3e44d614	0.1922229
145	0x3d81b163	0.06332662
146	0x3dab0b8b	0.08351811
147	0x3d0636b4	0.032767013
148	0x3d3e890f	0.046517428
149	0x3d00ece8	0.03147593
150	0x3e2dc7e2	0.1697078
151	0xbcb17693	-0.021662986
152	0x3e02b3ab	0.1276385
153	0xbd192e5a	-0.03739772
154	0x3e093f66	0.13403091
155	0xbd42d17d	-0.047563065
156	0x3e075eb4	0.1321972
157	0xbdbaf108	-0.09128004
158	0x3da12aff	0.07869529
159	0x3cd40ef8	0.025886044
160	0xbc948ccd	-0.018133545
161	0xbdc3ccf3	-0.09560575
162	0x3cdc3a21	0.026883187
163	0xbd7b1f62	-0.061309226
164	0xbe28c235	-0.16480334
165	0xbc9e4e8b	-0.019324562
166	0xbcd35592	-0.025797639
167	0x3dfef4c6	0.124490306
168	0x3dd6560f	0.10465633
169	0xbd31273c	-0.043250307
170	0xbcb96396	-0.022630494
171	0x3d3b06a7	0.04566064
172	0xbd8e7b70	-0.069571376
173	0x3de7072f	0.11280667
174	0xbbf28f86	-0.0074023632
175	0x3d0dd69c	0.034628496
176	0xbe242a74	-0.1603182
177	0xbd770da7	-0.060315754
178	0xbe0d7319	-0.13813438
179	0xbcf1ad10	-0.029501468
180	0xbd7f9349	-0.06239632
181	0x3cc96e3e	0.0245887
182	0xbda2fca8	-0.079583466
183	0x3e07cfeb	0.13262908
184	0xbd8c7058	-0.06857365
185	0xbd29890b	-0.04139046
186	0x3d5ca388	0.053866893
187	0x3d6beebc	0.05760072
188	0xbe2a4bd5	-0.1663049
189	0xbdaf7b97	-0.08568495
190	0x3da16315	0.078802265
191	0xbd5c32b8	-0.053759307
192	0xbe1007cd	-0.14065476
193	0xbd52efd5	-0.051498253
194	0x3de13ae2	0.10997559
195	0x3e0d651e	0.13808104
196	0xbd9c84df	-0.07642531
197	0x3ca346a7	0.01993115
198	0xbc71a382	-0.014748456
199	0xbd5417b0	-0.051780403
200	0xbd04ffa5	-0.032470364
201	0xbcc02212	-0.023453746
202	0xbcc90596	-0.024538796
203	0xbdf89d36	-0.121393606
204	0x3d479d4d	0.048733998
205	0x3df3637e	0.11884211
206	0xbe44600a	-0.19177261
207	0x3b51db6a	0.003202165
208	0x3d210512	0.039311476
209	0x3e1935eb	0.14961974
210	0xbbb47884	-0.0055075306
211	0xbe3ae3f4	-0.1825102
212	0x3db5c992	0.08876337
213	0x3c18a6f6	0.00931715
214	0xbe3eb05e	-0.18621966
215	0x3dee59e6	0.116382405
216	0x3e168ff6	0.14703354
217	0xbe1352c3	-0.1438704
218	0xbe87f313	-0.26552638
219	0x3e1e987a	0.15487853
220	0xbc7c593e	-0.015402136
221	0x3d65eb36	0.056132518
222	0x3cc65a1f	0.024212895
223	0xbe057fe7	-0.13037072
224	0xbd87d228	-0.06631881
225	0xbd95bfc9	-0.07311971
226	0x3b1bd380	0.0023777187
227	0xbe4b5069	-0.19854893
228	0xbd91f4c7	-0.07126766
229	0xbe5984df	-0.21242093
230	0x3d4596af	0.048239406
231	0x3d8ebc1e	0.06969474
232	0xbc4f8e02	-0.012668135
233	0xbe280e5b	-0.16411726
234	0x3e4dfbaf	0.20115541
235	0x3e379167	0.1792656
236	0xbd8db4b0	-0.06919229
237	0x3c4d991d	0.012548712
238	0x3cad7bce	0.021177199
239	0x3d9cb555	0.07651774
240	0x3e2049a9	0.15653099
241	0x3c3c40d7	0.011490068
242	0x3e08ea34	0.13370591
243	0xbe1cc104	-0.15308005
244	0xbd65c99a	-0.056100465
245	0x3e262d5f	0.16228245
246	0x3e75b501	0.23994829
247	0x3dc97eeb	0.09838661
248	0xbdaa0c92	-0.08303179
249	0xbdb48838	-0.08815044
250	0x3ddda6d3	0.10822835
251	0xbd27f788	-0.04100755
252	0x3e2d88ce	0.16946718
253	0xbe15a0ec	-0.14612168
254	0x3e09002a	0.13378969
255	0x3d7443b7	0.05963489

G.0.linears.2.bias f4 [10]
0	0xbdabeb65	-0.08394507
1	0xbc8f0359	-0.017457651
2	0x3e06b4bd	0.13154884
3	0xbcc7fdc7	-0.024413003
4	0x3e15de20	0.14635515
5	0xbd9d695f	-0.076861136
6	0xbd5bc49c	-0.0536543
7	0x3da52d00	0.08065224
8	0xbd82ee8e	-0.06393157
9	0x3e022198	0.12708127
