para_save/00095params.pth (torch, 118145 bytes, 76 tensors)

F.linears.0.weight f4 [32, 20]
-0.018678393 -0.050398886 -0.17166579 0.024573293 -0.061477896 -0.015177466 -0.15522596 0.080017
-0.119927496 -0.050754927 0.0025492427 -0.04689707 0.074360915 -0.15544981 -0.009229114 0.0129895415
0.08097854 0.13799371 -0.067861445 0.11976525 0.15884635 -0.11712749 -0.0216196 -0.0637476
-0.05725912 -0.16168642 0.010131547 0.084745765 0.037302084 -0.018500164 0.1619899 -0.044423793
-0.16898346 -0.009248235 0.07901697 0.04746727 0.039543647 0.015099883 -0.04948502 0.004203193
-0.12460093 0.04494865 -0.08011504 -0.21990915 -0.14657283 -0.17995518 0.15586853 0.07700788
0.13431172 0.02239839 0.09999692 -0.060176156 -0.025953481 -0.18987897 0.12877096 0.02139324
0.07154637 -0.21354438 -0.07979451 0.034975473 0.053072587 -0.115460336 -0.011199408 -0.046823815
0.13728912 -0.0621326 0.018748548 -0.0338522 -0.013505179 0.15172605 -0.024897391 -0.15773073
-0.079345696 0.008456609 0.01863013 0.09932058 -0.0057691424 0.0073408284 -0.17346218 0.065276094
0.12855291 0.0029947837 -0.1771992 0.111627005 0.04046382 0.0090573495 0.04355914 -0.09384184
0.011117092 0.1649735 -0.034831323 -0.09348082 -0.19209048 -0.105696715 0.16265067 -0.033428606
0.19261308 -0.029717788 -0.12441499 0.014905979 -0.053544678 0.17600812 -0.16789733 -0.10673702
0.08501708 -0.05504104 0.082096234 0.19569354 0.14112741 -0.02126629 0.018821549 -0.02958566
-0.013807653 -0.02902039 -0.024753701 0.045917887 0.20338404 0.013659684 0.052662626 -0.029751733
0.12447648 0.027159663 -0.09026364 -0.047564868 0.047765885 0.036578674 0.19324845 0.06373532
0.062143058 0.13077325 0.15031382 0.0591632 -0.070798725 -0.13504833 0.16230826 0.14116612
-0.17464177 -0.03142161 0.006378533 0.05260474 0.10659742 -0.0494844 0.114915654 0.03931054
-0.012025737 0.049424306 -0.04267065 0.0052329805 0.07595381 -0.13102262 -0.10768286 0.09011446
-0.0067628752 -0.018518684 0.05927017 0.018503362 -0.0018491041 0.023316614 -0.19276807 0.10394272
-0.012502856 0.14209299 0.026555147 0.02066233 -0.09965421 0.1115606 -0.17360093 -0.03782
-0.12252064 0.09352849 0.11418919 -0.13116576 -0.012235027 0.0082879085 -0.06993209 0.054027844
0.06540263 -0.09552587 -0.009386475 0.13620153 0.023564413 -0.0718409 0.101100445 -0.075700216
-0.030272935 -0.053682424 -0.08537263 0.25383407 0.14283308 -0.086925715 0.0036835617 0.024030691
0.087572694 -0.0669388 0.059615705 -0.054210268 -0.09390554 -0.14609624 -0.14220434 -0.023077512
0.050123245 -0.011554701 0.012532732 -0.007686402 -0.10281455 0.045048337 0.086676076 -0.0829713
-0.005205375 0.027639072 -0.07863653 0.0067012254 -0.13055797 0.020029461 0.16500287 0.050696507
0.13050672 -0.16257495 0.0645026 0.051301766 -0.08614611 -0.023702132 -0.013607618 -0.032739896
-0.058922283 0.053694785 0.07746747 -0.067848794 -0.0059281047 -0.19677207 0.009610293 -0.23865335
0.1505402 -0.035719603 -0.030666811 0.09661747 0.02139082 -0.04640769 -0.21518295 0.1511219
0.13078931 -0.04007489 -0.025688399 -0.064070895 0.030538509 0.16784558 0.025772829 0.062979005
-0.0070153787 -0.112203315 0.0064312727 -0.11967438 -0.049533546 -0.1660258 0.01868175 -0.010831006
00000000: 6e03 99bc 106f 4ebd 28c9 2fbe ee4d c93c
00000010: 3fd0 7bbd e8aa 78bc 8ef3 1ebe f4df a33d
00000020: 8c9c f5bd 66e4 4fbd 3211 273b 2417 40bd
00000030: 894a 983d 3c2e 1fbe b635 17bc 16d2 543c
00000040: 14d8 a53d 394e 0d3e f1fa 8abd 7c47 f53d
00000050: 9ea8 223e 8ae0 efbd 961b b1bc 1a8e 82bd
00000060: 8a88 6abd 2091 25be cafe 253c 308f ad3d
00000070: 12ca 183d a88d 97bc aee0 253e b9f5 35bd
00000080: 000a 2dbe e985 17bc a6d3 a13d 0a6d 423d
00000090: 85f8 213d 8065 773c ceb0 4abd f0ba 893b
000000a0: c62e ffbd 131c 383d 5b13 a4bd dd2f 61be
000000b0: 3017 16be 2c46 38be 009c 1f3e 4fb6 9d3d
000000c0: 0389 093e d47c b73c 2fcb cc3d 467b 76bd
000000d0: 659c d4bc a26f 42be 89dc 033e e040 af3c
000000e0: e786 923d 61ab 5abe 4e6b a3bd 7142 0f3d
000000f0: a462 593d 7876 ecbd b97d 37bc 54ca 3fbd
00000100: 8595 0c3e c17e 7ebd 8e96 993c 9ba8 0abd
00000110: d444 5dbc 135e 1b3e 9df5 cbbc 2a84 21be
00000120: ff7f a2bd 978d 0a3c 379e 983c 9768 cb3d
00000130: 130b bdbb 558b f03b 12a0 31be 79af 853d
00000140: 60a3 033e 2244 443b b573 35be b39c e43d
00000150: 64bd 253d 4765 143c 126b 323d 2730 c0bd
00000160: 7724 363c d0ee 283e 4aab 0ebd df72 bfbd
00000170: 5eb3 44be 8577 d8bd e68d 263e 6fec 08bd
00000180: 5d3c 453e b872 f3bc 49cd febd 3538 743c
00000190: aa51 5bbd 793b 343e 47ed 2bbe f098 dabd
000001a0: 6f1d ae3d b772 61bd 1222 a83d e363 483e
000001b0: b483 103e a536 aebc a62f 9a3c a05d f2bc
000001c0: 7f39 62bc 2bbc edbc 46c8 cabc 6514 3c3d
000001d0: e843 503e decc 5f3c c4b4 573d e8b9 f3bc
000001e0: 86ed fe3d f17d de3c 25dc b8bd 61d3 42bd
000001f0: 29a6 433d 85d3 153d ece2 453e aa87 823d
00000200: b889 7e3d 6ce9 053e deeb 193e 1d55 723d
00000210: ecfe 90bd 1c4a 0abe 2334 263e da8d 103e
00000220: 4bd5 32be f2b3 00bd 0303 d13b 1178 573d
00000230: c04f da3d 27b0 4abd e658 eb3d 1704 213d
00000240: 9907 45bc 2471 4a3d 6bc7 2ebd 6c79 ab3b
00000250: ac8d 9b3d cb2a 06be d588 dcbd ee8d b83d
00000260: 1c9b ddbb 7fb4 97bc 47c5 723d 5d94 973c
00000270: a35d f2ba 7c02 bf3c fe64 45be ecdf d43d
00000280: c7d8 4cbc d380 113e 2e8a d93c 0c44 a93c
00000290: 8217 ccbd e279 e43d 71c4 31be 25e9 1abd
000002a0: 1aec fabd dd8b bf3d 06dc e93d 5150 06be
000002b0: 6c75 48bc 02ca 073c 8e38 8fbd 4d4c 5d3d
000002c0: d0f1 853d 11a3 c3bd bbc9 19bc 6a78 0b3e
000002d0: 280a c13c 5221 93bd c00d cf3d b708 9bbd
000002e0: f2fe f7bc 1ae2 5bbd d8d7 aebd 8af6 813e
000002f0: d642 123e 1c06 b2bd e967 713b 03dc c43c
00000300: 5059 b33d 3617 89bd 992f 743d 960b 5ebd
00000310: 8c51 c0bd 419a 15be 049e 11be 0d0d bdbc
00000320: 084e 4d3d ee4f 3dbc 1756 4d3c 37de fbbb
00000330: 6f90 d2bd 9b84 383d 3a83 b13d dbec a9bd
00000340: da91 aabb 566b e23c 300c a1bd f495 db3b
00000350: fdb0 05be d314 a43c 83f6 283e 24a7 4f3d
00000360: 8ea3 053e 0c7a 26be f019 843d cd21 523d
00000370: 5f6d b0bd f92a c2bc 7df2 5ebc 451a 06bd
00000380: 7e58 71bd 10ef 5b3d 44a7 9e3d 4ff4 8abd
00000390: 8c40 c2bb 9e7e 49be 7e74 1d3c 8b61 74be
000003a0: 3627 1a3e b84e 12bd f738 fbbc 61df c53d
000003b0: cd3b af3c fd15 3ebd eb58 5cbe b3bf 1a3e
000003c0: a2ed 053e 9125 24bd 7a70 d2bc 9a37 83bd
000003d0: e52b fa3c b6df 2b3e 8a21 d33c 23fb 803d
000003e0: 43e1 e5bb daca e5bd 6dbd d23b d717 f5bd
000003f0: b0e3 4abd ab02 2abe 780a 993c 8874 31bc

F.linears.0.bias f4 [32]
-0.06060865 0.025860088 0.081357785 -0.09596429 -0.07849046 -0.037958436 -0.095792085 0.030990293
-0.010993893 0.08774642 -0.057701435 -0.03530974 -0.030688295 -0.0011254804 -0.008349865 0.021367438
0.009077824 0.0867666 0.08564978 0.02905132 -0.13077308 -0.0015850716 -0.1060736 -0.04193408
-0.02386313 -0.0026040887 -0.041975774 -0.03599897 0.007161398 -0.012735633 -0.014505698 -0.002777758
00000000: c740 78bd 89d8 d33c e99e a63d ed88 c4bd
00000010: 9bbf a0bd 4e7a 1bbd a42e c4bd 5bdf fd3c
00000020: bb1f 34bc 65b4 b33d 5758 6cbd f2a0 10bd
00000030: 0566 fbbc db84 93ba dfcd 08bc c40a af3c
00000040: 27bb 143c b0b2 b13d 2769 af3d 09fd ed3c
00000050: 61e9 05be 2dc2 cfba 1e3d d9bd 12c3 2bbd
00000060: 9c7c c3bc 5ca9 2abb caee 2bbd a873 13bd
00000070: 29aa ea3b 1ea9 50bc 4fa9 6dbc 0c0b 36bb

F.linears.1.weight f4 [32, 32]
-0.03424293 0.11066844 0.33468738 -0.10003774 -0.14468367 0.042008378 0.018378485 -0.052548688
-0.054542743 0.033837702 -0.011379769 0.043501 -0.09219578 -0.10569124 0.16848451 0.10218136
-0.053972065 -0.009318755 0.05150737 0.14345172 -0.09747558 0.05035501 0.20584947 0.019786503
0.07532456 0.14783973 -0.03899359 -0.082643904 -0.1479897 0.022908866 0.0038575253 0.062619984
0.12046286 0.046649355 0.28784364 0.042676322 -0.032437798 0.122090414 0.015442917 -0.08545787
0.03855077 0.0187394 0.1375534 -0.18884183 -0.011179834 -0.023260606 -0.101269335 0.053227887
0.05918299 0.08301079 -0.15579662 0.006204754 -0.034921873 0.045726158 0.021331014 0.08068279
-0.11980087 -0.0767 0.1050271 0.16255063 -0.045350354 0.11167599 0.11922043 0.116929725
-0.06661281 0.029336609 -0.0129761705 -0.037730515 -0.009737745 -0.007925909 0.013631698 -0.17737724
0.045879293 -0.057171296 0.092565395 0.14946248 0.18922473 -0.014032112 -0.21385182 6.9928785e-05
0.18295804 -0.06930497 -0.046718385 0.075145155 0.15264721 0.13967966 -0.004390424 -0.086953185
-0.19388102 0.05433526 -0.23867756 0.17324485 0.065978386 0.053447153 0.09588408 -0.044737093
-0.12983063 -0.019049162 0.016438533 0.10719451 0.01187773 -0.17570059 0.048599437 0.012393356
0.19488497 -0.20198414 0.16729407 -0.12389105 0.05362484 -0.11471906 -0.13568489 -0.2509565
-0.1328924 -0.102735266 -0.12373788 -0.25086555 0.08919527 0.096872225 -0.097363114 0.18717726
0.03759775 0.11106603 0.0013162969 -0.07009224 0.0063164644 -0.0360759 0.1641758 -0.11336611
-0.019824183 0.15581292 0.12124188 -0.12362335 0.090002686 -0.028757542 -0.008830689 0.051264353
-0.0761597 0.034034695 0.03573428 0.08172936 -0.12095233 -0.14603913 0.00031369043 -0.0814878
-0.18480769 0.03916582 0.0992683 0.038982384 -0.090777166 0.09247866 -0.027097136 0.05190286
0.14219536 0.008880589 -0.15407309 0.19214961 0.032101862 -0.10948348 0.08977626 0.017661339
-0.09625225 -0.01635456 -0.13280267 0.072721735 -0.11116365 -0.023820955 -0.20092845 -0.21035196
-0.0037354864 -0.009831869 -0.09632754 -0.13468318 0.10575219 0.08273125 0.033937488 0.13247089
-0.05617951 -0.020997684 -0.028743133 -0.09589257 -0.0695395 0.009294924 0.036083136 -0.05284042
-0.020422054 0.07743135 0.07852216 0.036398184 0.041457225 0.07054994 -0.12053892 -0.097851075
-0.007883927 -0.12746601 -0.1330606 -0.050706215 -0.06579148 -0.023766255 0.09073218 -0.0043412764
-0.1857657 -0.1233535 0.09775305 -0.1985492 0.066578045 -0.08112025 -0.14669769 0.1783405
-0.06527683 0.13336526 -0.06828703 -0.053247616 0.04465655 -0.0012314088 0.06570717 -0.16145942
-0.03531645 -0.14123447 0.01609422 0.007048054 -0.07649019 -0.017649539 -0.03390754 -0.13144124
0.08522259 0.048102006 -0.18217921 0.013400212 -0.025332958 0.11395105 0.06456609 0.033144668
0.08319562 -0.027886728 0.056288324 -0.067199886 -0.08319096 -0.1629606 0.043118004 -0.055832777
-0.06470069 0.052078377 0.05338997 -0.19021565 0.1141914 0.035197478 0.25784025 -0.06926351
-0.10646796 -0.044435803 0.021158578 0.011198959 0.09325049 0.06638465 0.09022311 0.21823034
00000000: 5142 0cbd 23a6 e23d 255c ab3e 96e0 ccbd
00000010: f527 14be fa10 2c3d 7a8e 963c 4b3d 57bd
00000020: 3668 5fbd 6799 0a3d 3672 3abc 1b2e 323d
00000030: 24d1 bcbd a674 d8bd 3487 2c3e 7644 d13d
00000040: d011 5dbd b1ad 18bc 64f9 523d 02e5 123e
00000050: 47a1 c7bd 0e41 4e3d 34ca 523e 4e17 a23c
00000060: c343 9a3d 4c63 173e beb7 1fbd 3541 a9bd
00000070: 9d8a 17be 60ab bb3c 89ce 7c3b e83e 803d
00000080: 3bb5 f63d 6513 3f3d 3e60 933e 5ecd 2e3d
00000090: 7fdd 04bd 8a0a fa3d 4a04 7d3c 8904 afbd
000000a0: 6ae7 1d3d 5f83 993c ccda 0c3e c15f 41be
000000b0: 9f2b 37bc 078d bebc 4c66 cfbd 7c05 5a3d
000000c0: dd69 723d 9001 aa3d 2689 1fbe 4051 cb3b
000000d0: 3d0a 0fbd 5a4b 3b3d 61be ae3c 053d a53d
000000e0: 295a f5bd e414 9dbd 7318 d73d ac73 263e
000000f0: 4bc1 39bd 62b6 e43d d729 f43d da78 ef3d
00000100: 4c6c 88bd 5453 f03c 019a 54bc 508b 1abd
00000110: 108b 1fbc acdb 01bc 7c57 5f3c 61a2 35be
00000120: edeb 3b3d 732c 6abd ed92 bd3d b10c 193e
00000130: 21c4 413e f2e6 65bc f9fb 5abe bba6 9238
00000140: 5a59 3b3e c4ef 8dbd c75b 3fbd b4e5 993d
00000150: 8d4f 1c3e 2f08 0f3e 8cdd 8fbb 8314 b2bd
00000160: bf88 46be a68e 5e3d e467 74be 1967 313e
00000170: ad1f 873d 67eb 5a3d df5e c43d 3e3e 37bd
00000180: 52f2 04be fd0c 9cbc 1aaa 863c cc88 db3d
00000190: cf9a 423c dbea 33be 3410 473d 810d 4b3c
000001a0: ed8f 473e eed4 4ebe 234f 2b3e 97ba fdbd
000001b0: b8a5 5b3d d4f1 eabd fbf0 0abe 5f7d 80be
000001c0: f214 08be de66 d2bd 496a fdbd 7371 80be
000001d0: 02ac b63d f264 c63d 5066 c7bd 65ab 3f3e
000001e0: 1900 1a3d 9676 e33d 9887 ac3a 858c 8fbd
000001f0: 58fa ce3b 53c4 13bd b31d 283e 7e2c e8bd
00000200: 5366 a2bc 6c8d 1f3e aa4d f83d 3d2e fdbd
00000210: 5453 b83d f094 ebbc 98ae 10bc 92fa 513d
00000220: 9ef9 9bbd f767 0b3d 1c5e 123d b961 a73d
00000230: dbb5 f7bd 488b 15be d176 a439 13e3 a6bd
00000240: 3a3e 3dbe 576c 203d 2e4d cb3d feab 1f3d
00000250: 61e9 b9bd 7465 bd3d d0fa ddbc 1898 543d
00000260: a99b 113e e47f 113c 56c5 1dbe dec2 443e
00000270: 3e7d 033d e038 e0bd 9edc b73d 83ae 903c
00000280: e61f c5bd 00fa 85bc 6cfd 07be 22ef 943d
00000290: c5a9 e3bd 2a24 c3bc 30c0 4dbe 8166 57be
000002a0: 10cf 74bb d915 21bc 6047 c5bd 63ea 09be
000002b0: 9b94 d83d 006f a93d 0902 0b3d 73a6 073e
000002c0: 7c1c 66bd 5603 acbc b876 ebbc 5363 c4bd
000002d0: ba6a 8ebd bd49 183c e9cb 133d 326f 58bd
000002e0: 274c a7bc 5494 9e3d 3ad0 a03d 4316 153d
000002f0: 0dcf 293d 7d7c 903d 1cdd f6bd 2566 c8bd
00000300: 962b 01bc 7386 02be 0a41 08be 52b1 4fbd
00000310: afbd 86bd 73b1 c2bc cbd1 b93d 4441 8ebb
00000320: 5d39 3ebe c3a0 fcbd c032 c83d 7b50 4bbe
00000330: 125a 883d 6022 a6bd eb37 16be e49e 363e
00000340: dcaf 85bd e790 083e 12da 8bbd 2c1a 5abd
00000350: c9e9 363d 3967 a1ba 7b91 863d 9e55 25be
00000360: fba7 10bd c59f 10be 07d8 833c 5df3 e63b
00000370: e4a6 9cbd c495 90bc a2e2 0abd 8898 06be
00000380: 2e89 ae3d 9c06 453d 308d 3abe 908c 5b3c
00000390: 1087 cfbc 2b5f e93d 3a3b 843d b4c2 073d
000003a0: 7762 aa3d b572 e4bc 968e 663d 18a0 89bd
000003b0: 0660 aabd 25df 26be 819c 303d e9b0 64bd
000003c0: cc81 84bd 2350 553d 71af 5a3d e4c7 42be
000003d0: 2edd e93d 3b2b 103d a303 843e 07da 8dbd
000003e0: e00b dabd 5102 36bd c154 ad3c d77b 373c
000003f0: 1dfa be3d adf4 873d e5c6 b83d c677 5f3e

F.linears.1.bias f4 [32]
0.0002535847 -0.027093703 -0.035076857 0.02764723 0.13589653 0.014656082 -0.0042740833 -0.05204267
0.10234304 -0.01983552 0.011057631 -0.10146922 0.024136735 0.1080461 -0.00782804 -0.10323138
0.05520568 0.06117139 -0.06082046 0.08281896 -0.008485384 -0.053061668 0.052742224 -0.102349445
0.02745862 0.0672717 -0.0047123316 0.09980702 -0.03789369 -0.050331533 0.043181308 0.12829338
00000000: 90f3 8439 9df3 ddbc c0ac 0fbd 727c e23c
00000010: 7628 0b3e 1020 703c 9c0d 8cbb b22a 55bd
00000020: 3a99 d13d 1a7e a2bc 112b 353c 18cf cfbd
00000030: 67ba c53c 4647 dd3d 2e41 00bc f96a d3bd
00000040: 5a1f 623d da8e 7a3d e01e 79bd fd9c a93d
00000050: 4806 0bbc 3157 59bd 3b08 583d 969c d1bd
00000060: e6f0 e03c bfc5 893d e769 9abb 9f67 cc3d
00000070: 6a36 1bbd 7028 4ebd e2de 303d 575f 033e

F.linears.2.weight f4 [10, 32]
-0.009810586 -0.07287694 0.058433477 -0.008246921 -0.0867912 0.14115454 0.2672254 0.053677354
0.123485476 -0.16022088 0.051369652 -0.011256116 0.05316233 -0.121788576 0.045868855 0.21213466
0.0010717134 -0.018864818 0.17080367 0.16414504 0.020766323 0.20199826 -0.025894558 0.062181845
-0.13791935 0.02377237 0.14235179 -0.05542276 -0.016756713 -0.024348382 -0.028464751 -0.0923764
-0.050315022 -0.078404926 0.05336244 0.16352424 -0.0808012 0.14949924 -0.034805242 0.3164323
0.060892887 -0.22171485 0.025819853 0.05827518 0.1252509 -0.08995684 0.021792922 0.1127359
-0.14339755 0.051271282 0.0245556 -0.0067572976 0.07617134 -0.17891738 -0.23701958 0.17216039
0.07563641 -0.060407188 0.11937614 -0.14986113 -0.20565028 0.038523775 0.13819586 -0.23716758
0.09626065 0.14903529 -0.27342895 -0.108499914 -0.04415838 0.0541153 -0.021546828 0.11256818
0.04289348 -0.06229099 -0.13487199 0.03173537 0.009855629 0.016069992 0.028357226 -0.0071937223
-0.15591648 0.00059056387 -0.0074194376 0.058075044 0.0025758452 0.08176542 -0.14186808 0.0150007
-0.047156516 0.18084803 0.09767167 -0.21671125 -0.14128542 0.117744684 -0.001631209 -0.16168101
0.16983083 0.24851635 -0.060093418 -0.14349121 0.119125456 0.051767994 -0.16954139 -0.03446207
0.07592125 0.04821437 0.084684804 -0.2978669 0.145494 0.013358157 -0.10271173 -0.18978456
-0.07228316 0.016608939 0.16390687 0.18335441 -0.071202286 -0.053161856 0.1094061 -0.015185905
-0.0143201975 -0.06329619 0.042639058 0.04023015 0.17630419 0.012940369 0.007933557 -0.08832694
-0.21679473 0.07410689 -0.06931559 -0.09616009 -0.05139834 -0.027235696 -0.038401324 0.20757319
0.014067471 -0.06296548 -0.0049283262 0.22223966 -0.1189161 -0.06452886 0.022866355 0.026741866
-0.21071827 -0.038214542 -0.1398815 -0.09828557 0.058816243 0.07141512 -0.091563515 -0.18440406
-0.10497074 0.2249815 0.11829478 -0.062680714 0.0336582 0.1104112 -0.16956326 -0.11590142
0.12747242 0.02959292 -0.013156971 -0.22654898 0.016592314 0.19831659 -0.02927014 0.06636126
-0.024424149 -0.07644076 -0.10622097 0.08633984 0.03021083 -0.07647669 -0.06230439 0.06569467
-0.117989965 0.113282174 -0.016576048 0.012462251 -0.15748608 -0.07778563 0.15428255 0.18516085
-0.009084612 -0.1382928 -0.05753758 -0.16321136 -0.15014525 -0.008703569 -0.00877292 -0.042272177
0.07248798 -0.049463414 0.19197871 -0.08508403 0.0846512 0.14863883 0.13753925 0.046175387
0.11748337 0.08642704 -0.1939348 -0.017264938 -0.034751393 -0.012251142 -0.006694492 -0.16958039
0.10972083 0.03840254 0.12222186 0.054160196 -0.055263314 -0.15059863 0.03842926 0.011351883
0.13915692 0.037962165 0.047394667 -0.034534648 0.03464876 0.11178838 0.00072820106 -0.05054405
0.08508105 -0.15733074 0.0031152475 -0.07411648 0.03192123 0.0056691947 -0.1473774 0.12664682
-0.1793607 -0.09580799 0.13513415 -0.14784731 -0.12436083 0.0062819384 -0.13997774 -0.104676455
0.08042463 0.2017071 0.039129592 0.24982077 -0.12495153 0.106265865 -0.0061453152 0.04058022
-0.24261393 -0.021810578 -0.029882567 -0.09592443 0.14932033 -0.063020706 -0.15146975 0.22598076
00000000: 95bc 20bc 8140 95bd f157 6f3d 181e 07bc
00000010: 96bf b1bd d18a 103e c5d1 883e c9dc 5b3d
00000020: f4e5 fc3d f110 24be fc68 523d 936b 38bc
00000030: bec0 593d 4a6c f9bd fbe0 3b3d d439 593e
00000040: bc78 8c3a 648a 9abc 28e7 2e3e a315 283e
00000050: 231e aa3c a2d8 4e3e d320 d4bc 64b2 7e3d
00000060: bb3a 0dbe 46be c23c abc4 113e fa02 63bd
00000070: 6045 89bc 4276 c7bc e92e e9bc d72f bdbd
00000080: 2017 4ebd c392 a0bd 9392 5a3d e672 273e
00000090: 197b a5bd 5416 193e f18f 0ebd 6a03 a23e
000000a0: d26a 793d 3809 63be 2884 d33c f5b1 6e3d
000000b0: c641 003e 4b3b b8bd 1287 b23c 14e2 e63d
000000c0: cfd6 12be d601 523d d328 c93c 526c ddbb
000000d0: b8ff 9b3d 1e36 37be 43b5 72be d04a 303e
000000e0: 43e7 9a3d 876d 77bd 7a7b f43d 3275 19be
000000f0: fd95 52be 1bcb 1d3d 3783 0d3e 0fdc 72be
00000100: 4e24 c53d b59c 183e e1fe 8bbe 3435 debd
00000110: 6bdf 34bd 01a8 5d3d f982 b0bc 258a e63d
00000120: 13b1 2f3d d624 7fbd e21b 0abe f3fc 013d
00000130: 8179 213c 37a5 833c 6a4d e83c 51b9 ebbb
00000140: 92a8 1fbe 12d0 1a3a c11e f3bb 19e0 6d3d
00000150: 83cf 283b a174 a73d de45 11be 7fc5 753c
00000160: 3127 41bd 3a30 393e 1608 c83d 8ee9 5dbe
00000170: 20ad 10be 2024 f13d 4bce d5ba b58f 25be
00000180: 22e8 2d3e 127b 7e3e 8424 76bd 5cef 12be
00000190: 0cf8 f33d ad0a 543d 429c 2dbe 1928 0dbd
000001a0: 9a7c 9b3d 6e7c 453d 3a6f ad3d 0382 98be
000001b0: 61fc 143e 2cdc 5a3c 875a d2bd e256 42be
000001c0: 3209 94bd 780f 883c 34d7 273e 42c1 3b3e
000001d0: 81d2 91bd 3fc0 59bd 4e10 e03d 4dce 78bc
000001e0: 439f 6abc 6fa1 81bd 4ba6 2e3d 5fc8 243d
000001f0: 1689 343e d703 543c c0fb 013c c1e4 b4bd
00000200: 70ff 5dbe 5ac5 973d 55f5 8dbd 95ef c4bd
00000210: 1187 52bd 651d dfbc b54a 1dbd 118e 543e
00000220: 407b 663c 0cf4 80bd cc7d a1bb cb92 633e
00000230: 498a f3bd b527 84bd 3952 bb3c c211 db3c
00000240: 88c6 57be da86 1cbd 193d 0fbe f249 c9bd
00000250: 4de9 703d 1742 923d a785 bbbd 6bd4 3cbe
00000260: e6fa d6bd 8d61 663e 8944 f23d bf5e 80bd
00000270: 2edd 093d 441f e23d fea1 2dbe b95d edbd
00000280: 2188 023e da6c f23c 5690 57bc 75fc 67be
00000290: 9bec 873c 8113 4b3e efc7 efbc 6ae8 873d
000002a0: 2715 c8bc f98c 9cbd 618a d9bd f1d2 b03d
000002b0: b47c f73c d09f 9cbd e332 7fbd ed8a 863d
000002c0: b9a4 f1bd 7c00 e83d 7eca 87bc 782e 4c3c
000002d0: 0844 21be 134e 9fbd 3ffc 1d3e ce9a 3d3e
000002e0: a0d7 14bc a19c 0dbe 87ac 6bbd e120 27be
000002f0: adbf 19be 6a99 0ebc 4bbc 0fbc 9725 2dbd
00000300: 9474 943d 269a 4abd 1196 443e 8940 aebd
00000310: 9c5d ad3d c734 183e 17d7 0c3e 6722 3d3d
00000320: 1f9b f03d a900 b13d d896 46be 336f 8dbc
00000330: 7a57 0ebd 04b9 48bc 785d dbbb 7ba6 2dbe
00000340: 51b5 e03d fb4b 1d3d 744f fa3d 15d7 5d3d
00000350: c95b 62bd 8736 1abe 0068 1d3d 40fd 393c
00000360: 277f 0e3e 377e 1b3d e920 423d 3474 0dbd
00000370: dceb 0d3d 4ef1 e43d bfe4 3e3a 4707 4fbd
00000380: f93e ae3d 4f1b 21be 2e29 4c3b 62ca 97bd
00000390: d6bf 023d a7c4 b93b 1aea 16be b4af 013e
000003a0: 55aa 37be fb36 c4bd 9b60 0a3e 4965 17be
000003b0: e4b0 febd b8d8 cd3b 5356 0fbe 9c60 d6bd
000003c0: abb5 a43d 4e8c 4e3e 5a46 203d 04d1 7f3e
000003d0: 96e6 ffbd eba1 d93d a45e c9bb 7237 263d
000003e0: c96f 78be 19ac b2bc 49cc f4bc 0774 c4bd
000003f0: 6ee7 183e 0011 81bd e31a 1bbe 8067 673e

F.linears.2.bias f4 [10]
0.018556297 -0.102216765 0.031938218 -2.2263426e-05 -0.04602635 -0.06005109 0.01763894 0.083306246
0.07503631 0.0018945641
00000000: 6003 983c 0657 d1bd a6d1 023d 58c2 bab7
00000010: 2086 3cbd 22f8 75bd 8a7f 903c 779c aa3d
00000020: a3ac 993d 0653 f83a

G.0.linears.0.weight f4 [32, 10]
-0.07259451 -0.034294885 0.072647884 0.09138171 -0.060345184 -0.012554306 0.10706229 0.19191296
-0.035561018 -0.09515103 0.10443965 -0.047570266 -0.21010762 0.055217054 -0.22863713 -0.010285722
0.017281469 -0.130138 -0.060620327 0.03398239 0.03178092 0.0870165 0.05871562 -0.117172346
0.1291221 0.1998665 -0.13272724 -0.11456899 0.012628287 -0.009020912 0.14514382 0.05753512
0.1184506 -0.07277568 -0.1789908 -0.12163486 -0.1421273 0.015578039 0.036263127 -0.052742306
0.11883038 0.14971074 -0.0050091934 -0.022086432 0.14081006 0.09296097 -0.15940914 -0.1308656
0.1192157 -0.03336726 0.014232208 0.07562507 0.20815198 -0.13560788 0.11249134 -0.0040914016
-0.065322295 0.059576258 -0.12534596 -0.1739728 0.22492245 0.105055556 0.08588972 -0.18413499
0.048586246 -0.038907718 0.051120892 -0.07515667 -0.10495109 -0.09840614 0.012572557 0.23897009
0.0428157 -0.056915972 0.121978 -0.039516762 -0.24038376 0.05777718 0.025495121 -0.05029697
-0.068788 0.1928079 0.22210778 -0.059209246 0.16429989 0.017834228 -0.005681984 -0.05458195
-0.06977743 -0.012195199 0.060686726 -0.043941695 -0.036978222 0.015401062 -0.049593538 -0.085648514
0.20379971 -0.14843947 -0.018403187 0.19543126 0.08967035 0.060192842 0.252994 -0.28852633
0.271365 0.1554519 0.00021664333 0.022496259 0.08881348 -0.10597646 -0.239639 -0.17169929
-0.06069503 0.115197964 -0.08982736 -0.04545009 0.10147693 -0.12196975 0.03190291 0.19328214
-0.15347372 -0.08663014 -0.21755686 0.035667785 -0.18115398 -0.053430136 0.059443105 -0.109783165
0.002827362 0.10976909 0.2014353 0.06846414 0.08479872 -0.041445836 -0.032164488 0.038976654
-0.12837477 -0.0861482 -0.25064597 0.08774806 -0.0232596 0.09980171 0.07954805 -0.13823676
0.16961364 0.05456883 -0.0066511836 0.050508138 0.15137926 -0.08938714 -0.080617465 -0.07283709
-0.2147839 0.042473175 0.03240639 -0.09924275 0.19047768 0.16556963 0.28674722 0.35011655
-0.027686104 -0.10021104 0.043517083 0.16919756 -0.09218403 0.006925962 0.17154157 0.19836636
0.16951287 0.08095834 -0.07519284 -0.06742707 -0.09078259 0.028956499 0.013077808 -0.07849758
0.13821176 0.1814517 -0.07207049 0.044787925 0.15569611 0.19553028 0.17545089 -0.0643037
0.04900193 0.1398563 -0.12536009 -0.0056917346 0.08327972 -0.22818053 -0.12342816 -0.33838946
-0.18371494 0.14928345 -0.17658265 -0.17519616 0.26558274 0.07330161 -0.0978072 0.11950311
-0.17932983 -0.16034846 -0.11435083 0.21469861 -0.008604492 -0.11887575 -0.07557211 -0.0719484
-0.023709295 0.0264574 -0.06336806 -0.021355206 -0.18438445 0.048234742 -0.13913667 -0.329436
0.026512513 -0.115736656 0.17850606 0.065706864 -0.10130674 0.03826213 0.15783808 -0.24283884
-0.03989201 0.20999356 -0.18551947 -0.13913713 -0.0030540638 -0.12329055 0.24450026 0.40191615
0.14066505 -0.20366152 -0.12145898 0.08238126 0.0113292085 0.03316667 -0.025771946 0.0461888
0.038045194 -0.1462243 0.034094367 0.2868558 -0.2124483 -0.048101522 0.10564804 0.12997979
0.14789127 -0.07180028 -0.03704743 -0.15218696 -0.12308879 0.14394301 -0.28864855 -0.17638396
00000000: 6eac 94bd cb78 0cbd 6ac8 943d 5526 bb3d
00000010: 832c 77bd 93b0 4dbc 7943 db3d d584 443e
00000020: 6ea8 11bd 8bde c2bd 75e4 d53d 0ad9 42bd
00000030: 7426 57be 472b 623d da1f 6abe 7285 28bc
00000040: de91 8d3c e542 05be 054d 78bd 1e31 0b3d
00000050: b62c 023d b535 b23d ca7f 703d 0ef8 efbd
00000060: 9538 043e cea9 4c3e a6e9 07be 26a3 eabd
00000070: e0e6 4e3c 73cc 13bc 95a0 143e f2a9 6b3d
00000080: 3a96 f23d 6a0b 95bd 5d49 37be b31b f9bd
00000090: d289 11be 083b 7f3c a588 143d 5108 58bd
000000a0: 585d f33d c64d 193e 2924 a4bb 9bee b4bc
000000b0: 8330 103e 5262 be3d 263c 23be a201 06be
000000c0: 5c27 f43d 1cac 08bd 352e 693c 51e1 9a3d
000000d0: cb25 553e cbdc 0abe dc61 e63d 2a11 86bb
000000e0: b2c7 85bd 3c06 743d b15a 00be ed25 32be
000000f0: 1252 663e 5e27 d73d f3e6 af3d e28d 3cbe
00000100: 5f02 473d b35d 1fbd 2464 513d bdeb 99bd
00000110: 99f0 d6bd 2989 c9bd 20fd 4d3c 93b4 743e
00000120: 845f 2f3d b920 69bd 9acf f93d 54dc 21bd
00000130: 2927 76be c4a7 6c3d 25db d03c 3204 4ebd
00000140: b9e0 8cbd 6f6f 453e 3970 633e 6585 72bd
00000150: 3b3e 283e 1619 923c f02f babb 5391 5fbd
00000160: 78e7 8ebd 5fce 47bc a592 783d 35fc 33bd
00000170: 7a76 17bd bc54 7c3c 9822 4bbd 7d68 afbd
00000180: dfb0 503e 8400 18be 48c2 96bc 221f 483e
00000190: 17a5 b73d c58c 763d 6e88 813e b9b9 93be
000001a0: 5af0 8a3e c82e 1f3e c02a 6339 134a b83c
000001b0: d8e3 b53d 300a d9bd ed63 75be f0d1 2fbe
000001c0: 5a9b 78bd e9ec eb3d 68f7 b7bd e029 3abd
000001d0: 23d3 cf3d 47cb f9bd a0ac 023d c1eb 453e
000001e0: 3728 1dbe 256b b1bd 3ac7 5ebe 6218 123d
000001f0: 6e80 39be 8fd9 5abd 9d7a 733d ffd5 e0bd
00000200: 434b 393b 9ece e03d 0e45 4e3e ed36 8c3d
00000210: f4aa ad3d 1cc3 29bd e9be 03bd fca5 1f3d
00000220: ad74 03be 786e b0bd ab54 80be 41b5 b33d
00000230: eb8a bebc d764 cc3d 17ea a23d f08d 0dbe
00000240: 33af 2d3e 9183 5f3d 2cf2 d9bb 9fe1 4e3d
00000250: 2a03 1b3e 9b10 b7bd c51a a5bd 9d2b 95bd
00000260: 50f0 5bbe 5af8 2d3d 90bc 043d c83f cbbd
00000270: 950c 433e 168b 293e 88d0 923e 7a42 b33e
00000280: f8cd e2bc 723b cdbd f83e 323d 2042 2d3e
00000290: fbca bcbd 2ef3 e23b 98a8 2f3e 8d20 4b3e
000002a0: c894 2d3e 7ccd a53d b4fe 99bd 3417 8abd
000002b0: 39ec b9bd 2e36 ed3c 4d44 563c 57c3 a0bd
000002c0: 6287 0d3e 79ce 393e b199 93bd 8b73 373d
000002d0: cd6e 1f3e 1739 483e 66a9 333e a9b1 83bd
000002e0: 3fb6 483d 7d36 0f3e 655e 00be bb81 babb
000002f0: 8f8e aa3d 28a8 69be e7c7 fcbd 6241 adbe
00000300: c51f 3cbe c3dd 183e 15d2 34be 9f66 33be
00000310: 76fa 873e 281f 963d 244f c8bd 0cbe f43d
00000320: 3da2 37be 6332 24be c530 eabd f4d9 5b3e
00000330: dbf9 0cbc 2175 f3bd 8dc5 9abd af59 93bd
00000340: ff39 c2bc 30bd d83c 1dc7 81bd 1df1 aebc
00000350: 47cf 3cbe cb91 453d d879 0ebe d6ab a8be
00000360: c530 d93c 5707 edbd 4bca 363e 5291 863d
00000370: e879 cfbd c0b8 1c3d 4ea0 213e bfaa 78be
00000380: ce65 23bd 8d08 573e d1f8 3dbe f779 0ebe
00000390: b026 48bb c27f fcbd 475e 7a3e f4c7 cd3e
000003a0: 800a 103e a58c 50be 7cbf f8bd 82b7 a83d
000003b0: 259e 393c c6d9 073d b01f d3bc 7830 3d3d
000003c0: 47d5 1b3d d3bb 15be 89a6 0b3d c3de 923e
000003d0: 0c8c 59be 1a06 45bd 005e d83d 6c19 053e
000003e0: cf70 173e 060c 93bd 0cbf 17bd e6d6 1bbe
000003f0: fa15 fcbd cc65 133e bec9 93be ff9d 34be

G.0.linears.0.bias f4 [32]
-0.0033872924 0.0013709221 -0.018307148 -0.022309253 -0.011762244 -0.0036926097 -0.095161065 -0.05363428
0.012032396 -0.050527096 -0.056169692 0.050717734 -0.034536485 -0.04232583 -0.037456587 0.07906981
0.15488727 0.13221727 -0.11110849 0.027663618 0.03370242 0.14885895 -0.1897901 -0.028101243
0.18836118 0.10949052 -0.023332074 0.10176749 -0.07581799 -0.1445132 -0.010522267 0.013025314
00000000: 56fd 5dbb 83b0 b33a dff8 95bc e5c1 b6bc
00000010: 6db6 40bc b6ff 71bb cee3 c2bd 9eaf 5bbd
00000020: 8723 453c 80f5 4ebd 3112 66bd 66bd 4f3d
00000030: 2176 0dbd d95d 2dbd 146c 19bd 5aef a13d
00000040: c59a 1e3e f763 073e d98c e3bd d09e e23c
00000050: 8c0b 0a3d 7b6e 183e 5658 42be 9434 e6bc
00000060: c1e1 403e 913c e03d e822 bfbc 796b d03d
00000070: 7646 9bbd 45fb 13be 9665 2cbc 2068 553c

G.0.linears.1.weight f4 [32, 32]
0.010775138 0.008676454 -0.020305986 0.06473436 0.08685866 0.38272148 -0.11132572 0.037070006
0.08988791 -0.21094286 0.039716527 -0.11170319 -0.09249642 0.100437865 -0.15887839 -0.05882879
0.017211692 -0.0103203645 0.09049075 -0.073450826 -0.05838349 0.058872644 0.15781322 0.07604712
0.07839156 0.105177596 0.23904882 0.027473766 0.22123641 -0.01685746 0.05587348 0.049960703
-0.03120905 0.05111249 0.32501566 0.15667343 0.15909447 -0.01461559 -0.06919005 0.1847872
0.025660623 -0.02511299 0.15069287 0.002928082 -0.10986706 -0.004941634 0.12709306 -0.09586238
-0.17857134 -0.045068026 -0.022044048 -0.24437766 -0.12587509 0.026845329 -0.06997212 -0.02251521
-0.067154735 -0.016804649 0.26245007 -0.087999105 0.04143338 0.24539754 -0.10841696 -0.073617205
-0.28007886 -0.02746099 0.08200647 0.082488194 0.040156096 0.008317031 0.1320731 0.21963818
0.10617647 -0.0073070414 0.09289679 -0.06904676 -0.009097626 -0.12482645 0.12499335 0.0435484
-0.25932842 -0.221129 0.037448976 -0.3164592 -0.046715323 0.023437554 0.15315287 0.13047422
-0.09175447 -0.09717417 0.07949044 -0.10836434 0.21157014 0.06801701 -0.07941842 -0.0068973955
0.15128182 -0.11379546 0.08853986 0.07552559 0.1455246 0.08182447 -0.055132195 0.12442513
0.105401024 -0.008365395 0.09128302 -0.25758243 -0.23699272 0.14652748 0.17510577 -0.12590872
-0.13422526 -0.22727992 0.1461667 -0.057747833 -0.068640105 -0.27306744 0.060119137 0.076004446
-0.23276913 0.15902132 0.18277366 -0.031436976 0.03382706 0.020220555 -0.15035595 -0.2716581
0.07662242 0.16103747 -0.12627517 -0.20329134 -0.26431087 -0.15932874 -0.0027504568 -0.14652227
0.036341734 0.013877722 -0.1706487 0.16700372 0.024352333 -0.020134993 -0.28497142 0.124998875
0.17032611 -0.1730389 0.010998158 0.19018908 0.04969567 0.17700098 -0.08149416 -0.20604077
0.27354512 0.16626838 -0.072972834 0.1825641 0.06805434 -0.28708428 0.251822 0.17723672
0.02545651 -0.01538711 0.19138406 0.22055197 0.06228745 0.16653371 -0.016543841 -0.14311492
0.24759324 0.039629947 0.13345543 -0.07837522 -0.16851102 0.059883684 0.13512802 0.08365559
0.02427482 -0.07326896 0.1815484 -0.032579854 0.03215395 0.03362533 0.026320506 0.19382183
-0.0247007 -0.0706243 0.17837323 -0.27296633 0.040588498 0.06176109 -0.16214171 0.025903603
-0.061243918 -0.0828235 -0.08062672 -0.04674087 0.23879375 0.08681297 0.123518236 0.07962115
0.13801412 -0.13447925 0.01545442 -0.30175748 -0.089458264 0.038758785 0.22037773 -0.13141304
-0.09778125 -0.24047975 0.084725626 -0.15938555 -0.045430623 -0.19117504 0.2071069 0.109438114
-0.07918982 0.1408993 0.07568358 -0.08568986 -0.0028185754 0.18239078 -0.09543715 -0.011094911
0.011530336 0.014340902 -0.061806694 0.117743604 0.13620512 -0.026436133 -0.03588677 0.057948217
0.0093295835 -0.068949886 -0.05152792 0.028195381 -0.1280169 0.093755856 0.04464348 0.18943413
-0.12455573 0.034469694 0.017046293 -0.13326487 -0.17613497 -0.2087491 0.03536709 -0.04656905
0.022926327 0.13650352 0.06591191 -0.088637926 0.07236286 -0.0017255952 -0.09496528 -0.14537348
00000000: 348a 303c b027 0e3c bd58 a6bc 7393 843d
00000010: f4e2 b13d 12f4 c33e bdfe e3bd b8d6 173d
00000020: 2717 b83d 6801 58be ccad 223d a4c4 e4bd
00000030: c36e bdbd 5eb2 cd3d 04b1 22be 75f6 70bd
00000040: 89ff 8c3c bf16 29bc 3753 b93d 636d 96bd
00000050: 8723 6fbd 7124 713d ca99 213e 98be 9b3d
00000060: c18b a03d 5a67 d73d 37c9 743e aa10 e13c
00000070: cc8b 623e a818 8abc 97db 643d 98a3 4c3d
00000080: 1faa ffbc 555b 513d 7468 a63e 006f 203e
00000090: a9e9 223e 3a76 6fbc 83b3 8dbd db38 3d3e
000000a0: 3a36 d23c c2b9 cdbc 3b4f 1a3e 10e5 3f3b
000000b0: fb01 e1bd 6eed a1bb af24 023e 7f53 c4bd
000000c0: 68db 36be 4099 38bd b895 b4bc 233e 7abe
000000d0: 66e5 00be bcea db3c 8b4d 8fbd d171 b8bc
000000e0: 6c88 89bd e7a9 89bc db5f 863e e038 b4bd
000000f0: 0cb6 293d 7e49 7b3e b609 debd 9ec4 96bd
00000100: 7f66 8fbe dff5 e0bc 02f3 a73d 92ef a83d
00000110: b87a 243d 2844 083c 2c3e 073e d5e8 603e
00000120: 0d73 d93d e86f efbb ac40 be3d 6368 8dbd
00000130: 360e 15bc 03a5 ffbd 83fc ff3d cf5f 323d
00000140: b2c6 84be a46f 62be 1964 193d f106 a2be
00000150: 9158 3fbd 1d00 c03c 1bd4 1c3e 099b 053e
00000160: c4e9 bbbd 4003 c7bd e2cb a23d 20ee ddbd
00000170: d8a5 583e 814c 8b3d 20a6 a2bd 8c03 e2bb
00000180: 9fe9 1a3e 980d e9bd 6354 b53d 29ad 9a3d
00000190: 6704 153e 9693 a73d 4cd2 61bd 9ad2 fe3d
000001a0: 7edc d73d 020f 09bc 98f2 ba3d d8e1 83be
000001b0: 38ae 72be 4d0b 163e ed4e 333e 37ee 00be
000001c0: 5972 09be 11bc 68be b9ac 153e fe88 6cbd
000001d0: 2f93 8cbd 7fcf 8bbe 7c3f 763d 38a8 9b3d
000001e0: 085b 6ebe 7cd6 223e 0529 3b3e 0fc4 00bd
000001f0: 3e8e 0a3d 94a5 a53c e9f6 19be c516 8bbe
00000200: 37ec 9c3d 02e7 243e 474e 01be 9b2b 50be
00000210: c153 87be 1327 23be 0241 34bb ef09 16be
00000220: 12db 143d 635f 633c 88be 2ebe 0603 2b3e
00000230: 8b7e c73c 24f2 a4bc c6e7 91be 69ff ff3d
00000240: f869 2e3e 1c31 31be 9e31 343c edc0 423e
00000250: b08d 4b3d bf3f 353e 69e6 a6bd 5afc 52be
00000260: 1b0e 8c3e 4242 2a3e c872 95bd 15f2 3a3e
00000270: 1360 8b3d b6fc 92be d0ee 803e 8b7d 353e
00000280: 2c8a d03c 381a 7cbc 2ffa 433e 60d8 613e
00000290: 2021 7f3d d087 2a3e f386 87bc b88c 12be
000002a0: 1589 7d3e 0353 223d 8aa8 083e 3083 a0bd
000002b0: 278e 2cbe 9848 753d 005f 0a3e 9f53 ab3d
000002c0: fddb c63c 090e 96bd d3e7 393e 7472 05bd
000002d0: dcb3 033d b7ba 093d 1a9e d73c 3b79 463e
000002e0: 1f59 cabc 79a3 90bd 79a7 363e 3ec2 8bbe
000002f0: 2040 263d 32f9 7c3d 7a08 26be cb33 d43c
00000300: e7da 7abd 5e9f a9bd 9f1f a5bd 5b73 3fbd
00000310: 5986 743e 00cb b13d 21f7 fc3d 6a10 a33d
00000320: 9353 0d3e eeb4 09be 8934 7d3c f57f 9abe
00000330: e535 b7bd 88c1 1e3d b3aa 613e 2491 06be
00000340: 8941 c8bd 5340 76be a184 ad3d f735 23be
00000350: 7615 3abd 64c3 43be d513 543e 1721 e03d
00000360: 462e a2bd e847 103e feff 9a3d 2a7e afbd
00000370: d9b7 38bb a6c4 3a3e 8d74 c3bd 6ec7 35bc
00000380: bce9 3c3c 1af6 6a3c 0429 7dbd 8f23 f13d
00000390: 5b79 0b3e 9790 d8bc 01fe 12bd 1c5b 6d3d
000003a0: 1cdb 183c 9935 8dbd f10e 53bd 00fa e63c
000003b0: dd16 03be 1203 c03d 15dc 363d 05fb 413e
000003c0: 1317 ffbd 1830 0d3d aba4 8b3c 9676 08be
000003d0: ba5c 34be 53c2 55be 15dd 103d 30bf 3ebd
000003e0: fecf bb3c 94c7 0b3e d3fc 863d cd87 b5bd
000003f0: fb32 943d 5e2d e2ba 287d c2bd c9dc 14be

G.0.linears.1.bias f4 [32]
-0.0477272 -0.009876436 -0.048624303 -0.06335491 0.008179174 -0.047647648 -0.12996933 0.030839592
0.024176897 -0.1095045 0.021238156 0.0032453453 -0.09366226 0.10472756 -0.043231413 0.039175164
0.0055115684 0.001983922 -0.0130882505 0.1090837 0.116005726 0.14561878 -0.047478072 -0.070511915
-0.03420904 0.008129028 0.012706618 0.11681338 0.10376722 -0.08447886 0.07504507 0.045815334
00000000: 997d 43bd c6d0 21bc 472a 47bd 38c0 81bd
00000010: f101 063c 2e2a 43bd ae16 05be 50a3 fc3c
00000020: a10e c63c e543 e0bd a4fb ad3c dcaf 543b
00000030: 00d2 bfbd 677b d63d 6c13 31bd 2376 203d
00000040: 639a b43b b004 023b 1a70 56bc 4667 df3d
00000050: 6994 ed3d 171d 153e 5e78 42bd 8d68 90bd
00000060: c71e 0cbd 9d2f 053c 6b2f 503c da3b ef3d
00000070: e983 d43d 4103 adbd 3bb1 993d dca8 3b3d

G.0.linears.2.weight f4 [10, 32]
-0.038319487 -0.049821515 0.12941743 0.0738612 -0.030561913 0.08522063 0.072353125 0.032794084
0.24765208 -0.0034550307 0.106546625 -0.064632855 0.11829818 0.08139894 -0.16126943 -0.11353004
-0.16223797 -0.09283184 -0.20553033 0.03073051 0.025023025 -0.1023312 -0.085250326 0.25968757
-0.046797197 -0.09754462 0.006364318 0.14607646 0.16366498 0.014087927 0.06498559 -0.089503154
-0.21560282 -0.011334271 -0.14352278 -0.09713585 0.1154146 -0.038189158 0.17937341 -0.13287938
0.085864514 -0.23780195 0.1151452 -0.10210154 -0.22789551 0.057570968 0.062974565 0.13965939
0.05842989 -0.08978813 0.2266896 0.037416328 -0.02068801 0.11911221 0.024285806 -0.06964758
0.031193273 -0.24051142 -0.030195722 0.04423345 0.25705537 -0.091620356 0.082317 -0.02225762
-0.10487041 -0.28090242 -0.20281959 -0.17542687 0.18943956 -0.06621335 -0.26617453 -0.06478016
-0.14780805 -0.115845144 0.13178512 -0.13586254 -0.31619135 0.0965424 0.110191956 -0.20633055
0.14954464 0.11146234 0.20015511 0.08098877 0.14328298 0.20510277 0.0032601655 -0.0782518
-0.027275177 -0.16922268 0.052724928 0.1006736 0.068694204 -0.24796413 0.085833326 0.31218278
0.020853905 0.061904274 -0.0008998726 -0.016780574 0.12807104 -0.22230983 0.013513775 0.0638046
-0.00484936 -0.10622386 -0.050333504 -0.079872325 -0.047907516 -0.03667493 0.08387631 0.012554816
0.12646295 0.03216994 0.09226615 0.20300037 0.08001665 0.041738916 0.016600272 0.004171455
-0.070329346 -0.021463942 0.027222266 0.1817065 0.24816208 0.18894053 0.0038924103 0.04472103
0.07340024 0.018708898 -0.015324292 0.012186473 0.027976502 -0.19962928 -0.045188777 -0.061946973
-0.01135843 -0.14669998 0.03916202 0.156349 -0.05170017 0.034912065 0.032624684 -0.06362058
0.19151369 0.05831713 0.082022846 0.022864334 0.043484814 0.029577725 0.17127468 -0.025755666
0.13223407 -0.036857042 0.13392034 -0.055326562 0.13177018 -0.09257791 0.074127994 0.024212817
-0.024180776 -0.10175552 0.020743204 -0.067403555 -0.15866473 -0.025465315 -0.03189543 0.118301146
0.09863299 -0.04937776 -0.016497366 0.039610103 -0.07572884 0.11901708 -0.0015088134 0.02861881
-0.15420851 -0.053216245 -0.13200742 -0.024039201 -0.056273833 0.030705478 -0.07365045 0.13145685
-0.07384576 -0.047475193 0.059485517 0.063721225 -0.1601331 -0.09180741 0.085025996 -0.04762838
-0.14249492 -0.05318354 0.10831303 0.13646531 -0.07464817 0.018271197 -0.016394826 -0.053322803
-0.03415438 -0.025170038 -0.022746727 -0.12319248 0.047082093 0.120684884 -0.18995932 0.001443709
0.04098509 0.15153655 -0.0037573476 -0.17992158 0.09053694 0.011093411 -0.18468393 0.11701571
0.14514767 -0.14561716 -0.26365197 0.15670858 -0.0137311 0.05451862 0.026155397 -0.12856677
-0.07357253 -0.0876205 -0.00993586 -0.21184799 -0.054112606 -0.22438951 0.0368305 0.056146644
-0.02530634 -0.17981468 0.2204419 0.16366276 -0.08088103 0.03146771 0.036605746 0.061358426
0.17391275 0.015595284 0.1518576 -0.14324297 -0.039024025 0.18126039 0.25216195 0.090773605
-0.09437367 -0.09985572 0.12015763 -0.020625034 0.18524231 -0.15825377 0.15195818 0.07762817
00000000: e5f4 1cbd a511 4cbd 0186 043e 8a44 973d
00000010: fa5c fabc 2788 ae3d e02d 943d 1753 063d
00000020: 8298 7d3e cc6d 62bb 1e35 da3d 3b5e 84bd
00000030: 5146 f23d 7db4 a63d d023 25be 7082 e8bd
00000040: b621 26be 9f1e bebd 8b76 52be 8dbe fb3c
00000050: 16fd cc3c 0593 d1bd b997 aebd c5f5 843e
00000060: 6bae 3fbd 79c5 c7bd c58b d03b 1195 153e
00000070: cb97 273e 0cd1 663c 2a17 853d 6e4d b7bd
00000080: fcc6 5cbe 61b3 39bc a3f7 12be 29ef c6bd
00000090: 7d5e ec3d 3c6c 1cbd aaad 373e 8811 08be
000000a0: bcd9 af3d 5b82 73be 3fd1 eb3d 9d1a d1bd
000000b0: 715d 69be 89cf 6b3d cff8 803d df02 0f3e
000000c0: 2e54 6f3d d7e2 b7bd 5221 683e dd41 193d
000000d0: e779 a9bc 1af1 f33d 07f3 c63c 64a3 8ebd
000000e0: 0989 ff3c a048 76be 055d f7bc 222e 353d
000000f0: c39c 833e 74a3 bbbd d195 a83d 9d55 b6bc
00000100: 4cc6 d6bd 71d2 8fbe f0af 4fbe 1aa3 33be
00000110: 72fc 413e dd9a 87bd 0748 88be 76ab 84bd
00000120: fe5a 17be 3840 edbd aef2 063e 8d1f 0bbe
00000130: d5e3 a1be 06b8 c53d 52ac e13d 5148 53be
00000140: 3b22 193e 5e46 e43d 76f5 4c3e 71dd a53d
00000150: c6b8 123e 7606 523e 80a8 553b 7b42 a0bd
00000160: 3170 dfbc b648 2dbe 18f6 573d f62d ce3d
00000170: 8caf 8c3d 4fea 7dbe 62c9 af3d 6cd6 9f3e
00000180: cfd5 aa3c 568f 7d3d 6ee5 6bba 6a77 89bc
00000190: 0e25 033e 30a5 63be e168 5d3c fcab 823d
000001a0: 61e7 9ebb e58b d9bd 812a 4ebd 1a94 a3bd
000001b0: ac3a 44bd 7438 16bd 58c7 ab3d b7b2 4d3c
000001c0: 817f 013e a1c4 033d 09f6 bc3d 54df 4f3e
000001d0: c5df a33d 6df6 2a3d 4bfd 873c b3b0 883b
000001e0: d508 90bd 26d5 afbc 3b01 df3c 4511 3a3e
000001f0: 331e 7e3e a079 413e cf17 7f3b 662d 373d
00000200: dd52 963d 6743 993c bd12 7bbc c6a9 473c
00000210: fa2e e53c 9e6b 4cbe de17 39bd 1cbc 7dbd
00000220: b518 3abc 8538 16be 5b68 203d f419 203e
00000230: 8fc3 53bd f4ff 0e3d 76a1 053d 824b 82bd
00000240: 2a1c 443e f1dd 6e3d 98fb a73d fc4d bb3c
00000250: 221d 323d fc4c f23c a162 2f3e 8cfd d2bc
00000260: 5e68 073e 69f7 16bd 6a22 093e 1b9e 62bd
00000270: c3ee 063e 7d99 bdbd 6bd0 973d f559 c63c
00000280: c316 c6bc 3365 d0bd a7ed a93c e00a 8abd
00000290: 0279 22be a39c d0bc c8a4 02bd df47 f23d
000002a0: 1800 ca3d 5640 4abd 7c25 87bc 343e 223d
000002b0: b917 9bbd 3abf f33d 60c3 c5ba ff71 ea3c
000002c0: d6e8 1dbe 47f9 59bd f42c 07be dced c4bc
000002d0: 647f 66bd 0e8a fb3c 0cd6 96bd a09c 063e
000002e0: 723c 97bd 5975 42bd 16a7 733d 4680 823d
000002f0: eef9 23be 8605 bcbd 1c22 ae3d fa15 43bd
00000300: 30ea 11be fcd6 59bd 39d3 dd3d 90bd 0b3e
00000310: 24e1 98bd 7aad 953c 714e 86bc 0369 5abd
00000320: 77e5 0bbd 6531 cebc 5857 babc 574c fcbd
00000330: 27d9 403d a329 f73d b284 42be d63a bd3a
00000340: fbdf 273d 662c 1b3e d53d 76bb 5d3d 38be
00000350: 6e6b b93d 23c1 353c c91d 3dbe efa5 ef3d
00000360: 97a1 143e aa1c 15be 64fd 86be 3778 203e
00000370: 68f8 60bc eb4e 5f3d d843 d63c 02a7 03be
00000380: 32ad 96bd 6072 b3bd 04ca 22bc aeee 58be
00000390: 2ea5 5dbd 5dc6 65be 94db 163d 06fa 653d
000003a0: 3e4f cfbc 5721 38be 85bb 613e 3697 273e
000003b0: f4a4 a5bd 49e4 003d e8ef 153d f952 7b3d
000003c0: 2f16 323e 5d83 7f3c 8f80 1b3e 49ae 12be
000003d0: a8d7 1fbd 539c 393e 5f1b 813e 83e7 b93d
000003e0: fc46 c1bd 2881 ccbd 3415 f63d d5f5 a8bc
000003f0: 29b0 3d3e 470d 22be ed9a 1b3e 85fb 9e3d

G.0.linears.2.bias f4 [10]
-0.077586025 -0.011202469 0.14975175 -0.019525042 0.14795068 -0.070873044 -0.05208784 0.08705967
-0.06087548 0.13033131
00000000: 6ce5 9ebd 8f8a 37bc 8658 193e fbf2 9fbc
00000010: 6280 173e e325 91bd 0f5a 55bd 574c b23d
00000020: 9158 79bd 9275 053e

L.0.linears.0.weight f4 [32, 20]
0.08933652 0.06532063 -0.027965968 -0.014238192 0.07218326 0.14626746 0.004766881 -0.04259538
0.07822777 0.046387676 0.027458543 0.1482128 0.26597938 0.0143506415 0.046628926 0.124253005
-0.10904399 -0.09677665 -0.18286315 -0.066147774 0.19378346 -0.19127673 0.063772164 -0.028286649
-0.13697405 0.01040373 -0.13470629 -0.078420125 0.048157636 0.082836494 0.10295579 0.007319805
0.103005886 -0.101817064 0.0066837193 -0.1007297 0.031799316 -0.038383827 -0.09928222 0.034606528
0.15248027 0.11669019 -0.08067098 -0.02207118 -0.21889362 0.095690094 0.07872994 -0.100130536
-0.22448015 -0.032302942 0.01387406 0.11716655 0.2195601 0.030594477 0.06608129 0.011685373
0.055338446 -0.24244843 0.053562593 0.10482113 -0.05483085 -0.10643204 -0.01565163 0.014554286
-0.029741181 -0.11668385 0.004707128 0.08537518 0.060973715 -0.06003259 -0.044811763 -0.013519738
-0.21008873 -0.18511459 0.18973397 -0.13840231 -0.078873724 -0.033269815 0.18728018 -0.075180314
-0.06938023 0.028470408 0.1034323 -0.05064436 -0.06793211 -0.017916406 -0.047956876 -0.16054337
-0.08607003 0.025618376 0.074987024 0.017291809 0.09518361 -0.003403237 0.024315862 0.1371266
-0.004213039 0.015038982 -0.03386221 -0.07727071 -0.10014839 -0.09804631 -0.15310106 -0.02174311
-0.38902974 -0.15511572 0.1458913 0.09416344 0.093410425 -0.005397594 -0.078362234 -0.04400277
-0.13646528 0.031053485 -0.1178844 -0.08149717 -0.2275758 -0.093741916 -0.100346245 0.15402229
0.18378234 -0.013259545 -0.049643286 -0.119059846 -0.14397855 -0.21416491 0.21035247 -0.06474844
0.03424886 0.02548482 -0.0684034 0.119194634 0.20767194 -0.062578194 -0.03573522 0.04905639
-0.06432384 -0.091495916 0.059649203 -0.048136786 0.04125463 0.11083994 -0.11242471 -0.08781755
0.025171202 0.089914516 0.082884386 -0.123454764 -0.1496423 0.023321165 0.029451385 0.09966167
0.17218898 0.021992963 0.026013685 0.0005687564 -0.10575141 0.17852417 -0.052579887 0.009644405
-0.19637308 -0.09242181 0.19921847 0.1753088 0.033348236 -0.011965229 -0.081015125 0.13950874
0.05199194 0.016324919 0.20848991 0.21462552 0.086069606 0.05863761 -0.041134384 -0.14522526
-0.15756172 -0.024127923 -0.07287481 0.03397654 -0.14788377 0.049623538 0.13407604 -0.17221422
-0.0056035505 -0.04898109 -0.13542816 -0.11781342 -0.013928917 0.062324595 0.22970448 -0.025407368
-0.17622833 -0.025017407 -0.06330834 0.2231408 0.025394354 -0.016897354 -0.13571508 -0.034459222
-0.054059017 0.16617207 0.050530564 -0.062810086 -0.0014819351 0.100563794 -0.06931558 -0.048105
-0.09398902 -0.16259176 -0.104686856 0.08445302 0.1603339 -0.13065372 -0.07300136 -0.05921123
-0.013125694 -0.13437551 0.14846295 -0.089337245 -0.07367884 -0.06239647 0.08094879 -0.061974388
-0.038910408 0.09365185 -0.058738 -0.056427926 0.11645702 0.18138944 0.011939964 -0.22238988
-0.14278919 -0.16486613 0.16489063 0.063362814 0.10790485 0.07800048 0.011598874 0.11700549
0.0031881125 -0.11367977 0.0654281 0.21960343 -0.07900884 -0.13373014 -0.04935722 -0.018894212
0.10559131 0.04023137 -0.09050908 -0.09759312 -0.112729125 0.015459018 0.015293149 -0.030853543
00000000: 11f6 b63d d3c6 853d e318 e5bc 4e47 69bc
00000010: d1d4 933d 23c7 153e 7f33 9c3b 7e78 2ebd
00000020: e235 a03d 0101 3e3d bdf0 e03c 19c5 173e
00000030: 732e 883e f41e 6b3c f9fd 3e3d 5c78 fe3d
00000040: 7552 dfbd d632 c6bd 7a40 3bbe 7c78 87bd
00000050: 2c6f 463e 0cde 43be fb9a 823d 67b9 e7bc
00000060: ed42 0cbe 6874 2a3c 72f0 09be bb9a a0bd
00000070: f140 453d 2ea6 a93d 7cda d23d fada ef3b
00000080: c0f4 d23d 7785 d0bd 1a03 db3b 5f4b cebd
00000090: 0040 023d 5c38 1dbd 7a54 cbbd 93bf 0d3d
000000a0: ca23 1c3e 44fb ee3d d436 a5bd 9fce b4bc
000000b0: a625 60be 2bf9 c33d 2a3d a13d 3d11 cdbd
000000c0: 20de 65be 1750 04bd 0650 633c 04f5 ef3d
000000d0: 5dd4 603e 45a1 fa3c a155 873d 0274 3f3c
000000e0: 91aa 623d 6744 78be 7364 5b3d 76ac d63d
000000f0: 5096 60bd 0bf9 d9bd d937 80bc 1a75 6e3c
00000100: c7a3 f3bc f1f7 eebd 403e 9a3b 2fd9 ae3d
00000110: 93bf 793d bce4 75bd 8a8c 37bd e481 5dbc
00000120: 8021 57be ae8e 3dbe 9f49 423e 56b9 0dbe
00000130: 8c88 a1bd ee45 08bd 60c6 3f3e 23f8 99bd
00000140: 3917 8ebd c63a e93c 50d4 d33d 7670 4fbd
00000150: fd1f 8bbd 6dc5 92bc 6e6e 44bd 7b65 24be
00000160: 7c45 b0bd a1dd d13c cc92 993d 8da7 8d3c
00000170: a0ef c23d d808 5fbb 0f32 c73c ea6a 0c3e
00000180: 880d 8abb 1066 763c 1ab3 0abd 1b40 9ebd
00000190: 991a cdbd 81cc c8bd 86c6 1cbe 9b1e b2bc
000001a0: e82e c7be a8d6 1ebe 8764 153e c3d8 c03d
000001b0: f74d bf3d 4dde b0bb 617c a0bd 403c 34bd
000001c0: 8ebd 0bbe e163 fe3c 606d f1bd fde7 a6bd
000001d0: a109 69be c3fb bfbd 5582 cdbd 05b8 1d3e
000001e0: 7031 3c3e 903e 59bc c256 4bbd a6d5 f3bd
000001f0: 1d6f 13be 0c4e 5bbe a366 573e d59a 84bd
00000200: 8848 0c3d 8bc5 d03c 1517 8cbd 511c f43d
00000210: f4a7 543e ff28 80bd 185f 12bd 5aef 483d
00000220: 38bc 83bd 3662 bbbd b952 743d 142b 45bd
00000230: 9dfa 283d 0d00 e33d ed3e e6bd b0d9 b3bd
00000240: d633 ce3c 1a25 b83d 4abf a93d dad5 fcbd
00000250: d53b 19be 070c bf3c 0844 f13c 6b1b cc3d
00000260: 4f52 303e 962a b43c a71a d53c 9918 153a
00000270: 3294 d8bd 0acf 363e 025e 57bd 9103 1e3c
00000280: 0616 49be a547 bdbd edff 4b3e 2684 333e
00000290: 2998 083d cf09 44bc 42eb a5bd 61db 0e3e
000002a0: 80f5 543d d6bb 853c 617e 553e cbc6 5b3e
000002b0: 4345 b03d fe2d 703d 877c 28bd eeb5 14be
000002c0: dc57 21be eca7 c5bc 633f 95bd fc2a 0b3d
000002d0: d86e 17be 0d42 4b3d 3b4b 093e ed58 30be
000002e0: fd9d b7bb 65a0 48bd aead 0abe 2a48 f1bd
000002f0: 1d36 64bc 1348 7f3d a737 6b3e 1d23 d0bc
00000300: 3375 34be 4ef1 ccbc cea7 81bd 067f 643e
00000310: d207 d03c 526c 8abc e5f8 0abe 1d25 0dbd
00000320: fd6c 5dbd 0329 2a3e 23f9 4e3d 93a2 80bd
00000330: 7e3d c2ba 64f4 cd3d 54f5 8dbd c009 45bd
00000340: 517d c0bd 747e 26be 1066 d6bd b4f5 ac3d
00000350: 922e 243e 17ca 05be bd81 95bd 7a87 72bd
00000360: 270d 57bc bc99 09be ac06 183e 72f6 b6bd
00000370: efe4 96bd 7193 7fbd 7bc8 a53d dbd8 7dbd
00000380: 8560 1fbd 8bcc bf3d 4297 70bd f820 67bd
00000390: 0581 ee3d 27be 393e d79f 433c 2cba 63be
000003a0: 5437 12be abd2 28be 17d9 283e 5dc4 813d
000003b0: 38fd dc3d b7be 9f3d 3409 3e3c 93a0 ef3d
000003c0: a7ef 503b f0d0 e8bd 2bff 853d b9df 603e
000003d0: 63cf a1bd 8ef0 08be cc2a 4abd 09c8 9abc
000003e0: 4240 d83d a6c9 243d d35c b9bd e7de c7bd
000003f0: 87de e6bd d247 7d3c 1e90 7a3c 92c0 fcbc

L.0.linears.0.bias f4 [32]
0.017966717 0.06372494 -0.011797514 0.051718827 0.05931944 0.028422281 0.071809985 0.019061461
0.10154357 -0.08519495 0.041795727 -0.0078008524 -0.010089229 -0.03835177 0.0017785735 0.11326624
0.048215203 -0.0304471 0.13016097 0.067947686 0.07843785 -0.07808374 0.005495396 -0.0017788834
-0.021066623 0.002204537 -0.12179401 -0.036074184 0.053686857 -0.040702097 -0.0326418 -0.095533356
00000000: f02e 933c 3982 823d 5c4a 41bc 1fd7 533d
00000010: f1f8 723d d8d5 e83c 1d11 933d c826 9c3c
00000020: 13f6 cf3d b17a aebd ff31 2b3d 4b9e ffbb
00000030: 4b4d 25bc bf16 1dbd 061f e93a 21f8 e73d
00000040: 4e7d 453d 326c f9bc eb48 053e 2828 8b3d
00000050: 06a4 a03d 5eea 9fbd b912 b43b 6c29 e9ba
00000060: e993 acbc fe79 103b 236f f9bd 86c2 13bd
00000070: c0e6 5b3d 3eb7 26bd 68b3 05bd fea6 c3bd
