para_save/00092params.pth (torch, 118145 bytes, 76 tensors)

F.linears.0.weight f4 [32, 20]
0	0xbcabbd04	-0.020964153
1	0xbd504627	-0.050848152
2	0xbe2de02c	-0.16980046
3	0x3cc3e749	0.023913996
4	0xbd7abcde	-0.061215274
5	0xbc7d8475	-0.015473475
6	0xbe1fcc1a	-0.15605202
7	0x3da8526a	0.08218844
8	0xbdf262b4	-0.118352324
9	0xbd55484b	-0.052070897
10	0x3b550b4d	0.0032507956
11	0xbd431d39	-0.04763529
12	0x3d92892d	0.071550705
13	0xbe1f781a	-0.15573159
14	0xbc205048	-0.009784766
15	0x3c671aa4	0.014105473
16	0x3da90413	0.0825273
17	0x3e0ec4fd	0.13942333
18	0xbd8ab634	-0.06773034
19	0x3df01548	0.11722809
20	0x3e21ce93	0.15801458
21	0xbdf0aacc	-0.11751327
22	0xbcadff47	-0.02123989
23	0xbd825c1e	-0.06365226
24	0xbd6ac80d	-0.05731969
25	0xbe26001f	-0.16210984
26	0x3c219c7a	0.009863967
27	0x3daf93fc	0.08573148
28	0x3d1c543f	0.03816628
29	0xbc984cf5	-0.018591383
30	0x3e26305d	0.16229387
31	0xbd36efe3	-0.044662368
32	0xbe2dda68	-0.16977847
33	0xbc194c2f	-0.0093565425
34	0x3da14b43	0.07875683
35	0x3d410f62	0.04713381
36	0x3d244433	0.040104102
37	0x3c7b2e89	0.015330919
38	0xbd4756c1	-0.04866672
39	0x3b79918b	0.0038081135
40	0xbdfea8d7	-0.124345474
41	0x3d39bd70	0.045346677
42	0xbda3b2ba	-0.07993074
43	0xbe612dd4	-0.21990138
44	0xbe15bfb4	-0.1462391
45	0xbe37eff0	-0.17962623
46	0x3e1f2b4e	0.15543863
47	0x3d9d996f	0.07695281
48	0x3e09749d	0.1342339
49	0x3cb77e1a	0.022398997
50	0x3dcd2cb5	0.10018293
51	0xbd7a762e	-0.06114786
52	0xbce1a086	-0.027542364
53	0xbe42dfd5	-0.19030698
54	0x3e032038	0.12805259
55	0x3caa4d27	0.020788742
56	0x3d93491d	0.071916796
57	0xbe597d7c	-0.21239275
58	0xbda10bbc	-0.07863566
59	0x3d0f005c	0.034912452
60	0x3d593f75	0.053039033
61	0xbdece777	-0.11567586
62	0xbc38ebc4	-0.01128668
63	0xbd3fa1e0	-0.046785235
64	0x3e0c6ce0	0.13713408
65	0xbd7e7812	-0.062126227
66	0x3c9b1d10	0.018934757
67	0xbd0997ca	-0.033592023
68	0xbc614eb3	-0.0137516735
69	0x3e1b3ea5	0.15160616
70	0xbccdb88c	-0.025112413
71	0xbe20fb6f	-0.15720914
72	0xbda0aaed	-0.078451015
73	0x3c0fb20d	0.008770478
74	0x3c9beeb5	0.019034723
75	0x3dcca8e0	0.09993148
76	0xbbc92865	-0.0061388486
77	0x3bda1739	0.0066556004
78	0xbe32faa4	-0.17478424
79	0x3d85ca8a	0.06532772
80	0x3e02b43e	0.1276407
81	0x3b682cdd	0.0035427131
82	0xbe343cac	-0.1760127
83	0x3de33e32	0.11095847
84	0x3d28e4d1	0.04123384
85	0x3c1af5a2	0.0094579775
86	0x3d2dc366	0.042422675
87	0xbdbcb20b	-0.092136465
88	0x3c4348ee	0.011919243
89	0x3e27a517	0.1637157
90	0xbd0b230e	-0.033968978
91	0xbdbffe1c	-0.093746394
92	0xbe451f36	-0.19250187
93	0xbdd92698	-0.10603064
94	0x3e2633cb	0.16230695
95	0xbd01e9af	-0.031717
96	0x3e462889	0.193514
97	0xbcf0980d	-0.029369378
98	0xbe003454	-0.12519962
99	0x3c5fe013	0.013664263
100	0xbd5b8e14	-0.053602293
101	0x3e33df96	0.1756576
102	0xbe2bffd0	-0.16796803
103	0xbdd9bab8	-0.10631317
104	0x3dadf24d	0.08493481
105	0xbd612997	-0.054971304
106	0x3da7c5a3	0.08191993
107	0x3e488d5b	0.19585173
108	0x3e109474	0.1411913
109	0xbcad3cf7	-0.021147234
110	0x3c9b4724	0.01895482
111	0xbcf38a70	-0.029729098
112	0xbc6cd2a7	-0.01445452
113	0xbcedd549	-0.029032366
114	0xbccbe038	-0.02488719
115	0x3d3d0b50	0.046153367
116	0x3e5058b1	0.20346333
117	0x3c613963	0.013746592
118	0x3d582f83	0.052779686
119	0xbcf7575f	-0.030193029
120	0x3dff5c21	0.12468744
121	0x3cd83650	0.026393086
122	0xbdbb14c3	-0.09134819
123	0xbd3fd3dd	-0.046832908
124	0x3d403322	0.046923764
125	0x3d12b3cc	0.035816
126	0x3e46ef76	0.19427285
127	0x3d805d43	0.06267788
128	0x3d7cc397	0.061709967
129	0x3e06de01	0.13170625
130	0x3e192561	0.14955665
131	0x3d73da85	0.05953457
132	0xbd8fa3b7	-0.07013648
133	0xbe0a1a1e	-0.13486525
134	0x3e269aec	0.16270036
135	0x3e104bd8	0.14091432
136	0xbe33bbcf	-0.17552112
137	0xbd029f94	-0.031890467
138	0x3bc0b8ac	0.0058813896
139	0x3d5a413a	0.05328486
140	0x3ddc193a	0.10746999
141	0xbd4815b1	-0.04884881
142	0x3debaa5d	0.115071036
143	0x3d1fbafc	0.03899668
144	0xbc40141d	-0.011723545
145	0x3d4c956b	0.049947184
146	0xbd3015c1	-0.042989496
147	0x3b8d6310	0.0043147877
148	0x3d9a0bf0	0.07521808
149	0xbe0646ec	-0.13112992
150	0xbddbb70a	-0.10728271
151	0x3db6dabf	0.08928441
152	0xbc044984	-0.008074168
153	0xbc9c492b	-0.019077858
154	0x3d6f6647	0.05844715
155	0x3c9b2b26	0.018941473
156	0xbaa5730c	-0.0012622788
157	0x3cc7de2a	0.024397928
158	0xbe455cca	-0.19273677
159	0x3dd2f917	0.10301416
160	0xbc5a51d3	-0.0133251725
161	0x3e100d73	0.1406763
162	0x3cd2ad7a	0.025717486
163	0x3cad5463	0.021158403
164	0xbdce6795	-0.100783505
165	0x3de1ffc0	0.110351086
166	0xbe308fa8	-0.172423
167	0xbd1a2454	-0.0376323
168	0xbdf96d08	-0.12178999
169	0x3dc0fb3e	0.09422921
170	0x3de8354a	0.11338289
171	0xbe057cc5	-0.13035877
172	0xbc35df46	-0.011100596
173	0x3c10717f	0.008816122
174	0xbd8d9ddb	-0.06914874
175	0x3d5d1de5	0.053983588
176	0x3d83d270	0.06436622
177	0xbdc59872	-0.09648217
178	0xbc2964fe	-0.01033902
179	0x3e0c36df	0.13692807
180	0x3cc16503	0.023607736
181	0xbd91c9bd	-0.07118557
182	0x3dd04819	0.101700015
183	0xbd9be1a4	-0.07611397
184	0xbcf2cf55	-0.02963988
185	0xbd595c4d	-0.05306654
186	0xbdb04f68	-0.086088955
187	0x3e823449	0.25430515
188	0x3e129b74	0.14317113
189	0xbdb2d13c	-0.087313145
190	0x3b8cb6ec	0.004294267
191	0x3cbf3f66	0.02334566
192	0x3db0f77d	0.08640955
193	0xbd89cce5	-0.06728534
194	0x3d71ee4c	0.05906515
195	0xbd5f469c	-0.054510698
196	0xbdbede81	-0.09319783
197	0xbe14b10b	-0.14520662
198	0xbe106cb5	-0.14103968
199	0xbcc0d283	-0.02353788
200	0x3d4bdfc1	0.049773935
201	0xbc3fa706	-0.011697536
202	0x3c4bb03a	0.012432152
203	0xbbfc3af3	-0.007697457
204	0xbdd2af8c	-0.10287389
205	0x3d36b75c	0.04460846
206	0x3db1c38a	0.08679874
207	0xbdaa0939	-0.0830254
208	0xbba67cd3	-0.005080798
209	0x3ce33be8	0.027738526
210	0xbda1149c	-0.07865259
211	0x3bd73bff	0.0065684314
212	0xbe05c59f	-0.13063668
213	0x3ca2cfe5	0.019874522
214	0x3e28c960	0.16483068
215	0x3d4edb19	0.050501917
216	0x3e05aaad	0.13053389
217	0xbe265539	-0.16243447
218	0x3d84408d	0.064576246
219	0x3d53b467	0.051685717
220	0xbdb42d6c	-0.08797726
221	0xbcc4eb89	-0.024038093
222	0xbc5d8ade	-0.013521878
223	0xbd05a2a0	-0.032625794
224	0xbd71cb5b	-0.059031826
225	0x3d598742	0.053107508
226	0x3d9e8c90	0.07741654
227	0xbd881c44	-0.06646016
228	0xbb8f5fde	-0.004375442
229	0xbe4965b6	-0.19667706
230	0x3c1fc52f	0.009751602
231	0xbe742fbd	-0.23846336
232	0x3e1a1bef	0.15049718
233	0xbd10a9b3	-0.035318088
234	0xbcf8250d	-0.030291105
235	0x3dc464cd	0.09589539
236	0x3cb047ac	0.02151855
237	0xbd3f1ab9	-0.046656344
238	0xbe5bad79	-0.21452893
239	0x3e1af73b	0.15133373
240	0x3e067bfa	0.13133231
241	0xbd255429	-0.040363465
242	0xbcd60e5b	-0.026129892
243	0xbd82a30d	-0.06378756
244	0x3cf76122	0.030197684
245	0x3e2bc7e9	0.16775478
246	0x3cd69560	0.026194274
247	0x3d7f130c	0.062274024
248	0xbbf98ac7	-0.0076154205
249	0xbde54f60	-0.1119678
250	0x3bc7910d	0.0060902894
251	0xbdf3cea8	-0.11904651
252	0xbd4674cd	-0.048451234
253	0xbe29be2c	-0.16576451
254	0x3c9cccfb	0.019140711
255	0xbc2be0e7	-0.010490633

F.linears.0.bias f4 [32]
0	0xbd7820de	-0.06057822
1	0x3cd4cb7b	0.025975933
2	0x3da5db0c	0.080984205
3	0xbdc4236d	-0.095770694
4	0xbda2094f	-0.07911932
5	0xbd1b6bc1	-0.03794456
6	0xbdc2c966	-0.0951107
7	0x3cfa7a4f	0.0305759
8	0xbc21c0b4	-0.009872604
9	0x3db27aa0	0.08714795
10	0xbd6bf4dc	-0.057606563
11	0xbd0fcbf6	-0.03510662
12	0xbcf90dff	-0.030402182
13	0xbaa234da	-0.001237537
14	0xbc0852bf	-0.008320509
15	0x3cadeb1a	0.02123027
16	0x3c15b105	0.009136443
17	0x3db0165f	0.08598017
18	0x3dad69bf	0.08467435
19	0x3ced5e97	0.028975768
20	0xbe053503	-0.13008504
21	0xbb0f12c6	-0.0021831258
22	0xbdd90977	-0.105975084
23	0xbd2c0f17	-0.04200658
24	0xbcc2c050	-0.023773342
25	0xbb51ce03	-0.0032013662
26	0xbd27cc4a	-0.04096631
27	0xbd1707e6	-0.036872767
28	0x3bec0842	0.007203133
29	0xbc488335	-0.012238313
30	0xbc66e8e1	-0.014093609
31	0xbb23cd7f	-0.0024994311

F.linears.1.weight f4 [32, 32]
0	0xbd0c84b5	-0.034306247
1	0x3de309bc	0.11085841
2	0x3eab0b70	0.33407164
3	0xbdcd6607	-0.10029226
4	0xbe134f47	-0.1438571
5	0x3d2d0abf	0.042246576
6	0x3c8c45d4	0.01712314
7	0xbd5ae71d	-0.053443063
8	0xbd5dc1f9	-0.054140065
9	0x3d06ad7e	0.0328803
10	0xbc261266	-0.0101362225
11	0x3d25fa7e	0.04052209
12	0xbdbd70da	-0.0925004
13	0xbdda2dfb	-0.10653301
14	0x3e2aac69	0.16667332
15	0x3dcf7674	0.10130015
16	0xbd5ecab6	-0.05439254
17	0xbc1dbae3	-0.009627077
18	0x3d4c220a	0.04983715
19	0x3e121f06	0.14269647
20	0xbdc66c56	-0.09688632
21	0x3d4b3f3a	0.049620844
22	0x3e538de3	0.20659594
23	0x3c9661c1	0.01835716
24	0x3d9aa701	0.07551385
25	0x3e162e43	0.14666085
26	0xbd1df74f	-0.03856593
27	0xbda9aa7a	-0.08284469
28	0xbe1816f9	-0.14852513
29	0x3cbe9441	0.023264052
30	0x3ae7cb20	0.0017684437
31	0x3d7f4c4f	0.062328633
32	0x3df6c4b4	0.12049237
33	0x3d3fbc73	0.04681058
34	0x3e934601	0.28764346
35	0x3d31b3bf	0.04338431
36	0xbd03ff34	-0.032225803
37	0x3dfa5df8	0.12224954
38	0x3c824b5b	0.015905073
39	0xbdaee169	-0.08539087
40	0x3d1ecc83	0.038769256
41	0x3c9633c1	0.018335225
42	0x3e0d235c	0.1378302
43	0xbe415f34	-0.18883973
44	0xbc30609a	-0.010765219
45	0xbcbef1b9	-0.023308622
46	0xbdd00f5e	-0.10159181
47	0x3d597318	0.053088278
48	0x3d72ad08	0.059247047
49	0x3da8d91b	0.082445346
50	0xbe1fc046	-0.1560069
51	0x3bbf0a88	0.005830113
52	0xbd0deedc	-0.034651622
53	0x3d3a2c1c	0.045452222
54	0x3cb0a270	0.021561831
55	0x3da3161c	0.079632014
56	0xbdf576bb	-0.11985537
57	0xbd9e43a7	-0.077277474
58	0x3dd77d8b	0.10521992
59	0x3e266a8b	0.1625158
60	0xbd3a5fc2	-0.045501478
61	0x3de53aac	0.111928314
62	0x3df3e9cf	0.1190983
63	0x3decc26c	0.115605205
64	0xbd88bb90	-0.066764
65	0x3cecaa98	0.02888994
66	0xbc5bca4b	-0.01341493
67	0xbd185d9a	-0.03719864
68	0xbc272ab7	-0.010203055
69	0xbc08dd61	-0.008353562
70	0x3c76137e	0.015019296
71	0xbe34c0b7	-0.1765164
72	0x3d3b0a8d	0.04566436
73	0xbd67c490	-0.05658394
74	0x3dbc3999	0.091906734
75	0x3e1b3fb0	0.15161014
76	0x3e427807	0.189911
77	0xbc57c17c	-0.013168689
78	0xbe5a7e1e	-0.21337172
79	0x3a916179	0.0011091671
80	0x3e3b8605	0.18312843
81	0xbd8dd51d	-0.06925414
82	0xbd3d27f0	-0.046180665
83	0x3d9ae05f	0.07562327
84	0x3e1c745f	0.15278767
85	0x3e0face5	0.14030798
86	0xbba1acf1	-0.0049339463
87	0xbdb107f8	-0.08644098
88	0xbe47a823	-0.19497733
89	0x3d624772	0.055243917
90	0xbe74bfff	-0.23901366
91	0x3e318e7e	0.17339513
92	0x3d87200d	0.0659791
93	0x3d5a3d7e	0.0532813
94	0x3dc64d0f	0.096826665
95	0xbd37bbbb	-0.044856768
96	0xbe04c129	-0.1296431
97	0xbc9c9316	-0.019113105
98	0x3c86e459	0.016466307
99	0x3ddaf2cd	0.10690842
100	0x3c45d6eb	0.012075166
101	0xbe33f12b	-0.17572467
102	0x3d443920	0.04790604
103	0x3c492dd1	0.01227899
104	0x3e478783	0.19485287
105	0xbe4ed550	-0.2019856
106	0x3e2b45af	0.16725801
107	0xbdfde48d	-0.12397108
108	0x3d5a76ad	0.053335834
109	0xbdeb36d8	-0.1148507
110	0xbe0ae35a	-0.1356329
111	0xbe80af7b	-0.2513388
112	0xbe0811bb	-0.13288014
113	0xbdd1d7dd	-0.10246251
114	0xbdfdd4d3	-0.123941086
115	0xbe806b0b	-0.25081667
116	0x3db6ac3e	0.08919571
117	0x3dc659e6	0.096851155
118	0xbdc7352e	-0.0972694
119	0x3e402746	0.18764982
120	0x3d1a81c8	0.037721425
121	0x3de36159	0.11102552
122	0x3aab393f	0.0013063325
123	0xbd8f976e	-0.07011305
124	0x3bd24825	0.0064172917
125	0xbd146037	-0.03622457
126	0x3e281690	0.16414857
127	0xbde67d3b	-0.112543546
128	0xbc9a0c2e	-0.018804636
129	0x3e20a2d4	0.15687114
130	0x3df75e32	0.12078513
131	0xbdfcbee8	-0.123411
132	0x3dbbc36d	0.09168134
133	0xbce11e00	-0.027480125
134	0xbc2545be	-0.010087429
135	0x3d4ceaaa	0.05002848
136	0xbd9884e6	-0.07447223
137	0x3d03b9ad	0.032159496
138	0x3d194e0d	0.03742795
139	0x3da213c9	0.0791393
140	0xbdf958de	-0.12175153
141	0xbe172685	-0.14760788
142	0xb97869d0	-0.00023690541
143	0xbdaa322e	-0.08310352
144	0xbe3c52af	-0.18390916
145	0x3d190d6d	0.03736632
146	0x3dc953f1	0.09830464
147	0x3d17d806	0.03707125
148	0xbdba8759	-0.09107847
149	0x3db9d04b	0.09072932
150	0xbcd047de	-0.025424894
151	0x3d48aa05	0.04899027
152	0x3e11dc7c	0.14244264
153	0x3be14938	0.0068751834
154	0xbe1c0b03	-0.15238576
155	0x3e43530f	0.19074653
156	0x3d0555cb	0.03255252
157	0xbddcbc59	-0.10778112
158	0x3db834c3	0.089944385
159	0x3c818583	0.015810734
160	0xbdc54eb5	-0.09634153
161	0xbc860e4f	-0.016364245
162	0xbe08145c	-0.13289016
163	0x3d95f6bf	0.07322454
164	0xbde485c6	-0.11158328
165	0xbcc2dac6	-0.02378596
166	0xbe4d079e	-0.20022437
167	0xbe56ffa9	-0.20995964
168	0xbb6fbb70	-0.0036580227
169	0xbc1c1f2b	-0.009528915
170	0xbdc63cc0	-0.09679556
171	0xbe086888	-0.13321126
172	0x3dd92981	0.10603619
173	0x3daa1678	0.08305067
174	0x3d0c96b3	0.034323405
175	0x3e082098	0.13293684
176	0xbd650f21	-0.05592263
177	0xbcae72cc	-0.021294974
178	0xbce745f2	-0.028231595
179	0xbdc44112	-0.09582724
180	0xbd8ec1bf	-0.06970548
181	0x3c1aab24	0.009440217
182	0x3d134d48	0.035962373
183	0xbd57ce41	-0.052686933
184	0xbca9a19a	-0.02070694
185	0x3d9f6bea	0.07784255
186	0x3da0bf0c	0.07848939
187	0x3d14f65a	0.03636775
188	0x3d2a4b8a	0.041575946
189	0x3d90d0f7	0.07071107
190	0xbdf58a66	-0.11989288
191	0xbdca0b35	-0.09865419
192	0xbc03c7c7	-0.008043236
193	0xbe02a072	-0.12756518
194	0xbe085338	-0.13312995
195	0xbd4bb8f6	-0.04973694
196	0xbd879dbc	-0.06621882
197	0xbcc368eb	-0.02385374
198	0x3dbb26c5	0.09138254
199	0xbb8897de	-0.0041684946
200	0xbe3e3c24	-0.1857763
201	0xbdfcb3b6	-0.12338965
202	0x3dc7bfd9	0.09753389
203	0xbe4a4e4f	-0.19756435
204	0x3d88f554	0.066874176
205	0xbda58eca	-0.080838755
206	0xbe16271c	-0.14663357
207	0x3e36ebba	0.1786336
208	0xbd857af8	-0.06517595
209	0x3e0843cc	0.13307112
210	0xbd8b5b5a	-0.06804533
211	0xbd59e84e	-0.05320006
212	0x3d3732e0	0.044726253
213	0xba9983aa	-0.0011712213
214	0x3d86190f	0.06547748
215	0xbe253ff7	-0.16137682
216	0xbd127ea8	-0.03576532
217	0xbe108fe6	-0.14117393
218	0x3c8322bb	0.016007772
219	0x3be6e771	0.007046633
220	0xbd9ca85e	-0.07649301
221	0xbc903b09	-0.017606275
222	0xbd09c468	-0.033634573
223	0xbe077522	-0.13228276
224	0x3daf9a6d	0.08574376
225	0x3d480fd6	0.048843227
226	0xbe39a9b9	-0.1813115
227	0x3c6113c2	0.013737621
228	0xbcd42da2	-0.025900666
229	0x3deaa345	0.114569224
230	0x3d84cf6b	0.06484874
231	0x3d0994c0	0.033589125
232	0x3daa93f8	0.08329004
233	0xbcdef08a	-0.027214307
234	0x3d62b403	0.055347454
235	0xbd868ad6	-0.065694496
236	0xbdaa5a61	-0.0831802
237	0xbe26c966	-0.16287765
238	0x3d350d89	0.04420236
239	0xbd640a49	-0.05567387
240	0xbd843fc3	-0.06457474
241	0x3d53fc6e	0.051754408
242	0x3d5dfec3	0.054198038
243	0xbe42abf9	-0.19010915
244	0x3de8c148	0.113649905
245	0x3d110ab0	0.035410583
246	0x3e83f526	0.2577297
247	0xbd8c9d8a	-0.06865986
248	0xbdd763db	-0.10517093
249	0xbd32e4f5	-0.04367538
250	0x3cad9301	0.021188261
251	0x3c35a554	0.011086781
252	0x3dbfdfc9	0.093688555
253	0x3d88522c	0.06656298
254	0x3dba3404	0.090919524
255	0x3e5eebcc	0.21769637

F.linears.1.bias f4 [32]
0	0xb947fc20	-0.00019072043
1	0xbcdf8d69	-0.02728911
2	0xbd0eec25	-0.034893174
3	0x3ce29e87	0.027663482
4	0x3e09cf15	0.13457902
5	0x3c6e88e4	0.014559004
6	0xbb8bbed2	-0.004264691
7	0xbd550d4f	-0.052014645
8	0x3dd09fd9	0.101867385
9	0xbcaafb33	-0.020871734
10	0x3c31df96	0.01085653
11	0xbdcf1578	-0.10111517
12	0x3cc10de2	0.02356619
13	0x3dde5385	0.10855774
14	0xbbf6a750	-0.0075272694
15	0xbdd3642d	-0.103218414
16	0x3d5f5902	0.054528244
17	0x3d79878c	0.060920283
18	0xbd7956a3	-0.06087364
19	0x3da95fff	0.08270263
20	0xbc0bfffc	-0.008544918
21	0xbd559071	-0.052139703
22	0x3d57fe27	0.052732613
23	0xbdd15c2a	-0.10222657
24	0x3cd8429b	0.026398947
25	0x3d8a1726	0.067426965
26	0xbb94b235	-0.0045378455
27	0x3dcb4211	0.099247105
28	0xbd1dd4e1	-0.038533095
29	0xbd504fa9	-0.05085722
30	0x3d2f0116	0.042725645
31	0x3e037864	0.12838894

F.linears.2.weight f4 [10, 32]
0	0xbc0732c2	-0.008251848
1	0xbd96f10e	-0.07370196
2	0x3d70957e	0.058736317
3	0xbc0d739c	-0.00863352
4	0xbdb19129	-0.08670265
5	0x3e10542f	0.14094613
6	0x3e8884d5	0.26663843
7	0x3d5a8318	0.053347677
8	0x3dfd0d70	0.123560786
9	0xbe22d654	-0.15902072
10	0x3d586ffe	0.05284118
11	0xbc43f7ed	-0.011960966
12	0x3d59fd20	0.053219914
13	0xbdfa9853	-0.12236085
14	0x3d3b386b	0.0457081
15	0x3e575415	0.21028168
16	0x3aa2d053	0.0012421705
17	0xbc8d7897	-0.017269416
18	0x3e2fdadf	0.17173336
19	0x3e282951	0.16422011
20	0x3ca6e93f	0.020374892
21	0x3e4f5d19	0.20250358
22	0xbccd5378	-0.025064215
23	0x3d7cb2fb	0.061694127
24	0xbe0d0716	-0.13772234
25	0x3cba7471	0.022760602
26	0x3e1159b4	0.14194375
27	0xbd62694f	-0.05527621
28	0xbc83899f	-0.016056834
29	0xbcc897c1	-0.024486424
30	0xbcefef67	-0.02928896
31	0xbdbe3cb5	-0.09288923
32	0xbd42c099	-0.047546957
33	0xbda32dd8	-0.079677284
34	0x3d58178d	0.052756835
35	0x3e273b19	0.16331138
36	0xbda50fca	-0.08059652
37	0x3e1724f2	0.14760187
38	0xbd18da3e	-0.037317507
39	0x3ea222d5	0.316672
40	0x3d7702e2	0.060305484
41	0xbe5feb1e	-0.21867034
42	0x3ce32647	0.027728213
43	0x3d6d2cc4	0.05790402
44	0x3dff3c17	0.12462633
45	0xbdb74b67	-0.08949929
46	0x3cb208b5	0.021732667
47	0x3de3b83b	0.111191235
48	0xbe1306f5	-0.14358123
49	0x3d57e718	0.052710623
50	0x3cce6ef0	0.025199383
51	0xbbce77db	-0.006300909
52	0x3d995072	0.07486047
53	0xbe35b205	-0.1774369
54	0xbe7178f0	-0.2358129
55	0x3e303a61	0.1720977
56	0x3d9969d1	0.07490886
57	0xbd7a2e40	-0.061079264
58	0x3df51627	0.11967116
59	0xbe1a4bd3	-0.15067987
60	0xbe50a75f	-0.20376347
61	0x3d18a61f	0.0372678
62	0x3e0c01ca	0.13672557
63	0xbe729798	-0.23690641
64	0x3dc74e3d	0.0973172
65	0x3e19d115	0.15021165
66	0xbe8c2ff6	-0.2738034
67	0xbdde555d	-0.108561255
68	0xbd31d441	-0.04341531
69	0x3d5efb68	0.05443898
70	0xbcb1380c	-0.02163317
71	0x3de6541b	0.112465106
72	0x3d2d7f6b	0.042357843
73	0xbd7fa36d	-0.062411714
74	0xbe098b8a	-0.13432136
75	0x3d01731e	0.031603925
76	0x3c28af6f	0.010295733
77	0x3c8a385c	0.016872577
78	0x3ce49def	0.02790734
79	0xbc0ade91	-0.0084759155
80	0xbe1f61e1	-0.15564682
81	0x3ac15e20	0.0014752783
82	0xbc0e5b7f	-0.008688807
83	0x3d6fc21d	0.05853473
84	0x3b092474	0.0020926269
85	0x3da62385	0.081122436
86	0xbe120398	-0.14259183
87	0x3c76dd4d	0.015067411
88	0xbd411344	-0.047137514
89	0x3e39e29c	0.18152851
90	0x3dc7c70e	0.097547635
91	0xbe5dea32	-0.2167137
92	0xbe1056ac	-0.14095563
93	0x3df1de0f	0.118099324
94	0xba458cfe	-0.0007535963
95	0xbe23314e	-0.15936777
96	0x3e2bff3a	0.1679658
97	0x3e7dfb58	0.24802911
98	0xbd74a7f8	-0.0597305
99	0xbe12a454	-0.14320499
100	0x3df251f0	0.118320346
101	0x3d56aee4	0.052412882
102	0xbe2cc403	-0.16871648
103	0xbd0c28b3	-0.0342185
104	0x3d9d3f5b	0.076781
105	0x3d3f6691	0.046728674
106	0x3da8810e	0.0822774
107	0xbe9840c4	-0.29736912
108	0x3e150516	0.14552721
109	0x3c575b40	0.013144314
110	0xbdd15727	-0.10221701
111	0xbe412262	-0.18860772
112	0xbd94d93a	-0.07267995
113	0x3c6be554	0.014397938
114	0x3e287d20	0.16453981
115	0x3e3bac25	0.18327387
116	0xbd9091c6	-0.07059054
117	0xbd57fd1f	-0.05273163
118	0x3ddfe2d9	0.1093194
119	0xbc72a210	-0.0148091465
120	0xbc6ce3dc	-0.014458623
121	0xbd8117da	-0.063033774
122	0x3d300743	0.042975675
123	0x3d24e899	0.040260885
124	0x3e332d26	0.17497692
125	0x3c536d5f	0.012904494
126	0x3c034a20	0.008013278
127	0xbdb6d107	-0.089265876
128	0xbe5c7fe3	-0.2153316
129	0x3d954c20	0.0728991
130	0xbd8cd77a	-0.068770364
131	0xbdc613cb	-0.09671744
132	0xbd50cb70	-0.050975263
133	0xbcdf4371	-0.027253838
134	0xbd1f07bc	-0.038825735
135	0x3e5406e0	0.20705748
136	0x3c6fa658	0.014627062
137	0xbd7d1747	-0.061789777
138	0xbb93a761	-0.004506037
139	0x3e629327	0.22126447
140	0xbdf3489f	-0.11879086
141	0xbd85221c	-0.065006465
142	0x3cb845fd	0.02249431
143	0x3cceb7bd	0.025234098
144	0xbe577987	-0.21042453
145	0xbd1d2e16	-0.03837403
146	0xbe0d8ecf	-0.13824008
147	0xbdc7e4cf	-0.09760439
148	0x3d7066b2	0.058691688
149	0x3d933357	0.07187527
150	0xbdb93c07	-0.090446524
151	0xbe3d7552	-0.18501785
152	0xbdd6655e	-0.10468553
153	0x3e64ef62	0.22356942
154	0x3df146c7	0.11781078
155	0xbd7e0bbb	-0.062022906
156	0x3d0c3bb7	0.034236636
157	0x3de22149	0.11041505
158	0xbe2f162e	-0.17098305
159	0xbdee27de	-0.11628698
160	0x3e0392c1	0.12848951
161	0x3ced8330	0.02899322
162	0xbc4df469	-0.012570479
163	0xbe689755	-0.22713979
164	0x3c8a5667	0.016886903
165	0x3e4b0a5b	0.19828169
166	0xbcf0f692	-0.029414449
167	0x3d86c9e2	0.06581475
168	0xbcc43c5f	-0.023954568
169	0xbd9a03c0	-0.075202465
170	0xbdd74260	-0.10510707
171	0x3daf1116	0.08548181
172	0x3cf873f4	0.030328728
173	0xbd9e2df6	-0.0772361
174	0xbd805218	-0.06265658
175	0x3d8436af	0.064557426
176	0xbdf0e36f	-0.117621295
177	0x3de93c4f	0.11388456
178	0xbc785183	-0.015156153
179	0x3c527a70	0.012846574
180	0xbe21352a	-0.15742937
181	0xbd9ef3f5	-0.07761375
182	0x3e1f206c	0.15539712
183	0x3e3ce842	0.18447974
184	0xbc0dd755	-0.008657296
185	0xbe0f0874	-0.13968068
186	0xbd6e105c	-0.05812107
187	0xbe269e2b	-0.16271274
188	0xbe190e8c	-0.14946955
189	0xbc0cfd1d	-0.008605269
190	0xbc1a00fd	-0.00939965
191	0xbd30e846	-0.043190263
192	0x3d910f32	0.070829764
193	0xbd4eadd2	-0.050458737
194	0x3e44404d	0.19165154
195	0xbdac22c0	-0.084050655
196	0x3da9caed	0.08290658
197	0x3e185529	0.14876236
198	0x3e0d3534	0.13789827
199	0x3d44537c	0.04793118
200	0x3df11f5e	0.11773561
201	0x3dae4386	0.08508973
202	0xbe47c751	-0.19509627
203	0xbc82915f	-0.015938459
204	0xbd110403	-0.035404216
205	0xbc4b9730	-0.012426183
206	0xbbb2e7c6	-0.0054597585
207	0xbe2c6b3f	-0.16837786
208	0x3dddc75e	0.10829042
209	0x3d1c4ea5	0.03816094
210	0x3dfa8dfe	0.12234114
211	0x3d582015	0.05276497
212	0xbd612656	-0.0549682
213	0xbe1853b6	-0.14875683
214	0x3d1c0208	0.038087875
215	0x3c4b5d80	0.012412429
216	0x3e0d81a8	0.13818991
217	0x3d1f64cc	0.038914487
218	0x3d467581	0.048451904
219	0xbd1446c6	-0.036200307
220	0x3d0599f6	0.03261753
221	0x3de3587a	0.1110086
222	0x3a02779d	0.000497693
223	0xbd53f6f3	-0.05174918
224	0x3daed40c	0.085365385
225	0xbe204a05	-0.15653236
226	0x3b355c94	0.002767359
227	0xbd9778d2	-0.073960915
228	0x3d03f3e3	0.03221501
229	0x3bc00376	0.0058597876
230	0xbe16c1cf	-0.1472237
231	0x3e01dcef	0.12681936
232	0xbe37ff35	-0.17968448
233	0xbdc529cf	-0.09627115
234	0x3e09e38c	0.13465708
235	0xbe171e9d	-0.14757772
236	0xbdfeca56	-0.12440936
237	0x3bdfda62	0.006831453
238	0xbe0f6ee6	-0.14007148
239	0xbdd623ea	-0.10456069
240	0x3da4b747	0.0804277
241	0x3e4ddcd2	0.20103768
242	0x3d1d67c6	0.038429044
243	0x3e7fd0d1	0.24982001
244	0xbe005d97	-0.12535702
245	0x3dd862d2	0.105657235
246	0xbbdc4d88	-0.0067231096
247	0x3d278ca5	0.040905613
248	0xbe788bbb	-0.24272053
249	0xbcad0ee6	-0.021125268
250	0xbcf348c3	-0.029697781
251	0xbdc47608	-0.09592825
252	0x3e18c9b2	0.1492069
253	0xbd80d915	-0.06291405
254	0xbe1ac5a8	-0.15114462
255	0x3e6837ef	0.22677587

F.linears.2.bias f4 [10]
0	0x3c99002a	0.018676836
1	0xbdd1dbf6	-0.10247032
2	0x3d03c61d	0.032171357
3	0xb95d6286	-0.00021112905
4	0xbd3b3271	-0.0457024
5	0xbd747ff3	-0.059692334
6	0x3c87c36c	0.016572677
7	0x3daa8c4c	0.08327541
8	0x3d998479	0.0749597
9	0x3a436998	0.00074543944

G.0.linears.0.weight f4 [32, 10]
0	0xbd90cd00	-0.07070351
1	0xbd061646	-0.032736085
2	0x3d97eb8d	0.074179746
3	0x3db81c25	0.08989743
4	0xbd716b7a	-0.05894039
5	0xbc2e51fa	-0.010639662
6	0x3dd8b3aa	0.10581143
7	0x3e44e925	0.19229563
8	0xbd19a4c9	-0.037510667
9	0xbdc61cb8	-0.096734464
10	0x3de15fd6	0.110046074
11	0xbd2dccf8	-0.0424318
12	0xbe51bc7b	-0.20482056
13	0x3d4cf951	0.050042454
14	0xbe6500f1	-0.2236364
15	0xbb96a734	-0.004597569
16	0x3c496249	0.012291499
17	0xbe01f54e	-0.12691233
18	0xbd828b13	-0.063741826
19	0x3ced630a	0.02897789
20	0x3ce7e28a	0.028306264
21	0x3daa2f80	0.08309841
22	0x3d6003da	0.054691173
23	0xbde812eb	-0.11331733
24	0x3e006368	0.1253792
25	0x3e47f6ac	0.19527692
26	0xbe0432f0	-0.12910056
27	0xbdee94f2	-0.11649503
28	0x3c67c17f	0.014145254
29	0xbbab4625	-0.0052268677
30	0x3e13864c	0.14406699
31	0x3d65c5bd	0.05609678
32	0x3def9d83	0.11699965
33	0xbd9212d1	-0.07132495
34	0xbe38af7c	-0.18035692
35	0xbdfb8dc0	-0.12282896
36	0xbe1023bf	-0.14076136
37	0x3c777647	0.015103883
38	0x3d16d523	0.036824357
39	0xbd52d256	-0.051470123
40	0x3debb1d4	0.115085274
41	0x3e15a647	0.14614211
42	0xbc092569	-0.008370736
43	0xbc994b87	-0.018712772
44	0x3e0ce87d	0.13760562
45	0x3db5ec2a	0.08882935
46	0xbe202954	-0.15640765
47	0xbe07da12	-0.13266781
48	0x3df5daea	0.12004645
49	0xbcf6617f	-0.030075787
50	0x3c4874fd	0.012234923
51	0x3d9377c7	0.0720058
52	0x3e51577f	0.20443533
53	0xbe074e71	-0.13213517
54	0x3ddf7d8b	0.10912617
55	0xbbef58dc	-0.007304294
56	0xbd7de924	-0.06198992
57	0x3d71a1c4	0.058992162
58	0xbdfe8950	-0.12428534
59	0xbe2ea1d0	-0.17053914
60	0x3e61e05d	0.22058244
61	0x3dcdd347	0.100500636
62	0x3da64cfb	0.081201516
63	0xbe37f2b5	-0.17963679
64	0x3d35d282	0.04439021
65	0xbd31acfb	-0.043377858
66	0x3d629419	0.05531702
67	0xbd9bfc47	-0.076164775
68	0xbdd075a5	-0.10178689
69	0xbdc0a73a	-0.09406896
70	0x3c2f6b68	0.01070676
71	0x3e717fe8	0.23583949
72	0x3d2340d3	0.039856743
73	0xbd5e2fb1	-0.0542447
74	0x3df45895	0.11930958
75	0xbd2deec3	-0.04246403
76	0xbe739131	-0.23785855
77	0x3d6a8985	0.057260055
78	0x3cd882a2	0.026429478
79	0xbd41eeb5	-0.04734679
80	0xbd9643eb	-0.07337173
81	0x3e40cba4	0.18827683
82	0x3e5e7808	0.21725476
83	0xbd5f8925	-0.05457415
84	0x3e23b706	0.15987787
85	0x3c53428a	0.012894282
86	0xba9d415a	-0.0011997626
87	0xbd66091f	-0.056161042
88	0xbd87362d	-0.0660213
89	0xbbfc1f53	-0.007694164
90	0x3d8708b6	0.06593458
91	0xbd20d5dd	-0.039266456
92	0xbd041518	-0.03224668
93	0x3c2f66a5	0.010705625
94	0xbd389920	-0.045067906
95	0xbda4f877	-0.080552034
96	0x3e4c1b72	0.19932345
97	0xbe1501cb	-0.14551465
98	0xbcb1d147	-0.021706237
99	0x3e4374d7	0.1908754
100	0x3dafc170	0.08581817
101	0x3d6691cb	0.056291383
102	0x3e7ecf4f	0.2488377
103	0xbe91aeb2	-0.28453594
104	0x3e890283	0.2675973
105	0x3e1a9645	0.15096386
106	0x3b817c8b	0.0039516143
107	0x3caaaffb	0.020835867
108	0x3dbab3fa	0.09116359
109	0xbdd1374e	-0.10215627
110	0xbe6feaf5	-0.23429473
111	0xbe2a703a	-0.16644374
112	0xbd61fd8d	-0.055173445
113	0x3de0f2a6	0.109837815
114	0xbdad7bc2	-0.084708706
115	0xbd235688	-0.039877445
116	0x3dc54154	0.09631601
117	0xbdf57295	-0.119847454
118	0x3ce3aef4	0.027793385
119	0x3e40988a	0.18808189
120	0xbe16f53f	-0.14741991
121	0xbda6df7a	-0.081480935
122	0xbe59652b	-0.21229999
123	0x3cf9d192	0.030495439
124	0xbe345dca	-0.17613903
125	0xbd431894	-0.04763086
126	0x3d5f2978	0.054482907
127	0xbdd9cc46	-0.10634665
128	0xba262122	-0.00063373346
129	0x3dd6678a	0.10468967
130	0x3e4c406f	0.19946454
131	0x3d8943a4	0.067023546
132	0x3daadb4d	0.083426096
133	0xbd240672	-0.04004521
134	0xbd08bf79	-0.033385728
135	0x3d18cbb0	0.037303627
136	0xbe025a4a	-0.12729755
137	0xbdb050c8	-0.08609158
138	0xbe7eaf6b	-0.24871604
139	0x3db67961	0.0890987
140	0xbcd3286d	-0.025776112
141	0x3dc3d1a9	0.09561474
142	0x3d999f42	0.07501079
143	0xbe095914	-0.13412887
144	0x3e29d383	0.16584592
145	0x3d50a19c	0.050935373
146	0xbb2aab20	-0.002604194
147	0x3d4c4c19	0.04987726
148	0x3e1ca7c0	0.15298367
149	0xbdaf0f33	-0.08547821
150	0xbd99e161	-0.07513691
151	0xbd8a5a35	-0.06755487
152	0xbe564bde	-0.20927379
153	0x3d17fea8	0.037108094
154	0x3d1a001c	0.03759776
155	0xbdbf7a34	-0.0934948
156	0x3e3dbef2	0.18529871
157	0x3e2ca307	0.16859065
158	0x3e90ccc0	0.28281212
159	0x3eb09397	0.34487602
160	0xbcc4bae6	-0.024014901
161	0xbdc55112	-0.096346036
162	0x3d429f34	0.04751511
163	0x3e294876	0.16531548
164	0xbdb54ecd	-0.08852921
165	0x3c32c9a8	0.010912336
166	0x3e2bfa11	0.16794612
167	0x3e4c8ecf	0.19976352
168	0x3e2a9654	0.16658908
169	0x3d9e2370	0.07721603
170	0xbd951252	-0.07278885
171	0xbd82de28	-0.06390029
172	0xbdb30f40	-0.08743143
173	0x3cd2b111	0.025719197
174	0x3c8604dc	0.016359739
175	0xbd9a3ce9	-0.07531149
176	0x3e0a7157	0.13519798
177	0x3e3a5d97	0.18199764
178	0xbd96097c	-0.07326028
179	0x3d2962ee	0.041354112
180	0x3e1cb032	0.15301588
181	0x3e44c256	0.19214758
182	0x3e305018	0.17218053
183	0xbd7a498e	-0.061105303
184	0x3d3c03a3	0.045901906
185	0x3e0bc60a	0.13649765
186	0xbdfac9a7	-0.122454934
187	0xbbd45213	-0.0064795106
188	0x3dacc5c3	0.084361576
189	0xbe6665b6	-0.22499737
190	0xbdf39b0a	-0.11894806
191	0xbeaacf05	-0.33361068
192	0xbe37036a	-0.17872396
193	0x3e13eeb4	0.14446527
194	0xbe300f28	-0.17193282
195	0xbe2df775	-0.16988929
196	0x3e859ede	0.2609777
197	0x3d9a0633	0.07520714
198	0xbdcde686	-0.100537345
199	0x3deb1827	0.11479216
200	0xbe31a3c4	-0.17347628
201	0xbe1ea0d7	-0.15491043
202	0xbddeda2b	-0.10881456
203	0x3e564677	0.20925318
204	0xbb5307d2	-0.0032200706
205	0xbde7aef2	-0.11312665
206	0xbda5ccbf	-0.08095693
207	0xbd8baf08	-0.06820494
208	0xbce97a16	-0.028500598
209	0x3cac1f13	0.021010911
210	0xbd6bfc7c	-0.057613835
211	0xbc85f064	-0.016349979
212	0xbe3789d4	-0.17923671
213	0x3d30ea8e	0.04319244
214	0xbe098a66	-0.13431701
215	0xbea5bb7c	-0.32369602
216	0x3cb23599	0.021754073
217	0xbde69392	-0.112586156
218	0x3e33762a	0.17525545
219	0x3d792376	0.060824834
220	0xbdd5369e	-0.10410808
221	0x3d0f692b	0.035012405
222	0x3e1e1fd5	0.1544183
223	0xbe754857	-0.23953377
224	0xbd2f7d04	-0.042843834
225	0x3e5386c0	0.20656872
226	0xbe3add7a	-0.18248549
227	0xbe0f6d76	-0.140066
228	0xbaaf6504	-0.0013381545
229	0xbdf62dbd	-0.12020443
230	0x3e776a91	0.24161746
231	0x3ecc1fd3	0.3986803
232	0x3e0cb698	0.13741529
233	0xbe4d6111	-0.20056559
234	0xbdff003c	-0.124512166
235	0x3da1f81d	0.07908652
236	0x3c681fe8	0.014167763
237	0x3d0502bd	0.032473315
238	0xbcc3c51a	-0.023897696
239	0x3d4a3399	0.049365614
240	0x3d2df446	0.042469285
241	0xbe10b7ca	-0.1413261
242	0x3d2050a2	0.039139397
243	0x3e9057f2	0.28192097
244	0xbe54b060	-0.20770407
245	0xbd30f21a	-0.043199636
246	0x3dce990c	0.10087785
247	0x3e076664	0.13222653
248	0x3e14ab08	0.14518368
249	0xbd9cc433	-0.076546095
250	0xbd065d21	-0.03280366
251	0xbe1717a8	-0.14755118
252	0xbdf25c50	-0.118340135
253	0x3e0eacac	0.13933057
254	0xbe918263	-0.2841979
255	0xbe2fc867	-0.17166291

G.0.linears.0.bias f4 [32]
0	0xbb9bf041	-0.004758865
1	0xbb643a06	-0.0034824624
2	0xbc735362	-0.014851423
3	0xbcabb27b	-0.02095913
4	0xbc0e9e0d	-0.008704674
5	0xba11df7a	-0.00055646116
6	0xbdba6d51	-0.09102882
7	0xbd51f983	-0.051263344
8	0x3c85f25b	0.016350916
9	0xbd612d40	-0.054974794
10	0xbd579d19	-0.052640054
11	0x3d3b2dc5	0.045697946
12	0xbd21717d	-0.03941487
13	0xbd284c4a	-0.04108838
14	0xbd0aac27	-0.033855584
15	0x3d97aa66	0.07405548
16	0x3e1aeb4b	0.1512882
17	0x3e044f1c	0.12920803
18	0xbddd8b5a	-0.10817595
19	0x3cbea45b	0.02327173
20	0x3ce8ed4c	0.028433464
21	0x3e13af61	0.1442237
22	0xbe3f6adb	-0.18693106
23	0xbccf26db	-0.025287082
24	0x3e3c224e	0.18372461
25	0x3dd737fe	0.105087265
26	0xbcb0b895	-0.02157239
27	0x3dc657ca	0.09684713
28	0xbd947801	-0.072494514
29	0xbe112335	-0.14173587
30	0xbc7b9d97	-0.015357397
31	0x3c1caf5d	0.009563294

G.0.linears.1.weight f4 [32, 32]
0	0x3c5e0c54	0.013552744
1	0x3c3bfbfe	0.011473654
2	0xbcbdc926	-0.023167204
3	0x3d7fcdc7	0.062452104
4	0x3dac7673	0.0842103
5	0x3ec2b2b0	0.38026953
6	0xbde8c6e3	-0.1136606
7	0x3d0df0cb	0.034653466
8	0x3db2c333	0.087286375
9	0xbe54f979	-0.20798291
10	0x3d19375a	0.037406303
11	0xbddecd09	-0.10878951
12	0xbdb747dc	-0.08949253
13	0x3dc8f187	0.09811693
14	0xbe252f04	-0.16131216
15	0xbd6518ca	-0.055931844
16	0x3ca3b768	0.019984916
17	0xbbf069ff	-0.0073368545
18	0x3db47e1e	0.088131174
19	0xbd9106b8	-0.070813596
20	0xbd6182a7	-0.05505624
21	0x3d7ddebe	0.06198
22	0x3e1f1ab6	0.15537533
23	0x3d9621b8	0.0733065
24	0x3da6411c	0.081178874
25	0x3ddc77d4	0.10765043
26	0x3e7270c3	0.23675828
27	0x3cf700fa	0.030151833
28	0x3e6018ce	0.21884462
29	0xbc9dc142	-0.019257192
30	0x3d70513a	0.058671214
31	0x3d549f7e	0.051909916
32	0xbce46630	-0.027880758
33	0x3d5cc54e	0.053899102
34	0x3ea50088	0.32226968
35	0x3e1dfb25	0.15427835
36	0x3e205993	0.1565917
37	0xbc886a0e	-0.016652133
38	0xbd921484	-0.07132819
39	0x3e3b32f8	0.18281162
40	0x3cc0238b	0.023454448
41	0xbcb43cec	-0.022001706
42	0x3e185b22	0.14878514
43	0x3bb7a87a	0.005604801
44	0xbddb2b48	-0.107016146
45	0xbbf51658	-0.00747947
46	0x3dfff8a3	0.124985956
47	0xbdbe6ef1	-0.09298504
48	0xbe33f882	-0.17575267
49	0xbd2cde85	-0.0422044
50	0xbcc474e2	-0.023981515
51	0xbe77f1a2	-0.2421327
52	0xbdf9bcf5	-0.12194244
53	0x3cf80a97	0.030278487
54	0xbd939e00	-0.072078705
55	0xbcce93b1	-0.02521691
56	0xbd83d953	-0.06437936
57	0xbc704ad5	-0.014666279
58	0x3e856ae4	0.26058114
59	0xbdaf7db5	-0.085688986
60	0x3d214b07	0.039378192
61	0x3e7935ac	0.2433688
62	0xbdd8d466	-0.10587387
63	0xbd927129	-0.0715049
64	0xbe8e87f7	-0.27838108
65	0xbcccb1f6	-0.024987202
66	0x3da39ea9	0.079892464
67	0x3da57c26	0.0808032
68	0x3d1d1cea	0.038357653
69	0x3bd8b234	0.0066130403
70	0x3e05cf4a	0.13067356
71	0x3e5f2d7d	0.21794696
72	0x3dd5b745	0.104353465
73	0xbb9c5c2a	-0.004771729
74	0x3dbb123e	0.09134339
75	0xbd891b93	-0.066947125
76	0xbbdd760a	-0.006758456
77	0xbe0112ca	-0.12604824
78	0x3dfc5b9a	0.12322159
79	0x3d3b2d0b	0.045697253
80	0xbe83c6d9	-0.25737646
81	0xbe605c97	-0.2191032
82	0x3d133112	0.03593547
83	0xbea11d23	-0.31467542
84	0xbd339b4a	-0.043849267
85	0x3cd51fac	0.026016079
86	0x3e1b2239	0.15149774
87	0x3e03b9fe	0.12863919
88	0xbdb7c740	-0.08973551
89	0xbdc39cdc	-0.09551403
90	0x3d9fc183	0.07800581
91	0xbdda2357	-0.10651272
92	0x3e571a9d	0.21006246
93	0x3d87fd9b	0.06640168
94	0xbd9e69ec	-0.07735047
95	0xbbb65d34	-0.00556531
96	0x3e1be7ce	0.15225145
97	0xbde5b481	-0.11216069
98	0x3db23e5a	0.08703299
99	0x3d981cfd	0.07427404
100	0x3e13a88f	0.14419769
101	0x3da51322	0.0806029
102	0xbd663122	-0.0561992
103	0x3dfc52dc	0.12320492
104	0x3dd537c8	0.1041103
105	0xbbdbaeb3	-0.0067041754
106	0x3db8a0c5	0.09015039
107	0xbe831d68	-0.25608373
108	0xbe710a34	-0.23539048
109	0x3e1507ef	0.14553808
110	0x3e320695	0.17385323
111	0xbdfeaace	-0.12434922
112	0xbe07f43c	-0.13276762
113	0xbe6736b3	-0.2257946
114	0x3e148420	0.14503527
115	0xbd673c2d	-0.056453872
116	0xbd889776	-0.06669514
117	0xbe8ae799	-0.2712982
118	0x3d714076	0.058899365
119	0x3d98cdf5	0.07461158
120	0xbe6cdad3	-0.2313035
121	0x3e240fb2	0.16021612
122	0x3e3a06e3	0.1816669
123	0xbcf69d02	-0.030104164
124	0x3d05ec5d	0.032696117
125	0x3c9beb10	0.019032985
126	0xbe187832	-0.14889601
127	0xbe8a99e9	-0.2707055
128	0x3d92717e	0.07150553
129	0x3e1f4310	0.15552926
130	0xbdf80fd0	-0.12112391
131	0xbe4afc01	-0.19822694
132	0xbe84ca2e	-0.259355
133	0xbe1e4076	-0.15454277
134	0x3b08783c	0.0020823618
135	0xbe1136b8	-0.1418103
136	0x3d294f02	0.041335113
137	0x3c082a4f	0.008310868
138	0xbe29fdd8	-0.1660074
139	0x3e258bc8	0.16166604
140	0x3c9aa6d1	0.018878372
141	0xbc7a2e20	-0.015269786
142	0xbe8f6027	-0.28003046
143	0x3df52701	0.1197033
144	0x3e292460	0.16517782
145	0xbe36a433	-0.17836075
146	0x3c7f7ef8	0.015594237
147	0x3e3da25c	0.18518966
148	0x3d3396d4	0.043845013
149	0x3e2f884d	0.17141838
150	0xbd9d1005	-0.07669071
151	0xbe4dd5ee	-0.20101139
152	0x3e8962c6	0.2683317
153	0x3e251a99	0.16123427
154	0xbd8c3de1	-0.0684774
155	0x3e35cb8b	0.17753427
156	0x3d95518e	0.07290946
157	0xbe9091b1	-0.28236154
158	0x3e7c871b	0.24660914
159	0x3e30b9ca	0.17258373
160	0x3cdfb2d2	0.027306948
161	0xbc574504	-0.013139013
162	0x3e41b00d	0.18914814
163	0x3e602efa	0.2189292
164	0x3d7863b9	0.060641978
165	0x3e288707	0.16457759
166	0xbc923d00	-0.017851353
167	0xbe14979b	-0.14510958
168	0x3e7b5e25	0.24547632
169	0x3d2b0e08	0.041761428
170	0x3e06e60e	0.13173696
171	0xbd9bd6d0	-0.076093316
172	0xbe2a0b23	-0.16605811
173	0x3d70761f	0.0587064
174	0x3e088153	0.13330583
175	0x3dafffb2	0.08593692
176	0x3cd63188	0.026146665
177	0xbd91ab9d	-0.07112811
178	0x3e383304	0.17988211
179	0xbcfa7444	-0.030573018
180	0x3d0e2998	0.034707636
181	0x3d13f574	0.036122754
182	0x3cc9516b	0.024574956
183	0x3e448f48	0.19195282
184	0xbcba6b2e	-0.022756185
185	0xbd8d07ab	-0.06886228
186	0x3e350702	0.17678455
187	0xbe8ab32a	-0.27089816
188	0x3d20271a	0.03909979
189	0x3d75dbae	0.060023956
190	0xbe23c785	-0.1599408
191	0x3cde8ebd	0.027167672
192	0xbd722a73	-0.059122514
193	0xbda3de8a	-0.0800143
194	0xbdaa6684	-0.083203346
195	0xbd464fbd	-0.048415888
196	0x3e725919	0.236668
197	0x3dad95d7	0.08475845
198	0x3df95c1d	0.12175772
199	0x3d9ede8c	0.07757291
200	0x3e0b0ecc	0.13579863
201	0xbe065eec	-0.13122147
202	0x3c5eb72c	0.013593476
203	0xbe992e0d	-0.29917946
204	0xbdb16946	-0.086626574
205	0x3d16ad4b	0.03678636
206	0x3e5f9e9a	0.21837845
207	0xbe03da75	-0.12876303
208	0xbdc37020	-0.095428705
209	0xbe739613	-0.23787718
210	0x3da99582	0.082804695
211	0xbe20f1b2	-0.157172
212	0xbd2bed8b	-0.041974586
213	0xbe407cfe	-0.1879768
214	0x3e51ef01	0.20501329
215	0x3ddbbb7e	0.10729121
216	0xbd9d9b8a	-0.07695682
217	0x3e12576e	0.14291164
218	0x3d9749ba	0.07387109
219	0xbdaae8ac	-0.0834516
220	0xbb9f1816	-0.004855166
221	0x3e38ce34	0.1804741
222	0xbdbe7088	-0.092988074
223	0xbc201de2	-0.00977275
224	0x3c518953	0.012789088
225	0x3c7e3df6	0.015517702
226	0xbd80aed2	-0.06283344
227	0x3def131c	0.11673567
228	0x3e0a7aa0	0.1352334
229	0xbce021e0	-0.027359903
230	0xbd16dc91	-0.036831442
231	0x3d69878d	0.057014037
232	0x3c083fb0	0.0083159655
233	0xbd8afcc3	-0.06786492
234	0xbd56af57	-0.05241331
235	0x3cefff1b	0.029296448
236	0xbe01e85f	-0.12686299
237	0x3dbe22bd	0.092839696
238	0x3d32c251	0.043642346
239	0x3e430b13	0.19047193
240	0xbdfcf9b6	-0.12352316
241	0x3d11ade4	0.035566226
242	0x3c848d7c	0.016180746
243	0xbe076ca2	-0.13225034
244	0xbe32f4dd	-0.1747622
245	0xbe549aba	-0.20762148
246	0x3d0d187f	0.03444719
247	0xbd430d17	-0.047619905
248	0x3cc4bcf2	0.024015877
249	0x3e0cd2ef	0.1375234
250	0x3d8543b9	0.06507058
251	0xbdb37ea6	-0.08764391
252	0x3d923ab8	0.07140106
253	0xbb2d1146	-0.0026408
254	0xbdc04bdc	-0.09389469
255	0xbe141745	-0.14462002

G.0.linears.1.bias f4 [32]
0	0xbd3bae55	-0.045820553
1	0xbc075b5d	-0.008261529
2	0xbd425f3b	-0.0474541
3	0xbd7fb870	-0.062431753
4	0x3b840e68	0.0040300377
5	0xbd3ead1c	-0.04655181
6	0xbe039e17	-0.12853275
7	0x3d01551f	0.03157532
8	0x3cd9e882	0.026600126
9	0xbddd6e93	-0.10812106
10	0x3c8ca23c	0.017167203
11	0x3ba950bb	0.0051670945
12	0xbdbd717b	-0.0925016
13	0x3dcdf3c6	0.10056262
14	0xbd33ef58	-0.043929428
15	0x3d27e961	0.04099405
16	0x3b2c6a8c	0.0026308624
17	0xb9311250	-0.00016886857
18	0xbc899a60	-0.016797245
19	0x3dddd018	0.10830706
20	0x3de7c1c6	0.11316256
21	0x3e108d98	0.14116514
22	0xbd3dae57	-0.04630884
23	0xbd90773c	-0.07053992
24	0xbd0bc7cf	-0.0341261
25	0x3c1d95b8	0.009618215
26	0x3c4f7d4d	0.012664151
27	0x3de9745b	0.11399146
28	0x3dd1c74d	0.10243092
29	0xbdab1782	-0.08354093
30	0x3d904358	0.07044095
31	0x3d2c2530	0.042027652

G.0.linears.2.weight f4 [10, 32]
0	0xbd17c847	-0.037056234
1	0xbd46ba94	-0.04851778
2	0x3e05d5be	0.13069817
3	0x3d99e423	0.07514217
4	0xbd02835e	-0.031863563
5	0x3db124cf	0.08649599
6	0x3d96cab1	0.07362879
7	0x3d0b88f0	0.03406614
8	0x3e7eea02	0.24893954
9	0xbb0cd560	-0.0021489486
10	0x3dd78fe2	0.1052549
11	0xbd81b49c	-0.06333277
12	0x3df4e26a	0.119572476
13	0x3da4169d	0.08012126
14	0xbe267954	-0.1625722
15	0xbde5d63e	-0.11222504
16	0xbe277234	-0.16352159
17	0xbdc0d373	-0.09415331
18	0xbe53cb55	-0.20683034
19	0x3cf0cdcd	0.029395008
20	0x3cc271ec	0.023735963
21	0xbdd43988	-0.10362536
22	0xbdb11c0b	-0.08647927
23	0x3e852994	0.26008284
24	0xbd3af45d	-0.0456432
25	0xbdc51c09	-0.09624488
26	0x3ba7ea36	0.0051243557
27	0x3e144e67	0.14483033
28	0x3e264a94	0.16239387
29	0x3c7ba825	0.015359913
30	0x3d826ee2	0.063688055
31	0xbdb9f822	-0.09080531
32	0xbe5aeffc	-0.2138061
33	0xbc1b9497	-0.009495876
34	0xbe116352	-0.14198044
35	0xbdc388a4	-0.095475465
36	0x3de7843b	0.11304518
37	0xbd166440	-0.0367167
38	0x3e394f69	0.18096699
39	0xbe064aa9	-0.13114418
40	0x3db34264	0.087528974
41	0xbe716812	-0.23574856
42	0x3de6425f	0.11243128
43	0xbdcc7209	-0.09982688
44	0xbe67e4d6	-0.22645888
45	0x3d5fe73a	0.054663874
46	0x3d795fce	0.060882382
47	0x3e1154a6	0.14192447
48	0x3d65b395	0.056079466
49	0xbdba981a	-0.09111042
50	0x3e658925	0.22415598
51	0x3d10b360	0.035327315
52	0xbcbf56ea	-0.023356874
53	0x3dee7cf9	0.116449304
54	0x3cba0fc1	0.02271259
55	0xbd8cd248	-0.068760455
56	0x3d06a5f3	0.032873105
57	0xbe744062	-0.23852685
58	0xbd036922	-0.032082684
59	0x3d283e02	0.04107476
60	0x3e82932b	0.25502905
61	0xbdb88646	-0.090099856
62	0x3da2d732	0.079512015
63	0xbccaa79b	-0.024738124
64	0xbdcb03d4	-0.099128395
65	0xbe8d655e	-0.276164
66	0xbe4b1f1e	-0.19836089
67	0xbe2f0171	-0.17090394
68	0x3e3c4e46	0.18389234
69	0xbd7d0419	-0.061771486
70	0xbe85f376	-0.26162308
71	0xbd75b321	-0.059985284
72	0xbe12253f	-0.14272021
73	0xbde2f698	-0.1108219
74	0x3e00ff2d	0.12597342
75	0xbe05734a	-0.1303226
76	0xbe9fabc6	-0.3118574
77	0x3db95091	0.0904857
78	0x3dd6e96e	0.10493742
79	0xbe4de5bd	-0.2010717
80	0x3e138bc4	0.14408785
81	0x3dd8003d	0.105469204
82	0x3e472fc0	0.19451809
83	0x3d99db60	0.075125456
84	0x3e0cbd82	0.13744166
85	0x3e4c2b20	0.19938326
86	0xba97e46d	-0.0011588462
87	0xbd9dfbff	-0.0771408
88	0xbcb24f79	-0.021766411
89	0xbe27fac4	-0.16404253
90	0x3d415d84	0.047208324
91	0x3dc190a2	0.09451415
92	0x3d81f5af	0.063456886
93	0xbe796fbc	-0.2435903
94	0x3da36cc5	0.079797305
95	0x3e9cf332	0.30654293
96	0x3cb44f19	0.022010373
97	0x3d81740c	0.06320962
98	0x399d0436	0.0002994851
99	0xbc7eb378	-0.015545718
100	0x3e01d38d	0.12678356
101	0xbe626c96	-0.22111735
102	0x3c714a33	0.014727163
103	0x3d851e9a	0.064999774
104	0xbb7c3235	-0.0038482074
105	0xbdd6df11	-0.10491765
106	0xbd5362bc	-0.051607832
107	0xbda0eed4	-0.07858053
108	0xbd3fba5a	-0.046808578
109	0xbd1ba8ee	-0.0380029
110	0x3da94894	0.08265796
111	0x3c611e4b	0.013740133
112	0x3e003691	0.12520815
113	0x3cfb0724	0.030643053
114	0x3dba56d0	0.090985894
115	0x3e4ea025	0.20178278
116	0x3da12d3f	0.07869958
117	0x3d25c02d	0.040466476
118	0x3c7e16b3	0.015508342
119	0x3b84ae64	0.0040491093
120	0xbd8e28f1	-0.06941403
121	0xbca56896	-0.020191472
122	0x3cd78e3c	0.02631294
123	0x3e38b22c	0.18036717
124	0x3e7cca1f	0.24686478
125	0x3e42b6dc	0.19015068
126	0x3b25ecde	0.0025318186
127	0x3d31d531	0.043416206
128	0x3d90b2a1	0.07065321
129	0x3c903cfe	0.017607208
130	0xbc83b5f8	-0.01607798
131	0x3c395d33	0.011313724
132	0x3cf544c7	0.029940022
133	0xbe4d23c9	-0.20033182
134	0xbd3c9603	-0.0460415
135	0xbd80e1a0	-0.062930346
136	0xbc4b4b9f	-0.012408166
137	0xbe17b06f	-0.14813398
138	0x3d2ab9a3	0.041680943
139	0x3e1df75a	0.15426388
140	0xbd56665e	-0.05234372
141	0x3d1cc990	0.038278162
142	0x3d0b4734	0.03400345
143	0xbd863f45	-0.065550365
144	0x3e45f1fc	0.19330591
145	0x3d78d846	0.06075313
146	0x3dac585c	0.08415291
147	0x3cd9cd54	0.026587166
148	0x3d3d15dc	0.046163425
149	0x3d02d65c	0.03194271
150	0x3e2ffb5b	0.17185728
151	0xbcccbd4b	-0.024992606
152	0x3e054a39	0.13016595
153	0xbd1db295	-0.038500387
154	0x3e0a97c5	0.13534458
155	0xbd51eb82	-0.05124999
156	0x3e087b48	0.13328278
157	0xbdbf0b09	-0.09328277
158	0x3d9e681d	0.07734702
159	0x3cd8387b	0.02639412
160	0xbcbc0f07	-0.022956384
161	0xbdcdfc42	-0.1005788
162	0x3cb376f9	0.021907317
163	0xbd87ac4c	-0.0662466
164	0xbe23bf06	-0.15990838
165	0xbcc70ac2	-0.024297122
166	0xbcfbc8a9	-0.03073533
167	0x3df4c0ab	0.11950811
168	0x3dcc80f7	0.099855356
169	0xbd456116	-0.04818829
170	0xbc917961	-0.017758073
171	0x3d273683	0.04082347
172	0xbd98b6f5	-0.07456771
173	0x3df11af5	0.1177272
174	0xbb302ab9	-0.0026880933
175	0x3cf41ee6	0.02979989
176	0xbe1f2cab	-0.15544383
177	0xbd601744	-0.054709688
178	0xbe0874b7	-0.13325773
179	0xbcce8ec7	-0.025214566
180	0xbd6bab99	-0.057536695
181	0x3cf149fa	0.02945422
182	0xbd992c5d	-0.07479165
183	0x3e06d0aa	0.13165537
184	0xbd94e506	-0.07270245
185	0xbd3d9499	-0.046284292
186	0x3d6ef81a	0.058342077
187	0x3d7fba6a	0.062433638
188	0xbe253a11	-0.16135432
189	0xbdb9a7b9	-0.09065194
190	0x3dab7d6c	0.08373532
191	0xbd4830d8	-0.048874706
192	0xbe1127bc	-0.14175314
193	0xbd5718d7	-0.052513923
194	0x3ddf2ca1	0.10897184
195	0x3e0c6778	0.13711345
196	0xbd9a6230	-0.07538259
197	0x3c9b1a1e	0.018933352
198	0xbc80ef67	-0.015739156
199	0xbd57b4a6	-0.052662514
200	0xbd08f37b	-0.033435326
201	0xbcc8935a	-0.024484325
202	0xbcc07697	-0.023494048
203	0xbdfad105	-0.122468986
204	0x3d43864c	0.047735497
205	0x3df59372	0.119910136
206	0xbe43400e	-0.19067404
207	0x3b0c1a5e	0.002137802
208	0x3d24fd4d	0.04028063
209	0x3e1a340c	0.15058917
210	0xbb93177e	-0.0044888845
211	0xbe392da3	-0.18083815
212	0x3db7e24a	0.08978708
213	0x3c29a813	0.010355013
214	0xbe3dc20f	-0.18531059
215	0x3def582a	0.11686738
216	0x3e156043	0.14587502
217	0xbe146611	-0.1449206
218	0xbe875bf7	-0.2643735
219	0x3e1facf1	0.15593316
220	0xbc6c5087	-0.014423496
221	0x3d61f39b	0.05516396
222	0x3ccfb1c7	0.025353326
223	0xbe04696a	-0.12930837
224	0xbd9299d8	-0.071582496
225	0xbdacd2a6	-0.084386155
226	0xbbecc676	-0.007225807
227	0xbe55f4eb	-0.2089421
228	0xbd6eb979	-0.05828235
229	0xbe631059	-0.22174205
230	0x3d212fb0	0.03935212
231	0x3d72afbe	0.059249632
232	0xbcb63ac5	-0.02224482
233	0xbe34779e	-0.17623755
234	0x3e5ce4f4	0.21571714
235	0x3e2b7343	0.16743188
236	0xbda06a8d	-0.07832823
237	0x3cd9feea	0.02661081
238	0x3d06df98	0.03292808
239	0x3d84d9f8	0.06486887
240	0x3e2dc861	0.1697097
241	0x3c5a01bd	0.0133060785
242	0x3e16f23c	0.14740843
243	0xbe15f762	-0.1464515
244	0xbd31a2c6	-0.043368123
245	0x3e34e142	0.17664054
246	0x3e7f5a6f	0.24936841
247	0x3dbdb81a	0.0926363
248	0xbdbaf0c0	-0.09127951
249	0xbdc6da6c	-0.097096294
250	0x3df01bee	0.11724077
251	0xbcd40c4e	-0.025884774
252	0x3e39df2b	0.18151538
253	0xbe1f5993	-0.15561514
254	0x3e16cb2c	0.14725941
255	0x3d96040d	0.073249914

G.0.linears.2.bias f4 [10]
0	0xbda15158	-0.07876843
1	0xbc49124b	-0.012272428
2	0x3e155368	0.14582598
3	0xbca5d46f	-0.020242898
4	0x3e17e6a1	0.14834072
5	0xbd937132	-0.07199325
6	0xbd57e9ed	-0.052713323
7	0x3daf7f58	0.08569211
8	0xbd7bba80	-0.061457157
9	0x3e04e5f9	0.12978353
