para_save/00091params.pth (torch, 118145 bytes, 76 tensors)

F.linears.0.weight f4 [32, 20]
00000000: 12ed b1bc 96e8 50bd 863e 2dbe 2016 c23c
00000010: 3b5f 7abd 222c 7fbc 2011 20be d9ca a93d
00000020: 4358 f1bd 9122 57bd 894b 633b 96ee 43bd
00000030: 72ce 903d 6089 1fbe e070 22bc a076 6d3c
00000040: e0f3 a93d 0c2f 0f3e 66be 8abd aa91 ee3d
00000050: 197e 213e c32a f1bd 9be4 adbc 3e18 82bd
00000060: 4f36 6bbd f63b 26be c1eb 213c 3c33 b03d
00000070: 7d90 1d3d b5a2 97bc 5e30 263e 6c26 37bd
00000080: 7011 2ebe 679b 19bc 6239 a13d 1432 403d
00000090: c28b 243d 6205 7c3c ea1b 46bd 65c7 773b
000000a0: cc91 febd 37f3 393d cec0 a3bd 1615 61be
000000b0: e3b7 15be 4ee6 37be 6718 1f3e 557c 9d3d
000000c0: b474 093e 5c44 b83c 4a29 cd3d cba9 7bbd
000000d0: ebbc e5bc a5fd 42be 91ec 023e ce09 a83c
000000e0: c462 933d a022 59be 6c2f a0bd 1029 0f3d
000000f0: 48b9 593d 4fe0 ecbd 9c0a 38bc 32eb 3fbd
00000100: 7575 0c3e f608 7ebd 7d05 9b3c e00f 09bd
00000110: e1bc 63bc b21c 1b3e 51e2 cdbc 7ad3 20be
00000120: f017 a0bd 0417 113c aec0 9c3c 6433 cd3d
00000130: 5b26 cbbb 1a88 d33b 9179 33be 6fb6 853d
00000140: c664 023e 06ba 763b dcc9 33be 23ba e23d
00000150: 341d 2a3d 8547 1d3c 3c0b 2c3d 7c7d bbbd
00000160: 926f 473c e228 273e 43e2 09bd 1c2e c0bd
00000170: 3041 45be 5166 d9bd 3c16 263e ddcb febc
00000180: 2e79 463e 81a0 efbc ac81 00be 006c 593c
00000190: 0290 5bbd 01d5 333e 2700 2cbe 9f80 d9bd
000001a0: b2ef ad3d 8aea 60bd 428d a73d 5999 483e
000001b0: 1d97 103e 142c adbc 0c18 9c3c 0e0c f4bc
000001c0: f8fc 70bc 34e3 edbc e370 ccbc 3da6 3d3d
000001d0: 106d 503e 35d3 613c a54a 583d cbcf f8bc
000001e0: 91b4 ff3d fa22 d73c cb8f bbbd 2557 3fbd
000001f0: 4b83 3f3d ae34 123d fb2a 473e f86e 7f3d
00000200: c004 7c3d c60d 073e 5bfe 183e d21d 743d
00000210: 8858 8fbd 9819 0abe a1a8 263e 3651 103e
00000220: f4e6 33be 5ef6 02bd 5385 ba3b c29d 5a3d
00000230: 22cf dc3d 36cc 46bd f4fc eb3d b0e8 1e3d
00000240: 1bf1 3cbc 54b2 4d3d d9e8 30bd a64a 843b
00000250: e576 993d a56b 06be f344 dbbd 112c b63d
00000260: c3b0 0cbc 8430 9ebc 0d00 6e3d d228 9d3c
00000270: 0248 7bba 1360 cb3c 7566 45be 721d d23d
00000280: 0355 5ebc bea0 0f3e 5bef d03c 9931 ae3c
00000290: 860b cfbd 6b46 e13d 0a35 30be f6cf 19bd
000002a0: 40f9 f8bd 774b c13d 42be e73d 973b 05be
000002b0: 8803 30bc cf0c 133c c428 8dbd 3448 5d3d
000002c0: 2b37 833d 0032 c6bd 8c07 2fbc 636c 0c3e
000002d0: ab0e c13c 3d76 91bd 9f92 d03d 1e0a 9cbd
000002e0: 7290 f1bc edcd 58bd b9b2 b0bd 7f46 823e
000002f0: f0c1 123e 80f0 b2bd aa69 923b 0579 bd3c
00000300: 3931 b03d 0901 8abd b940 713d 11d9 5fbd
00000310: 2176 bebd 0d68 14be f9fe 0fbe 5de6 c1bc
00000320: 1018 4b3d 12aa 41bc 8209 4a3c 93a9 fabb
00000330: 4bd5 d2bd 70c8 353d 69f4 b13d ba12 aabd
00000340: 77f3 a3bb 030f e43c 272c a1bd 8d1e d63b
00000350: ecc6 05be 9573 a23c aebf 283e 3d5a 4e3d
00000360: 929c 053e a54d 26be 4a64 843d 7a7b 543d
00000370: aa94 b5bd cf93 c6bc 3635 5ebc e736 05bd
00000380: 7e44 72bd f757 583d 67a4 9e3d ee2c 87bd
00000390: b2ff 7abb 3147 49be af11 203c 8019 74be
000003a0: d01e 1a3e 83fe 0fbd f3fc f6bc 4cd2 c33d
000003b0: 844b b03c 9f99 3fbd 8f75 5bbe 1e13 1b3e
000003c0: 1ac6 063e b164 25bd eca2 d6bc 449a 82bd
000003d0: 1c14 f73c a2da 2b3e 6c28 d73c e731 7e3d
000003e0: cde3 00bc 5d52 e5bd 6f97 c53b 4d71 f3bd
000003f0: ab1b 45bd 0faf 29be 39b6 9d3c 1200 29bc
-0.02171949 -0.05100306 -0.16918382 0.02369219 -0.061125975 -0.015574487 -0.15631533 0.08290643
-0.11784413 -0.0525232 0.0034682474 -0.047834955 0.07070626 -0.15579748 -0.009914607 0.014493614
0.082984686 0.1398279 -0.06774597 0.11648877 0.15770759 -0.11775734 -0.021227172 -0.0635228
-0.05742484 -0.16233811 0.009882868 0.08603522 0.038467873 -0.018510202 0.16229388 -0.044714376
-0.1699884 -0.00937543 0.07872273 0.04692276 0.040172346 0.015382143 -0.048366465 0.0037808057
-0.12430152 0.045397963 -0.07995759 -0.219807 -0.14620928 -0.17958948 0.15536653 0.0768973
0.13423425 0.022493534 0.10017641 -0.061441224 -0.028044185 -0.1904207 0.12785555 0.020512488
0.071965724 -0.21204615 -0.07821545 0.03495127 0.053155214 -0.11566221 -0.011232998 -0.04685516
0.13716681 -0.062020265 0.018923515 -0.033462405 -0.013900013 0.15147665 -0.02513233 -0.15705672
-0.07817066 0.008855585 0.019134846 0.100195676 -0.0061996407 0.0064554336 -0.17526843 0.06528937
0.12733755 0.00376475 -0.17557472 0.11070659 0.041531757 0.009599571 0.0420029 -0.091547936
0.0121725965 0.1632419 -0.033663046 -0.09383795 -0.19263148 -0.106152184 0.16219419 -0.031103069
0.19382164 -0.029251339 -0.12549466 0.013270378 -0.053604133 0.17561723 -0.16796933 -0.10620236
0.08492984 -0.054911174 0.0818124 0.19589747 0.14120145 -0.021139182 0.019054435 -0.029790904
-0.01470875 -0.029039003 -0.024956172 0.046301115 0.20354104 0.013783266 0.05280556 -0.03037252
0.12485612 0.026261795 -0.09158286 -0.046713967 0.04675607 0.03569477 0.1944999 0.062361687
0.061527967 0.13188848 0.14940779 0.05959875 -0.06999308 -0.13486326 0.16275264 0.1409348
-0.1756857 -0.031973235 0.005692163 0.053373106 0.10781695 -0.048534594 0.11522856 0.038796127
-0.011532093 0.050218895 -0.04319081 0.004037219 0.074933805 -0.13127 -0.107065104 0.08895124
-0.008587065 -0.019310243 0.058105517 0.019184504 -0.000958562 0.024826085 -0.19277366 0.102595225
-0.013570073 0.14026162 0.025504759 0.021263884 -0.1010962 0.10999759 -0.17207733 -0.037551843
-0.12156916 0.09438222 0.11315586 -0.13011013 -0.010743029 0.008975222 -0.06892541 0.054023936
0.06407007 -0.096775055 -0.010682952 0.13713221 0.023566565 -0.0710263 0.10184216 -0.07619117
-0.029487822 -0.05293076 -0.08627839 0.2544441 0.14331794 -0.08737278 0.0044681625 0.023128996
0.086031385 -0.06738479 0.058899615 -0.05465037 -0.09299875 -0.14492817 -0.14062108 -0.023669416
0.049583495 -0.011820333 0.012331368 -0.0076496094 -0.10294589 0.044380605 0.08689196 -0.08304353
-0.0050033885 0.02783919 -0.078697495 0.0065344037 -0.13064164 0.019830504 0.1647937 0.050379027
0.13048008 -0.16240557 0.06464441 0.05187557 -0.08866246 -0.024240403 -0.013562491 -0.032523062
-0.05914735 0.052818265 0.07746201 -0.066003665 -0.003829938 -0.19656064 0.009769841 -0.23837852
0.15050817 -0.03515483 -0.030149912 0.09561595 0.021520384 -0.046777364 -0.21431564 0.15144011
0.13161507 -0.04037923 -0.026200734 -0.0637708 0.030160956 0.1678262 0.026264392 0.06205931
-0.007866812 -0.1119735 0.006030015 -0.11886845 -0.04812209 -0.16570686 0.01925193 -0.010314958

F.linears.0.bias f4 [32]
00000000: 400e 78bd 7998 d53c 2bb9 a53d 0428 c4bd
00000010: 3285 a2bd 9375 1bbd ec84 c2bd a0b7 f83c
00000020: 3858 1cbc eb2a b23d 9ea4 6bbd f53a 0fbd
00000030: d3d3 f8bc e2a0 afba 32ff 06bc b6fb ac3c
00000040: d31c 153c 60b3 af3d cfd8 ac3d b480 ed3c
00000050: a7ed 04be c562 22bb 8c14 d9bd 8ad0 2bbd
00000060: 76d5 c1bc b0cf 5fbb dc35 26bd bf82 18bd
00000070: fce4 ed3b 41f0 45bc ca90 63bc 12e5 18bb
-0.060560465 0.026073681 0.080919586 -0.09577945 -0.07935561 -0.037953924 -0.09498009 0.030360997
-0.009542517 0.08699592 -0.057530038 -0.034968335 -0.030374443 -0.0013399387 -0.008239554 0.021116119
0.0091011105 0.08579135 0.084397905 0.028992034 -0.12981282 -0.002477811 -0.10599622 -0.041946925
-0.023661356 -0.003415089 -0.040578708 -0.037234064 0.007259963 -0.012081207 -0.013889501 -0.0023329896

F.linears.1.weight f4 [32, 32]
00000000: a9da 0cbd cb0e e33d 37ec aa3e 18a1 cdbd
00000010: 260a 13be 5e20 2d3d 82b3 883c 5a2c 5cbd
00000020: ab66 5dbd bf67 053d 44fe 1ebc 139b 213d
00000030: 6e9f bdbd 94b5 dabd 8dfb 293e a0e3 ce3d
00000040: 458b 5fbd 019a 1ebc b3d4 493d e5e6 113e
00000050: 61e1 c5bd d353 4a3d edc6 533e b0ec 923c
00000060: 49af 9a3d 9ac7 153e 5d91 1dbd f1b5 a9bd
00000070: cf51 18be 801f bf3c 46fb 813a ec36 7f3d
00000080: 53ee f63d 163d 403d 3641 933e efe6 323d
00000090: 4a85 03bd 12a2 fa3d c1d6 833c 01cd aebd
000000a0: 0369 1f3d 0fca 943c 1542 0d3e 5241 41be
000000b0: 0217 2ebc db7a bfbc 9429 d0bd c819 593d
000000c0: 4802 733d d64d a83d e4c9 1fbe 7f73 b83b
000000d0: 7ec5 0dbd d590 393d 33d9 b13c 1a23 a23d
000000e0: d769 f5bd f5bb 9ebd b1c7 d73d 4457 263e
000000f0: ba4f 3abd e48e e53d abf7 f33d 1fa2 eb3d
00000100: 06b4 88bd 76f1 eb3c 86bb 5dbc 9c75 17bd
00000110: 56d5 28bc b319 0abc a778 7d3c 7579 34be
00000120: 8405 3b3d a42b 67bd 3dd2 bb3d 1106 1c3e
00000130: 27ad 423e 93ce 53bc 4445 5abe fe14 b93a
00000140: 9da3 3b3e b6f2 8dbd 7860 3cbd 670f 9b3d
00000150: 7e73 1c3e 34d5 0f3e 3e5c a5bb 89de b0bd
00000160: a9fc 47be 9953 633d f7cb 74be 598b 313e
00000170: 7d3a 873d 934e 5a3d 0313 c73d 1b4b 38bd
00000180: e2c1 04be 0c56 9dbc a3ba 863c a9a9 da3d
00000190: ec13 463c 1308 34be 4a45 433d 33c1 483c
000001a0: aa6f 473e fac6 4ebe 3e3b 2b3e 5d1c febd
000001b0: 9033 5a3d 582b ebbd 7cf0 0abe b6b8 80be
000001c0: 3723 08be 787b d1bd 810b febd b15d 80be
000001d0: 59ce b63d ed7f c63d 394f c7bd cc6b 403e
000001e0: c57d 1a3d 307b e33d 11af 9f3a 6573 8fbd
000001f0: c132 d13b 7fe8 14bd 3500 283e 7ab4 e5bd
00000200: 1e52 97bc f4fe 203e 250e f73d fb8e fcbd
00000210: c3f1 bc3d 9fac ddbc fe4e 2bbc 722e 4b3d
00000220: 6a5b 97bd f71d 013d baa4 1b3d da42 a03d
00000230: 6fd9 f9bd 46b0 17be 0238 e8b9 a949 abbd
00000240: 9d04 3cbe 598e 163d a0b3 c83d 9b36 153d
00000250: 65b4 babd 0d9d b83d 76bd cbbc 099a 443d
00000260: 1aec 113e 5c1f cb3b 3877 1bbe abd7 423e
00000270: b1ee 053d 7991 dbbd a549 b83d dbf0 783c
00000280: 593f c5bd a9a3 85bc 4f15 08be 1565 963d
00000290: 16bc e4bd 1842 c2bc 55c9 4cbe 96dc 56be
000002a0: ce09 6abb 14eb 1abc c78b c6bd 13d5 07be
000002b0: ea50 d93d 0a3c aa3d 985d 0d3d 1443 083e
000002c0: 197d 64bd 9ec7 afbc 96a9 e5bc b653 c4bd
000002d0: cbf8 8ebd 87cb 1a3c 4f5f 133d 90eb 57bd
000002e0: f121 aabc 54a9 9f3d acd8 a03d f9b3 143d
000002f0: beab 2a3d 6f0f 913d 75f4 f4bd a4c0 cabd
00000300: ef8a 03bc 0797 02be 954d 08be 0d48 4abd
00000310: ffd0 87bd 0105 c3bc e78f bb3d b88d 87bb
00000320: 5229 3ebe fbd2 fcbd d79d c73d 3be9 49be
00000330: d511 893d 757c a5bd d70d 16be 5af9 363e
00000340: 8f43 85bd c216 083e 6119 8bbd d024 5abd
00000350: 4407 373d fc79 9fba b418 863d d049 25be
00000360: 44e1 12bd 0d96 10be c485 833c 5ca9 e43b
00000370: 6983 9cbd b577 8fbc 6b14 09bd 94d0 07be
00000380: b0fd af3d b917 493d b75a 39be 2efb 623c
00000390: dfce d5bc 0512 eb3d 8aff 843d 7348 0a3d
000003a0: 73a2 aa3d 7df0 dcbc 134f 613d 7c77 85bd
000003b0: f358 aabd cbbf 26be 1d96 363d 1ccf 63bd
000003c0: 602b 84bd 1797 533d b31e 5f3d 5ca1 42be
000003d0: 8063 e83d 7667 113d 63ef 833e b02c 8cbd
000003e0: fc78 d6bd 10c6 31bd 979e ad3c b822 353c
000003f0: 062f c03d 9e6e 883d 48b0 ba3d 7cbf 5e3e
-0.034388218 0.11086806 0.33383343 -0.10040492 -0.1435934 0.042267196 0.016687158 -0.053753234
-0.05405299 0.032569643 -0.009704176 0.03945453 -0.092589244 -0.106791645 0.16599865 0.1010201
-0.054576177 -0.009680272 0.04927511 0.14248236 -0.09662128 0.049396347 0.20681353 0.017935127
0.07552964 0.14626923 -0.038468707 -0.08286656 -0.14874958 0.02333045 0.0009916804 0.062308237
0.120571755 0.046933256 0.2876069 0.043677267 -0.032109536 0.12237944 0.016093614 -0.08535195
0.038918506 0.018162755 0.1379474 -0.18872574 -0.010625603 -0.023374012 -0.101641804 0.053003103
0.059328347 0.08217971 -0.15604359 0.0056290026 -0.03461217 0.04530414 0.021710014 0.07916851
-0.11983078 -0.07750694 0.10536135 0.16244227 -0.04548619 0.11208895 0.11912473 0.115055315
-0.06674962 0.028801661 -0.013533479 -0.036977395 -0.0103047695 -0.008428979 0.01547066 -0.17624457
0.045659557 -0.056438103 0.09170959 0.15236689 0.19011365 -0.012927669 -0.21315485 0.0014120636
0.18324132 -0.06931059 -0.045990437 0.07571297 0.15278432 0.14046174 -0.0050463965 -0.08636195
-0.19529976 0.055499647 -0.23905931 0.17338313 0.06602953 0.05329759 0.09720423 -0.0449935
-0.12964585 -0.01920607 0.016446417 0.10676891 0.012089711 -0.17581205 0.0476735 0.0122530935
0.1947619 -0.20193091 0.16721818 -0.124077536 0.05327183 -0.114828765 -0.135683 -0.25140923
-0.13294683 -0.10228628 -0.12404538 -0.2507148 0.089260764 0.09692369 -0.097319074 0.18791121
0.0377176 0.111074805 0.0012182911 -0.07004432 0.006384224 -0.036354538 0.16406329 -0.11216064
-0.018471774 0.15722257 0.12063245 -0.12331959 0.092258 -0.027059851 -0.010455845 0.04960484
-0.07390483 0.031522717 0.037998892 0.07825251 -0.12199675 -0.14813337 -0.00044292217 -0.08363659
-0.18361135 0.036756847 0.09799886 0.03642903 -0.09116439 0.0901433 -0.024870615 0.047998462
0.14250222 0.0061988067 -0.15182197 0.19027583 0.032698337 -0.10721106 0.089984216 0.015194143
-0.09631223 -0.01631339 -0.13289379 0.073434986 -0.11168687 -0.023713157 -0.19998677 -0.20982584
-0.003571141 -0.009455461 -0.09694629 -0.13264875 0.10611136 0.08312233 0.034513086 0.13306838
-0.055783365 -0.02145749 -0.028034966 -0.09586279 -0.06981047 0.009447939 0.035979565 -0.052714884
-0.020768138 0.07795969 0.07853827 0.036304448 0.041667692 0.07083022 -0.11960689 -0.099000245
-0.00802873 -0.12752925 -0.13310845 -0.04938512 -0.0663166 -0.023806097 0.091583066 -0.0041367672
-0.1857045 -0.12344929 0.097469024 -0.19717877 0.06692854 -0.08080379 -0.14653717 0.17868558
-0.065070264 0.13289931 -0.0679195 -0.053257763 0.044684663 -0.0012167091 0.065476805 -0.16141438
-0.03585936 -0.1411974 0.016054995 0.006978197 -0.07642252 -0.017513135 -0.033466738 -0.1326316
0.08593309 0.04909489 -0.18101011 0.013853831 -0.02609962 0.11478046 0.06494053 0.0337605
0.08331766 -0.026970142 0.05500705 -0.065169305 -0.08317747 -0.162841 0.044576753 -0.055617437
-0.064535856 0.051657762 0.054472636 -0.19006866 0.11347103 0.03549906 0.25768575 -0.06844461
-0.10472295 -0.043401778 0.021193786 0.011055641 0.09383969 0.066617236 0.09115654 0.21752733

F.linears.1.bias f4 [32]
00000000: 73dc 9bb9 f1a1 e0bc 60ee 0ebd ec3c e33c
00000010: fa5b 093e dc06 6d3c 3b1a 8ebb a0fe 54bd
00000020: 1f26 d03d c6db adbc 4826 323c 20de cebd
00000030: fd08 bf3c 8bd7 de3d c648 f4bb 9b8c d3bd
00000040: e583 5e3d be6f 793d dbae 79bd 4444 a93d
00000050: 10d9 0abc 7638 54bd 2d9c 573d 7849 d1bd
00000060: 8859 d53c 5f57 8a3d cebb 92bb 97ba ca3d
00000070: 2094 1ebd bca7 50bd c857 2e3d a194 033e
-0.0002972815 -0.02742097 -0.0348953 0.02773901 0.13413993 0.014466967 -0.004336623 -0.05200064
0.10163521 -0.02122296 0.010873385 -0.10100961 0.023319716 0.10880955 -0.0074549643 -0.10329553
0.054325003 0.06089758 -0.06095777 0.08264974 -0.008474603 -0.051811658 0.052639175 -0.10219091
0.026043668 0.06754946 -0.0044779545 0.098988704 -0.03871548 -0.050941214 0.042564183 0.12849666

F.linears.2.weight f4 [10, 32]
00000000: ea7b fdbb 7ab4 97bd d7c5 703d 90b9 0ebc
00000010: a9b4 b1bd 3f39 103e 1d61 883e e356 5a3d
00000020: cd0a fd3d 3577 22be ec23 5a3d 69c8 46bc
00000030: 20c3 593d 5ae8 fabd e944 3b3d e7ac 563e
00000040: 3c3f a13a ef22 89bc 032b 303e 9a1f 283e
00000050: 8e3a a53c d6a5 4f3e bf41 cbbc 3747 7c3d
00000060: 0e09 0dbe 82db b73c 0d49 113e dd7a 62bd
00000070: 9c28 82bc 539e c9bc 60fa f2bc 4d95 bebd
00000080: 48f0 3ebd 67f2 a3bd 8dc1 573d 3e0e 273e
00000090: a3a2 a4bd 3c87 163e b51f 1cbd d31a a23e
000000a0: 7e77 763d 23b9 5ebe 78f2 e83c 303f 6c3d
000000b0: fe02 ff3d 8126 b7bd aa0a b13c 75a0 e23d
000000c0: 36f3 12be a9d0 593d bb76 d03c 799a c4bb
000000d0: 5593 983d 8349 35be b2f1 70be b112 303e
000000e0: 692e 993d d458 7bbd 5d17 f53d 1d53 1abe
000000f0: b5d6 4fbe 9d73 173d 558c 0b3e 4485 72be
00000100: d80c c83d c653 1a3e 6339 8cbe 2e80 debd
00000110: c462 30bd 2f99 5f3d fbf3 b0bc 4c19 e63d
00000120: 8bd5 2c3d 9684 7fbd f03c 09be 46e6 003d
00000130: 8567 2c3c f12c 8c3c 3bbf e23c fd32 12bc
00000140: b535 1fbe cc54 f13a bbd6 15bc 7caa 703d
00000150: 8255 023b 967b a53d 053e 12be 18f4 753c
00000160: bbba 40bd c817 3a3e 0585 c73d fad9 5dbe
00000170: 0b23 10be 4e47 f23d 82e8 b8b9 ba53 22be
00000180: da5a 2b3e 33b9 7d3e 6758 74bd 7e7c 12be
00000190: e393 f13d 9865 573d 9485 2cbe 5283 0bbd
000001a0: a9d6 9d3d 0b0c 3d3d 9cb4 a63d 211f 98be
000001b0: 9ff5 143e ea9b 563c 9cd9 d0bd 72b7 40be
000001c0: ca45 95bd d4ca 5e3c 71bc 283e f997 3b3e
000001d0: ac32 90bd b10f 57bd d7c5 df3d 8e3d 6fbc
000001e0: ddd5 6ebc 31d8 80bd 4ed4 303d d2b8 243d
000001f0: 7ca1 323e 5211 523c 4e4f 023c c68f b7bd
00000200: c5fa 5bbe 333d 943d 0f81 8cbd e66c c6bd
00000210: 4272 50bd fd7e dfbc a6db 1fbd fde2 533e
00000220: 90e3 723c e15f 7bbd b110 90bb 4044 623e
00000230: bc4f f3bd ce73 85bd aa91 b73c 5c41 ca3c
00000240: e969 57be 9985 1dbd 30ef 0cbe 8177 c7bd
00000250: a70c 703d 57b4 933d b66a b8bd bda3 3dbe
00000260: bd49 d6bd 486d 643e 210a f13d 9c32 7dbd
00000270: 3feb 0c3d 7d04 e23d feb4 2fbe 167e eebd
00000280: 76ed 033e b713 eb3c be95 4bbc f2be 68be
00000290: 3a68 8a3c adfe 4a3e 15f8 f1bc 828b 863d
000002a0: 2e1c c3bc fb3c 99bd d5a4 d6bd ff9d ae3d
000002b0: 032d f83c a1a0 9ebd d06f 80bd 6e5f 833d
000002c0: 34c4 f0bd 81a0 e93d a54d 70bc 73b5 533c
000002d0: 8441 21be 8ea0 9ebd 4a7e 1f3e f3bc 3c3e
000002e0: 2ca4 0cbc db7e 0fbe 9492 6ebd e181 26be
000002f0: 04e4 18be 86bd 0dbc 5a37 1fbc 8936 32bd
00000300: 61dc 8f3d a70c 50bd af15 443e 0d57 abbd
00000310: 6488 a83d b55a 183e e154 0d3e 04f4 463d
00000320: 7e39 f13d 3327 ad3d 8239 48be 516b 7dbc
00000330: 52f9 11bd 016e 4cbc d558 a4bb ddf5 2bbe
00000340: 06b7 dc3d fede 1b3d b790 fa3d c118 563d
00000350: f6bc 60bd d3b1 17be 0159 1b3d cb78 513c
00000360: ab23 0d3e 41d4 203d 390b 483d eed5 16bd
00000370: 9270 023d 4bca e23d bbff dc39 47a1 55bd
00000380: eaf6 ae3d dfe8 1fbe 25de 303b df76 97bd
00000390: e3ba 043d ac60 c33b a0a1 16be f2da 013e
000003a0: ce15 38be ad68 c5bd 75cd 093e 0a19 17be
000003b0: e9ab febd caef e43b 5788 0fbe 0901 d6bd
000003c0: c1da a43d c8a8 4d3e 4566 1c3d 27df 7f3e
000003d0: aa70 00be 57c2 d73d ce2a e2bb 32c1 273d
000003e0: cf82 78be 0345 abbc be63 f3bc a759 c4bd
000003f0: 78d0 183e 129d 80bd 908e 1abe a780 683e
-0.007735719 -0.0740747 0.058782425 -0.008711234 -0.08677036 0.14084338 0.26636592 0.053305518
0.12355576 -0.15865786 0.053256914 -0.012132742 0.0531646 -0.12251349 0.045720015 0.20964395
0.001230217 -0.01674029 0.17203908 0.16418305 0.020169523 0.20278105 -0.024811624 0.061591353
-0.13772985 0.022443537 0.14188023 -0.055292953 -0.015888505 -0.024611628 -0.029660404 -0.093058206
-0.04661587 -0.08005219 0.05267482 0.16314027 -0.08038833 0.14700025 -0.038116176 0.3166109
0.06017255 -0.21750312 0.02843593 0.057677448 0.124517426 -0.08942891 0.02161153 0.11065761
-0.1435059 0.05317751 0.02544724 -0.00599986 0.07449976 -0.17703824 -0.235297 0.1719463
0.07479555 -0.06136401 0.11967347 -0.15070768 -0.20296748 0.03697549 0.13627751 -0.2368365
0.09768075 0.1507102 -0.27387533 -0.10864292 -0.04306294 0.054589447 -0.021600714 0.11235294
0.042195838 -0.062382303 -0.13402152 0.031469606 0.010522728 0.017111273 0.027679076 -0.008923289
-0.15547831 0.0018412112 -0.009145434 0.058756337 0.0019887392 0.08080213 -0.14281471 0.01501181
-0.04705308 0.18173134 0.09742168 -0.21665183 -0.14075868 0.118300065 -0.00035268447 -0.15852252
0.16733876 0.24777679 -0.05965462 -0.14305303 0.11795785 0.05258712 -0.16847831 -0.034060784
0.07706959 0.046154063 0.08139917 -0.2971125 0.14546822 0.013098696 -0.10197756 -0.18819979
-0.07288702 0.013598163 0.16478135 0.18319692 -0.07040915 -0.0525052 0.10926407 -0.014602078
-0.014577356 -0.06291235 0.04317122 0.04021532 0.17444414 0.012821512 0.007953478 -0.089629695
-0.2148238 0.07238235 -0.068605535 -0.096887395 -0.050890215 -0.027282232 -0.039027832 0.20692058
0.014824763 -0.061370734 -0.004396521 0.22096348 -0.118804425 -0.065162286 0.022408325 0.024689369
-0.21036495 -0.038457487 -0.13763118 -0.097395904 0.058605816 0.072121315 -0.090047285 -0.18519492
-0.10463283 0.22307312 0.1176951 -0.061815843 0.034404036 0.11036012 -0.17158887 -0.11645143
0.12883553 0.028695924 -0.012425838 -0.2272909 0.016895402 0.19823714 -0.02953724 0.06569578
-0.023817148 -0.07482334 -0.10480658 0.08526229 0.0302949 -0.07745481 -0.062713265 0.06414686
-0.11756173 0.11407567 -0.014666949 0.012921679 -0.15747648 -0.07745467 0.15575519 0.18431453
-0.0085840635 -0.14013235 -0.058245257 -0.16260482 -0.14930731 -0.008651143 -0.009717787 -0.04350904
0.07024456 -0.050793316 0.19148897 -0.08366213 0.082291394 0.14878352 0.1380191 0.048572555
0.11778544 0.08454742 -0.19553187 -0.015467481 -0.03563816 -0.012477399 -0.0050154724 -0.16793008
0.107770965 0.03805446 0.122346334 0.0522697 -0.054867707 -0.14813928 0.037926678 0.012785147
0.13783138 0.03926492 0.048838828 -0.036825113 0.031845637 0.110737406 0.00042152204 -0.05215576
0.08543189 -0.15616177 0.0026987877 -0.0739572 0.03240479 0.005962452 -0.14710093 0.12681177
-0.17977068 -0.09639106 0.13457282 -0.14755645 -0.12435133 0.006986593 -0.14016853 -0.10449416
0.080495365 0.20083916 0.03818347 0.2498747 -0.12542978 0.10535114 -0.0069020754 0.04095573
-0.2426865 -0.02090693 -0.029710647 -0.09587412 0.14923275 -0.06279959 -0.15093446 0.22705327

F.linears.2.bias f4 [10]
00000000: d9c2 983c 02dd d1bd f569 043d 6ef4 adb9
00000010: d4e9 3abd b941 74bd 7ba3 843c 9ca9 aa3d
00000020: aaa3 993d f80c bf39
0.018647598 -0.10247232 0.03232761 -0.00033179246 -0.045633152 -0.05963299 0.016191235 0.08333132
0.075019196 0.0003644002

G.0.linears.0.weight f4 [32, 10]
00000000: 0d51 8fbd f4a4 03bd e81d 993d 58f6 b63d
00000010: 1c2e 6fbd e76b 22bc 97b5 d73d 4008 453e
00000020: e3a8 1cbd d55a c7bd 481a e53d 71c0 26bd
00000030: 5beb 4fbe a3e8 453d e449 63be e629 31bb
00000040: ed0a 2e3c 53ec 00be b68c 84bd 96bf df3c
00000050: d06b de3c 2d68 a73d 4255 5a3d 925b e5bd
00000060: 951d fe3d 0c5c 463e 8dea 02be dccd efbd
00000070: 841c 703c ad3d 80bb 8650 133e 043e 643d
00000080: 73d7 ee3d 0b4e 91bd f70c 39be e419 fcbd
00000090: a0c5 0fbe f57f 753c aa30 173d 6e88 51bd
000000a0: b358 e93d 3870 143e 0c4f 1bbc ef35 90bc
000000b0: a9d2 0b3e 8d2b b33d a425 1fbe 1b70 08be
000000c0: e651 f63d b584 edbc aaa4 3e3c 2608 913d
000000d0: 2b18 503e 0c26 06be ca3a dd3d 7c55 08bc
000000e0: d972 79bd 48f2 703d 7cde fdbd 827c 2dbe
000000f0: a075 603e adc5 ca3d 712c a33d d274 36be
00000100: 743f 303d 9b89 37bd ad16 683d f063 9cbd
00000110: 1c4b cebd 0bc9 bdbd 6c6c 253c d162 703e
00000120: 9610 1f3d d36b 5abd eb70 f23d 6c01 32bd
00000130: ddaa 72be e4d8 693d fdf7 da3c 79bf 3dbd
00000140: da51 99bd 863c 3f3e 68cd 5c3e a536 59bd
00000150: 1631 223e 285f 383c ccc9 9d39 40e2 67bd
00000160: 20a5 84bd 69ce cabb f874 8a3d e587 1abd
00000170: 1263 fbbc fe34 163c 0480 32bd c090 a1bd
00000180: d999 4a3e 6911 14be 930e babc f3ee 413e
00000190: d41e ad3d 5308 613d 7757 7d3e bcfa 90be
000001a0: fb56 883e 7104 193e 47d5 ab3b 1d90 a63c
000001b0: 5154 bc3d 4782 cebd 661a 6ebe 5f9f 28be
000001c0: 745b 5abd d044 dd3d 22f0 a9bd 2faa 1bbd
000001d0: b2b1 c13d 8c2b f4bd 7c62 d83c 35cd 3e3e
000001e0: 56e9 14be d95b a3bd e499 57be b0c9 eb3c
000001f0: 63a7 32be bb2e 3bbd 0369 583d 179d d7bd
00000200: 7118 e4ba 4df4 d23d e376 4b3e 6d1e 883d
00000210: 94c3 a93d e4d0 21bd d5b9 0abd 2524 163d
00000220: 94ea 01be bb44 b0bd f5ed 7dbe ec8d b73d
00000230: 1bec d9bc 54e0 c03d ad70 963d 03eb 07be
00000240: 1180 283e 52a0 4b3d 5069 9fba 3581 4b3d
00000250: 5935 1d3e c451 acbd a531 96bd f1b9 86bd
00000260: ab67 54be 03ad 103d 1725 213d d08a bbbd
00000270: 07f9 3b3e 798e 2d3e 3422 903e d3ad af3e
00000280: 2962 babc cb8d c2bd 8153 483d 23e8 273e
00000290: 99ae b2bd 5e71 493c c1b0 2a3e a2ff 4c3e
000002a0: 2f8a 293e cf75 9b3d a5af 93bd 5ca7 80bd
000002b0: 2bfc b0bd afbf ca3c 5240 8e3c 6650 98bd
000002c0: 9882 093e 2c81 3a3e 7dbc 96bd 031b 253d
000002d0: 2bdb 1b3e 329f 433e 9038 2f3e 1908 76bd
000002e0: d9da 373d 21ae 0a3e 83d9 f8bd af75 dbbb
000002f0: 0f70 ad3d 3156 65be 98a2 f0bd b6fc a9be
00000300: e94c 35be da49 123e e974 2ebe e027 2cbe
00000310: dbd4 843e 3c2a 9b3d 97ba cfbd b9dc e73d
00000320: 67b1 2fbe f6c9 1cbe 6c19 dbbd 7371 543e
00000330: 970a bdba 7ad0 e3bd 1a6e a9bd 1d67 89bd
00000340: c221 f6bc 7575 9d3c af30 64bd 825b 70bc
00000350: a8c5 35be da08 2a3d b9e1 07be 6dbf a4be
00000360: 8b2a a53c 809b e4bd d261 323e 0774 723d
00000370: a837 d7bd 3da8 0a3d 5ce1 1c3e 5615 74be
00000380: 75d4 33bd 6b4a 523e 25c1 39be 4ebb 0fbe
00000390: 034b 40ba 1ceb f3bd aa62 763e e487 cb3e
000003a0: 0787 0b3e 3a41 4cbe 5ea0 00be 8c97 9f3d
000003b0: dfcd 783c db1b 043d 5e60 bebc 83db 4e3d
000003c0: 9578 333d c517 0fbe 3c08 273d 7e87 8f3e
000003d0: bc1e 53be 2393 2abd 2173 cb3d 5e09 083e
000003e0: 2ad6 133e 2ce1 9fbd 1c86 00bd a877 15be
000003f0: 5d09 efbd b111 0d3e 35ba 90be 0923 2ebe
-0.06997881 -0.032139733 0.07476407 0.08933705 -0.058393583 -0.009913421 0.105326824 0.19241428
-0.038247 -0.09734122 0.111866534 -0.04071087 -0.20304625 0.048317563 -0.22196156 -0.002703303
0.010622722 -0.1259015 -0.06472151 0.027313035 0.027151018 0.08174167 0.053303964 -0.11199106
0.12407986 0.1937105 -0.12784787 -0.117091864 0.014655236 -0.0039136023 0.14386186 0.055723205
0.116621874 -0.07094964 -0.18071352 -0.12309626 -0.14040232 0.014984121 0.036911644 -0.0511555
0.11393871 0.14495933 -0.009479295 -0.017603843 0.13654579 0.08748541 -0.15541703 -0.13324015
0.1202734 -0.028993944 0.011635939 0.07081632 0.2032172 -0.13100451 0.10802229 -0.008321162
-0.060900543 0.058824807 -0.12395951 -0.16942027 0.2191987 0.09900985 0.07967461 -0.17818001
0.043029264 -0.044808965 0.05666225 -0.07636249 -0.1007292 -0.092668615 0.010096651 0.23475195
0.038834177 -0.053325485 0.11837944 -0.043458387 -0.23697992 0.05709161 0.026729578 -0.04632518
-0.07486315 0.18675432 0.21562731 -0.05303063 0.15839037 0.011253156 0.00030095724 -0.056612253
-0.064768076 -0.006189157 0.06760591 -0.037727255 -0.030686889 0.009167908 -0.043579116 -0.07888937
0.1978525 -0.14459766 -0.022712028 0.18938808 0.084531456 0.05493958 0.24740396 -0.28316295
0.2662886 0.149431 0.0052439305 0.02033239 0.091957696 -0.10083442 -0.23252258 -0.16467045
-0.053309873 0.108041406 -0.08297755 -0.038004097 0.09457721 -0.119223684 0.026414149 0.18632968
-0.14542136 -0.07976503 -0.21054798 0.028782696 -0.17446665 -0.045698863 0.052834522 -0.105280094
-0.0017402304 0.10300503 0.1986957 0.06646428 0.08289257 -0.039505854 -0.03386863 0.036655564
-0.1268714 -0.08606859 -0.24797805 0.08962616 -0.026601842 0.09417787 0.0734571 -0.13273244
0.16455103 0.04971344 -0.0012162123 0.04968377 0.15352382 -0.08414033 -0.07333688 -0.06578434
-0.20742671 0.035321247 0.039342012 -0.09157336 0.18356715 0.1694888 0.28151095 0.34312305
-0.022751885 -0.09499701 0.04890776 0.16397147 -0.08724708 0.012295095 0.16668989 0.20019391
0.16556619 0.075908296 -0.07211236 -0.06281921 -0.08641847 0.024749605 0.017364655 -0.0743721
0.13428724 0.18213338 -0.0736017 0.040308964 0.15220325 0.19103697 0.1711142 -0.060066316
0.044886444 0.13542987 -0.12150862 -0.0066973786 0.08468639 -0.2239616 -0.11749762 -0.33200616
-0.1770512 0.14285985 -0.17036785 -0.16812086 0.25943646 0.07576415 -0.10143011 0.113213964
-0.17157517 -0.15311417 -0.10698208 0.20746402 -0.0014422712 -0.11123748 -0.08272953 -0.067091204
-0.030045394 0.019221047 -0.05571049 -0.014670255 -0.17751181 0.041512348 -0.132697 -0.32177296
0.020161888 -0.11162472 0.17420128 0.059192684 -0.105086625 0.03385185 0.15320343 -0.23836264
-0.043903787 0.205362 -0.18140085 -0.14036295 -0.00073353964 -0.11910078 0.24061075 0.39752114
0.13625728 -0.19946757 -0.12561175 0.07792577 0.015185802 0.032253128 -0.02323931 0.05050231
0.043816168 -0.13973911 0.040779337 0.2803306 -0.20617193 -0.041644227 0.099340685 0.13284823
0.14437166 -0.0780662 -0.031377897 -0.14596426 -0.11671708 0.1377628 -0.28267065 -0.17005552

G.0.linears.0.bias f4 [32]
00000000: 5c32 adbb bb79 a7bb cb9b 5fbc 45c8 a8bc
00000010: 33ea fbbb 4c9c f939 4dad b7bd 7e93 4ebd
00000020: 3bde 913c f22f 67bd ec92 52bd 7a39 343d
00000030: ff1c 28bd 4850 26bd 5197 05bd 4c37 943d
00000040: d6a0 193e 755e 033e 9491 dbbd a187 b23c
00000050: 1cac da3c 8616 123e 775d 3ebe 56da c6bc
00000060: 4099 3a3e df1f d43d c516 acbc acee c23d
00000070: c90c 92bd 622f 10be 32ee 8abc eceb 093c
-0.0052855443 -0.005110947 -0.013647984 -0.020603308 -0.007687831 0.0004760943 -0.089686014 -0.05043363
0.017806163 -0.05644221 -0.051409647 0.044000126 -0.041043278 -0.040603906 -0.03261501 0.072371095
0.1500276 0.12829001 -0.10721126 0.021793189 0.026693396 0.14266405 -0.18590342 -0.024274033
0.18222523 0.103576414 -0.021006951 0.09518179 -0.07131345 -0.14080575 -0.016959284 0.008418065

G.0.linears.1.weight f4 [32, 32]
00000000: 14d9 6b3c 29a9 4a3c 3773 c5bc 73cc 7c3d
00000010: 65b0 aa3d 4348 c23e 0853 eabd b4a6 0a3d
00000020: c402 b13d 2a02 54be 0312 163d 8ee1 dcbd
00000030: 984d b5bd df6b c73d 6c00 26be 5545 61bd
00000040: 190c ab3c 66f4 d0bb ace2 b23d 9242 8fbd
00000050: 143a 5dbd 3bf9 803d 4e47 1e3e ed4a 943d
00000060: 8519 a83d 4a1d de3d 4fa8 713e 9c29 fe3c
00000070: 4b4b 5f3e 2d44 a4bc d109 743d 771b 573d
00000080: e8fb dabc 5bda 603d 897d a43e 7117 1d3e
00000090: 1c6a 1f3e 1790 8ebc b4ac 93bd ad73 3a3e
000000a0: a385 b93c 6128 abbc 25a2 173e 9e39 d73b
000000b0: 2c13 d9bd a18b 09bc 0b64 fe3d 534e bcbd
000000c0: 45ed 32be 85a5 28bd 6754 cabc d51a 77be
000000d0: 3ee8 f6bd 170c 013d cc34 95bd 02a9 d6bc
000000e0: 3ccb 81bd 878c 63bc f90f 853e 08c4 adbd
000000f0: 4435 1e3d 8271 783e 45f1 d6bd 3be4 90bd
00000100: 1636 8ebe 8123 c5bc 8cfa a13d da2e a43d
00000110: 2450 1a3d a45d c33b f643 053e df83 5e3e
00000120: d94b d43d b0da 7abb 52da b93d 7d7d 87bd
00000130: 30b9 c0bb e58b 01be 81fa fa3d c57e 3e3d
00000140: 3d66 83be e094 5fbe d1d0 103d 65c4 a0be
00000150: a346 2fbd 1806 dd3c 957c 1a3e 0103 033e
00000160: 3d38 b6bd 6e53 c2bd 9d96 9e3d e1b2 d8bd
00000170: 2f84 563e cab9 863d 8dd0 9cbd 95e7 a5bb
00000180: 7448 1c3e 1c68 e4bd 4e09 b13d cc1c 973d
00000190: 3f20 133e 1c17 a43d fce6 67bd e156 fb3d
000001a0: 5c2e d43d 069a c6bb bab6 b73d f3d0 82be
000001b0: 0367 70be e9a2 143e bc85 313e 4c6c fdbd
000001c0: 405f 07be 439f 66be 360f 143e b928 65bd
000001d0: b310 87bd c38d 8abe 7149 6f3d c6af 973d
000001e0: 2045 6cbe 348a 243e 6394 393e 9056 f2bc
000001f0: d71a 043d ae16 983c c9e2 17be 6869 8abe
00000200: 9012 8f3d 2664 1d3e 1189 f4bd bf43 49be
00000210: 77f1 83be e49b 1cbe 8092 713b 3898 0fbe
00000220: b327 303d 3816 d43b 6865 28be 58bc 233e
00000230: bec3 8b3c 5cc1 5fbc 0188 8ebe 548d f13d
00000240: 0d65 273e d172 38be 4f62 8c3c b8ed 3b3e
00000250: 4aa8 2b3d 11a2 2d3e cac3 99bd 191c 4cbe
00000260: dd7f 883e 1764 233e c425 89bd a914 343e
00000270: 61a3 983d 2cc2 8fbe cdc0 7a3e a330 2f3e
00000280: c20e e53c 7209 4abc e2d8 403e 9f95 5f3e
00000290: 54ea 753d 11ca 273e d225 96bc d558 15be
000002a0: 7892 7a3e 6131 2e3d c83f 063e 2f24 9abd
000002b0: da21 29be e0b2 6e3d a4d2 073e 89b3 b13d
000002c0: b2c5 db3c b014 90bd 8291 373e 8e6f f4bc
000002d0: dce3 113d 3eac 173d a80e c43c f0da 433e
000002e0: 9ba2 b4bc 0cb7 8bbd ca6c 343e f14f 8abe
000002f0: 4fec 1d3d 543c 733d 1df5 22be 774c e23c
00000300: 900e 6fbd 5bc7 a1bd ea5a acbd 45d8 48bd
00000310: 278a 713e ea02 ac3d a805 f83d 234c 9d3d
00000320: aa36 0a3e de29 05be 4d46 533c 35b2 98be
00000330: 1c4b afbd 04b3 133d c7db 5e3e d8da 02be
00000340: 7fa9 c1bd 8b9b 72be 561b a83d 5d1a 20be
00000350: 6bd8 26bd f24b 3fbe c021 513e 7418 da3d
00000360: 8aec 9bbd 551a 133e f5e3 953d 5c35 a9bd
00000370: 13f5 b7bb 0e12 383e 5b97 bcbd ab2c 18bc
00000380: 2196 563c 9c54 813c 032d 81bd 5c9b ee3d
00000390: ec3e 0a3e 98e5 e1bc b7c6 17bd cea1 683d
000003a0: 0854 043c 9a81 8abd 8688 57bd 9208 f23c
000003b0: 8ea3 01be 83ae bd3d 81ce 313d ed48 433e
000003c0: 677b fcbd 73b5 123d e3e5 823c f12e 07be
000003d0: 00a3 32be 3758 54be e836 0c3d f015 44bd
000003e0: cfd5 c63c a710 0d3e 79dc 843d d806 b3bd
000003f0: e0c4 913d 1a24 3bbb b7ca bfbd 1ded 13be
0.014395017 0.0123694325 -0.02410279 0.061718415 0.08334426 0.37945756 -0.11441618 0.033850387
0.086431056 -0.2070395 0.03663827 -0.10785209 -0.088526905 0.09737372 -0.16211098 -0.05499776
0.020879792 -0.006376791 0.087346405 -0.06995119 -0.054010466 0.06297537 0.15456888 0.072408535
0.082079925 0.1084543 0.23599361 0.0310257 0.21806066 -0.02005204 0.059579674 0.052516427
-0.026731446 0.05489574 0.32127026 0.15340973 0.15567821 -0.017402692 -0.07210675 0.1820819
0.02264673 -0.020893278 0.14807947 0.006568148 -0.1059936 -0.0083951065 0.124214254 -0.09194627
-0.17473324 -0.041173477 -0.02469845 -0.2413133 -0.120560154 0.03150567 -0.07285461 -0.026203636
-0.06337592 -0.013888485 0.2598875 -0.084846556 0.038625017 0.2426205 -0.10495237 -0.070747815
-0.2777564 -0.024064781 0.07909116 0.08016749 0.037674084 0.0059620906 0.13014206 0.21729992
0.10366029 -0.003827732 0.090748444 -0.06615732 -0.005881451 -0.12651022 0.12254811 0.046507616
-0.2566394 -0.21834135 0.035355393 -0.31399837 -0.042791974 0.026980445 0.15086587 0.12794115
-0.08897445 -0.09488569 0.07743571 -0.105809934 0.20948862 0.06578405 -0.076569654 -0.005063007
0.15262014 -0.1115267 0.08644353 0.073785394 0.1436777 0.0801222 -0.05661677 0.1227243
0.10360405 -0.0060608415 0.08970399 -0.2555004 -0.23476796 0.1451527 0.17336172 -0.123741716
-0.13219929 -0.22521691 0.14458928 -0.05594704 -0.06594982 -0.2706128 0.05841965 0.07406573
-0.23073244 0.16068345 0.18123011 -0.029582292 0.03225216 0.018565502 -0.14832605 -0.27033544
0.069859624 0.15370235 -0.11940206 -0.1965475 -0.2577016 -0.15293843 0.0036861002 -0.1402291
0.04300661 0.0064723752 -0.16444933 0.15989816 0.01706111 -0.01365694 -0.27838138 0.11794534
0.16347142 -0.18012549 0.017136721 0.18352401 0.04190854 0.16956355 -0.07508047 -0.19932593
0.26660052 0.1595615 -0.06696656 0.17586006 0.07453037 -0.2807783 0.2448761 0.17108397
0.027961139 -0.0123313535 0.18832734 0.2183442 0.060037926 0.16385676 -0.018328581 -0.14584668
0.24469936 0.04252756 0.13110268 -0.07526433 -0.1651682 0.058276057 0.13263947 0.08676822
0.026827667 -0.07035196 0.179266 -0.02983835 0.035617694 0.037029497 0.02393277 0.19126487
-0.022050193 -0.06822023 0.17619625 -0.27014115 0.03855544 0.059383705 -0.15913816 0.027624352
-0.058363497 -0.07899352 -0.08415778 -0.049034376 0.23587857 0.08398993 0.12110454 0.076805376
0.13497415 -0.13004252 0.012895179 -0.2982346 -0.08559248 0.036059394 0.21763526 -0.12778795
-0.09456157 -0.23692147 0.08208339 -0.15635057 -0.040733736 -0.18681315 0.20423031 0.10649195
-0.076134756 0.14365514 0.0731887 -0.082621306 -0.005613932 0.17975637 -0.09208556 -0.009287993
0.013097317 0.015787415 -0.063074134 0.11650726 0.13500565 -0.0275753 -0.037054744 0.056794934
0.008076675 -0.06763001 -0.052620433 0.029545102 -0.12660047 0.09261801 0.043409828 0.19070788
-0.12328225 0.035817575 0.01597876 -0.132015 -0.17444992 -0.20736776 0.03423205 -0.047872484
0.024271874 0.13775884 0.06487364 -0.0874154 0.07117629 -0.0028555454 -0.09364837 -0.1444592

G.0.linears.1.bias f4 [32]
00000000: b00e 39bd 1ef5 fabb 3a86 40bd 7839 7ebd
00000010: 5e93 2c3b 5602 3dbd af0f 03be bb09 023d
00000020: cdab e03c 8c63 dcbd 0859 813c 6829 be3b
00000030: af8a bcbd 4329 cb3d 844a 35bd 81b7 2a3d
00000040: 3a4b e63a 203f 46ba 69a2 93bc 25fe dc3d
00000050: bafb e53d 3d02 0f3e 346d 3cbd 0b4f 90bd
00000060: 6e59 0bbd 0934 263c 3c62 4d3c efac e73d
00000070: 02f6 d03d 2a58 aabd 940e 8d3d b2ae 263d
-0.045180023 -0.007658615 -0.04700301 -0.062066525 0.0026332955 -0.046144806 -0.12798952 0.03174756
0.027425671 -0.107611746 0.015789524 0.005803276 -0.09206139 0.099199794 -0.044260517 0.04167891
0.0017570027 -0.0007562507 -0.01802178 0.10790662 0.11229654 0.13965698 -0.04600258 -0.07046326
-0.034020834 0.010144242 0.012535628 0.11312281 0.10203172 -0.08317597 0.06887546 0.040693946

G.0.linears.2.weight f4 [10, 32]
00000000: b732 16bd ab02 45bd 8942 063e c8bd 9a3d
00000010: 6b25 04bd 2ffd b13d faa2 973d 7f2e 0d3d
00000020: 7551 7f3e 0041 e3ba a8c3 d63d 22e1 80bd
00000030: f3bb f53d 124e a33d f6e2 26be 21fe e4bd
00000040: f1d8 27be e998 c1bd 9a32 54be 2d83 ed3c
00000050: 6d45 bf3c ed06 d5bd 58e7 b1bd 0536 853e
00000060: dc95 39bd 4944 c4bd 4e8a 9b3b 9aed 133e
00000070: 60e2 253e fe37 813c 2ea2 813d d0c8 babd
00000080: 9751 5abe d4da 10bc 18d2 10be 3e50 c2bd
00000090: 82dd e53d 583a 14bd 2fe5 393e 75aa 05be
000000a0: fd6e b43d 65aa 70be 7664 e43d f1d7 cabd
000000b0: 065d 67be 48f7 5b3d c86a 763d 6a24 123e
000000c0: cb6b 623d ff5a bbbd dea8 643e e600 0e3d
000000d0: 26a4 c6bc fda5 ec3d 477f b53c 4231 8cbd
000000e0: 05de 083d 228a 73be cd0e 06bd 7a03 243d
000000f0: ec36 823e f266 b7bd cef0 a03d 368d d1bc
00000100: 8e0e c7bd ef91 8cbe 8d90 49be bb6c 2dbe
00000110: 3768 3a3e 3ad3 76bd fe27 85be 6d14 6fbd
00000120: b668 10be ae78 dfbd 2d05 fe3d 9789 03be
00000130: dee9 9ebe a12c b53d c54a d33d ab11 4cbe
00000140: 43ad 113e 390e d43d 2e42 453e fddd 953d
00000150: a4be 0a3e 4236 4a3e 8434 2ebb e02f 9dbd
00000160: bc55 a3bc 8d2e 26be bec8 393d 3f5b bd3d
00000170: 77b2 7c3d 0be8 77be dd4d 9f3d e1fb 9b3e
00000180: 9f99 b83c 16a4 823d 756d 593a d8bc 75bc
00000190: 6d37 013e 22e2 61be b218 7a3c aa39 863d
000001a0: aefb 5dbb 0cad d5bd 53d8 55bd d8ba 9fbd
000001b0: 7cbe 3dbd 8a36 1ebd 6223 a83d 4fd4 693c
000001c0: 2b3c ff3d 0a98 f53c 111e b93d 5313 4e3e
000001d0: fdec 9f3d 914e 233d 8df2 753c 4701 843b
000001e0: dd45 8dbd 51bc a0bc 7bf3 d33c 1e0e 383e
000001f0: 9f30 7c3e f742 433e e8ec f83a f95c 2f3d
00000200: 0750 8f3d 768e 8e3c ceb4 84bc d7f5 363c
00000210: d7af f83c bf40 4dbe 102d 3dbd cb3a 81bd
00000220: a071 4ebc edfc 17be 1c0c 2d3d 8d7c 1d3e
00000230: deca 56bd b832 203d bc64 0c3d 5f1f 87bd
00000240: 3153 463e 9945 7b3d 5e4a ad3d 6b47 e23c
00000250: 18a1 3f3d 16fb 043d 2a0e 303e 8182 cabc
00000260: 5cbf 043e 6320 1fbd 32e0 0a3e 747f 4dbd
00000270: 36cd 083e 8143 bfbd e903 a03d 3727 dc3c
00000280: d2f6 b7bc b200 cdbd 4f59 b73c 39b5 86bd
00000290: 9c44 24be 0a25 c3bc 99e9 f7bc c8c2 f53d
000002a0: 5c88 cd3d 0864 43bd 89b7 95bc 043f 293d
000002b0: 2abf 97bd be05 f03d c3f1 4fbb fa12 f83c
000002c0: 67b1 1fbe 5b9e 62bd 56fb 08be a481 d2bc
000002d0: d9c9 6dbd 6a14 ed3c 8e22 9abd c7f0 063e
000002e0: 6bee 93bd fb96 3bbd 4608 6d3d 3293 7d3d
000002f0: 85bc 25be 19b1 b8bd 2868 aa3d 8e48 4abd
00000300: 0610 11be aebc 56bd bb5a df3d cd7d 0c3e
00000310: 948c 9abd fcd0 9b3c 9939 80bc aa67 57bd
00000320: 16a3 08bd 37db c7bc c719 c1bc 14a3 fabd
00000330: 86e2 433d c568 f53d 9c56 43be b0f4 113b
00000340: c9b0 243d 2c1b 1a3e b698 95bb 9952 39be
00000350: f8b8 b73d b761 283c 74d4 3dbe 3614 ef3d
00000360: ae75 153e bb4e 14be fe66 87be ac97 1f3e
00000370: 28a1 6dbc 7b4d 623d c0f4 ce3c 097f 04be
00000380: 1056 91bd e49b aabd 84ff cebb a3f4 54be
00000390: 1c43 74bd 3728 62be 42a5 243d bce3 763d
000003a0: d411 aebc 4840 33be 5c53 5b3e 11b5 2c3e
000003b0: d7a8 9ebd b748 cd3c 1cf1 013d 813a 873d
000003c0: c861 2c3e 4bc6 503c fd77 153e dff0 16be
000003d0: 2453 37bd bf57 333e 4f67 7e3e daf9 be3d
000003e0: 7ff2 b8bd 9d00 c5bd fe2d ee3d 3ada e1bc
000003f0: ad9f 383e a870 1ebe a543 153e 211b 933d
-0.03666946 -0.048098247 0.13111319 0.07555729 -0.032262247 0.08690869 0.07404132 0.03446817
0.24933417 -0.0017338097 0.10486537 -0.06292941 0.11998739 0.07973875 -0.16297516 -0.11181284
-0.1639135 -0.094529934 -0.20722428 0.028993214 0.023348534 -0.104017116 -0.086867034 0.26017776
-0.045308933 -0.09583337 0.004746712 0.14446107 0.16199636 0.01577377 0.063297614 -0.09120333
-0.21320187 -0.008841235 -0.14142644 -0.09487961 0.1122389 -0.036188453 0.18153833 -0.13053305
0.08810232 -0.235025 0.11151974 -0.09904469 -0.2259408 0.053702623 0.06016043 0.14271703
0.05527858 -0.091482155 0.22330043 0.034668826 -0.024248194 0.11555097 0.022155417 -0.06845333
0.03341486 -0.23783162 -0.03272896 0.040042378 0.25432527 -0.08955182 0.0785843 -0.02558003
-0.09719573 -0.27455088 -0.19684048 -0.16936009 0.18203817 -0.060260035 -0.26007074 -0.05836909
-0.14102444 -0.1091169 0.12403331 -0.12845455 -0.31037802 0.08846403 0.103169955 -0.19928615
0.1422625 0.10354275 0.19263527 0.073177315 0.13549286 0.1974726 -0.0026581595 -0.07675147
-0.019938342 -0.16228695 0.04535746 0.092459194 0.061693635 -0.24209611 0.07778523 0.30465606
0.02253419 0.06378953 0.00082942034 -0.014998637 0.126188 -0.22058919 0.015264677 0.06553967
-0.0033871937 -0.10433397 -0.052208256 -0.077993095 -0.04632424 -0.03862623 0.08209874 0.01427181
0.12462648 0.029979724 0.09038938 0.20124559 0.07808874 0.03986985 0.015011442 0.0040284726
-0.06898091 -0.019621046 0.025872936 0.17974135 0.24627922 0.19068514 0.0018991502 0.042813275
0.06997686 0.017401915 -0.016199496 0.011167011 0.030357284 -0.2004423 -0.046185553 -0.06310042
-0.0126003325 -0.14842577 0.042247877 0.15379544 -0.052439563 0.03911087 0.034275755 -0.065977804
0.19367673 0.06134567 0.0846145 0.027621945 0.04678449 0.032466017 0.17192903 -0.024720432
0.12963623 -0.038849246 0.13562086 -0.050170377 0.13359532 -0.09339047 0.07813246 0.026874168
-0.02245656 -0.10009898 0.022381453 -0.06577534 -0.16041797 -0.023821373 -0.030262755 0.12000042
0.10035774 -0.04770282 -0.018275993 0.041319862 -0.074095085 0.11719845 -0.0031729795 0.030282486
-0.15595017 -0.0553268 -0.13377127 -0.025696583 -0.058053825 0.028940398 -0.07526122 0.13177787
-0.07223209 -0.045798283 0.05786922 0.061907955 -0.16185196 -0.09018154 0.083206475 -0.0493856
-0.14166269 -0.052426033 0.10905977 0.13719864 -0.075463444 0.01902055 -0.015652465 -0.052589096
-0.033358656 -0.024396522 -0.023571862 -0.12238136 0.04782345 0.11982874 -0.19076008 0.002227109
0.040207658 0.15049428 -0.0045653237 -0.18097915 0.08970827 0.010277203 -0.18538076 0.11673777
0.14595672 -0.14483158 -0.26445764 0.15585202 -0.014503755 0.055249672 0.02526319 -0.12939085
-0.07096493 -0.08330515 -0.006317081 -0.20796447 -0.059634313 -0.22085653 0.040196665 0.06027578
-0.021248735 -0.1750499 0.21418518 0.16865946 -0.077470474 0.025059087 0.03172408 0.066029556
0.16834176 0.012742589 0.14596553 -0.14740323 -0.044757023 0.17513941 0.24844097 0.09324999
-0.090306275 -0.096192576 0.11629866 -0.027569879 0.18029661 -0.15472662 0.14576586 0.07182909

G.0.linears.2.bias f4 [10]
00000000: b81c a2bd a975 4fbc 30f3 133e 7469 a8bc
00000010: 08f0 173e d35f 94bd 6042 58bd bf8c ae3d
00000020: e8f2 7cbd 99a5 043e
-0.07915634 -0.01266233 0.14448237 -0.020558096 0.14837658 -0.072448395 -0.052797675 0.08522939
-0.06175509 0.12953795

L.0.linears.0.weight f4 [32, 20]
00000000: 9a70 b53d 9f37 8b3d 172a c6bc c84e 8bbc
00000010: 74e0 993d 8012 183e c7e3 af3a ae7a 25bd
00000020: 32b1 a23d d9f2 2d3d 796e f03c 069a 1a3e
00000030: c283 853e be2d 993c d95a 503d f766 023e
00000040: a08b debd 590e ccbd 6bb5 3cbe 78e3 88bd
00000050: e155 453e 5147 42be 3c11 893d 240a fabc
00000060: fbfd 0abe c30d 283c 10c0 0abe 0435 9fbd
00000070: 30b9 4a3d 1bc4 a43d a423 d63d 0b16 c93b
00000080: ecb3 c63d 1aeb d0bd 5b93 c33b e8fd cdbd
00000090: 2a33 0a3d ccca 18bd ba61 c7bd 0361 043d
000000a0: 9291 1b3e 9f13 f23d f553 a0bd 913f c2bc
000000b0: 0a9d 5ebe 39ad c53d fe8f 9d3d 60bb cabd
000000c0: 696f 64be f4dc 0cbd 9a62 773c da91 f23d
000000d0: 2b20 5c3e d04d 083d 617f 8c3d d648 523c
000000e0: c88c 663d 137a 79be 6008 5e3d 8c6e d33d
000000f0: 09b4 58bd e70f d7bd 0448 8bbc a1a1 783c
00000100: f2be f1bc 5ab5 ecbd 0767 873b 6cb6 ab3d
00000110: b005 713d c53b 70bd 16b1 33bd 221c 89bc
00000120: 7491 53be 9656 42be 3f58 3d3e d04b 0dbe
00000130: 0b7d 9dbd a68d f8bc 141a 403e f20e 9cbd
00000140: cd3f 90bd 38d6 f23c f34a da3d a06c 56bd
00000150: 6630 89bd 41f3 92bc ca9b 47bd a3c4 23be
00000160: 13da aebd 2449 bb3c 2907 9d3d 4da4 873c
00000170: 5c4f b93d d570 5ebb 142b c73c 88a3 0d3e
00000180: 3940 5dbb 6e2b 823c d64d 08bd 7b05 a0bd
00000190: 5db0 c9bd 9884 c8bd 3cb7 1fbe 8890 a7bc
000001a0: 41a7 c7be 69d6 1ebe b7e0 163e 9aac bc3d
000001b0: 8f32 bb3d f0d7 17bb bceb a0bd ea8c 3fbd
000001c0: 951d 07be fb7e e03c fc17 fabd 8fff aabd
000001d0: 10a7 67be 93f3 babd c4c2 c9bd 7192 1c3e
000001e0: 7072 3b3e 1e51 46bc 017b 43bd a15d f6bd
000001f0: c5ec 12be 8332 5bbe aae9 563e 5580 83bd
00000200: 7402 0f3d 06c9 c33c ccaa 8abd 3b96 f63d
00000210: 62c1 503e 02df 7bbd dce6 09bd 7cee 493d
00000220: eb1a 81bd 6d8b bdbd a61b 783d d0e1 4cbd
00000230: ada6 223d 4678 e53d 4ab5 dfbd e9f2 b5bd
00000240: 3010 dc3c 9529 bb3d f60b a33d 7331 f8bd
00000250: 887f 17be ffd7 a33c 6538 fc3c c1b7 d43d
00000260: 9fb9 2a3e fdf5 d63c 2528 023d d37a 6f3b
00000270: ba31 dbbd 3575 323e 03ba 61bd 41ed 313c
00000280: 03a2 47be ce4a bbbd 6cd7 493e fda8 333e
00000290: 290c 093d 5774 37bc 0c59 a3bd 6b8f 0d3e
000002a0: 198c 4e3d ac48 8a3c 70e9 523e 9e49 5b3e
000002b0: 492a b93d 2204 6a3d 7344 30bd 01ea 15be
000002c0: ca68 21be e04e c1bc ae00 96bd 213d 0e3d
000002d0: 4132 18be 4070 473d 5b0c 0a3e cffd 30be
000002e0: 2375 bdbb 4265 4cbd 61f6 09be cd85 f0bd
000002f0: 3f0a 5bbc bec8 7c3d 87ff 6a3e 1838 cfbc
00000300: 5237 34be c45f ccbc 5b13 81bd 9d68 643e
00000310: b9ed ce3c 92ed 8abc 10f6 0abe eff8 0cbd
00000320: 5fa8 5fbd 7fd0 2b3e 4a02 593d 5e9c 84bd
00000330: e6b0 133a 28fc cf3d e6e4 91bd 36e0 3fbd
00000340: 0d2c bebd 182c 29be f723 d5bd 72e2 b33d
00000350: 7604 1f3e 0330 01be 81ec 8bbd 0222 6dbd
00000360: b39f 5fbc c14c 0dbe 2421 173e cd95 b6bd
00000370: bdd4 91bd a88c 77bd 088a a13d be59 78bd
00000380: 3848 1ebd 4f22 c23d b5d4 76bd 294b 6fbd
00000390: 737a ea3d 9ab7 3b3e 0b3e 3e3c 9e31 63be
000003a0: 6b74 0ebe 439f 28be 9059 293e be62 7f3d
000003b0: b979 db3d 03b0 9e3d b7b4 413c a2cc f13d
000003c0: a723 aa3b 95b8 eabd f08f 7e3d d235 633e
000003d0: 67d9 a5bd d2c3 09be 8904 41bd 955b b0bc
000003e0: 28cf d33d 5dea 333d 58f7 babd 312d cfbd
000003f0: 90fd dcbd d0fa 323c b1a3 273c ba83 07bd
0.08859368 0.06797718 -0.024189992 -0.01700534 0.07513514 0.14850807 0.0013419323 -0.0404002
0.079439536 0.042467926 0.029349552 0.15097818 0.26077086 0.01869857 0.05086789 0.1273459
-0.10866475 -0.09963674 -0.1842858 -0.06684011 0.19271041 -0.18972518 0.0669274 -0.030522414
-0.13573448 0.010257187 -0.13549829 -0.07773784 0.049493015 0.08045217 0.10456017 0.006136661
0.09702286 -0.10201092 0.005968494 -0.100581944 0.0337402 -0.037302777 -0.09735437 0.03231908
0.1519225 0.11820149 -0.078285135 -0.023711951 -0.21739593 0.0965218 0.0769348 -0.0989902
-0.22308125 -0.034390405 0.015099192 0.11844225 0.21496646 0.033277333 0.06860233 0.012834748
0.056286603 -0.24362974 0.054207206 0.103238195 -0.05290607 -0.1050108 -0.017002113 0.015175254
-0.029509995 -0.115580276 0.004132155 0.083844036 0.058843315 -0.05865075 -0.043870054 -0.016737048
-0.20660955 -0.18978342 0.18490694 -0.13798451 -0.07689866 -0.03034098 0.18759948 -0.07620038
-0.07043419 0.029643163 0.10658827 -0.052349687 -0.066986844 -0.017938258 -0.048732556 -0.1599298
-0.08537688 0.022862025 0.07667381 0.016557837 0.0904834 -0.0033941765 0.024312533 0.13831913
-0.0033760204 0.01588985 -0.033277355 -0.07813545 -0.09848092 -0.09790915 -0.15597242 -0.02045466
-0.38994792 -0.15511478 0.1473416 0.09212609 0.09140503 -0.002316948 -0.07857463 -0.046765245
-0.13194878 0.027404299 -0.12211606 -0.08349525 -0.22622323 -0.09128489 -0.09851602 0.15290238
0.18305373 -0.012104301 -0.047724728 -0.12029577 -0.14348133 -0.21405987 0.20987573 -0.06420962
0.03491445 0.023899566 -0.06770858 0.12040373 0.2038627 -0.061491974 -0.03366743 0.049299702
-0.06303962 -0.09255109 0.060573243 -0.05002004 0.039709736 0.11204581 -0.1092325 -0.08884222
0.026863188 0.091387905 0.07961266 -0.12118807 -0.14794743 0.020000456 0.03078861 0.10386611
0.16672371 0.026240343 0.031776566 0.0036541715 -0.10702844 0.17427523 -0.055109035 0.010859788
-0.19495396 -0.09145127 0.19711083 0.17544933 0.033458862 -0.011197171 -0.07975969 0.13824241
0.050426576 0.016880356 0.20596862 0.21414801 0.090412684 0.057132848 -0.04303403 -0.14640047
-0.1576263 -0.02359718 -0.073243484 0.034726266 -0.1486292 0.048691034 0.13481276 -0.1728432
-0.005781786 -0.049901254 -0.13472892 -0.117442705 -0.013369142 0.06171488 0.22949038 -0.025295302
-0.17599228 -0.024948008 -0.0630252 0.22305532 0.02525984 -0.016958985 -0.13570428 -0.03441709
-0.05460393 0.16778754 0.0529807 -0.06475137 0.0005633965 0.10155517 -0.07123737 -0.046844684
-0.09285746 -0.16520727 -0.104072504 0.087834254 0.15529045 -0.12615971 -0.06832219 -0.05789376
-0.013648915 -0.1379881 0.14758736 -0.08915291 -0.07120655 -0.060436875 0.078876555 -0.06063246
-0.038643092 0.094792 -0.060261447 -0.058421288 0.114491366 0.18331757 0.011611472 -0.22186896
-0.13911597 -0.16467004 0.16538072 0.062350027 0.10716576 0.07748415 0.011822871 0.11806609
0.0051922384 -0.114609875 0.06214899 0.221885 -0.08098107 -0.13453606 -0.047123466 -0.021528045
0.10342246 0.043924678 -0.09129208 -0.101160415 -0.10790551 0.010924056 0.010231898 -0.03308461

L.0.linears.0.bias f4 [32]
00000000: a4ca 833c b249 813d cf80 53bc 8a92 513d
00000010: e17a 713d f65b ea3c 4c75 923d 5c27 943c
00000020: 50c8 cf3d e3dc adbd 6430 263d 93e8 0dbc
00000030: ccc5 16bc d0eb 1dbd 5355 913a f001 e83d
00000040: 36ca 413d 7523 f6bc 1940 043e d24e 8a3d
00000050: abe9 9f3d f519 a1bd e87a d13b f9c3 1fbb
00000060: c06d b6bc dc86 8fb9 1140 fcbd 2ac6 16bd
00000070: 49c3 593d 1a06 27bd 829c 07bd f796 c8bd
0.016087838 0.063128844 -0.012909128 0.05116514 0.058955077 0.028608304 0.07151279 0.018085174
0.101456285 -0.084893964 0.040573493 -0.008661407 -0.009202432 -0.038554966 0.0011088051 0.113284945
0.047311984 -0.030046204 0.12915076 0.06753315 0.078082405 -0.07866279 0.0063928254 -0.0024378283
-0.02226913 -0.00027375564 -0.12316907 -0.036810078 0.053164754 -0.040777303 -0.03310824 -0.09794419
